models/0_2023_2023/Spatial_GIN/15.pth (torch, 134066 bytes, 21 tensors)

conv1.nn.0.weight f4 [64, 12]
000000 5e 63 c8 3c ec dc 06 bd ae b9 37 bd 9e 46 ba bc
       0.024461444 -0.03292553 -0.044854812 -0.022738751
000010 a4 d0 ed bd 0e f3 22 bd 5d 9b e7 bc 33 65 94 bd
       -0.11612061 -0.039782576 -0.028272325 -0.07245865
000020 d4 55 a8 3d 6b 7f 79 bd 27 75 15 bd 35 35 4d bc
       0.082194954 -0.06091253 -0.03648868 -0.012524893
000030 5e 61 9b bd 67 fb 41 ba 76 bb 38 bd 17 8e a0 bd
       -0.07586931 -0.00073998276 -0.04510065 -0.078396015
000040 6e 8e 16 3b 64 cf a9 3d 77 ef bc 3c 8f 34 9e 3d
       0.0022973078 0.0829151 0.023063404 0.077248685
000050 aa 19 70 ba 89 e6 05 bd e4 97 9a 3d 9d 49 4c bd
       -0.00091590977 -0.03269056 0.07548502 -0.04987489
000060 d6 e1 53 be 7e d8 06 3f 8d 32 01 3f 87 51 65 bd
       -0.20691618 0.5267409 0.5046776 -0.055985954
000070 a8 05 72 be a8 1a 08 bd 17 4a a9 3c 82 dc 83 3e
       -0.2363497 -0.033228546 0.020665212 0.25754172
000080 82 9e 5d 3e 46 12 9c bd 75 0a bc 3c 2f d2 c9 bc
       0.21642497 -0.07620673 0.022954205 -0.024636356
000090 0d da 46 bd 7c c5 83 3e 39 02 24 3e 2e ec 91 bd
       -0.048547793 0.25736606 0.16016473 -0.07125126
0000a0 f9 c7 ed be c4 b5 37 3d d0 dd d2 3d ea 49 1f 3f
       -0.4644163 0.04485108 0.102962136 0.6222216
0000b0 d6 9a ed 3e cb fb 84 bd 5a e8 3c bd ec ee ad 3d
       0.46407193 -0.06493338 -0.046120025 0.08492836
0000c0 ae 0d c7 bd 95 6b 89 bd e6 88 fe 3c 9a fa 89 bc
       -0.09719406 -0.06709973 0.031071138 -0.016843129
0000d0 00 6a 11 3d 1f c3 ef bd 15 20 3c 3b f0 cc 27 bb
       0.03550148 -0.11707138 0.0028705646 -0.002560433
0000e0 1a c8 39 bd 38 e7 fd bc f3 29 ee bd 79 db 8c 3d
       -0.045356847 -0.030994043 -0.11629095 0.068777986
0000f0 34 23 67 be 2b 93 21 be 20 f1 42 3c f5 91 24 bd
       -0.22572023 -0.15778796 0.011898309 -0.040178258
000100 a2 30 cb be c0 5f 6b bd 63 23 d4 be 7a 7c 8d 3c
       -0.3968554 -0.05746436 -0.41433248 0.01727127
000110 52 bf 99 3e e7 78 a7 3e f3 df 93 bd 96 96 66 3e
       0.30028778 0.3270943 -0.07220449 0.22518381
000120 cc a3 25 bd d9 6e ed bd d4 b4 07 bd 90 ef c1 bc
       -0.040439412 -0.11593408 -0.033131436 -0.023673803
000130 26 21 8b bd 0a 7c 1f be bb 37 d0 bd c5 6c 84 3a
       -0.06793432 -0.15574661 -0.1016688 0.0010103217
000140 fe 16 52 bd f1 79 7e 3a c2 89 bb bd 95 0a 72 bc
       -0.05129146 0.0009707502 -0.091571346 -0.014773031
000150 3a 6d e8 be f3 9e 91 3d 2c f8 0c 3e 83 8b e7 bc
       -0.45395833 0.07110395 0.13766545 -0.028264767
000160 0c d5 99 be 7c 64 94 bc 5e 75 dd bd 18 c6 cd 3e
       -0.30045354 -0.018114321 -0.10813402 0.40190196
000170 a2 27 0c 3f 6d 01 bb bd c8 92 a4 bd ce 85 75 bd
       0.54747975 -0.09131131 -0.08035809 -0.05994206
000180 93 45 05 be 22 b8 2e 3f eb d1 31 3f 1e 2d 26 be
       -0.13014822 0.68249714 0.69460934 -0.16228148
000190 32 e2 85 3c f8 92 73 bd 70 ed 95 3e 36 18 62 3e
       0.01634321 -0.059466332 0.29282713 0.22079548
0001a0 60 9e 7a 3e c1 a3 3e be 76 bc 08 be 84 3f 7c 3d
       0.24474478 -0.18617155 -0.13353142 0.06158401
0001b0 0c 29 6d bc b8 47 93 bd f1 5f fd 3c a5 95 c3 bc
       -0.014475118 -0.07191414 0.030929537 -0.023875067
0001c0 c6 aa 38 bd a1 4e 72 3d 85 56 50 bb 43 4a 5b bd
       -0.045084737 0.059157018 -0.003178985 -0.05353762
0001d0 22 8d 65 bd 54 a4 b4 3d 51 87 79 3d 94 8a 89 bd
       -0.056042798 0.088204056 0.060920063 -0.06715885
0001e0 a4 e7 e1 be 0d 9c 5c 3e a6 bc 84 3e e6 47 a4 bd
       -0.4412204 0.21543904 0.25925177 -0.08021526
0001f0 bb b3 7a be 27 a4 ff 3c 1f af 47 3d 4a 6e 03 3f
       -0.24482624 0.031206204 0.048750993 0.5134016
000200 9b 06 38 3f ac 24 b8 bd c8 5a 4f 3d 5b 1e af 3d
       0.7188508 -0.089913696 0.050623685 0.08550712
000210 0a a6 e7 bc 32 6a ab bd c8 7c e0 3c d8 7a 86 bd
       -0.028277416 -0.083698645 0.02740325 -0.06566399
000220 ec a5 7a bd 7e 24 d1 3c 7a b8 11 bc 72 c1 d0 bb
       -0.06119339 0.025530096 -0.00889408 -0.0063707167
000230 eb 0b ac 3d e0 93 86 bc 6e 84 69 3d 67 c9 ee bc
       0.08400711 -0.016427934 0.05701106 -0.02914877
000240 49 d0 8f be 09 24 9e bd aa 79 cb bc e4 d1 b8 bd
       -0.28088596 -0.07721717 -0.024838287 -0.090244085
000250 a2 c2 fd be ad ab 8d be 16 90 27 bf 36 a7 f2 3d
       -0.49562556 -0.2767004 -0.6545423 0.11848299
000260 82 7b 0b 3f 6f 7b a0 3e 61 da 12 be b9 7c e6 3e
       0.5448533 0.31344172 -0.14341117 0.4501703
000270 be c2 9f 3c 02 a7 48 3f ba 0f 43 3f 42 87 b3 bd
       0.01950204 0.78379834 0.7619587 -0.08766033
000280 22 04 0d 3c a5 9d 74 3d 82 9c 26 3f 80 a6 7e 3e
       0.008606942 0.059720654 0.6508256 0.24868202
000290 c7 4b 9d 3e 94 be c6 bc e7 35 1d bd 1f 12 18 3d
       0.30721876 -0.024260797 -0.038381483 0.037126657
0002a0 15 b3 ed bf 83 6e 12 be 1f fd 14 be 17 af 51 bd
       -1.8570276 -0.1429997 -0.14549683 -0.05119237
0002b0 45 89 0a c0 c5 51 13 c0 d6 66 7d c0 52 7b 33 3f
       -2.1646283 -2.3018658 -3.9594016 0.70110047
0002c0 14 a2 7c 40 6d 69 4f 40 4a 8b f6 be de 1b 7f 40
       3.9473925 3.2408097 -0.48153144 3.9860759
0002d0 a7 ae 18 be 9a 4b 86 3f f5 54 7a 3f fd 4d 95 bd
       -0.14910375 1.0491822 0.97785884 -0.07290266
0002e0 58 73 8b bb 20 24 14 bd bc af 1e be c5 05 f2 3d
       -0.0042556934 -0.036167264 -0.15496725 0.11817507
0002f0 c6 59 30 3e 2a 45 35 3d 4d 5b 95 3d 4d d0 16 3c
       0.17221746 0.044255413 0.07292805 0.009204936
000300 af cd 0b be f9 39 1f be f2 78 78 bd e7 6b 19 bd
       -0.13652681 -0.15549459 -0.060662217 -0.03745642
000310 1c b8 45 be 43 61 c1 bc d1 f7 d4 be 68 0b e9 39
       -0.19308513 -0.023605948 -0.4159532 0.00044449721
000320 54 b0 56 3e ad 95 89 bb b8 83 94 bd 9f a9 e8 3d
       0.20965701 -0.004198751 -0.07251686 0.11360478
000330 ca 9a 81 bd 2a 70 c2 bd 8a 8a 4c be b1 a6 d9 bc
       -0.06328352 -0.0949405 -0.19974723 -0.026568742
000340 95 7a 5c be e8 9e 5e bc 3b cb d3 bd 6a 2d f6 37
       -0.21531136 -0.013587691 -0.103414975 2.9346633e-05
000350 8d b6 c6 3d 22 61 ea 3d 5c f5 44 3d cf e0 8b 3d
       0.097027875 0.11444308 0.048085555 0.06829988
000360 88 a0 bd 3c 68 79 7d bc 1a b0 d6 ba 4c 74 e7 bc
       0.023147836 -0.01547084 -0.0016379387 -0.028253697
000370 6c d2 17 bd 64 eb 5d 3d db 9f 24 3d d3 58 29 bd
       -0.03706591 0.054179564 0.040191513 -0.041344475
000380 90 0b a9 bd a0 93 3b 3d 6b 71 b0 bd b3 ce 87 bb
       -0.082541585 0.045795083 -0.08615383 -0.0041445135
000390 7d 69 1a be 00 2b c6 3f dc a0 ae 3f d6 a3 9d bd
       -0.15079303 1.5481873 1.364284 -0.07697265
0003a0 5f 6c 4b be 68 d1 62 bd 68 68 b1 3d cb 7b a4 3d
       -0.19865559 -0.055375487 0.08662492 0.08031424
0003b0 77 4d 13 3e 8d 7b c2 bc 4a bd 8c 3c 01 75 35 bd
       0.14385019 -0.023740554 0.017180104 -0.044301037
0003c0 8d cf c4 bd 13 0e 4c be 82 69 10 be 1c e2 d8 bc
       -0.096099 -0.19927244 -0.14102748 -0.026475005
0003d0 42 b7 4d be 89 7a 2d 3c 34 7c fa bd f6 75 c9 bd
       -0.20089439 0.010588297 -0.12230721 -0.098369524
0003e0 38 99 9c 3d 37 e2 ca bd a8 c5 57 bd 78 93 ae 3d
       0.07646412 -0.09906428 -0.052678734 0.08524221
0003f0 38 e9 a5 3d 3b ab 56 bd 38 2d 5a bd 31 78 3f bd
       0.081011236 -0.05240939 -0.05326578 -0.046745483

conv1.nn.0.bias f4 [64]
000000 52 d7 f6 bd b6 ac 50 3d b2 b1 81 be 69 68 8a be
       -0.12052788 0.05094596 -0.25330883 -0.27032784
000010 8c 2e 1e 3d f6 b5 30 bd 96 be 4b 3d 9d a0 c3 be
       0.03861861 -0.04314228 0.049742304 -0.38208476
000020 95 b5 c6 bd b6 16 c7 3b 40 5b 89 be f6 5e 44 3d
       -0.09702603 0.0060757054 -0.2682743 0.047942124
000030 89 33 3d be 50 61 0d 3d c5 dc 06 bf d5 08 0c be
       -0.1847669 0.034516633 -0.5268062 -0.13675244
000040 a9 3c a9 bd 7a cc 33 be b3 d4 d6 3c 94 f7 c9 bd
       -0.08263523 -0.1755847 0.02622447 -0.09861675
000050 ce 2f dd bc 45 d1 81 bd fe 5a bf bc a2 cd ac bd
       -0.027000334 -0.06338743 -0.023358818 -0.08437659
000060 d0 e6 a0 bd b4 a7 27 3e 6c 3a 6e bf 4f 36 20 be
       -0.07856524 0.16372567 -0.93057895 -0.15645717
000070 ce 59 0a bd 89 ca 87 bd 31 1e c5 bc e9 0d f1 be
       -0.03377705 -0.066304274 -0.024062248 -0.47080925
000080 c4 75 ae 3c 2b 16 a4 be 99 eb 7d bd c8 f6 a1 bf
       0.02129639 -0.32048163 -0.06199226 -1.2653437
000090 c8 79 1d bc 94 37 33 bc 94 96 b5 3d 8f 01 19 3c
       -0.009611554 -0.010938544 0.08866611 0.0093387505
0000a0 ce b9 5d 3e 30 04 b2 bd e9 90 5c bc d8 90 1c be
       0.2165291 -0.08692205 -0.013462284 -0.15289629
0000b0 73 83 d7 be 48 f8 ae be 1f 4a 19 be 31 6e d0 bd
       -0.42092475 -0.341738 -0.14969681 -0.10177267
0000c0 f4 9e 3b be ca a7 b4 3e 49 1e 0e bf e4 c6 ac bc
       -0.18322355 0.35284263 -0.5551496 -0.021090932
0000d0 f9 3b 02 be eb 38 ff 3c 98 f8 64 bc ca 72 35 be
       -0.1271819 0.03115507 -0.013975285 -0.1771957
0000e0 84 5d ee bc 18 61 b3 3d 91 8b 73 3c 41 e3 aa bd
       -0.029097326 0.087587535 0.014864818 -0.083441265
0000f0 13 76 f7 3d 80 cd 46 bd fc 85 f8 3d b9 63 67 3d
       0.12083068 -0.048535824 0.121349305 0.056491587

conv1.nn.2.weight f4 [64]
000000 b5 db 8c 3e 76 1d a6 3e 33 63 14 3e e5 25 9f bc
       0.27511373 0.32444352 0.14490966 -0.01942725
000010 25 6c ad 3e 4e e0 a7 3e 15 94 99 3e 9b c8 03 bd
       0.3387157 0.32788318 0.2999579 -0.032173734
000020 6f 89 01 3e 76 1d a6 3e cf b7 b6 3d 76 1d a6 3e
       0.12650083 0.32444352 0.089217775 0.32444352
000030 ec 68 a9 3e 18 0b d5 3e 4b 41 0b 3f 04 c4 34 3e
       0.33087862 0.41610026 0.54396504 0.17652899
000040 38 10 82 3e f4 e4 ab 3e 76 1d a6 3e 59 20 90 3e
       0.25403 0.33573115 0.32444352 0.2814968
000050 6f e6 9f 3e 76 1d a6 3e f6 29 88 3e 08 c7 73 3e
       0.31230494 0.32444352 0.26594514 0.23806393
000060 8c 09 09 3e ea ff d7 3e 03 c3 94 3c f5 50 0c 3e
       0.13382548 0.42187434 0.018159395 0.13702758
000070 8a 19 95 3e 82 55 98 3e 7f 74 68 3e 62 32 a6 bb
       0.29121047 0.29752737 0.2270069 -0.005071924
000080 1a 98 ae 3e 6c c0 49 bc 83 bf a2 3e 5a 4a 98 3f
       0.3410042 -0.012313943 0.31786737 1.189769
000090 65 ba a5 3e 76 1d a6 3e 76 1d a6 3e 66 bb af 3e
       0.3236877 0.32444352 0.32444352 0.3432266
0000a0 7e 50 07 3e 4f 74 a4 3e a9 1e 86 3e bb 51 a5 3e
       0.13214299 0.32119986 0.26195267 0.32288918
0000b0 46 21 5a bd 71 96 2d 3c 88 7d c5 3e d1 6a 6d 3e
       -0.05325439 0.01059495 0.38572335 0.23185278
0000c0 ed ee 9d 3e ea dd 48 3e 17 1a 0b bc bc c9 af 3e
       0.30846348 0.19615903 -0.008490107 0.343336
0000d0 1f 20 a8 3e 1a 83 95 3e 76 1d a6 3e 0d 13 01 3e
       0.32837006 0.29201585 0.32444352 0.12604924
0000e0 76 1d a6 3e 8e dc 99 3e d2 2a 5a 3c fd 15 27 3e
       0.32444352 0.30051082 0.013315873 0.16316982
0000f0 36 74 41 3d cf 93 4f 3e c6 26 5f 3e 9c fe 49 3d
       0.047229968 0.20271228 0.21792135 0.04931508

conv1.nn.2.bias f4 [64]
000000 dc b9 48 3c b8 a9 37 bc dc 14 d1 bd 02 08 07 bd
       0.012251344 -0.011209898 -0.10209057 -0.03296662
000010 d3 44 9b 3d bb 76 b7 3c 31 6d a8 3c 10 1d ed ba
       0.075814866 0.022395482 0.020559879 -0.0018090326
000020 65 1a 9f bb 20 f9 b8 bb 2a 25 57 3c 6f 19 9b 3e
       -0.0048554414 -0.0056449324 0.013131419 0.30292842
000030 ea 79 08 bd 23 eb 8d be 3b 37 ec bc 64 a7 28 bc
       -0.03331939 -0.27718458 -0.02883493 -0.010293815
000040 04 9c 3a 3c f1 3a 8d ba 98 5d 9d 3c 35 3f 33 be
       0.011389736 -0.0010775012 0.019209668 -0.1750458
000050 7e 7c b8 3d 21 8a 2a bc fb 8c 34 3b 3c 7b 1e be
       0.0900812 -0.010408909 0.0027549851 -0.15476698
000060 64 64 25 bb 35 33 24 bd 57 8f a7 3b 77 9c 39 bc
       -0.002523684 -0.040087897 0.005113523 -0.011328808
000070 52 d1 1d 3c 7d 7b f2 3b f2 41 0d bc f2 20 d4 bc
       0.009632425 0.007399975 -0.00862168 -0.025894616
000080 44 b4 e0 3b 7d 20 12 ba 89 88 a4 3b a4 7e 2d be
       0.006857427 -0.0005574299 0.005021159 -0.16942841
000090 36 69 43 3c a4 7f 30 3b d4 26 e1 bc 2f cb fb bc
       0.01192694 0.0026931548 -0.027484335 -0.030736534
0000a0 c1 00 e1 bb 2b c2 05 bc 7a df 40 3b 16 ca 31 3b
       -0.006866545 -0.008163969 0.0029430077 0.002712851
0000b0 e9 90 9b bc 47 75 cf bb df 4d 9b bc 99 97 36 3c
       -0.018989997 -0.006331119 -0.01895803 0.011144542
0000c0 69 4c 2d bc c0 bb 32 bc e3 cb bf bb 66 d0 01 3d
       -0.0105773 -0.010909021 -0.0058531626 0.031692885
0000d0 a7 6f a4 3b e5 fd 7e 3c e7 c5 15 3d 7b 56 ab bb
       0.005018193 0.015563463 0.036565688 -0.005228815
0000e0 64 dd 9b bc 43 e0 f2 bc 33 8d b3 ba 96 18 30 3d
       -0.019026466 -0.029647952 -0.0013698697 0.042992197
0000f0 84 32 03 3c 85 12 3c 3e 6a e7 5e 3c 84 b4 cf 3c
       0.008007649 0.1836644 0.013604978 0.025354631

conv1.nn.2.running_mean f4 [64]
000000 04 00 00 00 00 00 00 00 7a 8e 72 3e c5 79 ef 3d
       6e-45 0.0 0.23687163 0.116931476
000010 04 00 00 00 04 00 00 00 04 00 00 00 8b 43 f1 3c
       6e-45 6e-45 6e-45 0.029451152
000020 8b 22 ae 3e 00 00 00 00 38 ea c7 3d 00 00 00 00
       0.3401073 0.0 0.097614706 0.0
000030 04 00 00 00 68 37 cb 3e 04 00 00 00 d5 f6 01 3f
       6e-45 0.3969071 6e-45 0.5076726
000040 04 00 00 00 04 00 00 00 00 00 00 00 a5 e8 3d 3f
       6e-45 6e-45 0.0 0.7418311
000050 04 00 00 00 00 00 00 00 04 00 00 00 04 00 00 00
       6e-45 0.0 6e-45 6e-45
000060 5f 69 82 3e 84 53 94 3d 04 00 00 00 88 81 27 3e
       0.25471017 0.07242492 6e-45 0.16358006
000070 04 00 00 00 04 00 00 00 04 00 00 00 fc 00 00 00
       6e-45 6e-45 6e-45 3.53e-43
000080 7a c6 58 3b 97 bc 50 3e 04 00 00 00 50 35 a8 47
       0.0033077286 0.20384441 6e-45 86122.625
000090 04 00 00 00 00 00 00 00 00 00 00 00 04 00 00 00
       6e-45 0.0 0.0 6e-45
0000a0 4f 66 d4 3d 04 00 00 00 04 00 00 00 04 00 00 00
       0.10371076 6e-45 6e-45 6e-45
0000b0 6c 74 c7 3d 28 60 09 3e 04 00 00 00 04 00 00 00
       0.097390026 0.13415587 6e-45 6e-45
0000c0 04 00 00 00 51 e5 5d 3e 48 cd 26 3d 04 00 00 00
       6e-45 0.21669509 0.040723115 6e-45
0000d0 04 00 00 00 04 00 00 00 00 00 00 00 52 8c 14 3e
       6e-45 6e-45 0.0 0.14506653
0000e0 00 00 00 00 04 00 00 00 a8 4a b6 3d 82 0c a3 3d
       0.0 6e-45 0.08900958 0.0796137
0000f0 69 ff b0 3a 04 00 00 00 a0 0c b5 3e c4 1a 27 3e
       0.0013503853 6e-45 0.35361195 0.16318804

conv1.nn.2.running_var f4 [64]
000000 04 00 00 00 04 00 00 00 5f 34 ea 42 4c 0f e2 41
       6e-45 6e-45 117.10229 28.25747
000010 04 00 00 00 04 00 00 00 04 00 00 00 84 38 1b 40
       6e-45 6e-45 6e-45 2.4253244
000020 c6 b6 6a 43 04 00 00 00 92 78 bc 41 04 00 00 00
       234.71396 6e-45 23.558872 6e-45
000030 04 00 00 00 00 1c 9d 43 04 00 00 00 53 5f 02 44
       6e-45 314.21875 6e-45 521.48944
000040 04 00 00 00 04 00 00 00 04 00 00 00 33 b7 8a 44
       6e-45 6e-45 6e-45 1109.725
000050 04 00 00 00 04 00 00 00 04 00 00 00 04 00 00 00
       6e-45 6e-45 6e-45 6e-45
000060 e1 98 05 43 cb 18 67 41 04 00 00 00 43 28 60 42
       133.59718 14.443553 6e-45 56.039318
000070 04 00 00 00 04 00 00 00 04 00 00 00 6a 33 00 00
       6e-45 6e-45 6e-45 1.8444e-41
000080 73 6b 7b 3d 4b 2b b3 42 04 00 00 00 15 25 9e 4f
       0.06138177 89.58456 6e-45 5.3064607e+09
000090 04 00 00 00 04 00 00 00 04 00 00 00 04 00 00 00
       6e-45 6e-45 6e-45 6e-45
0000a0 b9 1f d9 41 04 00 00 00 04 00 00 00 04 00 00 00
       27.14049 6e-45 6e-45 6e-45
0000b0 f9 5d ae 41 8d 0c 29 42 04 00 00 00 04 00 00 00
       21.795885 42.262257 6e-45 6e-45
0000c0 04 00 00 00 42 3a c4 42 23 b4 8f 40 04 00 00 00
       6e-45 98.113785 4.4907393 6e-45
0000d0 04 00 00 00 04 00 00 00 04 00 00 00 76 58 30 42
       6e-45 6e-45 6e-45 44.086388
0000e0 04 00 00 00 04 00 00 00 c9 50 93 41 37 ca 5f 41
       6e-45 6e-45 18.414446 13.986869
0000f0 33 a6 27 3c 04 00 00 00 71 05 7e 43 22 7f 65 42
       0.010232496 6e-45 254.02126 57.374153

conv1.nn.4.weight f4 [64, 64]
000000 34 d4 17 3e e3 95 af 3d 1a 50 20 be 83 ba e7 bd
       0.14827043 0.085735105 -0.15655556 -0.11314871
000010 21 7a 11 3e bf 16 c9 3c 13 14 90 bc 9b 6b e5 3a
       0.14206745 0.024546979 -0.017587697 0.0017503382
000020 fc 6a 38 bd ee a8 b4 3d ce 8a e6 bc 4b 19 06 bd
       -0.045023903 0.08821283 -0.02814236 -0.032738965
000030 cf 54 04 be 46 ac 39 3d da b9 28 bd 4e 1a 01 bd
       -0.12922977 0.04533031 -0.041192867 -0.031519227
000040 a3 93 91 3c 29 f4 82 3c a0 83 bc bc b1 05 34 bd
       0.017770594 0.015985565 -0.023011982 -0.04395074
000050 2c 43 89 3d dd d8 05 bd 4a 1d 88 3d 75 1c d4 bc
       0.06702265 -0.03267752 0.066462114 -0.025892476
000060 23 11 f1 bd 56 9e d4 bd 86 2a 05 3d a1 2b 0a bd
       -0.11770847 -0.10381763 0.032511257 -0.033733014
000070 c7 a0 9b bd 5a 9e 89 3a 72 e2 6a 3d d6 5c 91 bd
       -0.07599025 0.0010499463 0.05734486 -0.07097785
000080 22 a4 19 3d 07 a3 f7 3c 88 31 02 3e 0a 16 9a 3f
       0.037510045 0.030229105 0.12714207 1.2037976
000090 b5 4a 96 3d b4 22 11 be a5 c8 51 be a3 8d 8a bd
       0.07338468 -0.14173394 -0.20486696 -0.06765296
0000a0 b1 e7 be bd 28 7a 81 bd c6 a7 12 bc df 26 3f bd
       -0.093215354 -0.063221276 -0.008951133 -0.04666793
0000b0 7b 8e c2 bd 35 e7 b1 bb 16 65 77 bd f5 7e 05 bd
       -0.09499832 -0.0054291734 -0.060399137 -0.03259178
0000c0 35 be 51 3d 7d 32 23 bd 48 ce 72 bd 47 c7 3a 3d
       0.051206786 -0.03984307 -0.059278756 0.045600202
0000d0 59 ab 3f bc 2a 7c 23 3c 4a f4 4e 3c 27 e2 4a 3e
       -0.011698567 0.0099783335 0.012631485 0.19812833
0000e0 d3 47 97 bd fd 06 2a 3d db 34 af bd 67 fd 77 3c
       -0.07386746 0.04151057 -0.08555003 0.015136099
0000f0 3b f0 d5 3c cf 5a 83 bd b4 76 a5 3b 3f cc b8 bd
       0.026115527 -0.06413805 0.005049551 -0.09023332
000100 c5 5b 7a bc 28 3e 32 bd ad a7 42 3d 77 91 b9 bd
       -0.015280669 -0.043516308 0.04752319 -0.09060948
000110 31 d6 0a 3d 47 d8 7c bc b4 a1 e3 bd f8 2e 21 bd
       0.033895675 -0.015432424 -0.11114827 -0.039351434
000120 d3 98 2c bd 2d 3b 35 3e a5 83 9b bd 05 4e 32 be
       -0.042137932 0.17698355 -0.075934686 -0.17412575
000130 65 92 89 3d 2a a1 88 3c b4 38 d5 3e e9 2a bf bd
       0.06717376 0.016678412 0.41644824 -0.09334356
000140 cc 92 ca 3d 99 83 b7 3d d4 de 1d bd 66 68 30 3c
       0.098912805 0.08960647 -0.038542584 0.010767078
000150 c9 f8 03 bd 6d 8b b3 3d 82 9d 17 3e a5 8a d4 3d
       -0.032219682 0.08766828 0.14806178 0.10378007
000160 38 40 f9 bd 6f 36 0b 3e 8b c4 09 3d e0 08 d2 bd
       -0.12170452 0.13594984 0.033634704 -0.10255599
000170 d1 3a 09 3a d9 14 26 bd f3 7a 87 3d dd 93 7b 3d
       0.00052348996 -0.040547226 0.066152476 0.06142031
000180 b9 d8 39 3e 0b 52 0a bd 6b ce f6 3d 0b 2f 99 bc
       0.1814908 -0.03376965 0.1205109 -0.01869919
000190 bf 1b 50 bd 12 9e 58 3c ef 7a 4d 3d 0b 85 27 3d
       -0.05080771 0.013221281 0.050166067 0.040898364
0001a0 36 07 ef bd 3b 81 26 bc 04 40 0f 3e 74 ee 00 3c
       -0.11671297 -0.010162647 0.13989264 0.007869352
0001b0 a2 30 d1 bc 4f de d2 bb d7 c0 cd bb 30 fc 45 bb
       -0.025535885 -0.0064351927 -0.006279092 -0.003021013
0001c0 3f 95 a1 3d 11 a8 d7 bc 5e 5d 58 bc 7d 3d d6 3d
       0.078897946 -0.026325257 -0.013205854 0.10460947
0001d0 8e 79 04 be df 18 04 bd 4a 21 62 3d 57 3f 77 bd
       -0.12936994 -0.03225028 0.05520753 -0.06036314
0001e0 e7 f7 a8 bb 7d b1 34 3d 7d be 73 bd 0c d2 28 3c
       -0.0051565054 0.04411458 -0.059507836 0.010303985
0001f0 95 48 30 3e 54 5f de bd ed e6 be bd f9 01 86 bc
       0.17215188 -0.10858026 -0.09321389 -0.016358363
000200 48 c5 76 bd 61 93 a3 bd 51 9a 1c bc 16 0b 59 3d
       -0.060246736 -0.07987095 -0.009558276 0.052989088
000210 c0 d2 49 3d d8 b4 93 3b 8f 1f 9c 3c a2 f0 7b 3b
       0.049273252 0.0045076422 0.019058017 0.003844299
000220 0e 8e 34 bd a9 3f 58 bd 0c 5c 54 bd a7 01 92 bd
       -0.044080786 -0.052795086 -0.051845595 -0.071292214
000230 b3 a5 43 3b 4d 3d 31 3d 41 6b 02 bc 53 2c a8 bd
       0.0029853403 0.04327135 -0.007960142 -0.08211579
000240 bf e1 20 3d cd 84 a4 3d ee c6 2d b9 2b 58 79 bc
       0.03927779 0.08033142 -0.00016572673 -0.015218775
000250 d7 b8 18 3d 24 6d db bc be ec 10 3d f8 86 3f 3d
       0.037285652 -0.02678544 0.035382025 0.046759576
000260 9d 76 8e bd 20 96 48 3c c6 8f 07 3c 2f cc 4a 3b
       -0.069562174 0.012242824 0.008274024 0.0030944457
000270 6c ea 5b bc 54 31 1d bd 11 30 b4 bd d8 94 f0 3c
       -0.01342259 -0.03837712 -0.087982304 0.02936785
000280 5e 38 a4 bc 0e e3 9b bd 02 dd f5 3c 75 a8 45 3c
       -0.02004641 -0.076116666 0.030012611 0.012064089
000290 47 f1 b2 3d 5f ab 05 3d f4 09 38 3d 83 de 03 3d
       0.08737426 0.032634135 0.044931367 0.032194626
0002a0 b6 c4 fa 3c f1 ba 59 3d 35 4c 34 3d ee 77 4d 3b
       0.030611377 0.053156797 0.04401799 0.0031352001
0002b0 11 28 cd bb b6 fb 07 bd 01 95 8f 3d ad 64 d5 3a
       -0.00626088 -0.033199035 0.07010842 0.0016280614
0002c0 a5 fc 75 3d ab 83 26 bd ff ba 57 bc 3b a6 73 3d
       0.060055394 -0.040652912 -0.013167142 0.0594847
0002d0 06 49 b8 3c 48 3f 1e 3d ee 10 18 bc ee 49 24 bd
       0.022495758 0.03863457 -0.00928138 -0.040109567
0002e0 36 61 4b bc 5e 5b ce 3c e7 ec 64 bd bd 8d 49 3d
       -0.012413314 0.025190052 -0.05588999 0.049207438
0002f0 7c aa f2 bc f8 b3 c4 bd c4 c9 07 be 11 64 32 bd
       -0.029622309 -0.09604639 -0.13260561 -0.043552462
000300 71 fe f6 bd 56 1c a1 bd 7a 24 36 be ff 06 8b bc
       -0.120602496 -0.07866733 -0.17787352 -0.01697111
000310 5b cb 1d 3e 36 a1 6f bd 39 d0 f0 bd cb 05 07 be
       0.15409605 -0.058503352 -0.11758465 -0.13185804
000320 e2 c7 9e bd 75 f4 ba 3d c8 7e db 3d 3b 2f a7 3e
       -0.07752968 0.09128658 0.10717541 0.3265322
000330 1d 8d e1 bc 73 bb 6c be eb d4 26 bd 9d 2e 1b bd
       -0.027533108 -0.23118381 -0.0407304 -0.03788625
000340 3c c4 b1 3d 85 fa d2 3d bf 77 1d bc 61 a7 70 be
       0.08680007 0.10301689 -0.009611069 -0.2350135
000350 e7 9e 8b 3e a6 e8 2e 3d c8 3e d7 3d d1 32 9f be
       0.2726967 0.04270234 0.105100214 -0.31093457
000360 fd 1d 95 3c c2 67 0d be 1c 4f 86 3d 34 68 d0 3b
       0.018202776 -0.13809112 0.06558058 0.006360078
000370 7b 7c e0 3c a6 b5 f5 bd 64 9f 73 3d b5 f3 8c bc
       0.027403107 -0.11997537 0.05947818 -0.017206052
000380 37 05 94 3d 9a e0 3b bd e0 f5 f0 3c d8 c9 c4 be
       0.07227557 -0.045868494 0.029414117 -0.38435245
000390 d6 c2 ac 3d 27 ec d8 bb 66 01 33 be b5 04 dd bc
       0.084355995 -0.0066199484 -0.17481002 -0.026979784
0003a0 f1 17 76 bd d3 d4 56 bc ff d3 76 3d 52 0d b3 3c
       -0.060081426 -0.013112265 0.06026077 0.021856938
0003b0 84 bf a1 bd 2c 45 0d bd c1 29 36 bd 88 98 26 bd
       -0.07897857 -0.034489796 -0.044473413 -0.04067281
0003c0 fb d8 9e 3d 8a 37 9b bd 2b 57 3d bc 02 ab a6 3d
       0.077562295 -0.075789526 -0.011556427 0.08138086
0003d0 ac f4 07 3c 45 b4 84 3d e8 62 10 3e e0 e3 a8 3d
       0.00829808 0.06479696 0.1410023 0.08246589
0003e0 78 47 cb bc 30 f9 05 3d b0 6d d0 bc fc 73 9d bd
       -0.024814352 0.032708347 -0.025442928 -0.07688138
0003f0 3d 8c 16 ba 93 34 a0 3e 9e c8 1b bd 34 24 42 ba
       -0.0005742943 0.3129011 -0.03803312 -0.00074059074

conv1.nn.4.bias f4 [64]
000000 f5 b1 33 bf 7d 8a 46 be 10 bc 03 be 24 e9 cc 3e
       -0.70193416 -0.19388767 -0.12864709 0.40021622
000010 f7 8f fc bb d7 50 e9 3f fd 82 2e be 75 07 1e bf
       -0.0077075916 1.8227795 -0.17042156 -0.6173013
000020 7d b5 d1 bd c8 db f3 3c 77 3d 11 bd 21 de 07 3f
       -0.10239694 0.029767886 -0.035459008 0.53073317
000030 8a 3a ac be 48 e9 22 be d2 c2 2d be 1e 2c 13 bf
       -0.33638412 -0.15909302 -0.1696885 -0.5748919
000040 c3 70 a4 3d 6b d7 26 bf c6 4c b5 be 3e de 7a be
       0.0802932 -0.6517245 -0.35410136 -0.24498841
000050 96 49 24 bf 42 ec 2e be b0 7a 07 3f 49 cb 92 be
       -0.64174783 -0.17082313 0.5292158 -0.2867072
000060 6b 08 e2 3e 96 f2 01 be bc 98 31 be 75 1a 2a be
       0.44147047 -0.12690195 -0.1734342 -0.16611655
000070 93 86 d9 be e1 51 a2 be 18 fd 0d be 5d c2 b5 be
       -0.42485484 -0.31703094 -0.13866079 -0.3549985
000080 f9 67 07 be 12 99 00 be 9c a5 62 3f 51 8f a0 be
       -0.13223256 -0.12558392 0.8853395 -0.31359342
000090 6d 43 6e be 23 66 11 3f 88 d7 2e bc 49 c3 41 be
       -0.23267908 0.56796473 -0.010671504 -0.18922152
0000a0 09 5d 95 3f 19 8f 65 3d 07 6e a7 be eb 05 1a be
       1.1669017 0.05604467 -0.32701132 -0.1504132
0000b0 24 1c 8b be 36 37 02 bf 83 09 19 be d1 b9 05 40
       -0.27169907 -0.50865495 -0.14945035 2.0894663
0000c0 2b e1 f4 be d6 8b 38 be 09 63 34 3c 43 91 9b bd
       -0.4782804 -0.18022093 0.01100994 -0.07596066
0000d0 03 08 d0 bd 67 d7 b0 bd cf a9 1d bf 44 00 62 bd
       -0.10157778 -0.08634835 -0.6158723 -0.055176035
0000e0 2f 36 ab be 73 3b 0b be dd e0 49 be 17 cf e1 bd
       -0.33439776 -0.13596897 -0.19714685 -0.110258274
0000f0 cb 9b 09 3e 68 f2 d9 bd e4 04 0e 3f cd d5 7d be
       0.13438337 -0.106419384 0.5547621 -0.2478859

conv2.nn.0.weight f4 [64, 64]
000000 16 16 8a 3e 3d 45 10 3f 23 84 38 bd c7 e5 82 be
       0.26969975 0.5635565 -0.04504789 -0.2556593
000010 ba 5d 64 be ad 81 e6 be 48 d5 81 3e 0e 57 02 bf
       -0.22301379 -0.4502081 0.25358033 -0.50914085
000020 42 18 0b 3d 14 f5 d0 be 49 47 52 bc 03 2a ae be
       0.03395868 -0.4081198 -0.0128343785 -0.34016427
000030 37 4c dd 3d 64 eb 1f bd 83 89 1d be 7d d4 07 3e
       0.108055525 -0.039042845 -0.15384488 0.13264652
000040 14 03 df be 21 0f bc 3e c0 87 36 be 53 64 34 3d
       -0.43557036 0.36730292 -0.17825222 0.04404099
000050 80 85 5c be f0 18 50 bc 12 ee bf be db 28 08 be
       -0.21535301 -0.012701258 -0.3748632 -0.13296835
000060 5c 17 96 be 0f 4f 86 bb 59 bd 30 3e 97 57 d9 bc
       -0.29314697 -0.00409878 0.1725973 -0.026531024
000070 7d 49 d3 bd 42 5c 1c be 53 7f a6 be 36 12 e7 bd
       -0.10316751 -0.15269569 -0.32519016 -0.1128277
000080 56 69 dc 3e 44 3c eb 3e 8b ca d0 be 3f 3f 75 bd
       0.43049115 0.45944417 -0.40779528 -0.05987477
000090 4a 53 5d be 3f d6 bc be 80 5f 57 be 45 9c bf bd
       -0.21613804 -0.36882207 -0.21032524 -0.09355978
0000a0 cc 04 d2 be 2b 46 a2 be 67 af f2 bd 59 23 d6 bc
       -0.41019285 -0.3169416 -0.118498616 -0.026139902
0000b0 8b 2c 0c be 02 07 6a 3d a1 f3 51 3d a0 08 df be
       -0.13688867 0.05713559 0.051257733 -0.43561268
0000c0 0b 27 8d 3d ed ac 95 be c5 7f a1 be d7 8a f2 3d
       0.068922125 -0.29233494 -0.31542793 0.11842888
0000d0 9d 2a 1a 3d 01 dc a4 bb 1c c6 ef 3c 09 b5 b4 bc
       0.037638295 -0.0050311093 0.02926927 -0.02205898
0000e0 86 bc a0 be 30 75 6d 3e b5 4a 30 bd af 0c e2 bd
       -0.31393832 0.23189235 -0.043039996 -0.110375755
0000f0 c6 a9 d0 be f0 c5 08 be 8c 7c de be 3e 24 26 be
       -0.40754527 -0.13356757 -0.43454397 -0.16224763
000100 0b 2a 44 be 44 92 d1 be c7 15 3c be 66 d2 00 bd
       -0.19156663 -0.40931904 -0.18367682 -0.03145065
000110 da 15 e2 3e 8f fe fe bc d4 7b 0d be 4d 41 c8 3e
       0.44157296 -0.031127242 -0.13816768 0.3911232
000120 92 c6 88 39 04 a1 f3 be 25 12 0a bf 0d a5 5b 3e
       0.00026087888 -0.47583783 -0.53933936 0.2144968
000130 05 a4 89 3d 76 ce 25 bd 9f 4c b0 be 84 4e de 3c
       0.06720737 -0.0404801 -0.34433457 0.027137049
000140 5e 03 e5 be a3 22 05 3f d9 cc 76 3e 68 51 f5 be
       -0.4472913 0.52005976 0.2410158 -0.4791367
000150 36 05 a4 bd 89 ab 0c be ec 51 5c bd bf 3e 08 3c
       -0.080088064 -0.1373731 -0.053789064 0.008315741
000160 ab 70 1a bc 0a 25 dd 3b 66 58 04 bf cd c4 06 3d
       -0.009426276 0.0067488 -0.51697385 0.032902528
000170 d6 2b e7 bd 52 a5 83 bd 5b 1b 88 bd 54 ed 2d bf
       -0.11287658 -0.06428017 -0.06645843 -0.6794026
000180 68 c2 f2 3d af 2c 07 3c b8 52 16 3c 8a 45 19 be
       0.11853486 0.0082503995 0.009174995 -0.14967933
000190 f5 54 31 be 47 3d 46 bd 01 4f 18 3e 81 06 cf be
       -0.17317565 -0.048398282 0.14873888 -0.4043465
0001a0 bb 3f b1 3c 6f 84 9a be 5b 9d 0c bd 06 52 97 b9
       0.021636834 -0.30179164 -0.034329753 -0.00028862077
0001b0 35 05 2c bd f3 0b 34 3e 3a e1 a5 be c3 ca bf bc
       -0.041997153 0.17582683 -0.32398397 -0.023412114
0001c0 8f de d7 3d e6 ab a3 be 3d ac c0 be 66 6f 54 bf
       0.105404966 -0.31967086 -0.37631407 -0.8298248
0001d0 c9 0a 1a 3c 52 f3 92 3c ea f3 1b 3e f3 eb 54 be
       0.009401985 0.01793829 0.15229765 -0.20793132
0001e0 fa 2e 9f 3e 6c 93 a6 bd 07 ac 93 be 1e 21 61 3d
       0.31090528 -0.08133587 -0.28842184 0.054963224
0001f0 47 92 56 3e eb 39 53 bd d7 9f 6d bd 19 5b bf 3e
       0.20954238 -0.051568907 -0.058013763 0.3737419
000200 eb 53 62 be e6 03 d9 bd aa df 82 3c 7c cd 2a 3d
       -0.22102325 -0.10596447 0.015975792 0.04169987
000210 bb 70 0b be 1e 59 00 40 be d1 8c bd 13 09 b7 bd
       -0.13617222 2.0054393 -0.06875943 -0.08937278
000220 85 0c b7 3b f9 4f 3e 3d 68 19 6d 3d a0 06 26 3e
       0.0055862092 0.046462987 0.057885557 0.16213465
000230 73 dd 51 3d 49 58 27 3c af c8 ab bc 69 89 7c be
       0.05123658 0.01021392 -0.020969717 -0.24661793
000240 13 68 98 3d 38 b0 01 3e 66 ed 81 3c b0 7e 89 be
       0.074417256 0.12664878 0.01586027 -0.26854467
000250 b5 80 2a be 12 54 d9 bc a6 07 6d 3e 0a a1 41 bd
       -0.1665066 -0.026529346 0.23147449 -0.04727272
000260 46 a9 05 3e e3 87 0a bd 3b d5 fd bc 51 7d 09 be
       0.13052854 -0.033820998 -0.030985465 -0.1342671
000270 d8 90 8e be 7f 13 99 be 87 2c 4f bc cf 05 8b 3c
       -0.27844882 -0.29897687 -0.0126448935 0.016970543
000280 35 ec a8 bd 3a 5a 91 bd 87 de bb 3e 9e 36 97 be
       -0.08248178 -0.070972875 0.36693212 -0.29533857
000290 c3 e4 bb be bf 64 a3 3e 25 7c 34 be 68 da 6b be
       -0.3669797 0.319128 -0.17625482 -0.23032534
0002a0 17 f0 f9 3e a2 42 9b 3d d8 d7 5a bd fe e9 94 bc
       0.48815987 0.075810686 -0.0534285 -0.018177982
0002b0 b1 d5 ae be 30 70 59 be fb b9 98 bd 82 3c e8 3f
       -0.3414741 -0.21234202 -0.07457348 1.8143466
0002c0 ce 7e 64 be bc fe 26 bd 48 bc 03 3e 35 03 46 bd
       -0.22313997 -0.040770277 0.12864792 -0.048342902
0002d0 07 2a 9b bb 61 52 ef 3c b2 1e 5c be a8 a0 11 bd
       -0.0047352347 0.029214086 -0.21496084 -0.035553604
0002e0 9c 3e d2 39 23 48 1c bd f2 10 75 be 45 2a a8 bc
       0.0004010097 -0.038154732 -0.23932245 -0.020527968
0002f0 dc 94 18 3d 4b 96 e8 bc 99 dd a5 3e bb f8 18 bd
       0.03725134 -0.028391978 0.32395628 -0.037346583
000300 f8 d3 4d bf 37 f0 23 be 4b 89 a1 bc 2d f9 c5 3e
       -0.80401564 -0.16009603 -0.019718787 0.3866667
000310 df 9f 23 3d 87 22 b2 3e 7c 3c 30 bd de 96 cf be
       0.039947387 0.34791967 -0.043026432 -0.4054479
000320 01 2c 88 bd 76 d9 9d bd 6c 17 e3 3b 9f 71 2c 3e
       -0.06649018 -0.07707493 0.0069302823 0.16840218
000330 7e 06 14 bd 25 0e 08 3d 2d 3d f1 bd a6 a0 e7 3e
       -0.036139004 0.033216614 -0.117792465 0.45239753
000340 5a 21 ca bd 65 58 ac be bc 7b 9b bd 03 8b 6e 3d
       -0.098696426 -0.3366119 -0.0759196 0.05823804
000350 c0 39 3b bf 82 e9 5b bc 86 b6 63 3e be 2a d0 3d
       -0.73134995 -0.013422372 0.22237596 0.101644024
000360 e3 75 cf 3e 3e 05 08 bd 5b de 40 bd fd b7 5f 3d
       0.40519628 -0.033208124 -0.047087055 0.054618824
000370 54 b2 7a 3f 54 04 a3 3f ed 8c 1e bd 0b b5 2a bc
       0.9792836 1.2735696 -0.038708616 -0.010419141
000380 d2 83 ac bd 51 19 f1 bd 70 0c 8d 3e 27 ee a3 3f
       -0.0842358 -0.11772407 0.27548552 1.2807053
000390 a8 77 b1 3f e6 52 2b 3e bf 82 6c 3d c8 5f 79 be
       1.3864641 0.16730842 0.057741877 -0.24352944
0003a0 4b 4c a9 3e 33 23 3a bd 8b 0c 99 be bf 2d 91 3d
       0.3306602 -0.045443725 -0.29892382 0.070888035
0003b0 46 e1 a9 3f f9 c6 dd 3e 52 1b cb bd f4 11 a8 3e
       1.3271873 0.43315867 -0.0991732 0.32826197
0003c0 50 cc 02 3f f3 e6 6c bd 14 dc 28 bc a9 67 ab bc
       0.51093006 -0.057837438 -0.010306377 -0.020923452
0003d0 e0 35 f5 bd a2 b1 01 bd 1d 79 46 3e 28 69 aa bc
       -0.119731665 -0.031663544 0.19382139 -0.020802096
0003e0 f2 2e 38 be 5c dd 8b bd 18 52 8c be 48 ba df bc
       -0.17986658 -0.0682933 -0.27406383 -0.027310506
0003f0 a9 b8 a7 3d 17 0a a7 bd 03 3b 31 3e f9 e4 01 be
       0.08189518 -0.08156221 0.17307667 -0.12685002

conv2.nn.0.bias f4 [64]
000000 08 ec 9c 3f 91 09 a0 3d 51 a4 54 bf f6 3c d8 3f
       1.2259531 0.07814325 -0.83063227 1.6893604
000010 cf 2e 80 3e c4 e5 a6 40 dd 72 8e 3f 5a 57 fc be
       0.25035712 5.2155476 1.1128803 -0.49285394
000020 2c 0b 7b bf 92 a2 4c bd dc ed 68 3e 47 d2 20 bd
       -0.9806392 -0.049959727 0.22746986 -0.039263036
000030 30 18 8c 3d 17 5a 2a 41 74 9e ad 3e 94 97 ab 3f
       0.06840551 10.646995 0.33909953 1.3405633
000040 02 33 31 41 5c 3c 50 bf d5 4b a1 3d a8 7a 2b 3e
       11.074953 -0.813421 0.07875792 0.16746008
000050 1c 4d a4 3c 47 3c c0 3c 76 43 7c 3c 7f 2f e7 bd
       0.0200563 0.023466242 0.015396943 -0.11288356
000060 30 25 83 be 40 a3 4b 40 4e b1 f0 39 23 a1 4b bd
       -0.2561431 3.181839 0.0004590847 -0.04971422
000070 00 4a ae 3e 28 d8 d0 3e c7 9c 46 bf 5d 08 c6 3e
       0.34040833 0.40789914 -0.77582973 0.38678256
000080 c4 cb d2 3f 53 06 c5 bc be d4 29 bd 3a b6 e7 40
       1.6468434 -0.024050867 -0.041462652 7.2409945
000090 49 5f 1f bf ff 83 14 40 f0 dd 4d bd 89 c3 f8 bd
       -0.6225477 2.3205564 -0.050260484 -0.1214667
0000a0 21 2c 1b bb a6 72 95 3f cd dc ec 40 31 40 e2 40
       -0.0023677426 1.1675613 7.401953 7.070336
0000b0 52 1a b5 3f 9c a4 c2 3d 43 29 97 40 66 80 8c bf
       1.4148657 0.09504053 4.723787 -1.0976684
0000c0 94 56 06 bd 62 93 f1 be 73 f2 9e bd d3 cf 60 bd
       -0.03279741 -0.47182757 -0.07761087 -0.054885697
0000d0 1d fe 9d 40 34 3a 1e bd 75 9f 87 3d d0 ce 38 bd
       4.9372697 -0.038629726 0.06622211 -0.045119107
0000e0 8c 64 cc 40 7b 48 55 3c 72 a1 3f 40 f8 b9 62 3e
       6.387274 0.013017769 2.9942288 0.22141254
0000f0 e3 1a 02 40 37 21 37 be 78 59 08 3d 33 98 43 bd
       2.032891 -0.17883764 0.03328845 -0.04775257

conv2.nn.2.weight f4 [64]
000000 9f 15 da 3e 6f 0a fb 3d b4 0e 9e 3f f9 f7 73 3f
       0.4259462 0.122578494 1.2348237 0.9530025
000010 96 7a e6 3e e4 50 82 3f e9 95 e4 3e d8 0b 95 3f
       0.450154 1.0180936 0.44645622 1.164424
000020 fb 8a 85 3f 38 21 9c 3e 73 a0 d5 3e ea 9b 9d 3e
       1.0433038 0.30494094 0.41723976 0.30783015
000030 60 7e bd 3e 67 bc 96 3f 04 23 00 3f 2e 5a 63 3f
       0.3701048 1.1776246 0.5005343 0.8880948
000040 76 8e df 3f 38 cd 93 3f 99 61 66 3f 65 67 e9 3e
       1.7465351 1.1547003 0.8999267 0.45586696
000050 9a da 9c 3e 35 21 9c 3e 6e 23 ad 3e 00 4d 96 3e
       0.3063553 0.30494085 0.33816093 0.2935562
000060 d9 16 96 3e ec 72 7f 3f 9e 44 a0 3e 36 71 98 3e
       0.29314306 0.9978473 0.3130235 0.29773873
000070 e0 db 92 3e a7 8e 5f 3f df b5 81 3f a6 a8 87 3e
       0.28683376 0.87327045 1.0133628 0.26495856
000080 33 71 71 3f 35 21 9c 3e 0d a5 98 3e 5f e7 7b 3f
       0.94313353 0.30494085 0.29813424 0.9839992
000090 8e 82 90 3f 6d f3 0c 3f 81 22 a3 3e cf fd 5c 3f
       1.1289842 0.5505894 0.31862262 0.8632478
0000a0 fe a2 98 3e dc 43 bf 3e 50 f1 a7 3f 41 86 9c 3f
       0.29811853 0.3735646 1.3120518 1.2228471
0000b0 35 11 4c 3f db 3d b9 3e 5f 68 99 3f 4c 78 77 3f
       0.79713756 0.36180004 1.1984977 0.96667933
0000c0 35 21 9c 3e c5 a1 33 3f c1 cb a3 3e 2e 7b ac 3e
       0.30494085 0.70168716 0.3199139 0.3368773
0000d0 7d 5a 88 3f 99 ed 98 3e 98 74 90 3f 8f 58 99 3e
       1.0652615 0.29868773 1.1285582 0.29950377
0000e0 35 e2 94 3f 38 21 9c 3e 38 0d 6e 3f b9 c5 6d 3e
       1.1631533 0.30494094 0.9298892 0.23219956
0000f0 c4 76 7d 3f ce cf 86 3f 26 7b 89 3e e6 ec 6a 3e
       0.99009347 1.0532167 0.26851767 0.22941932

conv2.nn.2.bias f4 [64]
000000 98 13 d8 bc 82 2a fc 3e 56 a0 2d 3f 3b c8 22 3f
       -0.02637653 0.4925118 0.6782278 0.6358678
000010 f3 21 3c bc ac 7c 80 3e 2f f3 91 bb 6d 3f 94 3e
       -0.0114827035 0.25095117 -0.0044540386 0.2895464
000020 cd c7 3c 3f 49 fd a7 be 7e e5 85 3d 9d 24 bc 3e
       0.7374237 -0.3281043 0.06537913 0.36746684
000030 99 01 f7 39 d9 af f7 3e 7a 6a 8f 3e 87 c5 1e 3f
       0.00047112702 0.4837635 0.28010923 0.6202015
000040 f9 87 08 3f a0 8a 2d 3f aa e9 03 3f 06 1b 29 bc
       0.5333248 0.6778965 0.5152842 -0.010321384
000050 29 b0 84 3c 75 13 be 3e 44 ae 65 bc e6 6d 65 ba
       0.016197281 0.3712422 -0.014018599 -0.0008752033
000060 85 58 2f 3c 0e 64 36 3f fd d0 d8 3e 4c 50 4c 3b
       0.010702257 0.7124642 0.42346945 0.003117579
000070 cc 5a e8 3c 97 2a 32 3f 6c f1 40 3f e2 28 2c bc
       0.028363608 0.69596237 0.7536838 -0.010507794
000080 29 22 36 3f 2c 6c 68 be 52 6d 58 be e8 5c 8a 3e
       0.71145874 -0.22697514 -0.21135452 0.27024007
000090 c0 62 46 3f 92 c7 2e bd 33 23 78 3d 87 9b 23 3f
       0.7749443 -0.042670794 0.060580444 0.6390919
0000a0 a8 5e e7 3e da a9 b0 3c 90 4f a5 3e c3 78 4f 3e
       0.45189404 0.021565367 0.32287264 0.2026091
0000b0 c2 65 5e 3e c5 dd c8 bd 10 d8 af bd 09 ca 5a 3f
       0.21718505 -0.09807924 -0.085861325 0.8546453
0000c0 cf c0 55 3e da 47 56 3f a5 4c 69 3e 49 fc a5 3e
       0.20874332 0.83703387 0.22783144 0.3241904
0000d0 46 c9 b1 3d 38 c5 ac 3e a7 f5 b8 3e a3 0c 10 3e
       0.08680968 0.33744216 0.36124918 0.1406732
0000e0 5b 42 a8 3e 5e a1 06 3f e9 e7 6c 3e d4 97 d0 3e
       0.32863125 0.52589977 0.23135342 0.40740836
0000f0 95 2b 23 3f 24 89 26 3f 15 e7 67 3c dc 21 8c 3b
       0.63738376 0.6505301 0.014154215 0.0042764973

conv2.nn.2.running_mean f4 [64]
000000 04 00 00 00 b5 e1 ed 3d 42 0f 61 44 36 47 26 44
       6e-45 0.11615316 900.2384 665.1127
000010 04 00 00 00 e4 84 80 42 04 00 00 00 ee 15 96 44
       6e-45 64.25955 6e-45 1200.6853
000020 09 b5 2c 44 04 00 00 00 04 00 00 00 04 00 00 00
       690.8287 6e-45 6e-45 6e-45
000030 04 00 00 00 40 ee ad 41 c8 1e 1d 44 94 25 22 44
       6e-45 21.741333 628.48096 648.58716
000040 95 0a 90 42 71 d6 6b 44 54 67 69 44 04 00 00 00
       72.02067 943.35065 933.6145 6e-45
000050 04 00 00 00 04 00 00 00 04 00 00 00 04 00 00 00
       6e-45 6e-45 6e-45 6e-45
000060 04 00 00 00 a8 ae 4b 44 04 00 00 00 04 00 00 00
       6e-45 814.729 6e-45 6e-45
000070 04 00 00 00 2e ce 2d 44 e4 85 7a 44 aa 79 a7 43
       6e-45 695.22156 1002.09204 334.9505
000080 bf bc e8 43 04 00 00 00 04 00 00 00 9d 43 53 43
       465.47458 6e-45 6e-45 211.26411
000090 4e 16 4d 44 04 00 00 00 04 00 00 00 15 d4 3a 44
       820.3485 6e-45 6e-45 747.3138
0000a0 04 00 00 00 27 a9 08 3d 5b 51 5d 43 51 ba 6e 43
       6e-45 0.03336444 221.3178 238.7278
0000b0 26 53 9e 43 04 00 00 00 c2 88 93 3b 67 25 1c 44
       316.6496 6e-45 0.004502387 624.5844
0000c0 04 00 00 00 3a 0a 6d 44 04 00 00 00 04 00 00 00
       6e-45 948.1598 6e-45 6e-45
0000d0 7a b8 2c 42 04 00 00 00 30 04 9f 44 04 00 00 00
       43.180153 6e-45 1272.1309 6e-45
0000e0 dd 2d 6b 43 04 00 00 00 46 cb ca 32 04 00 00 00
       235.17915 6e-45 2.3608333e-08 6e-45
0000f0 e5 61 39 44 d5 82 90 44 08 5f 31 3d 49 c2 c9 3c
       741.5296 1156.0885 0.04330352 0.024628775

conv2.nn.2.running_var f4 [64]
000000 04 00 00 00 74 6b d6 40 94 a0 b3 47 a8 0a 95 48
       6e-45 6.700617 91969.16 305237.25
000010 04 00 00 00 bf 95 f4 46 04 00 00 00 83 68 20 48
       6e-45 31306.873 6e-45 164258.05
000020 b6 91 6f 47 04 00 00 00 04 00 00 00 04 00 00 00
       61329.71 6e-45 6e-45 6e-45
000030 04 00 00 00 9f be c0 44 59 8b 0d 48 8d ca 76 48
       6e-45 1541.9569 144941.39 252714.2
000040 42 b2 85 46 d3 c7 c3 47 da c6 9f 48 04 00 00 00
       17113.129 100239.65 327222.8 6e-45
000050 04 00 00 00 04 00 00 00 04 00 00 00 04 00 00 00
       6e-45 6e-45 6e-45 6e-45
000060 04 00 00 00 59 e7 1b 49 04 00 00 00 04 00 00 00
       6e-45 638581.56 6e-45 6e-45
000070 04 00 00 00 cf d4 53 48 bf 3f ed 47 92 e1 72 47
       6e-45 216915.23 121471.49 62177.57
000080 a8 d4 10 48 04 00 00 00 04 00 00 00 f2 fb b7 47
       148306.62 6e-45 6e-45 94199.89
000090 7c 67 ac 47 04 00 00 00 04 00 00 00 66 19 c4 48
       88270.97 6e-45 6e-45 401611.2
0000a0 04 00 00 00 21 a3 73 3f 07 6a 41 48 ac f9 1b 48
       6e-45 0.9517079 198056.11 159718.69
0000b0 34 e1 ac 47 04 00 00 00 c4 41 70 3d 58 5c 4e 47
       88514.41 6e-45 0.05865647 52828.344
0000c0 04 00 00 00 15 88 24 48 04 00 00 00 04 00 00 00
       6e-45 168480.33 6e-45 6e-45
0000d0 15 77 86 46 04 00 00 00 78 17 32 48 04 00 00 00
       17211.541 6e-45 182365.88 6e-45
0000e0 99 2b 43 48 04 00 00 00 22 7f b9 31 04 00 00 00
       199854.39 6e-45 5.398662e-09 6e-45
0000f0 68 4a c7 48 94 29 19 48 28 cb f8 3f c6 ff 3d 3f
       408147.25 156838.31 1.9436998 0.74218404

conv2.nn.4.weight f4 [64, 64]
000000 2e 76 09 bd c5 0c c3 3d c5 86 49 bf ce 9b 7f 3e
       -0.03355997 0.0952392 -0.78721267 0.24961779
000010 59 f2 89 3d 77 e5 23 c0 5b bb 4e bd df 72 1a bf
       0.06735677 -2.5608804 -0.050471645 -0.6033153
000020 72 9f 14 bf f6 47 84 be 01 fa 49 3e 44 0b 78 3e
       -0.58055794 -0.25836152 0.19724275 0.24223047
000030 0d ed 76 3d ec 2e 50 bf 93 f7 9d be aa 33 02 3d
       0.060284663 -0.813216 -0.30852947 0.031787552
000040 ad 11 20 bf 12 cd 36 bf 0c 32 59 be f5 a6 b8 bd
       -0.6252697 -0.7140666 -0.21210498 -0.090162195
000050 a1 8e 1b be 54 7e 94 3e 0c 04 a8 bd 17 89 d2 3c
       -0.15191127 0.2900263 -0.08203897 0.025700135
000060 4f a9 11 be 42 20 ca 3e 34 79 d8 3e 3b 8a 64 bd
       -0.14224742 0.39477736 0.4227997 -0.05579589
000070 6a 43 11 3e e7 b2 77 bc 03 b5 38 bf 56 ff 5d be
       0.14185873 -0.015118337 -0.721512 -0.21679434
000080 86 01 f8 3d 8c a9 83 be 03 42 6a be 9f 2f e6 bf
       0.121096656 -0.25715292 -0.22876744 -1.7983283
000090 ce ef 53 bf 75 6c 0a be 37 7f 48 3e 7c 01 27 3e
       -0.8278779 -0.13517936 0.19579779 0.1630916
0000a0 2c 8f ca 3e f8 2a 2d be e3 71 fd bf 99 b7 0d c0
       0.39562356 -0.16910923 -1.980038 -2.214331
0000b0 03 88 ea be c9 d3 29 be b0 96 9f be e4 b8 31 bf
       -0.45806894 -0.16584696 -0.31169653 -0.69422746
0000c0 b1 bd a5 3e b1 39 9b be 05 1e 80 3e 78 eb 7a 3e
       0.32371286 -0.30317453 0.25022903 0.24503887
0000d0 49 c2 ca bf 3f a7 69 3e 3f f0 2f bf ac eb 20 3e
       -1.5840541 0.22817706 -0.6872596 0.15714902
0000e0 07 3d b6 bf b9 d3 7c 3e 3b c6 f2 bd 15 9f af 3e
       -1.4237374 0.24690141 -0.11854216 0.34301057
0000f0 66 70 0e ba a4 a6 1d bf 6d 67 b1 3c 7d 36 08 bd
       -0.0005433619 -0.615824 0.021655763 -0.03325509
000100 39 13 7e 3c 99 65 7d 3e 12 b1 1c bf a6 42 95 bf
       0.015507513 0.24745788 -0.6120769 -1.1660964
000110 c1 b9 58 3c bd 3b 05 be 0f 63 40 bd 6f 4c 0e bf
       0.013227881 -0.1301107 -0.04696947 -0.5558538
000120 b0 dc 1c bf 04 32 67 bd 6c 17 07 3c 61 05 85 3c
       -0.6127424 -0.056444183 0.00824533 0.016237916
000130 e7 f1 bd 3d fd ea 70 be 4c d4 67 be 83 88 8e bf
       0.09274655 -0.23527141 -0.22639579 -1.113541
000140 2f 54 91 bf 51 da 26 bf 45 65 5d bf e8 32 92 bd
       -1.1353816 -0.65176874 -0.8648265 -0.07138616
000150 1b 4c b9 bd 91 b0 5e 3e 17 5a 13 bd d7 ff 9a 3d
       -0.09047719 0.21747042 -0.03597459 0.07568329
000160 99 7e 0b bd 97 b1 8a bf 48 1e 47 3d fd 7b 99 bb
       -0.03405628 -1.0835446 0.048612863 -0.00468397
000170 ec 1c e9 bd 03 51 ae bf 69 0e 30 bf d3 85 5b 3b
       -0.113824695 -1.3618473 -0.6877199 0.0033496513
000180 6c e7 ba bf 66 ea 2f be 21 c5 40 be 0b bd 33 be
       -1.4601874 -0.1717926 -0.18825199 -0.17552583
000190 3d c1 0d bf e8 9a 1a be 70 25 d8 3c ec e9 ad bf
       -0.55372983 -0.15098155 0.02638504 -1.3587012
0001a0 12 72 a7 3d c7 a1 1a 3d b9 c8 88 be 1a 75 ce be
       0.08176054 0.03775194 -0.2671564 -0.40323716
0001b0 b2 65 23 bf e6 1d 51 bd 73 c8 23 be f2 05 bf be
       -0.6382705 -0.051053904 -0.15994434 -0.37309223
0001c0 79 9a fb ba 60 5a 38 bf e9 8b 91 3d e1 57 6d 3e
       -0.0019195817 -0.720129 0.07106764 0.23178054
0001d0 b2 81 e3 bd e4 5f 5c 3e c4 70 03 bf f2 ae 56 3d
       -0.11108722 0.21520954 -0.5134394 0.052412935
0001e0 b9 f1 5c be 1c a0 1c 3e 5c 29 87 be b3 10 c2 bc
       -0.21576585 0.15295452 -0.26398742 -0.023689603
0001f0 6e e1 85 bf 32 cf 36 bf ac 7d 97 3b f3 0c 19 3b
       -1.0459421 -0.71409905 0.0046231356 0.0023353666
000200 fe e1 fd bd 6d 24 1b 3e 68 16 42 bf a7 fc b0 bf
       -0.1239662 0.15150614 -0.7581544 -1.3827103
000210 e3 43 5e 3d 1d e4 3f be 7a d4 05 bb 44 37 2b bf
       0.05426396 -0.18739362 -0.0020420835 -0.66881204
000220 65 67 4a bf 15 a5 42 bd 6f 85 ec 3d 5d 0d 51 bd
       -0.7906402 -0.047520716 0.11548888 -0.051038135
000230 28 9f 85 3d 4c c5 1c be 39 96 23 bd d4 a7 a6 bf
       0.06524497 -0.15309638 -0.039938185 -1.3019967
000240 68 ae b0 bf 4b 50 5b bf 8a 19 88 bf e9 e4 81 bc
       -1.3803225 -0.8566939 -1.0632794 -0.015856223
000250 56 33 8e 3d ca 38 31 3e 69 f0 e8 bc 91 6f 12 3d
       0.06943385 0.1730682 -0.028434949 0.03575093
000260 54 e4 06 be 88 2e a2 bf 90 79 85 3d c4 a0 ef bc
       -0.13173038 -1.267045 0.06517327 -0.029251464
000270 95 f9 36 ba 1f e7 c6 bf 6d ff 53 bf 75 55 d0 bc
       -0.00069799396 -1.5539283 -0.82811624 -0.025431374
000280 03 4c e3 bf d4 27 d3 ba 92 1c b8 bd e5 d7 0e bc
       -1.7757572 -0.0016109892 -0.08989824 -0.008718465
000290 e8 d2 1d bf a5 37 61 be 14 b5 67 3c 6b c7 d6 bf
       -0.6164994 -0.21993883 0.0141422935 -1.6779608
0002a0 c8 6d a3 3c ea 7d 00 bd fd cc 48 be 29 48 a0 be
       0.019949809 -0.03137008 -0.19609447 -0.31305054
0002b0 ed 28 63 bf 5b 6b b3 bc 84 56 11 bf 35 8f 2b bf
       -0.8873432 -0.021901777 -0.5677264 -0.6701539
0002c0 29 12 08 be 22 d7 80 bf 50 43 74 bd 9e 67 a6 3d
       -0.13288178 -1.0065653 -0.059634507 0.08125232
0002d0 01 c2 96 be 84 b7 13 3e 96 88 46 bf 48 e1 5b bd
       -0.29444888 0.14425474 -0.77552164 -0.05368164
0002e0 45 1f bf be fd fa 21 3e 1f 7c 0a be 9a 06 b5 3c
       -0.37328544 0.158184 -0.13523911 0.022097874
0002f0 cf 2d 9f bf fd 07 79 bf 5d a1 2d 3d 61 de 31 bd
       -1.2435855 -0.97277814 0.042390216 -0.043424968
000300 98 f9 04 be 16 ec 29 3f 6e 6c 4c be d9 c1 89 bf
       -0.12985837 0.66375864 -0.19963238 -1.0762283
000310 93 17 a2 3e a3 15 be be dd 11 e8 bc 2e 83 e9 be
       0.3165861 -0.37125883 -0.02832883 -0.45607895
000320 91 f9 82 3c a3 d1 16 bf 03 1c c8 3e 85 8a 0a 3f
       0.015988143 -0.5891363 0.3908387 0.54117614
000330 27 4e 22 3e 60 55 d2 be 97 f3 bb be 3b 43 91 bf
       0.15850125 -0.4108076 -0.36709282 -1.1348642
000340 45 ed 15 c0 4c 8b ff bd ce 0c 70 bf e3 d3 b8 3c
       -2.3426068 -0.12477741 -0.9376954 0.022561973
000350 fe ed d0 be cc 02 2c 3f 74 2d 74 3e 09 1b 2e 3e
       -0.40806574 0.6719177 0.23845464 0.170025
000360 c4 f9 bd 3d 4e 6c bf bf 01 4f 0b 3f 31 2f d2 be
       0.09276155 -1.4954927 0.54417425 -0.4105163
000370 c9 32 24 3e 7f 4e 79 bf 10 2c f7 bd ad b1 e5 be
       0.16034998 -0.973854 -0.12068951 -0.44862118
000380 b8 3b b5 bf 9b 94 09 bf 74 50 30 bf 02 a8 8a be
       -1.415885 -0.5374238 -0.6887276 -0.27081305
000390 55 ea 62 bd ad 71 4d be 10 41 c9 3e 24 6c a4 bf
       -0.055399258 -0.20062895 0.3930745 -1.2845502
0003a0 49 64 20 3f 44 35 6d be 25 41 bb be 98 30 c8 be
       0.62653023 -0.2316485 -0.3657314 -0.39099574
0003b0 7b cd 55 bf 77 4a f5 be e8 ab e9 be 07 b5 8e 3e
       -0.83516663 -0.47908375 -0.45638967 0.27872488
0003c0 a0 14 fa 3e a8 bf 38 be cf 18 04 3f 0c 00 04 3f
       0.4884386 -0.18041861 0.51600355 0.5156257
0003d0 79 cb 4b bb f7 4b 2d 3f 07 8d bc be 7d 65 07 3f
       -0.003109662 0.6769404 -0.36826345 0.52889234
0003e0 60 28 89 be 15 b4 2a 3f 85 11 db 3e 25 78 1b 3f
       -0.26788616 0.66681033 0.42786804 0.607302
0003f0 aa f7 b2 bf 12 ac c7 be 37 de 3c be 21 6e aa 3d
       -1.3981831 -0.38998467 -0.18444143 0.08321787

conv2.nn.4.bias f4 [64]
000000 20 3f ce 3e 69 d6 0d 3e 3a b9 e0 3d 81 8c 2d 3f
       0.40282536 0.13851322 0.10972829 0.67792517
000010 17 b2 82 3d c5 a7 83 3e 7a b9 d7 bf a6 8d 49 3e
       0.06381624 0.25713935 -1.6853478 0.19682941
000020 90 dd 78 3e 6a 9c 17 3f 2d fc e7 3e cf 6d 2a 3e
       0.2430327 0.59223044 0.45309582 0.16643451
000030 96 3d ab bd d0 7d 0a 3f 9b 12 d9 3d ec d3 29 3f
       -0.08361356 0.54098225 0.10599252 0.6633899
000040 1b 85 8c 3d de 03 01 3f 21 a1 32 be 37 46 34 3f
       0.06861325 0.50396526 -0.17444278 0.7041964
000050 e7 ab 67 bf c8 8b d9 3c 14 26 06 3f a4 db d6 3e
       -0.9049668 0.02655591 0.5240185 0.41964447
000060 a3 71 10 3f b2 3d 83 3d 94 7f da 3e 72 43 44 bf
       0.56423396 0.06408252 0.4267546 -0.76665413
000070 38 b1 16 3f 10 4e c8 bf 89 44 22 3f f4 ee 43 3e
       0.58864164 -1.5648823 0.63385826 0.19134122
000080 d4 8f 92 3e 20 9d 20 3f e6 02 e9 3d c5 c2 57 bf
       0.28625357 0.62739754 0.11377506 -0.8428157
000090 2f d8 6d 3c b7 e7 d2 3d f3 b7 26 3f 84 31 ae 3e
       0.014516874 0.10298102 0.65124434 0.34022152
0000a0 82 50 f1 3e 30 e9 1d 3f 8b 0f ce 3d 77 74 32 be
       0.47131735 0.6168394 0.10061558 -0.1742724
0000b0 b2 91 38 3e 42 6e 0f 3d e1 83 ce 3e 3d 5b 79 3e
       0.18024328 0.03501726 0.4033499 0.24351211
0000c0 fc 50 08 3f 0b 4b d0 3e 63 b3 8a bd 44 df 71 be
       0.5324857 0.40682253 -0.067724966 -0.23620325
0000d0 dd a8 5b 3d 30 10 9b 3e 08 11 cf 3e c8 56 10 3e
       0.053627837 0.30285788 0.4044268 0.14095604
0000e0 fe 95 0f 3e 1f 64 0f bc 6e cb 4d be ca 4e 2c 3f
       0.14022061 -0.008751898 -0.20097134 0.6730772
0000f0 a5 a9 e3 3e e1 0d db 3d 27 f8 cd 3d 44 21 b6 3e
       0.44465366 0.106960066 0.10057097 0.35572255
