models/0_2023_2023/Spatial_GIN/25.pth (torch, 134066 bytes, 21 tensors)

conv1.nn.0.weight f4 [64, 12]
000000 74 ad 45 3c eb 09 85 bc 75 3d b5 bc 92 c1 37 bc
       0.01206528 -0.01624008 -0.022124032 -0.011215584
000010 1c 99 6a bd d3 be a0 bc 5c 79 64 bc 4d 63 12 bd
       -0.057274923 -0.019622242 -0.01394495 -0.03573923
000020 da 0e 26 3d 71 1f f6 bc 9b 6f 93 bc a9 6e ca bb
       0.040541507 -0.03004429 -0.017997554 -0.0061777425
000030 50 47 19 bd b6 5b bf b9 c4 3b b6 bc 15 62 1e bd
       -0.037421525 -0.0003649869 -0.022245295 -0.038667757
000040 21 85 94 3a 4f 83 27 3d 38 61 3a 3c b5 10 1c 3d
       0.0011331179 0.04089671 0.011375718 0.03810187
000050 40 da ec b9 ea 16 84 bc 93 80 18 3d 34 86 c9 bc
       -0.00045176037 -0.016124208 0.037231993 -0.024600126
000060 35 32 27 3e 26 dc a2 3e c0 31 99 3e 69 d1 3f be
       0.16327746 0.31808585 0.2992077 -0.18732227
000070 dc f9 97 be 14 bd 34 be 31 36 e8 3e 1d ed 87 be
       -0.29682815 -0.17650253 0.45353845 -0.2654809
000080 9e b3 da be 0d 2d 4a be 20 23 58 3e 80 20 42 be
       -0.42715162 -0.19743748 0.21107149 -0.1895771
000090 12 d4 00 3f bf 51 c3 3e 98 80 b2 3e 75 ca 98 be
       0.50323594 0.38148305 0.34863734 -0.29841962
0000a0 c1 da b3 be 40 8c 75 be c9 3a 98 3f 7a 28 8e 3e
       -0.35127833 -0.23979282 1.189294 0.27765256
0000b0 39 a1 a9 be ea e1 96 be a3 21 92 be a8 94 2b 3d
       -0.33130816 -0.29469234 -0.28541288 0.041889817
0000c0 60 5c 44 bd c2 8f 07 bd 93 17 7b 3c cd 1c 08 bc
       -0.04793966 -0.033096083 0.015325445 -0.008307648
0000d0 78 72 8f 3c e7 84 6c bd 9f 94 b9 3a ee 87 a5 ba
       0.017510638 -0.057743933 0.0014158672 -0.0012629011
0000e0 c3 44 b7 bc fc 77 7a bc 31 f1 6a bd be f3 0a 3d
       -0.022371655 -0.015287396 -0.057358924 0.033923857
0000f0 d4 02 e4 bd ad 63 9f bd 18 4e c0 3b 0a 58 a2 bc
       -0.11133352 -0.077826835 0.0058686845 -0.01981737
000100 10 71 48 be ad 30 e8 bc ca 44 51 be 8e 92 0b 3c
       -0.1957438 -0.028343523 -0.20436397 0.008518828
000110 e2 aa 17 3e ec 34 25 3e d9 df 11 bd 17 78 e3 3d
       0.1481128 0.1613347 -0.03561387 0.1110689
000120 35 66 a3 bc b4 38 6a bd ec de 85 bc fa 4f 3f bc
       -0.019946197 -0.057182983 -0.016341649 -0.011676783
000130 64 3f 09 bd d6 53 9d bd b5 66 4d bd 39 a2 02 3a
       -0.03350772 -0.07682006 -0.050146777 0.00049832795
000140 74 3f cf bc b0 08 fb 39 4b 00 39 bd 6f c4 ee bb
       -0.025298811 0.00047880923 -0.045166295 -0.0072866003
000150 69 b8 74 40 17 5e 20 40 f5 e4 22 40 b4 15 ac be
       3.8237555 2.5057428 2.5452244 -0.33610308
000160 36 f1 c2 3f 93 29 82 3e 25 81 54 40 82 47 02 40
       1.5229862 0.25422344 3.3203824 2.0356145
000170 91 84 14 bf 6e 9d 2f 3f ce d5 1e 40 52 df e9 3e
       -0.5801478 0.68599594 2.4817996 0.45678192
000180 c3 8d e4 be d2 42 19 be 7a 3e 19 be a7 ed a3 bd
       -0.44639406 -0.14966896 -0.14965239 -0.08004313
000190 f9 29 9e be 97 47 f0 bc 33 15 a0 be a7 d0 c4 3e
       -0.30891398 -0.029331012 -0.31266174 0.3844044
0001a0 de 42 04 3e a6 0f bc bd ed e2 86 bd 1a d6 f8 3c
       0.12916133 -0.09182672 -0.065862514 0.03037553
0001b0 c8 f3 e9 bb b9 49 11 bd 86 f2 79 3c 53 f0 40 bc
       -0.0071396567 -0.035470698 0.015255576 -0.011776048
0001c0 57 2b b6 bc 8b 07 ef 3c 13 85 cd ba dc 52 d8 bc
       -0.022237463 0.029178401 -0.0015679918 -0.026406698
0001d0 46 72 e2 bc c9 32 32 3d 4d 27 f6 3c 52 ae 07 bd
       -0.02764238 0.043505464 0.030048037 -0.03312523
0001e0 74 6f 0b bf 53 88 32 be e0 39 1f be 03 0f 22 bd
       -0.5446694 -0.17434816 -0.15549421 -0.039565098
0001f0 88 b7 ee be ef 2e 7c 3c 69 45 87 be 5f ca d4 3e
       -0.46624398 0.015392049 -0.26420143 0.41560647
000200 b6 59 e2 3e ff a6 35 bd ba 8c cc 3c ef bf 2c 3d
       0.4420907 -0.044348713 0.024969447 0.04217523
000210 e6 83 64 bc 8d 18 29 bd 69 73 5d 3c 2e a9 04 bd
       -0.013947463 -0.04128318 0.013516285 -0.032387905
000220 f9 41 f7 bc 52 50 4e 3c e7 bf 8f bb 89 ee 4d bb
       -0.030182825 0.012592392 -0.00438689 -0.0031422696
000230 36 b8 29 3d e5 c1 04 bc ce 5b e6 3c 8f 8e 6b bc
       0.041435443 -0.008102869 0.028119948 -0.01437725
000240 3a de 0d be 75 00 1c bd 10 b9 48 bc f2 51 36 bd
       -0.13854304 -0.038086373 -0.012251154 -0.044511743
000250 f0 53 7a be 0b c1 0b be e0 4b a5 be f6 5e 6f 3d
       -0.24446082 -0.13647859 -0.3228445 0.05844017
000260 80 98 89 3e c0 4f 1e 3e d9 dd 90 bd 9b 5e 63 3e
       0.2687416 0.1546011 -0.07073564 0.22204058
000270 8c 5c 26 c0 b0 f2 cd 3f 6c f6 d4 3f 26 12 8b 3e
       -2.5993986 1.6089687 1.6637702 0.27162284
000280 37 4a 4b c0 49 c1 00 bf f2 42 91 c0 b5 45 d1 bf
       -3.1764047 -0.5029493 -4.539422 -1.6349398
000290 2d 72 68 40 22 be 6c 40 08 54 02 c0 81 d3 4e 40
       3.6319687 3.6991048 -2.0363789 3.2316592
0002a0 fd 7b 6a bf 67 73 90 bd 33 f9 92 bd ee d8 ce bc
       -0.9159544 -0.07053261 -0.07176437 -0.025249925
0002b0 8f a9 88 bf a9 53 91 bf 59 f9 f9 bf c2 0d b1 3e
       -1.0676745 -1.1353656 -1.952922 0.3458081
0002c0 58 37 f9 3f 24 9b cc 3f 7e 35 73 be 8b a8 fb 3f
       1.9470015 1.5984845 -0.23750874 1.966081
0002d0 aa 28 10 bf 6c 6e ad bd 74 8c 02 be fd 48 13 bd
       -0.5631205 -0.08468327 -0.12748891 -0.03595828
0002e0 51 d3 06 bf 17 23 92 bc 8d fb 0f bf 93 57 1a 3f
       -0.52666193 -0.017838998 -0.5624321 0.6028988
0002f0 56 3a 18 3f 7c d1 b2 3c 11 56 13 3d 17 c6 94 3b
       0.59464014 0.021828406 0.03597075 0.0045402157
000300 93 e9 89 bd a7 12 9d bd 81 1c f5 bc aa 58 97 bc
       -0.06734004 -0.07669573 -0.029920818 -0.018474896
000310 75 0b c3 bd 9f c3 3e bc 50 16 52 be 69 e4 65 39
       -0.0952367 -0.011643319 -0.20516324 0.00021924231
000320 ea c8 d3 3d 39 b9 07 bb 79 81 12 bd dd 83 65 3d
       0.10341056 -0.0020709767 -0.035768006 0.056033958
000330 fc b3 ff bc df ce 3f bd 3f c6 c9 bd fe b4 56 bc
       -0.031213753 -0.046828147 -0.098522656 -0.013104675
000340 0d 7f d9 bd 14 9c db bb ce ed 50 bd f8 d8 72 37
       -0.10619936 -0.0067019556 -0.05100804 1.4474841e-05
000350 6a 06 44 3d 84 35 67 3d 50 4b c2 3c 68 fc 09 3d
       0.04785768 0.05644752 0.023717552 0.03368798
000360 ee 0f 3b 3c bc 0b fa bb b2 c8 53 ba c8 52 64 bc
       0.011417372 -0.0076307934 -0.0008078917 -0.013935752
000370 b1 c4 95 bc f6 ea da 3c c5 65 a2 3c 62 0e a7 bc
       -0.018282266 0.026723366 0.019823918 -0.0203926
000380 3b c2 26 bd 1c 0a b9 3c 77 0e 2e bd 71 f8 05 bb
       -0.040712576 0.022587828 -0.042494263 -0.0020442272
000390 47 84 47 3e d1 5b 8e 3f 9d f1 82 3f 78 5c 27 be
       0.19484054 1.112177 1.0229985 -0.16343868
0003a0 6b 62 90 3e e6 02 2c 3e 17 f4 a8 3e 30 c8 31 be
       0.28200087 0.1679798 0.32998726 -0.17361522
0003b0 b1 54 86 3e 67 60 c6 3d 7f 86 0b bd 13 56 36 3e
       0.2623649 0.09686356 -0.034063812 0.17806272
0003c0 0b 26 42 bd 77 4b c9 bd 68 75 8e bd 08 f3 55 bc
       -0.04739956 -0.09828847 -0.06955987 -0.013058431
0003d0 e9 ee ca bd d3 21 ab 3b c8 18 77 bd 5e bc 46 bd
       -0.0990885 0.005222538 -0.060326368 -0.048519485
0003e0 f6 7a 1a 3d a6 23 48 bd 7c da d4 bc f4 36 2c 3d
       0.03771492 -0.048862122 -0.025983088 0.042044595
0003f0 b9 aa 23 3d dc c3 d3 bc c2 39 d7 bc 2e e1 bc bc
       0.039957736 -0.025850229 -0.026272658 -0.023056593

conv1.nn.0.bias f4 [64]
000000 9f 80 73 bd 14 da cd 3c de 15 bf 3e b0 31 e1 3d
       -0.059448835 0.025128402 0.3732137 0.10995805
000010 d5 0a 9c 3c 05 52 ae bc 11 fd c8 3c de d7 ed 3e
       0.019048134 -0.021279344 0.024534734 0.46453756
000020 bb fb e5 be 48 65 44 3b ed c6 0c bf fb b6 c1 3c
       -0.44918618 0.0029967595 -0.54991037 0.023646822
000030 4e a4 ba bd 9f 39 85 3f ce 09 85 be 63 93 20 bf
       -0.0911337 1.040821 -0.25984043 -0.62724894
000040 ac f2 26 bd df 5d b1 bd c6 ec 53 3c 00 ad 0d 3f
       -0.040758774 -0.086604826 0.012934869 0.553421
000050 ed 31 5a bc c3 0f 00 bd 5b c4 3c bc 43 77 2a bd
       -0.013317567 -0.03126503 -0.011521424 -0.041617643
000060 a6 94 04 bf 7f d4 fa 3e 7b 01 eb be 72 97 98 be
       -0.5178932 0.48990247 -0.45899567 -0.29803044
000070 be 7a 88 bc 4b f4 05 bd a5 73 42 bc 30 cb 6d be
       -0.01666009 -0.03270368 -0.011868392 -0.23222041
000080 99 f7 83 bd 62 fc f5 be 47 7c fa bc 9d f8 5d bf
       -0.0644371 -0.48044115 -0.030576838 -0.8670748
000090 78 58 9b bb 05 cb b0 bb c8 21 33 3d b4 ef 96 3b
       -0.004740771 -0.0053952956 0.04373339 0.0046062116
0000a0 54 d3 55 be c7 9b 2f bd 1b 95 d9 bb aa 72 9a bd
       -0.20881397 -0.04287317 -0.006640089 -0.07541402
0000b0 f3 94 01 be 46 5f c0 be 59 37 97 bd 74 9c 4d bd
       -0.12654476 -0.37572688 -0.073836036 -0.050198033
0000c0 3f 15 b9 bd 84 86 b1 be 5a 0e a3 be 98 70 2a bc
       -0.090372555 -0.3467294 -0.31846887 -0.010402821
0000d0 f8 78 80 bd 15 c5 7b 3c b7 df e1 bb 6b c8 f2 bc
       -0.06273073 0.015366812 -0.006893124 -0.029636582
0000e0 1d 24 6b bc eb f3 30 3d f3 9c 42 be c4 c3 8a be
       -0.014351872 0.04320137 -0.19005184 -0.27102482
0000f0 7d c7 d3 bd 0b 1d c4 bc 3d a6 da 3d 88 ba 41 be
       -0.10340784 -0.02393963 0.10676239 -0.18918812

conv1.nn.2.weight f4 [64]
000000 f8 f3 0a 3e 3d de 23 3e e6 88 2d bf 0e f5 d7 be
       0.13569629 0.16002746 -0.67787015 -0.4217915
000010 9a 13 2b 3e 03 9b 25 3e 4b 80 17 3e 12 8c 97 be
       0.16706696 0.16172414 0.14795034 -0.29599053
000020 3c 61 19 be 3d de 23 3e a5 37 a6 3d 3d de 23 3e
       -0.14978498 0.16002746 0.08116082 0.16002746
000030 3e 1e 27 3e 6a 11 c1 3f 0d 5f 89 3e 69 ac 90 bd
       0.1632013 1.5083439 0.2683033 -0.07064135
000040 e2 4d 00 3e be 91 29 3e 3d de 23 3e 15 d2 fa 3e
       0.1252971 0.16559502 0.16002746 0.48988405
000050 b2 bc 1d 3e 3d de 23 3e 7a 52 06 3e d6 7a f0 3d
       0.15404013 0.16002746 0.131174 0.11742179
000060 fb a0 df bc 7c c7 fb 3e dd bf 12 3c fa d2 7d bc
       -0.027298441 0.49175632 0.008956877 -0.015492195
000070 2e 15 13 3e ff 45 16 3e 8b 4f e5 3d e3 f2 23 bb
       0.14363548 0.14675139 0.11196812 -0.0025016598
000080 a3 da 9f 3e fe 15 d3 ba e6 8b 20 3e ae 70 42 3f
       0.31221494 -0.0016104577 0.15678367 0.75953186
000090 7e 7c 23 3e 3d de 23 3e 3d de 23 3e e1 5a 2d 3e
       0.15965459 0.16002746 0.16002746 0.16929199
0000a0 bd ff 0f be e2 3a 22 3e 42 4e 04 3e 46 15 23 3e
       -0.140624 0.15842775 0.12920478 0.15926084
0000b0 f9 7e 06 bf 3a 3c d7 3b a3 d1 42 3e ab 34 ea 3d
       -0.52537495 0.006568459 0.19025283 0.11435827
0000c0 0b cc 1b 3e 5a fa 28 3e fc 2c a3 bc f9 68 2d 3e
       0.15214555 0.16501752 -0.019918911 0.16934575
0000d0 e3 d9 25 3e 4c 7d 13 3e 3d de 23 3e 42 34 15 3f
       0.16196398 0.14403266 0.16002746 0.58282864
0000e0 3d de 23 3e bc c7 17 3e 9d 77 b4 bb a8 53 ff 3b
       0.16002746 0.14822286 -0.005507423 0.007791955
0000f0 24 41 a7 3b 01 c5 cc 3d 84 a9 03 3f 6f 13 c8 3b
       0.005104201 0.09998513 0.51430535 0.0061058323

conv1.nn.2.bias f4 [64]
000000 35 24 1d 3e 3d 69 7c bd 3b 41 08 3d 3a 48 30 3e
       0.15345843 -0.0616238 0.033265334 0.17215052
000010 d2 f6 3d be b7 91 19 3e 4f a2 b1 3e 3b 09 0b be
       -0.18551186 0.14996992 0.34694144 -0.1357774
000020 47 39 85 bc dd 2d 28 3c 3a f6 eb 3c 00 b8 b9 3d
       -0.016262664 0.010264841 0.028803933 0.09068298
000030 80 c3 dc be 5b 7b c4 3d cc 40 f5 bb b6 69 26 bd
       -0.43117905 0.09593841 -0.007484531 -0.040628158
000040 bd 1c 0d bd b2 23 67 3e 7e e2 b8 bd d0 b4 91 bd
       -0.034451235 0.2257221 -0.09027575 -0.07114565
000050 74 c5 a0 3b 99 c0 de 3d e9 03 51 3b 2f 48 e6 bc
       0.0049063507 0.10876579 0.00318932 -0.028110592
000060 a3 42 ca 3e e7 91 37 bd ae 80 35 bf 9e 38 d2 bb
       0.39503965 -0.044816878 -0.70899475 -0.0064154407
000070 50 e9 c5 3d 3b f4 a2 3c 51 f6 ad be 04 59 18 bd
       0.096636415 0.019891849 -0.33976987 -0.037194267
000080 f1 1e 8b 3c 58 87 0c be f7 a7 af bb e6 ae a8 3a
       0.016982527 -0.13723505 -0.005360599 0.0012869507
000090 b6 32 7b 3e 9a 28 9c bc 19 02 44 3b d0 15 00 bd
       0.24531063 -0.01906233 0.0029908477 -0.031270802
0000a0 d3 67 82 bc c0 fb 10 bc 1d 77 35 3d 2e 5c f4 bc
       -0.015918648 -0.008849084 0.04430305 -0.029829111
0000b0 02 02 91 bd ab ed 3f be b1 19 51 3d de 57 c3 3e
       -0.07080461 -0.18743007 0.05104989 0.38152975
0000c0 c4 10 1b bc e3 df d2 3d c0 9d b7 be cf 19 9f 3e
       -0.009464446 0.10296609 -0.3586254 0.31074378
0000d0 9d a3 e9 bd c9 e0 a2 3c 58 ad c4 3d a0 d2 20 ba
       -0.1140816 0.019882577 0.09603375 -0.0006134901
0000e0 a3 70 29 3d fa 3b f2 3e b2 3d 94 be be d5 85 bd
       0.041367184 0.47311383 -0.2895332 -0.06534909
0000f0 fb 17 fd bc f2 07 8a 3d 5e c2 57 3e ab c0 46 bc
       -0.030895224 0.06739797 0.21070239 -0.012130897

conv1.nn.2.running_mean f4 [64]
000000 04 00 00 00 00 00 00 00 55 98 2a 3e ca 74 61 3e
       6e-45 0.0 0.16659673 0.22017208
000010 04 00 00 00 04 00 00 00 04 00 00 00 f9 4f bb 3f
       6e-45 6e-45 6e-45 1.4633781
000020 04 00 00 00 00 00 00 00 04 00 00 00 00 00 00 00
       6e-45 0.0 6e-45 0.0
000030 04 00 00 00 20 1d 0b 49 04 00 00 00 04 00 00 00
       6e-45 569810.0 6e-45 6e-45
000040 04 00 00 00 04 00 00 00 00 00 00 00 00 fe 0e 3f
       6e-45 6e-45 0.0 0.55856323
000050 04 00 00 00 00 00 00 00 04 00 00 00 04 00 00 00
       6e-45 0.0 6e-45 6e-45
000060 04 00 00 00 40 31 52 3e 04 00 00 00 04 00 00 00
       6e-45 0.205266 6e-45 6e-45
000070 04 00 00 00 04 00 00 00 04 00 00 00 04 00 00 00
       6e-45 6e-45 6e-45 6e-45
000080 04 00 00 00 04 00 00 00 04 00 00 00 04 00 00 00
       6e-45 6e-45 6e-45 6e-45
000090 04 00 00 00 00 00 00 00 00 00 00 00 04 00 00 00
       6e-45 0.0 0.0 6e-45
0000a0 04 00 00 00 04 00 00 00 04 00 00 00 04 00 00 00
       6e-45 6e-45 6e-45 6e-45
0000b0 11 3f 2d 3f 04 00 00 00 04 00 00 00 04 00 00 00
       0.67674357 6e-45 6e-45 6e-45
0000c0 04 00 00 00 04 00 00 00 04 00 00 00 04 00 00 00
       6e-45 6e-45 6e-45 6e-45
0000d0 04 00 00 00 04 00 00 00 00 00 00 00 04 00 00 00
       6e-45 6e-45 0.0 6e-45
0000e0 00 00 00 00 04 00 00 00 04 00 00 00 04 00 00 00
       0.0 6e-45 6e-45 6e-45
0000f0 04 00 00 00 04 00 00 00 81 3f 62 3e 04 00 00 00
       6e-45 6e-45 0.22094537 6e-45

conv1.nn.2.running_var f4 [64]
000000 04 00 00 00 04 00 00 00 99 5a 55 42 86 d0 b2 42
       6e-45 6e-45 53.338474 89.40727
000010 04 00 00 00 04 00 00 00 04 00 00 00 6e 6e 73 45
       6e-45 6e-45 6e-45 3894.9019
000020 04 00 00 00 04 00 00 00 04 00 00 00 04 00 00 00
       6e-45 6e-45 6e-45 6e-45
000030 04 00 00 00 7b d9 dc 51 04 00 00 00 04 00 00 00
       6e-45 1.1856769e+11 6e-45 6e-45
000040 04 00 00 00 04 00 00 00 04 00 00 00 a2 74 19 44
       6e-45 6e-45 6e-45 613.8224
000050 04 00 00 00 04 00 00 00 04 00 00 00 04 00 00 00
       6e-45 6e-45 6e-45 6e-45
000060 04 00 00 00 21 3d a6 42 04 00 00 00 04 00 00 00
       6e-45 83.11939 6e-45 6e-45
000070 04 00 00 00 04 00 00 00 04 00 00 00 04 00 00 00
       6e-45 6e-45 6e-45 6e-45
000080 04 00 00 00 04 00 00 00 04 00 00 00 04 00 00 00
       6e-45 6e-45 6e-45 6e-45
000090 04 00 00 00 04 00 00 00 04 00 00 00 04 00 00 00
       6e-45 6e-45 6e-45 6e-45
0000a0 04 00 00 00 04 00 00 00 04 00 00 00 04 00 00 00
       6e-45 6e-45 6e-45 6e-45
0000b0 da bf 7b 44 04 00 00 00 04 00 00 00 04 00 00 00
       1006.9977 6e-45 6e-45 6e-45
0000c0 04 00 00 00 04 00 00 00 04 00 00 00 04 00 00 00
       6e-45 6e-45 6e-45 6e-45
0000d0 04 00 00 00 04 00 00 00 04 00 00 00 04 00 00 00
       6e-45 6e-45 6e-45 6e-45
0000e0 04 00 00 00 04 00 00 00 04 00 00 00 04 00 00 00
       6e-45 6e-45 6e-45 6e-45
0000f0 04 00 00 00 04 00 00 00 36 00 d8 42 04 00 00 00
       6e-45 6e-45 108.00041 6e-45

conv1.nn.4.weight f4 [64, 64]
000000 10 91 a8 ba a0 e3 4b 3d 28 7e c8 3d 52 0d 9e 3c
       -0.0012860615 0.049777627 0.097896874 0.019293461
000010 86 64 9f 3d e0 fc bb bd be 94 46 bd f8 fb 28 3d
       0.07782845 -0.091790915 -0.048481695 0.04125592
000020 85 bc 2f 3e 2d cc 6b bd f2 7c ba 3d 81 e7 0b 3e
       0.17161758 -0.057567764 0.09105863 0.1366253
000030 3a 21 26 bb 29 57 cc bd 18 d0 96 bc a3 81 6d 3d
       -0.0025349394 -0.09977562 -0.018409774 0.05798496
000040 bf 36 11 3e 38 00 8d bd 83 bc ed bd 9e e8 04 be
       0.1418104 -0.06884807 -0.116082214 -0.12979361
000050 e8 a1 54 3d 1d 19 1b be 02 d2 c3 3d 3b 0f 16 be
       0.05191222 -0.15146299 0.0956154 -0.14654247
000060 96 28 ed bd b2 8a e9 bb 14 b2 db 3d 71 45 bf 3d
       -0.11580007 -0.0071271295 0.10727325 0.09339417
000070 09 c9 0d 3b bc 88 a8 bd 6e f7 dd 3c 39 d0 18 3d
       0.002163472 -0.08229205 0.027095523 0.03730795
000080 62 4b a4 bc 96 cb 42 3c 8e 47 eb 3d 95 b3 56 3f
       -0.020055477 0.011889359 0.11488257 0.8386777
000090 6f 4a bd bc 89 98 00 be 83 be a5 3d fa 3b 2c 3e
       -0.023106782 -0.12558188 0.08092978 0.16819754
0000a0 06 0b 96 bc e1 bd b4 bd 63 1e 29 3d eb 49 ff bc
       -0.018315803 -0.08825279 0.041288745 -0.031163177
0000b0 1e aa 92 3d ce 9a 61 3d 4f dc 9e 3d 18 70 2f be
       0.071613535 0.055079274 0.07756864 -0.17132604
0000c0 82 e4 19 3d ae 46 c0 bd 64 8d a8 bd 89 0b 84 bd
       0.037571438 -0.09388481 -0.08230093 -0.06447513
0000d0 24 e4 4f bd 8d da 97 3c 43 94 4e 3d 6f 9a 7f 3d
       -0.05075468 0.01853683 0.050434362 0.06240314
0000e0 8f 68 d1 3d 72 47 64 3d bd 3c 2b bc 67 d5 d4 bc
       0.10225021 0.055732198 -0.010451493 -0.025980664
0000f0 86 5f 5d bc 81 05 19 3e eb af 07 be c1 73 89 3d
       -0.013511544 0.14943506 -0.13250701 0.067115314
000100 f8 f9 cb be 4b 0e ce 3e 1b 02 c4 3e 3f 00 96 be
       -0.3983915 0.4024528 0.38282856 -0.29297063
000110 14 97 f8 bc ea 2a 45 be 6e c3 5f be ff da b6 3e
       -0.030345477 -0.19254652 -0.21851894 0.35713956
000120 19 0c db 3e ee d6 e7 be 4f 30 af 3d 51 fe 80 be
       0.42782667 -0.45281166 0.08554136 -0.25194028
000130 7b 3b b9 3e 6c ee 2f 3e 87 17 65 3e 31 db e0 3e
       0.36178192 0.17180794 0.22372256 0.4391723
000140 9f 14 c9 bd 8f ae f5 be 26 f6 6a 3d 63 15 c4 3e
       -0.09818386 -0.4798474 0.05736365 0.38297567
000150 cd b4 96 bd d3 95 0b bf f0 9f d4 3e 2e 27 99 3d
       -0.07358704 -0.5452549 0.41528273 0.07478176
000160 35 82 6d be ff cc ce 3c 2e fd 8e 3d d1 d5 46 3e
       -0.23194201 0.025244234 0.06981884 0.19417502
000170 fe c7 65 be ec 3d f2 bd ae a5 48 3e 3e da c9 3e
       -0.22439572 -0.11828217 0.19594452 0.39424318
000180 b7 ac 5d be 57 6e 96 3c d2 fe 97 3e 06 2b 82 bb
       -0.21647917 0.018363161 0.296866 -0.003972414
000190 79 c9 00 bf 2a da 29 3e ba 63 a6 3e 99 5e f9 3e
       -0.5030742 0.16587129 0.3249796 0.48704985
0001a0 54 42 e9 3c 0d c3 fc 3c 3c 51 a5 be 61 a1 b5 3e
       0.02847401 0.030854726 -0.3228854 0.35474685
0001b0 d1 2d 34 3d b1 62 05 3f dd 72 eb 3d c0 04 be bd
       0.043989006 0.52103716 0.11496518 -0.0927825
0001c0 2a 25 2f be 91 d1 e2 3c f4 dd cd 3e 1e bb c8 be
       -0.1710402 0.02768782 0.402084 -0.3920526
0001d0 3e a2 95 3d a1 8d ae bc 1a ac f8 be 98 6c f8 3c
       0.07306336 -0.021307768 -0.48568803 0.030325219
0001e0 35 a6 b5 3d 4f ee 76 be c7 00 a3 3c 4d df c6 3d
       0.08869592 -0.24114345 0.019897832 0.0971056
0001f0 d9 35 2a 3e 14 c7 1a be 44 75 08 bf ba fa 71 3d
       0.16622104 -0.15115005 -0.53303933 0.059077002
000200 ab 5d e3 bd 94 8e a2 3d 52 17 40 3e 50 3b e5 bd
       -0.1110185 0.07937351 0.18758896 -0.111929536
000210 bc 9b 1a 3e 9b 6a 44 bd 53 52 07 3e d6 8b 84 3e
       0.1509847 -0.04795323 0.13214998 0.25887936
000220 68 a0 b2 bc 83 53 49 be 3a 2c fe 3d 00 ca 89 be
       -0.021805003 -0.19660763 0.12410779 -0.26911926
000230 74 27 7d 3c e3 d0 b2 bd 4e 45 04 3d 7b 4e 98 3e
       0.015451301 -0.08731248 0.032292657 0.29747376
000240 84 47 3b 3d 77 9e 12 be ee 16 f2 3d 7f c2 38 3b
       0.0457225 -0.14318262 0.1182078 0.00281921
000250 cc 63 6b be 57 2d d6 bd 55 7f 18 3e f6 5e 89 3e
       -0.22987288 -0.10457867 0.14892323 0.26830262
000260 0b ca 7d 3d 32 8d b1 be 72 95 82 3c 3f 9f e9 3c
       0.06196026 -0.34678036 0.015940402 0.028518317
000270 d1 75 54 3d 87 2d bf 3d c8 e9 60 3d af aa fc 3d
       0.05187017 0.093348555 0.05491045 0.12337243
000280 6d ef f5 3d 75 8a 2a bd 50 c3 9e 3d 1e 39 a9 bd
       0.120085575 -0.04163595 0.07752097 -0.08262847
000290 de 69 96 bd 7f 7a 9f bd 8e 5d ca bd af 31 e8 3d
       -0.07344411 -0.07787036 -0.098811254 0.113376014
0002a0 23 a2 94 bd c4 65 07 bd 50 5e 35 be a5 ee 3f 3e
       -0.072574876 -0.033056036 -0.17711759 0.1874338
0002b0 62 23 bb 3d 8a 09 d7 3e dd 66 26 be 41 7f 99 3c
       0.09137608 0.41999465 -0.16250177 0.018737437
0002c0 db 8e 0b 3c 9e a7 46 3e 91 7c c1 bd f0 00 2b bc
       0.008517946 0.19399878 -0.09447587 -0.010437235
0002d0 df 41 a6 bd a3 8a b7 3d 1c 74 d0 bd 5c b9 0c be
       -0.08118033 0.0896199 -0.10178396 -0.13742584
0002e0 23 62 72 3d 51 ae d9 bd 1f 7e 90 bc 17 6b 91 3e
       0.05917562 -0.10628951 -0.017638264 0.28402016
0002f0 8a 2b bc 3d b1 68 96 be 66 5f f3 be 5f 6f 62 bd
       0.09187992 -0.29376748 -0.4753372 -0.055281993
000300 74 d1 1c bf 57 ac 34 3d 8c 3e eb 3d 47 11 e2 3c
       -0.612571 0.04410967 0.11486539 0.02759613
000310 7f 36 68 3e 29 6c 45 3d 94 99 cc be 28 32 1d be
       0.22677039 0.048198853 -0.3996092 -0.15351164
000320 19 78 2c 3e 91 d2 27 be 63 a6 8e 3d ff 2c 94 ba
       0.16842689 -0.16388918 0.069653295 -0.0011304914
000330 2b c8 32 3e de ab eb 3c 66 5b 3e 3e 4b 42 99 3e
       0.1745917 0.028768476 0.18589553 0.2993339
000340 29 17 41 3e bb 62 42 be 31 fb a0 3c 7a 61 3e 3b
       0.18856491 -0.18982975 0.019651027 0.00290498
000350 c8 45 64 bc a6 ab e9 be 5a 95 81 bd ca e1 ce 3c
       -0.013932653 -0.4563877 -0.06327315 0.025254149
000360 b5 90 67 be f1 cf 83 bd 21 ab be 3e 77 7b bb bc
       -0.22613795 -0.06436146 0.37239936 -0.022886021
000370 94 bd 8d bd 7e 07 8c be d8 4c 3c 3e f9 f8 0d 3e
       -0.06920925 -0.27349466 0.18388689 0.13864507
000380 8d 09 3a 3c 41 c3 84 3e 95 18 9d 3d af 94 03 be
       0.011354816 0.25930217 0.07670704 -0.12849687
000390 c4 5a 12 be ba d0 3b be 71 61 4f 39 13 95 a5 3e
       -0.14292437 -0.18341342 0.00019777358 0.32340297
0003a0 bf 20 69 3e 73 50 b1 bd 7f b1 6d bd fd 6a 88 3d
       0.22766398 -0.086579226 -0.0580306 0.066610314
0003b0 18 b0 e0 3e 9c 8f b3 3e 64 1b 57 3e db 1e 9d be
       0.4388435 0.35070503 0.21006542 -0.30687603
0003c0 d9 c3 fd 3d 7e 65 a8 be 1e 26 3f 3d e0 b7 4a bd
       0.123908706 -0.32889932 0.04666721 -0.049491763
0003d0 31 4c c8 3c 48 85 bc bd ea ef d5 bd e8 e5 16 3b
       0.024450393 -0.09205109 -0.104461506 0.0023025218
0003e0 6b 5c 35 3c 65 2a 2c bd 57 d4 3a 3e 40 05 dc bc
       0.011069397 -0.042032618 0.18245064 -0.026857972
0003f0 a8 95 d7 3d 95 31 e1 3c 48 f2 0f be 9e 04 70 3e
       0.105265915 0.027489463 -0.14057267 0.23439261

conv1.nn.4.bias f4 [64]
000000 98 54 f9 be 14 9d b7 be b5 2c 95 be b0 47 de 3c
       -0.48697352 -0.3586203 -0.2913567 0.027133793
000010 99 74 3e 3d 35 58 cb 3f 5f 62 17 be 46 e9 82 bd
       0.046497915 1.5886294 -0.1478362 -0.063921496
000020 f8 7e a7 be da 97 c6 be 81 96 ef bd 03 00 c2 be
       -0.32714057 -0.3878773 -0.11698628 -0.37890634
000030 0f e8 c9 be 6c dc ab bd 6c c5 e0 3d 86 0f 4d bf
       -0.3943486 -0.083916515 0.10975155 -0.8010181
000040 c7 e9 f9 be 94 40 8d be 16 ff 05 bf 63 7c 88 be
       -0.4881117 -0.27588332 -0.52342355 -0.266574
000050 9b fb e2 be 15 b7 36 bf 3b 5b 4d 3f be 2e f6 be
       -0.44332585 -0.7137311 0.8021733 -0.48082536
000060 68 91 78 3d fd f9 08 3f 9b 0a 8b be 83 b8 23 bf
       0.060685545 0.5350645 -0.2715653 -0.6395342
000070 cc 71 ea be 27 f2 9f be d1 58 fb be 63 23 a0 be
       -0.45789945 -0.31239435 -0.490912 -0.31276998
000080 6c fc 99 be bc ff 35 bf 94 5c 11 3f 70 ec a5 be
       -0.30075395 -0.71093345 0.5678189 -0.3240695
000090 86 ae 9f be d9 6f 4b 3c 1e 80 b4 3e e6 0f 97 be
       -0.31187838 0.012416803 0.35253996 -0.29504317
0000a0 72 d2 ab 3f 80 35 73 be 35 19 8d be ce ef 4c bf
       1.3423598 -0.23750877 -0.27558294 -0.8005341
0000b0 41 3c ab be e6 fc 1f bf 5a 33 13 bf d5 9a ef 3f
       -0.33444408 -0.6249527 -0.5750023 1.8719126
0000c0 5c d1 35 bf 17 c1 3c bf dc 7d 3f bf 16 61 4d bd
       -0.7102258 -0.7373213 -0.7480142 -0.050141416
0000d0 b9 95 5c be 90 5c b3 be 55 e5 39 bf a7 e8 be be
       -0.2154149 -0.35031557 -0.7261556 -0.37286875
0000e0 54 6c a4 be 1b 9b e7 be c6 8e d5 be 93 68 ed be
       -0.32113898 -0.45235524 -0.4171049 -0.46368846
0000f0 75 c6 cc 3e f8 53 06 bf b8 7b 7e 3e b5 e0 19 be
       0.3999516 -0.52471876 0.24851882 -0.15027125

conv2.nn.0.weight f4 [64, 64]
000000 84 3e 08 3e c5 86 78 3d 2b fc 92 3e 4a 3d 23 3e
       0.13305098 0.0606754 0.28708014 0.15941349
000010 c5 13 14 bf 2b 63 f1 be 6b 27 dc 3d 5c 99 94 bf
       -0.57842666 -0.47145972 0.10749706 -1.1609302
000020 6c e2 f2 be f1 ec 4c be 0f 3f 85 3f 67 44 33 be
       -0.4743837 -0.20012261 1.0409869 -0.17506562
000030 8e b2 91 be 26 1f 9c bc 72 47 a7 be 33 30 ad be
       -0.2845654 -0.019057821 -0.32671696 -0.33825836
000040 3e 20 6d bf cf 2b 1c be 7e f5 01 3e 66 09 b2 3c
       -0.9262732 -0.15251087 0.12691304 0.021732997
000050 da 81 d9 bd a7 30 71 be a8 bd 08 bf ff 54 5d bf
       -0.1062047 -0.23553716 -0.5341439 -0.8645782
000060 0e f7 55 3d 31 3c 23 3f 2b 1e a3 3d 09 5b af 3d
       0.052237563 0.6376372 0.079647385 0.085622855
000070 68 a7 16 be 0a 82 70 bd e9 1b b3 bd da 7e 4b bf
       -0.14712298 -0.058717765 -0.08745558 -0.79490435
000080 16 04 4b 3e d7 69 c5 bd 24 58 18 bf a9 d1 15 bc
       0.19825777 -0.09639328 -0.5950949 -0.009144225
000090 6c 47 79 bd 04 87 58 3d 34 ff 09 bf fe f2 90 bd
       -0.06085913 0.052863136 -0.53905034 -0.07077597
0000a0 d7 0b 12 bf e7 54 29 be e7 d9 6f bd f1 6a 29 bf
       -0.57049316 -0.16536294 -0.058557417 -0.66178805
0000b0 0f ca 1b bd 1a b0 90 3e 31 27 66 be 19 95 cc be
       -0.038034495 0.28259355 -0.22475888 -0.39957502
0000c0 f1 9e e6 be ce b3 9b be 0d bf 2e be 30 52 6e 3d
       -0.45043138 -0.30410618 -0.17065068 0.05818385
0000d0 3d 33 1a bc 9a c0 0d bc 3e 13 df be 34 29 6b be
       -0.00941163 -0.008651877 -0.43569368 -0.22964936
0000e0 b6 24 c2 be 2d 3a d5 bd 9f 42 f1 be d6 a8 c3 bc
       -0.37918633 -0.10411487 -0.4712114 -0.023884218
0000f0 99 d2 22 bf 17 c9 cb 3d af 9e 8c 3b 02 bb 54 be
       -0.63602597 0.09950464 0.0042913775 -0.20774463
000100 aa 9f 9c be 27 21 41 bf c2 3c 94 be 6c f8 0e bf
       -0.30590564 -0.7544121 -0.28952605 -0.5584781
000110 80 d5 d5 3e 9b 63 80 be fd 2b a9 3e 5c c3 e5 3e
       0.4176445 -0.25075993 0.33041373 0.4487561
000120 6f cf ee be 0c d3 6c 3e c8 b9 17 bf 21 df b2 3e
       -0.46642634 0.23127383 -0.59267855 0.3493586
000130 f7 67 91 3c 85 0d 6a be 55 a2 2c 3e ba 79 2a 3f
       0.01774977 -0.2285672 0.168588 0.6659199
000140 ba 5d 9e be 48 cd 3a 3f 9d 18 68 bb 8d 82 ef be
       -0.30930883 0.72969484 -0.0035415061 -0.4677929
000150 4e 92 80 be b9 3a c4 bd 36 55 18 be cc 13 5e 3e
       -0.25111622 -0.09581513 -0.14876255 0.2168724
000160 9c 36 09 bf 4a 8e 21 3f d8 61 10 3f 7b 1e a3 3d
       -0.5359895 0.6310774 0.563993 0.07964798
000170 22 45 0e 3f f8 27 aa 3e a7 26 1a bf ed 1a 14 3f
       0.5557424 0.3323362 -0.6021523 0.57853585
000180 f9 19 6d 3f c2 3f 87 3f 36 70 16 be 0e c3 8e 3e
       0.92617756 1.0566332 -0.14691243 0.2788319
000190 3c 37 7c 3e 54 1b 03 bf 65 bd e4 3e 86 ca f8 be
       0.24630445 -0.51213574 0.44675747 -0.48592013
0001a0 40 3c db bd 82 69 c8 3d a3 da 44 be af f4 17 bf
       -0.10704851 0.09785749 -0.19224028 -0.5935773
0001b0 1c d6 98 3e be ab 28 3f b6 36 cb be 28 9e a8 be
       0.29850852 0.6588706 -0.3969018 -0.32933164
0001c0 24 19 08 3f e4 e2 b4 be e6 6d b0 be 9d 45 ee bd
       0.5316336 -0.35329354 -0.34458846 -0.116343714
0001d0 8c 75 56 bf 66 8e 8d 3d 35 ef 14 3f e3 91 08 bf
       -0.8377311 0.06911926 0.581775 -0.53347605
0001e0 15 98 3e be 22 3a d9 bd a1 91 d7 3e 3d ca 92 bd
       -0.18612702 -0.10606791 0.42103294 -0.0716748
0001f0 50 33 4f 3f 43 7a dc be e7 40 fb be 7c 59 fa bd
       0.8093767 -0.43062028 -0.49072954 -0.12224099
000200 30 59 7e bd 63 99 59 bd 26 85 34 3d 0c 10 92 3b
       -0.062096775 -0.053124797 0.044072293 0.0044574793
000210 2b 56 a2 bf 70 2b 55 3f 87 48 0a bd 5b 81 a4 bf
       -1.2682546 0.83269405 -0.033760574 -1.2851976
000220 32 6f d0 3c f9 c6 21 3d ac 85 61 bf d1 7c 0e 3e
       0.025443647 0.039496396 -0.8809459 0.13914801
000230 58 d1 ad 3d 3a 9a a4 3b 5c 22 a0 bf 32 0a 3a be
       0.08487195 0.005023268 -1.2510486 -0.18167952
000240 0b c2 9d 3d d0 90 c9 bf 8b a6 fe 3b 4f d1 fe bd
       0.077030264 -1.5747318 0.0077713183 -0.12442266
000250 87 2c 0c bd bd df 96 3c eb 7e 26 bf d2 1b 2d 3e
       -0.034222152 0.018417234 -0.6503741 0.16905144
000260 4b 6c f3 3c d5 88 2c bf c7 37 44 bc 95 7f d9 be
       0.029714724 -0.6739629 -0.011976189 -0.4248015
000270 fa 77 ef bd 6a ed 25 be 3e d0 d5 3c f9 fb 8c bf
       -0.116928056 -0.16203848 0.026100274 -1.1014396
000280 fb 20 62 be bb 75 00 bf 42 12 22 bf da 5c 27 be
       -0.22082894 -0.5017964 -0.6330911 -0.16344014
000290 10 2e 46 be 3f 42 a6 3c 66 8c a6 bf 3f 15 d1 bd
       -0.19353509 0.02029526 -1.3011596 -0.102091305
0002a0 bd b7 eb be 8d c6 0c be 72 7d d3 bc 0f b9 64 3e
       -0.4603862 -0.13747616 -0.025816653 0.22336219
0002b0 9b eb 3e be b8 77 09 bc f8 d9 79 bd 4a 87 5c 3f
       -0.18644564 -0.00839036 -0.060998887 0.86143935
0002c0 f8 21 2e bc 29 c9 d2 3d 65 6c f1 3d 28 50 c2 bc
       -0.010628216 0.102922745 0.11788253 -0.023719862
0002d0 c2 4b 72 bd 6e ea 72 3c 2b a3 9b bd cd 23 56 3c
       -0.05915428 0.0148264 -0.07599481 0.013070059
0002e0 59 f8 0f bc b9 16 d1 bc 35 16 86 bf c2 e5 56 3d
       -0.008787238 -0.02552353 -1.0475527 0.052465208
0002f0 01 f7 ab bf 1f 08 32 bc da 03 8c bd a6 7a 9b bc
       -1.3434755 -0.010866194 -0.06836672 -0.018979382
000300 ca b2 f2 be ec fe ac bc 69 8e 62 3c 9c 57 20 3c
       -0.4740203 -0.02111765 0.013827899 0.009786513
000310 6f a2 d4 be 21 a9 1f 3f 7e 33 d7 bc 58 59 ff be
       -0.41530177 0.62367445 -0.02626967 -0.4987285
000320 cf 35 bd be 31 61 94 3e d0 71 50 40 dc a0 ea 3e
       -0.36955115 0.289804 3.2569466 0.4582585
000330 19 22 3c be e6 f2 7e 3c 36 eb 9a be be 40 10 3e
       -0.18372382 0.015560841 -0.30257577 0.14087197
000340 d1 82 95 bd 7a fc 28 bf f5 62 83 3e 4b e9 9c 3d
       -0.07300342 -0.6601025 0.25661436 0.076616846
000350 76 75 dd be c7 10 1b 3d 78 32 25 be 8a 59 46 bd
       -0.43253678 0.037857797 -0.16132534 -0.048425235
000360 31 07 55 3c 6f f5 7d bd fd a2 3d 3e 85 60 e1 3e
       0.013002203 -0.06200164 0.18519206 0.4401895
000370 7b 1d 1d 3f 17 4c 52 3f dc f8 b0 bd 0f 07 a0 bd
       0.6137311 0.82147354 -0.08641216 -0.07813846
000380 f9 cb b6 3d 36 8c cb be ff de cc be 19 2d 51 3f
       0.089256234 -0.3975541 -0.40013883 0.8170944
000390 40 ef 5f 3f f8 57 5c be 6d 93 d6 be 2b 87 43 be
       0.8747444 -0.21517932 -0.41909352 -0.19094531
0003a0 45 95 cf 3d 29 9f 22 3e 7c 5a 13 be 05 73 24 3e
       0.10135893 0.15881027 -0.14389986 0.16059501
0003b0 ff dc 5f 3f 25 72 8b 3e c1 8c be be 91 8f 36 3f
       0.8744659 0.27235523 -0.37216762 0.71312815
0003c0 fe 8c 6d 3e 87 70 99 bb 1e 40 a7 be b1 5b 1a bc
       0.23198316 -0.0046826038 -0.32666105 -0.009421275
0003d0 d7 9f 97 3b 61 3b 15 3c 2e d2 23 3e ea 31 80 be
       0.0046272087 0.009108395 0.15998146 -0.2503808
0003e0 19 76 df bd e8 60 4b bd 5f cc 15 be ba 04 e9 bc
       -0.10911197 -0.049652964 -0.14628743 -0.028444637
0003f0 76 91 36 bf e4 b9 1e be b9 43 8c be 29 64 0b 3c
       -0.71315706 -0.15500599 -0.27395418 0.008507767

conv2.nn.0.bias f4 [64]
000000 a3 19 ec 3f 14 56 fd 3f 92 ef f7 bd 94 7b 6a 40
       1.8445324 1.9791894 -0.12106241 3.6637926
000010 c5 e5 fc 3d 6c f5 86 40 3d 87 08 3f 04 18 30 bf
       0.123485126 4.2174587 0.5333136 -0.68786645
000020 cc eb 8c bf 0b f2 9a 3e 41 c7 e5 3d 61 a5 9e bc
       -1.100946 0.3026279 0.11219645 -0.019365968
000030 14 33 0a 3d b7 ff d9 40 63 ab 10 40 6a 2a 2c 40
       0.03374012 6.812465 2.2604606 2.6900887
000040 99 43 0a 41 66 38 1a bf 28 be a8 3f d9 28 a9 3d
       8.641503 -0.6024231 1.3183031 0.08259744
000050 2a 14 22 3c a1 a2 3d 3c 5d 2d 86 be f1 0e 64 bd
       0.009892503 0.011574418 -0.26206484 -0.05567831
000060 11 5f 01 be 87 0f f8 3f c5 6f 6d 39 03 e0 c8 bc
       -0.12633921 1.9379739 0.00022643719 -0.02452088
000070 03 a8 ac 3e 5e 1d 2f 40 31 0e 94 bf 8f 47 68 40
       0.33721933 2.7361674 -1.1566831 3.6293676
000080 73 9b 0f 40 10 5c 42 bc a5 88 a7 bc e7 35 c3 40
       2.2438629 -0.01186277 -0.0204509 6.10033
000090 2d 32 ac 3e 7b 79 96 3f 0e 15 cb bc 49 85 c2 3f
       0.3363203 1.1755823 -0.024790313 1.5196925
0000a0 c6 12 99 ba 88 3b 82 3e 1a 53 ad 40 9b 6b a8 40
       -0.0011678569 0.25436044 5.416394 5.2631354
0000b0 74 df ae 3e 78 ef 25 be 8f b3 2c 40 9b a9 8c bf
       0.34154856 -0.16204631 2.6984594 -1.098926
0000c0 67 85 84 bc 66 d1 2d 3e 01 cc 1c bd 4c 43 72 be
       -0.016176892 0.1697441 -0.03828049 -0.23658484
0000d0 d8 85 46 40 49 16 9c bc ce 18 20 3e e4 4e b6 bc
       3.1019192 -0.019053595 0.15634462 -0.022254415
0000e0 2f 35 ac 40 d8 3e 14 be 2b 62 b0 3f d4 a8 df 3d
       5.381492 -0.14477098 1.3779958 0.10920873
0000f0 61 7c 33 40 f0 dc 70 3f a9 45 6a be cf 20 ff 3c
       2.8044665 0.94087124 -0.22878136 0.031143574

conv2.nn.2.weight f4 [64]
000000 c7 27 86 bf b3 e3 c0 3e e7 f8 53 3f f9 54 89 3f
       -1.0480889 0.3767372 0.8280167 1.0729057
000010 80 5c 63 3e 72 5b 24 3f 37 73 61 3e bd 46 7e 3f
       0.22203255 0.64202034 0.22016607 0.9932669
000020 66 3b 8a 3f 02 68 14 3e be bc 52 3e 1e 7a 1b 3e
       1.0799377 0.14492801 0.20579812 0.15183303
000030 22 ee 3a 3e 90 d2 33 3f fc 84 44 3f 97 8b 7b 3f
       0.18254903 0.7024317 0.7676542 0.9825987
000040 b6 fd 89 3f ec 86 72 3f 6f cc 2f 3f 20 3f 66 3e
       1.0780551 0.94737124 0.68671316 0.22485018
000050 7a bb 1a 3e 81 04 1a 3e 4c 74 2a 3e 8f 44 14 3e
       0.15110579 0.1504078 0.16645926 0.14479278
000060 2c 0f 14 3e fc e5 32 3f 9c 19 1e 3e 5e 61 16 3e
       0.14458913 0.6988218 0.15439457 0.1468558
000070 f0 b2 0d bc 78 54 7e 3f bb a0 88 3f 07 d7 0b 3f
       -0.008648619 0.9934764 1.0674051 0.5462498
000080 29 cb 25 3f 81 04 1a 3e 7e 94 16 3e b6 41 46 3f
       0.6476312 0.1504078 0.14705083 0.77444017
000090 0c 65 88 3f 6a 55 8b 3e 9b ed 20 3e 4c f0 1d 3f
       1.0655837 0.27213603 0.1571564 0.6169479
0000a0 73 92 16 3e c7 d9 2f 3e 4b 40 46 3f 73 37 52 3f
       0.14704303 0.17172919 0.77441853 0.8211586
0000b0 d9 47 fe 3e b3 aa 36 3e d9 44 0f 3f 16 5c 6f 3f
       0.4966419 0.17838554 0.5596443 0.93499887
0000c0 81 04 1a 3e b0 4d 59 3f 99 94 21 3e 65 70 f3 bd
       0.1504078 0.84884167 0.15779342 -0.11886672
0000d0 f6 ba 12 3f 08 dc 16 3e e3 21 87 3f 95 45 17 3e
       0.5731653 0.14732373 1.0557216 0.14772637
0000e0 95 af d1 3f 21 3a df b9 33 90 dd 3e 5d 8e ea 3d
       1.6381708 -0.00042577184 0.43274078 0.11452935
0000f0 26 9f 5d 3f 50 f9 75 3f cc 6e 3a b9 ca dc 9c 3b
       0.86570966 0.96083546 -0.00017779617 0.0047870623

conv2.nn.2.bias f4 [64]
000000 f8 c9 4b 3f 4b a6 17 3f 4a a2 e4 3e ee 64 ed 3e
       0.79605055 0.5923812 0.44655067 0.46366066
000010 65 b5 03 bf ca 7e d3 3e a9 03 d6 3a d7 20 ce 3e
       -0.5144866 0.4130767 0.0016327995 0.4025943
000020 02 5b 86 3f 17 c2 2b bf 8a d0 27 be 02 b3 05 3f
       1.0496523 -0.6709303 -0.16388145 0.5222627
000030 4a 55 bb bc a4 75 76 3e 89 43 35 3e ac de 72 3e
       -0.022867817 0.24068314 0.17701544 0.23717755
000040 46 3a f5 bc 47 3a 75 3f ff 3a 34 3f 11 0a a7 3e
       -0.029935014 0.9579205 0.7040252 0.32624868
000050 c9 02 ca 3d 27 32 d0 3e 25 7f 72 3c 4a 37 9c 3a
       0.098638125 0.40663263 0.014800821 0.0011918333
000060 83 f6 b0 bc 7b a4 0f 3e 3a 0c 23 3f 20 23 5c be
       -0.021601921 0.14027588 0.6369053 -0.21497774
000070 e0 08 15 be ee ff cd 3e b9 04 79 3f d8 16 8d bd
       -0.14554167 0.4023432 0.9727283 -0.06889123
000080 71 e8 e0 3e 49 13 f4 be 9c fe 8d be 2e 6a e4 3e
       0.4392734 -0.47670963 -0.27733314 0.4461226
000090 72 fa 6e 3f c8 63 e7 3e 27 eb ba be 7c 83 15 3f
       0.933509 0.45193315 -0.36507532 0.58403754
0000a0 44 9b ec 3e fb 2e cf bd 36 3f 86 3e 2a e3 6c bd
       0.46212208 -0.10116383 0.262201 -0.057833828
0000b0 b1 b8 23 be 54 9e bb 3c 7e 40 71 3d 1d 3c 9b 3f
       -0.15988423 0.022902645 0.058899395 1.212772
0000c0 19 7b 8f 3c 1a cb 40 3f ed fd 14 3f 02 d5 8e 3e
       0.017514752 0.7530991 0.5819996 0.27896887
0000d0 6e e1 c9 bd e8 7a 20 3e c1 bd 37 3f 00 e9 5a 3e
       -0.098574504 0.15671885 0.71773916 0.21377945
0000e0 d9 a7 f5 3d 4e dc b9 3e 63 cb cb 3e 1a 88 09 3f
       0.11994905 0.36300892 0.3980361 0.537233
0000f0 c6 e4 ad 3e d9 d0 52 3f e6 90 f5 3c fd 49 04 bc
       0.33963603 0.82349926 0.02997632 -0.008074281

conv2.nn.2.running_mean f4 [64]
000000 be e1 79 2d e5 cc e5 43 6a d3 90 17 76 00 8f 43
       1.4204136e-11 459.60074 9.35915e-25 286.0036
000010 04 00 00 00 24 19 6f 44 04 00 00 00 14 d4 98 2e
       6e-45 956.3928 6e-45 6.9498324e-11
000020 f3 9d 23 45 7c d4 af 21 04 00 00 00 04 00 00 00
       2617.8718 1.1914705e-18 6e-45 6e-45
000030 04 00 00 00 1e 54 1d 07 6d e7 9a 40 be c7 05 3a
       6e-45 1.1836087e-34 4.84075 0.0005103311
000040 ef 1a e0 3d 26 9c 0b 45 b7 fe 07 44 04 00 00 00
       0.10942637 2233.7593 543.9799 6e-45
000050 04 00 00 00 04 00 00 00 7d 1f 01 00 04 00 00 00
       6e-45 6e-45 1.03131e-40 6e-45
000060 04 00 00 00 04 00 00 00 04 00 00 00 04 00 00 00
       6e-45 6e-45 6e-45 6e-45
000070 04 00 00 00 98 f2 5e 43 89 a7 17 45 7b 97 1b 42
       6e-45 222.94763 2426.471 38.89793
000080 f5 0d 1b 12 04 00 00 00 04 00 00 00 3e 01 bc 44
       4.892658e-28 6e-45 6e-45 1504.0388
000090 a2 66 b0 44 04 00 00 00 04 00 00 00 96 c0 85 44
       1411.2073 6e-45 6e-45 1070.0183
0000a0 04 00 00 00 04 00 00 00 43 03 ac 43 04 00 00 00
       6e-45 6e-45 344.02548 6e-45
0000b0 5c 28 3c 0e 04 00 00 00 3c fa 16 44 77 fa 13 45
       2.3192221e-30 6e-45 603.9099 2367.654
0000c0 04 00 00 00 40 ed 02 45 04 00 00 00 59 c1 35 44
       6e-45 2094.8281 6e-45 727.02106
0000d0 30 bd 46 3d 04 00 00 00 4f 8a 21 45 04 00 00 00
       0.048520267 6e-45 2584.6443 6e-45
0000e0 a5 f2 77 44 04 00 00 00 04 00 00 00 04 00 00 00
       991.7913 6e-45 6e-45 6e-45
0000f0 df 88 8d 3f 21 3f 11 45 a6 d1 a7 10 04 00 00 00
       1.1057395 2323.9456 6.61929e-29 6e-45

conv2.nn.2.running_var f4 [64]
000000 74 33 a2 2d f8 37 90 48 57 8e bd 18 32 a9 12 48
       1.8440117e-11 295359.75 4.899908e-24 150180.78
000010 04 00 00 00 f3 32 d4 48 04 00 00 00 97 6a 0b 2f
       6e-45 434583.6 6e-45 1.2679845e-10
000020 e3 3d 3f 49 ae ef f1 24 04 00 00 00 04 00 00 00
       783326.2 1.0492312e-16 6e-45 6e-45
000030 04 00 00 00 9a 9f f6 06 5c c7 14 44 fa fe 98 3a
       6e-45 9.276943e-35 595.115 0.0011672669
000040 0f b6 31 41 9c c9 5a 49 00 2b 31 48 04 00 00 00
       11.106948 896153.75 181420.0 6e-45
000050 04 00 00 00 04 00 00 00 47 00 00 00 04 00 00 00
       6e-45 6e-45 1e-43 6e-45
000060 04 00 00 00 04 00 00 00 04 00 00 00 04 00 00 00
       6e-45 6e-45 6e-45 6e-45
000070 04 00 00 00 24 4a be 47 b2 f1 49 49 38 a1 2e 46
       6e-45 97428.28 827163.1 11176.305
000080 f9 a6 5c 15 04 00 00 00 04 00 00 00 30 e8 8c 48
       4.4560364e-26 6e-45 6e-45 288577.5
000090 24 f4 34 49 04 00 00 00 04 00 00 00 70 86 a7 48
       741186.25 6e-45 6e-45 343091.5
0000a0 04 00 00 00 04 00 00 00 6f 19 0e 48 04 00 00 00
       6e-45 6e-45 145509.73 6e-45
0000b0 d9 fd 96 10 04 00 00 00 be 2e dd 48 7c 6e 98 49
       5.955568e-29 6e-45 452981.94 1.2487195e+06
0000c0 04 00 00 00 e7 24 5f 49 04 00 00 00 2f 98 8a 48
       6e-45 913998.44 6e-45 283841.47
0000d0 08 a3 67 40 04 00 00 00 68 54 ac 49 04 00 00 00
       3.6193256 6e-45 1.411725e+06 6e-45
0000e0 72 4a 76 49 04 00 00 00 04 00 00 00 04 00 00 00
       1.0088071e+06 6e-45 6e-45 6e-45
0000f0 08 0a 94 42 46 a2 93 49 96 0b d5 10 04 00 00 00
       74.01959 1.2094168e+06 8.403154e-29 6e-45

conv2.nn.4.weight f4 [64, 64]
000000 9c aa 00 bf 3a eb db be de da c0 be 4e f2 36 3f
       -0.5026033 -0.429529 -0.37666982 0.7146348
000010 96 b6 8d 3e e4 77 65 bf 46 96 7b be a4 71 ac be
       0.27678365 -0.89636064 -0.24569044 -0.3368045
000020 98 99 b6 bf fa 1b 8a 3e c4 7c c2 3e 64 78 f0 be
       -1.4265623 0.2697447 0.37985814 -0.4696685
000030 34 5a 09 3f 38 3f bc be 8d 0d 02 3f 8d d5 c7 bb
       0.53653264 -0.36766982 0.50801927 -0.0060984553
000040 1c 66 11 bf 40 48 2c bf 59 08 22 3c aa 57 26 bf
       -0.5679643 -0.67297745 0.009889686 -0.64977515
000050 90 84 b5 be 8e c6 df bd ba 85 80 bd 76 b8 09 3e
       -0.354527 -0.10926543 -0.06275506 0.13449273
000060 98 3f 17 be 67 85 a8 be 7c d1 4f be bf 7e 2d 3f
       -0.14770353 -0.32914278 -0.20294756 0.67771524
000070 54 36 27 3f b3 bb 30 3f f1 43 72 bf 97 f4 a8 3e
       0.65317273 0.69036406 -0.9463492 0.32999107
000080 84 f1 3a be ab e6 cb 3e 4b e4 fc 3d 8d 77 8e bf
       -0.18256193 0.39824423 0.12348231 -1.1130234
000090 bd a6 8d be 08 dc ab be d3 7f e1 3d 1e fa f1 3b
       -0.27666274 -0.33566308 0.11010709 0.0073845526
0000a0 d7 38 1f bc 37 c6 c0 3e 00 be d1 be a5 e9 bd bf
       -0.0097181415 0.37651226 -0.4096527 -1.4836928
0000b0 f2 42 3e be 10 95 0d be 74 5d 9f bf 80 cc 01 c0
       -0.18580225 -0.13826394 -1.2450395 -2.0281067
0000c0 0b f5 6d 3e e1 f4 09 bf 95 b7 b4 be 18 c8 a4 3e
       0.23238008 -0.5388928 -0.35296312 0.3218391
0000d0 04 4b 4b bf 8d 52 d6 3c 84 fb 14 bf c2 d2 6d be
       -0.7941134 0.02616241 -0.5819628 -0.23224929
0000e0 de 4b 1c c0 6b 6a c9 be 53 fe 99 be 7e 06 5d be
       -2.4421306 -0.39339003 -0.30076846 -0.21584508
0000f0 15 ae 9a 3e 17 ff 2f be 60 4a a2 3c c9 c2 5f be
       0.3021094 -0.17187153 0.019810855 -0.21851648
000100 ef 55 61 3f 04 b2 a1 3e 3e 21 37 be 9f 9d 60 bf
       0.8802175 0.31581128 -0.17883775 -0.8774051
000110 d9 c0 7e bf 90 bf 30 bf e9 4f 26 bd ca 06 af be
       -0.9951301 -0.690423 -0.040603552 -0.34184867
000120 b0 c4 aa be 69 51 bb be be f0 e2 be 2a 96 0c 3f
       -0.33353186 -0.3658555 -0.44324297 0.5491663
000130 6e 0b 9e be c0 c1 49 3d 67 b2 a9 be d3 cc 55 bf
       -0.30868095 0.04925704 -0.33143923 -0.8351566
000140 8f 92 02 bf 1c 82 4a bf 41 3f b4 be 76 05 24 3f
       -0.5100488 -0.7910478 -0.3520451 0.6407083
000150 73 c6 98 3e 1d 04 f8 3e ff ee 7f 3d 99 fe 5b be
       0.29838905 0.48440638 0.062483784 -0.2148384
000160 83 0e c7 be 3e 53 bd be a4 5b 06 3f 24 94 6e be
       -0.3887826 -0.3697757 0.5248358 -0.23298699
000170 aa 00 9a be 0d 34 a3 bf d7 dc 52 bf 75 58 86 be
       -0.30078632 -1.275026 -0.82368225 -0.26239362
000180 50 db 0a be 9e c2 df be 95 13 a1 be 0c 7b 2e bf
       -0.13560224 -0.4370317 -0.31460252 -0.68156505
000190 c3 bb 3a bf 49 ff 33 3f 72 1c f3 be 62 2c 11 bf
       -0.7294275 0.7031141 -0.4748264 -0.5670835
0001a0 76 49 7e 3e b7 37 ab be 17 86 3e bf cd b4 a2 be
       0.2483271 -0.33440945 -0.74423355 -0.31778565
0001b0 8c 74 11 be 2b 81 5e 3d 9a 4b 83 3e bc 43 aa 3e
       -0.14204615 0.054322403 0.25643617 0.33254802
0001c0 50 66 89 3c 56 47 6b bf a0 80 fa 3e d3 0e c1 3e
       0.01677242 -0.91905725 0.48926258 0.37706622
0001d0 b7 dd 38 be 50 32 61 3e 0c 52 5a bf 28 9e 2d 3e
       -0.18053328 0.21991849 -0.85281444 0.16954863
0001e0 81 da 23 bc 57 6a a3 3e 20 f7 b4 3d 2d 79 ef 3e
       -0.010000826 0.31917068 0.08836198 0.46772137
0001f0 e9 5b cb be 70 e7 4d bf 90 a8 f8 bc 79 ec e1 3d
       -0.3971856 -0.8043127 -0.030353814 0.11031432
000200 d6 ec aa 3e ad f7 98 bd ab 9a 2e bf bf 6a 97 bf
       0.33383816 -0.074691154 -0.68204755 -1.1829451
000210 f2 a9 3e be 4d 9b 25 bf 31 30 30 3e 09 d2 0d bf
       -0.18619516 -0.64690095 0.17205884 -0.55398613
000220 41 a2 af bf e2 c7 a0 bd ac 3d c6 3d c9 07 25 3e
       -1.3721391 -0.078506246 0.09679732 0.16116251
000230 31 d2 6e bd 63 0f 73 be c5 ba 00 bf e7 b9 99 bf
       -0.058305923 -0.23736338 -0.5028499 -1.2009858
000240 a5 2f 7f be 4d f2 a7 bf 7a f3 56 bf 8a 7e a9 3e
       -0.24920519 -1.3120819 -0.83965266 0.33104354
000250 97 01 09 be 7f a6 93 3d 9e c7 f4 bd 6f 66 30 3d
       -0.13379513 0.07209491 -0.119521365 0.04306644
000260 bf 25 26 be a2 94 1a bf bf 07 5c 3e 45 f9 fd 3d
       -0.16225336 -0.60383046 0.2148733 0.1240106
000270 34 be 3f 3d 54 65 bc bf 19 33 a7 bf 66 7e 62 be
       0.04681225 -1.4718423 -1.3062469 -0.2211853
000280 a9 97 4d bf 07 d6 46 3c 1e a7 1b 3e b7 e1 1a bf
       -0.8030954 0.012135989 0.15200469 -0.60500664
000290 91 04 84 bf 7c d9 4b 3e 66 6d a6 3d b8 74 98 bf
       -1.0313894 0.19907182 0.08126335 -1.191062
0002a0 b2 f0 a9 bd 10 31 08 3d 7e 62 f4 be 39 a6 56 be
       -0.08297862 0.033249915 -0.47731394 -0.20961846
0002b0 a4 00 7b be 0b 8d 47 3c fe b8 c4 be 28 08 58 bf
       -0.24511963 0.012179623 -0.38422388 -0.84387445
0002c0 ea d5 b7 bd bf 97 a1 bf e2 03 21 3d 94 b5 c0 3d
       -0.08976348 -1.2624434 0.039310344 0.09409633
0002d0 df bc 12 3d 7f 81 3a bd dc a7 8e bf dc 2c a4 bd
       0.035824653 -0.045533653 -1.1144977 -0.08016369
0002e0 95 c8 f4 be b6 da a8 3d a1 78 5a be f8 ba 90 3e
       -0.47809282 0.08244841 -0.21335079 0.28267646
0002f0 9e 70 53 bf 95 81 73 bf 80 14 99 bd 24 bc c0 3d
       -0.82593715 -0.951196 -0.07474613 0.09410885
000300 fe b4 70 3f 7d 95 df 3e 19 54 16 be f7 0d a2 bf
       0.9402617 0.43668738 -0.14680518 -1.2660512
000310 ba 62 42 bf c2 fa 68 bf 34 47 79 b9 1b 9e 01 bf
       -0.75931895 -0.91007626 -0.00023773016 -0.50631875
000320 2a ea 96 3e a8 d6 1d bf a7 0f 8a be 50 47 4a 3f
       0.29475528 -0.61655664 -0.26965067 0.79015064
000330 50 ec 5c 3e 63 81 aa be 9a 54 50 bf ca 2c 97 bf
       0.21574521 -0.3330184 -0.8137909 -1.1810544
000340 d2 3a b3 bf b3 e8 29 bf 8b c1 62 bf 3c 09 66 3e
       -1.4002326 -0.66370696 -0.88576573 0.2246446
000350 93 da b2 3e 45 d4 45 3f c0 f1 09 3f 18 dd 59 be
       0.34932384 0.7727702 0.53884506 -0.21275747
000360 dd c2 ea bd 75 fc 2a bf 3b be 1d 3f ff 05 51 bf
       -0.114629485 -0.6679147 0.61618394 -0.81649774
000370 96 47 5f 3e 45 17 aa bf 07 8b a2 be bf 6f 13 bf
       0.21804652 -1.3288351 -0.31746694 -0.57592386
000380 06 1a 83 be e3 ec e9 be 6d bc 00 bf ff 0a 61 bf
       -0.25605792 -0.45688543 -0.50287515 -0.87907404
000390 9e 48 26 bf 7d bc 59 3f 15 11 9f be f5 f3 21 bf
       -0.64954555 0.85053235 -0.3106772 -0.63262874
0003a0 13 93 04 3f f7 3f b4 be 11 f2 a2 bf cf 62 5c be
       0.5178692 -0.3520505 -1.2730123 -0.21522067
0003b0 65 8a b2 be c2 b6 0a bd c6 97 77 3e a2 34 6f 3f
       -0.34871212 -0.033865698 0.2417899 0.93439686
0003c0 4f 17 a5 3e f6 10 2c bf 10 dd 48 3f d5 66 c3 3e
       0.32244346 -0.6721338 0.78462315 0.38164392
0003d0 da 9c 0a bd 34 3c 0b 3f 5b 68 32 bf f0 f9 e8 3e
       -0.03384099 0.5438874 -0.69690484 0.45503187
0003e0 a6 82 a7 3e 27 b2 04 3f 95 d1 e3 3e 06 df 6d 3f
       0.32716864 0.5183434 0.44495836 0.9291843
0003f0 e5 75 58 bf cd fe 36 bf b2 54 b6 bd 56 9f 61 be
       -0.8455489 -0.71482545 -0.08902873 -0.22033438

conv2.nn.4.bias f4 [64]
000000 f0 8e 93 be 9e 85 35 3f ca 3e b0 3e a7 3c 7c 3f
       -0.2881999 0.7090701 0.34422904 0.9853005
000010 8a 12 ae 3e 96 9b 94 3f 26 b5 e0 bf 48 50 e3 3e
       0.3399852 1.1609981 -1.7555282 0.44397187
000020 bf c8 05 3f 4f ae 1a 3f 2c 22 cd be 95 44 c5 3e
       0.5225944 0.60422224 -0.40065134 0.38528886
000030 05 ee 4f bf 3a 58 af 3e 1c 1f 40 be 85 64 d2 3e
       -0.81222564 0.34247 -0.18761867 0.41092315
000040 d0 33 c5 3e 66 6d 65 3e 1a 36 01 be ee 8f c3 3e
       0.38516092 0.22405013 -0.12618294 0.38195747
000050 e3 1d 36 be a7 fe de bd 4e 0a 49 3f 82 86 cf be
       -0.17784838 -0.10888415 0.7853135 -0.4053231
000060 f9 3e 45 3f 05 1b cc 3e 0c 13 0b 3e 51 bf 76 bd
       0.77049214 0.39864364 0.13581485 -0.060241047
000070 2e dd 2d 3f 3f 5e e6 bf 2f d3 c3 3e e5 81 f9 3e
       0.6791562 -1.7997512 0.38247058 0.48731914
000080 7b e8 d2 be 75 c9 e0 3e 53 c4 d9 3e e4 2d 9a bf
       -0.41192994 0.439037 0.42532596 -1.2045255
000090 e5 53 95 be a1 c9 fe be 0b cd 05 3f 9a 31 07 3f
       -0.2916557 -0.49763206 0.52265996 0.5281006
0000a0 ba ef 13 3f be 1d f6 3e 12 ac b4 3e 57 68 85 bf
       0.5778767 0.48069566 0.3528753 -1.0422467
0000b0 ac 6b ee 3e d7 8d a8 3e 4c dc 62 3f bb fb c8 be
       0.46566522 0.32920715 0.88617396 -0.39254555
0000c0 cc 04 38 3f 18 f5 a0 be 51 ca 56 be ff e2 56 be
       0.7188232 -0.31436992 -0.20975615 -0.2098503
0000d0 2f 45 14 bd e7 fb c8 be 52 79 38 3f 88 a4 71 3f
       -0.03619879 -0.39254686 0.7206012 0.9439168
0000e0 13 f9 b5 3e 15 e9 17 bf f7 25 8c bf 21 7a f4 3e
       0.3554159 -0.5934003 -1.0949086 0.47749427
0000f0 21 02 05 3b 62 79 bb 3d 36 7e 80 be d4 c2 81 3f
       0.0020295458 0.09154011 -0.2509629 1.0137582
