models/0_2023_2023/Spatial_GIN/5.pth (torch, 133972 bytes, 21 tensors)

conv1.nn.0.weight f4 [64, 12]
000000 dc da 52 3d 41 e8 8d bd 4f 52 c1 bd 73 01 44 bd
       0.05147825 -0.069290645 -0.09439527 -0.047852945
000010 8a 3c 7a be f4 75 ab bd 5b b4 73 bd 89 25 1c be
       -0.24437156 -0.08372107 -0.059498172 -0.15248694
000020 c7 20 31 3e c6 43 03 be af 43 9d bd 27 ed d7 bc
       0.1729766 -0.12818822 -0.07678925 -0.0263582
000030 19 7f 23 be 39 1d cc ba b7 61 c2 bd fc f0 28 be
       -0.15966453 -0.0015572674 -0.09491294 -0.16498178
000040 a5 6b 9e 3b 04 ae 32 3e e4 cd 46 3d 0b 78 26 3e
       0.0048346096 0.17449194 0.048536196 0.1625673
000050 30 a4 fc ba 08 e5 8c bd 11 ab 22 3e 57 f5 d6 bd
       -0.0019275006 -0.06879622 0.15885569 -0.104960136
000060 e7 fe 29 bd df 1d 05 3f 97 11 13 3f d3 4b f1 bd
       -0.04150286 0.51998705 0.57448715 -0.117820404
000070 10 ac c2 3e a0 36 8f bd a5 d2 4a 3e 9b 91 95 be
       0.38021898 -0.06992841 0.19806917 -0.2921265
000080 69 3d 49 be 2f 39 24 be e7 dc 45 3d d2 5c 54 bd
       -0.19652332 -0.16037439 0.048306372 -0.051846333
000090 da 10 64 3f 9e 04 70 3e d1 92 25 3d 67 8b 19 be
       0.89088213 0.23439261 0.04042322 -0.14994584
0000a0 5b 45 5f 3e 3b 4e c1 3d 55 a7 11 3e 67 ad fd bd
       0.21803801 0.094387494 0.14223988 -0.123865895
0000b0 09 38 09 3e 08 ee 0b be 48 c6 c6 bd b7 04 37 3e
       0.13400282 -0.1366502 -0.09705788 0.17872892
0000c0 67 73 51 be 1a 99 10 be 35 ea 85 3d a6 2f 11 bd
       -0.20454179 -0.14120904 0.06538812 -0.03544583
0000d0 67 02 99 3d 1a 49 7c be 94 f3 c5 3b aa 90 b0 bb
       0.07471161 -0.24637261 0.0060409997 -0.005388339
0000e0 4d 7c c3 bd 24 95 85 bd a4 9a 7a be f4 36 14 3e
       -0.09545193 -0.06522587 -0.24473053 0.14474088
0000f0 eb 35 f3 be ae 03 aa be cb 1f cd 3c 83 2a ad bd
       -0.47502074 -0.33205932 0.025039574 -0.08455374
000100 a8 cd 55 bf 33 ab f7 bd 21 38 5f bf 61 e0 14 3d
       -0.8351693 -0.120932005 -0.8719502 0.036346797
000110 30 c7 21 3f 46 38 30 3f 53 99 1b be ea a1 f2 3e
       0.6319456 0.68835866 -0.15195207 0.47389156
000120 b7 4a ae bd ad d5 79 be 6f cb 8e bd eb 10 4c bd
       -0.085103445 -0.24397917 -0.06972396 -0.04982082
000130 91 65 12 be 99 d0 a7 be e3 17 5b be 88 57 0b 3b
       -0.14296557 -0.32776335 -0.21395831 0.002126189
000140 60 10 dd bd 57 e2 05 3b 70 55 45 be 1c af fe bc
       -0.10794139 0.0020429099 -0.19270873 -0.031089358
000150 8e 2e 2e 3e b0 ea 17 3e 09 41 97 3e a7 a3 73 bd
       0.17009947 0.1483562 0.29541805 -0.059482243
000160 f5 14 16 3e b7 24 1c bd 42 f7 d6 3e 48 40 dc bd
       0.14656432 -0.03812095 0.41985518 -0.10754448
000170 ef fb 3a 3d 0d c6 44 be 6d 2b 2d be 6e 2c 01 be
       0.04565042 -0.19216175 -0.16911097 -0.12614605
000180 a7 46 f8 3d ff 1f b2 3e 9b 19 b8 3e ec 9f b0 bc
       0.12122851 0.34790036 0.35957035 -0.021560632
000190 b2 62 9b 3e f8 b6 45 3e 9b 04 1f 3f c9 7a e4 3d
       0.30348736 0.19308078 0.621164 0.11156232
0001a0 d8 6b 04 bd 5f 66 94 bd b7 f3 1c 3d 3e b6 04 3e
       -0.03232941 -0.07246088 0.038318362 0.12960145
0001b0 3a 8c f9 bc 1f f9 1a be ee 4d 85 3d f3 cc 4d bd
       -0.030462373 -0.15134095 0.065090045 -0.050244283
0001c0 00 50 c2 bd a3 f6 fe 3d 59 38 db bb 99 be e6 bd
       -0.09487915 0.12449386 -0.006690067 -0.11266822
0001d0 9b 8a f1 bd d9 13 3e 3e f1 47 03 3e bf b9 10 be
       -0.11794015 0.18562259 0.12820412 -0.14133357
0001e0 e1 3e 90 3d 95 50 25 3e ad c3 85 3e 99 dc 2c be
       0.07043243 0.16144021 0.2612585 -0.16881026
0001f0 c1 d2 0a 3d 36 7f 86 3d 9e 79 d6 3e dd c7 27 3d
       0.033892397 0.06567232 0.41889662 0.04096209
000200 ef be 1a bd 06 c3 41 be 94 2f da 3d ed 43 38 3e
       -0.037779745 -0.18922052 0.10653606 0.17994662
000210 a2 bf 73 bd 42 5e 34 be 81 36 6c 3d 15 81 0d be
       -0.059508927 -0.17614082 0.057669166 -0.13818772
000220 bd de 03 be fe 10 5c 3d 02 55 99 bc ea a8 5b bc
       -0.12877937 0.053727143 -0.018717293 -0.0134069715
000230 71 08 35 3e 68 9b 0d bd e6 b6 f5 3d 60 42 7b bd
       0.17679001 -0.034572035 0.11997776 -0.061342597
000240 61 53 17 bf 9c 66 26 be 89 1a 56 bd 47 79 42 be
       -0.591116 -0.1625008 -0.0522714 -0.18991576
000250 e2 81 85 bf 1c 12 15 bf b0 50 b0 bf dc 53 7f 3e
       -1.0430262 -0.5823076 -1.3774624 0.24934334
000260 9a c4 92 3f 65 dd 28 3f 19 86 9a be bd 86 72 3f
       1.1466248 0.6596282 -0.30180433 0.94736844
000270 d8 3c 80 3e 3e 52 a7 3e ae 84 85 3e c8 e7 3c be
       0.2504642 0.32679933 0.2607779 -0.18447793
000280 13 98 df 3e 48 b2 00 3e 6e 5d 23 3f 80 6c 69 3d
       0.4367071 0.12568009 0.6381444 0.05698824
000290 63 bb f5 3d 11 20 51 bd 17 6c a5 bd 86 03 a0 3d
       0.11998632 -0.05105597 -0.08077257 0.07813172
0002a0 7e 1d 7a c0 8d 14 9a be 62 c5 9c be dd a2 dc bd
       -3.90805 -0.30093804 -0.3061934 -0.10773251
0002b0 b1 c5 91 c0 a7 03 9b c0 a1 51 05 c1 4d db bc 3f
       -4.5553823 -4.844196 -8.332429 1.4754425
0002c0 18 ea 04 41 e8 3e da 40 06 b6 81 bf 89 37 06 41
       8.307152 6.820179 -1.0133674 8.388558
0002d0 95 62 34 3d e1 46 fa 3e 9a ba a7 3e 73 1a 1d be
       0.044039328 0.488822 0.32759553 -0.15342121
0002e0 ac 95 5d bc 15 e1 9b bd 36 eb e6 bd 4e d6 f8 3d
       -0.013524454 -0.0761129 -0.11275332 0.121502504
0002f0 0c 63 7a 3c 19 bd be 3d 81 28 1d 3e ef b0 9e 3c
       0.015282404 0.09313411 0.15347482 0.019371478
000300 17 1b 93 be 0c 8b a7 be c0 b9 02 be 6f 6f a1 bd
       -0.28731605 -0.32723272 -0.1276617 -0.078825824
000310 f5 0b d0 be 01 7b 4b bd 9d 17 60 bf 94 37 75 3a
       -0.40634122 -0.049677853 -0.8753603 0.000935429
000320 10 e7 e1 3e 6d c5 10 bc 8f 45 1c be bf d0 74 3e
       0.441216 -0.0088361325 -0.1526091 0.23907755
000330 d8 5f 08 be 29 98 4c be 96 39 d7 be 1d 05 65 bd
       -0.13317811 -0.1997992 -0.42036122 -0.05591308
000340 d6 fe e7 be b1 3f ea bc 53 db 5e be 92 84 81 38
       -0.45311612 -0.028594824 -0.21763353 6.1758925e-05
000350 b4 17 51 3e 28 9f 76 3e e8 3e cf 3d 3f 2f 13 3e
       0.20419198 0.24084151 0.1011942 0.14373492
000360 16 88 47 3d 5c 5b 05 bd d1 e6 61 bb 3d 8b 73 bd
       0.048713766 -0.03255783 -0.0034469853 -0.05945896
000370 8d c0 9f bd cd 82 e9 3d 25 39 ad 3d 4f 31 b2 bd
       -0.07800398 0.114019014 0.08458165 -0.08700811
000380 ff df 31 be e3 5f c5 3d d5 a8 39 be a8 e6 0e bc
       -0.17370604 0.096374296 -0.1813081 -0.008721985
000390 5d ef 3b 3b 7e a5 63 3f 1b 47 5c 3f c7 df 25 be
       0.0028676607 0.88924396 0.86046 -0.16198646
0003a0 4e 70 5c 3e 52 aa ee bd ae c2 9b 3e f7 1c d9 be
       0.21527216 -0.1165358 0.30421966 -0.4240491
0003b0 50 8a 4c be 1e a4 4c bd 36 17 14 3d 81 ef be bd
       -0.19974637 -0.0499612 0.03615495 -0.093230255
0003c0 42 17 4f be a0 b6 d6 be 89 f4 97 be 4f 36 64 bd
       -0.20223716 -0.41936207 -0.29678753 -0.055715855
0003d0 fc 75 d8 be 30 8a b6 3c d7 c8 83 be c3 fb 53 be
       -0.42277515 0.02228269 -0.25739166 -0.20701508
0003e0 3d c7 24 3e 28 7b 55 be e2 0a e3 bd e2 b1 37 3e
       0.16091628 -0.20847762 -0.1108606 0.1793895
0003f0 b2 93 2e 3e c7 e1 e1 bd 9c 92 e5 bd 8a 78 c9 bd
       0.17048529 -0.11029392 -0.11209604 -0.09837444

conv1.nn.0.bias f4 [64]
000000 f8 dd 81 be 06 93 db 3d f9 66 21 3e 1e 58 02 3f
       -0.2536466 0.10721402 0.15761937 0.50915706
000010 b5 71 a6 3d f6 f0 b9 bd fe 62 d6 3d 4d 55 30 3e
       0.08127157 -0.09079163 0.104681 0.1722004
000020 aa e6 a9 3d e9 7c 51 3c 77 0b 4d 3e c1 a0 ce 3d
       0.08295949 0.012786129 0.20023905 0.10089255
000030 76 15 c7 be e2 c4 bd 3e 16 e8 8d bf 5c c1 32 be
       -0.3888356 0.37064272 -1.1086452 -0.17456573
000040 b9 13 32 be ac 30 bd be 62 0d 62 3d 8b 92 92 3e
       -0.17390336 -0.36951196 0.055188544 0.28627428
000050 60 bd 68 bd 1e 99 08 be d7 59 49 bd 43 d4 35 be
       -0.056821227 -0.1333966 -0.049157944 -0.17756753
000060 40 be 29 bc c7 0a 9f 3e 86 64 0d 3e 09 95 c7 bd
       -0.010360301 0.3106291 0.13807878 -0.09745223
000070 c6 93 91 bd 51 e2 0e be fd 69 4f bd 50 7b 42 3e
       -0.07108264 -0.1395352 -0.050638188 0.18992352
000080 22 31 79 bc 0f 4e 3e 3e 73 97 05 be 85 e3 e2 bd
       -0.015209468 0.18584464 -0.13046055 -0.11078552
000090 83 b3 a5 bc 07 94 bc bc a3 12 3f 3e 88 ff a0 3c
       -0.0202272 -0.023019804 0.18659453 0.019653097
0000a0 3a 30 a0 3c 8d 50 3b be 50 16 e8 bc 6f be a4 be
       0.019554246 -0.18292446 -0.028330952 -0.3217654
0000b0 a1 19 fd 3d 83 76 86 3e d5 4b a1 be 38 51 5b be
       0.12358404 0.26262292 -0.31503168 -0.21417701
0000c0 cd 6b c5 be d3 33 e3 3e f7 28 2c be 48 cd 35 bd
       -0.38558808 0.44375476 -0.16812502 -0.044385225
0000d0 76 09 89 be df 46 86 3d 40 ee f0 bc 98 bf 10 be
       -0.2676503 0.06556486 -0.029410481 -0.14135587
0000e0 f6 d0 7a bd b1 bf 3c 3e 21 64 de 3e 0d 6d 46 bd
       -0.061234437 0.184325 0.43435767 -0.048443843
0000f0 d1 a7 76 3e c0 2f d1 bd cf 19 66 3c ac c5 7f bd
       0.24087454 -0.10214186 0.014044239 -0.062444374

conv1.nn.2.weight f4 [64]
000000 37 37 14 3f b7 ca 2e 3f dd 90 44 3f 4e 14 30 3f
       0.5789675 0.6827807 0.76783544 0.6878098
000010 1a 7b 36 3f 1e a5 30 3f ad 99 21 3f 49 71 19 3f
       0.7128159 0.6900195 0.63125116 0.59938484
000020 81 58 2f 3f b7 ca 2e 3f f0 1e ef 3e b7 ca 2e 3f
       0.6849442 0.6827807 0.4670329 0.6827807
000030 3b 42 32 3f dc cc 5b 3f 6f 87 92 3f 48 58 1d 3f
       0.6963231 0.85859466 1.1447581 0.6146283
000040 5a db 08 3f 81 df 34 3f b7 ca 2e 3f c8 b9 62 3f
       0.53459704 0.7065354 0.6827807 0.8856473
000050 96 40 28 3f b7 ca 2e 3f b2 46 0f 3f 57 41 00 3f
       0.6572355 0.6827807 0.5596725 0.500997
000060 00 c1 02 3f 33 79 81 3f 29 f0 db 3e c0 69 34 3f
       0.51075745 1.0115112 0.42956665 0.7047386
000070 45 e3 1c 3f 73 4a 20 3f b2 98 f4 3e 89 33 34 3f
       0.61284286 0.626136 0.47772747 0.70391136
000080 56 a8 55 3f 84 1d 1a 3f c1 3f 2b 3f 41 98 ab 3f
       0.83459985 0.6020129 0.66894156 1.3405839
000090 72 62 2e 3f b7 ca 2e 3f b7 ca 2e 3f 32 e9 38 3f
       0.68118966 0.6827807 0.6827807 0.7223083
0000a0 26 2d 10 3f 48 0b 2d 3f 04 20 0d 3f 51 f4 2d 3f
       0.5631889 0.6759534 0.55126977 0.6795092
0000b0 45 f6 43 3f 04 0a 30 3f 53 ce 4f 3f 96 d1 f9 3e
       0.7654765 0.6876528 0.811742 0.48792714
0000c0 c4 2e 26 3f bb 33 4b 3f 4c 92 0a 3f 4b f8 38 3f
       0.6491511 0.7937581 0.5412948 0.72253865
0000d0 42 e8 30 3f 5b 52 1d 3f b7 ca 2e 3f 1e 36 26 3f
       0.691044 0.6145379 0.6827807 0.64926326
0000e0 b7 ca 2e 3f e5 e5 21 3f 50 16 2e 3f e1 81 28 3f
       0.6827807 0.63241416 0.68002796 0.6582318
0000f0 eb 64 44 3f 67 6b da 3e 6e 49 23 3f 4a 4b 29 3f
       0.7671649 0.42660066 0.6378392 0.66130507

conv1.nn.2.bias f4 [64]
000000 cd 90 f4 3c ea d7 ae 3d c0 0a 40 be 3d 18 5e bd
       0.029854203 0.08537276 -0.18754101 -0.054222334
000010 d5 d0 b6 bb 3b a9 89 bb 8c 29 e6 bc 69 58 a5 3c
       -0.005579094 -0.004201082 -0.028095983 0.020183759
000020 eb 09 b1 3c 91 2f 94 39 73 87 82 3c c0 7e c4 3e
       0.021611175 0.000282642 0.015933728 0.38377953
000030 7d 07 3b bd 05 e8 88 be f0 32 67 be ad 49 d7 3c
       -0.04566144 -0.26739517 -0.22578025 0.026280249
000040 ed 01 21 3c 69 57 8d bc 55 11 41 bb 1a 25 86 be
       0.009827119 -0.017253594 -0.0029459794 -0.2620018
000050 f6 55 80 3e 79 b1 bc 3c db 3b 79 3c 52 4f df be
       0.25065583 0.023033844 0.015212025 -0.43615204
000060 f2 76 e5 3b a5 59 41 be 06 4c 6f 3b 6c 10 d2 bb
       0.007002705 -0.18881853 0.003651382 -0.006410649
000070 6d 97 97 3b 6f b2 70 3d dd e7 8c 3d 6a 1e b5 bd
       0.0046262057 0.058763918 0.06880162 -0.08843692
000080 00 35 12 bb 8c 9d 1d 3c d0 97 9e bc ce 23 48 3d
       -0.0022309422 0.009620082 -0.0193595 0.04886227
000090 34 34 9b bc 9f 5a 9b ba cc 20 62 be 52 bc d2 bb
       -0.01894579 -0.0011852569 -0.22082824 -0.006431141
0000a0 b8 24 5a bc 3d 31 b4 bc 67 eb 7a bb 80 da 5e 3c
       -0.0133144185 -0.021996135 -0.0038287283 0.013601899
0000b0 ba 58 08 be f1 bc 45 bd 8b 16 30 be e5 4d 1a 3a
       -0.13315096 -0.04827589 -0.171961 0.0005886241
0000c0 29 02 33 be 66 58 3c bd f3 14 55 bc 34 5a 3f 3c
       -0.17481293 -0.04598274 -0.013005483 0.011679221
0000d0 36 ff 9d 3c a9 e0 c8 3a 08 f4 af 3d 15 2d c1 3c
       0.019286733 0.0015325743 0.08591467 0.023581067
0000e0 2c 72 cc bd c0 5d 95 bc b4 0c 3c be 56 81 f7 bc
       -0.09982714 -0.01823318 -0.18364221 -0.03021304
0000f0 06 48 65 3c 9e ea cd 3e 69 36 1a 3c 54 f6 21 be
       0.0139942225 0.4021806 0.009412386 -0.15816623

conv1.nn.2.running_mean f4 [64]
000000 04 00 00 00 00 00 00 00 2d 56 88 3e e3 3c 0c 3e
       6e-45 0.0 0.26628247 0.13695101
000010 04 00 00 00 04 00 00 00 04 00 00 00 ce e7 d2 3d
       6e-45 6e-45 6e-45 0.102981195
000020 68 94 40 3e 00 00 00 00 03 92 cb 3d 00 00 00 00
       0.18806612 0.0 0.09939959 0.0
000030 04 00 00 00 11 84 31 3e 04 00 00 00 c2 96 67 3e
       6e-45 0.17335536 6e-45 0.22616103
000040 04 00 00 00 04 00 00 00 00 00 00 00 64 c4 e2 3e
       6e-45 6e-45 0.0 0.4429046
000050 04 00 00 00 00 00 00 00 04 00 00 00 04 00 00 00
       6e-45 0.0 6e-45 6e-45
000060 de 8a 24 3e d7 9b d5 3d 3c f3 9b 3d ea 5d 2f 3e
       0.16068599 0.10430115 0.07614753 0.17125669
000070 04 00 00 00 04 00 00 00 04 00 00 00 cf df 12 3e
       6e-45 6e-45 6e-45 0.14343189
000080 4e 17 76 3b 14 f0 43 3e 04 00 00 00 a0 d8 8a 47
       0.0037550512 0.19134551 6e-45 71089.25
000090 04 00 00 00 00 00 00 00 00 00 00 00 04 00 00 00
       6e-45 0.0 0.0 6e-45
0000a0 5e ed 85 3d 04 00 00 00 04 00 00 00 04 00 00 00
       0.06539415 6e-45 6e-45 6e-45
0000b0 f8 87 2d 3e ac b8 05 3f 04 00 00 00 04 00 00 00
       0.16946399 0.5223491 6e-45 6e-45
0000c0 04 00 00 00 07 88 cf 3d 54 9f 15 3e 04 00 00 00
       6e-45 0.10133367 0.1461156 6e-45
0000d0 04 00 00 00 04 00 00 00 00 00 00 00 79 ac dc 3d
       6e-45 6e-45 0.0 0.10775084
0000e0 00 00 00 00 04 00 00 00 0f b9 20 3e 61 9e fe 3d
       0.0 6e-45 0.15695594 0.12432552
0000f0 55 59 f3 3a 04 00 00 00 24 98 41 3e 45 63 a5 3d
       0.0018566052 6e-45 0.18905693 0.08075575

conv1.nn.2.running_var f4 [64]
000000 04 00 00 00 04 00 00 00 e4 8a 0d 43 d1 b4 f9 41
       6e-45 6e-45 141.54254 31.21329
000010 04 00 00 00 04 00 00 00 04 00 00 00 38 53 9e 41
       6e-45 6e-45 6e-45 19.790634
000020 0a 28 89 42 04 00 00 00 8c f6 98 41 04 00 00 00
       68.5782 6e-45 19.120384 6e-45
000030 04 00 00 00 7b 8e 61 42 04 00 00 00 b0 13 cb 42
       6e-45 56.38914 6e-45 101.53845
000040 04 00 00 00 04 00 00 00 04 00 00 00 8d 43 c3 43
       6e-45 6e-45 6e-45 390.52774
000050 04 00 00 00 04 00 00 00 04 00 00 00 04 00 00 00
       6e-45 6e-45 6e-45 6e-45
000060 28 88 4d 42 3a 67 fc 41 2c f4 30 41 e2 fb 7a 42
       51.382965 31.550404 11.059612 62.74598
000070 04 00 00 00 04 00 00 00 04 00 00 00 13 f9 1e 42
       6e-45 6e-45 6e-45 39.743237
000080 2b 01 a2 3d a7 20 8f 42 04 00 00 00 38 4c 19 4f
       0.07910379 71.563774 6e-45 2.571909e+09
000090 04 00 00 00 04 00 00 00 04 00 00 00 04 00 00 00
       6e-45 6e-45 6e-45 6e-45
0000a0 2a 28 30 41 04 00 00 00 04 00 00 00 04 00 00 00
       11.009806 6e-45 6e-45 6e-45
0000b0 24 be 60 42 01 a4 08 44 04 00 00 00 04 00 00 00
       56.185684 546.56256 6e-45 6e-45
0000c0 04 00 00 00 4b 71 d3 41 db 22 2a 42 04 00 00 00
       6e-45 26.430319 42.53404 6e-45
0000d0 04 00 00 00 04 00 00 00 04 00 00 00 37 8d bb 41
       6e-45 6e-45 6e-45 23.443953
0000e0 04 00 00 00 04 00 00 00 3b f8 5a 42 6a 35 06 42
       6e-45 6e-45 54.742413 33.552162
0000f0 07 70 9e 3c 04 00 00 00 5b 87 8d 42 10 ab 87 41
       0.019340528 6e-45 70.764366 16.958527

conv1.nn.4.weight f4 [64, 64]
000000 86 b8 2f 3e 6c d2 09 3e 3d 46 09 3e c6 68 44 be
       0.17160234 0.13459176 0.134057 -0.19180593
000010 44 0a 82 be 90 89 43 bd 4c 7d b1 3e e1 f5 46 be
       -0.25398457 -0.04773861 0.34665906 -0.19429733
000020 4a a6 56 3e 0b 16 61 3e c6 3f 7a be 46 8c 82 bd
       0.20961872 0.21981065 -0.2443839 -0.06374411
000030 36 55 a5 3d d7 25 d5 3d 59 c4 52 3f 10 9b 69 3d
       0.08072893 0.10407608 0.8233085 0.057032645
000040 e8 43 34 be 2b 35 61 3e cc 23 01 be c7 6b 4a 3d
       -0.17604029 0.21992938 -0.12611312 0.04941919
000050 7e 7e e5 3d a2 80 66 3e fb fb e4 bd 46 36 4a 3e
       0.11205767 0.22510007 -0.11180874 0.19747266
000060 f0 d3 67 3e 17 f5 24 3f d8 95 a2 bb 37 29 ca bd
       0.22639441 0.6443648 -0.0049617104 -0.09871142
000070 e8 fd d6 bd c8 d2 39 3e ad 91 0f 3e bd 9f aa bd
       -0.104976475 0.18146813 0.14020415 -0.08331249
000080 fc bf 4c 3d e2 c8 94 3e 92 39 a7 3e 76 c8 4a 3f
       0.049987778 0.2905951 0.3266111 0.7921213
000090 9a 82 9a 3e bc 75 1c be 88 cb 44 bd df 9e 1d be
       0.30177766 -0.15279287 -0.048045665 -0.15392636
0000a0 87 b3 87 3e 72 a7 87 3d 9a 40 07 be eb 6c 89 bd
       0.26504156 0.066237345 -0.13208237 -0.067102276
0000b0 5e 92 f1 bd 28 32 17 be 97 e6 55 3b d4 7d d7 bd
       -0.117954955 -0.14765227 0.0032638663 -0.10522047
0000c0 8b 80 6e 3e 1f 25 1e 3e 70 9f 80 be 39 04 0d be
       0.23291223 0.15443848 -0.2512164 -0.13771142
0000d0 0d ca 95 be 81 12 5c bd f2 98 1a 3e 71 d3 15 be
       -0.29255715 -0.053728584 0.15097407 -0.1463144
0000e0 73 e3 6c bd e2 72 f8 bd 55 8b 3c 3d 5c 66 9e 3d
       -0.0578341 -0.12131287 0.046031315 0.07734367
0000f0 c2 91 c3 be 48 ee cb bd 8c 43 a6 3e 18 cb 0b 3e
       -0.38197142 -0.09957558 0.3247341 0.13651693
000100 b8 5e 41 bd e3 07 da bd e6 2c 70 3e a4 45 99 3c
       -0.04720947 -0.106460355 0.23454627 0.018709965
000110 94 e2 5e 3d 1f 75 7f 3d e5 00 b0 bd 6f 90 ff 3d
       0.0544153 0.062367555 -0.085939206 0.124787204
000120 ce 66 82 3e 0a 69 8a 3a b3 f9 e0 3d 67 1e 1d be
       0.2546906 0.0010559869 0.10985126 -0.15343629
000130 20 ff 0e 3e 06 58 56 3e d0 37 60 3f 81 6f b3 3d
       0.1396451 0.20932016 0.87585163 0.08761502
000140 07 52 54 bd 78 93 a8 3d ea 56 f7 bc ce 72 47 3e
       -0.05183604 0.082312524 -0.030192811 0.19477388
000150 07 bc aa 3d 15 89 f3 bd 45 b7 8c bd ce 3d e2 3d
       0.083366446 -0.11891381 -0.068708934 0.110469446
000160 0d f5 b4 3d e5 ce c2 3e a4 aa 60 3d 5b 3e 86 3d
       0.08835802 0.38048473 0.054850236 0.06554862
000170 e0 2f a9 bd e3 87 0d 3d 69 9d e7 3d 0f 08 88 3e
       -0.082610846 0.03455342 0.113093205 0.26568648
000180 0d 11 85 3e 15 0a 17 3e 10 5d cb 3d f6 a0 93 bc
       0.2598957 0.1474994 0.0992986 -0.018021088
000190 9d 7f 9e bd 40 a3 82 ba b7 d7 da 3d f2 ec 66 3d
       -0.07739184 -0.0009966865 0.106856756 0.056378312
0001a0 bd 5d d3 3d c6 ac 5a bd 47 69 89 3d 6a db 87 3c
       0.103206135 -0.053387426 0.06709533 0.016584117
0001b0 4e 92 f0 3d fd af 68 3e 6f 00 05 3e 85 11 56 3c
       0.117466554 0.22723384 0.12988447 0.0130657
0001c0 9d 51 25 3e 37 5d 66 3e a8 10 3c 3e d9 13 93 3d
       0.16144414 0.22496496 0.18365729 0.0718152
0001d0 81 62 8b 3d 26 38 83 3d 22 15 68 3d 2b 29 61 3d
       0.068058975 0.06407194 0.05666078 0.0549709
0001e0 78 cf 23 3c d3 db b5 3d 75 43 b9 3d 75 8f 0a 3e
       0.009998195 0.08879819 0.090460695 0.13531287
0001f0 57 25 75 3e 1e 5a f1 bc 76 95 49 3e 35 17 04 3e
       0.23940025 -0.029461917 0.19685921 0.12899478
000200 e0 ee 31 be 6c 0e 49 be 5e 8d de 3c 1e 6d 60 3e
       -0.1737628 -0.19634408 0.027167019 0.21916625
000210 82 eb 0f 3e 73 d7 49 3c 8d c5 4f 3d f7 11 12 3d
       0.14054683 0.0123194335 0.05072551 0.035661664
000220 b3 85 4c bd fc 1b c7 bd 62 c0 97 bd 84 3d cd bd
       -0.049932193 -0.097221345 -0.07409741 -0.10021499
000230 96 95 fd 3b ae a3 49 3d 1e 23 b3 bc ee 39 f7 bd
       0.0077387793 0.049228363 -0.021867331 -0.12071596
000240 e7 2a a7 3d c1 a1 2e 3e c2 49 40 3d a1 9b 59 3d
       0.0816248 0.17053892 0.04694534 0.053126935
000250 63 80 ad 3d 6e c8 be bd 16 39 a3 3d 93 98 e8 bc
       0.084717534 -0.09315573 0.07969873 -0.028393066
000260 15 81 af bd 91 5b cc 3c ab 4d 24 3d 1f 32 66 3c
       -0.08569542 0.024946006 0.040113132 0.014050036
000270 e9 99 c1 bc 3a ba f6 bd 69 60 3f be 52 a3 03 3e
       -0.02363296 -0.12047239 -0.18689121 0.1285527
000280 20 b8 8a 3e a8 2b f5 bd a8 76 8f 3d f8 e0 d2 bc
       0.270936 -0.119712174 0.07005054 -0.02574204
000290 8a cc 3b 3e 1a 07 c8 3d 0c 98 b9 3d ac 50 b8 3d
       0.18339744 0.097669795 0.09062204 0.08999762
0002a0 85 9c 90 3d 15 50 f2 3d d1 ec b6 3d d2 de b7 3b
       0.07061104 0.11831681 0.08931888 0.005611279
0002b0 35 43 35 3d 84 4e 4d bc 1b 80 31 3e dd f4 a1 3b
       0.044253547 -0.012530927 0.17334025 0.00494252
0002c0 7b c5 08 3e e1 89 9e bd 0a 7d 6f 3c 9b bb ff 3d
       0.13356583 -0.07741142 0.014617214 0.12486955
0002d0 cf 7d 5b 3d 37 ba b7 3d 34 91 6e bd 97 f2 63 bd
       0.053586777 0.089710645 -0.058243945 -0.055651274
0002e0 4b 2d 00 3d b5 e2 7f 3d 28 83 d8 bd b8 b8 ee 3d
       0.031293195 0.062472064 -0.10571891 0.11656326
0002f0 1c c2 60 3e 81 49 6b bd 89 b7 87 be 21 80 a7 bd
       0.21949047 -0.057443146 -0.26507214 -0.081787355
000300 9a 9c 53 3e a0 47 f0 3d b0 34 b9 be 71 1f f1 bd
       0.20665208 0.117324114 -0.3617301 -0.11773575
000310 e3 4d 38 bd 7f 50 0b be 1c 57 d5 bd b0 d3 e7 bd
       -0.044996154 -0.13604926 -0.104170054 -0.11319673
000320 cc 38 9d 3e b4 78 d9 bc 58 41 83 3d c5 a1 00 3f
       0.30707395 -0.026546814 0.06408948 0.5024684
000330 19 cf 3c be b7 8a cc be 9c cc 33 bf 75 92 ad bd
       -0.18438376 -0.3994958 -0.70234084 -0.084752
000340 f3 c9 c7 bd 92 2a 01 3e 40 13 09 be e8 77 9c be
       -0.09755316 0.12613896 -0.1338625 -0.3056023
000350 c7 00 66 3e ea 06 64 3e 92 76 32 3d 41 e8 8f be
       0.22461234 0.22268263 0.04357011 -0.28106883
000360 d2 42 0b 3e 49 fd 2d bf e1 e3 3e 3d b4 09 86 bd
       0.13599709 -0.6796461 0.04660404 -0.065448195
000370 fe d6 70 bc 7a 5d 58 3e 4d b4 62 3e d4 be 18 be
       -0.014699696 0.21129408 0.22139092 -0.14916545
000380 a9 2c fc 3d 05 7b ef 3c 71 fe 8f 3c 67 04 86 bf
       0.12313206 0.029233465 0.017577382 -1.0470093
000390 db 3a df 3d a7 94 ae bb bd 10 80 be 59 cc 09 bd
       0.10899898 -0.0053277793 -0.2501277 -0.033642147
0003a0 30 58 72 3c 28 e9 17 bd 8c 8a ae bd c8 48 be 3c
       0.014791533 -0.03708759 -0.085225195 0.023228064
0003b0 36 17 b5 be 0b b5 92 be f0 3e 6c be 90 0f 3e bd
       -0.3536927 -0.2865375 -0.23070884 -0.04640156
0003c0 f5 0f 53 be e8 5b 9c be 1f 5c 6c be fb fd 90 3d
       -0.20611556 -0.3053887 -0.23082016 0.07079693
0003d0 7d 9e c5 bd 09 72 c4 3c b0 bb 82 3e fd 0b 6d bd
       -0.0964937 0.023980157 0.2553382 -0.05787276
0003e0 89 74 8a be 84 d6 3c be 9f d7 d6 be d9 2c 31 be
       -0.27042034 -0.18441206 -0.4196138 -0.17302264
0003f0 76 bf 1e bd fc 7b 7a 3e 34 6d 2e 3d 76 6b 51 be
       -0.03875681 0.24461359 0.042584613 -0.2045115

conv1.nn.4.bias f4 [64]
000000 02 a1 b5 be d4 7c 4a be c2 8b 2d be 03 6a bd 3e
       -0.35474402 -0.1977418 -0.16947845 0.36994943
000010 ba 95 0a 3f 97 53 ac 3f 7e c2 43 be 8f 18 85 be
       0.54134715 1.346301 -0.19117162 -0.259953
000020 5e 2d 2a be f6 c3 1f 3f ca a7 97 bd 0f 40 55 3f
       -0.16618869 0.6240839 -0.0740505 0.8330087
000030 b2 39 d6 bd e0 69 ab be fc 64 1d be 85 f9 0a bf
       -0.10460223 -0.33479214 -0.15370554 -0.54286987
000040 bb dc 20 3f 5b ba e3 be c6 c5 8b bd 66 9e 09 3c
       0.6283681 -0.44478115 -0.06824832 0.008399582
000050 7d 57 87 be 53 7b af be 2e 01 0e 3f 46 96 30 be
       -0.26433936 -0.34273776 0.5547055 -0.17244825
000060 19 6a ac 3e 5d d8 22 be 63 d5 54 be 16 b8 99 be
       0.33674696 -0.15902849 -0.20784526 -0.3002326
000070 27 65 e0 be de 61 da be 72 a6 90 be db 13 67 be
       -0.43827173 -0.42652792 -0.28251988 -0.22566168
000080 4a 76 66 be e1 51 70 be 8f 82 83 3f a7 35 f3 be
       -0.22506061 -0.23468734 1.0274218 -0.4750187
000090 f0 23 5e be c8 dd 26 3f 99 af 1f 3f 75 e3 84 bc
       -0.21693397 0.6518216 0.62377316 -0.016221741
0000a0 d6 8f 47 3f 7c 1a 29 3f 09 b8 36 be f2 43 78 be
       0.7795385 0.66056037 -0.17843641 -0.24244669
0000b0 1c f5 da be d3 1a f9 be e7 97 eb bd 3f 7b d8 3f
       -0.4276513 -0.48653278 -0.115035824 1.6912612
0000c0 14 8b f8 be 2d 94 4b be d2 7d 07 3f 5e 61 e1 bd
       -0.48543608 -0.19880743 0.5292636 -0.110048994
0000d0 8b 30 64 be 43 1b 57 be 05 71 d9 be eb b8 03 bd
       -0.22284143 -0.21006493 -0.4246904 -0.032158773
0000e0 84 b9 76 be 27 55 70 be b9 da 39 3d 5e 57 65 be
       -0.24094206 -0.23469983 0.045374606 -0.22396609
0000f0 23 4a 04 3f 79 a7 59 be 4a de 24 3f 41 cb 81 3e
       0.51675624 -0.21255292 0.64401686 0.25350383

conv2.nn.0.weight f4 [64, 64]
000000 2a fb ca 3f 7f f9 9a 3f a6 45 6a bc 20 c8 cb be
       1.5857899 1.210739 -0.014298832 -0.3980112
000010 e6 12 48 be 5e d9 9f be 5d 9d 08 3f 65 2c 7f bf
       -0.19538459 -0.31220526 0.5336512 -0.99677116
000020 4c 33 0d 3e 33 d7 18 bf 07 43 dd bc f2 b7 f4 be
       0.137891 -0.5970337 -0.0270095 -0.4779659
000030 61 66 77 3e c3 45 a8 bd a1 a3 29 be d6 01 92 3e
       0.24160148 -0.08216431 -0.16566326 0.28517026
000040 4d 78 27 bf eb 0d e0 3f 34 4a 8d be ce 72 c4 3d
       -0.6541794 1.7504247 -0.27595675 0.0959221
000050 c4 27 fb 3e 21 68 d7 bc 9f a5 1e bf 08 43 e4 3c
       0.49053776 -0.02629477 -0.6197147 0.027863994
000060 3f dd f4 be ff 52 0d bc c3 b7 d6 3e 3d 02 48 bd
       -0.47825047 -0.008625745 0.41937074 -0.04883026
000070 23 3b 5e be 6f b4 a4 be a6 31 2f bf 75 81 6c bd
       -0.21702246 -0.3216891 -0.6843513 -0.057740647
000080 92 ec 67 3f c4 85 77 3f e6 6f 7f be 71 5a 01 be
       0.9059535 0.96688485 -0.2494503 -0.12632157
000090 65 76 e8 be 40 72 1b bf 02 f6 ed bd 32 27 90 3e
       -0.45402828 -0.60721207 -0.11619188 0.28154904
0000a0 c6 21 1a bf e4 bf f4 be 45 51 af bd db c0 61 bd
       -0.60207784 -0.4780265 -0.08560423 -0.055115562
0000b0 11 c4 92 be 54 0b 04 3e 25 70 06 3e 2a fe 8c be
       -0.28665212 0.12894946 0.13128717 -0.27537662
0000c0 2d 7c 1c 3e a9 c8 e0 be ec 4d ec be 82 10 81 3e
       0.15281744 -0.43903092 -0.461532 0.25207907
0000d0 3b 39 a2 3d 55 6c 34 bc cb d7 94 3d 8e 24 3e bd
       0.07921072 -0.0110121565 0.07267722 -0.04642158
0000e0 30 82 0f bf 64 dc f9 3e c9 93 b8 bd fc f6 1f be
       -0.56058025 0.48800957 -0.09012563 -0.15621561
0000f0 87 ac 24 bf d8 ea 8f be 37 21 40 bf d9 79 8f 3d
       -0.64325756 -0.2810886 -0.7505068 0.070056625
000100 01 0f 06 bb cb 55 02 be 40 69 b1 bd 49 12 ab bd
       -0.002045572 -0.1272804 -0.08662653 -0.08353097
000110 d8 1a b1 3b c0 4e d9 bd 26 d4 54 3d 09 80 b5 3d
       0.0054048114 -0.106107235 0.051960133 0.088623114
000120 cb 63 71 bd 5b da 14 be 5a c4 23 bd fc ef 19 bc
       -0.05893306 -0.14536421 -0.039982177 -0.009395596
000130 47 bd 0d bd 93 77 ae bd 3c 2e a6 bc 93 92 b6 bd
       -0.034604337 -0.08518901 -0.020285718 -0.089146756
000140 9b 17 cc bd 10 24 19 bd 81 22 07 bb f5 67 b5 bd
       -0.0996544 -0.037387908 -0.0020619931 -0.08857719
000150 7d 53 5b 3c 75 85 35 3c b5 6a 03 be 96 5c 8f 3c
       0.013386604 0.011079182 -0.12833674 0.017500203
000160 35 62 80 bd 0c b2 68 3c c3 de eb bc 9e dd 68 3d
       -0.062687315 0.014202606 -0.028792745 0.056851976
000170 d3 1c ab bd aa bd de bc db 35 10 be 70 d0 74 3d
       -0.08355107 -0.027190048 -0.14083044 0.059769094
000180 1e e5 3d bd 55 2c ca bb 7e f2 8d bd 6e 0e 19 bd
       -0.04636108 -0.0061698356 -0.06931017 -0.037367277
000190 d8 7f 01 be 7e 5f fd bd 12 23 a7 bc 8c 82 7c 3c
       -0.12646425 -0.12371729 -0.020402465 0.015411984
0001a0 fb f5 90 3c 72 9e f6 bd a1 f5 93 bd 61 39 1f ba
       0.017695418 -0.1204194 -0.07224584 -0.0006073919
0001b0 6d 8a 62 3d 11 93 86 bc bb d7 a7 3c 52 da bc bd
       0.055307794 -0.016427549 0.02048861 -0.09221329
0001c0 7c e9 70 bd 38 0f 95 3d 25 21 06 be 74 ee a7 bd
       -0.058816418 0.07278293 -0.13098581 -0.08199778
0001d0 a2 16 a2 3c 4e a0 1a 3d 90 1e c4 bd 32 ed 2b bc
       0.019786183 0.037750535 -0.09576142 -0.0104935635
0001e0 52 43 8c bd d4 90 81 bb 74 a5 0f be 70 e3 ec 3d
       -0.06848778 -0.0039540324 -0.14027959 0.11566818
0001f0 6d ba 0d be 53 42 de bd db 3c 0e be e1 d8 96 bb
       -0.13840647 -0.10852494 -0.13890402 -0.0046034907
000200 40 78 95 be 94 2b 6b be d2 3f 17 3d 6d 63 7a be
       -0.29193306 -0.22965842 0.0369261 -0.2445199
000210 29 bb 06 ba 92 7b b4 3f ad a5 47 be 4d d8 14 3c
       -0.00051395834 1.4100211 -0.19496794 0.009084773
000220 90 5e 74 3c b9 3c 12 3e 2d c3 f9 3d ff d3 01 3f
       0.014915124 0.14280976 0.1219543 0.50714105
000230 5a e1 a1 3d 95 1c b0 3c c4 9e fa 3b 33 6e 3e bd
       0.079043105 0.021498004 0.007648321 -0.046491813
000240 5a d3 f0 3d 66 64 5e be 80 4f 8c 3c 7c cf 12 be
       0.11759062 -0.21717986 0.017127752 -0.14336962
000250 64 2e 7d be a1 d3 63 bd ce 16 24 3e 4a 92 70 bc
       -0.24724728 -0.055621747 0.16024324 -0.0146833155
000260 6f 46 e3 bd 78 71 6f bd 16 8b 7b bd a4 10 8d be
       -0.110974185 -0.05845782 -0.06141194 -0.27551758
000270 96 12 df bd 1e 18 ab bd d1 4e 80 bd bf 9a cf 3c
       -0.10892217 -0.08354209 -0.06265033 0.025342343
000280 14 04 34 be 17 ee 18 be 23 fe ef 3e 0f bc 48 bd
       -0.1757968 -0.14934574 0.46873578 -0.04900747
000290 91 4d 7f be f2 3b a1 3e 57 5e 19 3b af 1e 8a be
       -0.24931933 0.31491047 0.0023402178 -0.26976535
0002a0 70 da ce 3e e9 a0 96 3e a9 59 fd bc 84 88 d1 bc
       0.4040103 0.2941964 -0.030926542 -0.025577791
0002b0 fb 4f 2f be ee 50 77 bc 07 26 a9 bd 64 d3 9a 3f
       -0.17120354 -0.015094979 -0.08259206 1.2095761
0002c0 fc 62 68 bd d7 73 58 3b 73 f2 5a 3e 2a c1 d5 bd
       -0.056735024 0.003302803 0.2138155 -0.10437234
0002d0 8f cd 79 3c ca cd 8b 3d 7d e4 de bd ba d8 71 bd
       0.015246763 0.068263605 -0.108834244 -0.059044577
0002e0 f2 b0 e8 bd ad 74 a3 bd cf 8c bc ba d0 c4 9e 3c
       -0.11361875 -0.079812385 -0.0014385226 0.019380957
0002f0 f9 82 91 3e 34 8a a4 bd 65 59 b6 3e da 05 82 bd
       0.28420237 -0.08034173 0.35615078 -0.06348772
000300 4e b2 ec bd da d4 b1 be 4c f3 29 bd 1d 69 93 3f
       -0.115574464 -0.34732705 -0.04149179 1.1516453
000310 ab 83 c6 bc 22 69 18 3e ae a0 ef bd 6f 12 cf be
       -0.024232706 0.14883855 -0.11700569 -0.4044375
000320 bc 8c 0b be 86 41 35 be e9 a3 5d 3c 1a ab fc 3d
       -0.13627905 -0.17700776 0.013527849 0.123373225
000330 af 28 dc bd 1c 2f 8f 3d 4e ea 85 be c9 fd 8f 3f
       -0.10749947 0.06991407 -0.26155323 1.1249324
000340 95 5b 9d be f8 9c 0b be 5f d5 f6 bd 83 b6 22 be
       -0.30733934 -0.13634098 -0.12052416 -0.15889935
000350 0d 6f 23 bd f6 39 e7 bc 97 3d 21 3f ce 4d a4 bd
       -0.03990083 -0.02822588 0.62984604 -0.080226526
000360 ee 6b 89 3f 00 be 61 bd fe 6b d6 bd 1b e0 f1 3d
       1.0736063 -0.05511284 -0.104698166 0.11810323
000370 ed bc 8e 3f f4 3c 9f 3f 6f 0a d6 bd 21 10 62 bb
       1.1151406 1.2440476 -0.10451209 -0.0034494477
000380 fd 5b 37 be e2 44 7e be 23 98 84 3c e8 9b a8 3f
       -0.17906184 -0.24830964 0.016185826 1.3172579
000390 1d 88 b7 3f d0 4f f4 3e d9 da 0b be 5c 3d 38 be
       1.4338413 0.47717142 -0.13657703 -0.17992157
0003a0 69 49 22 3f 1c b6 c9 bd 8d 4d ed bd 49 d9 35 3e
       0.63393265 -0.09849188 -0.11587057 0.17758669
0003b0 6b 87 a2 3f 51 19 82 3f dd 18 84 be ea ab 0d 3e
       1.2697576 1.0163976 -0.2580022 0.13835111
0003c0 3e 9f 92 3f 8f 63 f0 bd 13 00 f8 bd c0 db 5a bd
       1.1454847 -0.11737739 -0.12109389 -0.053432226
0003d0 b5 22 8d be d9 15 87 bd ce 10 3e 3f 53 5d 40 bd
       -0.27565542 -0.06595964 0.7424439 -0.046964
0003e0 e8 89 7c be 14 25 14 be 27 71 ca be 9e 19 5c bd
       -0.24661982 -0.14467269 -0.39539453 -0.053735368
0003f0 97 3b 1d 3e 31 d4 ec bd f5 e4 08 3f f3 3c 29 be
       0.15354763 -0.1156391 0.5347436 -0.16527157

conv2.nn.0.bias f4 [64]
000000 9e 60 4f 40 60 90 32 bd b6 af de bd 51 65 87 3f
       3.240272 -0.043594718 -0.10873358 1.0577794
000010 de e0 06 3f ca 74 81 40 e3 08 16 40 3e 89 4a be
       0.5268687 4.0455065 2.3442924 -0.19778916
000020 b8 85 cb bd fd 52 d7 bd 95 18 f5 3e c3 38 a9 bd
       -0.09937614 -0.10513876 0.47870317 -0.082627796
000030 7d 69 13 3e 49 20 9c 40 f6 5e 8d 3e 1b 64 63 3f
       0.1439571 4.878941 0.27611512 0.88824624
000040 4b 4e ac 40 c0 d9 b7 3b 89 34 4d 3e 93 6f b4 3e
       5.3845572 0.0056106746 0.20039572 0.35241374
000050 22 e2 2c 3d e1 46 4a 3d 4d b8 04 3d 56 2d 5c 3e
       0.042207845 0.049384 0.032402325 0.2150167
000060 77 c9 80 bc 90 c4 2d 40 d2 43 7d 3a f8 43 d6 bd
       -0.015721066 2.7151222 0.000966129 -0.10462183
000070 99 40 61 3f 92 3e 8c 3e 31 96 b5 3d c4 4e 3c 3e
       0.87989193 0.27391487 0.08866537 0.18389422
000080 b2 2d 95 3f f6 50 4f bd be b3 b2 bd 87 7d 88 40
       1.165457 -0.05061432 -0.08725689 4.265323
000090 42 a2 4c bd 3c bb 8c 40 c5 9e d8 bd 98 2e 8d 3f
       -0.04995943 4.3978558 -0.10577158 1.1029844
0000a0 0d 47 a3 bb 1c e2 17 40 2f 71 83 40 22 07 95 40
       -0.004982835 2.3731756 4.1075664 4.6571207
0000b0 18 1d d7 3f 4c cf 4c 3e 7f 7d a4 40 fb 41 3f be
       1.6805754 0.20000952 5.1403193 -0.18677513
0000c0 e7 5a 8d bd de dd 69 be d2 3f 27 be f1 8d ec bd
       -0.06902104 -0.22838542 -0.1633294 -0.11550511
0000d0 e4 77 4f 40 fe 7d a6 bd 26 47 dc 3e 07 76 c2 bd
       3.2416925 -0.081295 0.43023032 -0.09495168
0000e0 ac 5a 2a 40 63 6c e0 3c 3b 52 5e 3f 31 0a 2d 3d
       2.6617842 0.027395433 0.86844224 0.042246047
0000f0 ff bf 47 3f d8 5c ce 3e e6 c0 45 3e 6c ac 92 3d
       0.7802734 0.4030521 0.19311866 0.07161793

conv2.nn.2.weight f4 [64]
000000 bb 0b 86 3f 51 e4 1f 3f 0d 10 9b 3f bc fd 8d 3f
       1.047233 0.6245776 1.2114273 1.1093059
000010 8a 84 72 3f 3f 81 98 3f 20 a7 70 3f 82 3f 83 3f
       0.9473349 1.1914443 0.9400501 1.0253756
000020 70 55 7d 3f f9 48 24 3f ec c8 60 3f 67 d7 25 3f
       0.9895849 0.6417385 0.8780658 0.647818
000030 3f 64 47 3f b2 4b 83 3f 46 e0 35 3f 9b a0 86 3f
       0.7788734 1.0257475 0.7104534 1.0517763
000040 4b 08 e3 3f ad ea 91 3f 72 0b 87 3f 62 98 75 3f
       1.7736906 1.1399742 1.0550368 0.9593564
000050 f4 0b 25 3f f6 48 24 3f 9b 2e 36 3f c3 f9 38 3f
       0.64471364 0.6417383 0.71164864 0.72256106
000060 e5 e0 20 3f 9b d5 9a 3f b9 a3 28 3f a6 67 20 3f
       0.6284316 1.2096437 0.6587482 0.62658155
000070 a9 5a 52 3f 8a c1 78 3f 42 04 4d 3f 1e 92 39 3f
       0.82169586 0.9717032 0.8008462 0.7248858
000080 60 99 98 3f f6 48 24 3f 2f 9e 20 3f 5c c8 6f 3f
       1.1921806 0.6417383 0.6274137 0.936651
000090 67 63 9d 3f 54 a2 79 3f df a7 2b 3f 61 08 7b 3f
       1.229596 0.9751332 0.67053026 0.9805966
0000a0 f7 9b 20 3f 45 ba 51 3f fb 94 79 3f 23 a6 85 3f
       0.62737983 0.8192485 0.9749295 1.0441326
0000b0 3d 56 35 3f d8 ea 42 3f 8b b2 e3 3f cd ad 7f 3f
       0.70834714 0.76139593 1.7788862 0.99874574
0000c0 f6 48 24 3f 8e 7d 82 3f fd 59 2c 3f 91 7d 35 3f
       0.6417383 1.0194566 0.6732481 0.70894724
0000d0 1b 3c 5c 3f 81 ea 20 3f a7 c7 77 3f 0d 5b 21 3f
       0.86029214 0.62857825 0.9678902 0.6302956
0000e0 84 62 76 3f f9 48 24 3f 80 b6 53 3e ad aa 25 3f
       0.9624407 0.6417385 0.20675087 0.64713556
0000f0 c9 dc 88 3f ed 30 8e 3f 47 6d 2b 3f 9e 70 2b 3f
       1.0692378 1.1108681 0.6696362 0.66968715

conv2.nn.2.bias f4 [64]
000000 73 6e 19 3e bd 9f 9c 3e ab 80 f5 3e 3d 68 21 3f
       0.1498354 0.3059062 0.47949728 0.6304968
000010 87 7d b7 3d 55 af 52 3d f5 a3 2c 3e a5 4c f9 bc
       0.08959489 0.05143674 0.1685942 -0.030432055
000020 04 1a 3e 3f f5 b0 86 be 00 df 88 3d c0 e8 63 3e
       0.74258447 -0.26306883 0.06683159 0.22256756
000030 e6 13 ec 3b 15 da a8 3e 82 4f 47 3d e5 3d 15 3f
       0.0072045205 0.32978883 0.04865981 0.5829757
000040 d9 5b c8 3e 95 8c 17 3f 5c a3 1b 3f 77 ac c4 3d
       0.39132574 0.59198886 0.6079614 0.096032076
000050 03 80 72 bd a9 3c d6 3e 68 d9 c9 3b ef 26 1c 3d
       -0.059204113 0.41843155 0.00615995 0.038123067
000060 e9 76 84 bc 07 05 14 3f 67 ff 80 3e c9 b0 36 bc
       -0.016169982 0.5782017 0.25194857 -0.011150547
000070 b8 44 20 3d c5 75 31 3f b7 89 04 3f 0f 97 be bc
       0.039128035 0.6932033 0.51772636 -0.02326539
000080 e2 23 53 3f 5d 63 8e be d5 69 99 be a2 a5 28 3e
       0.8247663 -0.27810183 -0.29963556 0.16469434
000090 6f 62 da 3e a8 fc 78 3e 52 d0 19 3e ff df 47 3f
       0.42653224 0.2431513 0.15020874 0.78076166
0000a0 b5 1a d8 3e b3 32 72 3d 99 bf 8e 3e 07 91 44 3d
       0.42207876 0.05913038 0.27880552 0.04798987
0000b0 5d 4c 50 3e ed bd 38 bd c7 73 e3 3d d7 3c 5c 3f
       0.2034163 -0.045103002 0.11106067 0.86030334
0000c0 2f 01 89 3d 74 ee 35 3f fc 3b ba 3e 12 c1 ef 3e
       0.06689679 0.71066976 0.3637389 0.46826988
0000d0 71 2a 07 3e 60 76 92 3e 58 18 a5 3e 26 48 9a 3e
       0.13199784 0.28605938 0.32245135 0.3013317
0000e0 f2 ce 88 3e b4 1f a4 3e 0b 7a bb 3d 0a 27 29 3d
       0.26720387 0.32055438 0.09154137 0.041296996
0000f0 0a 86 1a 3f 73 2f d4 3e 46 dd 3a 3d 7c 84 05 3d
       0.6036078 0.4144245 0.04562118 0.03259705

conv2.nn.2.running_mean f4 [64]
000000 00 5e 6d 2e 04 00 00 00 62 7b ad 44 0e a7 7f 44
       5.397105e-11 6e-45 1387.8557 1022.6102
000010 04 00 00 00 97 df 90 42 03 69 0c 15 b8 72 d9 44
       6e-45 72.4367 2.8355614e-26 1739.585
000020 34 6c b2 44 04 00 00 00 04 00 00 00 04 00 00 00
       1427.3813 6e-45 6e-45 6e-45
000030 04 00 00 00 af 4d 9d 43 5c be 41 3f 1a cd a1 44
       6e-45 314.6069 0.7568109 1294.4094
000040 11 b4 92 42 78 e7 cd 44 a0 c3 a2 44 04 00 00 00
       73.35169 1647.2334 1302.1133 6e-45
000050 04 00 00 00 04 00 00 00 6a d7 33 1c 51 fe 58 3f
       6e-45 6e-45 5.950455e-22 0.84763056
000060 04 00 00 00 64 be a2 43 04 00 00 00 04 00 00 00
       6e-45 325.48743 6e-45 6e-45
000070 7c 8f 0a 3e 0b 1e b1 44 bb 87 b6 44 54 e7 9b 3f
       0.13531297 1416.9388 1460.2416 1.2179971
000080 bb 75 fd 43 04 00 00 00 04 00 00 00 3b 13 97 43
       506.91977 6e-45 6e-45 302.15024
000090 c7 f5 bd 44 07 d1 33 42 04 00 00 00 24 19 98 44
       1519.6805 44.95413 6e-45 1216.7856
0000a0 04 00 00 00 5e db 18 40 b0 df 69 43 39 4b c2 43
       6e-45 2.388389 233.87378 388.58768
0000b0 2b f5 a0 43 04 00 00 00 19 35 03 41 e1 43 b3 44
       321.91537 6e-45 8.200463 1434.1212
0000c0 04 00 00 00 9c dc bf 44 04 00 00 00 04 00 00 00
       6e-45 1534.894 6e-45 6e-45
0000d0 e8 ec f5 43 04 00 00 00 1a 79 c2 44 04 00 00 00
       491.85083 6e-45 1555.7844 6e-45
0000e0 9d 96 ec 43 04 00 00 00 96 a6 92 43 04 00 00 00
       473.17667 6e-45 293.30145 6e-45
0000f0 96 39 30 44 64 5b b1 44 8b 87 85 3f 60 7e 12 3e
       704.8998 1418.856 1.043199 0.1430602

conv2.nn.2.running_var f4 [64]
000000 7f b3 37 2f 04 00 00 00 a8 fe 57 48 2a 4a fc 48
       1.6707523e-10 6e-45 221178.62 516689.3
000010 04 00 00 00 bd fd 2a 47 f2 1f ed 16 d7 87 a7 48
       6e-45 43773.74 3.8309575e-25 343102.72
000020 2f 29 6c 48 04 00 00 00 04 00 00 00 04 00 00 00
       241828.73 6e-45 6e-45 6e-45
000030 04 00 00 00 fc 83 20 48 4c d6 74 43 73 5a 11 49
       6e-45 164367.94 244.8371 595367.2
000040 50 33 e8 46 18 d1 98 48 a2 cb 03 49 04 00 00 00
       29721.656 312968.75 539834.1 6e-45
000050 04 00 00 00 04 00 00 00 a6 e1 13 1f df 12 9e 43
       6e-45 6e-45 3.1315113e-20 316.14743
000060 04 00 00 00 a2 f3 58 48 04 00 00 00 04 00 00 00
       6e-45 222158.53 6e-45 6e-45
000070 d9 4f 6c 41 fe 44 1e 49 f9 1d 96 48 b4 ba 1f 44
       14.769494 648271.9 307439.78 638.91724
000080 ff 25 05 48 04 00 00 00 04 00 00 00 34 d1 31 48
       136343.98 6e-45 6e-45 182084.81
000090 ef 4c 87 48 96 8b a3 46 04 00 00 00 11 4e 08 49
       277095.47 20933.793 6e-45 558305.06
0000a0 04 00 00 00 ae aa 1d 45 83 f8 0b 48 5d 2e 81 48
       6e-45 2522.6675 143330.05 264562.9
0000b0 39 eb 8b 47 04 00 00 00 55 bc e7 44 2f 39 80 48
       71638.445 6e-45 1853.8854 262601.47
0000c0 04 00 00 00 65 68 9b 48 04 00 00 00 04 00 00 00
       6e-45 318275.16 6e-45 6e-45
0000d0 ea 45 df 47 04 00 00 00 0c 9e a2 48 04 00 00 00
       114315.83 6e-45 333040.38 6e-45
0000e0 01 69 1d 48 04 00 00 00 bf cd 22 47 04 00 00 00
       161188.02 6e-45 41677.746 6e-45
0000f0 cf c1 e9 48 79 ce 8d 48 8c 3b eb 43 ab ef 7b 41
       478734.47 290419.78 470.4652 15.746013

conv2.nn.4.weight f4 [64, 64]
000000 7a 64 5e bf bd be a6 3e 49 09 0d bf 41 08 8e 3e
       -0.86872065 0.32567397 -0.55092293 0.27740672
000010 d0 0e ff 3d cc 31 84 bf d6 8f 30 bf eb f9 bf be
       0.12453997 -1.0327697 -0.68969476 -0.3749536
000020 3f 54 3f be 55 7b be be 01 20 e4 3d 82 64 66 3e
       -0.18684481 -0.3720347 0.11138917 0.22499278
000030 49 cb 1e 3d d6 41 c4 be a5 7a a1 3c 4b d2 1a 3e
       0.038768087 -0.3833148 0.019711802 0.15119283
000040 44 9a 8e 3e f2 a8 87 be af 2b d8 3d 08 ca 2c 3e
       0.2785207 -0.26496083 0.10555207 0.16873944
000050 8e f2 a2 bd 74 44 c2 3e 3c 93 27 bd 89 e0 af 3d
       -0.0795642 0.3794285 -0.040911898 0.085877486
000060 88 89 30 be 6d d8 f6 3e 87 ca 83 3e c2 15 d8 bd
       -0.17239964 0.48211995 0.25740454 -0.10551025
000070 e8 af c5 3c 27 97 2c 3e ea d0 b3 be 19 fb 24 be
       0.02413173 0.16854535 -0.35120326 -0.16111411
000080 0b b2 fe 3e fb 1e 5e be ad 9d 27 be fe 15 82 bf
       0.4974521 -0.21691506 -0.16368742 -1.0162961
000090 35 92 d5 be d6 2b 72 bf 0d 24 7e 3e 8b 76 08 3f
       -0.4171311 -0.9459814 0.2481844 0.5330588
0000a0 f7 46 93 3e 63 06 bb be c8 cb 81 bf af 22 74 bf
       0.2876508 -0.3652831 -1.0140314 -0.9536542
0000b0 03 01 ed be a6 6a 14 bd 38 cb 13 3f 55 e4 bb 3d
       -0.46289834 -0.03623452 0.5773196 0.0917441
0000c0 fa 72 04 3e 3c 03 89 3d e8 06 99 3e a4 f3 bc 3e
       0.12934485 0.0669007 0.29888082 0.36904633
0000d0 b4 b1 1a bf df 06 75 3c 29 75 bd be 8d 28 3b 3e
       -0.60427403 0.0149552515 -0.3700345 0.18277188
0000e0 12 fe 19 bf 1b 8e 27 3e d5 4f 62 bd 31 f4 99 3d
       -0.60153306 0.16362803 -0.055251915 0.07517279
0000f0 ee 29 71 3e e3 a4 b2 be fb 0d 0b 3d 61 64 05 bd
       0.23551151 -0.34891424 0.03394888 -0.032566432
000100 dd 6f c7 3d 3f 95 bf 3e 37 14 a9 be 73 a1 e3 be
       0.09738133 0.37418553 -0.33023235 -0.44459113
000110 28 f1 39 3e a2 b6 6d be e6 52 8a be e7 ed 0e bf
       0.181584 -0.232142 -0.2701637 -0.5583176
000120 a5 8d a2 be 38 b8 c2 be 80 0c 87 3e 5f 55 ea 3d
       -0.3174869 -0.38031173 0.26376724 0.114420645
000130 53 62 b8 3c bb 53 bf 3d 42 9e 6f 3c 22 95 d9 be
       0.022507822 0.09342142 0.014625134 -0.42496592
000140 57 9f 69 bf 9b 6a bc be 12 ef e2 be 37 c1 f2 bc
       -0.9125876 -0.36800084 -0.4432302 -0.029633148
000150 36 2d a8 be b3 f9 e1 3e c2 d1 3e 3e 9b 22 f8 3d
       -0.32846993 0.44135818 0.18634704 0.121159755
000160 c2 dd a9 3d 56 41 fc be b7 d9 7d 3e 78 7c 37 3e
       0.0829425 -0.49268597 0.24790083 0.17918575
000170 f0 d6 c2 3c 17 55 c0 be f7 a5 76 be 01 9a 1e be
       0.02378413 -0.37564918 -0.24086748 -0.15488435
000180 3b e7 32 bf 37 90 01 bf d0 00 00 bf a7 5a 87 bd
       -0.6988408 -0.5061068 -0.5000124 -0.066090874
000190 7d 45 ec be 91 7b 37 bc 64 51 11 3e 34 f5 bb be
       -0.46146765 -0.011198894 0.14191204 -0.36710513
0001a0 ab 0d a2 3d 57 8b 70 3e b4 bf 6e 3c 51 aa 1e be
       0.07912763 0.23490654 0.014572073 -0.15494658
0001b0 6d d1 64 be 50 3e 8b be c6 b5 64 bf 04 d8 e4 be
       -0.22345515 -0.27195978 -0.89339864 -0.44696057
0001c0 b4 54 a5 3e 14 cf fb be bf 93 bb 3e 1c 09 0e 3f
       0.32291186 -0.49181426 0.3663616 0.5548265
0001d0 10 7f ee 3d d6 74 ea 3e 7e 5d c6 be af d1 73 3e
       0.11645329 0.45792264 -0.38743204 0.23810457
0001e0 0b 12 4f be 32 33 d3 3e a2 d1 51 bd ff cb a1 3e
       -0.20221727 0.41249996 -0.051225312 0.3160095
0001f0 de 07 e2 be 1b b9 b8 be 1c a7 71 3d 22 41 4e 3d
       -0.44146627 -0.36078724 0.05899726 0.050355084
000200 f9 51 47 be 44 a9 70 be b1 ac f3 be c9 95 14 bf
       -0.19464864 -0.2350207 -0.4759269 -0.58041054
000210 59 22 09 be 2e 8e 45 3d 01 e3 aa be e9 39 07 bf
       -0.13392009 0.048231296 -0.33376315 -0.5282274
000220 97 a3 ec be aa b8 1d 3e 0b 6b ca bc da bb 94 be
       -0.4621856 0.15402475 -0.024709245 -0.2904957
000230 95 26 20 3d be 61 c5 bd d4 f3 8e 3d e5 a4 fc be
       0.039099295 -0.096377835 0.069801 -0.49344555
000240 bb ef 3a bf 6f 30 1f bf 4b 91 0f bf a6 1b 91 be
       -0.7302205 -0.6218328 -0.56081074 -0.28341407
000250 86 6d 8a 3e 23 6d 39 be ff 9f 23 be 36 ba 85 bd
       0.27036685 -0.18108039 -0.15979002 -0.065296575
000260 a5 19 dd 3c a1 c6 fd be db 4d 2d be ad 2e 1f bc
       0.026989767 -0.49565604 -0.16924231 -0.009715718
000270 67 d0 8a bc 55 c9 11 bf 8b 72 01 bf 65 9e 92 3d
       -0.016945077 -0.56947833 -0.50565404 0.071591176
000280 23 41 63 bf 14 ff 6b 3e 5a 7f 01 3e 32 12 48 3e
       -0.88771266 0.23046523 0.12646237 0.19538191
000290 e5 03 03 bf 8b 87 cb 3d c4 2d bf be 49 b6 5d bf
       -0.5117782 0.09937962 -0.37339604 -0.8660627
0002a0 35 7b 19 bf 30 b0 f5 3d 33 56 b8 3d 3b b0 75 3e
       -0.59953624 0.11996496 0.09000816 0.23993008
0002b0 64 eb cc be 1a 69 9e 3d b7 52 7f bf ae 8d 49 bf
       -0.4002334 0.0773489 -0.9973559 -0.7873181
0002c0 44 f5 c4 be 36 59 48 bf 7d 19 87 be 67 34 a2 bd
       -0.38468373 -0.78261125 -0.26386634 -0.07920151
0002d0 80 a9 5a bd 5b 9c e1 bd 17 d5 1c bf 1f 77 a5 be
       -0.053384304 -0.110161506 -0.6126265 -0.32317445
0002e0 c6 89 b9 be 54 5a 0e be fa 94 3a be 83 ff 63 be
       -0.36237925 -0.13901645 -0.18220893 -0.22265439
0002f0 13 45 f5 be 13 b6 2e bf 21 da 85 bd 81 ba 9c bd
       -0.47904262 -0.68246573 -0.065357454 -0.0765276
000300 ec 59 62 bd 2b ca f4 3e 3e 15 a6 be a2 5c f1 be
       -0.055261537 0.47810492 -0.32438082 -0.47140986
000310 1b 73 32 3e b3 3e 44 be 58 88 a4 be b0 5c 03 bf
       0.17426722 -0.19164543 -0.32135272 -0.51313305
000320 a2 5a 83 be 80 35 e4 be 14 2e 50 3e c3 10 b5 3e
       -0.25655085 -0.44572067 0.20330077 0.3536435
000330 3a 6f c2 3d 6c a2 d9 3c 11 d3 af 3d 05 94 e3 be
       0.09493871 0.026566707 0.085851796 -0.44448867
000340 fb 1d 96 bf e9 49 ca be 22 2a ca be 9e d9 e6 bd
       -1.1727899 -0.39509514 -0.3948527 -0.11271976
000350 fe c4 d2 be 8c a6 d2 3e b6 9c 7c 3e 7f 3a 9c 3d
       -0.41165918 0.4114269 0.24669155 0.07628345
000360 5f de 46 3d e7 4e fd be e8 63 bb 3e 5b 39 ff 3c
       0.048551913 -0.4947426 0.3659966 0.031155279
000370 00 10 0e 3e b3 93 d8 be 26 4a 86 be 87 bf ab be
       0.13873291 -0.42300186 -0.26228446 -0.3354456
000380 36 5e 5e bf b8 14 01 bf bf 82 13 bf a9 a9 46 be
       -0.86862504 -0.5042224 -0.5762138 -0.19400658
000390 13 0d ac be 91 9f e7 bc 54 73 99 3e 27 e9 be be
       -0.33603725 -0.02827433 0.299708 -0.37287256
0003a0 ac 32 ab 3e c1 c9 1f 3d 56 0e 21 be d7 b0 b7 bd
       0.33437097 0.039010767 -0.15728125 -0.089692764
0003b0 06 74 76 be a3 1e a4 be c8 db 84 bf 87 81 77 be
       -0.24067697 -0.32054624 -1.0379572 -0.24170505
0003c0 73 87 b8 3e 6e b7 be be 1b 1b 01 3f e3 b3 2b 3f
       0.3604084 -0.3724932 0.50431985 0.6707136
0003d0 9a bf fc bd 23 10 1c 3f 40 87 e6 be 35 bd 00 3f
       -0.123412326 0.6096212 -0.45025063 0.50288707
0003e0 3f d3 a1 be c2 b3 13 3f b0 ca d0 3d bd 0b 05 3f
       -0.3160648 0.57696164 0.101949096 0.51971036
0003f0 26 f1 ff be 1a e5 c9 be c2 c6 11 3b f1 16 27 3e
       -0.4998867 -0.39432603 0.0022243713 0.16317345

conv2.nn.4.bias f4 [64]
000000 8f 20 ae 3e 15 44 a0 3e 96 78 2e be 7d 74 e5 3e
       0.34009215 0.31301942 -0.17038187 0.44815436
000010 29 2d 8d be c8 97 84 3e 6b 88 b7 bf de 1c 48 3e
       -0.27573517 0.2589705 -1.4338506 0.19542262
000020 bb 6f ef bd 9f 6a 8c 3e ab 4c c7 3e d4 3e 6d bd
       -0.11691233 0.27425095 0.3892568 -0.057921246
000030 35 a4 5a 3e d6 b9 12 3f f3 fb b6 bd e9 6c d0 3e
       0.21351703 0.57314813 -0.08934774 0.40708092
000040 d9 90 76 be 30 6e 2c 3f 4d 65 ee 3e 7d 87 07 3f
       -0.24078692 0.6735563 0.4656166 0.52941114
000050 28 bf 13 be c3 38 cd 3e ce ff e5 3e 34 3c a6 3e
       -0.14428389 0.40082368 0.44921726 0.32467806
000060 51 78 e9 3e 0c e0 b6 be 17 cd fe 3e 62 68 52 3d
       0.45599607 -0.3571781 0.49765846 0.05136908
000070 fb 04 d4 3e a1 86 8c bf 43 e0 cd 3e d9 9a 3d be
       0.4141005 -1.0978585 0.4021016 -0.18516101
000080 5f 3b 98 3e b0 cf df 3e db da 51 be 33 21 f0 bc
       0.29732797 0.4371314 -0.20493643 -0.029312706
000090 e7 d7 84 be ec c5 70 3e e6 2e d1 3e 0d 91 27 3e
       -0.2594597 0.23513001 0.40856093 0.16363926
0000a0 2d 28 91 3e ac c8 af 3e d8 39 39 be 51 85 a7 3e
       0.28350964 0.34332788 -0.18088472 0.327189
0000b0 c1 97 80 be ff cb 92 be 47 49 e5 3e be a6 a0 3e
       -0.2511578 -0.28671262 0.4478247 0.31377214
0000c0 bf e7 de 3e 89 6e cc 3e ab 5b e8 3e da 4d c8 3e
       0.43536183 0.39928082 0.45382437 0.39121896
0000d0 cc 83 34 be d0 12 08 3f 91 ee d8 3e c4 7a d8 3e
       -0.17628402 0.53153706 0.42369512 0.42281163
0000e0 18 9b 04 be fa e7 18 be a8 7b d4 3e 37 1b bd 3e
       -0.12949789 -0.14932242 0.41500592 0.36934826
0000f0 25 8f 14 3f 2d 9c 0f be ac 3c 96 bd 26 ea 70 3e
       0.5803092 -0.1402442 -0.07335791 0.2352682
