models/0_2023_2023/Postal_GIN/40.pth (torch, 134066 bytes, 21 tensors)

conv1.nn.0.weight f4 [64, 12]
0.0044456776 -0.0059850826 -0.008153088 -0.00413303 -0.021106524 -0.0072309477 -0.0051394324 -0.01317019
0.014939889 -0.0110715665 -0.006632244 -0.0022765477 -0.013790121 -0.00013450057 -0.00819757 -0.014249383
0.0004175629 0.015070754 0.0041920445 0.014040864 -0.00016647702 -0.0059419014 0.013720279 -0.009065333
-0.13097425 -0.07731171 -0.07648499 -0.010176108 -0.2546848 -0.0060396716 -0.13638973 0.22340852
0.10800019 -0.013851436 0.004172193 -0.0044779433 -0.15355445 -0.005987901 -0.027969474 -0.012950758
-0.3613974 0.008152194 -0.080500275 0.31712344 0.17122427 -0.011802394 -0.008382852 0.015436723
-0.017666807 -0.012195846 0.0056478246 -0.0030613614 0.006453149 -0.021279534 0.00052268826 -0.00046548134
-0.008244463 -0.0056336867 -0.02113715 0.012501186 -0.037231434 -0.02688666 0.0038954574 -0.0079042055
-0.05506812 -0.0044599227 -0.05585585 0.01513675 0.061378498 0.053436592 -0.015169438 0.04943248
-0.007538934 -0.021573316 -0.006521357 -0.0044712657 -0.012615981 -0.028170064 -0.018911019 -0.0001790357
-0.009717684 0.00086014107 -0.017391598 -0.002337265 -0.043084197 -0.05987997 -0.047264174 -0.0051374547
-0.046333164 -0.0032924889 -0.0536668 -0.027448408 -0.042040467 -0.016596872 -0.014606019 -0.010895166
-0.08202358 -0.030989219 -0.031953152 -0.040622294 -0.07801307 -0.02207472 -0.029004507 0.13031691
0.06431714 -0.045014508 -0.0354478 -0.027548816 -0.0026310207 -0.013071223 0.0056218025 -0.0043395665
-0.008194682 0.010752483 -0.00057781657 -0.0097310785 -0.010186424 0.016032118 0.01107293 -0.012206912
-0.08622665 -0.036934733 -0.029226627 -0.014580064 -0.06960244 0.0056720935 -0.05932247 0.092728026
0.04699987 -0.016342837 0.0092014335 0.015541932 -0.0051397546 -0.015213171 0.004980856 -0.0119352015
-0.011122613 0.004640392 -0.0016166056 -0.0011579515 0.01526928 -0.0029859706 0.0103624305 -0.005298127
-0.071911484 -0.011253023 -0.0019974215 -0.01383064 -0.10637162 -0.050566584 -0.1492357 0.013344243
0.14167641 0.07441502 -0.03953427 0.11794676 -0.5138432 -0.114745066 -0.14769234 -0.015933301
-0.7059421 0.010854931 -0.2661396 0.7943179 1.0580288 -0.0044096773 -0.0069762864 0.006748212
-0.030639863 -0.009365924 -0.0066063344 -0.010589476 -0.07188617 -0.041851133 -0.07038263 -0.0032661215
0.06575764 0.016888522 -0.010728728 0.046239592 -0.09818152 -0.02212652 -0.037368763 -0.0132509135
-0.13687691 -0.0065738135 -0.11375089 0.15834798 0.10068808 0.008043938 0.0132555105 0.001673104
-0.025926968 -0.025587523 -0.008350348 -0.0065080803 -0.037179958 -0.00022251216 -0.07458392 0.007291854
0.03945524 0.0077788583 -0.019283094 0.022047779 -0.02902192 -0.013065741 -0.032225654 -0.008118996
-0.05476407 -0.0018601785 -0.038684703 0.005185522 0.041234083 0.027348708 -0.00064901105 0.035444528
0.004207396 -0.0028120077 -0.0002977145 -0.005135435 -0.006737156 0.009847772 0.007305285 -0.0075148433
-0.015002897 0.008323794 -0.015659474 -0.00075331423 -0.15928674 -0.00661279 -0.012309227 -0.013990659
-0.24972537 -0.0100651365 -0.12311257 0.22358634 0.1682212 -0.0043151183 0.0031226852 -0.008052229
-0.118720844 -0.00828449 0.0017565865 -0.004001022 -0.14855424 -0.07858804 -0.15069082 0.018915996
0.19474068 0.16362457 -0.079732485 0.17535733 0.014724754 -0.00952601 -0.009681676 -0.008496533
00000000: 0cad 913b 831e c4bb 8894 05bc 5e6e 87bb
00000010: 97e7 acbc 96f1 ecbb af68 a8bb c8c7 57bc
00000020: 70c6 743c 8465 35bc 4c53 d9bb 2232 15bb
00000030: f6ef 61bc b908 0db9 1a4f 06bc 3e76 69bc
00000040: 58ec da39 53eb 763c 6b5d 893b a70b 663c
00000050: 5690 2eb9 48b4 c2bb 05cb 603c c386 14bc
00000060: 1d1e 06be 9a55 9ebd 2aa4 9cbd b1b9 26bc
00000070: 0c66 82be 70e8 c5bb c0a9 0bbe 34c5 643e
00000080: 342f dd3d 22f1 62bc e4b6 883b b6bb 92bb
00000090: 613d 1dbe 2736 c4bb 3d20 e5bc 6b2f 54bc
000000a0: 1409 b9be c890 053c 54dd a4bd 015e a23e
000000b0: 6a55 2f3e d45e 41bc 3b58 09bc 4fea 7c3c
000000c0: fbb9 90bc 16d1 47bc 6311 b93b 1fa1 48bb
000000d0: f074 d33b 6b52 aebc 0405 093a d90b f4b9
000000e0: c913 07bc ca9a b8bb d127 adbc c6d1 4c3c
000000f0: fd7f 18bd 6a41 dcbc ee4a 7f3b a480 01bc
00000100: 1c8f 61bd 8b24 92bb 1bc9 64bd 2200 783c
00000110: 0568 7b3d 54e0 5a3d 3c89 78bc b679 4a3d
00000120: 2909 f7bb 86ba b0bc 1cb1 d5bb b283 92bb
00000130: 42b3 4ebc e8c4 e6bc 48eb 9abc 88bb 3bb9
00000140: ec36 1fbc 177b 613a d378 8ebc cd2c 19bb
00000150: 0e79 30bd b344 75bd 1498 41bd 1858 a8bb
00000160: d8c7 3dbd ccc6 57bb b8d1 5bbd 7cdb e0bc
00000170: a032 2cbd 2af6 87bc 154e 6fbc a381 32bc
00000180: fbfb a7bd 1add fdbc 4fe1 02bd 9063 26bd
00000190: 51c5 9fbd 0bd6 b4bc dc9a edbc cc71 053e
000001a0: b4b8 833d 2261 38bd b631 11bd 0eae e1bc
000001b0: 346d 2cbb af28 56bc 1937 b83b ec32 8ebb
000001c0: fd42 06bc 2f2b 303c 9d78 17ba 1a6f 1fbc
000001d0: f5e4 26bc ca55 833c 3c6b 353c 80ff 47bc
000001e0: 9997 b0bd e048 17bd ae6c efbc 39e1 6ebc
000001f0: b98b 8ebd f8dc b93b 1efc 72bd 31e8 bd3d
00000200: f082 403d 6ae1 85bc 9cc1 163c 96a3 7e3c
00000210: 636b a8bb aa40 79bc 7336 a33b dd8b 43bc
00000220: 9f3b 36bc 6e0e 983b 48e4 d3ba 68c6 97ba
00000230: 012c 7a3c 46b0 43bb 2fc7 293c e99b adbb
00000240: 5446 93bd 995e 38bc 2ce7 02bb e999 62bc
00000250: 5dd9 d9bd e81e 4fbd 3ed1 18be d0a1 5a3c
00000260: 9f13 113e e766 983d b0ee 21bd 128e f13d
00000270: 3a8b 03bf 76ff eabd a93c 17be 8e86 82bc
00000280: 9fb8 34bf e1d8 313c 7343 88be 6b58 4b3f
00000290: 7d6d 873f 0e7f 90bb 5599 e4bb 1b20 dd3b
000002a0: 7300 fbbc 8873 19bc f379 d8bb 7b7f 2dbc
000002b0: 0e39 93bd 186c 2bbd c524 90bd 6d0c 56bb
000002c0: f1ab 863d cc59 8a3c 8cc7 2fbc ba65 3d3d
000002d0: 6513 c9bd ad42 b5bc fd0f 19bd 5c1a 59bc
000002e0: 7629 0cbe 2569 d7bb 3af6 e8bd f925 223e
000002f0: 8d35 ce3d b9ca 033c a42d 593c 0e4c db3a
00000300: cb64 d4bc ed9c d1bc e6cf 08bc bc41 d5bb
00000310: 034a 18bd 2752 69b9 74bf 98bd 81f0 ee3b
00000320: d19b 213d cbe5 fe3b 94f7 9dbc 8b9d b43c
00000330: 61bf edbc b111 56bc 0cff 03bd 8a05 05bc
00000340: 4a50 60bd 3cd1 f3ba da73 1ebd 50eb a93b
00000350: 12e5 283d 660a e03c 6522 2aba 482e 113d
00000360: 32de 893b a949 38bb 9016 9cb9 2747 a8bb
00000370: 5cc3 dcbb 8d58 213c 2c61 ef3b 133f f6bb
00000380: b6ce 75bc 8660 083c 4c48 80bc 107a 45ba
00000390: 101c 23be 1ab0 d8bb a4ac 49bc 1439 65bc
000003a0: 02b8 7fbe 3ee8 24bc 7122 fcbd d1f3 643e
000003b0: 2e42 2c3e d665 8dbb f7a5 4c3b 7fed 03bc
000003c0: ea23 f3bd abbb 07bc 433d e63a 011b 83bb
000003d0: 9a1e 18be c4f2 a0bd b24e 1abe b8f5 9a3c
000003e0: 1a6a 473e 338d 273e c94a a3bd df90 333e
000003f0: 1840 713c fb12 1cbc e49f 1ebc 0b35 0bbc

conv1.nn.0.bias f4 [64]
-0.021907678 0.00926002 -0.21072444 -0.26846418 0.007019344 -0.00803445 0.008548045 -0.06326238
-0.084173925 0.0011043296 -0.09334835 0.008714042 -0.013897209 -0.7204079 -0.010062808 -0.15275696
-0.022682799 -0.039915774 0.0047666007 -0.20105216 -0.01679402 -0.011521406 -0.0020681378 -0.026362173
-0.28909788 -0.35622492 -0.26435387 -0.05240293 -0.015393879 -0.012051568 -0.00031973436 -0.00020668168
-0.16339163 -0.0079547465 -0.010631759 -0.2860189 -0.0012887273 -0.0019882102 0.016116101 -0.010061841
-0.20194158 -0.01066895 0.008732941 -0.033334527 -0.2245579 -0.54813206 -0.022472063 0.14329006
-0.014244905 -0.017636647 -0.32800364 -0.12166957 -0.011229889 0.0008460683 -0.002540169 -0.07301289
-0.0052887797 0.010112548 -0.0730275 -0.007060213 -0.009066647 -0.1318239 -0.090536214 -0.13969007
00000000: bb77 b3bc 57b7 173c 26c8 57be 2374 89be
00000010: 8602 e63b eda2 03bc 190d 0c3c b58f 81bd
00000020: 6163 acbd 27bf 903a 6b2d bfbd 57c5 0e3c
00000030: 1fb1 63bc a76c 38bf 7ade 24bc 526c 1cbe
00000040: 47d1 b9bc b97e 23bd 2531 9c3b 9ee0 4dbe
00000050: 9d93 89bc 47c4 3cbc 9889 07bb 7cf5 d7bc
00000060: a304 94be 1d63 b6be 6459 87be 74a4 56bd
00000070: 9c36 7cbc f173 45bc 05a2 a7b9 b1b8 58b9
00000080: 2350 27be a054 02bc d430 2ebc 1271 92be
00000090: 83ea a8ba a24c 02bb ea05 843c 6cda 24bc
000000a0: c6c9 4ebe d2cc 2ebc 9c14 0f3c c989 08bd
000000b0: 82f2 65be 6252 0cbf 5517 b8bc a1ba 123e
000000c0: 7663 69bc bb7a 90bc 18f0 a7be e52d f9bd
000000d0: 91fd 37bc afca 5d3a f778 26bb c887 95bd
000000e0: 804d adbb 1aaf 253c 718f 95bd 5c59 e7bb
000000f0: 468c 14bc d8fc 06be 0d6b b9bd ea0a 0fbe

conv1.nn.2.weight f4 [64]
0.050007503 0.058971357 0.00021727954 -0.008862285 0.06156527 0.05115233 0.055135526 -0.047219258
0.025551515 0.058971357 0.00533207 0.058971357 0.056335274 0.005092018 0.05499777 0.004591648
0.04329891 0.055310376 0.058971357 -2.0062325e-05 0.06865918 0.058971357 0.045775447 0.0141113
-0.0038705925 -0.011860251 -0.010256035 0.030853087 0.051002957 0.054079 0.04313099 -0.017149737
-0.0077881697 0.04352185 0.054337014 -0.060070384 0.05703447 0.058971357 0.058971357 0.073854454
-0.026425071 0.057033166 0.0466225 0.05579812 0.0009434577 -0.06356846 0.07810549 1.2650545
0.040518247 0.09699474 0.005807641 -0.00023471749 0.05435148 0.04842627 0.058971357 -0.011002151
0.058971357 0.04844148 -0.0030272913 0.053672034 -9.039963e-05 0.0042116153 0.005164568 -0.000678292
00000000: abd4 4c3d f38b 713d 88d5 6339 1e33 11bc
00000010: dd2b 7c3d 1b85 513d cad5 613d fb68 41bd
00000020: 6951 d13c f38b 713d a5b8 ae3b f38b 713d
00000030: d1bf 663d f1da a63b 5745 613d 8975 963b
00000040: 335a 313d 228d 623d f38b 713d 844b a8b7
00000050: 2f9d 8c3d f38b 713d 097f 3b3d 1533 673c
00000060: c4a9 7dbb 8051 42bc ee08 28bc 9dbf fc3c
00000070: 7ae8 503d f181 5d3d 1faa 303d 9b7d 8cbc
00000080: e733 ffbb f843 323d 7d90 5e3d 5d0c 76bd
00000090: fa9c 693d f38b 713d f38b 713d 0141 973d
000000a0: 6479 d8bc 9c9b 693d 3cf7 3e3d 928c 643d
000000b0: 6052 773a 2e30 82bd c5f5 9f3d 4eed a13f
000000c0: 76f6 253d 2ea5 c63d 064e be3b 7f1e 76b9
000000d0: a89f 5e3d a05a 463d f38b 713d 5e42 34bc
000000e0: f38b 713d 936a 463d 8565 46bb 35d7 5b3d
000000f0: ef94 bdb8 9701 8a3b 893b a93b 68cf 31ba

conv1.nn.2.bias f4 [64]
-0.04245029 0.0028340812 0.010096437 -0.012149718 -0.003135474 0.0076374295 5.234746e-05 0.007973251
-0.000790159 -0.013642195 0.006286604 0.008554479 0.0331729 -0.0064262613 0.021707226 0.0037843802
-0.0035117678 0.0048808334 -0.0058091306 -0.033649243 -0.04115267 -0.011467207 -0.010880842 -0.014926097
-0.004734695 -0.078758344 0.012789662 -0.006933814 0.0034318168 -0.0010242995 0.010593615 -0.0015231362
-0.007498918 -0.008863617 0.0011091362 0.0007229234 0.0072901184 -0.0049923067 0.013098287 -0.015929611
-0.01627138 -0.0024911393 0.0036945294 -0.010105354 0.03461454 0.020837229 -0.0027327775 -0.28787777
0.01587628 0.009107423 -0.049430516 -0.02635222 0.005843678 0.0021677942 0.00291584 -0.0032625094
0.0032981478 -0.0013534403 0.009642901 -0.0053519886 -0.012176574 -0.0020157597 -0.011838971 -0.0032745083
00000000: 5be0 2dbd febb 393b 876b 253c 9c0f 47bc
00000010: 867c 4dbb 6743 fa3b a88f 5b38 3da2 023c
00000020: ac22 4fba 8383 5fbc dbff cd3b 1628 0c3c
00000030: 4fe0 073d 6393 d2bb 5ad3 b13c 5d03 783b
00000040: b025 66bb 66ef 9f3b 855a bebb cad3 09bd
00000050: b48f 28bd f4e0 3bbc 8f45 32bc 978c 74bc
00000060: 8025 9bbb 0e4c a1bd bb8b 513c 0c35 e3bb
00000070: 55e8 603b ca41 86ba d790 2d3c f8a3 c7ba
00000080: 7cb9 f5bb b438 11bc 6f60 913a 9182 3d3a
00000090: f2e1 ee3b 8196 a3bb 339a 563c d17e 82bc
000000a0: 8f4b 85bc 6242 23bb eb1f 723b ed90 25bc
000000b0: fac7 0d3d d6b2 aa3c 6618 33bb b764 93be
000000c0: f90e 823c 4d37 153c a777 4abd 9ce0 d7bc
000000d0: 537c bf3b 8d11 0e3b ad17 3f3b d3cf 55bb
000000e0: bd25 583b ec65 b1ba 42fd 1d3c bc5f afbb
000000f0: 4180 47bc d61a 04bb 3ef8 41bc 2299 56bb

conv1.nn.2.running_mean f4 [64]
6e-45 0.0 6e-45 6e-45 6e-45 6e-45 6e-45 6e-45
6e-45 0.0 6e-45 0.0 6e-45 6e-45 6e-45 6e-45
6e-45 6e-45 0.0 6e-45 6e-45 0.0 6e-45 6e-45
6e-45 0.18506147 6e-45 6e-45 6e-45 6e-45 6e-45 6e-45
6e-45 6e-45 6e-45 6e-45 6e-45 0.0 0.0 6e-45
6e-45 6e-45 6e-45 6e-45 6e-45 0.0027513043 6e-45 253043.61
6e-45 6e-45 6e-45 6e-45 6e-45 6e-45 0.0 6e-45
0.0 6e-45 6e-45 6e-45 6e-45 6e-45 6e-45 6e-45
00000000: 0400 0000 0000 0000 0400 0000 0400 0000
00000010: 0400 0000 0400 0000 0400 0000 0400 0000
00000020: 0400 0000 0000 0000 0400 0000 0000 0000
00000030: 0400 0000 0400 0000 0400 0000 0400 0000
00000040: 0400 0000 0400 0000 0000 0000 0400 0000
00000050: 0400 0000 0000 0000 0400 0000 0400 0000
00000060: 0400 0000 c180 3d3e 0400 0000 0400 0000
00000070: 0400 0000 0400 0000 0400 0000 0400 0000
00000080: 0400 0000 0400 0000 0400 0000 0400 0000
00000090: 0400 0000 0000 0000 0000 0000 0400 0000
000000a0: 0400 0000 0400 0000 0400 0000 0400 0000
000000b0: 0400 0000 3a4f 343b 0400 0000 e71c 7748
000000c0: 0400 0000 0400 0000 0400 0000 0400 0000
000000d0: 0400 0000 0400 0000 0000 0000 0400 0000
000000e0: 0000 0000 0400 0000 0400 0000 0400 0000
000000f0: 0400 0000 0400 0000 0400 0000 0400 0000

conv1.nn.2.running_var f4 [64]
6e-45 6e-45 6e-45 6e-45 6e-45 6e-45 6e-45 6e-45
6e-45 6e-45 6e-45 6e-45 6e-45 6e-45 6e-45 6e-45
6e-45 6e-45 6e-45 6e-45 6e-45 6e-45 6e-45 6e-45
6e-45 62.175045 6e-45 6e-45 6e-45 6e-45 6e-45 6e-45
6e-45 6e-45 6e-45 6e-45 6e-45 6e-45 6e-45 6e-45
6e-45 6e-45 6e-45 6e-45 6e-45 0.04246697 6e-45 3.1653812e+10
6e-45 6e-45 6e-45 6e-45 6e-45 6e-45 6e-45 6e-45
6e-45 6e-45 6e-45 6e-45 6e-45 6e-45 6e-45 6e-45
00000000: 0400 0000 0400 0000 0400 0000 0400 0000
00000010: 0400 0000 0400 0000 0400 0000 0400 0000
00000020: 0400 0000 0400 0000 0400 0000 0400 0000
00000030: 0400 0000 0400 0000 0400 0000 0400 0000
00000040: 0400 0000 0400 0000 0400 0000 0400 0000
00000050: 0400 0000 0400 0000 0400 0000 0400 0000
00000060: 0400 0000 3fb3 7842 0400 0000 0400 0000
00000070: 0400 0000 0400 0000 0400 0000 0400 0000
00000080: 0400 0000 0400 0000 0400 0000 0400 0000
00000090: 0400 0000 0400 0000 0400 0000 0400 0000
000000a0: 0400 0000 0400 0000 0400 0000 0400 0000
000000b0: 0400 0000 d8f1 2d3d 0400 0000 dbd6 eb50
000000c0: 0400 0000 0400 0000 0400 0000 0400 0000
000000d0: 0400 0000 0400 0000 0400 0000 0400 0000
000000e0: 0400 0000 0400 0000 0400 0000 0400 0000
000000f0: 0400 0000 0400 0000 0400 0000 0400 0000

conv1.nn.4.weight f4 [64, 64]
-0.052291725 0.39096978 0.3336832 0.010160832 -0.021892035 0.061348557 0.25734556 0.1375133
-0.10094381 -0.24947435 0.074677035 -0.3341226 0.0570065 0.26054806 0.0074727926 0.015007288
0.1981563 -0.052639574 0.09969639 0.04654424 0.3097738 0.013212556 0.3512897 0.23673218
0.13901806 -0.06354793 0.15768032 -0.2949197 -0.038412206 0.21809027 -0.23596038 0.061236642
0.05882628 0.39168286 0.14632012 -0.3609294 -0.26741362 -0.23512603 -0.026085537 -0.11357446
-0.08111476 0.3111008 0.19431365 0.058681715 0.5012385 0.1705414 0.11530526 -0.10777514
-0.055680647 -0.32210237 -0.039055385 -0.034444313 0.14636485 -0.37297007 0.03396668 -0.27880877
0.060133833 -0.013849656 -0.080231145 0.13839309 0.14611454 0.04856939 -0.19713624 -0.025819544
0.02549783 0.0620147 -0.053554174 -0.05847257 0.02823556 0.08868331 -0.017609477 0.16859728
-0.020946719 0.060756344 0.07078264 -0.046890922 0.06562735 0.0042719706 0.0008330943 -0.056665413
-0.12887986 0.099182285 -0.14355263 -0.057343706 0.117805384 0.048108973 0.1321274 -0.07792108
-0.028719869 -0.028267466 0.20739433 0.0073564225 -0.044611096 -0.10589789 -0.014723713 0.09397524
-0.031265296 0.017237296 -0.032302875 -0.007014592 0.037930142 0.07323969 -0.08311219 -0.09575278
0.085928254 -0.027980458 -0.070058405 -0.07020564 0.013600078 0.023653585 0.053944234 -0.11081867
0.06476241 0.008197331 0.069422096 0.074139066 -0.06782757 -0.31947795 -0.07543394 0.0016640734
-0.09576722 0.060929697 -0.08256783 -0.06688073 -0.017038178 -0.07984794 0.010391303 -0.07741315
-0.19160667 0.31543964 0.08470764 0.11515067 0.11036041 -0.2813653 0.22118694 0.22280747
-0.11928145 0.21077314 -0.07494647 0.06439672 1.5808853e-05 0.006425321 0.103179775 0.08768253
-0.040706534 -0.07937027 0.05953257 -0.19978859 -0.056171764 0.029287739 0.10446686 -0.2065533
0.3161737 0.15064217 0.091849186 0.15259466 -0.044234786 -0.14924544 -0.106585935 0.08592501
0.00093807233 0.30947128 0.108022146 -0.1092442 -0.10135061 0.16274993 0.093181 0.067495115
-0.12072502 0.18527763 0.108824804 0.08204394 0.11303576 -0.009839378 0.20370984 -0.030769236
0.092392236 -0.08504044 -0.15942171 -0.08843412 0.10243751 -0.29482207 0.07733917 -0.11771285
0.092693076 -0.116315916 -0.028847245 0.04103919 0.057612777 -0.17829163 0.1536613 -0.31338447
0.04670281 0.00999502 0.006778738 0.028199153 0.001221079 -0.038437553 -0.045262836 -0.058016367
0.0077463244 0.014126688 -0.010203931 -0.02026885 0.046147272 -0.012696358 -0.039827228 -0.030750258
0.0061052595 0.0027150617 -0.0028035645 0.027780022 0.0247317 0.021732418 0.00075871206 0.051433735
0.012403446 0.11084367 -0.038130473 -0.014197809 0.0050609526 -0.00030038558 -0.015130082 0.022293776
0.0066319695 0.009710867 -0.0254988 -0.008872459 0.0030679088 0.0063987314 -0.04072378 0.041441925
0.03291273 0.048403185 -0.027484907 0.00925137 -0.04651239 0.026227131 0.012298793 -1.8332714
-0.009899675 -0.020883441 0.07672205 0.0026997488 -0.062705055 -0.04851587 0.0226468 -0.0019500379
-0.031372104 0.004614258 -0.0092022065 -0.008155092 -0.016797032 0.012392686 0.047084525 -0.043107588
00000000: d92f 56bd 312d c83e 86d8 aa3e 9e79 263c
00000010: ed56 b3bc a048 7b3d ccc2 833e 49d0 0c3e
00000020: a1bb cebd 3476 7fbe 46f0 983d 1e12 abbe
00000030: a67f 693d 8e66 853e 54de f43b 21e1 753c
00000040: 7ce9 4a3e 989c 57bd 9f2d cc3d 2ca5 3e3d
00000050: ac9a 9e3e 7a79 583c 3edc b33e ec69 723e
00000060: c05a 0e3e 6b25 82bd f376 213e b7ff 96be
00000070: 1e56 1dbd 0e53 5f3e 999f 71be 46d3 7a3d
00000080: d3f3 703d a88a c83e f1d4 153e bdcb b8be
00000090: 70ea 88be e1c4 70be 56b1 d5bc ba99 e8bd
000000a0: 7f1f a6bd 9b48 9f3e 28fa 463e 3d5c 703d
000000b0: 2b51 003f 68a2 2e3e 2a25 ec3d 36b9 dcbd
000000c0: 6411 64bd 9aea a4be 8af8 1fbd 7b15 0dbd
000000d0: abe0 153e eff5 bebe a520 0b3d 06c0 8ebe
000000e0: e54e 763d abe9 62bc 3a50 a4bd ebb6 0d3e
000000f0: 0d9f 153e b2f0 463d 15de 49be 8283 d3bc
00000100: d3e0 d03c 2003 7e3d 9f5b 5bbd ef80 6fbd
00000110: 434e e73c 989f b53d c041 90bc c4a4 2c3e
00000120: 7498 abbc a5db 783d 7df6 903d b210 40bd
00000130: a267 863d e3fb 8b3b 0364 5a3a fe19 68bd
00000140: 15f9 03be 1520 cb3d 76ff 12be 3ce1 6abd
00000150: f343 f13d ea0d 453d 684c 073e 1695 9fbd
00000160: ee45 ebbc 2c91 e7bc 2e5f 543e 250e f13b
00000170: 20ba 36bd fee0 d8bd ba3b 71bc 1776 c03d
00000180: 0a10 00bd 3b35 8d3c 0550 04bd aada e5bb
00000190: a35c 1b3d b1fe 953d b936 aabd 091a c4bd
000001a0: 27fb af3d 4637 e5bc c87a 8fbd f9c7 8fbd
000001b0: ddd2 5e3c 2ac5 c13c a1f4 5c3d e6f4 e2bd
000001c0: 28a2 843d 194e 063c 2c2d 8e3d 39d6 973d
000001d0: 2ee9 8abd 9d92 a3be 1c7d 9abd 0a1d da3a
000001e0: 9b21 c4bd 6b91 793d 5319 a9bd c4f8 88bd
000001f0: a693 8bbc 5187 a3bd 4940 2a3c c98a 9ebd
00000200: 8a34 44be 4e81 a13e 337b ad3d 1dd4 eb3d
00000210: a304 e23d 1d0f 90be d47e 623e a427 643e
00000220: d549 f4bd ead4 573e 897d 99bd 6de2 833d
00000230: 419d 8437 808b d23b eb4f d33d e692 b33d
00000240: e5bb 26bd e18c a2bd 6dd8 733d 6195 4cbe
00000250: 5d14 66bd d7ec ef3c b9f2 d53d b582 53be
00000260: 85e1 a13e f141 1a3e 6d1b bc3d c641 1c3e
00000270: 892f 35bd ccd3 18be ba49 dabd 74f9 af3d
00000280: f8e8 753a 0573 9e3e b73a dd3d 6cbb dfbd
00000290: e990 cfbd eba7 263e aed5 be3d e13a 8a3d
000002a0: ae3e f7bd 6bb9 3d3e 8adf de3d a706 a83d
000002b0: 4b7f e73d 5835 21bc 5099 503e c40f fcbc
000002c0: 2438 bd3d af29 aebd 723f 23be f31c b5bd
000002d0: c2ca d13d ebf2 96be 0064 9e3d 6f13 f1bd
000002e0: ded5 bd3d 0a37 eebd 0f51 ecbc b618 283d
000002f0: 60fb 6b3d 1592 36be 6359 1d3e ee73 a0be
00000300: 724b 3f3d 27c2 233c 2d20 de3b e901 e73c
00000310: 9d0c a03a b270 1dbd 8665 39bd 92a2 6dbd
00000320: e1d4 fd3b a073 673c 632e 27bc dc0a a6bc
00000330: ec04 3d3d 6304 50bc e021 23bd f7e7 fbbc
00000340: a10e c83b 2def 313b 02bc 37bb ee92 e33c
00000350: 229a ca3c 2f08 b23c 4ee4 463a 2eac 523d
00000360: d337 4b3c 0202 e33d b32e 1cbd ed9d 68bc
00000370: 59d6 a53b 127d 9db9 2ae4 77bc 70a1 b63c
00000380: fe50 d93b 541a 1f3c dce2 d0bc ca5d 11bc
00000390: f80e 493b 73ac d13b facd 26bd 02bf 293d
000003a0: 80cf 063d 6b42 463d 0728 e1bc 0f93 173c
000003b0: c783 3ebd 48da d63c e080 493c a3a8 eabf
000003c0: 3f32 22bc c013 abbc 7320 9d3d 45ee 303b
000003d0: 826b 80bd 94b8 46bd c885 b93c 6a98 ffba
000003e0: 0980 00bd 3433 973b dac4 16bc ef9c 05bc
000003f0: ee99 89bc b10a 4b3c b4db 403d 9591 30bd

conv1.nn.4.bias f4 [64]
-0.58094484 -0.39537582 -0.3555906 -0.46552005 -0.20378177 1.7178662 -0.7484682 -0.3805805
-0.2074376 -0.49918106 -0.060787354 0.39840233 -0.10138191 -0.40883636 -0.28284273 -0.13965273
-0.094640784 -0.03660321 -0.35370183 -0.2991719 -0.0568235 -0.18760654 -0.1909822 -0.53359663
-0.20577514 -0.19850451 -0.40205652 -0.20323275 -0.13848242 -0.50200963 -0.49335235 -0.33932042
-0.24322213 -0.24270484 -0.17899181 -0.7049399 -0.52072036 -0.299026 -0.24220914 -0.3445161
0.5235302 -0.23291637 -0.65483946 -0.29549274 -0.18688393 -0.3151701 -0.38291454 2.0653732
-0.47140905 -0.33285344 -0.44831672 -0.25022236 -0.2853068 -0.5433206 0.4508138 -0.51714975
-0.20707957 -0.35411698 -0.3720221 -0.26634234 -0.24922955 -0.42978504 -0.2899155 -0.50493526
00000000: cdb8 14bf b36e cabe f90f b6be a558 eebe
00000010: 2bac 50be 0ae3 db3f 9d9b 3fbf 73db c2be
00000020: 866a 54be a994 ffbe 29fc 78bd 64fb cb3e
00000030: 52a1 cfbd 0053 d1be c3d0 90be 2001 0fbe
00000040: 07d3 c1bd 3fed 15bd 6818 b5be 0f2d 99be
00000050: c2bf 68bd ee1b 40be d690 43be ca99 08bf
00000060: b8b6 52be c444 4bbe 5ada cdbe 3f1c 50be
00000070: 56ce 0dbe b483 00bf ae98 fcbe 68bb adbe
00000080: 390f 79be 9e87 78be a149 37be f176 34bf
00000090: ee4d 05bf f019 99be ac05 78be 6a64 b0be
000000a0: 1306 063f a181 6ebe 8fa3 27bf d34a 97be
000000b0: 805e 3fbe fa5d a1be 600d c4be 132f 0440
000000c0: 875c f1be c46b aabe c589 e5be 251d 80be
000000d0: bc13 92be 0f17 0bbf 11d1 e63e ed63 04bf
000000e0: ab0c 54be d24e b5be ae79 bebe 065e 88be
000000f0: 0836 7fbe c90c dcbe ce6f 94be 7043 01bf

conv2.nn.0.weight f4 [64, 64]
0.016417895 0.07892376 -0.06444127 -1.7040019 -0.003545926 -0.120715685 -0.39612463 0.010422642
-0.052120958 -0.18040733 0.0021904008 -0.28694504 0.124784105 -0.40504858 -0.0042166123 -0.07097716
-0.19719532 -0.0033246228 0.12465541 -0.12152751 0.0011296769 -0.016222289 -0.23801035 -0.0023311453
0.0929925 -0.2398371 -0.020893425 0.06917128 0.042167313 -1.8260502 -0.058869533 -0.020375352
0.11425216 -0.054483026 -0.19872065 -0.53521955 0.013374341 -0.059329662 -0.0025880535 0.028899115
-0.34457615 0.03462261 -0.00061367906 -0.015714237 -0.045202676 -0.01931864 -0.037109368 -0.11324808
-1.7084621 -0.17565948 0.0694511 0.11692425 -0.022821523 -0.009918232 -1.7756608 0.0011992012
0.18718638 0.094684534 -0.07802627 -0.015247975 -0.036277194 -0.04438609 -0.096392825 -0.0034239283
-0.00017660846 -0.010993174 -0.0074818586 -0.0072144996 -0.037912052 -0.04754406 -0.033891562 0.0076543526
-0.005089937 -0.050932743 -0.041803863 -0.03918738 -0.0029887299 -0.0073576784 -0.001752075 -0.0076995706
-0.046982158 -0.003229181 -0.03855538 -0.007650299 0.0011562994 -0.03742356 -0.049426 0.0015114708
-0.005414264 0.0012266415 -0.0024867966 0.0049102795 -0.0072162943 -0.0023483832 -0.012163475 0.005162262
-0.0040041003 -0.00053290406 -0.04436499 -0.003227376 -0.010922635 -0.049056534 -0.04012679 0.0013311037
-0.036849707 -0.048778597 -0.00623982 -0.038432743 0.0047769635 -0.001418873 0.0017695634 -0.04634358
-0.0050799167 -0.032094296 -0.04968774 -0.045462295 -0.036670964 0.0032605166 -0.008270871 -0.039285474
-0.043065727 -0.038720094 -0.050315727 0.0099902535 -0.050314136 -0.009373171 -0.050368104 -0.03877814
-0.20964946 -0.023392005 -0.17386712 -0.4195213 -0.07071385 0.95520127 -0.6630831 0.18693665
-0.0379284 -0.017340496 0.009725428 0.28477794 -0.06332468 -0.21238166 0.42116794 -0.00031894544
0.017893521 0.010755343 0.120129235 -0.18729728 -0.008305337 0.06694625 0.040968727 0.23518828
0.0803543 -0.020539908 -0.0933568 -0.16568947 0.01887401 -0.37332657 0.093240365 -0.15068083
-0.021378286 0.058320675 0.05135691 0.039846264 -0.045022376 -0.062212627 -0.03395365 0.17776537
0.8940078 -0.08973591 0.24123825 -0.26320887 0.08313829 0.013593161 0.04861029 0.9064441
-0.40924263 -0.097080365 -0.43002322 -0.018698594 0.15823613 -0.50072354 0.14510077 -0.26710865
-0.07533816 -0.064418726 -0.13523722 0.029163526 0.117759384 -0.40104264 -0.022779856 -0.08372095
0.29588544 0.050000314 0.01858141 0.14680319 -0.053448107 -0.7114099 0.7375212 -0.010224349
-0.0006152612 -0.12031 -0.019820627 -0.614119 -0.13597853 -0.20294805 0.0026317993 0.012579564
-0.065592326 0.011131754 -0.08356483 0.026028939 0.003310907 0.042898864 -0.04929087 -0.043939963
0.12851313 -0.08748985 0.026061349 0.32730064 0.056873586 0.20328306 0.1269729 0.0077661755
-0.01736717 0.0024426898 -0.14406937 0.09968417 0.17599104 -0.06412731 -0.14729802 0.13056646
-0.50484645 -0.07277329 0.29838282 0.15099616 0.019001562 0.17610244 0.013983721 -0.7257654
0.15321979 0.12856376 -0.122964874 0.035214614 -0.077481955 -0.105576225 -0.20931055 -0.013019467
-0.10428341 0.023392648 -0.0019120866 -0.029871238 -0.06819541 0.022280721 -0.043532602 -0.030486349
00000000: d27e 863c c8a2 a13d c9f9 83bd bc1c dabf
00000010: c462 68bb c939 f7bd d9d0 cabe bbc3 2a3c
00000020: c97c 55bd b3bc 38be d48c 0f3b 76ea 92be
00000030: cf8e ff3d 8762 cfbe 822b 8abb 795c 91bd
00000040: 92ed 49be eae1 59bb 564b ff3d 6ae3 f8bd
00000050: ab11 943a 9be4 84bc fcb8 73be 21c6 18bb
00000060: da72 be3d db97 75be b028 abbc aca9 8d3d
00000070: a2b7 2c3d 03bc e9bf 2e21 71bd 36ea a6bc
00000080: 09fd e93d 9829 5fbd 6d7d 4bbe 2604 09bf
00000090: 0d20 5b3c a903 73bd 559c 29bb d6bd ec3c
000000a0: 496c b0be 70d0 0d3d 4edf 20ba 25bb 80bc
000000b0: 7126 39bd 2042 9ebc feff 17bd 9cee e7bd
000000c0: e3ae dabf 14e0 33be 613c 8e3d fb75 ef3d
000000d0: 34f4 babc 1580 22bc da48 e3bf 842e 9d3a
000000e0: c9ad 3f3e f7e9 c13d 3dcc 9fbd a4d2 79bc
000000f0: 6597 14bd 30ce 35bd 9a69 c5bd fc63 60bb
00000100: f92f 39b9 b71c 34bc 612a f5bb 9c67 ecbb
00000110: ab49 1bbd 8fbd 42bd e1d1 0abd 5dd1 fa3b
00000120: 7cc9 a6bb da9e 50bd 873a 2bbd f282 20bd
00000130: 91de 43bb ae18 f1bb e2a5 e5ba ae4c fcbb
00000140: 5d70 40bd aba0 53bb 3fec 1dbd 5caf fabb
00000150: f88e 973a 7249 19bd eb72 4abd 8b1c c63a
00000160: 236a b1bb 42c7 a03a 86f9 22bb 69e6 a03b
00000170: aa76 ecbb 55e7 19bb 5049 47bc 3128 a93b
00000180: d434 83bb 96b2 0bba 10b8 35bd 6282 53bb
00000190: daf4 32bc 81ef 48bd fd5b 24bd 6e78 ae3a
000001a0: b8ef 16bd 11cc 47bd 6777 ccbb a76b 1dbd
000001b0: 1388 9c3b 7af9 b9ba b2f0 e73a c4d2 3dbd
000001c0: 6e75 a6bb 4f75 03bd 5f85 4bbd ac36 3abd
000001d0: 4b34 16bd 64ae 553b 8c82 07bc cee9 20bd
000001e0: b065 30bd f698 1ebd dd17 4ebd 29ae 233c
000001f0: 3216 4ebd ee91 19bc c94e 4ebd d4d5 1ebd
00000200: 59ae 56be 97a0 bfbc 390a 32be 7fcb d6be
00000210: 6cd2 90bd 1288 743f d0bf 29bf 526c 3f3e
00000220: cf5a 1bbd a80d 8ebc 6757 1f3c 6ace 913e
00000230: 5fb0 81bd 947a 59be 53a3 d73e 2238 a7b9
00000240: 6f95 923c 2e37 303c 5106 f63d dcca 3fbe
00000250: 1c13 08bc 1e1b 893d d3ce 273d 32d5 703e
00000260: cc90 a43d 4f43 a8bc da31 bfbd 80aa 29be
00000270: ab9d 9a3c a924 bfbe cef4 be3d 134c 1abe
00000280: 8421 afbc a9e1 6e3d a05b 523d d635 233d
00000290: 6269 38bd abd2 7ebd fc12 0bbd 2008 363e
000002a0: b2dd 643f 76c7 b7bd 2907 773e 50c3 86be
000002b0: 6844 aa3d d9b5 5e3c 951b 473d b80c 683f
000002c0: 4088 d1be 12d2 c6bd 012c dcbe cb2d 99bc
000002d0: a708 223e 6b2f 00bf 4c95 143e 77c2 88be
000002e0: e54a 9abd f7ed 83bd a07b 0abe 59e8 ee3c
000002f0: d52b f13d 7655 cdbe d29c babc e475 abbd
00000300: 4c7e 973e 21cd 4c3d 0b38 983c 9353 163e
00000310: 67ec 5abd f61e 36bf 30ce 3c3f 0784 27bc
00000320: 7b49 21ba 1765 f6bd de5e a2bc e736 1dbf
00000330: f53d 0bbe 9dd1 4fbe 447a 2c3b 841a 4e3c
00000340: 4555 86bd f661 363c 0a24 abbd a43a d53c
00000350: cdfb 583b b8b6 2f3d 39e5 49bd 64fa 33bd
00000360: f298 033e e12d b3bd 9c7e d53c f393 a73e
00000370: 47f4 683d 6f29 503e 2f05 023e 677b fe3b
00000380: 9845 8ebc 8915 203b ec86 13be 3727 cc3d
00000390: ff36 343e 2e55 83bd 4bd5 16be 37b3 053e
000003a0: 9e3d 01bf 2a0a 95bd a2c5 983e bd9e 1a3e
000003b0: 2aa9 9b3c 3354 343e fa1b 653c c3cb 39bf
000003c0: a6e5 1c3e 38a6 033e 02d5 fbbd 333d 103d
000003d0: dcae 9ebd 5938 d8bd 8155 56be 9a4f 55bc
000003e0: 8a92 d5bd f0a1 bf3c fb9e faba 87b4 f4bc
000003f0: 09aa 8bbd 0f86 b63c 3e4f 32bd 82be f9bc

conv2.nn.0.bias f4 [64]
1.4608066 -0.042141248 -0.48250097 0.39762542 0.040616415 1.0709203 0.016497476 0.3145713
-1.2542069 -0.00908077 -0.27482846 0.11357366 0.36422327 -0.5659062 -0.2906871 4.0227623
0.070360586 0.22763601 3.1602018 0.06830827 0.0036454215 0.0042652693 1.5940856 0.017335784
-0.03901812 0.031130198 8.333392e-05 -0.009036186 0.43668085 0.08728393 -0.13918419 0.3085487
0.06753381 -0.0043715276 -0.02762442 0.22740765 -0.47022802 0.028916037 -0.009135429 1.2827873
-0.00043036474 8.765695 -0.02057449 0.07956743 0.019025907 0.02376969 6.827339 -0.979772
-0.005961311 2.6652453 -0.042416804 -0.060063668 4.548045 -0.025229461 0.6271724 -0.008200929
-0.100312285 -0.25134292 0.0027316136 -0.024437353 4.5075607 2.156679 -0.06753465 -0.015333679
00000000: b6fb ba3f 4d9c 2cbd 5e0a f7be 8f95 cb3e
00000010: 665d 263d eb13 893f b725 873c 7d0f a13e
00000020: da89 a0bf 83c7 14bc 51b6 8cbe 4f99 e83d
00000030: 797b ba3e 3bdf 10bf f1d4 94be 78ba 8040
00000040: 3619 903d 6a19 693e bf40 4a40 35e5 8b3d
00000050: 06e8 6e3b acc3 8b3b ff0a cc3f c603 8e3c
00000060: 77d1 1fbd c204 ff3c 8fc3 ae38 830c 14bc
00000070: a294 df3e ebc1 b23d 4d86 0ebe 18fa 9d3e
00000080: 2b4f 8a3d 083f 8fbb 9c4c e2bc 8ddd 683e
00000090: bac1 f0be 53e1 ec3c c4ac 15bc 6032 a43f
000000a0: 94a2 e1b9 4940 0c41 d58b a8bc 40f4 a23d
000000b0: 38dc 9b3c a7b8 c23c 9079 da40 56d2 7abf
000000c0: 1a57 c3bb 6193 2a40 3ebd 2dbd 5205 76bd
000000d0: 9689 9140 04ae cebc 5f8e 203f 305d 06bc
000000e0: 8770 cdbd 05b0 80be df04 333b d830 c8bc
000000f0: f03d 9040 0707 0a40 9b4f 8abd 1c3a 7bbc

conv2.nn.2.weight f4 [64]
0.29402307 0.045303863 0.8301483 0.0029231347 0.07860879 0.05539948 0.027716964 0.08653827
1.0047536 0.05542647 0.15717365 0.044115853 0.16625154 1.0418558 1.3610781 0.7557045
0.022561349 0.6410769 0.7784875 0.09416884 0.05568369 0.05542645 0.16491717 0.056146126
0.0532651 0.10258788 0.05689564 0.054117575 0.21434611 0.08716214 1.435525 -0.12856618
0.011300937 0.05542645 0.033690225 -0.080082 0.94734496 0.06271746 0.05791349 -0.13500257
0.054186556 1.3525579 0.01026145 0.023089353 0.06426129 0.07817599 0.84187007 0.6272019
0.05542645 0.72242415 0.030462943 0.027791858 1.2412443 0.051186956 1.4225212 0.054438405
0.057587933 -0.19822206 -0.0050681196 0.042443667 0.86774546 0.48610282 0.19784433 0.06007324
00000000: 318a 963e 8b90 393d 9984 543f 1092 3f3b
00000010: a5fd a03d 91ea 623d b00e e33c fa3a b13d
00000020: c49b 803f de06 633d 21f2 203e d3b2 343d
00000030: d83d 2a3e 885b 853f cf37 ae3f da75 413f
00000040: 94d2 b83c 9e1d 243f f54a 473f 98db c03d
00000050: 9514 643d d806 633d 0ce0 283e 7bf9 653d
00000060: 812c 5a3d 9819 d23d 670b 693d 64aa 5d3d
00000070: 8c7d 5b3e 1082 b23d 48bf b73f daa6 03be
00000080: 9127 393c d806 633d c3fe 093d 0802 a4bd
00000090: 3385 723f 0372 803d b236 6d3d 1d3e 0abe
000000a0: b9f2 5d3d 9e20 ad3f a41f 283c e225 bd3c
000000b0: 6c9b 833d bc1a a03d cc84 573f 4e90 203f
000000c0: d806 633d caf0 383f 6c8d f93c c0ab e33c
000000d0: 18e1 9e3f 6aa9 513d 2d15 b63f cefa 5e3d
000000e0: 53e1 6b3d b9fa 4abe 7812 a6bb 69d9 2d3d
000000f0: 9124 5e3f 78e2 f83e b497 4a3e 5c0f 763d

conv2.nn.2.bias f4 [64]
0.00727185 0.38194758 0.7921887 -0.035429318 0.041666213 0.040211394 0.0417175 0.02100501
0.95022315 -0.36320844 0.00511293 0.016908325 0.017644806 0.78100646 0.65656483 0.58965456
0.041082464 0.61189926 0.57679194 -0.021457622 -0.0056102495 0.36182502 0.010657482 -0.012130564
-0.0017276015 -0.032394916 0.27371937 0.0022612938 -0.5434869 0.0021057785 0.698328 -0.0061794473
0.00033905637 -0.02055812 0.0028254848 -0.0073841903 0.8713635 -0.04083943 -0.027733319 -0.084897526
0.17152694 0.39523685 -0.032240096 -0.011284619 -0.0034118283 -0.45090023 0.59094054 0.7161192
-0.031316407 0.57611185 0.016134089 0.051356785 0.3268027 0.03844805 0.48873022 0.033007078
-0.03532202 0.22102672 0.05250587 0.017246628 0.5021915 0.12448942 0.0487799 -0.021709962
00000000: b348 ee3b a28e c33e e1cc 4a3f 551e 11bd
00000010: 31aa 2a3d b4b4 243d f8df 2a3d b312 ac3c
00000020: d341 733f 75f6 b9be 5e8a a73b 5483 8a3c
00000030: d78b 903c 0af0 473f a214 283f 9af3 163f
00000040: 1646 283d 6ea5 1c3f a3a8 133f e5c7 afbc
00000050: 2fd6 b7bb 2141 b93e b89c 2e3c 46bf 46bc
00000060: b070 e2ba 88b0 04bd f224 8c3e 3732 143b
00000070: f521 0bbf 1a01 0a3b a0c5 323f f67c cabb
00000080: 60c3 b139 8169 a8bc c52b 393b 14f7 f1bb
00000090: ae11 5f3f 3f47 27bd fc30 e3bc c1de adbd
000000a0: c2a4 2f3e 7c5c ca3e 310e 04bd 1fe3 38bc
000000b0: fb98 5fbb 65dc e6be e147 173f 9753 373f
000000c0: a245 00bd 117c 133f a32b 843c 7e5b 523d
000000d0: af52 a73e b47b 1d3d d93a fa3e 6e32 073d
000000e0: d3ad 10bd d454 623e 6510 573d cd48 8d3c
000000f0: 9f8f 003f 4ff4 fe3d 6fcd 473d 17d9 b1bc

conv2.nn.2.running_mean f4 [64]
6e-45 6e-45 236.12625 6e-45 6e-45 1.3597378e-31 6e-45 6e-45
158.5996 6e-45 6e-45 6e-45 6e-45 354.78165 392.5442 203.65204
6e-45 196.49762 118.80772 6e-45 6e-45 6e-45 6e-45 6e-45
6e-45 6e-45 6e-45 6e-45 6e-45 6e-45 446.21692 6e-45
6e-45 6e-45 6e-45 6e-45 326.47452 6e-45 6e-45 215.16301
6e-45 7.1343474 6e-45 6e-45 6e-45 6e-45 182.16168 228.6394
6e-45 183.88019 6e-45 6e-45 4.9020314 6e-45 618.2978 6e-45
6e-45 6e-45 6e-45 6e-45 44.45128 1.1392922e-06 6e-45 6e-45
00000000: 0400 0000 0400 0000 5220 6c43 0400 0000
00000010: 0400 0000 0a81 300c 0400 0000 0400 0000
00000020: 7f99 1e43 0400 0000 0400 0000 0400 0000
00000030: 0400 0000 0d64 b143 a845 c443 eca6 4b43
00000040: 0400 0000 647f 4443 8d9d ed42 0400 0000
00000050: 0400 0000 0400 0000 0400 0000 0400 0000
00000060: 0400 0000 0400 0000 0400 0000 0400 0000
00000070: 0400 0000 0400 0000 c41b df43 0400 0000
00000080: 0400 0000 0400 0000 0400 0000 0400 0000
00000090: bd3c a343 0400 0000 0400 0000 bb29 5743
000000a0: 0400 0000 934c e440 0400 0000 0400 0000
000000b0: 0400 0000 0400 0000 6429 3643 b0a3 6443
000000c0: 0400 0000 54e1 3743 0400 0000 0400 0000
000000d0: 71dd 9c40 0400 0000 0f93 1a44 0400 0000
000000e0: 0400 0000 0400 0000 0400 0000 0400 0000
000000f0: 1cce 3142 c8e9 9835 0400 0000 0400 0000

conv2.nn.2.running_var f4 [64]
6e-45 6e-45 7600.4272 6e-45 6e-45 1.107983e-32 6e-45 6e-45
6015.7124 6e-45 6e-45 6e-45 6e-45 15614.23 24738.727 28312.1
6e-45 14381.497 6274.666 6e-45 6e-45 6e-45 6e-45 6e-45
6e-45 6e-45 6e-45 6e-45 6e-45 6e-45 30214.852 6e-45
6e-45 6e-45 6e-45 6e-45 12779.065 6e-45 6e-45 16108.299
6e-45 465.33704 6e-45 6e-45 6e-45 6e-45 30811.977 15068.965
6e-45 17920.697 6e-45 6e-45 191.26225 6e-45 45500.027 6e-45
6e-45 6e-45 6e-45 6e-45 2055.2183 1.9646846e-07 6e-45 6e-45
00000000: 0400 0000 0400 0000 6b83 ed45 0400 0000
00000010: 0400 0000 7b1e 660a 0400 0000 0400 0000
00000020: b3fd bb45 0400 0000 0400 0000 0400 0000
00000030: 0400 0000 ecf8 7346 7445 c146 3330 dd46
00000040: 0400 0000 fdb5 6046 5415 c445 0400 0000
00000050: 0400 0000 0400 0000 0400 0000 0400 0000
00000060: 0400 0000 0400 0000 0400 0000 0400 0000
00000070: 0400 0000 0400 0000 b40d ec46 0400 0000
00000080: 0400 0000 0400 0000 0400 0000 0400 0000
00000090: 43ac 4746 0400 0000 0400 0000 32b1 7b46
000000a0: 0400 0000 24ab e843 0400 0000 0400 0000
000000b0: 0400 0000 0400 0000 f4b7 f046 dc73 6b46
000000c0: 0400 0000 6501 8c46 0400 0000 0400 0000
000000d0: 2343 3f43 0400 0000 07bc 3147 0400 0000
000000e0: 0400 0000 0400 0000 0400 0000 0400 0000
000000f0: 7e73 0045 d7f4 5234 0400 0000 0400 0000

conv2.nn.4.weight f4 [64, 64]
-0.050124113 0.25728625 -0.87905777 0.039447855 0.0855272 0.0053674136 0.053374786 0.13249744
-0.35904232 -0.28941125 0.008426947 0.06771622 0.11645517 -0.6151007 -0.7806972 1.1627879
0.20852837 0.20267864 1.0461893 -0.078773424 0.038531493 0.29267216 -0.02886214 -0.037340213
0.07289013 -0.13079646 0.2527943 0.05603781 -0.24186075 0.17833757 -0.8482389 -0.006354239
-0.017551748 -0.06416353 0.08170197 0.07263603 -0.8590524 -0.108768016 0.024467228 0.14846183
0.08719692 -2.0476744 -0.0974109 -0.03194814 0.026730679 -0.18400756 0.6186846 -0.1514242
-0.10852931 1.1481892 -0.068358146 0.16604553 -2.7124696 0.041300133 -0.73603505 0.11403761
0.00417269 0.18060483 0.13664806 -0.028194083 0.6530215 -0.10569931 0.06624337 -0.17429471
0.048955113 0.14158438 -0.7715347 0.08554246 -0.08557637 -0.053845722 -0.022785524 -0.11925807
-1.1187198 -0.056820724 0.007974307 -0.06439638 -0.03936056 -0.58807504 -0.043978184 -2.3604407
-0.03678158 -1.5952775 -1.8588707 0.022413284 0.032308422 -0.015029774 -0.09182705 0.06941911
-0.0070523806 -0.008362376 0.06857372 -0.06753885 -0.1532711 -0.09053173 -0.096501775 0.028394505
0.03266846 0.08369988 0.057491023 -0.0063923686 -0.4899309 0.04716186 0.065692216 -0.069407314
-0.022809243 0.16678004 -0.0451199 -0.04041882 -0.05849393 -0.19488008 -1.4567508 -1.396686
0.0045673056 -2.353702 -0.00513919 0.07320516 0.3934332 -0.064082175 -0.13328598 -0.07154045
0.01516332 -0.027365144 0.08368986 -0.009213645 -1.2939345 -0.039843675 -0.042629 -0.00032511362
0.09102085 0.34777954 -0.76134074 -0.23292299 0.14336586 0.2564915 0.09759375 0.08413951
-0.47041234 -0.32802415 0.09246014 0.13331003 0.09725877 -0.64948905 -0.13823828 -2.4072046
0.2290634 -1.482332 -1.8384312 0.0013267265 -0.044399377 0.26532084 0.21563181 -0.14573902
0.19759537 -0.073175356 0.33033186 -0.0733307 -0.3244526 0.13286772 -0.29316205 -0.15588686
0.05734728 -0.13631625 -0.12314822 -0.011846444 -0.5434536 -0.028119603 -0.120898254 0.19885156
0.17308706 0.19178411 -0.024093028 -0.067073986 0.048467018 -0.39552864 -1.3566248 -1.2151322
0.015730057 -2.2837155 -0.08728325 0.15359665 0.39475277 -0.06631706 -0.3689015 0.1326715
0.17814532 0.23409358 0.012353354 0.052386764 -1.3034037 0.13733724 0.21370016 -0.15606703
0.020884942 0.18130375 -0.771063 0.055551372 -0.17297742 -0.17003462 -0.06607665 0.06488963
-1.1430943 -0.07607091 -0.0346316 -0.03246784 0.0639743 -0.60585177 -0.05058205 -2.386499
-0.2012591 -1.6443969 -1.9635385 0.024040341 -0.044720802 -0.03668347 -0.010632367 0.0057173967
0.028055707 0.021802176 0.093526654 0.12348081 -0.15762384 -0.0017685004 -0.110502124 -0.023013076
-0.036036972 0.069784604 0.10976658 -0.070696734 -0.51089853 0.10134602 0.045383375 -0.06222596
-0.022039946 0.18182693 -0.015351747 0.08277695 -0.11154094 -0.21439943 -1.4874082 -1.4349539
0.16933013 -2.3767488 0.03154539 0.049621757 0.41415113 0.021251556 -0.15156274 -0.0812838
-0.030284464 -0.042776123 0.07760632 0.05854034 -1.3012815 -0.019671716 -0.024135634 0.025316084
00000000: f14e 4dbd 06bb 833e ee09 61bf 1394 213d
00000010: e228 af3d 21e1 af3b 859f 5a3d 69ad 073e
00000020: 65d4 b7be b62d 94be 2d11 0a3c cdae 8a3d
00000030: 0c80 ee3d 3d77 1dbf c6db 47bf 3cd6 943f
00000040: 7688 553e fd8a 4f3e 88e9 853f f653 a1bd
00000050: 33d3 1d3d 20d9 953e 4b70 ecbc 0df2 18bd
00000060: 6c47 953d 82ef 05be 416e 813e e787 653d
00000070: 58aa 77be 209e 363e 2f26 59bf 3837 d0bb
00000080: afc8 8fbc 2b68 83bd 5d53 a73d 33c2 943d
00000090: dcea 5bbf c4c1 debd 7f6f c83c 6106 183e
000000a0: 4c94 b23d 190d 03c0 5e7f c7bd 0edc 02bd
000000b0: 4cfa da3c 7a6c 3cbe 1d62 1e3f f20e 1bbe
000000c0: 9d44 debd ddf7 923f 5bff 8bbd d707 2a3e
000000d0: 1a99 2dc0 542a 293d cb6c 3cbf 8d8c e93d
000000e0: 10bb 883b 79f0 383e 78ed 0b3e 47f7 e6bc
000000f0: 6b2c 273f e178 d8bd 9baa 873d 507a 32be
00000100: 2885 483d 7ffb 103e 4c83 45bf e330 af3d
00000110: aa42 afbd 558d 5cbd b5a8 babc 933d f4bd
00000120: 3632 8fbf d9bc 68bd aba6 023c 40e2 83bd
00000130: 8a38 21bd 168c 16bf 7822 34bd 7611 17c0
00000140: 48a8 16bd 0e32 ccbf 7aef edbf 109c b73c
00000150: d655 043d 713f 76bc d20f bcbd 9b2b 8e3d
00000160: a817 e7bb 5902 09bc 6170 8c3d cf51 8abd
00000170: 19f3 1cbe b368 b9bd b9a2 c5bd 989b e83c
00000180: 5dcf 053d d86a ab3d b57b 6b3d 1377 d1bb
00000190: 39d8 fabe cb2c 413d a489 863d 6c25 8ebd
000001a0: 73da babc 63c8 2a3e a5cf 38bd 348e 25bd
000001b0: 5597 6fbd a58e 47be cf76 babf 9bc6 b2bf
000001c0: 56a9 953b 0ea3 16c0 a666 a8bb 96ec 953d
000001d0: 1470 c93e 843d 83bd 1f7c 08be cd83 92bd
000001e0: 936f 783c de2c e0bc 9765 ab3d d4f4 16bc
000001f0: a59f a5bf 1f33 23bd bf9b 2ebd 0374 aab9
00000200: 2469 ba3d 2910 b23e 3ae7 42bf 5d83 6ebe
00000210: 80ce 123e db52 833e 3bdf c73d 5651 ac3d
00000220: e3d9 f0be c8f2 a7be be5b bd3d 6d82 083e
00000230: 9b2f c73d ea44 26bf 568e 0dbe a40f 1ac0
00000240: 998f 6a3e 0ebd bdbf b751 ebbf 8ee5 ad3a
00000250: 1fdc 35bd 22d8 873e 96ce 5c3e 9c3c 15be
00000260: 7156 4a3e f6dc 95bd 4221 a93e 682e 96bd
00000270: a71e a6be 7a0e 083e 5619 96be cea0 1fbe
00000280: fbe4 6a3d 7d96 0bbe 2235 fcbd 9617 42bc
00000290: c61f 0bbf 155b e6bc 8199 f7bd be9f 4b3e
000002a0: bc3d 313e 0e63 443e be5e c5bc 165e 89bd
000002b0: 5a85 463d bb82 cabe e2a5 adbf 7489 9bbf
000002c0: 52dc 803c 6528 12c0 90c1 b2bd 7148 1d3e
000002d0: 091d ca3e 3dd1 87bd a8e0 bcbe 0adb 073e
000002e0: ba6b 363e 3ab6 6f3e b965 4a3c 8193 563d
000002f0: efd5 a6bf 22a2 0c3e 37d4 5a3e 09d0 1fbe
00000300: e616 ab3c b1a7 393e 6364 45bf d689 633d
00000310: fe20 31be 8e1d 2ebe 3253 87bd dbe4 843d
00000320: ea50 92bf 11cb 9bbd ddd9 0dbd fffc 04bd
00000330: f504 833d 1a19 1bbf 202f 4fbd 66bc 18c0
00000340: de16 4ebe 997b d2bf 3b55 fbbf 40f0 c43c
00000350: 292d 37bd 6841 16bd 6133 2ebc 0059 bb3b
00000360: 15d5 e53c 7a9a b23c e78a bf3d 82e3 fc3d
00000370: 2568 21be 07cd e7ba f04e e2bd eb85 bcbc
00000380: 819b 13bd 3beb 8e3d 4dcd e03d 73c9 90bd
00000390: 3fca 02bf 818e cf3d ebe3 393d a6e0 7ebd
000003a0: 1e8d b4bc d730 3a3e e585 7bbc f686 a93d
000003b0: 946f e4bd 868b 5bbe 6463 bebf 92ac b7bf
000003c0: e164 2d3e a71c 18c0 bd35 013d 2f40 4b3d
000003d0: 9e0b d43e be17 ae3c 4333 1bbe 1f78 a6bd
000003e0: 2017 f8bc 0436 2fbd 10f0 9e3d ffc7 6f3d
000003f0: 6490 a6bf 9426 a1bc 18b8 c5bc ad63 cf3c

conv2.nn.4.bias f4 [64]
0.4550581 0.46628493 0.6350371 0.48030072 0.47855133 -1.2648699 -0.18521546 0.40198725
0.80890864 0.3917718 1.6724646 0.684608 -0.76562726 -0.2850899 0.4797284 1.002786
0.4120903 0.24323486 0.4617593 0.42455 0.43675822 0.58290654 0.9287926 0.41057053
0.9769807 0.49050558 0.2739154 -0.58563346 0.9551887 -1.6632404 0.43495336 0.45211825
0.4525263 0.9847436 0.34771976 0.53736115 0.44641915 0.52123266 0.43563673 1.1164672
-0.73833483 0.53036034 0.4423118 0.36756662 0.65659267 0.47610357 0.968323 0.41285828
1.0508249 -1.2580435 0.43292803 0.22872876 0.45511073 0.33340058 0.44132507 0.78783107
0.27067173 0.39862743 0.3883682 0.3940911 0.47153255 0.6454285 0.34264982 -1.3850282
00000000: 60fd e83e e6bc ee3e cb91 223f fae9 f53e
00000010: ae04 f53e 42e7 a1bf 1fa9 3dbe 46d1 cd3e
00000020: a314 4f3f 5096 c83e 5213 d63f 7842 2f3f
00000030: 2600 44bf 4ef7 91be f69e f53e 4b5b 803f
00000040: 80fd d23e 8f12 793e b76b ec3e 9e5e d93e
00000050: c69e df3e 5d39 153f 5ac5 6d3f 4d36 d23e
00000060: 681b 7a3f 8c23 fb3e a43e 8c3e 13ec 15bf
00000070: 3f87 743f 10e5 d4bf 35b2 de3e 0b7c e73e
00000080: 87b1 e73e 2818 7c3f 5308 b23e 8090 093f
00000090: 0d91 e43e 816f 053f c70b df3e 66e8 8e3f
000000a0: 8303 3dbf b2c5 073f b176 e23e b131 bc3e
000000b0: 7516 283f d9c3 f33e 04e4 773f 2962 d33e
000000c0: 6e81 863f 9207 a1bf bea8 dd3e df37 6a3e
000000d0: 4604 e93e 7bb3 aa3e 5cf5 e13e 4caf 493f
000000e0: 7c95 8a3e e518 cc3e 32d8 c63e 4fc6 c93e
000000f0: b76c f13e cd3a 253f cc6f af3e 9b48 b1bf

fc1.weight f4 [128, 74]
0.052456185 -0.21475141 -0.11935309 -0.15364064 -0.2157825 -0.08890049 -0.011509927 0.20514528
-0.034465455 0.16933738 -0.3071218 -0.08294452 0.0619144 -0.013927406 0.12037892 -0.14207748
0.22573313 -0.06075258 -0.16109616 0.09667922 0.05008179 -0.041573565 -0.1772253 0.012703397
-0.20618947 -0.22444259 -0.16985601 -0.49830666 -0.19060077 -0.731198 0.1357456 0.1922258
0.12579075 -0.22695452 0.22485378 -0.37764797 -0.18017398 0.13443942 0.1344676 -0.24068983
0.018868485 -0.28975227 0.09346962 -0.14176898 -0.09664045 -0.20991892 -0.19144028 0.07662509
-0.07645973 -0.07181852 -0.2224908 -0.11987487 -0.2081954 -0.14680274 0.105588205 -0.06969618
0.13732667 0.20811813 -0.15043856 0.15513925 -0.17540537 -0.10863219 0.030506728 0.10674514
0.017910529 -0.0017387106 1.258124 -3.1558359 0.09295352 0.014442066 -0.019093757 -0.14284933
-0.01656404 -0.010837164 -0.3680188 0.2750618 0.18438852 0.31731403 0.2979297 -0.01479613
0.13672473 -0.19598621 0.27477974 -0.35749167 -0.32999265 0.21485856 -0.112999804 1.2404969
-0.16139589 -0.31919676 -0.2415229 -0.35659134 0.30421332 -0.3828244 -0.36687478 -0.16925482
-0.24251315 -0.38607803 -0.19740301 0.30902022 1.3357759 0.025933944 -0.2405145 -0.25598577
-0.39677 -0.19261381 -0.3778401 -0.21539488 -0.20667897 -0.09136733 0.29296657 -0.1055566
-0.4223201 -0.2500233 -0.13353705 -0.06660832 -0.1214169 0.30337718 0.20248917 0.2660781
-0.23046826 -0.3824604 -0.35655338 -0.045917463 0.21739168 -0.6303885 0.27686304 0.24276003
-0.40379342 0.26244017 -0.1800529 -0.18891093 0.2946922 -0.3949531 0.28049332 0.18670186
-0.105746076 0.17997229 -0.45671365 -0.0011237481 0.2479802 -1.4729797 -0.29109806 0.05842835
-0.18076244 -0.44692957 -0.16945893 -0.16847284 -0.04406595 -0.026423477 -0.03624664 0.0055164825
0.035426117 0.24815422 -0.050216082 -0.15028857 -0.022647832 -0.015942844 -0.08306733 -0.020194005
0.18020284 0.67240304 -0.1702886 -0.1541258 -0.16883047 -0.39829668 -0.02526115 -0.014982122
-0.017123824 -0.23664209 -0.057016034 -0.010912998 -0.115152836 -0.0050840853 0.39967075 -0.26794124
-0.10233061 -0.54296976 -0.019180743 -0.1599234 -0.039691005 -0.1108806 -0.13507648 -0.25992265
-0.006682294 -0.17189384 -0.018552132 -0.1555007 0.09373104 -0.02308818 -0.19896056 -0.052049793
-0.01507507 0.012351976 -0.10439676 -0.017332818 -0.17075875 0.26572508 -0.03812725 -0.38395417
-0.008189263 -0.09292645 0.0020545817 -0.026226878 -0.16157371 -0.13426979 -0.06237934 0.018681262
-0.03506014 -0.02348239 -0.21376987 0.31892362 0.41797328 -0.004722148 0.17731088 -0.3983318
-0.1281899 0.038431406 -0.032601852 0.30050743 -0.05019919 -0.045716114 0.0020540883 -0.11824178
-0.10080761 -0.08856987 -0.10115784 0.33817264 -0.08026035 -0.09681328 -0.023716249 0.027572542
-0.19435757 -0.07143972 0.23843235 0.5422966 -0.04173438 -0.09304773 -0.12286314 -0.21088688
-0.08547751 -0.009500765 0.02928939 -0.10014022 -0.046332866 0.015094765 -0.054548394 -0.10116735
0.2178396 -0.3071336 -0.08454398 -0.54403204 0.024584586 -0.13411207 0.009534459 -0.08694405
00000000: 4cdc 563d cbe7 5bbe 656f f4bd f953 1dbe
00000010: 16f6 5cbe 7611 b6bd 2294 3cbc 9b11 523e
00000020: a62b 0dbd c766 2d3e 123f 9dbe d1de a9bd
00000030: f499 7d3d c62f 64bc 3989 f63d c27c 11be
00000040: 9626 673e b3d7 78bd 64f6 24be c1ff c53d
00000050: 9022 4d3d 0b49 2abd 8d7a 35be e921 503c
00000060: 5523 53be 47d4 65be bcee 2dbe 0d22 ffbe
00000070: d92c 43be cb2f 3bbf e500 0b3e d7d6 443e
00000080: 4acf 003e c466 68be 1240 663e 135b c1be
00000090: 877f 38be 7daa 093e e0b1 093e 6577 76be
000000a0: 1592 9a3c 695a 94be 006d bf3d e32b 11be
000000b0: 6eeb c5bd fcf4 56be ec08 44be 9ded 9c3d
000000c0: eb96 9cbd 9715 93bd a1d4 63be f580 f5bd
000000d0: 2d31 55be 7553 16be a13e d83d dfbc 8ebd
000000e0: 5d9f 0c3e eb1c 553e 910c 1abe d3dc 1e3e
000000f0: 779d 33be 8e7a debd 3fe9 f93c 329d da3d
00000100: 1ab9 923c 72e5 e3ba 350a a13f 37f9 49c0
00000110: 6a5e be3d 6a9e 6c3c 836a 9cbc 1847 12be
00000120: 4fb1 87bc 5c8e 31bc f66c bcbe e6d4 8c3e
00000130: 58d0 3c3e fc76 a23e 3e8a 983e 786b 72bc
00000140: 9101 0c3e 9cb0 48be eeaf 8c3e 2609 b7be
00000150: ccf4 a8be e203 5c3e 716c e7bd 9ac8 9e3f
00000160: f744 25be c26d a3be c751 77be 2493 b6be
00000170: d9c1 9b3e 8f01 c4be 03d7 bbbe 2351 2dbe
00000180: 5e55 78be 05ac c5be 0424 4abe e637 9e3e
00000190: b4fa aa3f 6c73 d43c 6f49 76be 9110 83be
000001a0: 7025 cbbe 8e3c 45be 4274 c1be 7a90 5cbe
000001b0: a7a3 53be cb1e bbbd b7ff 953e 0f2e d8bd
000001c0: 573a d8be 0e03 80be f0bd 08be f169 88bd
000001d0: 6ca9 f8bd 4154 9b3e 5259 4f3e 643b 883e
000001e0: dfff 6bbe d9d1 c3be 2a8e b6be f313 3cbd
000001f0: ed9b 5e3e 2461 21bf fec0 8d3e 1696 783e
00000200: 03be cebe 8f5e 863e ca5f 38be de71 41be
00000210: e5e1 963e 4b37 cabe d29c 8f3e c62e 3f3e
00000220: 6691 d8bd a84a 383e 5fd6 e9be bb4a 93ba
00000230: 86ee 7d3e 998a bcbf ce0a 95be 9152 6f3d
00000240: ca19 39be f4d3 e4be a486 2dbe 2584 2cbe
00000250: 7f7e 34bd 0c76 d8bc 5b77 14bd 9cc3 b43b
00000260: fa1a 113d 241c 7e3e 61af 4dbd 3fe5 19be
00000270: f287 b9bc 919a 82bc 341f aabd e66d a5bc
00000280: 1887 383e 9b22 2c3f 2260 2ebe 27d3 1dbe
00000290: e5e1 2cbe 8bed cbbe 79f0 cebc 9377 75bc
000002a0: 4347 8cbc 4e52 72be a589 69bd 6ecc 32bc
000002b0: 40d5 ebbd 6698 a6bb a5a1 cc3e 982f 89be
000002c0: b692 d1bd 1100 0bbf ef20 9dbc f6c2 23be
000002d0: 0993 22bd 5e15 e3bd 7d51 0abe 9514 85be
000002e0: 25f7 dabb f004 30be a4fa 97bc 933b 1fbe
000002f0: 0ff6 bf3d 6c23 bdbc 51bc 4bbe 2a32 55bd
00000300: 6dfd 76bc f15f 4a3c f8cd d5bd 8efd 8dbc
00000310: 62db 2ebe 1e0d 883e 522b 1cbd a495 c4be
00000320: 422c 06bc 3950 bebd 29a6 063b c0d9 d6bc
00000330: 9473 25be 057e 09be 7b81 7fbd 7209 993c
00000340: 399b 0fbd 245e c0bc 7de6 5abe f549 a33e
00000350: 9800 d63e 40bc 9abb fc90 353e 25f2 cbbe
00000360: 3744 03be 406a 1d3d 8589 05bd 1cdc 993e
00000370: aa9d 4dbd d240 3bbd e29d 063b bf28 f2bd
00000380: 3874 cebd 1f64 b5bd d72b cfbd f724 ad3e
00000390: 8a5f a4bd 0a46 c6bd 9448 c2bc d0df e13c
000003a0: ac05 47be fd4e 92bd 9c27 743e f3d3 0a3f
000003b0: abf1 2abd cf8f bebd ac9f fbbd bbf2 57be
000003c0: d50e afbd 19a9 1bbc 4ef0 ef3c 5116 cdbd
000003d0: 88c7 3dbd 0950 773c 236e 5fbd d430 cfbd
000003e0: 5811 5f3e 9d40 9dbe 6525 adbd af45 0bbf
000003f0: 9d65 c93c ad54 09be 6b36 1c3c b90f b2bd
