models/0_2023_2023/Postal_GIN/55.pth (torch, 134066 bytes, 21 tensors)

conv1.nn.0.weight f4 [64, 12]
00000000: b9f1 e83a 88cd 1cbb 339a 55bb de8f d8ba
00000010: fd3d 0abc 7a71 3dbb d4a5 06bb c885 acbb
00000020: 5db4 c33b 2308 91bb 0ac2 2dbb 9f92 6eba
00000030: aca4 b4bb 7785 61b8 8dc4 56bb d2a8 babb
00000040: 0c09 2f39 426b c53b 7aa7 db3a 8bed b73b
00000050: 9491 8bb8 f5ab 1bbb 7eba b33b a480 6dbb
00000060: 3c76 56bd 7b2f fdbc 737a fabc 414d 85bb
00000070: c583 d0bd a33b 1ebb 5354 5fbd 7fe8 b63d
00000080: ded7 303d 5272 b5bb 489d da3a 8aa2 eaba
00000090: 7c6f 7bbd 6ae0 1cbb 4831 37bc f1a5 a9bb
000000a0: eaf0 13be 4c94 553b 5dd0 03bd 35d1 013e
000000b0: 262f 8c3d f09a 9abb 2e9f 5bbb 9136 ca3b
000000c0: 116d e7bb 6ac2 9fbb 9ef7 133b b768 a0ba
000000d0: d110 293b 1860 0bbc 271a 5b39 471f 43b9
000000e0: 10ff 57bb b398 13bb 6571 0abc 4ac2 a33b
000000f0: 47db 73bc c619 30bc 281d cc3a 0a15 4fbb
00000100: 4457 b4bc cfb0 e9ba a3eb b6bc 9848 c63b
00000110: ad01 c93c 79ff ae3c 29b6 c6bb 7ee2 a13c
00000120: 2083 45bb b94c 0dbc 50da 2abb f148 eaba
00000130: 3f43 a5bb b181 38bc 71b9 f7bb f418 96b8
00000140: da97 7ebb 4947 b439 22d2 e3bb 84ef 74ba
00000150: 5918 8dbc 5319 c4bc b4c8 9abc 8e98 06bb
00000160: 29bc 97bc 0285 acba 6cc0 afbc a1c7 33bc
00000170: 51ad 89bc 0569 d9bb c854 bfbb 9bb8 8ebb
00000180: f04e 06bd b2f8 4abc e348 51bc 5a08 85bc
00000190: 8d7b ffbc 7295 10bc cef8 3dbc b762 553d
000001a0: 46a1 d23c 9b6a 93bc 7b2c 68bc fd6f 34bc
000001b0: 25dc 89ba db39 abbb 0449 133b 4a62 e3ba
000001c0: 39b1 56bb 1dda 8c3b 0536 72b9 a2f1 7ebb
000001d0: d36f 85bb 2003 d23b a50c 913b 78e7 9fbb
000001e0: cb30 0dbd b9e9 71bc 476d 3fbc bffd bebb
000001f0: 64f0 e3bc 559a 143b f845 c2bc 04d6 173d
00000200: 20eb 993c 2615 d6bb 5e11 713b 5b97 cb3b
00000210: faa7 06bb eb48 c7bb 3d7e 023b 4b58 9cbb
00000220: 50b3 91bb 8425 f33a e369 29ba 59b2 f2b9
00000230: 0305 c83b 6775 9cba 0cbe 873b 33ce 0abb
00000240: 3080 ebbc a568 93bb 5052 51ba 872c b5bb
00000250: 332d 2ebd 4c99 a5bc 1f5d 74bd 74cd ae3b
00000260: 5cfc 673d 1ab3 f33c 3578 81bc 5721 413d
00000270: a958 52be 2ee3 3bbd 2bd6 71bd b6b7 d0bb
00000280: d57d 90be a131 8e3b 9ae4 d9bd 9a94 a23e
00000290: 848e d83e bd0e e7ba 75c5 36bb c8cb 303b
000002a0: e4ae 48bc 8860 75bb 3314 2dbb 69b7 8abb
000002b0: f96a ebbc a50e 89bc 6d7e e6bc 4a23 abba
000002c0: f858 d73c 233b dd3b 708a 8cbb b56d 973c
000002d0: 12c4 20bd 43ec 10bc 7cc1 74bc 8194 adbb
000002e0: 9020 60bd 1f3a 2cbb 7a42 3abd 70a4 813d
000002f0: bade 243d 23be 523b dba3 ad3b 9355 2f3a
00000300: 9dd0 29bc 7097 27bc 31c5 5abb 4981 2abb
00000310: f684 73bc f98b bab8 af40 f4bc f409 3f3b
00000320: fe35 813c 4bcc 4b3b 2e99 fcbb 4268 103c
00000330: 0b16 3ebc 7e27 abbb ce11 53bc 8db5 54bb
00000340: 5f58 b3bc 64f0 42ba f85f 7dbc f7da 073b
00000350: 4c09 873c 7320 333c f906 88b9 ef26 683c
00000360: 7075 dc3a e557 93ba 0f98 f9b8 ff8a 06bb
00000370: a081 30bb 3400 813b 1564 3f3b 94e1 44bb
00000380: b687 c4bb 1913 5a3b 7721 cdbb 62e3 9db9
00000390: 2b69 82bd 893f 2dbb 8b3e a1bb 3f45 b7bb
000003a0: 6274 ccbd 16d9 83bb ba96 49bd d10d b73d
000003b0: c1b9 893d 5b1a e2ba 3e9f a33a baf5 52bb
000003c0: cf65 42bd 890b 59bb 3a15 383a 39a5 d1ba
000003d0: 613f 73bd c4ae 00bd 12bf 76bd 25ca f73b
000003e0: fa6f 9f3d 5af6 853d 8a8e 02bd 6c91 8f3d
000003f0: f4e2 c03b 3992 79bb 60a6 7dbb 9d99 5ebb
0.0017772234 -0.0023926217 -0.003259313 -0.0016522368 -0.008437631 -0.0028906749 -0.0020545619 -0.0052649714
0.0059724287 -0.004426019 -0.0026513361 -0.0009100828 -0.0055127945 -5.376848e-05 -0.0032770962 -0.0056963945
0.00016692671 0.006024749 0.0016758286 0.005613034 -6.6551525e-05 -0.0023753617 0.005484878 -0.0036240006
-0.05235885 -0.03090643 -0.030575966 -0.0040680473 -0.10181383 -0.0024144433 -0.054523777 0.08931064
0.043174617 -0.0055373097 0.0016678954 -0.0017901224 -0.061385617 -0.0023937472 -0.011181183 -0.0051772525
-0.1444737 0.0032589613 -0.032181133 0.12677462 0.0684493 -0.004718177 -0.0033511627 0.0061710556
-0.0070625623 -0.004875471 0.0022578011 -0.0012238239 0.0025797377 -0.008506797 0.0002089521 -0.00018608301
-0.0032958426 -0.0022521436 -0.008449887 0.0049975263 -0.014883823 -0.010748332 0.0015572654 -0.0031598234
-0.022014268 -0.0017829182 -0.022329157 0.0060511343 0.024536932 0.021362053 -0.0060641957 0.01976132
-0.003013797 -0.008624249 -0.0026070066 -0.0017874521 -0.0050434167 -0.01126139 -0.007559948 -7.157205e-05
-0.0038847835 0.00034385387 -0.00695254 -0.0009343552 -0.017223524 -0.023937857 -0.01889453 -0.0020537707
-0.018522339 -0.0013162198 -0.021454059 -0.010972888 -0.016806277 -0.0066348338 -0.005838964 -0.004355503
-0.032790124 -0.012388395 -0.012773725 -0.016239334 -0.031186843 -0.008824693 -0.011594964 0.052096095
0.025711667 -0.01799517 -0.014170761 -0.011013028 -0.0010517879 -0.005225403 0.002247394 -0.0017348018
-0.0032759442 0.004298462 -0.00023099042 -0.0038901349 -0.0040721684 0.006409064 0.004426556 -0.004879888
-0.03447036 -0.0147651965 -0.011683769 -0.0058285887 -0.027824588 0.0022674997 -0.023715004 0.037069336
0.018788874 -0.006533283 0.0036784033 0.0062131113 -0.00205469 -0.0060816905 0.001991167 -0.0047712675
-0.0044464245 0.0018550609 -0.0006462617 -0.00046290716 0.006104113 -0.0011936844 0.0041425284 -0.0021180033
-0.028747648 -0.0044985586 -0.0007984983 -0.0055289897 -0.042523574 -0.0202147 -0.05965912 0.0053345505
0.056637153 0.029748488 -0.01580439 0.047150936 -0.20541634 -0.045870952 -0.059042137 -0.0063695563
-0.28221002 0.0043394123 -0.106393054 0.31754 0.4229623 -0.0017628294 -0.002788869 0.0026976932
-0.012248728 -0.003744157 -0.0026409745 -0.00423329 -0.028737532 -0.016730616 -0.028136456 -0.0013056782
0.02628754 0.0067514344 -0.004288964 0.01848493 -0.039249487 -0.008845392 -0.014938708 -0.005297244
-0.054718554 -0.002627976 -0.045473553 0.06330192 0.04025147 0.0032156787 0.005299074 0.0006688472
-0.010364679 -0.010228977 -0.0033381695 -0.0026017001 -0.014863243 -8.895243e-05 -0.029816 0.002915022
0.015772816 0.003109711 -0.00770869 0.0088139195 -0.011601935 -0.0052232137 -0.012882663 -0.0032456846
-0.021892725 -0.00074363337 -0.015464775 0.0020729878 0.016483925 0.010933029 -0.00025945136 0.014169439
0.0016819667 -0.0011241405 -0.00011901568 -0.0020529625 -0.0026932731 0.003936792 0.002920394 -0.0030041682
-0.0059976233 0.0033275543 -0.006260093 -0.00030114787 -0.063677154 -0.0026435575 -0.004920786 -0.0055929716
-0.09983136 -0.0040236814 -0.04921601 0.08938182 0.06724883 -0.0017250286 0.0012483371 -0.0032189921
-0.047460373 -0.0033118448 0.0007022206 -0.0015994675 -0.059386615 -0.03141667 -0.060240813 0.0075619393
0.0778503 0.065411285 -0.031874217 0.07010159 0.00588643 -0.003808154 -0.0038703904 -0.0033966072

conv1.nn.0.bias f4 [64]
00000000: 527d 0fbc 3c9a 723b 1886 acbd e0cb dbbd
00000010: 48e6 373b 7f7e 52bb 27f3 5f3b 042d cfbc
00000020: 4cd4 09bd 5975 e739 07da 18bd 824c 643b
00000030: c50b b6bb db73 93be 47d1 83bb 1721 7abd
00000040: fd90 14bc 0eb8 82bc 8dc2 f93a da9a a4bd
00000050: 2efe dbbb a2ec 96bb 76bb 58ba 4baa 2cbc
00000060: 7eb0 ecbd da89 48bf 606e d8bd dc9c abbc
00000070: d7a6 c9bb 91de 9dbb ff06 06b9 6546 adb8
00000080: 77c5 85bd fa67 50bb 4345 8bbb 282b eabd
00000090: 920d 07ba 385b 50ba c01c d33b 0dce 83bb
000000a0: 4355 a5bd f9c1 8bbb 36cb 643b 2155 5abc
000000b0: 72d9 b7bd 4b50 02bf a92f 13bc 8a8f 11bf
000000c0: d799 babb f407 e7bb 6a45 06be d839 47bd
000000d0: 0b1b 93bb 2854 b139 7b19 85ba 901b efbc
000000e0: 858f 0abb 1878 843b c727 efbc 57f8 38bb
000000f0: 6589 6dbb 67da 57bd 3f3f 14bd bebb 64bd
-0.008757906 0.00370182 -0.08424014 -0.107322454 0.0028060842 -0.0032118855 0.003417203 -0.02529002
-0.033649728 0.00044147184 -0.037317302 0.0034835641 -0.0055556023 -0.28799328 -0.0040227505 -0.061066713
-0.009067771 -0.015956905 0.0019055173 -0.08037348 -0.00671365 -0.0046058455 -0.000826768 -0.010538648
-0.11557101 -0.78335345 -0.10567927 -0.02094882 -0.006153922 -0.0048177917 -0.00012781842 -8.262395e-05
-0.06531804 -0.0031800256 -0.0042502 -0.11434013 -0.00051518634 -0.0007948163 0.0064426363 -0.004022366
-0.08072903 -0.0042650667 0.0034911162 -0.01332596 -0.08977021 -0.5090377 -0.008983531 -0.5685965
-0.0056946087 -0.0070505086 -0.13112417 -0.04863915 -0.0044893078 0.00033822772 -0.0010154688 -0.029187948
-0.0021142673 0.0040426366 -0.029193772 -0.0028224194 -0.0036245224 -0.05269852 -0.03619313 -0.055843107

conv1.nn.2.weight f4 [64]
00000000: a2c4 a33c 981f c13c e428 b638 d02e 68bb
00000010: 469e c93c 6e84 a73c c78f b43c 0da3 9abc
00000020: 145b 273c 981f c13c d7b1 0b3b 981f c13c
00000030: 9b7d b83c d167 053b 451c b43c c197 f03a
00000040: 5bcc 8d3c 5922 b53c 981f c13c 8a8e 06b7
00000050: 91d9 e03c 981f c13c a5e8 953c c7d9 b83b
00000060: 93cf caba 5e97 d6bd 4c59 86bb 6b14 4a3c
00000070: 3507 a73c f619 b13c 8f3f 8d3c 06a7 e0bb
00000080: b00a 4cbb 4387 8e3c 58f2 b13c fab8 c4bc
00000090: c8c7 ba3c 981f c13c 981f c13c 0fdd f13c
000000a0: ba13 2dbc b7c6 ba3c c5ae 983c 48bb b63c
000000b0: a0bd c539 6c5d a83d 0bc9 ff3c fdfa a93f
000000c0: 1eb1 843c 96d2 1e3d 6827 183b 84c7 c4b8
000000d0: 6afe b13c fd96 9e3c 981f c13c 521f 90bb
000000e0: 981f c13c b9a3 9e3c a59f 9eba dfc4 af3c
000000f0: 7a93 17b8 f8ad dc3a 644e 073b 1a2a 8eb9
0.019991223 0.023574635 8.686053e-05 -0.0035428293 0.024611603 0.02044889 0.022041215 -0.018876577
0.010214586 0.023574635 0.0021315718 0.023574635 0.02252083 0.002035607 0.021986136 0.0018355773
0.017309358 0.022111105 0.023574635 -8.02021e-06 0.027447494 0.023574635 0.01829941 0.0056411955
-0.0015473239 -0.1047809 -0.0041000005 0.01233397 0.020389179 0.021618824 0.017242221 -0.0068558482
-0.00311343 0.017398482 0.021722004 -0.024013985 0.022800341 0.023574635 0.023574635 0.029524354
-0.010563785 0.022799833 0.018638024 0.0223061 0.0003771605 0.08220944 0.031223794 1.327972
0.016197737 0.03877505 0.0023216847 -9.383171e-05 0.02172776 0.019359106 0.023574635 -0.004398265
0.023574635 0.019365178 -0.0012102021 0.02145618 -3.6138554e-05 0.0016836515 0.002064609 -0.0002711572

conv1.nn.2.bias f4 [64]
00000000: e759 573a f043 7c3c a52a edbb 4eb3 c23b
00000010: 9c37 93ba 6b30 adbb 23e0 9bbb 4339 7bbc
00000020: 99da dc3c 6d60 0ebd e4d8 8d3b f21b 8f3b
00000030: cc92 56bb e5a9 0bbb 8fe0 aa3c d0d0 573c
00000040: 6a18 873c 41d2 8a3b e671 ffbb f959 c43d
00000050: afb2 d43b bff5 d53a 9806 443b aacc d63b
00000060: 7824 123d e7de 1bbc 588a 61bb f032 dc3c
00000070: 7d86 62bb 2a7b 4bbc e0f4 133d 307a ffbb
00000080: 876d 8c3c 1b46 a63c 10bd 273c 1a3f 37bb
00000090: e9ec cc3b b05b 723a 167e 103a 2709 2bbb
000000a0: a290 113b 6ea8 943a 9b63 f53b aa88 85bb
000000b0: 3f33 a13c 7d1a fbbb c912 46bd efb9 b9be
000000c0: bd76 52bc cced 9abc b9bc eebc e06d 2d3b
000000d0: a4b0 3fbc 61e4 abbb e309 0abc bfdb a3bc
000000e0: de42 d8bb 2d12 9ebb 1679 203c 1cf2 3f3b
000000f0: b2e9 633c d183 2b3b 8db5 d4bc d9de 1abc
0.00082149956 0.015397057 -0.0072377496 0.005941785 -0.0011231783 -0.005285313 -0.004756944 -0.0153334765
0.026959704 -0.034759928 0.004328834 0.004367345 -0.0032741306 -0.0021310982 0.020859031 0.013172343
0.016491134 0.00423649 -0.00779556 0.095874734 0.0064910273 0.0016323848 0.0029911157 0.0065551596
0.03567931 -0.009513593 -0.0034414735 0.026879758 -0.0034565025 -0.012419501 0.036122203 -0.0077965483
0.01714207 0.0202971 0.010237947 -0.0027961195 0.006253828 0.000924523 0.00055119523 -0.0026097985
0.0022211452 0.00113417 0.0074886805 -0.0040751295 0.019677756 -0.0076630698 -0.04835776 -0.3627467
-0.012845692 -0.018912219 -0.029142724 0.0026463196 -0.011699829 -0.0052457307 -0.008425209 -0.020002244
-0.006599768 -0.004823944 0.009794494 0.0029288596 0.013910698 0.0026171098 -0.025965476 -0.009452545

conv1.nn.2.running_mean f4 [64]
00000000: 0400 0000 0000 0000 0400 0000 0400 0000
00000010: 0400 0000 0400 0000 0400 0000 0400 0000
00000020: 0400 0000 0000 0000 0400 0000 0000 0000
00000030: 0400 0000 0400 0000 0400 0000 0400 0000
00000040: 0400 0000 0400 0000 0000 0000 0400 0000
00000050: 0400 0000 0000 0000 0400 0000 0400 0000
00000060: 0400 0000 0400 0000 0400 0000 0400 0000
00000070: 0400 0000 0400 0000 0400 0000 0400 0000
00000080: 0400 0000 0400 0000 0400 0000 0400 0000
00000090: 0400 0000 0000 0000 0000 0000 0400 0000
000000a0: 0400 0000 0400 0000 0400 0000 0400 0000
000000b0: 0400 0000 0400 0000 0400 0000 40fc 9947
000000c0: 0400 0000 0400 0000 0400 0000 0400 0000
000000d0: 0400 0000 0400 0000 0000 0000 0400 0000
000000e0: 0000 0000 0400 0000 0400 0000 0400 0000
000000f0: 0400 0000 0400 0000 0400 0000 0400 0000
6e-45 0.0 6e-45 6e-45 6e-45 6e-45 6e-45 6e-45
6e-45 0.0 6e-45 0.0 6e-45 6e-45 6e-45 6e-45
6e-45 6e-45 0.0 6e-45 6e-45 0.0 6e-45 6e-45
6e-45 6e-45 6e-45 6e-45 6e-45 6e-45 6e-45 6e-45
6e-45 6e-45 6e-45 6e-45 6e-45 0.0 0.0 6e-45
6e-45 6e-45 6e-45 6e-45 6e-45 6e-45 6e-45 78840.5
6e-45 6e-45 6e-45 6e-45 6e-45 6e-45 0.0 6e-45
0.0 6e-45 6e-45 6e-45 6e-45 6e-45 6e-45 6e-45

conv1.nn.2.running_var f4 [64]
00000000: 0400 0000 0400 0000 0400 0000 0400 0000
00000010: 0400 0000 0400 0000 0400 0000 0400 0000
00000020: 0400 0000 0400 0000 0400 0000 0400 0000
00000030: 0400 0000 0400 0000 0400 0000 0400 0000
00000040: 0400 0000 0400 0000 0400 0000 0400 0000
00000050: 0400 0000 0400 0000 0400 0000 0400 0000
00000060: 0400 0000 0400 0000 0400 0000 0400 0000
00000070: 0400 0000 0400 0000 0400 0000 0400 0000
00000080: 0400 0000 0400 0000 0400 0000 0400 0000
00000090: 0400 0000 0400 0000 0400 0000 0400 0000
000000a0: 0400 0000 0400 0000 0400 0000 0400 0000
000000b0: 0400 0000 0400 0000 0400 0000 2721 ae4f
000000c0: 0400 0000 0400 0000 0400 0000 0400 0000
000000d0: 0400 0000 0400 0000 0400 0000 0400 0000
000000e0: 0400 0000 0400 0000 0400 0000 0400 0000
000000f0: 0400 0000 0400 0000 0400 0000 0400 0000
6e-45 6e-45 6e-45 6e-45 6e-45 6e-45 6e-45 6e-45
6e-45 6e-45 6e-45 6e-45 6e-45 6e-45 6e-45 6e-45
6e-45 6e-45 6e-45 6e-45 6e-45 6e-45 6e-45 6e-45
6e-45 6e-45 6e-45 6e-45 6e-45 6e-45 6e-45 6e-45
6e-45 6e-45 6e-45 6e-45 6e-45 6e-45 6e-45 6e-45
6e-45 6e-45 6e-45 6e-45 6e-45 6e-45 6e-45 5.8428165e+09
6e-45 6e-45 6e-45 6e-45 6e-45 6e-45 6e-45 6e-45
6e-45 6e-45 6e-45 6e-45 6e-45 6e-45 6e-45 6e-45

conv1.nn.4.weight f4 [64, 64]
00000000: faa8 0f3e 3097 b83c 276d e5bc 6497 b03d
00000010: ba7b 21be 5481 59bd 6185 f73d d563 4bbb
00000020: d393 9cbe 9c4c ea3c 79ff b0bd 155e d93c
00000030: b1ab fc3d cd4e 32be 9d9f 0fbe 97ac 233e
00000040: 4c12 d8bd 579a 2e3d 24a6 673e 376b 5abe
00000050: 7dfd 413e 2ee9 bb3d 5862 123a 2a25 3b3e
00000060: ce23 11be b516 433e 63a0 863e dcfb c3be
00000070: cc2a 3b3e 696c 3f3d 3edb 90be 059d 4dbe
00000080: 6bd7 02be 0e5c 07bd 79d8 cbbd ee90 8fbc
00000090: 4a6a bcbe 82b7 483d c3c0 e63d 5dc7 a9be
000000a0: fb9c 13be ad4d a23e 67e4 6abd 125c a9bd
000000b0: 968c 7b3d e4ba b4bd cb74 a43e fb1d 34be
000000c0: fedb 633e 6159 a2bc 65c8 04be ecf1 183e
000000d0: a1b4 1b3e 8b02 e2be f383 753e 130a 86be
000000e0: 96ee 153e 11f9 0f3e 9105 11be 8514 613e
000000f0: f1e9 7bbd 7a24 66bc f5c9 c33d 4805 093e
00000100: 4bb0 e93c a151 1ebd 0c94 98bc b03c c4bc
00000110: 033a 273d 5480 373b 1dc9 f33b 6dda 8e3d
00000120: b0e1 25bd 070f 2c3d 7774 403d b3f8 57bd
00000130: 5c7b ebbb 0cbe e839 eef9 eb3c 2c08 31bc
00000140: b911 83bd 16ad 073d 966d 71bd dbed d9bc
00000150: cd95 cb3d ca8e 193d 6b0b 593d 2d94 1cbd
00000160: 0c49 273b d23c 5b3d 259a 8a3d 847e d73a
00000170: b15e bebc 9991 32bd 5676 dabc f161 e43c
00000180: 392d 81bc 0320 803c 0394 17bd 59ff 4d3c
00000190: f951 583d 14c2 223d 06cb e3bc be4c afbd
000001a0: 71c4 813d a402 003c e926 f6bc f8ba a7bc
000001b0: df31 dc3c 94f9 08bb 5ee5 c83c 6c56 74bc
000001c0: 7f6f 6e3c a782 47bc 8b0d 2b3d dc35 003d
000001d0: 4651 46bd 1232 0dbe ea44 1abc 7d65 79bc
000001e0: 0b9b 0dbd cb54 29bc e2e7 c7bd 7b94 a4bd
000001f0: 369c 8bbc 5b9b 7cbd 4c5d 773c 64da 6cbc
00000200: 3d73 4d3e a8bd 2b3e 4c0a a13c 791e 0a3c
00000210: d166 9bbc 1045 dbbd 8965 b4bc 0052 0e3d
00000220: abfd 37bd ff65 573e ef71 a1bc 89df b7bd
00000230: cefb 293d f8b2 dc3d 8705 593c bc8b 573e
00000240: 0f66 51be 7aaf c03d d87b 1c3d bac8 f6bd
00000250: 5995 1a3e d6a8 4b3e 571a 0e3e c448 c6bd
00000260: a1dc 783e 736c db3c 0895 b0bd a067 483b
00000270: 3ed3 3abe 2c37 eabd e370 ccbd f68f b43d
00000280: 22b9 0d3e 1be6 863e 49cb efbd cb04 10bd
00000290: b648 adbc 6399 863c 6ec5 fc3d 02f9 053d
000002a0: 22bc 963d ccb4 49bd 0a01 d53d 4e74 08bd
000002b0: d37c c73d 652a 5a3d 2b5a ae3e 8d32 c5bc
000002c0: 5711 633e 9966 233d d879 db3d 7b2c 5fbd
000002d0: a91d a5bd e986 06bd e107 053e 6de6 923d
000002e0: cf4c 603e 6627 93bd 309e e8bd 92d9 153e
000002f0: 192f 6abd dd8a b9bc f84c 8d3e 9c19 0bbe
00000300: b63d 8d3c 9717 b4bc b57a 1c3c c4a9 15bc
00000310: 614a 10bd 0b8b 93bc 7f79 db3a 28e3 a6ba
00000320: 4032 7cbd 3063 8f3c 5e7d 083d a4d3 32bc
00000330: c5dc 1e3d a41a 6d3c baca e0bc 5b5a 88bc
00000340: 284c d4bc f36c 053c e541 223d 56e4 ddbd
00000350: 5d41 123c a253 7d3d 5aae 8bbc c8e4 a93c
00000360: fbf2 38bd 7263 e9bb c21c 643d 1fd5 c6bc
00000370: 5182 fc3c be17 b13c 10d3 e5bc e2b3 54bc
00000380: d8b9 59bd 4b9a 2cbd 006e 56bd 47a4 a63c
00000390: ba89 2e3c 568c ba3c 0161 373b b502 3a3c
000003a0: 501f f6bb f6b7 af3b c5c6 02bd e4a5 e7bb
000003b0: ba1c ffbb bc04 02bc 619f cd3c a6a9 d2bf
000003c0: 8479 143d 02ed 3b39 c027 c2bc be82 283b
000003d0: c5c4 07bc 88c2 3f3c 688f 0b3d ba27 12bd
000003e0: f253 c23c 810d fb3c 742d 0abc ab89 b13c
000003f0: 6f32 58bd 97a9 913b 57b7 3f3d 6813 073d
0.14029303 0.02253303 -0.02800615 0.086226255 -0.15769854 -0.053101853 0.12085987 -0.0031034846
-0.3058153 0.028600983 -0.086424775 0.02653412 0.12337435 -0.17412873 -0.14025731 0.15983807
-0.10550365 0.04262766 0.22621971 -0.21329962 0.18944354 0.09175335 0.00055841124 0.18275896
-0.14173815 0.19051631 0.2629424 -0.3827809 0.18278044 0.046734247 -0.2829227 -0.2007943
-0.12777488 -0.033046775 -0.09953398 -0.017525163 -0.36799842 0.04900313 0.11267235 -0.33159915
-0.14415352 0.31699887 -0.057346728 -0.08269514 0.06141337 -0.08824709 0.32120356 -0.17589562
0.22251889 -0.01981801 -0.1296707 0.14936036 0.15205623 -0.44142565 0.23976116 -0.2617956
0.14641795 0.14059855 -0.1416228 0.21980484 -0.0615024 -0.014046783 0.095600046 0.13380921
0.028526446 -0.038652066 -0.018625282 -0.02395472 0.04082681 0.0028000074 0.007439746 0.06975255
-0.040498435 0.04200652 0.04698607 -0.052727412 -0.0071863364 0.00044392084 0.0288057 -0.010805171
-0.06399865 0.033124052 -0.0589424 -0.026602676 0.099406816 0.03748969 0.052989405 -0.03822725
0.0025525717 0.0535248 0.06767682 0.0016440903 -0.023238512 -0.043595884 -0.026667755 0.027878733
-0.015768634 0.015640264 -0.03700639 0.012573087 0.05281255 0.03973587 -0.02780677 -0.08559559
0.06336296 0.00781313 -0.03004785 -0.020474896 0.02687925 -0.0020900713 0.024523433 -0.014913183
0.01455295 -0.012177146 0.041760962 0.031301364 -0.048417352 -0.13788632 -0.009415844 -0.015221951
-0.03457169 -0.010335158 -0.09761025 -0.08036133 -0.01704226 -0.061671596 0.015097927 -0.014456365
0.20063491 0.16771567 0.01965823 0.008430117 -0.018969925 -0.10706532 -0.022021072 0.03474617
-0.04491965 0.21035002 -0.019707648 -0.08978183 0.041499905 0.10776323 0.013245947 0.21049398
-0.20449089 0.094084695 0.038204044 -0.12050004 0.15096034 0.19888625 0.13877235 -0.09681848
0.24302913 0.026785111 -0.086221755 0.0030579343 -0.18244645 -0.114363045 -0.09982469 0.08816521
0.13840154 0.26347432 -0.117086954 -0.03516082 -0.021152835 0.016430562 0.12342344 0.032708175
0.07360102 -0.049244687 0.10400589 -0.03331404 0.09740605 0.053263087 0.34053168 -0.024071956
0.22174583 0.039892767 0.10716599 -0.05448578 -0.08062298 -0.032843504 0.12991287 0.071728565
0.219043 -0.07185249 -0.11358297 0.14633778 -0.057173822 -0.022649223 0.27597785 -0.13583988
0.01724134 -0.021983905 0.00955074 -0.009134714 -0.035227183 -0.018010637 0.0016744583 -0.0012732493
-0.06157136 0.017503351 0.033322684 -0.010914717 0.03878476 0.014471684 -0.027440418 -0.016644647
-0.02591522 0.008143651 0.039613623 -0.10834567 0.008926717 0.061847337 -0.01705091 0.020738974
-0.0451536 -0.0071224505 0.055691488 -0.024271546 0.030823858 0.021617766 -0.028054744 -0.0129823405
-0.05315575 -0.042139333 -0.052350998 0.020342005 0.010652954 0.022771996 0.0027981403 0.0113531845
-0.007511057 0.005362506 -0.031927843 -0.0070693363 -0.007785407 -0.007935699 0.025100412 -1.6458023
0.0362487 0.00017922002 -0.023700595 0.0025712694 -0.00828666 0.011704095 0.03407231 -0.035682417
0.023721669 0.030646088 -0.008433688 0.02167209 -0.052782472 0.0044452655 0.046805706 0.03297749

conv1.nn.4.bias f4 [64]
00000000: abe1 00bf b42d 53be 95bc a8be d4aa b0be
00000010: 7461 59bf be35 893f 95e0 a5be 9328 dfbe
00000020: 2bd5 a9bd 80c2 4ebe 0549 d9be 3c54 50be
00000030: 16cd fcbe 339a 07bf 6151 b5be 7c8b febe
00000040: 09f2 19be b9a5 adbe 5c12 11be 6c24 08bf
00000050: 8192 2cbf 896a 9dbd 911a debe 0d72 1ebf
00000060: ba78 a8bd 58b4 8abe f137 13bf 2f9d 0fbe
00000070: 585e b8be 29a2 10bf 1d5f dbbe f3b7 e9be
00000080: 4992 e8bd d5eb 68be e378 b1be 4bd0 35bf
00000090: 5c9b d3be 039e a4be 03ab dcbe 2fd2 ddbe
000000a0: ddfb 89bd ef5d 65be 4c3f 2cbf d403 febd
000000b0: 571a 0dbf 7e04 01be e74b d1be 6a69 e13f
000000c0: 3a01 b9be 36c1 08be 3218 1abf 8cbb 2abf
000000d0: 34c2 00be 2572 e5be c6c0 d23e 0917 87be
000000e0: 7ec9 12bf d44b e9be b8c7 24be d39a 8cbe
000000f0: 5ea9 ebbe 7bc1 65be 7f7d 20bf a3a7 bdbe
-0.5034434 -0.20622903 -0.32956377 -0.34505332 -0.84914327 1.0719526 -0.32397905 -0.43585643
-0.08292612 -0.20191383 -0.42438522 -0.20344633 -0.49375218 -0.52969664 -0.3541365 -0.49715793
-0.15033735 -0.339155 -0.1416716 -0.53180575 -0.6741105 -0.076863356 -0.43379644 -0.6189278
-0.08226152 -0.27090716 -0.57507235 -0.14024805 -0.3600948 -0.56497437 -0.42846003 -0.45648155
-0.11356027 -0.22746213 -0.34662542 -0.71020955 -0.41329467 -0.32151803 -0.43099222 -0.4332442
-0.06737492 -0.22399114 -0.67284083 -0.12403074 -0.55118316 -0.1259937 -0.4087822 1.7610295
-0.36133748 -0.13354954 -0.6019317 -0.66692424 -0.12574083 -0.44813648 0.411627 -0.26384762
-0.573387 -0.45565665 -0.16091812 -0.27461872 -0.46027654 -0.22437088 -0.6269149 -0.3704196

conv2.nn.0.weight f4 [64, 64]
00000000: 74a0 47be 893b 013d e346 43be 2e92 a1c0
00000010: dec1 ef3c d8bc 033e 3a28 22be 74b7 3e3e
00000020: 7cb0 aabc f3b3 93bd cf8e a8bd 86c2 ecbd
00000030: 196e 4c3d 3cf1 62bd 6f06 813e 0095 943e
00000040: c672 babd af73 5ebe 7b1d 4c3d 193f 7ebe
00000050: 624b 8ebe e880 d4bb 6ed8 97be 4267 aabe
00000060: e844 183d 91c5 4fbe c4d7 ffbc e1c7 bd3d
00000070: 2acf 97be 635d f4bf 5fec 013e f99d f63d
00000080: 98bd 193d 9c3c 75be c98d b2be e700 633d
00000090: d2c0 5dbe ac2d 3ebd cc6b edbd fd7d 97bd
000000a0: 266b f7bd f358 51bd 0a51 cd3c 1478 f0bd
000000b0: cba4 52be 6a10 fdbb f4f5 94be 069a 7e3e
000000c0: ec1d a0c0 c6d0 8fbd 3ce3 c43d b574 3f3d
000000d0: 0b78 15bc cbfd b3bc e7f3 44c0 4b38 41be
000000e0: 8613 f23e e940 48be 8986 ffbc 0779 23bf
000000f0: 9ce5 59bf ad78 363d c72d fabe bfa3 3abe
00000100: 1010 94b8 4101 90bb 5c04 44bb 6fd6 2dbe
00000110: 6050 78bc 9c65 43be 14fb 5dbc 3689 483b
00000120: d959 05bb 4dcc a6bc f5e6 88bc 6255 80bc
00000130: 729a 9cba 70c3 40bb 359c 37ba 88b8 49bb
00000140: 37dc 99bc c833 a9ba 2487 7cbc 0e6e 48bb
00000150: de59 f239 581d 75bc 16dd a1bc 5765 1e3a
00000160: 1dd9 0dbb fd8b 003a 40ea 30be eea4 003b
00000170: 320f 3dbb 5c02 2ebe cd55 9fbb f53e 073b
00000180: 73ce d1ba 7862 5fb9 254a 91bc a01b a9ba
00000190: b414 8fbb 54a7 a0bc f668 83bc 757e 0b3a
000001a0: 1c5b 71bc 58be 9fbc 057a 23bb 5cb9 7bbc
000001b0: 864d fa3a 34b1 14ba 5271 393a 2ce8 42be
000001c0: a616 05bb 9735 52bc 84b8 a2bc 0ee2 94bc
000001d0: 772f 70bc ce99 2ebe 1fb0 58bb a4a7 80bc
000001e0: dc08 8dbc 469b 7dbc fdc6 a4bc 92d8 2bbe
000001f0: afc5 a4bc 2c91 75bb edf2 a4bc 9afc 7dbc
00000200: ac2b 8ebe 1d4f b33c e9a3 c23d 37a6 87be
00000210: 07bc e1bd e719 283f 369c 86be 9871 c8bd
00000220: c96b 78bc bec2 a5bc e64e 8cbc 1ab8 36be
00000230: c541 27be 7748 7cbe 6164 663d 5987 3cbe
00000240: 3841 9fbb 1495 0e3e 4eb4 443d 5f88 80be
00000250: 301a 07be d0ed d53c ea44 42be 7d3b 71be
00000260: 2f93 033d 664c 73bd d449 993d 5885 5bbd
00000270: 7c9c 20be c41c 23be 1314 8ebe a603 28bc
00000280: 7145 03bd 0526 2cbe a4ba a9be e1df 9bbe
00000290: 298a 29be db73 26bd 7777 853d 0aeb ee3c
000002a0: 7c8d 823e b8f8 183d 17c2 91be b48d d7bd
000002b0: 98e6 42ba 2c10 b23b 8f30 4b3e fb41 8d3f
000002c0: e821 87be 1f63 1ebd 8a2a 47be 893c 093d
000002d0: 5f57 933d 5200 11bf 2e45 c9bd f7f1 7abc
000002e0: 06de 0a3d 565f 16be b1cd 57bd 9ba0 b7bc
000002f0: 6f90 a43d 368f 04be ba29 c7be 2cde 37bd
00000300: 013f f23d 92be a33c 6956 5d3d a287 123d
00000310: 1509 afbc d176 90be 95f4 963e 0cef 85bb
00000320: 20f4 80b9 35d6 43bd e3d1 01bc 0b65 7bbe
00000330: f7a7 5ebd 3728 a6bd 369b 39be 26c9 a43b
00000340: 6dce d6bc f7d1 913b fad4 08bd 907b 2a3c
00000350: 087c ad3a f57c 8c3c da6b a1bc 3176 693c
00000360: 956e 523d 4f42 0fbd 1b78 86bd c2fb 053e
00000370: f040 ba3c 66de d43d f0e8 4f3d 410e 2f3d
00000380: 4580 e3bb cafb 7f3a 84e7 6bbd e839 233d
00000390: 3f16 903d 4906 b7bc f230 71bd 48cb 553d
000003a0: d5a9 4ebe 37a2 afbd 904a f43d 7f4f 713d
000003b0: 10e9 f83b 8f2d 903d e52d b73b e33f 11bf
000003c0: 1feb 2d3d be83 523d b588 49bd 7fa5 663c
000003d0: e519 01bd 71d7 5abe e565 0abe 678c aabb
000003e0: e6c1 2abd 3c37 193c ef60 48ba d0b4 27be
000003f0: d154 dfbc 29f7 063c 4990 8ebc ef8c 02bc
-0.19494802 0.031550918 -0.1907001 -5.049094 0.029267248 0.12865007 -0.15835658 0.1862467
-0.020836107 -0.07212057 -0.082303636 -0.1156054 0.049909685 -0.05540584 0.2520022 0.29019928
-0.091039225 -0.21723817 0.049832802 -0.24828757 -0.27791888 -0.0064850934 -0.2965731 -0.33281904
0.03717509 -0.2029021 -0.031230815 0.092666395 -0.2965024 -1.9090999 0.12687825 0.1204185
0.037534326 -0.23948902 -0.34873798 0.055420782 -0.21655586 -0.046430275 -0.11592826 -0.07397077
-0.12080984 -0.05111022 0.025063056 -0.11741653 -0.20570676 -0.007722904 -0.29093897 0.24863443
-5.0036526 -0.07022242 0.09613654 0.04674216 -0.009122859 -0.021971604 -3.0773866 -0.1886913
0.4728052 -0.19556011 -0.031192081 -0.6385655 -0.8511598 0.04454868 -0.4886305 -0.18226527
-7.060182e-05 -0.0043946807 -0.0029909825 -0.16976331 -0.015155882 -0.1908173 -0.013548631 0.0030599362
-0.0020347743 -0.02036109 -0.016711691 -0.015665714 -0.0011947884 -0.0029413365 -0.00070041727 -0.0030780155
-0.018781764 -0.0012909109 -0.015413079 -0.0030583176 0.00046224793 -0.014960609 -0.019758742 0.00060423225
-0.0021644302 0.00049036724 -0.1727686 0.0019629556 -0.0028848168 -0.16993088 -0.004862523 0.002063689
-0.0016006961 -0.0002130362 -0.01773555 -0.001290191 -0.0043664817 -0.019611038 -0.01604126 0.0005321273
-0.014731195 -0.019499943 -0.0024944555 -0.015364017 0.001909659 -0.0005672157 0.0007074076 -0.19033879
-0.002030769 -0.01283016 -0.019863375 -0.018174198 -0.014659754 -0.1705086 -0.003306396 -0.015704937
-0.017216139 -0.015478915 -0.020114416 -0.16781834 -0.020113794 -0.0037470562 -0.020135367 -0.015502119
-0.27767694 0.02188831 0.0950392 -0.26494 -0.110221915 0.65664524 -0.26291054 -0.09787291
-0.015162417 -0.020234462 -0.017127465 -0.17843667 -0.16333683 -0.24637018 0.056248073 -0.18411006
-0.0048600696 0.13924056 0.048023514 -0.25104043 -0.13193583 0.026114374 -0.18971601 -0.23557849
0.032122787 -0.05939903 0.07484785 -0.053593963 -0.15684694 -0.15928942 -0.2774969 -0.010254776
-0.032048646 -0.16811378 -0.33150208 -0.30444244 -0.1655661 -0.040637832 0.06516927 0.02916481
0.2549857 0.03734657 -0.2846839 -0.105250746 -0.0007434874 0.0054340567 0.19842742 1.1035761
-0.26393056 -0.038668748 -0.19449821 0.033504996 0.07194399 -0.56641114 -0.09827648 -0.015316478
0.033903144 -0.14684805 -0.052686397 -0.02241545 0.08035361 -0.12945256 -0.38899022 -0.044889614
0.11828423 0.019988332 0.054037485 0.03577388 -0.021366635 -0.2821565 0.29483476 -0.0040873345
-0.0002459595 -0.047811706 -0.007923576 -0.24550264 -0.054359403 -0.08113139 -0.18125615 0.0050288616
-0.026221478 0.0044500786 -0.033406235 0.010405436 0.0013235817 0.017149428 -0.019704748 0.01424937
0.05137499 -0.034975346 -0.06565877 0.13084319 0.022736043 0.10393982 0.050759256 0.042738203
-0.006942781 0.00097649975 -0.057593837 0.039850146 0.07035493 -0.022341864 -0.05888457 0.052195817
-0.20181973 -0.08575862 0.11928284 0.058913704 0.0075961426 0.070399396 0.005590188 -0.5673811
0.042460557 0.05139517 -0.04920264 0.014077543 -0.031518836 -0.21371247 -0.13515432 -0.0052047255
-0.041688822 0.009351548 -0.0007643839 -0.16377568 -0.027262123 0.0082376385 -0.017402785 -0.0079681715

conv2.nn.0.bias f4 [64]
00000000: e684 2d40 c02f 41be e4d6 48bf b9f1 49bd
00000010: 05ae 1ebe f9fa 363e b9d7 213f f107 e3bb
00000020: f5ad 453f 761c 0cbe 9811 1dbe 24f1 4b40
00000030: dcd0 bb3f 59ec db3e 17cb dc3f 510a 8c40
00000040: fa6b e63c bc74 e83f df01 6740 b2ed 13be
00000050: 014e 2ebe a527 2ebe 77fb 133f 054d 8840
00000060: f88e 7fbc fde4 4b3c 2487 e9bd 5b97 33be
00000070: 2020 a53e 0dfa 02be a077 413c 1550 44bd
00000080: 0138 69bc e01c 33be f5a7 243e 9e3d a73f
00000090: 07ef 12bf bdf2 4140 588b 46be e9bd a640
000000a0: ed14 30be 9698 9f40 f1b8 37be 30fb 0bbe
000000b0: 49b4 27be f4e4 923e 0a14 ce40 2cb7 29be
000000c0: 9403 1e40 db96 4440 cde8 8abc 58b3 c4bc
000000d0: b810 0340 0e3f 25bc 8e24 223f 26db 56bb
000000e0: 3541 24bd 5bc7 cdbd 7c21 8f3a f40e 20bc
000000f0: 3b28 3240 e963 8f3f bbc2 3340 f1dc c8bb
2.7112365 -0.18865871 -0.784529 -0.04930279 -0.1549607 0.17869176 0.6321979 -0.006928437
0.7721856 -0.13682732 -0.15338743 3.186593 1.4673114 0.42953756 1.7249478 4.3762593
0.02812766 1.8160625 3.6094892 -0.14446142 -0.17021944 -0.1700731 0.5780558 4.259402
-0.015598051 0.012444732 -0.11402729 -0.17538206 0.32251072 -0.127907 0.011808306 -0.047927935
-0.014234544 -0.17491484 0.16079696 1.3065679 -0.57395977 3.0304406 -0.19389093 5.2106824
-0.17195483 4.987376 -0.17941643 -0.13670039 -0.16377367 0.28690302 6.439946 -0.16573781
2.4689684 3.0717075 -0.016956711 -0.024011299 2.0478954 -0.010085834 0.6333703 -0.0032784431
-0.04010125 -0.1004779 0.0010920013 -0.00976919 2.7837055 1.1202365 2.8087604 -0.006129854

conv2.nn.2.weight f4 [64]
00000000: c3e2 873f d863 1dbe 0c95 4c3f d171 9bbd
00000010: b892 00be eb77 243e 7541 eebd e66e 0d3d
00000020: 044c 573f 0d87 aebd 2a44 803d 7b05 0ebf
00000030: 64c2 e9be d497 943f d054 bc3f 9bea 1b3f
00000040: 59c5 133c b363 173f a58c 253f 6851 09be
00000050: 2892 2d3e ca04 06be 52da 1ebe f11e 8c3f
00000060: 9a6f ae3c 22fb 273d c5e2 1c3f 4fb9 19be
00000070: a48a 843e 8d1a 5ebd 5fe5 cd3f 9d01 d03c
00000080: adec 903b bffb ba3e 68c1 3d3e e79b 533e
00000090: 983c 7e3f b453 55bf 2c94 01be 475c 3bbf
000000a0: 72b2 19be ef6f 843f bf1a 2bbe 6a96 f6bd
000000b0: ec4e c8bd 53bc 333e 8cf2 493f d3b7 373f
000000c0: 4465 64bf a0a0 303f 4086 473c 8307 363c
000000d0: 6d4d 933f 6ca1 a73c 9ea8 bd3f 6647 b23c
000000e0: cd97 bc3c ab49 a2bd 8bc7 04bb 54ff 8a3c
000000f0: 7066 803f d39d 3e3e e564 05bf 67bb c43c
1.0616077 -0.15370119 0.7991493 -0.07590068 -0.12555969 0.1606137 -0.11633579 0.03452959
0.84100366 -0.08521853 0.06263001 -0.5547711 -0.4565612 1.1608834 1.4713383 0.60904855
0.009019219 0.59136504 0.6466773 -0.1340996 0.16950285 -0.13087764 -0.1551297 1.0946943
0.02129345 0.041010983 0.6128352 -0.15012096 0.25887024 -0.05422454 1.6085624 0.025391394
0.004422745 0.36520192 0.1853081 0.20664941 0.9931121 -0.83330846 -0.1265418 -0.7318768
-0.15009478 1.034666 -0.16709422 -0.12040408 -0.09780678 0.17552309 0.7888572 0.7176487
-0.8921702 0.68995094 0.012178004 0.011110189 1.1508003 0.020462714 1.4817083 0.021762561
0.023021603 -0.07924207 -0.0020260538 0.016967453 1.0031261 0.18614893 -0.5210708 0.024015142

conv2.nn.2.bias f4 [64]
00000000: 0ade 043c 4a90 7e3e 0eda 353f e7ee 94bb
00000010: 1dfc 4fbc 0cc7 bdbc 98d1 d2bc c955 6bbc
00000020: 4763 173e dc63 a2be fc27 5cbc f867 bcbe
00000030: 8c9f a6be 2077 4c3f f18a 923e a5da 1c3f
00000040: f997 4bbc 1f8e 283f 12cb 123f 732c bebc
00000050: 4edb a2bc 3140 853e 1bae 69bc 8f88 443e
00000060: e1df 21bc 680b c43b 38a3 1a3e a959 e63b
00000070: d661 3fbe e840 3dbc a792 fc3e 6d1a d53b
00000080: 669f 8c3c ff12 94bc 7412 96bc 21ef 2abd
00000090: eb6d 303f 0cf6 d9bc 286e d73a 9e49 06bf
000000a0: 3a1f 05bc df62 01bc 9175 10bb 115f 4bbc
000000b0: 5059 1fbc 3032 37be b37e 1e3f ef33 293f
000000c0: c836 8abe a8d3 053f af11 6a3a 3bc7 26bd
000000d0: 8c89 373e 7b32 5f3c 8435 163f 8aeb 9fbb
000000e0: c958 94bb 1857 963b f3dd b0bc 048a 94bc
000000f0: a3c4 1e3f 2b1c d8bb 758d 86be 7640 2b3b
0.008109579 0.2485973 0.7103585 -0.004545081 -0.012694386 -0.023166202 -0.025734708 -0.0143637145
0.14783965 -0.31716812 -0.013437267 -0.36798072 -0.325436 0.7986927 0.2862163 0.61271125
-0.01242637 0.6584186 0.5734111 -0.023214554 -0.019879963 0.26025537 -0.014262701 0.19192718
-0.009880037 0.005982805 0.15101326 0.0070297313 -0.18689665 -0.011551119 0.49330637 0.0065033943
0.01716585 -0.018075464 -0.018319346 -0.041731957 0.6891772 -0.026606582 0.0016436027 -0.5245608
-0.008125121 -0.007897108 -0.0022042731 -0.012412802 -0.009725884 -0.17890239 0.6191208 0.6609487
-0.2699492 0.52276087 0.00089290267 -0.040717345 0.17923564 0.013622875 0.5867541 -0.0048803734
-0.0045271856 0.004588019 -0.021590209 -0.018132217 0.62018794 -0.0065951548 -0.26279798 0.002613095

conv2.nn.2.running_mean f4 [64]
00000000: 0c86 6c40 0400 0000 a34a 0943 0400 0000
00000010: 0400 0000 0400 0000 07bf 420c 0400 0000
00000020: ea1b a115 0400 0000 0400 0000 325c 6142
00000030: 1268 2642 091e a643 9606 b042 47a0 cd42
00000040: 0400 0000 1ef0 b542 3813 8d42 0400 0000
00000050: 0400 0000 0400 0000 0400 0000 b93e 7441
00000060: 0400 0000 0400 0000 0400 0000 0400 0000
00000070: 0400 0000 0400 0000 7d8b b743 0400 0000
00000080: 0400 0000 0400 0000 0400 0000 9395 8502
00000090: 3e0d 8143 4489 7f41 0400 0000 0753 cd42
000000a0: 0400 0000 5a4f af37 0400 0000 0400 0000
000000b0: 0400 0000 0400 0000 49c3 5842 a0ff 0a43
000000c0: 7e2f 5337 34a1 9442 0400 0000 0400 0000
000000d0: b9ec 9135 0400 0000 4b3c ef43 0400 0000
000000e0: 0400 0000 0400 0000 0400 0000 0400 0000
000000f0: 1ed1 e141 0400 0000 43c9 a942 0400 0000
3.6956816 6e-45 137.29155 6e-45 6e-45 6e-45 1.5002702e-31 6e-45
6.507142e-26 6e-45 6e-45 56.340034 41.60163 332.23465 88.01286 102.81304
6e-45 90.96898 70.53754 6e-45 6e-45 6e-45 6e-45 15.265313
6e-45 6e-45 6e-45 6e-45 6e-45 6e-45 367.08975 6e-45
6e-45 6e-45 6e-45 1.9628445e-37 258.10345 15.971012 6e-45 102.66216
6e-45 2.0898577e-05 6e-45 6e-45 6e-45 6e-45 54.19071 138.99854
1.2587638e-05 74.31485 6e-45 6e-45 1.0872237e-06 6e-45 478.47104 6e-45
6e-45 6e-45 6e-45 6e-45 28.227108 6e-45 84.89309 6e-45

conv2.nn.2.running_var f4 [64]
00000000: 6fb2 e242 0400 0000 f978 2b45 0400 0000
00000010: 0400 0000 0400 0000 7215 ce0a 0400 0000
00000020: cb29 2a17 0400 0000 0400 0000 e2dd 7645
00000030: 92d8 f744 8176 4b46 b749 4f46 d3b7 e845
00000040: 0400 0000 1986 3e45 1520 1945 0400 0000
00000050: 0400 0000 0400 0000 0400 0000 dabf 3444
00000060: 0400 0000 0400 0000 0400 0000 0400 0000
00000070: 0400 0000 0400 0000 f999 8146 0400 0000
00000080: 0400 0000 0400 0000 0400 0000 6d82 0b00
00000090: 175a eb45 de04 1245 0400 0000 47b8 de45
000000a0: 0400 0000 a9c6 5438 0400 0000 0400 0000
000000b0: 0400 0000 0400 0000 51c2 fc44 76c6 2145
000000c0: 90e8 9837 5f26 8545 0400 0000 0400 0000
000000d0: 0af9 a037 0400 0000 94a9 cf46 0400 0000
000000e0: 0400 0000 0400 0000 0400 0000 0400 0000
000000f0: c1ed e643 0400 0000 96dd 0346 0400 0000
113.3485 6e-45 2743.5608 6e-45 6e-45 6e-45 1.9845145e-32 6e-45
5.4982713e-25 6e-45 6e-45 3949.8677 1982.7678 13021.626 13266.429 7446.978
6e-45 3048.381 2450.0051 6e-45 6e-45 6e-45 6e-45 722.9977
6e-45 6e-45 6e-45 6e-45 6e-45 6e-45 16588.986 6e-45
6e-45 6e-45 6e-45 1.056978e-39 7531.261 2336.3042 6e-45 7127.0347
6e-45 5.0729755e-05 6e-45 6e-45 6e-45 6e-45 2022.0724 2588.4038
1.8228107e-05 4260.7964 6e-45 6e-45 1.9189454e-05 6e-45 26580.79 6e-45
6e-45 6e-45 6e-45 6e-45 461.85745 6e-45 8439.396 6e-45

conv2.nn.4.weight f4 [64, 64]
00000000: 7bd9 0dbf 894c ce3e 395b 76be 3df6 24be
00000010: 4d4b 1ebd a236 393c 4ba4 00be 9b71 febd
00000020: 6c2d b7bd 4b53 c6be 1897 f8bc ffeb 1abf
00000030: dbe8 03bf 64e8 1abf 5a10 98bf 3eb1 b33f
00000040: ce71 3a3d b9d6 8d3f fa24 a03f 6b40 223e
00000050: 4182 4a3e caa2 b03e 1cd2 8a3d f134 88bf
00000060: 87fb 363d 4125 bdbb 20d4 af3e 85d8 3f3e
00000070: 253d b7be aa8e c83b 53d7 3ebf 0cfd 8cbd
00000080: 9335 9e3d 31fb c73c f652 abbd de7d 973b
00000090: b0c9 1abf c21e 5e3f bf6f 44bd aafa 92bf
000000a0: 8990 4a3d d30e a2bf 72b9 3f3e 873a bebc
000000b0: 3bef 8abd 4e26 a7be ca31 613f 136b 7e3d
000000c0: 13ff 98bc dde7 b93f 754f 43bd 5aa3 dbbd
000000d0: f4ea a1bf 6e71 22bd e476 2fbf a048 13be
000000e0: 2685 8ebd 0688 ea3d 5f59 023d 3200 ee3b
000000f0: fc02 efbe 9ef0 7bbd 59f2 f5be 33a4 06be
00000100: 81dd 0e3f 8851 433e 0ac8 48bf 0ea9 1e3d
00000110: 1148 753d 98e5 3b3c bc4b a03d 8d82 e8ba
00000120: b7e8 d6be 51cb 0bbd b4fb 83bd 9764 3f3e
00000130: 5514 863e 4aa4 f6be aa7c 723e 477f 13c0
00000140: d26b fc3c 6054 fdbf c544 01c0 c7dc 30bb
00000150: 95eb ee3b fa1c f53d f378 84bd aff2 533e
00000160: 6224 843b 952f 13bc e3cb f63c f759 adbb
00000170: 3d80 863c 7d36 0bbc d1e6 adbd 076c 1f3d
00000180: a4dc 51bd aec4 83bc 8338 543c 8b94 f7bd
00000190: 45fb 04bf 8864 99be 164a 4b3d 2a30 153f
000001a0: ff54 5dbd 48f2 023d 98ce 4bbd 2925 bc3c
000001b0: 4c68 e7bc 304c 06be 7542 d9bf 84d9 afbf
000001c0: 2ba2 a63e b39c 21c0 5c93 39bd 1639 6b3d
000001d0: 3885 d33e 7e64 d1bc 23ed 16be ca8b c73c
000001e0: b513 04bb 0ae5 85bc 55f9 903d 57cc 04bd
000001f0: ead7 0abf 44df 28bd dd8e 373e 6c7b 42bd
00000200: 6d34 f83e 9a5a c93e 2ad3 ddbe c096 81be
00000210: 9f39 103d 1c41 f33d 5452 df3c 7d5d 093d
00000220: 05bb f93b f98a 7cbe 8114 e73d a5d1 b23e
00000230: 489c a33e be1d 10bf 57ab 543e 5971 25c0
00000240: 2157 ab3d 9e40 fcbf 3791 11c0 edde b43b
00000250: bf13 313c 0972 b53e a410 ab3d afec 023e
00000260: d6b5 133e e591 21be cf93 833e 884b 10bc
00000270: fa2a 55be 63ac 3a3e 763c 83be 1178 8abd
00000280: af3c c83d 7e6f 7cbd c4fb a33d fc83 7dbd
00000290: 3ad4 0bbf e052 87be e3f7 64bd 7171 483f
000002a0: 621e 6f3e 3097 083e 9326 363d af4b 35be
000002b0: 24fa 923c 1e73 bebe d4bc d6bf 5787 6bbf
000002c0: e3af 2abe 22c5 35c0 6166 c13d ac92 81bd
000002d0: a950 ee3e 9a0f 06be e1c1 b2be 05fb f9bc
000002e0: bd14 093e 6a64 403e c603 2dbe 7ec3 383e
000002f0: cb45 31bf e943 903d 6cd5 c43e 0750 e43c
00000300: b961 0d3f 8d35 693e 21fa 4fbf 0f8a 003d
00000310: 0365 f33c 6f20 15bd 4c2a 913d c6fd 9b3d
00000320: 4e2c cdbe 3ecb 6bbd d3ec 03be a1a0 263e
00000330: d6a6 a43e 7818 f7be e4de 793e 091a 13c0
00000340: 47fb 21bd 0714 00c0 c1b5 03c0 0325 a43c
00000350: e7f2 24bc 5e9a 043e 97e9 00bd 6056 3d3e
00000360: e604 3b39 5684 cab9 ef20 7b3d fe98 b53d
00000370: 7169 a93a 4566 343d 8408 7ebd cb52 823c
00000380: cfa8 8ebd f357 8abc 5c8f b53c 2069 12be
00000390: 0beb 09bf 7e41 99be f8d3 d03d e5d2 133f
000003a0: 3696 94bd dcd7 593d 5017 e7bc a8c7 793d
000003b0: 5064 56bd 7e54 35be dbbf d8bf 2205 b4bf
000003c0: f7b8 ad3e 7b89 21c0 c787 42bd c119 e93c
000003d0: bee6 e03e 1383 31b9 9737 14be 3969 d03c
000003e0: 8621 95bc 458a bdbc f19b 68bb 0c59 cab8
000003f0: b62d 0ebf 4eaf d6bc 142a 393e dc44 04bd
-0.55409974 0.40292767 -0.24058236 -0.16109557 -0.03864603 0.011304529 -0.12562673 -0.12424012
-0.089442104 -0.38735422 -0.030345485 -0.6051635 -0.51527184 -0.6051085 -1.187999 1.4038465
0.04551869 1.1081153 1.2511284 0.15844886 0.1977625 0.34499198 0.067783564 -1.0641156
0.04467347 -0.0057722633 0.34341526 0.1873494 -0.35788837 0.0061205225 -0.7454731 -0.06884202
0.07725062 0.02441177 -0.08365433 0.004623159 -0.60464 0.8676568 -0.047958132 -1.1482747
0.049454246 -1.2660774 0.18723086 -0.023221267 -0.06783911 -0.32646412 0.879666 0.062113833
-0.018676316 1.4523884 -0.047683198 -0.10724516 -1.2649827 -0.039658956 -0.6854079 -0.14383173
-0.0695899 0.11451726 0.031823512 0.007263207 -0.46681964 -0.061508767 -0.4803646 -0.13148575
0.5580674 0.1907407 -0.78430235 0.038735442 0.05988318 0.011468314 0.07826945 -0.0017739102
-0.41974422 -0.034129445 -0.06444493 0.18690716 0.26187387 -0.48172218 0.23680368 -2.3046434
0.030813131 -1.9791374 -2.0198224 -0.0026987062 0.007291267 0.119684175 -0.06468382 0.20698045
0.0040326575 -0.008983512 0.030126518 -0.0052902657 0.01641857 -0.008496878 -0.0849129 0.038921382
-0.05123581 -0.016084995 0.012952927 -0.12088879 -0.51945907 -0.29959512 0.0496312 0.5827662
-0.054036137 0.03196934 -0.04975757 0.022966938 -0.028247975 -0.13115 -1.6973406 -1.3738256
0.325456 -2.5251892 -0.04530655 0.05742749 0.41312575 -0.025560614 -0.14738898 0.024358649
-0.0020153348 -0.016344566 0.07078806 -0.032421436 -0.5423571 -0.041228548 0.17925592 -0.047480986
0.48477498 0.39326936 -0.43325168 -0.25310326 0.0352112 0.11877653 0.027260937 0.033536423
0.0076211714 -0.24662389 0.11283208 0.3492557 0.3195517 -0.5629538 0.20768486 -2.5850432
0.08366228 -1.970722 -2.2744882 0.005519739 0.0108079305 0.35438564 0.08352783 0.127856
0.14424834 -0.1577831 0.25698707 -0.008807071 -0.20817176 0.18229823 -0.25632066 -0.06761182
0.097771995 -0.061629765 0.08007005 -0.06189345 -0.5462071 -0.26430416 -0.055900466 0.782981
0.23351434 0.13338923 0.04447038 -0.17704652 0.017941542 -0.37197202 -1.6776376 -0.9200339
-0.16668658 -2.840157 0.09443355 -0.063268036 0.46545914 -0.13091889 -0.34913543 -0.030515203
0.13386817 0.18788305 -0.1689597 0.18043324 -0.6924712 0.07044203 0.38444078 0.027870191
0.5522724 0.22774334 -0.8124104 0.031381663 0.029711252 -0.036407884 0.070881456 0.07616763
-0.40072864 -0.057566874 -0.1288331 0.16272213 0.32158536 -0.48260856 0.24401432 -2.298464
-0.039546277 -2.0012224 -2.0579684 0.02003718 -0.010067678 0.12949511 -0.03147277 0.1848998
0.00017835535 -0.0003862704 0.061310705 0.088670716 0.0012925101 0.044042844 -0.06201984 0.01590862
-0.069657914 -0.01688764 0.022163086 -0.14297915 -0.5387427 -0.2993278 0.1019668 0.57743675
-0.07255213 0.053184375 -0.028209358 0.060981423 -0.05234176 -0.17708012 -1.693355 -1.4064066
0.3393018 -2.5240161 -0.04749277 0.028454663 0.43926042 -0.00016928864 -0.14474331 0.0254408
-0.018204462 -0.023137221 -0.003549334 -9.648697e-05 -0.555385 -0.026206639 0.18082458 -0.032292232

conv2.nn.4.bias f4 [64]
00000000: 023d 403f 4121 043f a4f2 2d3f 7999 0a3f
00000010: 40b9 093f b82f a4bf 0ab3 c0bf 0492 833e
00000020: c0e0 3d3f 0757 c93e c57b cd3f 0b95 f83e
00000030: 4e4b e7be ef87 5fbe b201 f23e 589a 6e3f
00000040: b6b1 d93e c57a 333e 9a99 033f e483 043f
00000050: a0fa 073f 521b f13e e0b6 7f3f 0d8a 053f
00000060: e881 663f e943 0e3f fbee b13e 9eb7 dabe
00000070: cae8 7f3f 9942 d6bf d7fc 113f ed41 c83e
00000080: 95d0 f23e 15f7 843f d595 a03e bfd6 973f
00000090: 8804 003f 4e5e ca3e bf0e 163f 7447 913f
000000a0: d1cd 1bbf ea02 623f dcff cd3e c9a3 bb3e
000000b0: 2f42 f53e 4255 053f d3c2 813f 371c ce3e
000000c0: 2024 ac3e 79ec 44bf 770d e43e 6560 b13e
000000d0: 40f7 f43e cc45 c63e 596c 373e c824 263f
000000e0: f5a7 683e 81e5 bb3e 93c6 d33e 1313 153f
000000f0: 46de fb3e e0d2 fa3e 235e c73e ca25 9ebf
0.7509309 0.5161324 0.67948365 0.5414043 0.53798294 -1.2827063 -1.5054638 0.2569734
0.74171066 0.3932421 1.6053396 0.4855121 -0.4517464 -0.21829198 0.47266918 0.9320426
0.42518395 0.17527302 0.5140625 0.5176375 0.531168 0.47091156 0.9988842 0.52163774
0.9004197 0.5557237 0.3475264 -0.42718214 0.9996458 -1.6739074 0.5702643 0.39112797
0.4742476 1.0387903 0.31364313 1.186241 0.50006914 0.39525074 0.5861625 1.1349931
-0.60860926 0.88285697 0.40234268 0.36648396 0.47902057 0.5208322 1.0137581 0.402559
0.3362131 -0.7692333 0.44541523 0.34643856 0.47844887 0.38725126 0.17912425 0.64899874
0.2272032 0.36698535 0.41362438 0.5823223 0.4919302 0.4898901 0.38939008 -1.2355282

fc1.weight f4 [128, 74]
00000000: a9fa 133d 06da 133e 6685 bc3d 112a 383e
00000010: ec4a 333e c7ef 623e 7b00 613f 47f1 b9bd
00000020: 7ec8 373e 96c5 7b3d 8b13 9dbe a7d1 323e
00000030: 6472 1f3e 587d 3a3f 29b5 06be 0dad 0cbe
00000040: 7ab7 1ebd bd88 d1be 739e 333e 5789 e93c
00000050: 56df 8fbb 0f74 45be b190 a8bd 7911 cabb
00000060: 3a76 63bc bbfc 3f3e ba4a f83e 51ec 4abd
00000070: aa24 0dbd bd63 dfbe b306 5b3c b67c 56bd
00000080: 7ebc 1c3d 25f9 abbd b5ac 72bc 3a86 11bd
00000090: 1441 173e 8b86 1dbe a0be b73c e37a 3cbd
000000a0: d819 5c3e 4f0e 923b 31a6 07be f58b 283e
000000b0: db3e 3c3e deff 273e 0b16 bbbd 53ee 253d
000000c0: e0db 3d3d 8887 813d 8c74 163e 94a6 22bf
000000d0: 1216 3c3e 4e08 fe3d 3af1 893e 00cf 4f3e
000000e0: 0f87 60bd ae7a 1fbd 2dee 343e 11bb 8e3c
000000f0: 3130 2e3e 52f2 503e 1e7e 4cbe d08a 4c3e
00000100: f60a 0fbe a235 36ba d58b 063f 89c1 aebf
00000110: 4c54 dd3c 77a1 bf3e 77d4 23bd ce61 a4bd
00000120: 4ee8 11bd a405 e4bc a5dc cabe 9437 373e
00000130: 44a3 07bd 6a1a 633e b2f1 8b3e 0f9f a43f
00000140: b46c d83f e5d7 51be cffd 4f3e e6bf 88be
00000150: b448 4c3e 770b 763d b65f 7a3f aba3 f03f
00000160: 1ec7 9bbe d24c acbe 02c4 7bbb 5ea4 a0bf
00000170: babc 673e 97e7 a0be 6364 93be ff93 fabe
00000180: ef47 7bbe d1ab a7be 54e2 0e3e 1963 923e
00000190: 43d9 be3f bebe dd3e c007 86bd 8e09 32bf
000001a0: 091b bdbe 47dc c8bc e952 a2be 3c7b 15be
000001b0: c251 26bc 11bf 813e 2af1 133e a937 b0be
000001c0: 575e cebe e5ce 44bd a858 283f c02d 973e
000001d0: 7a4b 8bbe f285 163e 1277 5d3d 00ee 823e
000001e0: b7c4 65be c6be 95be 2bba f73c 0bfa 603f
000001f0: 2a68 3a3e 55ca d0bf 1aea 6d3e 27fa 853c
00000200: c720 053e 9bd5 493e 1af5 5bbd 5309 0b3d
00000210: a4b0 1d3e b82b d7be 4a83 ff3d d216 893d
00000220: 6690 efbe 3963 8a3f b512 4dbf 3787 ebb9
00000230: bb2c 263f eb94 07c0 faed 38bd 8112 2e3f
00000240: dc5d 21bd d1d0 13bf e6b8 fdbc fa40 633b
00000250: 562a 16bd c9b5 7cbe 83fd 7abe 6cb4 6bbe
00000260: fa29 60be 9429 e33e 064c 1f3f 0c8e 8d3d
00000270: 3131 4cbe 8e47 24bc 26ab 80bb 524e 87be
00000280: ecf0 353e b156 183f ab1c cfbc d1fd 05bd
00000290: bd0c 4f3e 207a 7ebe 9489 83be 5e7e 8ebd
000002a0: 6290 9ebd 4786 0dbe 4992 3dbd 2463 71bd
000002b0: 9bf9 ad3c 2447 6fbe 6a17 d33e 3345 4b3d
000002c0: 4299 9a3b c04c 95be 17d1 92bd 5c63 5c3e
000002d0: 4b7f ffbc e81c d2bc 8bf8 893e 922c 5f3d
000002e0: 24e3 79be 5a8c 50bd 9e52 a4bd 7a7c c6bc
000002f0: 7d3e 283e d83c 903d 2c42 e5bc cdfc 92be
00000300: 88c6 8bbe 5196 75be b6b4 46bd 471e 50bc
00000310: b291 d9bd d09f 7e3e 9968 8cbe 64b0 1fbe
00000320: bc30 80be d8f3 9dbe aa36 8dbc 9b9f 63be
00000330: b298 713e 64e3 823e 8b65 8bbe b548 8cbd
00000340: 27fa 7cbe af0b 93be 44c3 a4bd 2579 a83e
00000350: e1eb cabd 456e f7ba 6031 353d 2ce4 563f
00000360: d8a4 10be 7661 9b3d 61b7 1bbb 92fe 8a3f
00000370: 737a 80bc d39f 33bc 60a3 7e3c 14c6 eb3d
00000380: 6f78 193e fcc7 063e 855c fd3d 8adc 2d3f
00000390: 6986 553f 5b31 d13e 5985 5c3e b875 563e
000003a0: ed5d 75be 8f2a 213e 7348 f73e bf2e 033f
000003b0: 055f c83e 6044 853d 4527 033f ac9d c53d
000003c0: 8f23 f33d d2b9 273e 11f6 2b3e ce38 af3e
000003d0: 3eed e23c dfbd 2e3e c5f6 003e f8ab ff3d
000003e0: cc7b db3e e6c1 ea3d a235 753d 5bd7 fbbe
000003f0: c105 0e3e c2c3 fe3e bb26 4d3e 49d6 563d
0.03612772 0.14438638 0.09205131 0.17984797 0.17509049 0.2216178 0.8789136 -0.09079223
0.17947575 0.06146773 -0.30678973 0.17462789 0.1557098 0.7284751 -0.13155045 -0.13737889
-0.038749196 -0.40924636 0.17540912 0.028507872 -0.0043906374 -0.19282554 -0.08230723 -0.0061666337
-0.013883168 0.18748753 0.48494512 -0.049541775 -0.034458794 -0.43630782 0.013368296 -0.052365027
0.038265698 -0.0839713 -0.014811684 -0.0355284 0.14770919 -0.15383355 0.022429764 -0.04601563
0.21494234 0.004457272 -0.1324699 0.1645964 0.18383352 0.164062 -0.09135064 0.040510487
0.046352267 0.06324679 0.14692897 -0.6353543 0.18367794 0.12403928 0.26941854 0.20293808
-0.054816302 -0.038935356 0.17668982 0.017423185 0.17010571 0.20404938 -0.19969985 0.19974828
-0.13969025 -0.0006950741 0.52557117 -1.3652812 0.027017735 0.37427875 -0.039997544 -0.08026467
-0.035621934 -0.02783472 -0.39621463 0.17892295 -0.033114687 0.22178045 0.27332836 1.2861041
1.6908174 -0.20492513 0.20311664 -0.26708907 0.19949609 0.060069527 0.97802293 1.8799948
-0.30425352 -0.3365236 -0.003841639 -1.2550161 0.22630587 -0.3142669 -0.28787526 -0.48941037
-0.24539159 -0.32748273 0.13953525 0.2859123 1.4910053 0.43309587 -0.06544447 -0.6954583
-0.3693469 -0.024519099 -0.3170388 -0.14597791 -0.0101513285 0.25341085 0.14447466 -0.34417465
-0.4030635 -0.048048873 0.6576028 0.29527092 -0.27206022 0.14699534 0.054068632 0.25572205
-0.22438322 -0.2924711 0.030240139 0.87881535 0.18203798 -1.6311747 0.23233834 0.016354633
0.13000785 0.1971039 -0.053700544 0.03394444 0.15399414 -0.42025542 0.12476213 0.06693806
-0.46789855 1.081153 -0.8010667 -0.00044923436 0.64912003 -2.1184642 -0.045148827 0.67996985
-0.039396152 -0.57740504 -0.030971956 0.003467618 -0.03666147 -0.2467872 -0.2451077 -0.23018044
-0.21891013 0.4436766 0.6222538 0.06911859 -0.1994064 -0.010026826 -0.0039266525 -0.2642694
0.17767686 0.5950728 -0.025282225 -0.03271276 0.20219703 -0.24851274 -0.256909 -0.069576964
-0.077423826 -0.13820754 -0.046282087 -0.05893244 0.021237185 -0.23366982 0.412288 0.04962654
0.004717977 -0.29160118 -0.07168787 0.21522278 -0.031188628 -0.02564855 0.26947436 0.054485865
-0.24403054 -0.0509151 -0.080235705 -0.024229277 0.16430087 0.07042855 -0.027985655 -0.28708497
-0.27299905 -0.23983122 -0.048512183 -0.012702531 -0.10623492 0.24865651 -0.27423552 -0.15594631
-0.2503718 -0.308501 -0.01723798 -0.22228853 0.23593405 0.2556411 -0.2722591 -0.06849805
-0.247048 -0.2871985 -0.080450565 0.32904926 -0.099082716 -0.0018877467 0.04423654 0.8394191
-0.14125383 0.075869486 -0.0023760425 1.0858939 -0.015683388 -0.010963398 0.015541881 0.1151239
0.14987348 0.13162225 0.12371162 0.6791464 0.8340822 0.40857968 0.21535243 0.20943344
-0.23961611 0.15738891 0.48297462 0.51243204 0.39134994 0.06507182 0.51231796 0.09649214
0.11872017 0.16379479 0.16793086 0.34223026 0.027701017 0.17064618 0.12594135 0.12483972
0.42867887 0.114627644 0.0598656 -0.4918774 0.13869382 0.49758726 0.20034306 0.052450452
