models/0_2023_2023/Postal_GIN/60.pth (torch, 134066 bytes, 21 tensors)

conv1.nn.0.weight f4 [64, 12]
0	0x3aad67d8	0.00132298
1	0xbae97355	-0.0017810861
2	0xbb1f01e0	-0.0024262592
3	0xbaa135de	-0.0012299379
4	0xbbcdd131	-0.006281041
5	0xbb0d05e4	-0.0021518404
6	0xbac87745	-0.0015294334
7	0xbb806d5f	-0.003919288
8	0x3b91af22	0.0044459263
9	0xbb57ecf9	-0.0032947643
10	0xbb0158c5	-0.0019736749
11	0xba319867	-0.0006774724
12	0xbb8678ea	-0.0041037695
13	0xb827e13d	-4.0025672e-05
14	0xbb1fdffa	-0.0024394975
15	0xbb8af367	-0.0042404416
16	0x39024c36	0.00012426157
17	0x3b92f5d0	0.0044848695
18	0x3aa3832d	0.0012475007
19	0x3b88eae1	0.0041783904
20	0xb84fcace	-4.9541522e-05
21	0xbae7c43f	-0.0017682387
22	0x3b85ca92	0.004082986
23	0xbb30cc76	-0.0026977337
24	0xbd1fa5aa	-0.03897635
25	0xbcbc7932	-0.02300701
26	0xbcba754a	-0.022761006
27	0xbb467640	-0.0030282885
28	0xbd9b3858	-0.07579106
29	0xbaeb946e	-0.0017973313
30	0xbd263f8d	-0.04058795
31	0x3d88288e	0.0664836
32	0x3d03a4c0	0.03213954
33	0xbb8711fa	-0.004122016
34	0x3aa2bd01	0.0012415947
35	0xbaaea9fe	-0.0013325808
36	0xbd3b2bb2	-0.045695968
37	0xbae98f76	-0.0017819244
38	0xbc085ebd	-0.008323369
39	0xbb7c9333	-0.0038539886
40	0xbddc41d1	-0.10754741
41	0x3b1efd7f	0.0024259982
42	0xbcc43f2d	-0.023955906
43	0x3dc14628	0.09437209
44	0x3d50b561	0.050954226
45	0xbb662dc3	-0.003512249
46	0xbb237cff	-0.002494633
47	0x3b968770	0.004593782
48	0xbbac4679	-0.0052574244
49	0xbb6dda3c	-0.0036293408
50	0x3adc4bc8	0.0016807253
51	0xba6ed1cf	-0.00091102434
52	0x3afbb538	0.0019203788
53	0xbbcf8125	-0.006332534
54	0x392319fb	0.0001555457
55	0xb9114024	-0.00013852172
56	0xbb20ca1b	-0.0024534527
57	0xbadbbe79	-0.0016765139
58	0xbbce1db2	-0.006290161
59	0x3b73ce85	0.0037201953
60	0xbc35875e	-0.011079637
61	0xbc03173c	-0.008001145
62	0x3a97f1a7	0.0011592404
63	0xbb1a2757	-0.0023521984
64	0xbc863f45	-0.016387591
65	0xbaadf611	-0.0013272186
66	0xbc882ae4	-0.016622014
67	0x3b939a9c	0.004504515
68	0x3c95a185	0.018265495
69	0x3c824515	0.015902082
70	0xbb93ec32	-0.0045142407
71	0x3c71044e	0.014710499
72	0xbb130795	-0.002243494
73	0xbbd25e84	-0.0064199585
74	0xbafe5e4c	-0.0019406765
75	0xbaae6754	-0.0013305941
76	0xbb760bb6	-0.0037543601
77	0xbc095924	-0.008383069
78	0xbbb86879	-0.0056276885
79	0xb85f77b5	-5.327883e-05
80	0xbb3d8564	-0.0028918618
81	0x39863364	0.0002559676
82	0xbba99778	-0.005175527
83	0xba3654fe	-0.0006955414
84	0xbc521094	-0.012821335
85	0xbc91fa4d	-0.017819548
86	0xbc6671e3	-0.014065239
87	0xbac86386	-0.0015288449
88	0xbc61e7cf	-0.013788178
89	0xba806cca	-0.0009798047
90	0xbc82d4bc	-0.01597058
91	0xbc05d462	-0.008168312
92	0xbc4cf9cc	-0.012510728
93	0xbba1d78b	-0.004939025
94	0xbb8e6db4	-0.0043465737
95	0xbb547c48	-0.003242271
96	0xbcc7f5da	-0.024409223
97	0xbc1717f7	-0.009222022
98	0xbc1bcb16	-0.009508869
99	0xbc460faf	-0.0120887
100	0xbcbe2eed	-0.023215735
101	0xbbd74236	-0.0065691723
102	0xbc0d6aa2	-0.00863138
103	0x3d1ed88e	0.03878074
104	0x3c9ccb70	0.019139975
105	0xbc5b79e1	-0.013395757
106	0xbc2cd501	-0.010548831
107	0xbc0651b2	-0.008198189
108	0xba4d3f81	-0.0007829592
109	0xbb7eec91	-0.0038898329
110	0x3adb47d3	0.0016729779
111	0xbaa94439	-0.0012914009
112	0xbb1fd191	-0.0024386386
113	0x3b51b3dd	0.0031998076
114	0xb9344dd0	-0.00017195125
115	0xbb3dc845	-0.0028958481
116	0xbb46a9b2	-0.0030313549
117	0x3b9c55b6	0.0047709597
118	0x3b57f3b2	0.003295165
119	0xbb6e1160	-0.0036326274
120	0xbcd234ef	-0.025660006
121	0xbc341502	-0.010991337
122	0xbc0e7fee	-0.008697493
123	0xbb8e2ceb	-0.0043388507
124	0xbca9ae01	-0.020712854
125	0x3add3e0c	0.0016879453
126	0xbc909e63	-0.01765365
127	0x3ce20e4c	0.027594708
128	0x3c652800	0.0139865875
129	0xbb9f5d6b	-0.004863431
130	0x3b3373f4	0.0027382346
131	0x3b978e0e	0.0046250885
132	0xbac87a74	-0.0015295283
133	0xbb94596a	-0.0045272605
134	0x3ac247c2	0.0014822411
135	0xbb68c4da	-0.0035517723
136	0xbb58ebd2	-0.0033099544
137	0x3ab50017	0.0013809231
138	0xb9fc39c9	-0.0004810824
139	0xb9b4aa56	-0.00034459186
140	0x3b94e569	0.0045439494
141	0xba68f02b	-0.00088858855
142	0x3b4a1873	0.0030837327
143	0xbacea7e9	-0.0015766594
144	0xbcaf4f06	-0.021399986
145	0xbb5b76ee	-0.0033487636
146	0xba1bd219	-0.0005944088
147	0xbb86de10	-0.0041158274
148	0xbd01a88e	-0.031654887
149	0xbc768bd5	-0.015047987
150	0xbd35e7ff	-0.0444107
151	0x3b821fde	0.003971084
152	0x3d2cb12e	0.04216116
153	0x3cb56976	0.022145014
154	0xbc40c1a8	-0.011764921
155	0x3d0fc489	0.03509954
156	0xbe1c9560	-0.15291357
157	0xbd0bdd70	-0.034146726
158	0xbd340676	-0.043951474
159	0xbb9b5f04	-0.0047415514
160	0xbe571f19	-0.21007957
161	0x3b53b357	0.003230294
162	0xbda2338a	-0.079199865
163	0x3e720d6f	0.23637937
164	0x3ea134e0	0.31485653
165	0xbaac0051	-0.0013122653
166	0xbb080e73	-0.0020760566
167	0x3b039bba	0.0020081834
168	0xbc1563dd	-0.009118048
169	0xbb36a92a	-0.0027871826
170	0xbb00d765	-0.0019659635
171	0xbb4e85fa	-0.0031512962
172	0xbcaf3f33	-0.02139244
173	0xbc4c0d87	-0.012454397
174	0xbcab94db	-0.020945003
175	0xba7ecaf2	-0.0009719572
176	0x3ca04e73	0.019568658
177	0x3ba4afa9	0.005025823
178	0xbb513d4c	-0.0031927405
179	0x3c61730f	0.013760342
180	0xbcef59d9	-0.029217647
181	0xbbd7c372	-0.006584578
182	0xbc3632c2	-0.0111205
183	0xbb8136e5	-0.0039433115
184	0xbd26d796	-0.040732943
185	0xbb003508	-0.001956286
186	0xbd0aa732	-0.033850856
187	0x3d410376	0.04712244
188	0x3cf57613	0.029963529
189	0x3b1ce0e7	0.0023937763
190	0x3b814253	0.003944674
191	0x3a02852d	0.0004978951
192	0xbbfcd2bc	-0.007715551
193	0xbbf9834b	-0.0076145283
194	0xbb22dab8	-0.0024849605
195	0xbafdd9c2	-0.0019367265
196	0xbc35471f	-0.01106432
197	0xb88adde9	-6.621687e-05
198	0xbcb5d2db	-0.02219527
199	0x3b0e3600	0.0021699667
200	0x3c405f09	0.011741408
201	0x3b17b577	0.0023148933
202	0xbbbc094d	-0.0057384134
203	0x3bd6fef0	0.0065611526
204	0xbc0d806a	-0.008636573
205	0xbb7ed136	-0.0038882024
206	0xbc1d1f31	-0.009589956
207	0xbb1e57a6	-0.002416113
208	0xbc858189	-0.016297119
209	0xba111d3d	-0.0005535668
210	0xbc3c9d38	-0.011512093
211	0x3aca4376	0.0015431482
212	0x3c490b4d	0.012270761
213	0x3c0557eb	0.008138637
214	0xb94a8504	-0.00019313773
215	0x3c2cd0e2	0.010547848
216	0x3aa41c7e	0.0012520698
217	0xba5b5df9	-0.000836819
218	0xb8b9ccc4	-8.859628e-05
219	0xbac84f4e	-0.0015282424
220	0xbb03648f	-0.0020048951
221	0x3b400ef3	0.0029305785
222	0x3b0e7918	0.0021739658
223	0xbb128f5a	-0.0022363276
224	0xbb924c76	-0.0044646813
225	0x3b225620	0.0024770573
226	0xbb98b375	-0.004660065
227	0xb96b110c	-0.00022417697
228	0xbd422864	-0.0474018
229	0xbb00f7a1	-0.0019678848
230	0xbb70101e	-0.00366307
231	0xbb886d8f	-0.004163451
232	0xbd98329c	-0.07431528
233	0xbb444c22	-0.0029952605
234	0xbd161074	-0.036636785
235	0x3d88444e	0.06653653
236	0x3d4d0c54	0.050060585
237	0xbaa85019	-0.0012841254
238	0x3a739a72	0.00092927285
239	0xbb1d0a54	-0.0023962455
240	0xbd10b613	-0.03532989
241	0xbb2191f4	-0.0024653645
242	0x3a090863	0.0005227385
243	0xba9c0fcf	-0.0011906567
244	0xbd351350	-0.04420787
245	0xbcbf95b1	-0.023386808
246	0xbd37ae18	-0.044843763
247	0x3bb874df	0.0056291665
248	0x3d6d5f7c	0.05795239
249	0x3d477204	0.04869272
250	0xbcc25ffc	-0.02372741
251	0x3d55bf1a	0.0521842
252	0x3b8f9616	0.0043819053
253	0xbb39c86c	-0.002834822
254	0xbb3cd1a3	-0.0028811477
255	0xbb25b490	-0.0025284626

conv1.nn.0.bias f4 [64]
0	0xbbd5a135	-0.0065194615
1	0x3b349862	0.0027556648
2	0xbd806d9a	-0.06270905
3	0xbda39e42	-0.0798917
4	0x3b08e57a	0.0020888732
5	0xbb1cb187	-0.0023909525
6	0x3b26b5c9	0.0025437942
7	0xbc9a3932	-0.018826101
8	0xbccd33d7	-0.025049133
9	0x39ac4cad	0.00032863524
10	0xbce3916f	-0.02777931
11	0x3b29f293	0.002593194
12	0xbb87843d	-0.004135637
13	0xbe5b87a2	-0.21438459
14	0xbb444085	-0.0029945683
15	0xbd3a32c3	-0.045458566
16	0xbbdd301f	-0.0067501212
17	0xbc429dd0	-0.011878446
18	0x3ab9ec64	0.001418483
19	0xbd751106	-0.059830688
20	0xbba3c3b8	-0.0049976967
21	0xbb60b2da	-0.0034286291
22	0xba215658	-0.0006154529
23	0xbc00888f	-0.007845058
24	0xbdb0318c	-0.086032
25	0xbf154852	-0.5831348
26	0xbda11cf9	-0.07866854
27	0xbc7f7ffc	-0.015594479
28	0xbb961c78	-0.0045810305
29	0xbb6b09e3	-0.0035864047
30	0xb8c78ac4	-9.5149066e-05
31	0xb880fcbc	-6.150591e-05
32	0xbd472936	-0.048623286
33	0xbb1b23a1	-0.002367236
34	0xbb4f5923	-0.0031638823
35	0xbdae5126	-0.085115716
36	0xb9c911b2	-0.00038350892
37	0xba1b1a25	-0.00059166766
38	0x3b9d275c	0.004795952
39	0xbb443bb4	-0.0029942812
40	0xbd76268c	-0.060095355
41	0xbb5012d3	-0.0031749501
42	0x3b2a50e1	0.002598815
43	0xbc228750	-0.009919956
44	0xbd88dbe6	-0.06682567
45	0xbec2035d	-0.3789319
46	0xbbdb2219	-0.0066874144
47	0xbf19963b	-0.5999486
48	0xbb8ae840	-0.004239112
49	0xbbabfb3a	-0.0052484544
50	0xbdc7e7b4	-0.09760991
51	0xbd144e33	-0.03620739
52	0xbb5b0361	-0.0033418762
53	0x39840144	0.00025177945
54	0xba462928	-0.00075592333
55	0xbcb1fe5e	-0.021727737
56	0xbace4a8d	-0.0015738771
57	0x3b4538e7	0.003009373
58	0xbcb2077b	-0.021732083
59	0xbb09b17a	-0.0021010325
60	0xbb30d303	-0.0026981242
61	0xbd20aecd	-0.039229203
62	0xbcdcb667	-0.026942445
63	0xbd2a4563	-0.04157008

conv1.nn.2.weight f4 [64]
0	0x3c73d214	0.0148816295
1	0x3c8fc33c	0.01754915
2	0x388799ec	6.465972e-05
3	0xbb2cd6be	-0.0026373114
4	0x3c961614	0.018321075
5	0x3c79670c	0.015222322
6	0x3c866960	0.016407669
7	0xbc6639e4	-0.014051888
8	0x3bf9297f	0.0076038237
9	0x3c8fc33c	0.01754915
10	0x3acffad1	0.0015867596
11	0x3c8fc33c	0.01754915
12	0x3c89561a	0.01676469
13	0x3ac69dca	0.0015153226
14	0x3c86135e	0.016366657
15	0x3ab31963	0.0013664182
16	0x3c531c8f	0.012885227
17	0x3c86d67f	0.016459702
18	0x3c8fc33c	0.01754915
19	0xb6c8548f	-5.9703084e-06
20	0x3ca7614e	0.02043214
21	0x3c8fc33c	0.01754915
22	0x3c5f2fc4	0.013622228
23	0x3b899ab5	0.0041993507
24	0xba96f95b	-0.0011518406
25	0xbd9fbe55	-0.07799975
26	0xbb480549	-0.0030520728
27	0x3c166e0a	0.009181509
28	0x3c78aca0	0.015177876
29	0x3c83d5f3	0.01609323
30	0x3c524aef	0.012835248
31	0xbba73bad	-0.0051035495
32	0xbb17e3f0	-0.0023176633
33	0x3c5432d8	0.012951575
34	0x3c847705	0.016170034
35	0xbc927125	-0.017876217
36	0x3c8b0a6f	0.016972749
37	0x3c8fc33c	0.01754915
38	0x3c8fc33c	0.01754915
39	0x3cb40b8c	0.021978162
40	0xbc00d70a	-0.007863769
41	0x3c8b09a9	0.01697238
42	0x3c635105	0.013874297
43	0x3c8806e2	0.016604844
44	0x39933321	0.0002807612
45	0x3d7aaa24	0.061197415
46	0x3cbe689d	0.023243243
47	0x3fa77fca	1.3085873
48	0x3c458dc8	0.012057729
49	0x3cec752e	0.02886447
50	0x3ae2877a	0.0017282807
51	0xb8927bed	-6.9849055e-05
52	0x3c848004	0.016174324
53	0x3c6c1c75	0.014411082
54	0x3c8fc33c	0.01754915
55	0xbb56925e	-0.003274105
56	0x3c8fc33c	0.01754915
57	0x3c6c2f67	0.0144155985
58	0xba6c295c	-0.00090088486
59	0x3c82d805	0.015972147
60	0xb7e1ab40	-2.6901835e-05
61	0x3aa44694	0.0012533241
62	0x3ac97239	0.0015369124
63	0xb953a823	-0.00020185164

conv1.nn.2.bias f4 [64]
0	0xbe39447a	-0.18092528
1	0x3e2b7276	0.16742882
2	0x3e39c6bb	0.18142216
3	0xbdb83b36	-0.089956686
4	0xbe1d9f49	-0.15392794
5	0xbda1240a	-0.07868202
6	0x3b9f9b58	0.0048708133
7	0x3e2a5d99	0.16637267
8	0xbdc71363	-0.097204946
9	0x3e2c2f6e	0.16814968
10	0xbe1e9da2	-0.1548982
11	0x3e24b5f9	0.16085042
12	0xbe46bfa2	-0.1940904
13	0xbe377924	-0.17917305
14	0xbe4a63b1	-0.19764592
15	0xbe403d07	-0.1877328
16	0x3c366be6	0.011134123
17	0xbe4fd8ee	-0.20297596
18	0x3e333671	0.17501236
19	0x3e3f6072	0.18689135
20	0x3e281556	0.16414389
21	0xbe2c4406	-0.16822824
22	0xbe1a243d	-0.15052886
23	0xbe1d368b	-0.15352838
24	0x3e4d456d	0.20046015
25	0xbe408539	-0.1880082
26	0xbe0c8b1f	-0.13724945
27	0x3df99119	0.12185878
28	0xbca99773	-0.0207021
29	0x3e13df4b	0.14440648
30	0x3debe146	0.11517577
31	0xbda77850	-0.08177245
32	0x3e32fe9f	0.17479943
33	0xbe1d2318	-0.15345418
34	0x3e280d69	0.16411366
35	0xbc5d0058	-0.0134888515
36	0xbe49f09b	-0.1972069
37	0x3e3eb81d	0.18624921
38	0x3e2da816	0.16958651
39	0xbe3a6939	-0.18204202
40	0x3ded655d	0.11591599
41	0x3cf7c4af	0.030245153
42	0xbe27eeaf	-0.16399644
43	0xbe2d2b11	-0.1691096
44	0xbd2c6972	-0.042092748
45	0x3e55b6ca	0.2087051
46	0xbe01a97f	-0.12662314
47	0xbef354b1	-0.47525552
48	0x3e05f5b7	0.13082014
49	0x3d4330fe	0.047654144
50	0xbe359e0f	-0.17736076
51	0x3e306d6e	0.17229244
52	0xbe45f3b2	-0.19331244
53	0xbbc47156	-0.005994956
54	0x3e494e1d	0.19658704
55	0xbe3728f2	-0.17886713
56	0x3e46d897	0.1941856
57	0x3e457f85	0.19286926
58	0xbe142907	-0.14468776
59	0x3dd62888	0.104569495
60	0xbd98d94a	-0.074633196
61	0x3e260a68	0.16214907
62	0xbe26201e	-0.16223189
63	0x3a08254d	0.00051935465

conv1.nn.2.running_mean f4 [64]
0	0x00000004	6e-45
1	0x00000000	0.0
2	0x00000004	6e-45
3	0x00000004	6e-45
4	0x00000004	6e-45
5	0x00000004	6e-45
6	0x00000004	6e-45
7	0x00000004	6e-45
8	0x00000004	6e-45
9	0x00000000	0.0
10	0x00000004	6e-45
11	0x00000000	0.0
12	0x00000004	6e-45
13	0x00000004	6e-45
14	0x00000004	6e-45
15	0x00000004	6e-45
16	0x00000004	6e-45
17	0x00000004	6e-45
18	0x00000000	0.0
19	0x00000004	6e-45
20	0x00000004	6e-45
21	0x00000000	0.0
22	0x00000004	6e-45
23	0x00000004	6e-45
24	0x00000004	6e-45
25	0x00000004	6e-45
26	0x00000004	6e-45
27	0x00000004	6e-45
28	0x00000004	6e-45
29	0x00000004	6e-45
30	0x00000004	6e-45
31	0x00000004	6e-45
32	0x00000004	6e-45
33	0x00000004	6e-45
34	0x00000004	6e-45
35	0x00000004	6e-45
36	0x00000004	6e-45
37	0x00000000	0.0
38	0x00000000	0.0
39	0x00000004	6e-45
40	0x00000004	6e-45
41	0x00000004	6e-45
42	0x00000004	6e-45
43	0x00000004	6e-45
44	0x00000004	6e-45
45	0x00000004	6e-45
46	0x00000004	6e-45
47	0x48c951a7	412301.22
48	0x00000004	6e-45
49	0x00000004	6e-45
50	0x00000004	6e-45
51	0x00000004	6e-45
52	0x00000004	6e-45
53	0x00000004	6e-45
54	0x00000000	0.0
55	0x00000004	6e-45
56	0x00000000	0.0
57	0x00000004	6e-45
58	0x00000004	6e-45
59	0x00000004	6e-45
60	0x00000004	6e-45
61	0x00000004	6e-45
62	0x00000004	6e-45
63	0x00000004	6e-45

conv1.nn.2.running_var f4 [64]
0	0x00000004	6e-45
1	0x00000004	6e-45
2	0x00000004	6e-45
3	0x00000004	6e-45
4	0x00000004	6e-45
5	0x00000004	6e-45
6	0x00000004	6e-45
7	0x00000004	6e-45
8	0x00000004	6e-45
9	0x00000004	6e-45
10	0x00000004	6e-45
11	0x00000004	6e-45
12	0x00000004	6e-45
13	0x00000004	6e-45
14	0x00000004	6e-45
15	0x00000004	6e-45
16	0x00000004	6e-45
17	0x00000004	6e-45
18	0x00000004	6e-45
19	0x00000004	6e-45
20	0x00000004	6e-45
21	0x00000004	6e-45
22	0x00000004	6e-45
23	0x00000004	6e-45
24	0x00000004	6e-45
25	0x00000004	6e-45
26	0x00000004	6e-45
27	0x00000004	6e-45
28	0x00000004	6e-45
29	0x00000004	6e-45
30	0x00000004	6e-45
31	0x00000004	6e-45
32	0x00000004	6e-45
33	0x00000004	6e-45
34	0x00000004	6e-45
35	0x00000004	6e-45
36	0x00000004	6e-45
37	0x00000004	6e-45
38	0x00000004	6e-45
39	0x00000004	6e-45
40	0x00000004	6e-45
41	0x00000004	6e-45
42	0x00000004	6e-45
43	0x00000004	6e-45
44	0x00000004	6e-45
45	0x00000004	6e-45
46	0x00000004	6e-45
47	0x518831f8	7.311924e+10
48	0x00000004	6e-45
49	0x00000004	6e-45
50	0x00000004	6e-45
51	0x00000004	6e-45
52	0x00000004	6e-45
53	0x00000004	6e-45
54	0x00000004	6e-45
55	0x00000004	6e-45
56	0x00000004	6e-45
57	0x00000004	6e-45
58	0x00000004	6e-45
59	0x00000004	6e-45
60	0x00000004	6e-45
61	0x00000004	6e-45
62	0x00000004	6e-45
63	0x00000004	6e-45

conv1.nn.4.weight f4 [64, 64]
0	0xbd49e4a7	-0.049290325
1	0x3e34a351	0.17640425
2	0x3e0c6472	0.13710192
3	0xbdbfe67e	-0.09370135
4	0x3d296609	0.041357074
5	0xbe456904	-0.19278342
6	0xbd6a1d6d	-0.05715697
7	0x3e246de5	0.16057546
8	0xbd6e4685	-0.05817272
9	0xbe0b3521	-0.13594486
10	0x3dbcf019	0.092254825
11	0xbe0a69a4	-0.13516861
12	0xbdb2bed1	-0.087278016
13	0x3ca54ae6	0.020177316
14	0x3d80fd31	0.062982924
15	0x3e6e12fd	0.23249431
16	0x3db552b7	0.08853667
17	0xbe1113be	-0.14167687
18	0x3c2c1658	0.010503374
19	0xbe9cd2dc	-0.30629623
20	0xbc801d9d	-0.01563912
21	0x3e5f84b2	0.21827963
22	0x3e2251d8	0.15851533
23	0x3e9bb596	0.30411977
24	0x3d7a7eef	0.06115621
25	0xbcacd4c0	-0.02109754
26	0x3d0cae22	0.034345753
27	0xbdef304a	-0.11679132
28	0xbcd811f2	-0.026375744
29	0x3e3bd916	0.1834453
30	0xbd52b220	-0.051439404
31	0x3c9ac4fb	0.018892756
32	0x3d91ab31	0.0711273
33	0x3e096e5f	0.1342101
34	0x3dc300da	0.09521647
35	0xbe335ca1	-0.17515804
36	0xbdf78cb1	-0.12087382
37	0xbe0aa1c7	-0.13538276
38	0xbd9c2853	-0.07624879
39	0xbdbb40c8	-0.091432154
40	0x3d5dcb52	0.05414898
41	0x3ed35264	0.41273797
42	0x3de42f2b	0.11141809
43	0xbe6d812a	-0.23193803
44	0x3e55afe0	0.20867872
45	0x3c18a86f	0.009317501
46	0xbbfac796	-0.007653187
47	0xbb321fe6	-0.0027179657
48	0xbb5608e3	-0.0032659105
49	0xbe36b343	-0.1784182
50	0x3d857bc0	0.06517744
51	0xbd2e63ea	-0.042575754
52	0x3e8d9876	0.2765538
53	0xbe3922af	-0.18079637
54	0x3b70c2df	0.0036737246
55	0xbd3147ea	-0.043281473
56	0xbd4bb001	-0.049728397
57	0xbd645163	-0.05574168
58	0x3d56e925	0.052468438
59	0xbb0453fe	-0.0020191665
60	0x3de69c5a	0.112602904
61	0xbe289356	-0.16462454
62	0xbdb35516	-0.08756463
63	0xbd86ecd9	-0.06588144
64	0x3cadf5b5	0.021235326
65	0xbcebb529	-0.028772907
66	0xbc632939	-0.013864809
67	0xbc92149d	-0.017832095
68	0x3cf8f840	0.030391812
69	0x3b089993	0.002084349
70	0x3bb579e2	0.005538211
71	0x3d54aea2	0.051924355
72	0xbcf6f7a3	-0.03014738
73	0x3d0014f2	0.031269975
74	0x3d0f43d0	0.03497678
75	0xbd20c55c	-0.039250717
76	0xbbaf4b71	-0.0053495695
77	0x39ad4158	0.00033045816
78	0x3cafa9a7	0.021443201
79	0xbc03c8b8	-0.008043461
80	0xbd432354	-0.047641113
81	0x3cc9ff24	0.024657793
82	0xbd33b892	-0.04387719
83	0xbca23a6a	-0.019803245
84	0x3d978ce9	0.07399923
85	0x3ce49e90	0.02790764
86	0x3d2191e1	0.03944576
87	0xbce91dfb	-0.028456679
88	0x3af90ea6	0.0019001558
89	0x3d2333c6	0.039844297
90	0x3d4e5a64	0.050379172
91	0x3aa06a67	0.0012238742
92	0xbc8db67b	-0.017298928
93	0xbd04ed8f	-0.032453116
94	0xbca2a001	-0.019851686
95	0x3caa0283	0.02075315
96	0xbc405201	-0.011738301
97	0x3c3ec12e	0.011642737
98	0xbce1ac09	-0.027547853
99	0x3c1958a0	0.009359509
100	0x3d2107d1	0.039314095
101	0x3cf25124	0.029579706
102	0xbca99230	-0.02069959
103	0xbd827ea2	-0.063718095
104	0x3d413322	0.047167905
105	0x3bbe9579	0.0058161584
106	0xbcb73cce	-0.022367861
107	0xbc79b840	-0.0152416825
108	0x3ca3ea2e	0.020009127
109	0xbacbee32	-0.0015558659
110	0x3c958c74	0.01825545
111	0xbc35e30e	-0.011101497
112	0x3c317e4e	0.010833336
113	0xbc148465	-0.009064768
114	0x3cfeaaa2	0.031087223
115	0x3cbee1bd	0.023301
116	0xbd13a112	-0.03604228
117	0xbdd236d9	-0.102643676
118	0xbbe5adb3	-0.007009232
119	0xbc39a721	-0.011331351
120	0xbcd2d31e	-0.025735434
121	0xbbfc1a69	-0.007693578
122	0xbd94cfbc	-0.07266185
123	0xbd75078b	-0.059821647
124	0xbc4fda9f	-0.012686401
125	0xbd3c0ae7	-0.045908835
126	0x3c3823dd	0.011239019
127	0xbc3050bc	-0.010761436
128	0x3e1df2e6	0.1542469
129	0x3df28ea4	0.11843613
130	0x3c3ecbc8	0.011645265
131	0x3c1aea81	0.009455324
132	0xbc21e52a	-0.009881297
133	0xbd9c59cf	-0.07634317
134	0xbbbf0417	-0.005829345
135	0x3ca3d637	0.019999607
136	0xbcffa560	-0.031206787
137	0x3e1e6ea3	0.15471892
138	0xbc2ba98c	-0.010477435
139	0xbd9a3504	-0.07529643
140	0x3d2aeb1d	0.041728128
141	0x3dabc274	0.08386698
142	0x3c27cbfc	0.010241505
143	0x3e25f491	0.16206576
144	0xbe1f7628	-0.15572417
145	0x3d982ea5	0.07430772
146	0x3c83d388	0.016092077
147	0xbdb7b54a	-0.08970125
148	0x3de1f6ac	0.11033377
149	0x3e17f5c4	0.14839846
150	0x3dd71f9f	0.10504078
151	0xbd8a15e5	-0.06742457
152	0x3e348f9c	0.17632908
153	0x3ccb3a63	0.024808114
154	0xbd7d6884	-0.061867252
155	0x3a24cd25	0.00062866724
156	0xbe0b1300	-0.13581467
157	0xbdb1550a	-0.08658798
158	0xbd9d8e6c	-0.076931804
159	0x3d8b1f3e	0.06793068
160	0x3dcdbb24	0.1004546
161	0x3e48d6f4	0.19613248
162	0xbdcd9d0a	-0.100397184
163	0xbcd8154f	-0.026377348
164	0xbc55dbf7	-0.013052932
165	0x3bd837a7	0.006598431
166	0x3daf7121	0.085664995
167	0x3cd763ae	0.026292648
168	0x3d507f17	0.050902452
169	0xbd31caca	-0.043406285
170	0x3da1edf8	0.07906717
171	0xbcad7789	-0.021175163
172	0x3db17fc5	0.08666948
173	0x3cf39429	0.029733734
174	0x3e81ca0c	0.25349462
175	0xbc921b9e	-0.017835435
176	0x3e16ca46	0.14725599
177	0x3cdf5480	0.027261972
178	0x3da362a4	0.079777986
179	0xbd43b7c2	-0.047782667
180	0xbd6b20f6	-0.05740448
181	0xbca6d26d	-0.02036401
182	0x3dbfe3d5	0.093696274
183	0x3d6ba000	0.057525635
184	0x3e21f785	0.15817077
185	0xbd613467	-0.054981615
186	0xbda58a4e	-0.0808302
187	0x3dc90c7d	0.09816835
188	0xbd11d55e	-0.035603873
189	0xbcc174d6	-0.023615282
190	0x3e525ee0	0.20544004
191	0xbd8ee5d6	-0.069774315
192	0x3ea98efe	0.33116907
193	0xbe5972cc	-0.21235198
194	0xbe43d68b	-0.1912481
195	0x3e136886	0.14395341
196	0x3ea67de5	0.32517925
197	0xbdd383f7	-0.10327905
198	0xbd3a132d	-0.045428444
199	0xbe8df790	-0.27727938
200	0x3e04b8bd	0.12961097
201	0xbc631b27	-0.013861454
202	0x3e90d50e	0.28287548
203	0xbe8106d0	-0.2520051
204	0x3e76152f	0.24031518
205	0x3e923a8c	0.28560293
206	0xbe225212	-0.1585162
207	0x3c736019	0.014854454
208	0x3cc23e1d	0.023711259
209	0x3e713430	0.23555064
210	0xbe9d70df	-0.30750176
211	0x3deaf69b	0.114728175
212	0xbe1f865d	-0.155786
213	0x3e83f605	0.25773636
214	0x3e182d06	0.14860925
215	0x3e5a4e23	0.2131887
216	0x3e130883	0.14358716
217	0xbe15a59b	-0.14613955
218	0xbda6125d	-0.08108971
219	0xbd57db58	-0.052699417
220	0xbc44d2ec	-0.012013178
221	0xbe6d436c	-0.2317025
222	0xbe66c0b8	-0.22534454
223	0x3e516445	0.20448406
224	0x3dd6e3fc	0.10492703
225	0xbca1a44d	-0.019731665
226	0xbe50847a	-0.20363036
227	0x3d914b2d	0.07094417
228	0x3e5eacc3	0.21745591
229	0xbe9764ce	-0.29569095
230	0xbe86052f	-0.2617583
231	0x3e8259ac	0.2545904
232	0xbe3b39ca	-0.18283764
233	0xbd93b93c	-0.07213065
234	0x3e5ed23d	0.21759887
235	0x3e6c92b0	0.23102832
236	0x3e19096d	0.14945002
237	0x3e185a3d	0.14878173
238	0xbdd87807	-0.105697684
239	0xbfc99d70	-1.5751171
240	0xbe312b7a	-0.17301741
241	0x3db06702	0.08613397
242	0x3e0640e8	0.13110697
243	0xbe49b052	-0.19696167
244	0xbdab9489	-0.0837794
245	0xba9c45b9	-0.0011922634
246	0x3df913a6	0.12161951
247	0x3e7a20fb	0.24426644
248	0xbd171725	-0.036887307
249	0x3e37c3e7	0.17945825
250	0x3e81bbd5	0.25338617
251	0x3cef6adf	0.029225765
252	0x3e0d6385	0.13807495
253	0xbe487678	-0.19576442
254	0xbe1cc084	-0.15307814
255	0x3d0c37ce	0.034232907

conv1.nn.4.bias f4 [64]
0	0xbf05671a	-0.52110445
1	0xbe1d33f6	-0.15351853
2	0xbe7b7ac5	-0.24558552
3	0xbe14a0f6	-0.14514527
4	0xbf51fc22	-0.8202535
5	0x3f7f879e	0.9981631
6	0xbe81a5d1	-0.2532182
7	0xbee9a959	-0.45637015
8	0x3e568c89	0.20952047
9	0xbe19e9e5	-0.1503063
10	0xbea1bfb6	-0.31591576
11	0xbe375784	-0.17904478
12	0xbedba882	-0.42902
13	0xbef1929c	-0.47182167
14	0xbe87b846	-0.26507777
15	0xbee824da	-0.45340616
16	0xbe8ce55d	-0.2751874
17	0xbe9d078a	-0.30669814
18	0xbde58052	-0.11206116
19	0xbf01b13d	-0.5066107
20	0xbf0200b0	-0.507823
21	0xbe79c7b9	-0.24392594
22	0xbf3fe76e	-0.7496251
23	0xbf2ef307	-0.6833958
24	0xbd7ad2c3	-0.061236154
25	0xbe5870a8	-0.21136725
26	0xbedb2e6a	-0.4280885
27	0xbe9c40f1	-0.30518296
28	0xbea4f21d	-0.32215968
29	0xbe863eca	-0.2621978
30	0xbebe6dd8	-0.3719318
31	0xbf0571de	-0.5212687
32	0xbe183ce8	-0.14866984
33	0xbe2e2454	-0.17006046
34	0xbeac9b0b	-0.33712038
35	0xbf1634f6	-0.5867456
36	0xbf0141bc	-0.5049093
37	0xbe79fa6f	-0.24411939
38	0xbee87935	-0.45404974
39	0xbf0042c8	-0.501019
40	0xbebeb5d5	-0.37248102
41	0xbe4a4ca1	-0.19755794
42	0xbf322dca	-0.6960112
43	0xbe753008	-0.23944104
44	0xbed364b7	-0.41287777
45	0xbe2b696b	-0.16739433
46	0xbec1c430	-0.37844992
47	0x3fca3e7d	1.580032
48	0xbe1f865b	-0.15578596
49	0xbdd1a083	-0.10235693
50	0xbef0e49e	-0.4704942
51	0xbf3069df	-0.68911546
52	0xbdc2e661	-0.095165975
53	0xbe2c2e44	-0.16814524
54	0x3d93356a	0.07187922
55	0xbeb42d9d	-0.3519105
56	0xbf03fc39	-0.51556736
57	0xbeb2cae5	-0.3492042
58	0xbe05ffdc	-0.13085884
59	0xbe5393d8	-0.20661867
60	0xbeafdcf1	-0.34348252
61	0xbe329f0e	-0.17443487
62	0xbefde77b	-0.49590668
63	0xbef61f6b	-0.48070845

conv2.nn.0.weight f4 [64, 64]
0	0xbe2ab440	-0.16670322
1	0x3cc0674d	0.023486758
2	0xbe115d96	-0.14195856
3	0xc09f0103	-4.9688735
4	0xbdacd564	-0.084391385
5	0xbe0867b1	-0.13320805
6	0xbdf16c11	-0.1178819
7	0x3e4e48fc	0.20145029
8	0xbf470bb5	-0.7775224
9	0xbd5be713	-0.053687166
10	0xbd7af3a0	-0.061267495
11	0xbdb0bd48	-0.086298525
12	0x3e45be1f	0.19310807
13	0xbd9b7d60	-0.07592273
14	0x3e401843	0.18759255
15	0x3e5d8ff6	0.21636948
16	0x3e096002	0.1341553
17	0xbe219123	-0.15778022
18	0x3d17f1e6	0.037095927
19	0xbe43cbcc	-0.19120711
20	0xbe53b841	-0.20675756
21	0x3e49e560	0.19716406
22	0x3dc935c6	0.098247096
23	0xbe72a10f	-0.23694251
24	0x3ce2b363	0.027673429
25	0xbe1ac234	-0.15113145
26	0xbcbe739a	-0.023248482
27	0x3da115fc	0.07865521
28	0xbe620402	-0.22071841
29	0xbfd4ef0f	-1.6635455
30	0xbc245b2e	-0.010031505
31	0x3db7957b	0.08964058
32	0x3eac947e	0.3370704
33	0xbeaf54cc	-0.34244382
34	0xbe7287fb	-0.23684685
35	0x3d28fbb8	0.041255683
36	0xbe22be2a	-0.15892854
37	0xbd5980cf	-0.053101357
38	0x3d1d0b4e	0.03834086
39	0xbe8f1fa7	-0.27953836
40	0x3d7ab721	0.0612098
41	0x3dec26ae	0.11530815
42	0x3e692deb	0.22771423
43	0xbe939e79	-0.28831843
44	0xbe1cd033	-0.15313797
45	0x3d9596d9	0.073041625
46	0xbcebd24a	-0.028786797
47	0xbd34d581	-0.044148926
48	0xc09d9473	-4.9243712
49	0xbd82ca96	-0.063862965
50	0x3d929a50	0.07158339
51	0xbe29d20d	-0.16584034
52	0xbbde881d	-0.0067911283
53	0xbe700de9	-0.23442806
54	0xc0152458	-2.3303432
55	0xbe0fd59f	-0.14046334
56	0x3e91eae9	0.28499535
57	0xbe150fbb	-0.14556782
58	0xbcbe371b	-0.023219636
59	0xbef36185	-0.4753534
60	0xbf223eb6	-0.6337694
61	0xbd9be3fb	-0.07611843
62	0xbeba3c2d	-0.36374035
63	0xbeabbc6e	-0.33542198
64	0xb85c7030	-5.255657e-05
65	0xbb566598	-0.0032714363
66	0xbb11eaa3	-0.0022265099
67	0xbe0167f8	-0.12637317
68	0xbc38d8ce	-0.011282159
69	0xbe117476	-0.14204583
70	0xbc253e8d	-0.010085714
71	0x3b1547da	0.0022778423
72	0xbac688f9	-0.0015147022
73	0xbc7854ec	-0.015156966
74	0xbc4bd279	-0.012440317
75	0xbc3f10a2	-0.01166168
76	0xba692753	-0.00088941044
77	0xbb0f7ea1	-0.0021895545
78	0xba08ae50	-0.0005213963
79	0xbb1629a2	-0.0022912999
80	0xbc6511d3	-0.0139813
81	0xba7be941	-0.00096096477
82	0xbc3bfbdd	-0.011473623
83	0xbb15339f	-0.0022766364
84	0x39b46878	0.0003441011
85	0xbc367728	-0.0111368075
86	0xbc70fc3c	-0.014708575
87	0x39ebd284	0.0004497954
88	0xbad32f8a	-0.001611219
89	0x39bf61f6	0.00036503345
90	0xbe03b26b	-0.1286103
91	0x3abf8711	0.0014612396
92	0xbb0cbcc0	-0.0021474808
93	0xbe0188aa	-0.1264979
94	0xbb6d387a	-0.0036196993
95	0x3ac95b35	0.0015362265
96	0xba9c2e7e	-0.0011915711
97	0xb9264a10	-0.00015858584
98	0xbc584f41	-0.013202489
99	0xba7bc54b	-0.0009604289
100	0xbb55056a	-0.0032504448
101	0xbc6f2f12	-0.014598625
102	0xbc43a531	-0.01194124
103	0x39cfae5b	0.00039612022
104	0xbc33aace	-0.010966016
105	0xbc6dd429	-0.014515915
106	0xbaf36304	-0.0018568938
107	0xbc3b62b2	-0.011437105
108	0x3aba53da	0.0014215664
109	0xb9dd6013	-0.00042223986
110	0x3a0a0b8a	0.00052660017
111	0xbe111720	-0.14168978
112	0xbac624ef	-0.0015117208
113	0xbc1c7b49	-0.009550878
114	0xbc7242e8	-0.0147864595
115	0xbc5da8d8	-0.013529025
116	0xbc32cbc1	-0.0109128365
117	0xbe01f96b	-0.12692802
118	0xbb214de9	-0.0024613088
119	0xbc3f8b1f	-0.011690884
120	0xbc51f987	-0.01281584
121	0xbc3cc966	-0.0115226265
122	0xbc7552bb	-0.014973338
123	0xbdffd8d2	-0.12492527
124	0xbc7550ca	-0.014972875
125	0xbb36cd5f	-0.0027893407
126	0xbc759427	-0.014988936
127	0xbc3d11db	-0.011539902
128	0xbdde69de	-0.10860036
129	0x3c857aaa	0.016293842
130	0x3d90df6c	0.07073864
131	0xbea86739	-0.32891253
132	0xbc222ac5	-0.009897892
133	0x3ec80149	0.3906348
134	0xbe47a6a8	-0.19497168
135	0xbe0e2da3	-0.13884597
136	0x3f0670d4	0.5251591
137	0xbc76c97d	-0.015062687
138	0xbc50e49c	-0.012749817
139	0xbe0a4638	-0.13503349
140	0xbe293ba0	-0.16526651
141	0x3d2f3d5e	0.042783134
142	0x3d2b3191	0.041795317
143	0xbdf6a191	-0.12042535
144	0x3d6378f7	0.055535283
145	0x3de9a542	0.114084736
146	0x3d125c53	0.03573258
147	0x3d80b6f9	0.06284899
148	0xbdc95dd8	-0.098323524
149	0xbe3ae22e	-0.18250343
150	0xbdaa34fa	-0.08310886
151	0xbe779389	-0.24177374
152	0x3cc3e413	0.023912465
153	0xbd342237	-0.043977942
154	0x3d6437d9	0.055717323
155	0xbe20fe5d	-0.15722032
156	0xbe09f601	-0.1347275
157	0xbe621b25	-0.22080667
158	0xbe588d1b	-0.21147577
159	0xbe4336c3	-0.19063859
160	0xbceae3fe	-0.028673168
161	0xbe001c01	-0.12510683
162	0xbdf5cf58	-0.12002438
163	0xbe68b775	-0.22726233
164	0xbe736275	-0.23768027
165	0xbcf7a9b9	-0.030232297
166	0xbdeca4fa	-0.11554904
167	0x3da0f4b5	0.07859174
168	0x3e619f19	0.22033347
169	0xbde148b4	-0.11000195
170	0xbe540a72	-0.2070711
171	0xbda9ea8c	-0.082966894
172	0xbadcaac4	-0.001683556
173	0xbe16d5ad	-0.14729948
174	0x3e17496a	0.14774099
175	0x3f4d653d	0.802326
176	0xbea8b4e6	-0.32950515
177	0xbce20402	-0.027589802
178	0xbe17795e	-0.14792392
179	0x3e34ce19	0.17656745
180	0x3d5b7288	0.053576022
181	0xbf2a2204	-0.66458154
182	0xbe782520	-0.24232912
183	0xbc98292b	-0.018574318
184	0x3cd85b45	0.026410708
185	0xbddfb426	-0.109230325
186	0xbd0a6d70	-0.033795774
187	0xbc87b241	-0.01656449
188	0x3d761406	0.06007769
189	0xbdcae485	-0.09906868
190	0xbe94422e	-0.2895674
191	0x3c5f7041	0.013637603
192	0x3db45478	0.08805174
193	0x3c73c90e	0.014879478
194	0x3d24c3f1	0.040225927
195	0x3cda27f7	0.026630385
196	0xbc824c3d	-0.015905494
197	0xbe57149f	-0.2100396
198	0x3e60beac	0.21947736
199	0xbb47671c	-0.0030426448
200	0xb93ffcfd	-0.00018309425
201	0xbd11c848	-0.035591394
202	0xbbc1472c	-0.005898377
203	0xbe3b23f1	-0.1827543
204	0xbd25bf3c	-0.04046558
205	0xbd77609c	-0.06039487
206	0xbe0a2ab3	-0.13492851
207	0x3b7555f6	0.003743527
208	0xbc9fe753	-0.019519484
209	0x3b59197a	0.0033126757
210	0xbccbb7bd	-0.024867887
211	0x3bfdd135	0.0077458867
212	0x3a8124ac	0.0009852848
213	0x3c512939	0.012766176
214	0xbc7053a4	-0.014668379
215	0x3c2dca6f	0.010607346
216	0x3d1ca5af	0.038243946
217	0xbcd5494b	-0.026035925
218	0xbd48332c	-0.048876926
219	0x3dc77a0d	0.09740076
220	0x3c8aa614	0.016924895
221	0x3d9e760f	0.07737362
222	0x3d1ac513	0.0377856
223	0x3d02501f	0.03181469
224	0xbba95a85	-0.0051682615
225	0x3a3e8e68	0.0007269145
226	0xbd2f9bf5	-0.04287334
227	0x3cf30387	0.029664768
228	0x3d5684d4	0.05237277
229	0xbc883eb8	-0.01663147
230	0xbd338b6f	-0.043834146
231	0x3d1f266e	0.03885501
232	0xbe19d789	-0.15023626
233	0xbd82be3e	-0.06383942
234	0x3db5da33	0.08879509
235	0x3d33a231	0.04385585
236	0x3bb94a78	0.0056546293
237	0x3d56a78f	0.05240589
238	0x3b885c36	0.004161383
239	0xbed83ff8	-0.42236304
240	0x3d01775a	0.031607963
241	0x3d1cb56e	0.038258962
242	0xbd160607	-0.036626842
243	0x3c2bb1f5	0.01047944
244	0xbcc03535	-0.023462871
245	0xbe22e84e	-0.1590893
246	0xbdce0c9f	-0.10061001
247	0xbb7dea46	-0.0038744374
248	0xbcfe39f2	-0.03103349
249	0x3be41c2c	0.006961366
250	0xba1529e0	-0.0005690139
251	0xbdf9af13	-0.12191596
252	0xbca63feb	-0.02029415
253	0x3bc8f055	0.0061321654
254	0xbc54403e	-0.01295477
255	0xbbc25da2	-0.005931572

conv2.nn.0.bias f4 [64]
0	0x401e7da2	2.476418
1	0xbe0fcf3c	-0.14043897
2	0xbf31f18c	-0.69509196
3	0xbd165431	-0.036701385
4	0xbdec3eb7	-0.115353994
5	0x3e083651	0.1330197
6	0x3c3390c7	0.010959811
7	0xbba900fb	-0.0051575876
8	0x3f15b8a9	0.58484894
9	0xbdd09995	-0.101855434
10	0xbde9d8b0	-0.11418283
11	0x40320ae9	2.781916
12	0x3f8f793b	1.1208872
13	0x3ed865b0	0.4226508
14	0x40365e1b	2.8494937
15	0x406e9d25	3.7283413
16	0x3cab8722	0.02093846
17	0x4074da5d	3.8258278
18	0x40519caf	3.2751882
19	0xbddc3d06	-0.10753827
20	0xbe01c0fa	-0.12671271
21	0xbe01a471	-0.12660386
22	0x40169c35	2.3532841
23	0x40819bb4	4.0502567
24	0xbc3e3d5e	-0.011611311
25	0x3c17c7d9	0.009263956
26	0xbdadd70d	-0.08488283
27	0xbe05b06f	-0.13055585
28	0x3e75d76e	0.24007961
29	0xbdc30013	-0.095214985
30	0x3c18b5bf	0.009320675
31	0xbd122311	-0.035677973
32	0xbc2d9c2d	-0.010596317
33	0xbe881cbd	-0.26584426
34	0x3df52486	0.11969857
35	0x3f797740	0.97447586
36	0xbf03e599	-0.51522213
37	0x40a2e77c	5.0907574
38	0xbe13cc4d	-0.14433403
39	0x40b7d235	5.74441
40	0xbe03139d	-0.1280045
41	0x406dbc76	3.7146277
42	0xbe08c3b0	-0.13355899
43	0xbdd06809	-0.10176093
44	0xbdf9ae50	-0.121914506
45	0x3e5ab2e1	0.213573
46	0x40a1edf5	5.0602975
47	0xbe429212	-0.19001034
48	0x3fee7592	1.862963
49	0x4046344f	3.0969427
50	0xbc4ecf7f	-0.012622713
51	0xbc926ce7	-0.017874194
52	0x3fc1f45c	1.5152698
53	0xbbf60575	-0.0075079747
54	0x3edd664f	0.43242118
55	0xbb1ff0cc	-0.0024405
56	0xbcf48b81	-0.029851677
57	0xbd992eee	-0.07479654
58	0xbe4e0b8c	-0.20121592
59	0xbbee4c35	-0.007272268
60	0x4024d19a	2.575293
61	0x3f21217b	0.6294171
62	0x403d74aa	2.9602456
63	0xbe543ca0	-0.20726252

conv2.nn.2.weight f4 [64]
0	0x3f5a3a9f	0.852457
1	0xbdea5329	-0.11441643
2	0x3f07a0a5	0.529795
3	0xbd676db0	-0.05650109
4	0xbdbf6bee	-0.09346758
5	0x3df4dcf9	0.1195621
6	0xbd1dd21b	-0.03853045
7	0x3cd29167	0.025704099
8	0x3f20528b	0.6262595
9	0xbd81eb74	-0.06343737
10	0x3d3ef704	0.04662229
11	0xbec8884a	-0.3916648
12	0xbed65c2d	-0.418672
13	0x3f623181	0.88356787
14	0x3f9bbcd2	1.2166998
15	0x3f28b9bd	0.65908414
16	0x3bdc00fb	0.006713984
17	0x3f5d0224	0.8633139
18	0x3f266aab	0.6500651
19	0xbdcc70fc	-0.099824876
20	0x3e013524	0.12617928
21	0xbdc7877b	-0.09742638
22	0x3f701ce6	0.93794096
23	0x3f39c99f	0.72573274
24	0x3c81da01	0.015851023
25	0x3cfa17b7	0.030528886
26	0x3ee99303	0.45619974
27	0xbde4ddd8	-0.11175126
28	0x3e455479	0.19270505
29	0xbd2555f8	-0.04036519
30	0x4003c9bd	2.0591881
31	0x3c9ad772	0.01890156
32	0x3b57c414	0.0032923268
33	0x3d905745	0.07047895
34	0x3e0d4172	0.13794497
35	0x3e1d8f6a	0.1538674
36	0x3f2c5c6c	0.67328525
37	0xbfa51cf3	-1.289946
38	0xbdc0eb4c	-0.09419879
39	0xbf73627b	-0.95072144
40	0xbde4d3a0	-0.11173177
41	0x3f436fbd	0.76342374
42	0xbdfebe3e	-0.124386296
43	0xbdb78fca	-0.089629725
44	0xbd951c72	-0.07280816
45	0x3e05cbf7	0.13066088
46	0x3f249b97	0.6429991
47	0x3ef34718	0.47515178
48	0xbf2aa328	-0.66655207
49	0x3f25cd55	0.64766437
50	0x3c14870d	0.009065402
51	0x3c07810b	0.008270512
52	0x3f5b3e40	0.8564186
53	0x3c799225	0.0152325975
54	0x3f97eba2	1.1868784
55	0x3c84b651	0.016200216
56	0x3c8c63da	0.017137457
57	0xbd719ddf	-0.05898845
58	0x3e4d7111	0.20062663
59	0x3c4ef10f	0.012630715
60	0x3f94a202	1.1611941
61	0x3e00a1f9	0.12561788
62	0xbec4a488	-0.38406777
63	0x3df8074d	0.121107675

conv2.nn.2.bias f4 [64]
0	0x3cf48e33	0.029852962
1	0x3e2f81e8	0.17139399
2	0x3f3a8f96	0.72875345
3	0x3d20a3ae	0.039218597
4	0x3e007098	0.12542951
5	0x3d80cfa7	0.062896065
6	0x3b3e97a8	0.0029082093
7	0xbe0c0a47	-0.13675795
8	0x3e8f8690	0.2803235
9	0xbef966a7	-0.4871113
10	0x3d3806a7	0.04492822
11	0x3c6a8e0c	0.014316093
12	0x3ca28894	0.019840516
13	0x3f4c91cf	0.79909986
14	0x3f1b2892	0.6060878
15	0x3f0f6469	0.5601259
16	0x3dd8ce86	0.10586266
17	0x3e617cc3	0.22020249
18	0x3f18b749	0.5965467
19	0x3e480121	0.1953168
20	0x3d041f37	0.03225633
21	0x3ed7282b	0.42022833
22	0x3f1c772a	0.6111933
23	0x3eaef92d	0.3417448
24	0xbd08e69f	-0.033423062
25	0x3d344226	0.044008397
26	0x3ec7045a	0.38870507
27	0xbcd86ecd	-0.026420021
28	0xbebdb471	-0.37051728
29	0x3d8175bc	0.06321284
30	0x3f79ec77	0.9762644
31	0xbbf20a15	-0.007386456
32	0xbc2589de	-0.010103671
33	0xbe103b41	-0.14085104
34	0x3cf64740	0.030063272
35	0x3b9eb399	0.004843187
36	0x3f4ef0c3	0.80836123
37	0xbe0f770e	-0.1401026
38	0xbd3b0176	-0.04565569
39	0xbf02583d	-0.5091589
40	0xbc80fe4b	-0.015746256
41	0x3e37bc3f	0.17942904
42	0xbdc20ce7	-0.09475117
43	0x3d4b7056	0.04966768
44	0x3de319ff	0.11088943
45	0xbeb23f33	-0.34813842
46	0x3e6e7d58	0.23290002
47	0x3f35c888	0.7100911
48	0xbec3256b	-0.38114485
49	0x3f0e9657	0.5569815
50	0xbd505607	-0.050863292
51	0xbc9845eb	-0.018588027
52	0x3dda45df	0.10657858
53	0x3dc6e752	0.097120896
54	0x3f45127c	0.7698133
55	0xbc9b3895	-0.018947879
56	0x3ceef54f	0.029169707
57	0x3c9b5661	0.018962087
58	0x3aa45049	0.0012536134
59	0x3aebbead	0.0017985903
60	0x3f1c3d0b	0.61030644
61	0xbb9d023a	-0.004791525
62	0x3cdfae73	0.027304864
63	0xbd4b0993	-0.049569678

conv2.nn.2.running_mean f4 [64]
0	0x000d26f3	1.207834e-39
1	0x00000004	6e-45
2	0x4342ce7c	194.80658
3	0x00000004	6e-45
4	0x00000004	6e-45
5	0x00000004	6e-45
6	0x00000004	6e-45
7	0x00000004	6e-45
8	0x00000004	6e-45
9	0x00000004	6e-45
10	0x00000004	6e-45
11	0x00000717	2.543e-42
12	0x00000004	6e-45
13	0x43ed6b49	474.83817
14	0x42f1f1e2	120.97243
15	0x431854d2	152.33133
16	0x00000004	6e-45
17	0x40301e53	2.7518508
18	0x4321d341	161.82521
19	0x00000004	6e-45
20	0x00000004	6e-45
21	0x00000004	6e-45
22	0x436ee44f	238.89183
23	0x35b2cc5a	1.3321508e-06
24	0x00000004	6e-45
25	0x00000004	6e-45
26	0x00000004	6e-45
27	0x00000004	6e-45
28	0x00000004	6e-45
29	0x00000004	6e-45
30	0x43b61181	364.13675
31	0x00000004	6e-45
32	0x00000004	6e-45
33	0x00000004	6e-45
34	0x00000004	6e-45
35	0x00000004	6e-45
36	0x43b9fa5f	371.95602
37	0x4133d458	11.239342
38	0x00000004	6e-45
39	0x4302c6ee	130.77707
40	0x00000004	6e-45
41	0x368cc254	4.194948e-06
42	0x00000004	6e-45
43	0x00000004	6e-45
44	0x00000004	6e-45
45	0x00000004	6e-45
46	0x366f3940	3.56471e-06
47	0x42e3bf2a	113.87337
48	0x36db097c	6.5278127e-06
49	0x432b2483	171.14262
50	0x00000004	6e-45
51	0x00000004	6e-45
52	0x00000004	6e-45
53	0x00000004	6e-45
54	0x43e3c9f7	455.57785
55	0x00000004	6e-45
56	0x00000004	6e-45
57	0x00000004	6e-45
58	0x00000004	6e-45
59	0x00000004	6e-45
60	0x42acd957	86.42449
61	0x00000004	6e-45
62	0x20887c85	2.3121696e-19
63	0x00000004	6e-45

conv2.nn.2.running_var f4 [64]
0	0x000ef8ad	1.374905e-39
1	0x00000004	6e-45
2	0x45c25eb8	6219.84
3	0x00000004	6e-45
4	0x00000004	6e-45
5	0x00000004	6e-45
6	0x00000004	6e-45
7	0x00000004	6e-45
8	0x00000004	6e-45
9	0x00000004	6e-45
10	0x00000004	6e-45
11	0x0000011f	4.02e-43
12	0x00000004	6e-45
13	0x46d26b57	26933.67
14	0x465bef79	14075.868
15	0x46749317	15652.772
16	0x00000004	6e-45
17	0x42c21b1f	97.05297
18	0x465f7697	14301.647
19	0x00000004	6e-45
20	0x00000004	6e-45
21	0x00000004	6e-45
22	0x45ed2563	7588.6733
23	0x34fb2d42	4.6785323e-07
24	0x00000004	6e-45
25	0x00000004	6e-45
26	0x00000004	6e-45
27	0x00000004	6e-45
28	0x00000004	6e-45
29	0x00000004	6e-45
30	0x468fdb92	18413.785
31	0x00000004	6e-45
32	0x00000004	6e-45
33	0x00000004	6e-45
34	0x00000004	6e-45
35	0x00000004	6e-45
36	0x468cfecc	18047.398
37	0x447d7844	1013.87915
38	0x00000004	6e-45
39	0x460b5a7e	8918.623
40	0x00000004	6e-45
41	0x36880e2c	4.0547657e-06
42	0x00000004	6e-45
43	0x00000004	6e-45
44	0x00000004	6e-45
45	0x00000004	6e-45
46	0x36469964	2.9593584e-06
47	0x454be298	3262.162
48	0x3708ff76	8.165711e-06
49	0x46810949	16516.643
50	0x00000004	6e-45
51	0x00000004	6e-45
52	0x00000004	6e-45
53	0x00000004	6e-45
54	0x46bb5a9b	23981.303
55	0x00000004	6e-45
56	0x00000004	6e-45
57	0x00000004	6e-45
58	0x00000004	6e-45
59	0x00000004	6e-45
60	0x4592dcbc	4699.592
61	0x00000004	6e-45
62	0x1f82082a	5.507065e-20
63	0x00000004	6e-45

conv2.nn.4.weight f4 [64, 64]
0	0xbe9d70e7	-0.307502
1	0x3e6c2d4d	0.23064156
2	0xbf1b8d2b	-0.6076228
3	0xbe4390ae	-0.1909816
4	0xbda36734	-0.07978669
5	0x3d701bb6	0.058620177
6	0xbdf94738	-0.12171787
7	0x3db33b08	0.08751494
8	0xbdcbb563	-0.09946706
9	0xbe6c82c8	-0.23096764
10	0xbcc7f7b9	-0.024410116
11	0xbee192e7	-0.4405739
12	0xbedf11f7	-0.43568394
13	0xbf2a47f0	-0.6651602
14	0xc00132b2	-2.0187192
15	0x3fc88a18	1.5667143
16	0xbde94254	-0.11389604
17	0x3fa376f6	1.2770679
18	0x3f932755	1.1496378
19	0x3da3d195	0.07998959
20	0x3e2198c4	0.15780932
21	0x3e326951	0.17422988
22	0xbefabda9	-0.48972824
23	0xbf7f621a	-0.99759066
24	0xbcc64611	-0.024203332
25	0xbdf97d9f	-0.121821634
26	0x3d408ecc	0.04701118
27	0x3e4b987f	0.19882391
28	0x3d00cffb	0.031448346
29	0xbdd843d7	-0.105598144
30	0xbf38ab41	-0.7213631
31	0xbe0f182d	-0.13974066
32	0xbea6bdcd	-0.32566682
33	0x3e39dd5f	0.18150853
34	0xbdf02ae9	-0.117269345
35	0xbdf5cf98	-0.12002486
36	0xbf364bdd	-0.7120951
37	0x3fec94db	1.8482927
38	0xbdd8dc53	-0.105888985
39	0xbfc43636	-1.5329044
40	0xbdf7579f	-0.12077259
41	0xbf71f392	-0.94512284
42	0x3e116d2d	0.14201804
43	0x3cf19f32	0.029494856
44	0xbe196ae9	-0.14982189
45	0xbcfa233a	-0.030534375
46	0x3e5e4b22	0.21708348
47	0xbe99397f	-0.2992668
48	0x3cf221a5	0.029557059
49	0x3faf9865	1.3718382
50	0xbd849a9b	-0.06474801
51	0xbd056e0c	-0.032575652
52	0xbf41ba90	-0.75675297
53	0xbdaaf993	-0.08348384
54	0xbf53578a	-0.8255545
55	0xbe515c75	-0.20445426
56	0xbde2d00b	-0.11074837
57	0x3e82f2cb	0.2557586
58	0x3c66decc	0.014091205
59	0xbde91987	-0.11381822
60	0xbe5751d7	-0.21027313
61	0xbd9e9073	-0.07742395
62	0xbeaa47c8	-0.3325789
63	0xbd386ab9	-0.045023654
64	0x3ec79335	0.38979498
65	0xbbc7d5e9	-0.006098498
66	0xbfa475f9	-1.2848502
67	0x3d8dfa09	0.06932456
68	0xbdf6b86f	-0.12046897
69	0xbe3801c8	-0.1796943
70	0xbcef9820	-0.029247344
71	0x3db570dd	0.088594176
72	0xbe1c0ef0	-0.15240073
73	0xbd1a7bfd	-0.0377159
74	0xbd4409e5	-0.047861
75	0x3c8a2163	0.016861623
76	0x3d57e8ac	0.052712128
77	0xbf281022	-0.65649617
78	0x3e8a7e83	0.27049646
79	0xc00a4689	-2.1605551
80	0xbcce6153	-0.025192892
81	0xbfecd300	-1.8501892
82	0xc0076a05	-2.115846
83	0x3dd09f6f	0.101866595
84	0xbe02e519	-0.12782706
85	0xbddf1cb6	-0.10894148
86	0xbe682ea6	-0.22674045
87	0x3d65f4ec	0.05614178
88	0xbbb3c4ad	-0.005486092
89	0xbba86ccc	-0.0051399227
90	0x3c5309e5	0.012880777
91	0x3cf151c3	0.029457932
92	0x3c01d165	0.007923459
93	0xbe1eda73	-0.1551302
94	0xbbab6774	-0.0052308384
95	0x3dce0540	0.10059595
96	0xbc9c4c36	-0.019079309
97	0x3dc63edd	0.09679959
98	0x3cde7b62	0.027158443
99	0x3b510bb3	0.0031897842
100	0xbf3d0af2	-0.73844826
101	0xbebeb677	-0.37248585
102	0x3d3d0f71	0.046157304
103	0x3f401267	0.7502808
104	0x3d1d5aa3	0.038416516
105	0xbdac8ad3	-0.08424916
106	0xbd891148	-0.06692749
107	0xbd28a895	-0.041176397
108	0xbe1188e4	-0.14212376
109	0xbc029904	-0.007971052
110	0xbfaa0076	-1.3281391
111	0xbfd7daa7	-1.6863602
112	0x3e5851f3	0.21125011
113	0xc00fa27d	-2.2442925
114	0x3e1ff151	0.15619399
115	0x3d0d7129	0.034531746
116	0x3e7cf66f	0.24703382
117	0xbd805d63	-0.06267812
118	0xbe0d0a55	-0.13773473
119	0xbdaaabc4	-0.08333543
120	0xbdd025e9	-0.10163481
121	0xbd81ea6e	-0.06343542
122	0x3dccf99d	0.100085475
123	0xbd9694c3	-0.07352593
124	0xbef8e809	-0.4861453
125	0x3d787515	0.060658533
126	0x3e14ecc8	0.1454345
127	0x3de270ee	0.11056696
128	0x3ec08f14	0.3760916
129	0x3ec8f15b	0.3924664
130	0xbf0c8b6a	-0.5490023
131	0xbcebf63d	-0.028803939
132	0x3e165e83	0.14684491
133	0x3e1bdad8	0.15220201
134	0x3d8fdf60	0.07025027
135	0xbe7a7716	-0.2445949
136	0x3e876364	0.26443017
137	0xbecb4a7d	-0.39705268
138	0x3e6fda2c	0.2342307
139	0x3db78232	0.0896038
140	0x3e01450c	0.12623996
141	0xbf75c777	-0.96007484
142	0x3daf25ab	0.085521065
143	0xc01c98e3	-2.4468315
144	0x3e87758a	0.26456863
145	0xbfd6f8be	-1.679466
146	0xc01033ab	-2.2531536
147	0x3ecf7b78	0.40523887
148	0x3da8ea7a	0.08247848
149	0x3e89b15e	0.26893133
150	0xbeccf9f2	-0.40034443
151	0x3db67ed4	0.08910909
152	0xbd45646c	-0.048191473
153	0x3ddba764	0.107252866
154	0x3f06ad6d	0.52608377
155	0xbcb98ec0	-0.022651076
156	0xbea7fced	-0.32810155
157	0x3e51c53d	0.20485397
158	0xbeccd2ac	-0.4000448
159	0xbd91b808	-0.07115179
160	0x3dc659cc	0.09685096
161	0xbe994ccd	-0.29941407
162	0xbb49509e	-0.0030718218
163	0x3cb83944	0.022488244
164	0xbf5d7b36	-0.8651613
165	0xbe93aa6d	-0.28840962
166	0xbdcc7eae	-0.099851
167	0x3f63bdcd	0.8896149
168	0x3e24a023	0.16076712
169	0x3e275dbb	0.16344349
170	0xbe629428	-0.2212683
171	0xbe001fcb	-0.12512128
172	0x3e695308	0.2278558
173	0xbed429d0	-0.4143815
174	0xbf7f8e3a	-0.99826396
175	0xbf51ac7d	-0.8190382
176	0xbeb3e9be	-0.3513927
177	0xc01d10c4	-2.4541483
178	0x3c8709ed	0.016484225
179	0xbe0bf1a1	-0.13666393
180	0x3eabff38	0.33593154
181	0x3e063323	0.13105445
182	0xbf106a26	-0.5641197
183	0x3cae8a5d	0.021306211
184	0x3e4bda53	0.19907503
185	0x3df0b4c3	0.117532276
186	0xbe33cb78	-0.17558086
187	0x3d7ed182	0.06221152
188	0xbeec4713	-0.46147975
189	0xbcda2945	-0.026631007
190	0x3e821e5a	0.2541378
191	0xbd0bbba9	-0.034114514
192	0x3ec4cc0b	0.38436922
193	0x3d22abdb	0.039714675
194	0xbf9d6e50	-1.229929
195	0x3d8e9b81	0.06963254
196	0xbe123884	-0.14279372
197	0xbe42ce70	-0.19024062
198	0xbc11a4bd	-0.008889374
199	0x3e1ae293	0.15125494
200	0xbe10d685	-0.14144333
201	0xbdaf4c8c	-0.08559522
202	0xbd89b52a	-0.067240074
203	0xbc31bb14	-0.010847826
204	0x3dc23290	0.094823
205	0xbf17439f	-0.59087557
206	0x3ea742a4	0.3266803
207	0xc00bffab	-2.1874797
208	0xbd9b65fd	-0.07587812
209	0xbff36d76	-1.901778
210	0xc00bba0b	-2.1832302
211	0x3e0cc8b1	0.13748433
212	0xbdc1f6ff	-0.09470939
213	0xbd7e85fe	-0.062139504
214	0xbddf726c	-0.10910496
215	0x3d69e1ab	0.05709998
216	0xbc6f046e	-0.014588458
217	0x3cb95c5a	0.022627044
218	0x3d990694	0.07471958
219	0x3dec0ced	0.11525903
220	0xbc7291cf	-0.014805271
221	0xbdbc2af6	-0.09187882
222	0x3dc21390	0.094763875
223	0x3de82e72	0.11336984
224	0x3c365ee1	0.011131019
225	0x3d98511b	0.07437345
226	0x3d05c158	0.03265509
227	0xbc9f1635	-0.019419769
228	0xbf2e1004	-0.6799319
229	0xbecfcc1b	-0.40585408
230	0x3d9ec943	0.077532314
231	0x3f43c4d1	0.76472193
232	0x3d777b85	0.06042053
233	0xbd3d17d4	-0.046165302
234	0xbd84b734	-0.06480256
235	0xbc84a5ef	-0.016192405
236	0xbe44337a	-0.19160262
237	0xbd60df64	-0.054900542
238	0xbfa37184	-1.2769017
239	0xbfd449f9	-1.6585075
240	0x3e55bc32	0.20872572
241	0xc0115864	-2.27102
242	0x3e18fd07	0.14940272
243	0x3d63d06e	0.055618696
244	0x3e8d4680	0.2759285
245	0xbd2cf451	-0.042225186
246	0xbd1acb9b	-0.03779183
247	0xbda14a9e	-0.0787556
248	0xbdff1ad8	-0.12456292
249	0xbda1ad3c	-0.0789437
250	0x3d31f71b	0.04344855
251	0xbcfe02df	-0.031007228
252	0xbf033baf	-0.51262945
253	0x3dbd4b27	0.0924285
254	0x3e185cae	0.14879104
255	0x3ddc5dd6	0.10760085

conv2.nn.4.bias f4 [64]
0	0x3f04d733	0.5189087
1	0x3ec4e515	0.38456026
2	0x3f2cf3f1	0.67559725
3	0x3eda83ed	0.42678776
4	0x3ed50185	0.41602722
5	0xbf9bb832	-1.2165587
6	0xbfc00379	-1.500106
7	0x3eaef9d5	0.34174982
8	0x3f4293ac	0.7600658
9	0x3c3ed5e7	0.011647678
10	0x3fc2914a	1.5200589
11	0x3ebaaa66	0.3645813
12	0xbef2dabb	-0.47432503
13	0x3f4f3750	0.80943775
14	0x3f0bebb2	0.5465652
15	0x3f8fe04a	1.1240323
16	0x3ec49a41	0.38398936
17	0x3eb1daa9	0.34737137
18	0x3ecddb42	0.40206343
19	0x3dd30a33	0.1030468
20	0x3ea15176	0.31507462
21	0x3f1c763f	0.6111793
22	0x3f89c28c	1.0762496
23	0x3e4c5628	0.19954741
24	0x3f0b2196	0.54348123
25	0x3ed84f11	0.42247823
26	0x3ead9a99	0.3390701
27	0xbf1347d3	-0.5753147
28	0x3f9a5564	1.2057309
29	0xbf9cfb1a	-1.226413
30	0x3e070bbd	0.13188072
31	0x3ec90b09	0.39266232
32	0x3daca500	0.08429909
33	0x3f88e78f	1.0695666
34	0x3ea71c75	0.32638898
35	0x3f959f07	1.1689156
36	0x3ec65dda	0.38743478
37	0x3f010e71	0.5041266
38	0x3e1986ea	0.14992872
39	0x3fa20602	1.2658083
40	0xbf313d7a	-0.6923443
41	0x3eefd59b	0.46842656
42	0x3f03c988	0.5147939
43	0x3e849a60	0.2589903
44	0x3ebd02fa	0.36916333
45	0x3ec372e7	0.381736
46	0x3f8c142e	1.0943658
47	0x3cf282ac	0.029603325
48	0x3d4da1a4	0.05020298
49	0xbf4c7d7f	-0.7987899
50	0x3eb95d43	0.36203966
51	0x3efc5ab4	0.4928795
52	0x3ec7b75c	0.3900708
53	0x3e8b75d2	0.27238327
54	0xbd8ec8e7	-0.06971913
55	0x3f35d288	0.7102437
56	0x3e9b9125	0.30384174
57	0x3ebcdf44	0.36889088
58	0x3e9d1bca	0.30685264
59	0x3e300595	0.1718963
60	0x3ecced13	0.40024623
61	0x3eaa7b85	0.33297363
62	0x3f030763	0.51183146
63	0xbf9de8e9	-1.2336704
