models/0_2023_2023/Postal_GIN/75.pth (torch, 134066 bytes, 21 tensors)

conv1.nn.0.weight f4 [64, 12]
00000000: 7aa3 173a 7425 4cba 2a0c 8bba 63f9 0cba
00000010: 44fb 33bb 53a4 76ba 4e4d 2fba cc9c e0ba
00000020: 23cb fe3a 33d2 bcba 7638 62ba 6e4d 9bb9
00000030: 4f2f ebba 71ce 92b7 67ce 8bba 7b04 f3ba
00000040: 3ee2 6338 3e83 003b affc 0e3a 2676 ef3a
00000050: 73b5 b5b7 77ac 4aba 6bfe e93a 039b 9aba
00000060: 769b 8bbc 8bd0 24bc 7f0d 23bc b08c adba
00000070: 5cbc 07bd 2102 4eba 3361 91bc 4322 ee3c
00000080: da3c 663c f33a ecba 664f 0e3a 2dbd 18ba
00000090: ffac a3bc ff3d 4cba 0481 6ebb bede dcba
000000a0: dc9b 40bd 6008 8b3a d59c 2bbc 5303 293d
000000b0: 8d82 b63c 0f49 c9ba 45f7 8eba 36a2 033b
000000c0: 66a6 16bb e2fe cfba 9aa4 403a 59d7 d0b9
000000d0: a01c 5c3a 0675 35bb c2a0 8e38 1809 7eb8
000000e0: 319b 8cba 0a29 40ba 283e 34bb d633 d53a
000000f0: fabd 9ebb 4845 65bb f5de 043a 9dcd 86ba
00000100: 96ca eabb d51f 18ba 3d26 eebb 5f13 013b
00000110: 1cd9 023c ccd5 e33b c15a 01bb 4dc3 d23b
00000120: c892 80ba 4ff6 37bb 3e70 5eba df82 18ba
00000130: 2129 d7ba f136 70bb 8f42 21bb 946a c3b7
00000140: 25bb a5ba b2b5 ea38 b14d 14bb c471 9fb9
00000150: 2fb2 b7bb 9e4e ffbb 9484 c9bb 083c 2fba
00000160: 6a8c c5bb c59b e0b9 f5d0 e4bb 9f0f 6abb
00000170: da3e b3bb c886 0dbb 9519 f9ba 1bd0 b9ba
00000180: 1edc 2ebc 9620 84bb a83c 88bb 0233 adbb
00000190: 654f 26bc d93c 3cbb 7754 77bb 07e8 8a3c
000001a0: da1c 093c fcec bfbb 1223 97bb b4ea 6abb
000001b0: e07b b3b9 abec deba 47c1 3f3a d904 14ba
000001c0: d0c1 8bba 1a61 b73a bcab 9db8 a1f5 a5ba
000001d0: aab9 adba e9b5 083b 14d8 bc3a 152f d0ba
000001e0: fcd1 37bc 1f7a 9dbb 6e39 79bb 42a8 f8ba
000001f0: 6161 14bc 6b78 413a 29ee fcbb 05ae 453c
00000200: 1864 c83b 3e5c 0bbb 44ed 9c3a dc87 043b
00000210: 2150 2fba 3bba 01bb 96e4 293a d88c cbba
00000220: 1eb1 bdba a747 1e3a 8c90 5cb9 acfc 1db9
00000230: a934 023b a5b2 cbb9 22ba b03a 0ab7 34ba
00000240: 7e4d 19bc 69ea bfba d142 88b9 39e0 ebba
00000250: 01c4 62bc 1a99 d7bb 7712 9fbc b694 e33a
00000260: b803 973c c9a3 1e3c 6f8f a8bb 1b71 7b3c
00000270: 93ed 88bd cb9d 74bc 566d 9dbc 2dde 07bb
00000280: 231e bcbd 5d20 b93a 3ed7 0dbd 15ab d33d
00000290: 8ff8 0c3e 1b69 16ba 88f4 6dba 002d 663a
000002a0: 34a3 82bb 60bb 9fba 3456 61ba 5899 b4ba
000002b0: 963f 19bc 5170 b2bb 1f0b 16bc 40cf deb9
000002c0: 0c2f 0c3c 7d03 103b 69f9 b6ba 4126 c53b
000002d0: 594e 51bc f3ad 3cbb db53 9fbb 27fd e1ba
000002e0: 29e6 91bc 3b3a 60ba 237f 72bc fac8 a83c
000002f0: 3da6 563c a12f 893a 3111 e23a d145 6439
00000300: 5216 5dbb 4431 5abb 6369 8eba 4dfc 5dba
00000310: c485 9ebb d8de f2b7 fcff 1ebc 1eb8 783a
00000320: 2f39 a83b 51aa 843a c36e 24bb 1102 3c3b
00000330: 927a 77bb b5d4 deba 1566 89bb 4f77 8aba
00000340: ac7e e9bb 02cc 7db9 1ef0 a4bb c1df 303a
00000350: bece af3b da35 693b 0a19 b1b8 761f 973b
00000360: d082 0f3a a5d4 bfb9 1b7a 22b8 622a 2fba
00000370: 8ccc 65ba 23f3 a73a 612d 793a b029 80ba
00000380: 5dde ffba 7cf5 8d3a 6e88 05bb 3c8f cdb8
00000390: 27c9 a9bc 8a8e 61ba beed d1ba e59a eeba
000003a0: c517 05bd 1ea8 abba 293a 83bc b552 ee3c
000003b0: 1e4f b33c 642f 13ba 4806 d539 d953 89ba
000003c0: 8e17 7dbc ee49 8dba a5a9 6f39 c478 08ba
000003d0: 7b58 9ebc 2389 27bc 8c9f a0bc 5b4d 213b
000003e0: 8793 cf3c db68 ae3c bdf9 29bc 61ea ba3c
000003f0: ef1f fb3a 4e76 a2ba f71d a5ba a9e7 90ba
0.0005784553 -0.00077875634 -0.0010608484 -0.00053777377 -0.0027462998 -0.00094086415 -0.00066872395 -0.0017136573
0.0019439202 -0.0014405906 -0.0008629629 -0.00029621593 -0.0017943176 -1.7500688e-05 -0.0010666371 -0.0018540764
5.4331722e-05 0.0019609476 0.0005454523 0.0018269464 -2.1661375e-05 -0.0007731388 0.0017852312 -0.0011795465
-0.017041903 -0.010059486 -0.009951948 -0.0013240781 -0.033138618 -0.00078585936 -0.017746544 0.029069072
0.014052594 -0.0018022939 0.00054287014 -0.0005826529 -0.019979952 -0.00077912206 -0.0036392817 -0.001685105
-0.04702364 0.0010607354 -0.010474403 0.041262936 0.022279048 -0.0015356856 -0.0010907432 0.00200857
-0.0022987365 -0.0015868808 0.00073487463 -0.00039833298 0.00083965994 -0.002768816 6.801031e-05 -6.056679e-05
-0.0010727403 -0.0007330334 -0.0027502868 0.0016266059 -0.0048444243 -0.0034983922 0.00050686236 -0.0010284666
-0.0071652634 -0.0005803083 -0.007267742 0.0019695384 0.007986333 0.006952977 -0.0019737931 0.006431973
-0.0009809369 -0.0028070395 -0.00084853533 -0.0005817841 -0.0016415456 -0.0036653841 -0.0024606322 -2.329544e-05
-0.0012644274 0.00011191833 -0.0022629315 -0.00030411605 -0.005605958 -0.0077913543 -0.0061498377 -0.00066846656
-0.0060287016 -0.00042840667 -0.0069829174 -0.0035714877 -0.005470139 -0.0021595228 -0.0019004816 -0.00141764
-0.010672597 -0.004032205 -0.0041576214 -0.0052856216 -0.010150765 -0.0028722791 -0.0037739554 0.016956342
0.008368695 -0.005857108 -0.004612335 -0.003584546 -0.00034233835 -0.0017007788 0.00073148723 -0.00056464743
-0.0010662619 0.001399073 -7.5183314e-05 -0.0012661704 -0.0013254185 0.002086038 0.0014407658 -0.0015883172
-0.011219498 -0.0048058177 -0.0038028616 -0.0018971043 -0.00905642 0.00073803094 -0.0077188206 0.012065415
0.0061154477 -0.0021264697 0.0011972566 0.002022258 -0.00066876604 -0.001979484 0.00064809003 -0.0015529646
-0.0014472341 0.0006037899 -0.00021034683 -0.00015066814 0.0019867814 -0.00038852278 0.0013483206 -0.000689373
-0.0093568545 -0.0014642003 -0.00025989724 -0.0017995901 -0.013840676 -0.0065795304 -0.019417984 0.0017363045
0.01843439 0.009682604 -0.0051440517 0.015346791 -0.06685939 -0.014930199 -0.019217175 -0.0020731792
-0.091854356 0.0014124025 -0.0346291 0.10335366 0.13766693 -0.0005737708 -0.00090772705 0.0008780509
-0.0039867405 -0.0012186579 -0.0008595914 -0.001377861 -0.009353539 -0.005445518 -0.009157925 -0.00042497553
0.008556139 0.0021974735 -0.0013959828 0.006016523 -0.012775027 -0.0028790205 -0.0048622913 -0.0017241583
-0.017809944 -0.0008553599 -0.01480082 0.020603646 0.013101158 0.0010466465 0.0017247555 0.00021769783
-0.0033735228 -0.0033293525 -0.0010865148 -0.00084680767 -0.0048377234 -2.8952418e-05 -0.009704586 0.0009487885
0.00513377 0.0010121559 -0.0025090433 0.0028687755 -0.0037762267 -0.0017000647 -0.0041930773 -0.0010564121
-0.007125696 -0.00024203959 -0.005033507 0.0006747209 0.0053652218 0.0035585077 -8.4446816e-05 0.0046119047
0.00054745097 -0.0003658879 -3.873753e-05 -0.0006682036 -0.00087661366 0.0012813549 0.0009505358 -0.0009778049
-0.0019521225 0.0010830606 -0.0020375508 -9.801841e-05 -0.0207258 -0.0008604309 -0.0016016287 -0.0018204121
-0.03249337 -0.0013096367 -0.016018944 0.029092172 0.021888312 -0.0005614667 0.00040631206 -0.0010477259
-0.01544751 -0.0010779479 0.00022856014 -0.0005205984 -0.0193293 -0.010225567 -0.019607328 0.0024612758
0.025338901 0.021290233 -0.010374484 0.022816839 0.0019159297 -0.0012394877 -0.0012597431 -0.0011055368

conv1.nn.0.bias f4 [64]
00000000: 3ed0 3abb eaec 9d3a 239d e0bc 6214 0fbd
00000010: b06c 6f3a 3106 89ba 8ec8 913a 3bdd 06bc
00000020: ad71 33bc d4ab 1639 9600 47bc 579d 943a
00000030: e502 edba 0cf9 bfbd 039e abba 4bd3 a2bc
00000040: 436c 41bb d32f aabb c395 223a dc4d d6bc
00000050: 1f35 0fbb 1d7e c4ba c515 8db9 47cc 60bb
00000060: 9513 1abd 268b 82be 96e3 0cbd 866d dfbb
00000070: a444 03bb f088 cdba 847e 2eb8 6897 e1b7
00000080: 3029 aebc 4aaa 87ba 0b52 b5ba 7f6f 18bd
00000090: 61d4 2fb9 f2a1 87b9 3f6d 093b bb99 abba
000000a0: 8340 d7bc 64f4 b5ba d4ef 943a 7620 8ebb
000000b0: d45b efbc c4a8 29be 46a0 3fbb 1a02 19bf
000000c0: e8f0 f2ba 9864 16bb cdcf 2ebd 70b0 81bc
000000d0: 6085 bfba 96de e638 4049 adb9 8fa6 1bbc
000000e0: 6065 34ba 2b77 ac3a 91ae 1bbc 74d1 70ba
000000f0: c4a0 9aba 4483 8cbc d701 41bc c1e5 94bc
-0.002850547 0.0012048755 -0.027418679 -0.034931548 0.0009133322 -0.0010454116 0.0011122392 -0.008231456
-0.010952395 0.00014369126 -0.012146136 0.0011338395 -0.0018082528 -0.09373674 -0.0013093356 -0.019876143
-0.0029513992 -0.0051936894 0.0006202126 -0.026160173 -0.002185173 -0.0014991198 -0.00026909835 -0.0034301446
-0.03761633 -0.25496787 -0.03439673 -0.006818476 -0.0020029927 -0.0015681069 -4.160266e-05 -2.6892594e-05
-0.021259874 -0.0010350433 -0.0013833655 -0.037215706 -0.00016768418 -0.00025869865 0.0020969657 -0.001309208
-0.026275879 -0.0013882038 0.0011362978 -0.0043373657 -0.029218592 -0.16568285 -0.0029239818 -0.5976883
-0.001853493 -0.0022948142 -0.042678643 -0.015831202 -0.0014611892 0.000110087145 -0.00033051707 -0.00950016
-0.0006881561 0.0013158073 -0.009502069 -0.00091864844 -0.001179718 -0.017152436 -0.011780224 -0.018175961

conv1.nn.2.weight f4 [64]
00000000: f036 d53b de6e fb3b d728 ed37 9b24 97ba
00000010: 173f 033c 8818 da3b 3314 eb3b a653 c9bb
00000020: aee2 593b de6e fb3b 5edf 353a de6e fb3b
00000030: b331 f03b 4baf 2d3a c27d ea3b 089e 1c3a
00000040: 7d9c b83b fdd2 eb3b de6e fb3b f42e 2fb6
00000050: 945e 123c de6e fb3b aa2b c33b 99a9 f03a
00000060: cc05 04ba ffb0 0bbd 9de9 aeba ff8b 833b
00000070: 7a75 d93b db92 e63b 32e5 b73b a33d 12bb
00000080: ffd2 84ba df8f b93b 7eac e73b 4d0f 00bc
00000090: ae2c f33b de6e fb3b de6e fb3b d271 1d3c
000000a0: a155 61bb 5d2b f33b 46c8 c63b 51e7 ed3b
000000b0: dfb8 0039 1233 db3c ca81 263c 5e1e 963f
000000c0: 72c1 ac3b 9bc6 4e3c 0418 463a b418 00b8
000000d0: 53bc e73b 0979 ce3b de6e fb3b 1ea3 bbba
000000e0: de6e fb3b 9389 ce3b 4b84 ceb9 c0d6 e43b
000000f0: 6857 45b7 a0a7 0f3a c828 303a 9116 b9b8
0.006506793 0.0076731285 2.827162e-05 -0.0011531295 0.008010647 0.0066557564 0.007174039 -0.006144005
0.0033246684 0.0076731285 0.00069378864 0.0076731285 0.0073301434 0.0006625547 0.007156105 0.0005974476
0.005633889 0.0071967826 0.0076731285 -2.6104362e-06 0.008933682 0.0076731285 0.005956133 0.0018361091
-0.0005036264 -0.034104344 -0.0013344769 0.0040144916 0.0066363188 0.0070365495 0.005612039 -0.002231457
-0.0010133683 0.0056629027 0.007070123 -0.007816148 0.0074210977 0.0076731285 0.0076731285 0.009609656
-0.0034383314 0.007420941 0.006066355 0.007260241 0.00012275901 0.02675775 0.01016278 1.1728017
0.005272084 0.012620593 0.0007556679 -3.0540585e-05 0.0070720105 0.0063010496 0.0076731285 -0.001431558
0.0076731285 0.006303021 -0.00039389948 0.006983608 -1.1762466e-05 0.0005479995 0.0006719944 -8.825691e-05

conv1.nn.2.bias f4 [64]
00000000: b594 da3a a25f 033c b373 463c cd3b 11bc
00000010: 04cf b2bb 932d caba 0ec5 a6ba f50b 0d3b
00000020: f3bd b8bb 3a7e 753b 3a69 27ba 79d4 7a3a
00000030: f834 f03b 33f0 5e3b c93c 01b9 ebbb 3cbc
00000040: 1342 52bc ae28 a73a fc0c 633b 0c0b 343b
00000050: 35d1 d53a 8c2a 2fba 9982 09bb 9117 b3bb
00000060: 4064 17bb 4e80 2b3c e4ea 21ba 88a7 a63b
00000070: 8b5f 863c 7f12 993a aa25 b43b 8f16 f1b9
00000080: 3d12 893b 56a5 1fbb 36eb feb9 26a3 93bb
00000090: ed19 8cbb 47c1 b83b 27fb 8a3c dd3f 3fbb
000000a0: 9d98 5b3c 22e8 873b 0e43 453c 6dab 173b
000000b0: 0740 ff3b ee4c 43b9 9479 d9bb f280 b4be
000000c0: 4dc2 a63b dec4 9bbb 127c 4abb d1d0 ec3a
000000d0: 0793 9e3c 2630 24bc b53d d43b f03c 8eba
000000e0: fa44 913a ab4c 903b e77f 5a3b bdd0 0bbc
000000f0: c571 1d3b 6087 82ba 3ab1 b53b 8673 8b3a
0.0016676398 0.008018406 0.012112546 -0.008864355 -0.005456807 -0.0015424959 -0.0012723522 0.002152202
-0.005637878 0.003745927 -0.00063862244 0.0009568404 0.007330533 0.0034017682 -0.00012325043 -0.0115194125
-0.012833136 0.0012753212 0.003464519 0.0027472405 0.0016312959 -0.000668206 -0.0020982383 -0.005465456
-0.0023100525 0.010467602 -0.0006176664 0.0050858893 0.01640298 0.0011678486 0.005497654 -0.0004598391
0.0041830824 -0.0024360023 -0.000486219 -0.004505533 -0.0042755515 0.005638275 0.016965462 -0.0029182353
0.013403085 0.0041475454 0.012039913 0.002314295 0.007789615 -0.00018625308 -0.0066368077 -0.35254627
0.0050890804 -0.004753693 -0.0030896706 0.0018067603 0.019357217 -0.010021245 0.0064770826 -0.0010851901
0.0011083179 0.004403671 0.0033340396 -0.008533654 0.002402411 -0.0009958558 0.0055448087 0.0010639287

conv1.nn.2.running_mean f4 [64]
00000000: 0400 0000 0000 0000 0400 0000 0400 0000
00000010: 0400 0000 0400 0000 0400 0000 0400 0000
00000020: 0400 0000 0000 0000 0400 0000 0000 0000
00000030: 0400 0000 0400 0000 0400 0000 0400 0000
00000040: 0400 0000 0400 0000 0000 0000 0400 0000
00000050: 0400 0000 0000 0000 0400 0000 0400 0000
00000060: 0400 0000 0400 0000 0400 0000 0400 0000
00000070: 0400 0000 0400 0000 0400 0000 0400 0000
00000080: 0400 0000 0400 0000 0400 0000 0400 0000
00000090: 0400 0000 0000 0000 0000 0000 0400 0000
000000a0: 0400 0000 0400 0000 0400 0000 0400 0000
000000b0: 0400 0000 0400 0000 0400 0000 514c 9147
000000c0: 0400 0000 0400 0000 0400 0000 0400 0000
000000d0: 0400 0000 0400 0000 0000 0000 0400 0000
000000e0: 0000 0000 0400 0000 0400 0000 0400 0000
000000f0: 0400 0000 0400 0000 0400 0000 0400 0000
6e-45 0.0 6e-45 6e-45 6e-45 6e-45 6e-45 6e-45
6e-45 0.0 6e-45 0.0 6e-45 6e-45 6e-45 6e-45
6e-45 6e-45 0.0 6e-45 6e-45 0.0 6e-45 6e-45
6e-45 6e-45 6e-45 6e-45 6e-45 6e-45 6e-45 6e-45
6e-45 6e-45 6e-45 6e-45 6e-45 0.0 0.0 6e-45
6e-45 6e-45 6e-45 6e-45 6e-45 6e-45 6e-45 74392.63
6e-45 6e-45 6e-45 6e-45 6e-45 6e-45 0.0 6e-45
0.0 6e-45 6e-45 6e-45 6e-45 6e-45 6e-45 6e-45

conv1.nn.2.running_var f4 [64]
00000000: 0400 0000 0400 0000 0400 0000 0400 0000
00000010: 0400 0000 0400 0000 0400 0000 0400 0000
00000020: 0400 0000 0400 0000 0400 0000 0400 0000
00000030: 0400 0000 0400 0000 0400 0000 0400 0000
00000040: 0400 0000 0400 0000 0400 0000 0400 0000
00000050: 0400 0000 0400 0000 0400 0000 0400 0000
00000060: 0400 0000 0400 0000 0400 0000 0400 0000
00000070: 0400 0000 0400 0000 0400 0000 0400 0000
00000080: 0400 0000 0400 0000 0400 0000 0400 0000
00000090: 0400 0000 0400 0000 0400 0000 0400 0000
000000a0: 0400 0000 0400 0000 0400 0000 0400 0000
000000b0: 0400 0000 0400 0000 0400 0000 a539 954f
000000c0: 0400 0000 0400 0000 0400 0000 0400 0000
000000d0: 0400 0000 0400 0000 0400 0000 0400 0000
000000e0: 0400 0000 0400 0000 0400 0000 0400 0000
000000f0: 0400 0000 0400 0000 0400 0000 0400 0000
6e-45 6e-45 6e-45 6e-45 6e-45 6e-45 6e-45 6e-45
6e-45 6e-45 6e-45 6e-45 6e-45 6e-45 6e-45 6e-45
6e-45 6e-45 6e-45 6e-45 6e-45 6e-45 6e-45 6e-45
6e-45 6e-45 6e-45 6e-45 6e-45 6e-45 6e-45 6e-45
6e-45 6e-45 6e-45 6e-45 6e-45 6e-45 6e-45 6e-45
6e-45 6e-45 6e-45 6e-45 6e-45 6e-45 6e-45 5.007166e+09
6e-45 6e-45 6e-45 6e-45 6e-45 6e-45 6e-45 6e-45
6e-45 6e-45 6e-45 6e-45 6e-45 6e-45 6e-45 6e-45

conv1.nn.4.weight f4 [64, 64]
00000000: d98c b0bc 90f6 9d3d 058a 753d d3cf 27bd
00000010: 6722 943c 3ea1 acbd 2eba ccbc f8c9 8f3d
00000020: 975d d0bc 7277 73bd 9938 253d 9013 72bd
00000030: d34e 1cbd 408b 103c 4a98 e13c 7f30 d03d
00000040: ec8f 1e3d 77bb 7dbd 607c 963b 5e23 09be
00000050: 4111 e0bb e775 c33d b5f1 8d3d e029 083e
00000060: 440d db3c d422 17bc c20a 763c f329 51bd
00000070: 8ef2 3cbc 9d44 a43d 6f3f b8bc 7a57 073c
00000080: 5fc4 fe3c 1d5c 703d 6c86 2a3d d4d8 9cbd
00000090: b879 58bd a975 72bd 378e 08bd 6fbf 23bd
000000a0: f6f3 c13c 9fcb 383e 818a 473d 02b1 cfbd
000000b0: 0add ba3d ce7e 853b cb4c 5bbb dbc3 9bba
000000c0: e42a bbba 2fc4 9fbd 8e74 e93c e97f 98bc
000000d0: 95a4 f73d 58e5 a1bd 118a d23a ee06 9bbc
000000e0: 851e b2bc 71a8 c7bc edee bb3c 3a6f 67ba
000000f0: b7a9 493d 2d6a 93bd 41d2 1cbd 19fa ebbc
00000100: 8e1f 183c c11e 4ebc 5fa5 c6bb a47c ffbb
00000110: a2b7 593c ece7 6e3a 2fb2 1e3b 28fc b93c
00000120: 64f7 57bc 1a02 603c 0b90 7a3c fd96 8cbc
00000130: 624a 19bb d481 1739 be9c 193c b27b 66bb
00000140: 94a4 aabc 02a4 303c 3429 9dbc 3bdd 0dbc
00000150: de86 043d e0eb 473c dc49 8d3c cfda 4bbc
00000160: 42cb 593a 49b7 8e3c 4073 b43c 6b47 0c3a
00000170: 20d9 f7bb ea7b 68bc 0736 0ebc 45ab 143c
00000180: d52d a8bb 52cf a63b 1758 45bc d718 863b
00000190: 16d1 8c3c 50e6 533c 0149 14bc 573a e4bc
000001a0: a1f2 a83c 13a9 263b 763c 20bc 8e5f dabb
000001b0: c956 0f3c e954 32ba b6c6 023c 120e 9fbb
000001c0: 9336 9b3b c8df 81bb fdb2 5e3c c5eb 263c
000001d0: 0119 81bc a2d3 37bd 07d9 48bb 3259 a2bb
000001e0: 485c 38bc 1b75 5cbb b021 02bd 8145 d6bc
000001f0: 43c3 b5bb 2670 a4bc 8706 a13b dc2e 9abb
00000200: 301f 8a3d 251c 543d 97d8 a63b 4778 873b
00000210: ba92 8dbb 79b9 08bd d009 27bb 4b45 0f3c
00000220: 348e 5fbc 6d8b 8a3d 2c1d 96bb 93d9 06bd
00000230: ab76 953c f632 163d cfbb 923b 931f 913d
00000240: e071 8bbd 3f14 053d a68e e63b cfa5 20bd
00000250: 5e99 453d 7ee2 843d a21e 3c3d 1781 f1bc
00000260: 51e5 9d3d aab7 313c 3899 ddbc 3d1d 9039
00000270: c83b 73bd 7712 1bbd 56c7 09bd 2851 f33c
00000280: f7e7 333d 00a1 af3d aecd 33bd 77f5 3cbc
00000290: a403 bbbb 8913 3d3b 4d6b 193d 2a5a 3c3c
000002a0: 1853 b63c 7a79 9bbc 699a 0d3d 2fb1 17bc
000002b0: dd37 1b3d c300 553c 95fe e23d f688 ffbb
000002c0: a5dc 833d d84b 433c 45e0 0e3d 6626 abbc
000002d0: 179d cdbc a3e1 11bc 7dcd 273d 2b0c ce3c
000002e0: b7a2 8d3d 8aef c4bc b0c2 10bd cfcf 2f3d
000002f0: 040e 7fbc 172c 29bc a1f6 b73d abeb f9bc
00000300: f796 2ebc 80d5 a3bd 72ff 87bc 074d 1cba
00000310: e4cc 453c 4e90 29bc 372b 29bd 027a 613c
00000320: 5fc9 b23c 3235 383c a715 2e3c 9cd6 9ebc
00000330: 85e6 f9bb fe77 24bc 142f 87bc 9464 253d
00000340: a038 b538 f0af 103a 5001 683d 4973 f03c
00000350: 8408 1c3c ae5d 903c a250 083c 875e 173c
00000360: 56e9 c83a 99f3 d5bc 8a2e 3dbb a696 f13a
00000370: 5c69 5d3c fe40 3bbb 09b1 8b3c dc23 cbbc
00000380: e782 bc3c 1a0e 7abb 35a1 05bc 8826 27bb
00000390: a49c 5e3b eab8 8b3c 3e80 113d c5d7 a53b
000003a0: ef8f 2e3c 8539 debb ecb5 f5bc 310a 343c
000003b0: 3fd9 0a3d 9c75 52bc 5f94 aa3c 98e4 90bf
000003c0: af8b 653b c471 223c 498f dbbb 0801 e0bc
000003d0: d702 623d e1f9 b4bc fb15 c9bb 40f8 d8bc
000003e0: d2c6 303b 5231 90bb 5b0f 2f3c 641d 81bd
000003f0: 8c73 1abd f9fc 3fbc 2871 c4bb e083 aaba
-0.021551536 0.07713044 0.05994608 -0.04096968 0.01808281 -0.08429192 -0.024991121 0.07020944
-0.025435252 -0.059440084 0.04033718 -0.059100688 -0.03816111 0.008822262 0.027538437 0.101655
0.038711473 -0.06194636 0.0045924634 -0.13392398 -0.0068379943 0.095439725 0.069308676 0.13297224
0.026739724 -0.009224612 0.015017213 -0.051065397 -0.011532439 0.080208994 -0.022491185 0.008260602
0.031099496 0.058681596 0.0416321 -0.07658544 -0.052850455 -0.05919424 -0.03333875 -0.039977487
0.0236759 0.18046425 0.048716072 -0.101411834 0.09124191 0.004073954 -0.003346252 -0.0011883931
-0.001427975 -0.07801091 0.02849796 -0.01861568 0.120919384 -0.07905072 0.0016062876 -0.018924203
-0.021743068 -0.024372311 0.022941077 -0.0008828525 0.04923412 -0.07197986 -0.03828645 -0.02880578
0.009284867 -0.0125805745 -0.0060621942 -0.0077968407 0.01328841 0.00091135385 0.0024215092 0.022703245
-0.013181541 0.013672376 0.015293132 -0.01716184 -0.0023390283 0.00014448847 0.009375749 -0.0035168943
-0.02083043 0.01078129 -0.019184686 -0.0086587025 0.032355182 0.012202233 0.017247133 -0.012442305
0.0008308181 0.017421382 0.022027612 0.0005351218 -0.007563725 -0.0141897 -0.008679873 0.009074037
-0.0051324167 0.0050906325 -0.012044928 0.0040923166 0.017189544 0.012933329 -0.009050609 -0.02785985
0.020623507 0.0025430366 -0.00978004 -0.006664223 0.008748719 -0.0006802814 0.007981947 -0.0048539722
0.0047367304 -0.0039634444 0.013592479 0.010188048 -0.015758993 -0.044879563 -0.0030646937 -0.0049544806
-0.01125247 -0.0033639136 -0.03177041 -0.026156189 -0.0055469587 -0.020073008 0.004914108 -0.004705293
0.0674423 0.051784653 0.0050917375 0.004134211 -0.0043204697 -0.033380006 -0.0025488026 0.008744548
-0.013644744 0.067648746 -0.0045811143 -0.03292234 0.018245062 0.036669694 0.004477955 0.070861004
-0.06808829 0.03249001 0.007036048 -0.039220627 0.048241965 0.064885125 0.04592765 -0.0294805
0.07709754 0.010847012 -0.0270506 0.00027487605 -0.059383184 -0.037859406 -0.033637367 0.029701784
0.04392239 0.0857563 -0.043897323 -0.011533133 -0.005707221 0.0028850755 0.037455846 0.011496106
0.022256419 -0.018978823 0.034571085 -0.009258552 0.037895072 0.01300067 0.11083714 -0.0077983094
0.06438569 0.011919938 0.03488185 -0.020892333 -0.02509932 -0.008903894 0.040967453 0.025152287
0.06915801 -0.024040002 -0.03534192 0.04292279 -0.015567306 -0.010325453 0.089825876 -0.030507883
-0.01065611 -0.07999706 -0.016601298 -0.00059624057 0.0120727755 -0.010349346 -0.04130098 0.013761999
0.021824537 0.0112431515 0.0106252795 -0.019389443 -0.007626357 -0.010038374 -0.01650194 0.040379122
8.6413e-05 0.0005519381 0.056641877 0.029351847 0.009523515 0.017622795 0.008320006 0.009238846
0.0015328329 -0.026117133 -0.002886685 0.0018431738 0.013513889 -0.0028572674 0.01705219 -0.024797373
0.023011638 -0.0038155378 -0.0081561105 -0.0025505144 0.0033967877 0.017055947 0.035522692 0.005061122
0.010654434 -0.006781759 -0.029993974 0.010988758 0.03389859 -0.012845423 0.020822702 -1.1319761
0.0035025885 0.009914819 -0.0067004305 -0.027344242 0.05517849 -0.022091808 -0.0061366535 -0.026485562
0.0026973975 -0.0044004107 0.010684813 -0.06304434 -0.03770785 -0.011718028 -0.0059949346 -0.0013009273

conv1.nn.4.bias f4 [64]
00000000: 6850 69be 4778 89bd 7ae9 dbbd e591 99be
00000010: 48a0 b7be 6368 f63e 37bf e2bd ace2 70be
00000020: 5931 f6bd e797 86bd ef71 0dbe 2260 bbbe
00000030: 4840 c5be b06f 8ebe d15d edbd ed00 4bbe
00000040: 078a 9abe 6651 09be 5bb1 48bd 2ad3 62be
00000050: 555e 63be 9310 b4be 9dd0 a7be 1f12 adbe
00000060: 9b56 dbbc 5d45 bdbd 0fab 3fbe 6cc1 c3be
00000070: 74d3 74be 3703 7b3e 6b86 26be 3263 69be
00000080: 67b7 59be 4e48 98bd 66f0 16be 0c5a 83be
00000090: a1a7 70be 7602 e3bd cb54 90be 4552 60be
000000a0: 5492 7dbe 4e69 09bf add6 08bf dd73 d3be
000000b0: badf 38be 5848 cabe 0a7c 4cbe 934f ac3f
000000c0: c1d8 a0be 2350 37bd 9aa7 52be d644 9abe
000000d0: 4f6f 2abd 1475 a1be 76d8 bfbe 1e4c dcbe
000000e0: cdd5 66be 6959 1cbe 5d7f b7be fe02 b9bd
000000f0: a6f9 19be 1c3e 69be 5508 5ebe e9be f6be
-0.22784579 -0.06712394 -0.107378915 -0.2999412 -0.35864472 0.48126516 -0.110716276 -0.23523968
-0.12021131 -0.06571942 -0.13812993 -0.3659678 -0.38525605 -0.27819586 -0.1159016 -0.19824572
-0.30183432 -0.13409957 -0.048997264 -0.22150865 -0.22203954 -0.35168895 -0.32776347 -0.33802888
-0.026774695 -0.092417456 -0.18717597 -0.38233507 -0.23908788 0.24512945 -0.16262214 -0.22791746
-0.21261369 -0.07435666 -0.14740142 -0.25654638 -0.23501445 -0.11084454 -0.28189692 -0.21906383
-0.24762851 -0.5367631 -0.5345257 -0.41299334 -0.18054095 -0.3950832 -0.19969192 1.3461784
-0.3141537 -0.04475416 -0.20571747 -0.30130643 -0.04161006 -0.31534636 -0.37469834 -0.43026823
-0.22542496 -0.15268482 -0.35839358 -0.09033774 -0.1503664 -0.22777599 -0.21682866 -0.48192528

conv2.nn.0.weight f4 [64, 64]
00000000: b146 95bd 6f40 283c 8a3c 7ebd 5e0b 0bc0
00000010: 6e23 17bd ce23 6ebd fa1d 53bd 0c64 b43d
00000020: 9405 aebe 854c c0bc 5873 dbbc c58d 1abd
00000030: 2a0b ab3d b3f8 07bd 4dfb a73d 1ac0 c13d
00000040: 8664 46bd 3949 8dbd 30df 843c e937 abbd
00000050: a524 b9bd 738d b03d e8f3 2f3d 322c d4bd
00000060: 6a3e 463c 0c55 87bd 6f8b 26bc e8a6 103d
00000070: 0692 c8bd b39e fcbe 97b9 8fbb 078a 203d
00000080: b0ea 163e 8f52 19be 4316 d4bd 6fc5 933c
00000090: 6e50 8ebd 5e33 bebc af54 893c c350 fabd
000000a0: 713e db3c e21b 4e3d 0882 ce3d c416 01be
000000b0: 0521 89bd cdcf 023d 2b38 4ebc 264d c8bc
000000c0: 2bcc 09c0 33bf e4bc 4733 003d d680 94bd
000000d0: 1899 42bb 9eda d4bd 331e 82bf 0c8f 7bbd
000000e0: a933 ff3d a159 82bd 8a56 26bc 83d4 54be
000000f0: 01e1 8dbe 5687 d83d 89db 22be b42d 16be
00000100: 68c4 c0b7 fe7b bbba 3933 7fba ff52 62bd
00000110: c9a4 a1bb a664 7ebd 7380 90bb b78a 823a
00000120: 119d 2dba d528 d9bb ad3c b2bb c214 a7bb
00000130: 04e3 cbb9 e8f6 7aba 1c0c 6fb9 2650 83ba
00000140: b750 c8bb 274a dcb9 0963 a4bb 0d79 82ba
00000150: 16c3 1d39 ab8f 9fbb 2cbc d2bb 6838 4e39
00000160: 20ad 38ba e55b 2739 b954 66bd 5f7c 273a
00000170: 5924 76ba 3b8c 62bd 8371 cfba a814 303a
00000180: 9393 08ba 5d6a 91b8 2728 bdbb bb2a dcb9
00000190: 0148 baba db28 d1bb 2716 abbb 8c9c 3539
000001a0: 3a1d 9dbb 92f9 cfbb c7d5 54ba 1fdd a3bb
000001b0: 43f0 223a 2c96 41b9 f76e 7139 4dc1 7dbd
000001c0: 9745 2dba b0d6 88bb d9d9 d3bb d9d5 c1bb
000001d0: 265a 9cbb 5e51 63bd 5b0e 8dba e57f a7bb
000001e0: 089e b7bb c116 a5bb 5587 d6bb 39bb 5fbd
000001f0: 9f85 d6bb 09db 9fba 76c0 d6bb 1156 a5bb
00000200: 9e7e 42bd a572 e93b e05f fd3c ebf2 67be
00000210: 91cf 8dbb 6cfc 7f3f f196 aebd 8ba5 7abd
00000220: d7f5 e53d 05cf d7bb daab b6bb 8b8a adbd
00000230: 2fdc 31be 23b1 8a3c 41b4 953c 24ac 57bd
00000240: 4df4 53be 1651 4c3d 1afa 7f3c 7f1d e13c
00000250: e916 30bd 192e 1abd 5bd7 14bd 4b80 d8bd
00000260: 2c4d 2b3c b085 9dbc 1292 c73c 2e7f bcbe
00000270: 2d02 39be 4455 52be 3e5e bdbd 92b5 aabd
00000280: 178d e5bd 670e 60bd 50f4 56bd 1681 cbbd
00000290: b462 d2bd 3351 60bc fd74 70bd 65c0 0c3d
000002a0: 11ae 07bd 86e7 12be 0d68 50bc f3de c3bd
000002b0: 2329 41ba a400 8bbe 4503 843d 5e2e 4c3f
000002c0: 10df 68be 07a5 45bc c375 84bd ee1b 9e3d
000002d0: 94e6 bf3c 335d ffbe b2fb 433d 35da dbbd
000002e0: a932 3d3c 749f 43bd 8d67 103e 7953 edbb
000002f0: c32e d73c 67b1 f6bd e5a5 01be 8e9a 043e
00000300: 86b1 1d3d fc2e d53b 3015 903c 7fc5 3e3c
00000310: 4be2 e3bb 0d15 bcbd 8c88 c43d 475f aeba
00000320: 72e3 a7b8 24f7 7ebc 3104 29bb 31a6 a3bd
00000330: f5f0 90bc 2e53 d8bc 75a5 71bd 228a d63a
00000340: dbd4 0bbc 0ad9 bd3a 4a25 32bc ccf4 5d3b
00000350: 56dd e139 d6e7 b63b dc28 d2bb b6f9 973b
00000360: dffb 883c 5e83 3abc c811 afbc d46f 2e3d
00000370: 4e7d f23b e091 0a3d 8e57 873c 0ae9 633c
00000380: 5918 14bb e8a2 a639 c790 99bc 4d82 543c
00000390: 4e97 bb3c 1649 eebb ca01 9dbc 252c 8b3c
000003a0: d487 86bd 9aa9 e4bc 6306 1f3d ad15 9d3c
000003b0: 2d08 223b a1b5 bb3c 9d7c ee3a c61a 3dbe
000003c0: f06d 623c a309 893c 0d31 83bc 8d24 963b
000003d0: 9a14 28bc 5375 8ebd 422f 34bd c10a deba
000003e0: 7750 5ebc d279 473b 8470 82b9 8b57 5abd
000003f0: 7d61 11bc 31b7 2f3b 999b b9bb acf7 29bb
-0.07288874 0.010269268 -0.062069453 -2.1725688 -0.036899023 -0.058139615 -0.05154226 0.08808145
-0.3398863 -0.023473987 -0.026788399 -0.03773286 0.08351739 -0.033196162 0.08202229 0.094604686
-0.04843571 -0.06898732 0.016219705 -0.083602734 -0.090401925 0.08620729 0.042957217 -0.10359992
0.012099842 -0.06608018 -0.0101650795 0.035315424 -0.09793477 -0.49339828 -0.0043861377 0.039194133
0.14737964 -0.149729 -0.103558086 0.01803848 -0.069489345 -0.023217853 0.016764013 -0.12222435
0.026763173 0.05031956 0.10083395 -0.1260634 -0.06695751 0.031936456 -0.012586634 -0.02445085
-2.1530864 -0.027923202 0.031298902 -0.07251136 -0.0029693302 -0.103932604 -1.0165466 -0.061415717
0.12461025 -0.063647516 -0.010152468 -0.20784192 -0.27710727 0.10572688 -0.15904059 -0.14665872
-2.2979642e-05 -0.001430392 -0.0009735111 -0.055254932 -0.004932974 -0.062107705 -0.0044098436 0.0009959553
-0.0006622831 -0.006627182 -0.005439362 -0.00509891 -0.00038888317 -0.0009573535 -0.00022797327 -0.0010018393
-0.0061131376 -0.00042016918 -0.0050166887 -0.0009954289 0.00015045362 -0.0048694215 -0.0064311232 0.00019666704
-0.00070448406 0.00015960594 -0.05623314 0.0006389077 -0.00093895715 -0.055309515 -0.0015826676 0.0006716945
-0.00052099786 -6.9339505e-05 -0.005772609 -0.00041993507 -0.0014212133 -0.006383044 -0.0052211466 0.00017319823
-0.004794744 -0.00634689 -0.00081190135 -0.005000725 0.00062156114 -0.00018461858 0.00023024889 -0.061951924
-0.0006609796 -0.0041759834 -0.0064651784 -0.005915385 -0.0047714887 -0.05549752 -0.0010761725 -0.0051116818
-0.0056035556 -0.005038113 -0.0065468946 -0.05462191 -0.0065466906 -0.0012196015 -0.006553705 -0.0050456603
-0.047484033 0.0071242624 0.030929506 -0.2265126 -0.0043277224 0.9999454 -0.085248835 -0.06119303
0.11228531 -0.006585958 -0.0055746855 -0.084736906 -0.1736915 0.016930168 0.018274428 -0.0526544
-0.20698662 0.049882017 0.015623594 0.027479885 -0.0429906 -0.03764162 -0.03633819 -0.10571345
0.010455411 -0.019228786 0.024361644 -0.3681578 -0.18067236 -0.20540339 -0.09246491 -0.08335413
-0.112085514 -0.054701235 -0.05247909 -0.099367306 -0.102727324 -0.013691234 -0.05870532 0.03436317
-0.033124987 -0.14346132 -0.01272012 -0.095640086 -0.00073684956 -0.27148926 0.06445936 0.7975825
-0.22741342 -0.012063271 -0.06467774 0.07720171 0.023425378 -0.49875793 0.047847457 -0.10734979
0.011547723 -0.04775949 0.14102001 -0.0072426167 0.026267415 -0.120455556 -0.1266094 0.12949583
0.038499378 0.006505845 0.017588228 0.011643766 -0.0069544665 -0.091837026 0.09596357 -0.0013303541
-8.0055455e-05 -0.015561853 -0.0025789852 -0.07990683 -0.017693022 -0.02640685 -0.058995683 0.0016368071
-0.008534635 0.0014484238 -0.010873148 0.0033867834 0.00043080252 0.005581836 -0.006413562 0.004637922
0.016721664 -0.011383859 -0.021370783 0.042587116 0.0074001914 0.033830523 0.016521242 0.013910541
-0.002259752 0.00031783362 -0.018745793 0.012970519 0.022899296 -0.007271896 -0.019165892 0.016988823
-0.06568876 -0.027912904 0.03882445 0.019175375 0.0024724111 0.022913756 0.0018195097 -0.18467245
0.013820156 0.016728228 -0.0160146 0.004581994 -0.010258818 -0.069559716 -0.04399038 -0.0016940461
-0.013568989 0.00304376 -0.00024879363 -0.053306144 -0.008873341 0.0026812071 -0.0056643006 -0.0025934977

conv2.nn.0.bias f4 [64]
00000000: 8705 8c3f d183 7bbd 0c9c e3be 6575 83bc
00000010: 0797 4ebd 4b3a 6e3d 8006 9d3b 0eca 13bb
00000020: fdc0 443e 3b6a 36bd 077e 4cbd ee3d a33f
00000030: 74ed fa3e 11df 443e adce 8540 0122 7040
00000040: 17ff 153c d1f8 3340 c5fd 8440 ac97 40bd
00000050: b4ee 62bd ccbc 62bd b1a0 a33e 8488 d23f
00000060: 0a5c a6bb 58ba 843b c004 18bd b9d0 69bd
00000070: 5efb d63d ca85 2abd 668c a83d e595 7fbc
00000080: 44d1 97bb 9d0d eebd f15e 563d 0075 a73e
00000090: f2d4 50bf ee6f 1d40 d63e 81bd 19c0 c840
000000a0: f43e 65bd cd70 cf3f 8c31 6fbd e93e 36bd
000000b0: e556 5abd bce2 773d 910e 3340 979b 883c
000000c0: 7e08 203f e535 6040 a2d9 b4bb 860b 00bc
000000d0: 7010 1f3f 9923 57bb ebb7 ae3f 1bdd 8bba
000000e0: 16d9 55bc 66f4 05bd 4f2e b4bd 9362 50bb
000000f0: 1d74 2140 da3d 363e c9a6 a53f 7398 b9bd
1.0939187 -0.061405007 -0.44454992 -0.016047189 -0.050437 0.05816106 0.0047920346 -0.0022550854
0.19214244 -0.044534903 -0.049924877 1.2753274 0.49009287 0.19225718 4.181479 3.7520754
0.009155056 2.8120615 4.1559777 -0.047019646 -0.055403426 -0.055355832 0.31958535 1.6447911
-0.00507689 0.004050534 -0.037113905 -0.05708382 0.10497163 -0.041631497 0.08229904 -0.0155997025
-0.0046331007 -0.1162369 0.052336637 0.3270645 -0.8157493 2.4599566 -0.06310813 6.2734494
-0.05596824 1.6206299 -0.05839686 -0.04449359 -0.053305525 0.060518965 2.797764 0.016675754
0.6251296 3.5032895 -0.005519108 -0.007815247 0.62134457 -0.0032827614 1.3649877 -0.0010670753
-0.013052246 -0.03270378 -0.08797895 -0.0031797036 2.522712 0.17797032 1.2941524 -0.090622805

conv2.nn.2.weight f4 [64]
00000000: c3e8 c13e 2ae9 4cbd bb2b 3c3f c460 cabc
00000010: a264 27bd 4a20 563d 8102 8abc d522 383c
00000020: 4229 8c3e e438 e3bc 5efe a63c a8e2 2ebe
00000030: c173 3bbe a23c 813f 5f72 d43f d4cc 253f
00000040: 3a63 403b 55c2 233f a6e6 2d3f 3dc7 32bd
00000050: 24fa 613d 9f7b 2ebd 993d 433f 013f 8d3e
00000060: 851a e33b 0bb3 5a3c 1b41 4c3e 3b23 48bd
00000070: 4c8f ac3d e894 90bc 46f0 d53f 9e67 073c
00000080: 72ae bc3a c671 fc3c 6a0c 773d da4f 863d
00000090: 02a6 293f 8e90 0fbf e1b3 28bd c5b2 4ebf
000000a0: 521a 48bd fd49 8d3e 21c4 5ebd 1185 20bd
000000b0: c364 02bd 758e 09be 3b29 d83e 0292 273f
000000c0: 3fdb 40be 2363 263f 1ae2 813b 54fd 6c3b
000000d0: d2f5 d53e 423e da3b 7b8f cc3f 4d1b e83b
000000e0: e888 f53b 8c49 d3bc 36a7 b33d 0bf7 b43b
000000f0: 2a8d 993f 13e7 4a3d f1e5 2bbe e7e4 583d
0.37872896 -0.05002705 0.7350423 -0.024704345 -0.040867455 0.052276887 -0.016846897 0.011238773
0.27375227 -0.027737089 0.020384964 -0.1707865 -0.18305875 1.0096629 1.6597403 0.6476567
0.0029356019 0.639684 0.67930067 -0.04364704 0.055170193 -0.042598363 0.76265866 0.2758713
0.0069306516 0.013348351 0.19946711 -0.048861723 0.08425769 -0.017649129 1.6713951 0.00826445
0.001439525 0.03081597 0.060314573 0.06558199 0.6626893 -0.5607995 -0.04118717 -0.8074153
-0.048853226 0.2759551 -0.05438626 -0.039189402 -0.031834375 -0.1343325 0.42218956 0.65457165
-0.18833636 0.6499502 0.003963721 0.0036161738 0.4178911 0.0066602537 1.5981287 0.0070833326
0.007493127 -0.025791906 0.08772127 0.005522614 1.1996205 0.049536776 -0.16786934 0.052952673

conv2.nn.2.bias f4 [64]
00000000: c3bd ad3c 4cdc 9f3d fb05 513f 22f2 fcbb
00000010: f05d 183c f7ad b9bb 516b 4b3b a17a 463d
00000020: 5c5e 9a3e 8e27 acbe 186c 123d c3e8 5abd
00000030: b525 49bc 84a2 183f 64fd 843e 0249 073f
00000040: 0350 54bd 6a3c bf3e 860e 0b3f 8c49 d93d
00000050: 50fd c33c 8f30 713e e7ed 3c3f 3d7b 5c3e
00000060: ef23 86bc aa91 753c b5ea 743e 0672 f93b
00000070: ff1b 2dbe 9a74 9b3b 7cc8 1a3f 5960 e8bc
00000080: 593a 5ebc 6408 c0ba caa0 bd3c 9d97 e3bc
00000090: 0948 463f 17bc 66bc 74aa b7bc e208 22bf
000000a0: a958 ddbc 4539 72bc 72e0 68bc a2d2 db3c
000000b0: ed0c fdbb b509 6abd 0ca2 823e 0791 403f
000000c0: 99ab c6be 9c29 0d3f dffe 1ebd e40f a03c
000000d0: 0fec 713b f7e5 9a3c d6a6 9a3e 0e72 f93c
000000e0: 6871 0abc 1416 913c d6b6 14bd 5694 8d3b
000000f0: dec9 3e3f b459 ed3b 2c0d 913c 3266 1dba
0.02120865 0.0780569 0.8164975 -0.007719294 0.00929974 -0.00566649 0.0031039307 0.04845679
0.30150115 -0.33623928 0.035747617 -0.053444635 -0.012277056 0.5962298 0.25974572 0.52845776
-0.051834118 0.3735078 0.54319036 0.10609731 0.0239245 0.2355368 0.7380051 0.21531387
-0.016374556 0.014988342 0.23917659 0.0076124696 -0.16905211 0.0047441246 0.60462165 -0.028366255
-0.013563716 -0.0014650938 0.02314796 -0.027782256 0.77453667 -0.01408293 -0.022420146 -0.63294804
-0.027019816 -0.014784162 -0.014213668 0.026833836 -0.007722488 -0.057138164 0.25514257 0.75221294
-0.38802794 0.55141616 -0.038817283 0.019538827 0.0036914384 0.018908484 0.3020541 0.030449893
-0.00844989 0.017710723 -0.03630718 0.0043206615 0.74526775 0.0072433595 0.017706476 -0.0006004303

conv2.nn.2.running_mean f4 [64]
00000000: 2a7b 0037 0400 0000 358f 9e42 0400 0000
00000010: 0400 0000 0400 0000 0400 0000 0400 0000
00000020: 0400 0000 0400 0000 0400 0000 ad46 5404
00000030: 0400 0000 ccb1 3a43 630a 1b41 654d a642
00000040: 0400 0000 b13d a341 a619 7a42 0400 0000
00000050: 0400 0000 0400 0000 27a0 ca42 9f84 4a37
00000060: 0400 0000 0400 0000 0400 0000 0400 0000
00000070: 0400 0000 0400 0000 28ec 0f43 0400 0000
00000080: 0400 0000 0400 0000 0400 0000 0400 0000
00000090: 5540 cd42 b51d 7b37 0400 0000 5681 0742
000000a0: 0400 0000 7d49 1437 0400 0000 0400 0000
000000b0: 0400 0000 0400 0000 2015 0939 fd58 8a42
000000c0: 0400 0000 f33e c042 0400 0000 0400 0000
000000d0: 0400 0000 0400 0000 86d6 1e43 0400 0000
000000e0: 0400 0000 0400 0000 0400 0000 0400 0000
000000f0: 1d2f 1c41 0400 0000 23b2 2035 0400 0000
7.658071e-06 6e-45 79.2797 6e-45 6e-45 6e-45 6e-45 6e-45
6e-45 6e-45 6e-45 2.4952933e-36 6e-45 186.69452 9.690036 83.15116
6e-45 20.405123 62.525047 6e-45 6e-45 6e-45 101.3128 1.20710165e-05
6e-45 6e-45 6e-45 6e-45 6e-45 6e-45 143.92249 6e-45
6e-45 6e-45 6e-45 6e-45 102.62565 1.4967683e-05 6e-45 33.876305
6e-45 8.838598e-06 6e-45 6e-45 6e-45 6e-45 0.00013073208 69.173805
6e-45 96.12295 6e-45 6e-45 6e-45 6e-45 158.83798 6e-45
6e-45 6e-45 6e-45 6e-45 9.761502 6e-45 5.986387e-07 6e-45

conv2.nn.2.running_var f4 [64]
00000000: 445e b936 0400 0000 2878 9844 0400 0000
00000010: 0400 0000 0400 0000 0400 0000 0400 0000
00000020: 0400 0000 0400 0000 0400 0000 d62d 5e02
00000030: 0400 0000 12c0 7345 a689 a943 49c1 b245
00000040: 0400 0000 cd0f 9043 0ae6 0845 0400 0000
00000050: 0400 0000 0400 0000 6d0f be44 0b3e 6337
00000060: 0400 0000 0400 0000 0400 0000 0400 0000
00000070: 0400 0000 0400 0000 e9c6 4145 0400 0000
00000080: 0400 0000 0400 0000 0400 0000 0400 0000
00000090: db20 ba44 5d9d b437 0400 0000 b606 8f44
000000a0: 0400 0000 04ab 0037 0400 0000 0400 0000
000000b0: 0400 0000 0400 0000 8fa4 0139 e6b3 7f44
000000c0: 0400 0000 9f3b e345 0400 0000 0400 0000
000000d0: 0400 0000 0400 0000 e86b 6545 0400 0000
000000e0: 0400 0000 0400 0000 0400 0000 0400 0000
000000f0: 0bc6 8e42 0400 0000 3de1 2033 0400 0000
5.5244036e-06 6e-45 1219.7549 6e-45 6e-45 6e-45 6e-45 6e-45
6e-45 6e-45 6e-45 1.6323138e-37 6e-45 3900.0044 339.07538 5720.1606
6e-45 288.12344 2190.3774 6e-45 6e-45 6e-45 1520.482 1.35447e-05
6e-45 6e-45 6e-45 6e-45 6e-45 6e-45 3100.432 6e-45
6e-45 6e-45 6e-45 6e-45 1489.0267 2.153095e-05 6e-45 1144.2097
6e-45 7.669212e-06 6e-45 6e-45 6e-45 6e-45 0.00012363702 1022.8109
6e-45 7271.4526 6e-45 6e-45 6e-45 6e-45 3670.7441 6e-45
6e-45 6e-45 6e-45 6e-45 71.3868 6e-45 3.7457756e-08 6e-45

conv2.nn.4.weight f4 [64, 64]
00000000: f750 333e 9cec 483e e021 08bf 9e03 43bd
00000010: 24cf 0e3e f30a bcbd 7dc0 29bd 0c1d 23be
00000020: 1b2d 793e 30bb b5be b7a3 023e 9fe3 5abe
00000030: 822a 6cbd c30d f1be 224b 26c0 752f 0e40
00000040: 6e5d 003e 02e5 df3f 34b0 d63f 018d 9d3e
00000050: 8ba4 883e 26e7 bf3e e840 92be 5fc7 b5bd
00000060: 7a43 bcbe aad7 4c3e aeb5 6d3e 43ac db3d
00000070: 0780 42be f7dd fb3d f0cf 95be 603a c0be
00000080: efcb 57bd a7d8 03be 699e c23a 03f0 8ebc
00000090: 83fa b3be e26d a73e a008 02be 399d cabf
000000a0: d0c1 b1be d27c e73d bfdb 8ebe 3f46 1a3d
000000b0: c418 74bb 31bd 93be 8eb0 8a3e fd9c 8fbe
000000c0: 202e 01be 465a 1840 75ab 84be 8970 32be
000000d0: e7d2 393e b7c2 d73d ceef c4be e95e 54bd
000000e0: 5a61 d93d 9271 2c3e 2109 d2bd 7cba 9abe
000000f0: 9466 0bc0 633d 1a3e 3e30 d83d 94f0 1abe
00000100: 96a9 693d 5653 103e aa79 b9bf 74ad bbbd
00000110: 766a 883c f0a8 19bd 81ba cdbd b9db 533d
00000120: f90a 883e 319f 78be 8183 cabd 86b4 c1bd
00000130: 54c7 26be 5c04 21bf ca3b 083e 8d0e 01c0
00000140: 5438 d0bd 2fc2 87bf 5071 10c0 60a6 c23e
00000150: 10cb 7fbd 8635 8e3e ff31 3fbf 5271 c53e
00000160: 5291 64bc 2431 1abd b3e7 b73e d0e8 563d
00000170: 72b2 93be 2dd4 7ebd edd1 4fbd c6c0 e3bd
00000180: d822 c1bd 8695 dcbd a9f0 ed3c b2b0 b6bd
00000190: 6904 96bf 5fb6 b23d b05e 373c c486 893f
000001a0: e37d 99bd e7ea ef3d 808e b03d cf9a a7bd
000001b0: 0e3a 923d 8d7e e5bd 37e3 00bf 1486 c0bf
000001c0: d403 d5be dc94 0cc0 51f3 b7bd 1e0b 37bc
000001d0: e5ca 7a3c bf55 833d 5a66 7cbe 18b1 e6bd
000001e0: 9bd5 03be 1bec a3bd 0ffd 9d3d acaa fcbc
000001f0: 6c17 01bf b770 0ebe 2e68 503e 23b0 bd3d
00000200: 9eb8 013d e206 463e 6430 a5bf ed8b fd3d
00000210: 9fed 173e 5c08 1f3d 84dc 83bd b1e9 abbd
00000220: 03cb 8c3e 145a 4bbe 774d 3e3d 6d32 c53b
00000230: 5f08 cfbb 7285 23bf d0d1 073e 4d8f 16c0
00000240: f822 523e 71ed 41bf 7fe5 1fc0 7048 923e
00000250: eb1b 81bd 9bb7 803e 3780 4dbf e573 253e
00000260: ac29 ccbc b1b9 343e 0507 ca3e 92dd 02be
00000270: e8f4 9fbe debc 1b3e e13d eebc c333 273d
00000280: 7f0b 163d aa33 11be dac1 7e3d 0af4 f73d
00000290: 2d6e 8fbf 6a27 c73d ccc5 a63b 0309 9f3f
000002a0: 955e 85bc b2b8 613e 78a4 80bd 5434 a9bc
000002b0: 8350 673e a98f 2fbe 60cc c0be 23ea 9fbf
000002c0: c1a7 e6be c9b1 22c0 d1ed 36be e928 46bd
000002d0: 1eac b83d 3f0b 773e 86de 8fbe 5f0d 3b3d
000002e0: 91fc e83d 859b 97bd d479 d63d f352 56bb
000002f0: a8b8 05bf 9859 74be fb09 153e d673 09bd
00000300: bebb d1bb 4ca9 e9bd 5217 0dc0 56c6 653d
00000310: a672 f5bd a916 9f3c 3ffd dcbc fd41 8c3d
00000320: 9cc7 2b3d 797f f03c 19b1 96bd d8e3 363d
00000330: ab5f 853d 9874 62be 52ec 863e 4a77 f8bf
00000340: e8f8 92bd 0f7f 21bf acfa 04c0 e620 3a3d
00000350: 86aa 033d 2fb8 9a3c f9b8 43bf c709 783d
00000360: 0c5c 733d 8bf2 65bd 4be1 7ebc 2d60 183e
00000370: 5d19 433d b88c 8fbc e424 693e 3162 223e
00000380: 0c85 213d b292 323e 46ad 7fbd ab0e 073d
00000390: 9143 85bf ac27 cabd 889f ad3d 988b 4e3f
000003a0: 304f d83d f1c1 43bc b1aa 35bd 4a1e 623c
000003b0: 7aa3 13be fc7c 9e3d 49df 85be 3983 0dc0
000003c0: a011 a2bc e64f 09c0 53b4 dc3d c5c2 8cbd
000003d0: 6654 b4bd 788b d3bd 5b58 fa3d 1631 22be
000003e0: 5c03 6dbc e03a 313d ad89 193d b928 debd
000003f0: 9717 703c 281b fb3c 0658 ccbd ca55 29bd
0.17511354 0.1962151 -0.5317669 -0.04761087 0.13946205 -0.09181776 -0.041443337 -0.15929049
0.24333613 -0.35494375 0.12757765 -0.21375893 -0.057657726 -0.47080812 -2.5983357 2.2216465
0.1253564 1.7491763 1.6772523 0.3077164 0.26688036 0.3748104 -0.28565145 -0.08875918
-0.3677023 0.20004144 0.23213837 0.10726216 -0.18994151 0.12298196 -0.29260206 -0.37544537
-0.05268472 -0.12875615 0.0014848235 -0.01744843 -0.35152063 0.3270102 -0.12698603 -1.582923
-0.3471818 0.113031045 -0.27902028 0.03766465 -0.0037246207 -0.2885528 0.27087826 -0.2804946
-0.12615252 2.3805099 -0.2591206 -0.17425741 0.18146859 0.10535186 -0.38464206 -0.051848326
0.106142715 0.16840199 -0.102556475 -0.302204 -2.1781359 0.1506248 0.105560765 -0.15130836
0.057046495 0.1409429 -1.4490254 -0.09163943 0.016652327 -0.037514627 -0.100453384 0.051723216
0.2657087 -0.24279477 -0.09888364 -0.0945826 -0.16286975 -0.62897277 0.13304058 -2.016513
-0.10166994 -1.0606135 -2.256916 0.3801756 -0.062449515 0.2777521 -0.74685663 0.3856302
-0.013950663 -0.03764452 0.3591896 0.05246812 -0.2884708 -0.062214065 -0.05073731 -0.11120753
-0.09430474 -0.10770707 0.02904542 -0.08920421 -1.1720096 0.08726191 0.011192009 1.0744252
-0.07494714 0.11714726 0.0862093 -0.08183824 0.07139979 -0.11205778 -0.503467 -1.5040917
-0.41604483 -2.1965857 -0.08981956 -0.011172084 0.015307163 0.06412839 -0.24648419 -0.11264247
-0.12874453 -0.08004018 0.07714283 -0.030843101 -0.50426364 -0.13910185 0.20352241 0.09262111
0.031670205 0.19338563 -1.2905393 0.12380204 0.14836739 0.03882633 -0.064385444 -0.083941825
0.27498636 -0.19858581 0.046460595 0.006017974 -0.0063181366 -0.63875496 0.13263631 -2.3524964
0.20521152 -0.7575293 -2.4983823 0.2857089 -0.06304153 0.2514008 -0.80273765 0.16157492
-0.024922214 0.1764896 0.3945848 -0.12779835 -0.31241536 0.15208766 -0.02908224 0.04082085
0.036632057 -0.14179865 0.06219659 0.12107094 -1.1205498 0.097243145 0.005089497 1.2424625
-0.016280452 0.22043112 -0.0628137 -0.020654835 0.22589307 -0.17144646 -0.37655926 -1.2493328
-0.4504986 -2.5421011 -0.17864157 -0.04837886 0.09017204 0.24125384 -0.2809946 0.04566705
0.11376298 -0.0740271 0.104724556 -0.003270325 -0.5223489 -0.23862302 0.14554588 -0.033557735
-0.0064005544 -0.11409244 -2.2045484 0.05609735 -0.11984758 0.019419985 -0.026976226 0.06848524
0.04193841 0.029357659 -0.073579974 0.044650882 0.06512388 -0.2211479 0.26352173 -1.9411404
-0.07176381 -0.630845 -2.0777998 0.04544153 0.032145046 0.018886654 -0.7645412 0.0605562
0.059413955 -0.05613951 -0.015556644 0.14880438 0.04763161 -0.017523155 0.22767979 0.1585777
0.039433524 0.17438772 -0.062421106 0.032972973 -1.0411245 -0.09870848 0.08477694 0.80681753
0.10561979 -0.011948095 -0.044352237 0.013801167 -0.1441783 0.07738683 -0.26146916 -2.2111342
-0.019783795 -2.1455016 0.107765816 -0.06873087 -0.0880516 -0.10329336 0.12223884 -0.15839037
-0.014466133 0.04326904 0.037484813 -0.10847611 0.014654062 0.030652598 -0.09977727 -0.04134158

conv2.nn.4.bias f4 [64]
00000000: ae45 163f cea3 2e3f 4085 123f ceeb af3e
00000010: d858 b63e de81 b1bf dd71 bbbf 0a13 a13e
00000020: b26c 193f 812f bbbe 3d9f 893f f3eb a63e
00000030: 4fc6 98bf 9284 a53e 0fff 063f f16a 8a3f
00000040: 9fd4 ae3e e364 b13e 1f44 aa3e 99e0 3fbe
00000050: 4822 9c3e f65c f93e 164b 803f bb87 123e
00000060: 9130 8f3f 1fd2 b63e a50f a03e 6d08 82be
00000070: 7a03 943f 974d aabf ddb8 dcbd 25fc bb3e
00000080: 5f6f ffbd 41ed 8d3f 35b5 983e 7010 953f
00000090: 2c84 a43e af3c f43e 0b53 fbbd ad5c 9a3f
000000a0: 7786 8ebf 9e01 8a3f 5405 ed3e 55b9 1f3f
000000b0: 752b d03e dc36 a33e b02c 803f aca5 abbb
000000c0: 4af5 c0bd 629b a8bf 5997 9f3e f55e b43e
000000d0: f75a ab3e 2c3a 213f 6ab3 7d3e 7225 233f
000000e0: 79a1 6f3e 17be ac3e a075 283f 4bcb 1cbe
000000f0: 8a32 a53e 38a5 a63e a6fa 0a3f dcb9 afbf
0.5870007 0.68218696 0.57234573 0.34359592 0.35614657 -1.3867757 -1.4644123 0.31459838
0.5993148 -0.3655968 1.0751721 0.3260189 -1.1935519 0.32327706 0.5273294 1.0813886
0.34146592 0.34647283 0.33255097 -0.18738021 0.30494905 0.48703736 1.0022914 0.1430959
1.1186696 0.35707185 0.31261936 -0.25397053 1.1563561 -1.3304929 -0.107774474 0.3671581
-0.12472414 1.1088029 0.2982575 1.1645641 0.3213209 0.47702548 -0.122716986 1.2059532
-1.1134785 1.0781744 0.46293128 0.6239217 0.40658155 0.31877792 1.0013638 -0.0052382555
-0.09421785 -1.3172419 0.31170157 0.35228696 0.33467838 0.6297939 0.24775472 0.6372901
0.2340144 0.33738777 0.6580448 -0.15311925 0.3226512 0.32547927 0.5428871 -1.3728595

fc1.weight f4 [128, 74]
00000000: 926c 1bbe fde1 b1bd 1be4 b9bc 563c 2cbe
00000010: e73c 24be 695e dabd 0fff 8cbd 8002 633e
00000020: b24c d03c 50fa 12bd ff56 7d3d edf5 2fbe
00000030: 96ef 7fbe 06d8 193e 7a6c 923d 416d 8e3e
00000040: 7941 913e ff1f 60bc 4598 21be 7cd5 27bd
00000050: e680 36be 928c be3d 4d6c 2f3d b464 12be
00000060: cafc 0cbc 87c2 1abe b374 88be 499c 78be
00000070: 781c 973e a23d c7be 3ec8 aebd d3ca 913e
00000080: 3d2d 36be 4ee2 f5bc 3a9c 943e 04ba 063e
00000090: 89a2 1dbe 6ff4 203e 9d33 c6bd 8474 903e
000000a0: 4da9 57bd e5ac 8bbd 97ef 1f3e a90f 7ebd
000000b0: 8ac8 8bbe 8937 1fbe c4e4 923d e324 e7bd
000000c0: 3199 aebe 0650 92be 7969 1cbe 822a 10be
000000d0: 5b59 20be c679 9bbd 022d cf3d 5569 6e3c
000000e0: 6785 7a3e 3078 933e e90f 72bd 665d 34bd
000000f0: d3d8 1dbe bbc5 08be 0436 1e3c 89d7 e4bd
00000100: f6b0 96be 5239 6db9 6add 973d 576d 1d3f
00000110: 9262 4a3d 006f bc3c 2198 22bc 0463 86bf
00000120: e8fa 133c f509 89bc 92a2 5bbe 67ce e6bd
00000130: 79fb d0bd 98af 2a3d b5cc 033d edac dd3e
00000140: 4546 253f 868f 183d bdbe 0c3d 3e96 63be
00000150: a6e2 5f3f 1505 0abd cae8 cd3e 65ae 653f
00000160: 7608 cbbc c0f8 d7bd ceaf 953e d44e efbe
00000170: 4bdd 893c a1f3 43be 89dc fbbd 38f9 20bd
00000180: 9ee0 c8be 0eef 43bd 057b ca3e bf15 223d
00000190: 7d79 c63e 4eac 183e 2336 723d ed04 07bf
000001a0: f6b9 28be 600b 8b3e 5fd4 f6bd 90d7 6dbe
000001b0: 3cfc 993e 9290 d43e c44c 6dbc c184 d2bc
000001c0: f653 41be 018a 843d b751 993e f549 653e
000001d0: 927e c23c 2923 32be f468 2f3c 2366 a93b
000001e0: aabc b5be fed4 80bd 987d ee3c 0523 aa3e
000001f0: c407 aebb d7df f6be 7e6e da3c a707 55be
00000200: 0990 69bd 8023 8cbc 13a6 383e bee1 953e
00000210: f0fd 18be 4e99 63be 42de c5bc b1a7 5ebd
00000220: 5f05 edbd 4272 b53e 5090 c4be 0e52 19b9
00000230: 1b0d 6a3f 4872 bec0 22fc 313d ceed 103f
00000240: 880d 8ebd bb39 e7bf cce0 30bd 5fa5 f1ba
00000250: 891a 15bd 6e6c 9ebe f3dc f4be 65c2 47be
00000260: 2c51 40be 86f7 c63e 7199 d53e b6ce 11bd
00000270: 9eb3 cdbe 8737 453e 5d1c 8c3e 8957 2ebe
00000280: 703f 9b3e bcfe 033f c68b 92be a64e 1dbe
00000290: 37f3 133d 6476 bfbe bd82 4bbe 827f a23e
000002a0: c7f0 0f3e b760 64be e916 90be 656f 253e
000002b0: a3a2 913d 2413 3dbe 943e 2d3e 10a2 233e
000002c0: bb59 f2bd f101 5ebf 6d1e a33e 3c89 503d
000002d0: 8ca4 553d 305b 56be 2bbb ae3d 6094 d43b
000002e0: f187 59be 432f 64be a4c8 863e 18d1 febd
000002f0: ea1f 963e d91b 593d 0f33 4cbe 0380 abbe
00000300: b6d6 afbd 94f9 51be e592 7fbe 5f00 543d
00000310: a49f 0e3d e6db b23e bcb3 5abe 17b0 84be
00000320: 03dc 34be 6979 b6be 4a52 1f3e 507e d6be
00000330: ec84 3fbc 2837 833d b7d5 adbe 1628 8e3e
00000340: 06d8 71be 15f4 60be 7af1 c7be bb78 8d3e
00000350: 024c b0be 9a11 21ba 4758 76be 226a e23f
00000360: bd5b d6bc d9a3 b83e d69c 01bd ebf5 423f
00000370: f70b 23bd 6af2 ddbc 6781 bebe 9b15 ceb9
00000380: f294 89bd 352e 6f3e 3c71 663e ac1c 883d
00000390: 2ab0 513e e277 18be ab48 613d fb42 dfbc
000003a0: b844 173f a06b 8b3e 0690 5b3d 84ba 933f
000003b0: 474d 0ebe 1971 b83e c789 ac3e d047 f4be
000003c0: a043 6a3e 95e7 523a 3d5b 26be 16c2 c8bd
000003d0: 7c57 49be fb21 8fbd c05c c63e 9b78 723e
000003e0: 8141 3b3f 4203 ed3c b482 eb3e f1ae 05bf
000003f0: 30b1 dd3c ed04 c13e 6b5a 3dbd b1c5 debd
-0.15178135 -0.08685682 -0.022691777 -0.16819891 -0.16038857 -0.106625386 -0.06884586 0.22168922
0.025427196 -0.035883248 0.061850544 -0.17183657 -0.24993739 0.15023813 0.071495965 0.2781773
0.28370264 -0.013679503 -0.15780742 -0.04097508 -0.17822608 0.093041554 0.042827893 -0.14296228
-0.0086051915 -0.15113269 -0.26651534 -0.24278368 0.29513907 -0.3891421 -0.08534287 0.28475055
-0.17790695 -0.030015137 0.2902544 0.13156897 -0.15394033 0.15718244 -0.09677813 0.28213894
-0.052651692 -0.068200864 0.1561874 -0.062026653 -0.27301437 -0.15548529 0.0717254 -0.112863325
-0.3410125 -0.28576678 -0.1527461 -0.14078715 -0.15659086 -0.07591586 0.101160064 0.01455148
0.24464951 0.28802633 -0.059097204 -0.044034384 -0.15414743 -0.13356678 0.009656433 -0.111739226
-0.29431885 -0.00022623435 0.07415278 0.61494964 0.04941041 0.023002148 -0.009923966 -1.0498967
0.009031989 -0.01672838 -0.21448734 -0.11269837 -0.102042146 0.041671365 0.032177646 0.43295994
0.6456035 0.03724625 0.03436159 -0.22225282 0.87455213 -0.033696253 0.40216666 0.8971923
-0.024784308 -0.10545492 0.2923569 -0.4673983 0.016829154 -0.19135906 -0.12297923 -0.039300174
-0.3923387 -0.047835402 0.3954698 0.03957152 0.38764563 0.14909479 0.05913366 -0.5274189
-0.16477188 0.27157116 -0.12052225 -0.23226762 0.30075252 0.41516548 -0.014483634 -0.025698068
-0.18879685 0.06471635 0.29945156 0.22391494 0.023741994 -0.17396225 0.010706175 0.0051696463
-0.35495502 -0.06290625 0.029112622 0.33229843 -0.0053109843 -0.4821765 0.026664015 -0.208037
-0.05702213 -0.017106771 0.18032102 0.2927379 -0.1494062 -0.2222645 -0.024153832 -0.05435914
-0.1157329 0.35438734 -0.38391352 -0.00014621785 0.9142625 -5.9514503 0.043453343 0.5661286
-0.06936175 -1.8064493 -0.043183133 -0.0018436125 -0.03640226 -0.309421 -0.4782482 -0.1950775
-0.18780965 0.3886072 0.4171863 -0.035597526 -0.401761 0.19259463 0.2736539 -0.1702558
0.30321836 0.5156057 -0.28622264 -0.15362033 0.03612062 -0.37395012 -0.19874091 0.31737906
0.14056693 -0.22302519 -0.2814248 0.16155775 0.071110986 -0.18464333 0.16918403 0.1597979
-0.11833521 -0.8672171 0.3185915 0.050912127 0.052158877 -0.20933223 0.08531793 0.0064874142
-0.21243264 -0.22283654 0.26324952 -0.12442225 0.29321223 0.053005073 -0.19941352 -0.33496103
-0.08585875 -0.20505363 -0.2495838 0.051758166 0.034820214 0.34933394 -0.21357626 -0.25915596
-0.17662053 -0.35639504 0.15558735 -0.41893244 -0.011689406 0.064070046 -0.33952114 0.27764958
-0.23617563 -0.2196811 -0.3905142 0.27631173 -0.3443299 -0.00061442854 -0.24057113 1.7688639
-0.026166791 0.36062506 -0.03164371 0.7615649 -0.039806332 -0.027093131 -0.372081 -0.0003930748
-0.06717862 0.2335747 0.22504133 0.06646094 0.20477358 -0.14889482 0.055000942 -0.027253618
0.5908923 0.2723055 0.05360415 1.1541295 -0.13896666 0.36023787 0.33698866 -0.4771104
0.2287736 0.00080453727 -0.16245742 -0.09802644 -0.19662279 -0.06988903 0.38742638 0.2367882
0.73146826 0.028932218 0.45998156 -0.52220064 0.027062029 0.3769907 -0.046228807 -0.108775504
