models/0_2023_2023/Postal_GraphSage/100.pth (torch, 120172 bytes, 19 tensors)

conv1.lin_l.weight f4 [64, 12]
0	0xbaf78263	-0.0018883463
1	0xb9d74eeb	-0.00041066794
2	0xba1c54ce	-0.00059635646
3	0xba37bff6	-0.00070095004
4	0xb9e09a64	-0.0004283964
5	0xbb27338c	-0.0025512902
6	0xba9dfa7e	-0.0012052802
7	0xbafd5629	-0.0019328046
8	0xbb05ab61	-0.002039634
9	0xbb1d5d21	-0.0024011808
10	0xbbb3e72f	-0.0054902057
11	0xbab1e895	-0.0013573343
12	0xbb06cf23	-0.002057024
13	0xba4f072e	-0.0007897493
14	0xbac1a5b0	-0.001477411
15	0xb6323df7	-2.6560135e-06
16	0xbc326fc9	-0.0108909095
17	0xbac54ba2	-0.0015052448
18	0xbc103b11	-0.008803145
19	0xbc1ce800	-0.0095767975
20	0x3b943e5f	0.004524037
21	0x3b83dd60	0.0040241927
22	0xbbf4ad42	-0.007466943
23	0x3a66d27d	0.0008805169
24	0xbb00abf5	-0.0019633744
25	0xba4d4bc6	-0.00078314205
26	0xba3b7f30	-0.00071524363
27	0xb643a469	-2.9152964e-06
28	0xbc7e9ce6	-0.015540337
29	0xbac6cf22	-0.0015167932
30	0xbc424dbb	-0.011859353
31	0xbc57abea	-0.013163546
32	0x3bdc183a	0.006716755
33	0x3bc7ea65	0.00610094
34	0xbc40b02b	-0.011760752
35	0xb7ff9515	-3.046779e-05
36	0x397ca885	0.00024095371
37	0x39cfc053	0.0003962541
38	0x39be88bb	0.00036341496
39	0xb8f819c7	-0.00011830363
40	0x393a7ff2	0.00017786006
41	0xba3ee766	-0.0007282406
42	0xba2dbec7	-0.00066278543
43	0xba4ff9aa	-0.0007933626
44	0x3a092dc8	0.0005232957
45	0xb7a75e98	-1.9952e-05
46	0xb99b1c88	-0.0002958516
47	0xb86a06ff	-5.5796463e-05
48	0xbb35efb7	-0.002776129
49	0xba860e3b	-0.001022763
50	0xb9cd3ce0	-0.00039146002
51	0xb58abaec	-1.0336203e-06
52	0xbc47754a	-0.01217396
53	0xbad91e0f	-0.0016564744
54	0xbc14d4ea	-0.009083966
55	0xbc351ba4	-0.011053953
56	0x3bc3dbf9	0.0059771505
57	0x3b97eb56	0.0046362085
58	0xbc39cec4	-0.011340801
59	0x3a0ec1bc	0.0005445739
60	0xbba77783	-0.0051106825
61	0xbb0f750a	-0.002188983
62	0xbadd0a25	-0.0016863985
63	0x367ac97d	3.7370185e-06
64	0xbd0f3a6b	-0.03496782
65	0xbb574f34	-0.0032853605
66	0xbccd8e09	-0.025092142
67	0xbcd35746	-0.025798451
68	0x3c762fb9	0.015026026
69	0x3c775b00	0.01509738
70	0xbcb8b1b2	-0.02254567
71	0x3b0d8b18	0.00215978
72	0xbca135cf	-0.019678978
73	0xbc452401	-0.01203251
74	0xbc435152	-0.011921244
75	0xbac77a5a	-0.0015218959
76	0xbd83c473	-0.06433954
77	0xbd0b5e90	-0.03402573
78	0xbd42c658	-0.047552437
79	0xbd0a32f1	-0.033739988
80	0x3c4d11e1	0.01251647
81	0x3c1cbd12	0.009566562
82	0xbd83c3b3	-0.06433811
83	0x3a245e4d	0.00062701554
84	0xba482735	-0.0007635237
85	0xba0c1e72	-0.0005345113
86	0xb9e7956f	-0.0004417109
87	0xb797a681	-1.8078137e-05
88	0xbb92597b	-0.0044662333
89	0x38f86756	0.00011844809
90	0xbaf9bcca	-0.0019053456
91	0xbb6566e2	-0.003500395
92	0x3abb6c4b	0.0014299242
93	0x3a3f0b2c	0.00072877365
94	0xbabced85	-0.0014414048
95	0x3a45f76c	0.00075518223
96	0x391d980a	0.00015029326
97	0x3a17154e	0.00057633675
98	0xba24a8e7	-0.0006281272
99	0xb891a244	-6.944363e-05
100	0x3903c4a8	0.00012566394
101	0xba101b01	-0.0005497188
102	0x39a15c28	0.00030776975
103	0xb97cbea4	-0.00024103612
104	0xb96fdb8c	-0.00022874604
105	0xba038aff	-0.00050179654
106	0x39878efe	0.00025855744
107	0xb9f14578	-0.0004601886
108	0xb9be4a95	-0.00036295192
109	0x3843766f	4.6601923e-05
110	0x397dde73	0.00024210829
111	0xb8f8ac45	-0.00011857649
112	0xba01c9d8	-0.00049510365
113	0xba157cfd	-0.00057025236
114	0x390cbed7	0.00013422534
115	0xb8dc1771	-0.00010494784
116	0x3982f297	0.00024976276
117	0xb82f9c86	-4.1869025e-05
118	0x3988f2ce	0.00026120845
119	0xba314f8d	-0.0006763868
120	0xbb894d77	-0.0041901427
121	0xbb420e35	-0.0029610519
122	0xbb3a68a4	-0.0028443718
123	0xba6e3af1	-0.00090877624
124	0xbba79297	-0.0051139104
125	0xbbe1d224	-0.006891506
126	0xbbaf7fa6	-0.005355793
127	0xbbefb018	-0.007314693
128	0xbb12e500	-0.0022414327
129	0xbbb5737b	-0.005537448
130	0xbc75c7d3	-0.015001255
131	0xbb439a2e	-0.0029846537
132	0x39a9c08c	0.0003237765
133	0x39e640be	0.00043917255
134	0x397b946d	0.00023992518
135	0xb9227968	-0.00015494751
136	0x3882ea9a	6.242581e-05
137	0xb9c04512	-0.00036672555
138	0x39e3bf92	0.00043439545
139	0x395f8765	0.00021317376
140	0xba14108d	-0.0005648218
141	0x39e91e3f	0.00044463758
142	0xb8e8b21c	-0.000110957975
143	0xb908f0fe	-0.00013059747
144	0xb9358010	-0.00017309212
145	0xb92ef8e0	-0.00016686646
146	0x3804c4ae	3.1654425e-05
147	0xb9a1e06a	-0.00030875514
148	0xba1a38df	-0.0005883108
149	0xb9aacd61	-0.00032577946
150	0xb903f829	-0.0001258558
151	0x39fa6538	0.0004775913
152	0x39f3eeda	0.0004652653
153	0xb9c6ab89	-0.00037893307
154	0xb7cbb66b	-2.428443e-05
155	0xb93f6705	-0.00018253557
156	0xbb195a37	-0.002339972
157	0xba8ad4a8	-0.0010591941
158	0xba9af72d	-0.0011822932
159	0x36553ce8	3.1774925e-06
160	0xbc72d860	-0.014822096
161	0xbaea70b4	-0.0017886371
162	0xbc293d95	-0.010329624
163	0xbc43006b	-0.011901955
164	0x3bc41d58	0.0059849434
165	0x3ba87823	0.0051412745
166	0xbc045845	-0.008077686
167	0x3ac01515	0.001465472
168	0x3962fb73	0.00021646712
169	0xb9a8c6e8	-0.00032191654
170	0xb9c715e1	-0.0003797254
171	0xb9688ecf	-0.00022178444
172	0xb94fabdf	-0.00019805085
173	0x39905e4d	0.0002753608
174	0xb9137094	-0.00014060951
175	0x3a0bd3f8	0.0005334015
176	0xb9b5ef64	-0.0003470137
177	0xb94f6081	-0.00019777009
178	0x397172d9	0.00023026335
179	0x3a04694b	0.000505109
180	0x3a1e98b0	0.0006049974
181	0x38d44aaf	0.00010122859
182	0x37dfa0c4	2.6658534e-05
183	0xb9949022	-0.00028336147
184	0x39bb5a47	0.0003573468
185	0xb9c03429	-0.00036659956
186	0xb92e4fee	-0.00016623709
187	0xba0a91bd	-0.0005285999
188	0xba1f625d	-0.0006080026
189	0x39b9573e	0.0003535095
190	0x3834370b	4.2966607e-05
191	0x3a042a8e	0.00050417415
192	0x3a03ed3d	0.00050326047
193	0x39ae0031	0.0003318801
194	0x3984b2f4	0.00025310332
195	0xb92c1ac6	-0.00016413172
196	0x39b01c05	0.00033590212
197	0x399f72fa	0.00030412507
198	0x39659377	0.00021894077
199	0xb799266f	-1.8256918e-05
200	0x38c61dc2	9.4469186e-05
201	0x363c5062	2.8060972e-06
202	0xb9f0a3f0	-0.0004589851
203	0x3919f298	0.0001468159
204	0xb9f3c389	-0.00046494257
205	0x39a0e2d3	0.00030686575
206	0xb9c58fdd	-0.00037681955
207	0xb958a040	-0.00020659063
208	0xb99d41a1	-0.0002999427
209	0x3a02dcc1	0.00049920013
210	0xb9e9826d	-0.00044538398
211	0x39a94fe0	0.00032293703
212	0x39a64cea	0.00031719293
213	0x39ea74c7	0.00044718964
214	0x39262918	0.00015846302
215	0x39b4c395	0.00034477995
216	0xba59cf71	-0.0008308804
217	0xba230754	-0.00062190485
218	0xba0bcc9b	-0.0005332918
219	0xbac5282d	-0.001504188
220	0xbb144203	-0.0022622354
221	0xb9b0f1b8	-0.0003374943
222	0xbaa42863	-0.0012524243
223	0xb9f6c1a2	-0.00047065044
224	0xb9d4a6f2	-0.00040560175
225	0xba1eef9f	-0.0006062928
226	0x3835c65d	4.3338503e-05
227	0x39e7c7ca	0.00044208608
228	0xbb18ad83	-0.002329678
229	0xba2a21d4	-0.0006490026
230	0xbacb8679	-0.0015527747
231	0xbacc68b1	-0.0015595165
232	0xbb0f5d62	-0.002187573
233	0x3b39bbad	0.0028340623
234	0xb996769b	-0.00028698597
235	0xbb481641	-0.0030530842
236	0x39da8c3a	0.00041684677
237	0xbac823a5	-0.0015269412
238	0xbb222b5c	-0.0024745082
239	0xba49cbef	-0.000769793
240	0xba33f4b9	-0.00068647746
241	0xb9e7e8c9	-0.00044233192
242	0xb98fd794	-0.00027435704
243	0xb8b319e7	-8.54021e-05
244	0xbad80655	-0.0016481379
245	0xba61880c	-0.00086033414
246	0xba07aebb	-0.0005175878
247	0xba311c4f	-0.00067562325
248	0x3a4861a2	0.0007643943
249	0xb852acc4	-5.0228802e-05
250	0xb997c725	-0.0002894934
251	0xb958e99a	-0.00020686389
252	0xba483d02	-0.00076384854
253	0xba49652c	-0.0007682617
254	0xb98e6fba	-0.00027167593
255	0xb7ec1722	-2.8144164e-05

conv1.lin_l.bias f4 [64]
0	0xb9c395ce	-0.00037304912
1	0xba867c69	-0.0010260466
2	0xbadb7b91	-0.00167452
3	0xb9d99d24	-0.00041506544
4	0xb81e7eeb	-3.7788337e-05
5	0xbafbe70d	-0.0019218639
6	0xbc49a33c	-0.0123069845
7	0x3938cabe	0.00017623135
8	0x38a43247	7.829494e-05
9	0xba4f9b3a	-0.0007919554
10	0xbb0c8a6f	-0.0021444818
11	0x398504f8	0.0002537144
12	0x3a101afc	0.0005497185
13	0xba302495	-0.00067193183
14	0xb95f9747	-0.00021323292
15	0xb9587db9	-0.000206462
16	0x39a0b1b0	0.00030649966
17	0xb9008eef	-0.00012260278
18	0xba235eb2	-0.0006232067
19	0xbacd0135	-0.0015640619
20	0xba045133	-0.00050475
21	0xba02bf94	-0.0004987654
22	0xbab6b6b7	-0.0013939951
23	0xb99f6911	-0.00030405124
24	0xbb1a6b6c	-0.0023562564
25	0x39fa2af1	0.0004771571
26	0xbc37cedd	-0.011218754
27	0xbaa77256	-0.0012775164
28	0x39b55972	0.00034589652
29	0x3820607e	3.8236838e-05
30	0xbb809bf8	-0.003924843
31	0xb9f200b1	-0.00046158352
32	0x3a20356c	0.0006111476
33	0xbb3025c9	-0.002687799
34	0xbb4559b3	-0.003011328
35	0x38d4d00a	0.00010147698
36	0x39a89564	0.00032154762
37	0x3835b78c	4.3324704e-05
38	0xbb3ad495	-0.0028508056
39	0xbaee4c33	-0.0018180668
40	0xbcfd7a75	-0.030942181
41	0xbb93e90f	-0.0045138667
42	0xba13e47e	-0.0005641653
43	0x3a23684b	0.00062334974
44	0x3a39bf2d	0.00070856774
45	0xb97de230	-0.00024212222
46	0x39830c98	0.0002499565
47	0xba12fca2	-0.0005607103
48	0xb9a99a98	-0.00032349373
49	0xbaafd9ee	-0.0013416389
50	0xba645fac	-0.0008711766
51	0xba12077c	-0.0005570573
52	0xbb679403	-0.0035336025
53	0xbb1eacbd	-0.0024211847
54	0xbb597f4e	-0.0033187452
55	0x38459c01	4.711375e-05
56	0xbadf6f57	-0.0017046732
57	0xb970186e	-0.00022897284
58	0xba43fe2d	-0.0007476535
59	0xbb484c7a	-0.0030563162
60	0x388cf7fa	6.7219094e-05
61	0xb96809bb	-0.00022128869
62	0x3929c1e3	0.00016189324
63	0x3b579362	0.0032894243

conv1.lin_r.weight f4 [64, 12]
0	0xb99b3dad	-0.00029609856
1	0xba1cbc8e	-0.00059790246
2	0xb9a675aa	-0.00031749654
3	0x35df7e24	1.6651506e-06
4	0xbaee4574	-0.0018178658
5	0xbc449c36	-0.012000134
6	0xbb7c0696	-0.0038456074
7	0x3b887b75	0.004165108
8	0xb93b2cac	-0.00017850351
9	0xbb938195	-0.0045015314
10	0xbba909d8	-0.005158644
11	0xbabbb392	-0.0014320484
12	0xbbab3f97	-0.0052260864
13	0xb9b3d8fb	-0.00034303204
14	0xba94e3d2	-0.00113594
15	0xb94c26f4	-0.00019469467
16	0xbc6033c5	-0.013684218
17	0xbac2201f	-0.0014810598
18	0xbbc1c4e6	-0.0059133647
19	0xbc85c3e9	-0.016328769
20	0x3ad55088	0.001627461
21	0x3a5ec76c	0.0008498344
22	0xbc86c516	-0.0164514
23	0xbb843306	-0.004034403
24	0xbbb9db33	-0.0056718825
25	0xbaa18a8d	-0.0012324617
26	0xba10901f	-0.000551464
27	0xb91aba33	-0.00014755949
28	0xbcc44a6c	-0.023961268
29	0xba95e884	-0.0011437093
30	0xbc0c2d8e	-0.008555783
31	0xbc8e565e	-0.017375167
32	0x3b60d254	0.0034305053
33	0x3b2d5bb2	0.002645236
34	0xbbd1853b	-0.006394056
35	0xbbeeabe5	-0.007283675
36	0xba1ff616	-0.00061020383
37	0x39b35c03	0.00034210095
38	0x39565874	0.00020441582
39	0xbb1c69a4	-0.0023866678
40	0xbabdc325	-0.0014477713
41	0xb99a3cea	-0.00029418553
42	0x3a1fc2e4	0.00060944096
43	0xba3b2185	-0.00071384787
44	0x3a31a671	0.0006776816
45	0xba039b42	-0.00050203886
46	0xba81c1e1	-0.0009899699
47	0x398f9683	0.00027387225
48	0xbbb93715	-0.0056523182
49	0xba3bf3b6	-0.00071697996
50	0xba5a40c6	-0.0008325692
51	0xb91caa31	-0.0001494072
52	0xbd02bcbb	-0.03191827
53	0xbacbe4f0	-0.00155559
54	0xbbf16955	-0.007367293
55	0xbc2ecd96	-0.010669133
56	0x3b5bbe30	0.0033530109
57	0x3b27d17f	0.0025607047
58	0xbc4be4f2	-0.012444722
59	0xbc33a7dd	-0.010965315
60	0xbc699db3	-0.01425879
61	0xba98d735	-0.0011660816
62	0xbb1956ee	-0.0023397761
63	0xb98d878c	-0.00026994606
64	0xbce52f2a	-0.027976591
65	0x39c951cd	0.00038398654
66	0xbca4e6f3	-0.020129656
67	0xbcd6c7ed	-0.026218379
68	0x3baafb41	0.00521794
69	0x3b8e3893	0.0043402403
70	0xbb567e19	-0.0032728969
71	0xbbc1c093	-0.005912849
72	0xbc22b105	-0.0099299
73	0xbc4b6f5b	-0.012416686
74	0xbc440383	-0.011963728
75	0x38673967	5.5128152e-05
76	0xbcc9389f	-0.024563132
77	0x3c093838	0.00837522
78	0xbd41cf63	-0.04731692
79	0xbca269a1	-0.019825758
80	0x3cfef485	0.031122455
81	0x3ca9edab	0.020743212
82	0xbcd5abfa	-0.026082981
83	0x3d3e5ba5	0.046474118
84	0xba8b57e5	-0.0010631053
85	0xba2846c5	-0.0006419237
86	0xb6ce13ec	-6.1415976e-06
87	0xb9e5ece3	-0.00043854778
88	0xbbe885bd	-0.007096021
89	0x39114d75	0.00013857133
90	0xbb222d55	-0.0024746258
91	0xbbb26a5e	-0.005444809
92	0x3ab7e0ca	0.0014028784
93	0x3783421c	1.5647202e-05
94	0xbae4ca2a	-0.0017455269
95	0xbb2719d4	-0.0025497572
96	0xb72ada75	-1.0183653e-05
97	0x3908236e	0.0001298317
98	0x3982d76c	0.00024956034
99	0xb9cdce33	-0.00039254277
100	0x38b27d84	8.5110805e-05
101	0x398ec6ef	0.00027232568
102	0x3a0e33ca	0.0005424587
103	0xb9f9891f	-0.00047595144
104	0xb9a4db0c	-0.0003144372
105	0x39413160	0.00018424308
106	0xb7aa5131	-2.0303387e-05
107	0xb9dfc36f	-0.00042679484
108	0xba474255	-0.0007601132
109	0xba50a593	-0.0007959243
110	0xba31720c	-0.00067690085
111	0xb93406cc	-0.0001716867
112	0xba2642bb	-0.0006342341
113	0xba5e4518	-0.00084789237
114	0xb93ac457	-0.00017811485
115	0x3939ba31	0.00017712337
116	0xba073903	-0.0005158337
117	0xb90628a2	-0.00012794373
118	0xb928822b	-0.0001607022
119	0x38dafaa5	0.00010441736
120	0xbb3ad425	-0.0028507796
121	0xbb2d0c26	-0.0026404946
122	0xbb08a123	-0.0020847998
123	0x3748c300	1.1966331e-05
124	0xbbbe3c84	-0.005805554
125	0xbccdec19	-0.025136994
126	0xbc28d058	-0.010303579
127	0x3c105413	0.008809107
128	0x3b82e59c	0.0039946567
129	0xbbb67528	-0.0055681653
130	0xbb4faa1e	-0.003168709
131	0x3a287bcb	0.0006427138
132	0xb9169d2a	-0.00014363663
133	0x38ae5e61	8.314546e-05
134	0xba009d77	-0.00049062766
135	0xb8417bfe	-4.6130262e-05
136	0x398f97a3	0.00027388064
137	0xb9f8a21a	-0.0004742302
138	0x38a89cf4	8.040099e-05
139	0xb8fd0483	-0.000120648205
140	0x39811924	0.0002462353
141	0x39a5f423	0.00031653148
142	0x388f3b09	6.8297675e-05
143	0xb8aec854	-8.3342806e-05
144	0xba0eb84e	-0.00054443337
145	0x398405c0	0.00025181286
146	0x39ca2816	0.0003855831
147	0xb970e1b0	-0.00022972259
148	0xba249f92	-0.00062798813
149	0x3a065a44	0.0005125145
150	0xb91baa3f	-0.00014845374
151	0x3904aeae	0.00012653574
152	0xb93a6c75	-0.00017778746
153	0x39d3762c	0.000403331
154	0x3a21b1bf	0.0006168149
155	0x39cfd9dc	0.00039644435
156	0xbbaf3d47	-0.005347881
157	0xba045a01	-0.0005048812
158	0xba2b775e	-0.00065409194
159	0xb9314482	-0.00016905557
160	0xbc9ab543	-0.01888526
161	0x3aa9272a	0.0012905349
162	0xbc04f239	-0.008114391
163	0xbc94e186	-0.018173944
164	0x3b727c45	0.003700034
165	0x3b528038	0.0032119881
166	0xbb30c089	-0.0026970229
167	0xbb3dd51d	-0.0028966137
168	0x3a1f9992	0.00060882524
169	0xb9a81b86	-0.00032063964
170	0xb95ea4d2	-0.0002123297
171	0xba14dcb9	-0.0005678642
172	0xb88356d9	-6.2627434e-05
173	0x3835f6a1	4.3383454e-05
174	0x39358958	0.0001731267
175	0xb9e6add3	-0.00043998528
176	0xb8997bd1	-7.318671e-05
177	0xba089d2c	-0.0005211409
178	0xba06dcc3	-0.00051445904
179	0x38ace179	8.243597e-05
180	0xba21d6e7	-0.00061736855
181	0x3930968d	0.00016840753
182	0xba18ba8d	-0.0005826138
183	0xb9e6b9f9	-0.0004400758
184	0xb9099b1a	-0.00013123118
185	0xba1e368e	-0.0006035351
186	0x3a05e668	0.00051078806
187	0x3a07d7f8	0.0005182023
188	0xb9ad3268	-0.00033034687
189	0x390aebd4	0.00013248558
190	0x39a9a17b	0.00032354504
191	0x3952bcff	0.00020097567
192	0xb8b1ac03	-8.4720574e-05
193	0xba1c60a8	-0.00059653306
194	0x39f11c21	0.0004598806
195	0xba116a88	-0.00055471854
196	0xb8f5a3b5	-0.00011713003
197	0x38248cc8	3.923176e-05
198	0xb95a6918	-0.0002082925
199	0xb9728f25	-0.00023132244
200	0xba0f4a30	-0.0005466072
201	0x38122946	3.484755e-05
202	0xb89699b3	-7.181186e-05
203	0x3a1089f8	0.0005513723
204	0xb95a546b	-0.00020821548
205	0x3a0024c3	0.00048882904
206	0x37fb281b	2.9940207e-05
207	0xb994f9da	-0.00028414914
208	0xb91db6ed	-0.00015040832
209	0xb89683d5	-7.177113e-05
210	0x36dbd129	6.551058e-06
211	0xb8da84dd	-0.00010419798
212	0x3944cfc8	0.00018769421
213	0x3a0888b1	0.0005208357
214	0x38d07adf	9.9410994e-05
215	0x397035c7	0.00022908217
216	0xbb15cdd8	-0.0022858288
217	0xba1ff3ba	-0.0006101687
218	0xb9ef7a4a	-0.00045676745
219	0xb9c1449a	-0.0003686294
220	0xba92fc7c	-0.0011214162
221	0x3bca31eb	0.0061705015
222	0xba8dae48	-0.0010809386
223	0xbadff071	-0.0017085207
224	0x3a3cf774	0.0007208504
225	0xb6dba4f7	-6.545913e-06
226	0x3b0e03dd	0.0021669783
227	0x3add30c0	0.001687549
228	0x384a40d4	4.822093e-05
229	0xba1fb672	-0.0006092555
230	0xba07669f	-0.0005165133
231	0xbab697d1	-0.0013930743
232	0xb8b9d394	-8.860897e-05
233	0x3b66d86a	0.0035224208
234	0x3a7d8f46	0.00096725335
235	0xbb1a8e73	-0.0023583442
236	0xb91a26a1	-0.00014700975
237	0x3910fecd	0.00013827831
238	0x3818a7a1	3.639574e-05
239	0xbb136062	-0.0022487869
240	0xba2bd30c	-0.0006554581
241	0xb7b6f660	-2.1810818e-05
242	0xba38d2e0	-0.0007050466
243	0x36040ac5	1.9675801e-06
244	0xb94a15c7	-0.00019272334
245	0x3aed998f	0.0018127429
246	0xba1966dc	-0.0005851814
247	0xbaea6c20	-0.0017885007
248	0xb9dcc62e	-0.00042109325
249	0x39941ded	0.00028251056
250	0xb9a835e8	-0.0003208362
251	0x3acb5c8f	0.0015515256
252	0xbba6c95b	-0.0050899214
253	0xba2fc8b7	-0.0006705629
254	0xbab15a79	-0.0013530991
255	0xb9088136	-0.00013018106

conv2.lin_l.weight f4 [64, 64]
0	0xb888bbfa	-6.519999e-05
1	0x39ac9a63	0.00032921424
2	0xb6c7b70c	-5.9519716e-06
3	0x39541c2d	0.00020228392
4	0xb91a1099	-0.00014692768
5	0x3885a719	6.3730586e-05
6	0x3a4c2f39	0.0007789019
7	0x3960ff5c	0.00021457433
8	0x38a878f6	8.033395e-05
9	0xb7f8bc0f	-2.9651475e-05
10	0x39c6bb65	0.00037905123
11	0x397004d4	0.00022889982
12	0xb987476b	-0.00025802417
13	0xb83155b3	-4.2279902e-05
14	0x3702a3ac	7.786712e-06
15	0x38c47ffc	9.369847e-05
16	0x38554470	5.0846895e-05
17	0x396102dd	0.00021458739
18	0x38dcf8be	0.00010536749
19	0xb9236588	-0.00015582715
20	0xb7e7bca3	-2.7625187e-05
21	0x3905b5c6	0.00012751584
22	0xb95474e0	-0.00020261435
23	0x3960505f	0.00021392245
24	0xb8fdb0a3	-0.00012096881
25	0x38806f17	6.124208e-05
26	0x3ac28349	0.0014840151
27	0x382324e6	3.8896593e-05
28	0x38b6f5e8	8.72424e-05
29	0x388e6325	6.789555e-05
30	0xb93e984c	-0.00018176547
31	0xb9818e7a	-0.0002471095
32	0xb96eda7a	-0.00022778838
33	0x3940c177	0.00018382618
34	0xb7ff2afb	-3.0418383e-05
35	0x385d1ffe	5.27203e-05
36	0x399d8998	0.0003004789
37	0xb81b6d19	-3.7056485e-05
38	0x387296df	5.7837806e-05
39	0xb9649978	-0.00021800946
40	0xbaa7c52f	-0.0012799854
41	0x3a3e15f1	0.00072511943
42	0x39dd401c	0.0004220017
43	0xb98e41f5	-0.00027133492
44	0x39092ce5	0.00013082063
45	0x3880d16c	6.1425235e-05
46	0xb91cd1b3	-0.00014955438
47	0xb8fea448	-0.000121422636
48	0xb955e1d7	-0.00020397395
49	0x398b348c	0.00026551296
50	0x399f7766	0.00030415802
51	0x38cee8bf	9.866198e-05
52	0xb91cf619	-0.00014968998
53	0x3910a62f	0.00013794818
54	0xb929acae	-0.00016181424
55	0x36a012f7	4.7705794e-06
56	0x39269aa5	0.00015888603
57	0x39c0bcb2	0.00036761683
58	0x36d5e4ef	6.374546e-06
59	0xb91b31b5	-0.00014800469
60	0x37dc0800	2.6229769e-05
61	0xb95868b3	-0.00020638369
62	0x392db41c	0.00016565662
63	0x3849cf04	4.8114933e-05
64	0x381f64f4	3.8002574e-05
65	0xb8e30a19	-0.00010826084
66	0x39394b36	0.00017670993
67	0x37c448c3	2.3398903e-05
68	0xb8838db6	-6.2729625e-05
69	0xb8b3ea70	-8.5790525e-05
70	0x3a43bc6a	0.00074667356
71	0xb87d0ca2	-6.0331666e-05
72	0xb96ea70b	-0.00022759677
73	0xb8f9bf91	-0.00011908927
74	0x3a1c1eaf	0.00059555
75	0x398a98ce	0.0002643526
76	0xb949452e	-0.00019194625
77	0x360d9f26	2.1103274e-06
78	0x395c171f	0.00020989448
79	0x38b008da	8.393983e-05
80	0x398244df	0.00024846845
81	0xb829eef8	-4.0515297e-05
82	0x39060f60	0.00012784963
83	0x39d5c21b	0.00040771146
84	0x387f811c	6.091698e-05
85	0xb95f1391	-0.00021274226
86	0xb7ae8950	-2.0806357e-05
87	0x3954c63f	0.00020291748
88	0x392ffc6c	0.00016783335
89	0x385e98ac	5.307111e-05
90	0x39b9edee	0.0003546322
91	0x39adb034	0.00033128413
92	0x388c3722	6.6859895e-05
93	0x38b002cd	8.392856e-05
94	0x3955d8cd	0.00020394028
95	0x391c7c75	0.00014923683
96	0x38b19afe	8.468887e-05
97	0x38fb1daa	0.00011974138
98	0x39171ba5	0.0001441078
99	0x392448f0	0.0001566743
100	0x37769abe	1.4698771e-05
101	0x38cb9f3d	9.709455e-05
102	0x39c47548	0.00037471415
103	0x3914c1b5	0.00014186541
104	0x3b42c3c5	0.0029718739
105	0x3a16553d	0.00057347474
106	0x3901a408	0.00012363505
107	0xb927620f	-0.00015962891
108	0xb9003d6c	-0.00012229913
109	0x391f771d	0.00015207795
110	0x37c961ec	2.4006666e-05
111	0xb902da8c	-0.00012479181
112	0x39664166	0.00021958872
113	0xb99cad52	-0.00029883772
114	0x3963bcf8	0.00021718803
115	0x38f00e3e	0.000114467446
116	0xb7e80f7c	-2.7663766e-05
117	0x398e6479	0.0002715921
118	0xb944bd6d	-0.00018762583
119	0x39530198	0.00020123122
120	0x3926d2bc	0.00015909498
121	0xb89d0cf8	-7.488759e-05
122	0x3912dce7	0.00014005938
123	0xb916f5da	-0.00014396702
124	0xb8a558d4	-7.884359e-05
125	0x37f8f07e	2.9675892e-05
126	0x394a9a0f	0.00019321612
127	0xb8ac459d	-8.2145656e-05
128	0xb91f3c9a	-0.00015185997
129	0x387c0213	6.0083414e-05
130	0xb7f8705c	-2.9616225e-05
131	0x39cd1014	0.00039112626
132	0xb8a051c0	-7.644622e-05
133	0x39088ba5	0.00013021992
134	0xb9409369	-0.00018365461
135	0x389b2ad3	7.3989526e-05
136	0x395e32ee	0.00021190543
137	0x381babf1	3.7115013e-05
138	0x3941ab80	0.00018469803
139	0x394e85b0	0.00019695493
140	0xb9895d35	-0.0002620012
141	0xb9346532	-0.00017203836
142	0x39647d3f	0.00021790432
143	0xb8401554	-4.579623e-05
144	0x3988c94d	0.00026089922
145	0xb98bafa1	-0.00026643
146	0xb938587c	-0.0001758057
147	0x39f116e2	0.0004598415
148	0x395c6d40	0.00021021534
149	0xb98d3e17	-0.00026939876
150	0x388b3d1f	6.639421e-05
151	0xb98d53d0	-0.0002695606
152	0xb9711293	-0.0002299047
153	0x38a39d31	7.801725e-05
154	0xba9136fb	-0.0011079008
155	0x389087fc	6.891784e-05
156	0xb7d838de	-2.5775687e-05
157	0xb96669b5	-0.00021973888
158	0xb97fedfd	-0.00024407353
159	0x38eccbf2	0.00011291345
160	0x392f0af5	0.00016693382
161	0xb79a17ad	-1.8369255e-05
162	0x385d2770	5.2727235e-05
163	0xb8f5cb08	-0.00011720328
164	0xb845b8e8	-4.7140667e-05
165	0xb97ab5ef	-0.00023909633
166	0x39852116	0.00025392388
167	0x3710c62c	8.629209e-06
168	0xbb3deb4b	-0.0028979357
169	0xb901ada2	-0.00012367082
170	0xb9143b09	-0.00014136372
171	0x397cf688	0.00024124433
172	0x38c03226	9.164614e-05
173	0xb851b81b	-5.0000945e-05
174	0x3782bbb1	1.5584608e-05
175	0x38a1a3f6	7.707618e-05
176	0xb907dff8	-0.00012958038
177	0x3994f770	0.00028413115
178	0x38322d43	4.248066e-05
179	0x37e2e0c0	2.7045957e-05
180	0xb981c577	-0.0002475192
181	0xb94c4a5b	-0.00019482656
182	0x38a9f8b2	8.104871e-05
183	0xb79d2887	-1.873473e-05
184	0xb971717b	-0.00023025826
185	0xb7decd7f	-2.6560154e-05
186	0xb8b2ecd2	-8.531813e-05
187	0x39703992	0.0002290963
188	0x38101493	3.4351437e-05
189	0xb91c5cf9	-0.00014911954
190	0xb955f49d	-0.00020404388
191	0xb754cdf9	-1.2684141e-05
192	0xba175942	-0.00057734933
193	0xb7cb7fe9	-2.4259049e-05
194	0xb8c63e39	-9.4529656e-05
195	0x3910e51f	0.00013818264
196	0xb820809e	-3.8266757e-05
197	0xb6313430	-2.6405432e-06
198	0xb9fc18f5	-0.0004808378
199	0xb9b3134e	-0.00034155924
200	0x391e7857	0.00015112884
201	0xb91a20c8	-0.00014698796
202	0xb9b8a87c	-0.00035220745
203	0xb8f66cc4	-0.00011750453
204	0x38905b43	6.883454e-05
205	0x39124cd4	0.00013952266
206	0xb8251ed8	-3.936779e-05
207	0xb89ad169	-7.382298e-05
208	0xb76d328f	-1.4138072e-05
209	0xb96e3415	-0.00022716851
210	0xb93981d4	-0.0001769134
211	0xb69050a5	-4.3009227e-06
212	0x3951baee	0.0002000143
213	0x399c2d42	0.00029788358
214	0xb8ec2c07	-0.00011261558
215	0xb8c09579	-9.183115e-05
216	0xb9231c38	-0.00015555404
217	0x39888415	0.0002603835
218	0x39e535fe	0.0004371851
219	0x3841ddf4	4.6221496e-05
220	0xb9adefe7	-0.00033175873
221	0xb908ebf6	-0.00013057873
222	0x37777366	1.4749216e-05
223	0x394aa5e3	0.00019326019
224	0xb77f9948	-1.5234873e-05
225	0x38a42eca	7.8288445e-05
226	0x37b18d12	2.1165735e-05
227	0xb98cf92b	-0.00026888525
228	0x3900e8b3	0.00012293718
229	0xb8f2f160	-0.00011584419
230	0xb9bf8b92	-0.00036534347
231	0x38c8acfd	9.568965e-05
232	0xbae64ae5	-0.0017569928
233	0xba027054	-0.00049758446
234	0xb97e8cba	-0.00024275752
235	0xb951859e	-0.0001998157
236	0x37ae0780	2.0745909e-05
237	0xb85dcc48	-5.2880758e-05
238	0xb8ece9db	-0.00011296916
239	0xb97107ff	-0.0002298653
240	0xb8aba4c7	-8.1846076e-05
241	0xb83fd08b	-4.573217e-05
242	0xb993dde7	-0.00028203355
243	0x38b24a2b	8.501516e-05
244	0xbb62f99b	-0.003463364
245	0xb649e2c9	-3.008334e-06
246	0xb982319e	-0.000248325
247	0x38f49634	0.00011662804
248	0xb96e6c77	-0.00022737855
249	0x3834b6c7	4.308557e-05
250	0x38de5c6b	0.00010602999
251	0xb94aee33	-0.00019352957
252	0xb8435729	-4.6572797e-05
253	0xb7117263	-8.669306e-06
254	0x39191e65	0.0001460254
255	0xb8e66f19	-0.00010987948

conv2.lin_l.bias f4 [64]
0	0xbc5aa1db	-0.013344253
1	0x3c77f9ae	0.015135212
2	0x3c812826	0.015766215
3	0xbbc897c8	-0.0061216094
4	0xbd0ea6dc	-0.0348271
5	0xbca032b3	-0.019555425
6	0xbcdae441	-0.026720168
7	0x3cfdc135	0.030975917
8	0xbbe993fc	-0.007128237
9	0xbcca5c70	-0.02470228
10	0x3ad7d207	0.0016465791
11	0x3bfee253	0.007778445
12	0x3cb728be	0.022358295
13	0x3c6b8282	0.014374377
14	0x3b104265	0.002201223
15	0x3c751425	0.014958416
16	0x3c47648f	0.012169971
17	0xbce3e104	-0.027817257
18	0x3a880448	0.0010377252
19	0xbc800d22	-0.015631262
20	0xbc202b1a	-0.009775901
21	0x3c97468e	0.01846626
22	0x3c18e622	0.009332212
23	0xbd07ebd5	-0.03318389
24	0xbcd3d6f4	-0.025859334
25	0xbcba7512	-0.022760902
26	0xbcd70e58	-0.026251957
27	0x3b0b9a52	0.00213017
28	0xbc2eeb43	-0.010676208
29	0x3d0a9c1f	0.033840295
30	0x3d4965a1	0.049169187
31	0xbc8f767d	-0.017512554
32	0xbb6b4e9b	-0.0035905007
33	0xbcb336d7	-0.021876736
34	0xbcca1e72	-0.02467272
35	0xb9d5e40f	-0.00040796443
36	0xbd18f9c4	-0.03734757
37	0x3d0c38bc	0.034233794
38	0x3c0cb6f7	0.008588544
39	0x3c0e6aae	0.008692427
40	0x3caa3ff2	0.020782445
41	0x3bbf91fa	0.005846259
42	0xbd0a9681	-0.033834938
43	0xbcf37c4e	-0.029722359
44	0x3b1b2e90	0.0023678876
45	0x3d37285f	0.044716235
46	0x3c6c3dbe	0.014419017
47	0x3d55d61c	0.052206144
48	0xbd01ee39	-0.031721327
49	0x3c6ac5e5	0.014329408
50	0x3c98de4c	0.018660687
51	0x3d350e40	0.044203043
52	0x3c2baec5	0.01047868
53	0xba2918c2	-0.00064505276
54	0x3c543831	0.01295285
55	0x3d18557f	0.03719091
56	0x3cf3a70c	0.02974274
57	0xbc1c1757	-0.009527049
58	0xbd58fefe	-0.052977555
59	0x3cef7ac7	0.02923335
60	0x3c00e0f2	0.007866131
61	0xbd10c5e2	-0.035344966
62	0x3d069c22	0.032863744
63	0x3b9d5562	0.004801438

conv2.lin_r.weight f4 [64, 64]
0	0xb9716e28	-0.00023024587
1	0x39b00669	0.00033574112
2	0x396b326f	0.00022430134
3	0x3a6879d7	0.0008868253
4	0xb98724da	-0.00025776663
5	0x398617c4	0.00025576178
6	0x39a123b7	0.00030734923
7	0xb961f500	-0.00021548942
8	0xb986ae64	-0.00025688403
9	0xb7fe0f18	-3.0286188e-05
10	0xb9989b43	-0.00029107378
11	0x39b28538	0.0003405006
12	0x3901ab4b	0.0001236621
13	0xb96793d4	-0.00022084947
14	0x3974497e	0.00023297031
15	0xb98e73a1	-0.000271705
16	0x38493899	4.7974845e-05
17	0xb9063edf	-0.00012802657
18	0x398cbd0c	0.00026843732
19	0x38b5a3dc	8.661274e-05
20	0xb72a34d8	-1.0145093e-05
21	0x38e0c097	0.00010717025
22	0xb8d13edc	-9.977605e-05
23	0xb8a601f9	-7.915864e-05
24	0x3875cc8d	5.8603055e-05
25	0x3b902b81	0.0043997173
26	0xb992d2df	-0.000280044
27	0xb8b3a8db	-8.566837e-05
28	0xb7a3bec3	-1.9519945e-05
29	0x397617e9	0.00023469295
30	0x3944bd5c	0.00018762558
31	0x398f1309	0.00027289268
32	0xb89a010e	-7.343489e-05
33	0xb9b27f14	-0.00034045486
34	0xb891eccf	-6.958248e-05
35	0x376fbe7c	1.4289861e-05
36	0x39c8f6d6	0.0003833088
37	0xb96770ee	-0.00022071946
38	0x384e851e	4.9238202e-05
39	0xb94badd5	-0.00019424346
40	0x3aa44a50	0.0012534354
41	0x39407466	0.00018353909
42	0x395de8ef	0.00021162977
43	0xb80991f5	-3.279928e-05
44	0x3a40c0a3	0.0007352924
45	0x396edaf8	0.00022779021
46	0xb91b6026	-0.0001481777
47	0x39748c6b	0.00023321963
48	0xb816a3ba	-3.591527e-05
49	0xb731fc81	-1.0608813e-05
50	0x358d7dd3	1.0541938e-06
51	0xb93bb96e	-0.00017902788
52	0xb94b2d85	-0.00019376546
53	0xb8411c42	-4.6041103e-05
54	0x391135da	0.00013848339
55	0xb83e92b6	-4.5436165e-05
56	0x39629f25	0.00021612326
57	0x39850c38	0.0002537684
58	0xb7d574e1	-2.5446005e-05
59	0xb9450803	-0.00018790369
60	0xb9157a5d	-0.00014255331
61	0xb83f42b0	-4.5600056e-05
62	0xb92ce11c	-0.00016487058
63	0x39e6f84d	0.00044054017
64	0xb794c56b	-1.7734905e-05
65	0x39448781	0.00018742496
66	0x39a1f173	0.00030888207
67	0xbad35645	-0.0016123733
68	0xb9380201	-0.00017548354
69	0x39b231a6	0.00033987797
70	0xb9efc08d	-0.00045729094
71	0x393c5e9b	0.0001796432
72	0xb861292a	-5.3682517e-05
73	0xb5549223	-7.918881e-07
74	0xb8f3c519	-0.00011623855
75	0x39c6a12d	0.00037885588
76	0xb970446e	-0.00022913676
77	0x3980e820	0.0002458701
78	0xb94b1cc2	-0.00019370302
79	0x389ed905	7.57445e-05
80	0x393c93c8	0.0001798413
81	0x372ac821	1.0179386e-05
82	0x39003b22	0.0001222906
83	0x39a85524	0.00032106892
84	0xb6959c03	-4.458708e-06
85	0x390043a9	0.00012232237
86	0x391c6b23	0.00014917231
87	0x386a4104	5.5850498e-05
88	0xb93540bc	-0.0001728562
89	0x3ac01619	0.0014655023
90	0x39ace6f2	0.00032978464
91	0xb8e569ef	-0.000109393026
92	0x39b6fa23	0.00034900111
93	0xb8954aca	-7.118804e-05
94	0xb9bd7ca0	-0.00036141742
95	0x39727e36	0.00023125936
96	0xb8c85afa	-9.553689e-05
97	0xb9c25b46	-0.00037070567
98	0x39c09b21	0.00036736674
99	0xb80661c4	-3.203914e-05
100	0xb81e48a7	-3.77378e-05
101	0xb8bb51a9	-8.932065e-05
102	0xb81eea47	-3.7888323e-05
103	0x391fe224	0.00015247666
104	0x3ad24867	0.0016043306
105	0x3964e083	0.00021827412
106	0x39527bf0	0.00020073331
107	0x3913d6ff	0.00014099105
108	0x38b630b0	8.687505e-05
109	0xb983dfbb	-0.0002515296
110	0x397eb0af	0.00024289147
111	0x38a6834e	7.939954e-05
112	0xb946f2aa	-0.00018973151
113	0x3914cd3e	0.00014190839
114	0x38d02219	9.924564e-05
115	0xb8d6c709	-0.000102413884
116	0xb97a16d2	-0.00023850359
117	0xb9a243b4	-0.0003094949
118	0xb8ed88ee	-0.00011326546
119	0xb7b73753	-2.1841062e-05
120	0x37d2e383	2.5139894e-05
121	0x391473c8	0.00014157512
122	0x38e3f47e	0.00010869744
123	0xb83cc482	-4.5005705e-05
124	0x38f07904	0.00011466633
125	0x393731d5	0.00017470804
126	0xb8eb0958	-0.000112074136
127	0x3b6088af	0.0034261157
128	0xb8dd53d1	-0.00010553713
129	0xb92a666d	-0.0001625062
130	0xb91b6767	-0.00014820472
131	0xbb8a7802	-0.004225732
132	0xb8ca79a9	-9.6547716e-05
133	0x396d2fdc	0.0002261991
134	0xb69645f9	-4.4784942e-06
135	0x399aba2b	0.00029511875
136	0x3834b1c0	4.3080887e-05
137	0x390b1390	0.0001326336
138	0xb8ae4710	-8.310203e-05
139	0xb912e25e	-0.00014007973
140	0x3903b079	0.00012558875
141	0xb9890b28	-0.00026138988
142	0x38135fa8	3.5136618e-05
143	0x36a5c713	4.9405585e-06
144	0x39853d3c	0.0002541336
145	0xb982b358	-0.00024929154
146	0xb91fd075	-0.00015241078
147	0x38c209f0	9.252492e-05
148	0xb98d12b0	-0.0002690754
149	0x378f21cf	1.7062672e-05
150	0xb98edf87	-0.0002725089
151	0xb8cb70d9	-9.700814e-05
152	0xb87caec1	-6.0244234e-05
153	0x3a8e51ac	0.001085808
154	0xba25670e	-0.0006309607
155	0x399f60ac	0.0003039887
156	0x39509b5b	0.000198943
157	0xb8d64396	-0.00010216904
158	0xb91edd84	-0.00015150575
159	0xb852269c	-5.010386e-05
160	0x391837b2	0.00014516598
161	0xb93763cd	-0.00017489419
162	0xb94117b8	-0.0001841475
163	0xb906c213	-0.00012851534
164	0xba853136	-0.0010161761
165	0x394a6cc9	0.00019304747
166	0xb82d9a71	-4.139025e-05
167	0x391df19b	0.00015062692
168	0xbafef92e	-0.0019452923
169	0xb8e14d5c	-0.000107432454
170	0xb8fb8a65	-0.00011994391
171	0xb809fae4	-3.2897005e-05
172	0xb8e73416	-0.0001102464
173	0x3816c29f	3.5944042e-05
174	0xb8e5c182	-0.000109556146
175	0x397ae5e3	0.00023927497
176	0x3843e568	4.6705274e-05
177	0xb982a04f	-0.0002491497
178	0x37f4fca2	2.9204708e-05
179	0xb8e4c0e0	-0.00010907813
180	0x3744108c	1.1686363e-05
181	0x39166e4f	0.00014346208
182	0x39735cac	0.00023208809
183	0x39138036	0.00014066775
184	0xb68f9341	-4.2788747e-06
185	0x39753177	0.00023383448
186	0xb99c9067	-0.00029862227
187	0x396794fa	0.00022085375
188	0x3915c5a3	0.00014283373
189	0xb7c0af96	-2.2969947e-05
190	0xb8db170e	-0.00010447028
191	0xbb8f753c	-0.004377989
192	0x38449bb8	4.6875066e-05
193	0xb91fd058	-0.00015241036
194	0xb93ec3df	-0.0001819278
195	0x39b6770c	0.00034802442
196	0x39904f47	0.00027524887
197	0x3947f9c6	0.00019071167
198	0x3872a2c5	5.7848887e-05
199	0xb891606f	-6.932101e-05
200	0xb8cdf989	-9.821641e-05
201	0xb9c81af6	-0.0003816706
202	0x39133518	0.00014038791
203	0x38505a0e	4.9674934e-05
204	0xb95250af	-0.00020057218
205	0xb906ec62	-0.00012867295
206	0x3935bf18	0.00017332693
207	0x39882cc8	0.00025973306
208	0x391972f6	0.00014634043
209	0xb878593b	-5.921091e-05
210	0xb9fb3acf	-0.00047918267
211	0xba6ef510	-0.00091154967
212	0xb94d9e5b	-0.00019609315
213	0x3928a11b	0.00016081745
214	0x37e7b41a	2.7621212e-05
215	0xb89039c3	-6.877214e-05
216	0x3899387c	7.3061296e-05
217	0x39c1b55b	0.0003694695
218	0x3aa5d3ec	0.0012651659
219	0xb8c7e0d2	-9.5309355e-05
220	0xb90c2f35	-0.00013369026
221	0x38d1ae3e	9.998352e-05
222	0xb796b975	-1.7967754e-05
223	0xb97c0372	-0.00024033876
224	0x39729975	0.00023136086
225	0x396df4d0	0.00022693281
226	0xb7c63a57	-2.3630606e-05
227	0x35e6f65e	1.7208038e-06
228	0x3adcc3d4	0.0016843029
229	0x38a6b425	7.949051e-05
230	0xb93fb1e2	-0.00018281446
231	0x395772bc	0.0002054674
232	0x3898de82	7.28937e-05
233	0xb9d18da1	-0.00039969108
234	0xb8c201bc	-9.250964e-05
235	0x396be268	0.0002249569
236	0x3b1260a7	0.0022335441
237	0xb8e8c35d	-0.00011099011
238	0x39274674	0.00015952607
239	0x3691616a	4.3326772e-06
240	0x3836b609	4.3561715e-05
241	0x3a288799	0.0006428897
242	0xb93df5f2	-0.00018116066
243	0xb94a01e1	-0.00019264921
244	0x3a242663	0.00062618236
245	0xb8d7725a	-0.000102732985
246	0x3932bf61	0.00017046697
247	0xb7cf22b5	-2.4692485e-05
248	0xb946a725	-0.00018945018
249	0xb91b0056	-0.00014782077
250	0xb954338a	-0.00020237095
251	0x38d3b9b3	0.00010095853
252	0x3859eedc	5.1959287e-05
253	0xb690ab9e	-4.3115133e-06
254	0xb91a44bd	-0.00014712191
255	0x3b2c62b8	0.0026303958

fc1.weight f4 [128, 74]
0	0x3f010749	0.5040174
1	0x3dafc1e4	0.085819036
2	0x3de77893	0.113022946
3	0xbebd5382	-0.36977774
4	0x3eb22c61	0.34799483
5	0x3ecc03cd	0.3984665
6	0xbe8b2944	-0.2717992
7	0x3f0c5b00	0.54826355
8	0x3e6a6947	0.22891723
9	0xbec7f83f	-0.39056584
10	0xbea7f400	-0.32803345
11	0x3dc26e40	0.09493685
12	0xbf30ef51	-0.6911517
13	0xbf0f14da	-0.5589119
14	0xbf5567d6	-0.83361566
15	0xbf0902d1	-0.5351992
16	0xbe145d39	-0.14488687
17	0x3da2b074	0.07943812
18	0xbe14fe86	-0.14550218
19	0xbe9dfb0b	-0.30855593
20	0xbccbdbe8	-0.024885133
21	0x3f28be8c	0.6591575
22	0xbce7d480	-0.02829957
23	0xbee3bec6	-0.44481486
24	0x3c5b98c1	0.013403119
25	0xbf903da4	-1.1268811
26	0xbe49d20d	-0.19709034
27	0x3cc480e7	0.023987247
28	0xbe7e7218	-0.24848211
29	0x3e67b9e6	0.22629508
30	0x3ea9773b	0.33098778
31	0xbe5d0732	-0.21584776
32	0xbe77ac14	-0.24186736
33	0x3ce75bd6	0.028242033
34	0x3e8c12a4	0.27357972
35	0xbe67b4ef	-0.22627614
36	0xbd450877	-0.048103776
37	0x3e86f42a	0.26358157
38	0xbe82900c	-0.25500524
39	0xbe396127	-0.18103467
40	0x3ed2e209	0.41188076
41	0x3e5aed2b	0.21379535
42	0xbf0bc1b1	-0.54592425
43	0xbec3c8fc	-0.38239276
44	0xbf09ef14	-0.5388043
45	0x3d116d6a	0.035504736
46	0x3f8a2c6b	1.0794805
47	0x3f03a87d	0.5142897
48	0xbf1f555e	-0.62239635
49	0xbe0c761b	-0.13716929
50	0x3eb9cb41	0.36287883
51	0xbcd65348	-0.026162758
52	0x3e0cc73a	0.13747874
53	0xbde00b64	-0.109396726
54	0x3ee0c913	0.43903407
55	0x3ad46b32	0.0016206263
56	0x3f093355	0.5359395
57	0xbdeef325	-0.1166747
58	0xbf444b7d	-0.76677686
59	0xbe653d44	-0.22386652
60	0x3f6ea612	0.93222153
61	0xbe9215e4	-0.28532326
62	0x3f058e26	0.52170026
63	0x3f2e648e	0.68122184
64	0x3dfb4495	0.1226894
65	0xb957d439	-0.00020583057
66	0x3c810035	0.015747169
67	0xbd80eed9	-0.062955566
68	0xbe63154f	-0.22176097
69	0x3e05a571	0.13051392
70	0xbc82b839	-0.015956985
71	0xbf25ba06	-0.64736974
72	0xbb45eb1a	-0.0030199946
73	0xbcdfe144	-0.027329095
74	0x3d2cf357	0.042224254
75	0x3e14338c	0.14472789
76	0x3d3b9cf0	0.045803964
77	0x3e22be25	0.15892847
78	0x3eb09461	0.34488204
79	0x3e6ddb9e	0.23228309
80	0xbe2c5b82	-0.16831782
81	0xbee0db40	-0.43917274
82	0xbdb2a34a	-0.08722551
83	0xbdecb010	-0.11557019
84	0x3db45c7e	0.08806704
85	0x3d711479	0.058857415
86	0xbe68f2c0	-0.22748852
87	0xbe9a2639	-0.30107287
88	0xbcf043e1	-0.029329242
89	0xbda8ec46	-0.082481906
90	0xbe01e08f	-0.12683319
91	0x3e3e698a	0.18594947
92	0xbe877a0f	-0.2646031
93	0x3cdbd29a	0.026833821
94	0x3d081861	0.033226375
95	0x3e11396d	0.14182062
96	0xbde56181	-0.11200238
97	0x3e985515	0.29752412
98	0x3ec0c655	0.37651315
99	0xba4c0e36	-0.00077841
100	0xbe6bddb3	-0.2303379
101	0x3dde97e8	0.108688176
102	0xbcc71aa9	-0.024304705
103	0xbf051ce2	-0.51997197
104	0x3e1c35a2	0.15254834
105	0x3e9f82ba	0.31154424
106	0xbd901443	-0.070351146
107	0xbe995ddc	-0.29954422
108	0x3d39c009	0.045349155
109	0xbed7c846	-0.42144984
110	0xba3be9cf	-0.0007168324
111	0xbd08736b	-0.033313196
112	0xbd0ab8ac	-0.033867523
113	0xbed49e53	-0.41527042
114	0xbd3015c9	-0.042989526
115	0x3e89062b	0.26762518
116	0x3e9c4e5a	0.30528527
117	0xbddb76de	-0.107160315
118	0xbe0d4b53	-0.13798265
119	0x3e922e0f	0.28550765
120	0x3e692e44	0.22771555
121	0x3d006865	0.03134956
122	0x3de0d14c	0.1097742
123	0xbd0ecb23	-0.034861695
124	0x3ee8c494	0.45462477
125	0x3e7c7a06	0.24655923
126	0x3e273cfa	0.16331854
127	0x3ed32550	0.41239405
128	0xbe4a4dc0	-0.19756222
129	0xbd81bfbb	-0.06335398
130	0x3e4e77c4	0.20162874
131	0xbdea7c3a	-0.114494756
132	0x3e48e5f5	0.19618972
133	0xbdcf861b	-0.101330005
134	0x3e2adea8	0.16686499
135	0x3a7d4879	0.00096619833
136	0xbe85ae13	-0.2610937
137	0xbea98053	-0.33105716
138	0xbe20c180	-0.15698814
139	0xb8772d24	-5.893143e-05
140	0x3e295be5	0.16538961
141	0xbfe01d9e	-1.7509038
142	0x3ddbfb2c	0.107412666
143	0xbeb0bc17	-0.345185
144	0xbced1fba	-0.028945792
145	0xbf8142f1	-1.0098554
146	0xbb1224b2	-0.0022299704
147	0xbcede1dc	-0.029038362
148	0x3e78f8e3	0.24313693
149	0x3ec566c1	0.38554958
150	0xbe662746	-0.22475919
151	0xbd33fa3b	-0.04393981
152	0xbdbc782b	-0.09202608
153	0x3e8d7e9b	0.27635655
154	0x39b9dc33	0.0003545001
155	0xbd85b43c	-0.065285176
156	0x3e329557	0.17439781
157	0xbd8743f2	-0.066047564
158	0x3e8f4ba5	0.279874
159	0xbdd4a016	-0.103820965
160	0xbe9b3561	-0.30314162
161	0xbe8038ce	-0.2504334
162	0xbd42d50e	-0.047566466
163	0xbe6a7a40	-0.22898197
164	0x3e872369	0.26394203
165	0x3effb6e5	0.49944225
166	0x3db68169	0.08911402
167	0x3d84f381	0.06491757
168	0xbdfd0f99	-0.12356491
169	0x3d5f65cb	0.054540437
170	0x3ea1006a	0.31445628
171	0xbd91c7e1	-0.07118202
172	0xbe7bf0c4	-0.24603564
173	0xbe3a10a1	-0.18170406
174	0xbd1c7541	-0.03819776
175	0x3e263810	0.16232324
176	0xbdc033b0	-0.093848586
177	0x3d491a5c	0.049097404
178	0x3d933c6e	0.071892604
179	0xbeb74ef5	-0.35802427
180	0xbe1a8c80	-0.15092659
181	0xbea3b882	-0.31976706
182	0x3ea0b2e8	0.31386495
183	0x3e75c599	0.24001159
184	0x3cd37a8c	0.02581527
185	0xbe64b249	-0.22333635
186	0xbe80531c	-0.25063407
187	0x3e73e5a7	0.23818074
188	0x3dff88b6	0.124772474
189	0xbe6d6d36	-0.23186192
190	0xbe36e12a	-0.17859331
191	0x3cee3896	0.029079717
192	0xbe379076	-0.17926201
193	0x3e6a4100	0.22876358
194	0x3dc10e68	0.09426576
195	0x3d4b0064	0.04956092
196	0xbdd254e6	-0.10270099
197	0xbeb8b9b2	-0.36079174
198	0x3e0e3717	0.13888203
199	0x3eb9ad29	0.36264923
200	0x3d15108c	0.036392733
201	0xbe79b5ed	-0.24385805
202	0xbd3401cb	-0.043947022
203	0xbe8b62b4	-0.27223742
204	0x3dbb1c62	0.09136273
205	0xbe465ae0	-0.19370604
206	0xbe324571	-0.17409302
207	0x3d4a3301	0.049365047
208	0x3e06fc60	0.13182211
209	0x3e0548ea	0.13016096
210	0xbd936e67	-0.07198792
211	0x3defd6aa	0.11710866
212	0x3e77f24f	0.24213527
213	0xb9065615	-0.00012811304
214	0x3c9c82f3	0.01910541
215	0x3f4d8f4f	0.80296797
216	0x3e930fab	0.2872289
217	0xbe4b0254	-0.19825107
218	0xbd09cd16	-0.03364285
219	0xbf75fc36	-0.9608797
220	0xbc7aa8f6	-0.0152990725
221	0xbcde11cb	-0.027108094
222	0x3ea18d0f	0.31552932
223	0x3e0eeb8d	0.13957043
224	0xbf1eae5c	-0.619848
225	0x3c6418a3	0.0139218895
226	0x3e8a680b	0.27032503
227	0x3ea673b1	0.3251014
228	0xbde8ac50	-0.11360991
229	0xbf0a0bed	-0.5392445
230	0xbd232e66	-0.03983917
231	0x3ec706a0	0.38872242
232	0x3f0b6bb1	0.544612
233	0x3c5b27e8	0.013376214
234	0xbebca474	-0.36844218
235	0xbe5ddd75	-0.2166651
236	0x3f0a6497	0.5405974
237	0xbf01abf1	-0.50652987
238	0x3c0e942d	0.00870232
239	0x3e8ffa17	0.2812049
240	0xbedf68b6	-0.43634576
241	0x3e022818	0.12710607
242	0xbf15745a	-0.58380663
243	0xbe9443f9	-0.2895811
244	0x3d21a7aa	0.039466538
245	0x3e78d30e	0.24299261
246	0x3caf6960	0.021412551
247	0xbd23fa46	-0.0400336
248	0xbdbef5b6	-0.093242094
249	0x3eb4f5be	0.35343736
250	0xbe19f144	-0.15033442
251	0xbeb50ee5	-0.35362926
252	0xbe03ea29	-0.12882294
253	0xbbf4aaa8	-0.007466633
254	0xbf1972e9	-0.59940964
255	0xbe4f3203	-0.20233922

fc1.bias f4 [128]
0	0xbc82bbf0	-0.015958756
1	0xbcecdc64	-0.028913684
2	0xbd0907df	-0.033454772
3	0x3cc6f749	0.024287837
4	0xbc6b8f25	-0.01437739
5	0xbc2e20cb	-0.010627936
6	0x3c7289ee	0.014803393
7	0xbcb3b1c2	-0.021935347
8	0xbe9ed9a1	-0.31025413
9	0x3c575633	0.01314311
10	0xbc3addef	-0.011405452
11	0xbd0edfd7	-0.03488144
12	0xbaf76882	-0.001887575
13	0xbda46a4b	-0.08028086
14	0xba01d812	-0.00049531565
15	0xb9e57761	-0.00043767228
16	0xbc5217d9	-0.012823069
17	0xbce48339	-0.027894603
18	0x3cdf1420	0.027231276
19	0xbac31605	-0.0014883882
20	0xbcd1fca1	-0.025633158
21	0xbd671f94	-0.0564266
22	0x3cd4ab15	0.025960485
23	0x3b5eab15	0.0033976485
24	0x3c81d280	0.015847445
25	0xbd0027c5	-0.031287927
26	0x3bb11100	0.005403638
27	0xbd2d5aab	-0.042322796
28	0xbb99caf0	-0.0046933815
29	0xbdbdbf35	-0.092649855
30	0x3d299499	0.04140148
31	0xbcac98c7	-0.021068944
32	0xbc5aa3ff	-0.013344764
33	0x3c1e3e90	0.009658471
34	0xbe9b4ff3	-0.30334434
35	0x3caf83c3	0.021425134
36	0x3cbbbba7	0.022916628
37	0xbc44f6c3	-0.012021723
38	0xbd835dc9	-0.064143725
39	0xbe22ffa0	-0.15917826
40	0xbd28da26	-0.041223668
41	0xbd7977cd	-0.060905267
42	0xba8552d7	-0.0010171783
43	0x3c3bfbf7	0.011473647
44	0xbd03de97	-0.0321947
45	0xbbde3bc3	-0.0067820265
46	0x3badb49d	0.005301072
47	0xbdeafbb3	-0.11473789
48	0xbbc12373	-0.0058941185
49	0xbbc6f932	-0.006072187
50	0xbd5f06b3	-0.05444975
51	0xbcf549a2	-0.029942337
52	0xbc8e59be	-0.017376777
53	0x396f076b	0.0002279558
54	0xbc93703d	-0.017997855
55	0xbd0b9695	-0.034079153
56	0xbd39fc55	-0.04540666
57	0xbc158fdd	-0.009128538
58	0xbc50e9ad	-0.012751025
59	0xbd1c00d1	-0.038086716
60	0xbd1481af	-0.03625649
61	0x3ba5a83c	0.0050554555
62	0xbd1e01a1	-0.038575772
63	0x3ce015f4	0.027354218
64	0x3b5cbe49	0.0033682755
65	0xbd24b8b3	-0.040215205
66	0xbc53b82b	-0.012922327
67	0xbd7d18f3	-0.06179137
68	0x3bf94df6	0.0076081706
69	0xbd2ef008	-0.04270938
70	0xbe49b689	-0.19698538
71	0xbd4d6445	-0.050144453
72	0xbd4eb636	-0.05046674
73	0xbbe2c76c	-0.0069207456
74	0xbc0026b2	-0.007821726
75	0xbc22cc0c	-0.009936344
76	0xbca2b8e4	-0.019863553
77	0x3c682206	0.014168268
78	0xbdb740d8	-0.08947915
79	0x3c0dcc9f	0.0086547425
80	0x3c78ba55	0.015181144
81	0xbc083247	-0.008312768
82	0xbccb41c2	-0.02481163
83	0xbd31c587	-0.043401267
84	0xbd6dcd0d	-0.05805688
85	0xbd43faa6	-0.04784646
86	0xbda049e3	-0.07826593
87	0xbd83028d	-0.06396971
88	0xbcc500b8	-0.024048194
89	0xba908484	-0.0011025821
90	0xb9568091	-0.00020456525
91	0xbcf5d25a	-0.03000753
92	0x3c539cea	0.012915829
93	0xbd7f8c58	-0.0623897
94	0xbd44e781	-0.04807234
95	0x3c6c3cb6	0.0144187715
96	0xbd7a3dd5	-0.061094124
97	0x3ba7b8df	0.005118474
98	0x3ca44efe	0.020057198
99	0x3be5e021	0.0070152436
100	0xbd2c2b94	-0.042033747
101	0xbeb9a164	-0.36255944
102	0xbc8afc85	-0.016966114
103	0xbd1547d1	-0.036445443
104	0x3c493ff2	0.012283312
105	0xbd5d06a1	-0.0539614
106	0xbdb78393	-0.08960643
107	0xb8007650	-3.0627765e-05
108	0x3cc06a67	0.023488237
109	0xbc911b20	-0.01771313
110	0xbd2c7248	-0.042101175
111	0xbcc0a551	-0.023516329
112	0xbc9a5cc4	-0.018843062
113	0xbcaa595e	-0.020794567
114	0xbceb427e	-0.02871823
115	0x3c6aea48	0.014338084
116	0xbcfc04db	-0.030764034
117	0xbd5d3642	-0.054006822
118	0xbc4982f4	-0.012299288
119	0xbcdb26b5	-0.026751855
120	0xbce27d74	-0.027647711
121	0xbcde2af4	-0.027120091
122	0xbeaf5e92	-0.3425184
123	0x3cfc3dce	0.03079119
124	0xbcd1cfec	-0.02561184
125	0xbc953865	-0.018215368
126	0xba9a3c5a	-0.0011767254
127	0xbc85afc5	-0.016319165

fc2.weight f4 [64, 128]
0	0x3db4d4ad	0.08829627
1	0x3e164477	0.14674555
2	0xbe25205a	-0.16125622
3	0x3cb76481	0.022386791
4	0xbd70b0d0	-0.05876237
5	0x3e40e960	0.18839025
6	0x3e0805ca	0.13283458
7	0x3ec09599	0.37614134
8	0x3dfb5837	0.12272685
9	0xbe05f195	-0.13080437
10	0x3df3eed4	0.11910787
11	0x3e0071e2	0.12543443
12	0x3e22b1b3	0.158881
13	0x3e22e8a3	0.15909056
14	0xbe0a406b	-0.13501136
15	0x3ca79389	0.020456092
16	0x3cea0d8b	0.02857091
17	0xbd3932ca	-0.04521445
18	0xbe0ce5d6	-0.1375955
19	0xbd4c814f	-0.049928006
20	0xbdb950c7	-0.0904861
21	0x3e521d18	0.20518911
22	0x3de94098	0.113892734
23	0x3deedc64	0.1166313
24	0x3e17a0a4	0.14807373
25	0xbd8e6b27	-0.069540314
26	0xbdbde8f5	-0.09272949
27	0xbd9caccc	-0.07650146
28	0xbdbe9792	-0.093062535
29	0x3d93aeb5	0.07211057
30	0xbce82aec	-0.02834078
31	0xbe96c2ee	-0.29445595
32	0x3e2ee261	0.17078544
33	0x3e087861	0.13327171
34	0x3da74e41	0.081692226
35	0xbe8796d5	-0.26482263
36	0x3e0d49f0	0.13797736
37	0x3e93348e	0.28751034
38	0xbcbc33b6	-0.022973876
39	0x3eaef38f	0.34170195
40	0x3dbf6095	0.093445934
41	0x3e53d647	0.20687209
42	0xbe5bf71d	-0.21480985
43	0x3e0421ce	0.1290352
44	0x3dc59246	0.0964704
45	0xbdc36b57	-0.09541958
46	0xbea4847b	-0.32132325
47	0x3e72b9c1	0.23703672
48	0x3d8c1c26	0.068413064
49	0xbc7666bb	-0.015039141
50	0x3e715255	0.23566563
51	0x3e0e7831	0.13913037
52	0xbdbf4215	-0.09338776
53	0xbda12b00	-0.0786953
54	0x3e4bc06b	0.1989762
55	0x3e512e7e	0.20427892
56	0xbdaf9563	-0.08573415
57	0x3cd17600	0.025568962
58	0x3e18ca00	0.14920807
59	0x3e618337	0.2202271
60	0xbda01b76	-0.07817738
61	0x3d9c9c98	0.076470554
62	0x3e17d5d1	0.14827658
63	0xbc83c538	-0.016085252
64	0xbe811397	-0.25210258
65	0x3eb30145	0.34961906
66	0xbd36f2e0	-0.044665217
67	0x3e1c3b35	0.1525696
68	0x3d96fdae	0.07372604
69	0x3d8b6778	0.068068445
70	0xbeb52fac	-0.35387933
71	0xba4ec2ec	-0.0007887322
72	0x3ec3a4ef	0.38211772
73	0x3dfb3291	0.12265504
74	0xbe47224e	-0.1944668
75	0x3dc06ca8	0.093957245
76	0x3cb4149a	0.02198248
77	0x3e92b125	0.28650776
78	0x3eb55ddb	0.3542317
79	0x3ddeab50	0.10872519
80	0xbd4aaf91	-0.04948384
81	0xbe930355	-0.2871348
82	0xbe1748de	-0.1477389
83	0x3dd632fa	0.10458942
84	0x3eb2f9e6	0.34956282
85	0xbde11458	-0.109902084
86	0x3ec63724	0.38713944
87	0x3eb660e6	0.35620803
88	0x3d9a62ab	0.07538351
89	0x3e396ae9	0.18107189
90	0x3d61343d	0.05498146
91	0x3d5d9508	0.054097205
92	0x3c898d66	0.016791057
93	0x3e76903d	0.2407846
94	0x3d30b4ca	0.043141164
95	0xbc166e12	-0.009181516
96	0x3ea2d2da	0.31801492
97	0xbe1a8275	-0.15088828
98	0xbe8285a3	-0.25492582
99	0x3e0796d6	0.13241133
100	0x3e985881	0.29755023
101	0x3e27bacc	0.16379851
102	0x3e6ee96c	0.23331231
103	0x3e84a4bb	0.2590693
104	0x3d868848	0.06568962
105	0x3e9eeaeb	0.31038603
106	0x3e9fdd91	0.3122373
107	0xbe1bc919	-0.15213431
108	0x3e9a7c39	0.301729
109	0x3e61fa1a	0.22068062
110	0x3e20dcaf	0.15709184
111	0x3e9f702b	0.31140265
112	0x3f3120ea	0.6919085
113	0x3e6294b3	0.22127037
114	0xbd9a5769	-0.075362034
115	0xbe44ce33	-0.19219284
116	0x3d298c9d	0.041393865
117	0x3dfb59d7	0.12272995
118	0x3e189a15	0.14902528
119	0xbe075ad1	-0.13218237
120	0xbe12c114	-0.14331466
121	0x3e2c1c5d	0.16807695
122	0x3eb55d89	0.35422924
123	0x3e917ae8	0.28414083
124	0xbe0756b3	-0.13216667
125	0xbe289b82	-0.16465572
126	0xbb0bd071	-0.0021333958
127	0x3d907b6a	0.07054789
128	0x3d9ca3f7	0.07648461
129	0x3dd08fc3	0.1018367
130	0xbccdc720	-0.025119364
131	0x3d9a6e14	0.07540527
132	0x3e0d8bf8	0.13822925
133	0x3e062818	0.13101232
134	0xbe991ded	-0.29905644
135	0x3d1fcfe4	0.03901662
136	0xbd1536e3	-0.036429297
137	0x3def7d88	0.11693865
138	0x3bf53d75	0.007484133
139	0xbd2759dc	-0.04085718
140	0x3eb7c8f1	0.35895494
141	0xbd299337	-0.04140016
142	0x3e0e699e	0.13907477
143	0xbe255478	-0.16145504
144	0x3d1475c9	0.03624514
145	0xbe49e826	-0.19717464
146	0x3da2060a	0.07911308
147	0xbdf99565	-0.12186698
148	0xbd2a7e16	-0.04162415
149	0xbd8d3f9d	-0.06896899
150	0x3e3a6a46	0.18204603
151	0xbdbdd764	-0.09269598
152	0xbe7eecc4	-0.24895006
153	0x3d915a98	0.070973575
154	0xbd486287	-0.048922088
155	0x3dffe35b	0.124945365
156	0xbdcd88d8	-0.100358665
157	0xbc13d3e2	-0.009022685
158	0x3cbde42c	0.02318009
159	0xbdb57f52	-0.08862175
160	0xbc90bf74	-0.017669417
161	0x3e266279	0.16248502
162	0xbd45dd2c	-0.04830663
163	0x3d151ac5	0.036402483
164	0x3d162837	0.036659446
165	0xbe61d139	-0.22052468
166	0x3b8bcc02	0.004266263
167	0xbe2bf812	-0.1679385
168	0x3cdb29b3	0.026753282
169	0x3d45ff39	0.048339102
170	0x3e41aff1	0.18914773
171	0x3e433f00	0.19067001
172	0xbe246d09	-0.16057219
173	0xbbea92b2	-0.0071586007
174	0xbdd3eb42	-0.10347606
175	0xbd19e3b8	-0.037570685
176	0xbeb5adb2	-0.35484082
177	0x3e2c61db	0.16834204
178	0x3d30dd05	0.04317953
179	0x3d8eff5d	0.069823004
180	0x3c882233	0.01661787
181	0x3e03a47e	0.12855718
182	0xbd6884a8	-0.056767136
183	0x3de07e14	0.109615475
184	0xbd0aaf36	-0.0338585
185	0x3dc2e7b1	0.09516848
186	0xbd0fbec5	-0.03509404
187	0x3def0a1e	0.116718516
188	0x3d3d9709	0.046286616
189	0x3e3e2fbd	0.18572898
190	0x3e8004fa	0.25003797
191	0x3e6b55ba	0.22981921
192	0xbe915691	-0.28386357
193	0xbd8483ae	-0.064704284
194	0x3e47abb5	0.19499095
195	0xbe04cea4	-0.12969452
196	0x3e5b3add	0.21409173
197	0xbd499a52	-0.049219437
198	0xbe2452e8	-0.16047251
199	0x3e456cdc	0.19279808
200	0xbd22ec4d	-0.039776135
201	0x380ab676	3.3071694e-05
202	0xbe34ea72	-0.17667559
203	0x3d375bdb	0.044765335
204	0x3d60035f	0.054690715
205	0xbe821761	-0.25408462
206	0xbe832a0b	-0.25618014
207	0xbd9de144	-0.07708982
208	0x3d8a093f	0.06740045
209	0xbdc91d2c	-0.09820017
210	0x3dc4ed67	0.096155934
211	0xbc68dd9d	-0.014212993
212	0x3d83ea71	0.064412005
213	0x3dc40a59	0.09572286
214	0xbe39c276	-0.18140587
215	0x3e317187	0.17328463
216	0xbd7a0e4b	-0.061048787
217	0xbe0c00af	-0.13672136
218	0x3bf6d128	0.0075322576
219	0x3e90dcba	0.282934
220	0xbdf45753	-0.11930718
221	0x3e8de1dc	0.2771138
222	0x3caca270	0.02107355
223	0xbd08e607	-0.033422496
224	0xbadeac5d	-0.0016988624
225	0x3e2c164f	0.16805385
226	0xbe699d90	-0.22814012
227	0x3e657e2c	0.22411412
228	0xbdbbf459	-0.09177465
229	0xbc303f65	-0.010757302
230	0x3e8d1a98	0.27559352
231	0x3da17b34	0.07884827
232	0x3de03070	0.10946739
233	0xbd2ecfe4	-0.04267873
234	0xbd2a15e1	-0.04152477
235	0x3c8b6cb6	0.01701961
236	0x3e677c60	0.22606039
237	0x3e03ff35	0.12890323
238	0xbdaee779	-0.08540244
239	0x3da74176	0.081667826
240	0x3d6a37e1	0.057182197
241	0x3e254755	0.16140492
242	0x3d57b41c	0.052662
243	0x3d640f5e	0.055678718
244	0xbe340d32	-0.17583159
245	0x3d5dada6	0.054120682
246	0x3e2f963a	0.1714715
247	0x3e0bcc2c	0.13652104
248	0x3ce95657	0.028483553
249	0x3d29b42c	0.04143159
250	0x3e086170	0.1331842
251	0x3d48aa6c	0.048990652
252	0xbd2b8263	-0.041872393
253	0xbe317074	-0.17328054
254	0x3e0463ce	0.12928697
255	0x3d9f1c08	0.077690184
