models/0_2023_2023/Postal_GraphSage/40.pth (torch, 120082 bytes, 19 tensors)

conv1.lin_l.weight f4 [64, 12]
0	0xbd503159	-0.05082831
1	0xbc351b53	-0.011053878
2	0xbc837f91	-0.01605204
3	0xbc9a8fb8	-0.018867359
4	0xbc3cecdd	-0.011531082
5	0xbd8ca437	-0.06867259
6	0xbd04e234	-0.032442287
7	0xbd55182c	-0.052025005
8	0xbd60df55	-0.054900486
9	0xbd845ddc	-0.06463215
10	0xbe17535f	-0.14777897
11	0xbd15a5ec	-0.03653519
12	0xbd62ca35	-0.05536862
13	0xbcae245a	-0.021257568
14	0xbd22e2f6	-0.039767228
15	0xb895ed9f	-7.149134e-05
16	0xbe96179d	-0.2931489
17	0xbd25f47c	-0.04051636
18	0xbe72a3ce	-0.23695299
19	0xbe83fb61	-0.25777724
20	0x3df963ed	0.121772625
21	0x3dddd5ff	0.10831832
22	0xbe4dcf65	-0.20098646
23	0x3cc22832	0.023700807
24	0xbd5876cf	-0.05284768
25	0xbcacaf3b	-0.02107965
26	0xbc9db6a0	-0.019252121
27	0xb8a49088	-7.8470504e-05
28	0xbed62b0a	-0.4182971
29	0xbd273a72	-0.040827222
30	0xbea37062	-0.3192168
31	0xbeb5699c	-0.35432136
32	0x3e3921fa	0.18079367
33	0x3e2828c4	0.16421801
34	0xbea21489	-0.31656292
35	0xba56fbc1	-0.00082009664
36	0x3bd48615	0.0064857104
37	0x3c2ec016	0.010665914
38	0x3c2044a8	0.009781994
39	0xbb50b0b1	-0.0031843598
40	0x3b9cdfdc	0.0047874283
41	0xbca09434	-0.019601919
42	0xbc922569	-0.017840104
43	0xbcaef040	-0.021354795
44	0x3c66c6c1	0.014085473
45	0xba0cc876	-0.0005370447
46	0xbc0278da	-0.007963384
47	0xbac4da1e	-0.0015018617
48	0xbd990936	-0.0747246
49	0xbce18578	-0.027529463
50	0xbc2ca2c5	-0.010536854
51	0xb7e962eb	-2.7821827e-05
52	0xbea7c643	-0.3276845
53	0xbd36a0d8	-0.044586986
54	0xbe7a613e	-0.24451157
55	0xbe9856cf	-0.2975373
56	0x3e24bf4f	0.16088603
57	0x3dff9302	0.124792114
58	0xbe9c4ad9	-0.30525854
59	0x3c7028e9	0.014658191
60	0xbe0cdd69	-0.13756336
61	0xbd715672	-0.05892033
62	0xbd39ed6b	-0.045392435
63	0x38d2f31c	0.00010058863
64	0xbf70f406	-0.9412235
65	0xbdb51b8d	-0.088431455
66	0xbf2ce700	-0.6753998
67	0xbf31c510	-0.6944132
68	0x3ecf146a	0.40445262
69	0x3ed01051	0.40637448
70	0xbf1b5b11	-0.6068583
71	0x3d6e1e67	0.058134463
72	0xbf079a2a	-0.5296961
73	0xbea5d32a	-0.32387668
74	0xbea44a94	-0.3208815
75	0xbd27ca9d	-0.04096471
76	0xbfddac25	-1.7318159
77	0xbf6a762d	-0.9158657
78	0xbfa3d5b7	-1.2799596
79	0xbf687e1c	-0.9081743
80	0x3eac7ea2	0.33690363
81	0x3e83d741	0.25750163
82	0xbfddaae4	-1.7317777
83	0x3c8a422f	0.016877262
84	0xbca85be7	-0.020551635
85	0xbc6bb900	-0.014387369
86	0xbc42cbfd	-0.011889455
87	0xb9ff1f22	-0.00048660586
88	0xbdf6341b	-0.12021657
89	0x3b50f1e3	0.0031882457
90	0xbd52111d	-0.05128585
91	0xbdc0f650	-0.094219804
92	0x3d1da6a6	0.038489006
93	0x3ca0b251	0.019616278
94	0xbd1eeac2	-0.0387981
95	0x3ca6850e	0.020327117
96	0x3b848f74	0.0040454213
97	0x3c7e2ae8	0.015513159
98	0xbc8a80fb	-0.016907206
99	0xbaf4fff7	-0.0018692006
100	0x3b5dac62	0.0033824672
101	0xbc726dc4	-0.014796678
102	0x3c07ba6e	0.008284194
103	0xbbd498a8	-0.0064879246
104	0xbbc9c19f	-0.0061571146
105	0xbc5d4b7a	-0.013506765
106	0x3be40cc3	0.006959529
107	0xbc4af1f9	-0.012386792
108	0xbc20104c	-0.0097695105
109	0x3aa469e2	0.0012543763
110	0x3bd58ace	0.006516791
111	0xbb512be2	-0.0031917025
112	0xbc5a57e1	-0.013326616
113	0xbc7b7beb	-0.015349369
114	0x3b6cc6b3	0.0036129176
115	0xbb39214e	-0.002824861
116	0x3bdc4b27	0.006722826
117	0xba93b72e	-0.0011269802
118	0x3be66377	0.0070309
119	0xbc95251f	-0.018206177
120	0xbde6fbec	-0.11278519
121	0xbda33ae0	-0.07970214
122	0xbd9ccc3c	-0.07656142
123	0xbcc8631c	-0.024461322
124	0xbe0cf438	-0.13765037
125	0xbe3df313	-0.18549757
126	0xbe139ee1	-0.14416076
127	0xbe499d10	-0.19688821
128	0xbd771f10	-0.060332358
129	0xbe18a0c3	-0.14905076
130	0xbecebcfa	-0.40378553
131	0xbda487f3	-0.08033743
132	0x3c0ec98f	0.0087150475
133	0x3c41ad5f	0.01182112
134	0x3bd39ddf	0.0064580287
135	0xbb88aa4d	-0.004170692
136	0x3adc3db3	0.0016803056
137	0xbc21ba55	-0.009871085
138	0x3c3f921b	0.011692549
139	0x3bbc058d	0.0057379664
140	0xbc7916cc	-0.015203189
141	0x3c441678	0.011968248
142	0xbb43bb7a	-0.0029866383
143	0xbb66604f	-0.003515262
144	0xbb98ab4a	-0.004659091
145	0xbb932d7e	-0.004491507
146	0x3a5f5b25	0.00085203565
147	0xbc0829b2	-0.008310722
148	0xbc81b955	-0.015835444
149	0xbc0fab9d	-0.008768943
150	0xbb5e032c	-0.0033876402
151	0x3c529edf	0.012855261
152	0x3c4d2f41	0.012523473
153	0xbc271c89	-0.010199674
154	0xba2b5a5e	-0.0006536598
155	0xbba0ff98	-0.0049132816
156	0xbd80fe0b	-0.06298455
157	0xbce98df7	-0.028510077
158	0xbd02595d	-0.031823505
159	0x38b35d78	8.552795e-05
160	0xbecc44f5	-0.3989636
161	0xbd453326	-0.048144482
162	0xbe8e5b61	-0.27804092
163	0xbea4069c	-0.32036293
164	0x3e24f640	0.16109562
165	0x3e0db535	0.13838656
166	0xbe5ea4f5	-0.21742614
167	0x3d219205	0.039445896
168	0x3bbeed1d	0.005826606
169	0xbc0df77c	-0.008664962
170	0xbc2775f6	-0.010220995
171	0xbbc39dda	-0.005969745
172	0xbbaeaef9	-0.005330917
173	0x3bf2def9	0.0074118343
174	0xbb7809bc	-0.00378476
175	0x3c6b3bc9	0.014357516
176	0xbc1908ea	-0.009340504
177	0xbbae6f68	-0.0053233393
178	0x3bcb1828	0.006197948
179	0x3c5ec187	0.013595945
180	0x3c85674a	0.016284604
181	0x3b3291c5	0.002724753
182	0x3a3c1ad2	0.00071756274
183	0xbbf9ed60	-0.0076271743
184	0x3c1d9783	0.009618643
185	0xbc21ac28	-0.009867705
186	0xbb929f75	-0.004474575
187	0xbc691d8a	-0.014228234
188	0xbc8610ea	-0.016365487
189	0x3c1be63f	0.009515344
190	0x3a979696	0.0011565264
191	0x3c5e57c9	0.013570734
192	0x3c5df0cd	0.013546181
193	0x3c125c71	0.008933173
194	0x3bdf3d65	0.0068127387
195	0xbb90c41f	-0.0044179107
196	0x3c14227b	0.009041424
197	0x3c061ef3	0.00818609
198	0x3bc11ba8	0.0058931895
199	0xba00d27f	-0.0004914179
200	0x3b26a54e	0.002542812
201	0x389e6677	7.553113e-05
202	0xbc4a6a34	-0.012354422
203	0x3b817e43	0.003951819
204	0xbc4d0ad3	-0.012514788
205	0x3c07544a	0.008259842
206	0xbc262e01	-0.010142804
207	0xbbb6370c	-0.0055607613
208	0xbc0446a6	-0.0080734845
209	0x3c5c265d	0.013436881
210	0xbc446aa0	-0.011988312
211	0x3c0e6ac4	0.008692447
212	0x3c0be24b	0.008537839
213	0x3c45366b	0.0120369
214	0x3b8bc41d	0.004265322
215	0x3c180cbe	0.009280382
216	0xbcb73627	-0.022364689
217	0xbc8921be	-0.016739722
218	0xbc6b2f2d	-0.014354509
219	0xbd25d6c8	-0.040488034
220	0xbd796a0b	-0.060892146
221	0xbc14d639	-0.009084278
222	0xbd0a14d3	-0.033711266
223	0xbc4f8f35	-0.012668421
224	0xbc32df4d	-0.010917497
225	0xbc85b076	-0.016319495
226	0x3a98e659	0.0011665329
227	0x3c42f648	0.011899538
228	0xbd806cd0	-0.06270754
229	0xbc8f1b5c	-0.0174691
230	0xbd2b31fc	-0.041795716
231	0xbd2bf04a	-0.041977204
232	0xbd712ec8	-0.058882505
233	0x3d9c3acd	0.07628403
234	0xbbfd1fd6	-0.0077247424
235	0xbda84db3	-0.08217945
236	0x3c37d4c9	0.0112201655
237	0xbd2858e9	-0.041100416
238	0xbd8868bc	-0.066606015
239	0xbca9bdcb	-0.020720383
240	0xbc975ed1	-0.01847783
241	0xbc43121d	-0.011906174
242	0xbbf1fc55	-0.0073848167
243	0xbb16a6a8	-0.0022987518
244	0xbd35b5a1	-0.044362668
245	0xbcbdb4bc	-0.02315747
246	0xbc64423a	-0.013931805
247	0xbc94f9fb	-0.018185606
248	0x3ca88d11	0.020575078
249	0xbab1358d	-0.0013519988
250	0xbbff5614	-0.0077922437
251	0xbbb674cb	-0.005568122
252	0xbca86e35	-0.020560363
253	0xbca96751	-0.020679148
254	0xbbef9edc	-0.0073126387
255	0xba46967e	-0.00075755257

conv1.lin_l.bias f4 [64]
0	0xbc248440	-0.0100412965
1	0xbce23ee8	-0.027617887
2	0xbd389e46	-0.045072816
3	0xbc370bbf	-0.011172234
4	0xba8551ad	-0.0010171436
5	0xbd53e352	-0.05173046
6	0xbea99b8b	-0.33126482
7	0x3b9b701c	0.004743589
8	0x3b0a1d32	0.002107453
9	0xbcaea0df	-0.021316944
10	0xbd6c6e79	-0.057722542
11	0x3bdfc73b	0.00682917
12	0x3c726da1	0.014796645
13	0xbc9429a8	-0.01808627
14	0xbbbc12de	-0.005739554
15	0xbbb619f0	-0.005557291
16	0x3c072af4	0.008249987
17	0xbb58461e	-0.0033000777
18	0xbc896b16	-0.016774695
19	0xbd2c70a4	-0.04209961
20	0xbc5e98dc	-0.013586249
21	0xbc5bf557	-0.013425193
22	0xbd19b0a3	-0.03752197
23	0xbc06168e	-0.008184088
24	0xbd81e3e7	-0.06342297
25	0x3c526dbf	0.012843548
26	0xbe9a9c2c	-0.30197275
27	0xbd0cd90b	-0.034386676
28	0x3c188ad5	0.009310444
29	0x3a86e6a7	0.0010292128
30	0xbdd85c0e	-0.10564433
31	0xbc4b8f88	-0.012424357
32	0x3c86c26f	0.016450135
33	0xbd942aa9	-0.07234699
34	0xbda60058	-0.08105534
35	0x3b3301fa	0.002731441
36	0x3c0dcde9	0.00865505
37	0x3a98da02	0.0011661651
38	0xbd9d2715	-0.0767347
39	0xbd4871ce	-0.048936658
40	0xbf5536bf	-0.8328666
41	0xbdf8d45b	-0.121498786
42	0xbc78ccce	-0.015185548
43	0x3c89733c	0.01677858
44	0x3c9c3daa	0.019072372
45	0xbbd58dd3	-0.006517151
46	0x3bdc76f5	0.006728048
47	0xbc7746a7	-0.015092528
48	0xbc0ea98e	-0.008707417
49	0xbd13eade	-0.03611266
50	0xbcc018bf	-0.0234493
51	0xbc75aa4d	-0.014994216
52	0xbdc2cab8	-0.09511322
53	0xbd857837	-0.0651707
54	0xbdb6f2c3	-0.08933022
55	0x3aa63828	0.0012681531
56	0xbd3bf13d	-0.04588436
57	0xbbc9f4f3	-0.0061632334
58	0xbca4dbff	-0.020124434
59	0xbda87b42	-0.082266346
60	0x3aed26d1	0.0018093233
61	0xbbc32dc6	-0.0059563844
62	0x3b8eca9c	0.004357649
63	0x3db554dd	0.08854077

conv1.lin_r.weight f4 [64, 12]
0	0xbc0294c5	-0.00797004
1	0xbc83d6d2	-0.016093645
2	0xbc0c047c	-0.008545991
3	0x383bfdcf	4.4820652e-05
4	0xbd486c14	-0.048931196
5	0xbea560ef	-0.32300517
6	0xbdd3fde2	-0.10351159
7	0x3de59abb	0.11211153
8	0xbb9d7119	-0.004804742
9	0xbdf82664	-0.121166974
10	0xbe0e2fc8	-0.13885415
11	0xbd1de299	-0.03854618
12	0xbe100ba3	-0.14066939
13	0xbc174776	-0.009233346
14	0xbcfa7a3a	-0.03057586
15	0xbbabb906	-0.0052405624
16	0xbebc9684	-0.36833584
17	0xbd2349eb	-0.039865416
18	0xbe22fd2c	-0.1591689
19	0xbee108a7	-0.43951914
20	0x3d336e16	0.043806158
21	0x3cbb63fd	0.022874827
22	0xbee2b933	-0.4428192
23	0xbdde6627	-0.10859328
24	0xbe1c5546	-0.15266904
25	0xbd07e15e	-0.03317391
26	0xbc7332d5	-0.014843662
27	0xbb82261f	-0.0039718295
28	0xbf251c1d	-0.6449602
29	0xbcfc30f1	-0.030785056
30	0xbe6bd245	-0.2302943
31	0xbeef7449	-0.46768406
32	0x3dbd1bdf	0.092338316
33	0x3d91d219	0.07120151
34	0xbe303cff	-0.17210768
35	0xbe48c247	-0.19605361
36	0xbc868d33	-0.01642475
37	0x3c16de52	0.009208279
38	0x3bb44c1a	0.005502236
39	0xbd839104	-0.06424144
40	0xbd1f9e65	-0.038969416
41	0xbc01bcb6	-0.007918527
42	0x3c866219	0.016404198
43	0xbc9d67ce	-0.019214537
44	0x3c956e42	0.018241052
45	0xbc5d66cc	-0.013513278
46	0xbcda4a80	-0.026646852
47	0x3bf18ef3	0.007371777
48	0xbe1bcb3c	-0.15214247
49	0xbc9e18a1	-0.019298853
50	0xbcb7956b	-0.022410115
51	0xbb83c74f	-0.004021562
52	0xbf5bf08d	-0.85913926
53	0xbd2b8170	-0.041871488
54	0xbe4b1048	-0.1983043
55	0xbe930925	-0.28717914
56	0x3db8d63c	0.09025237
57	0x3d8d2925	0.06892613
58	0xbeab8171	-0.33497193
59	0xbe971e1d	-0.29515162
60	0xbec48179	-0.3838003
61	0xbd008fe4	-0.031387225
62	0xbd80fb5a	-0.062979415
63	0xbbee1863	-0.0072660907
64	0xbf40c75c	-0.753042
65	0x3c295709	0.010335692
66	0xbf0ab52b	-0.5418269
67	0xbf34a9d9	-0.70571667
68	0x3e0fd22f	0.14045022
69	0x3def422d	0.11682544
70	0xbdb46bae	-0.08809601
71	0xbe22f990	-0.15915513
72	0xbe88d90c	-0.26728094
73	0xbeab1ea6	-0.3342182
74	0xbea4e092	-0.32202584
75	0x3ac27e85	0.0014838731
76	0xbf2941ce	-0.66116035
77	0x3e66d863	0.22543482
78	0xbfa30603	-1.273621
79	0xbf089d0d	-0.5336464
80	0x3f5674b1	0.83771807
81	0x3f0eef7e	0.55834186
82	0xbf33baf1	-0.70207125
83	0x3fa01eb3	1.2509369
84	0xbcea6af2	-0.028615449
85	0xbc8d8bb9	-0.017278539
86	0xb92d57b4	-0.00016531238
87	0xbc4166e0	-0.0118043125
88	0xbe439607	-0.191002
89	0x3b747148	0.0037298966
90	0xbd886a4f	-0.06660902
91	0xbe161310	-0.1465571
92	0x3d1aab58	0.037761062
93	0x39dcd0d3	0.00042117256
94	0xbd407255	-0.046984036
95	0xbd8c8e97	-0.06863134
96	0xb98fb693	-0.00027411114
97	0x3b65069e	0.003494657
98	0x3bdc1d4c	0.0067173596
99	0xbc2d1cfd	-0.010565993
100	0x3b16231c	0.002290911
101	0x3bf0319e	0.0073301336
102	0x3c6f3a1e	0.014601259
103	0xbc51e590	-0.01281108
104	0xbc0aab20	-0.008463651
105	0x3ba28111	0.0049592336
106	0xba0f431f	-0.0005465019
107	0xbc3c3802	-0.011487963
108	0xbca79b6b	-0.020459851
109	0xbcaf80dc	-0.02142375
110	0xbc954224	-0.018220015
111	0xbb976e00	-0.0046212673
112	0xbc8bd9b8	-0.01707159
113	0xbcbaf65e	-0.022822555
114	0xbb9d1969	-0.004794289
115	0x3b9c3976	0.004767592
116	0xbc637c51	-0.01388462
117	0xbb61b216	-0.0034438423
118	0xbb8dbdae	-0.00432559
119	0x3b3831d0	0.0028105862
120	0xbd9d26d1	-0.07673419
121	0xbd918f27	-0.07107382
122	0xbd65da10	-0.056116164
123	0x39a8def2	0.00032209564
124	0xbe200473	-0.15626697
125	0xbf2d361e	-0.676607
126	0xbe8dff81	-0.27733997
127	0x3e72cdbc	0.23711294
128	0x3ddc353d	0.10752342
129	0xbe19797d	-0.1498775
130	0xbdaead56	-0.08529155
131	0x3c8db856	0.017299812
132	0xbb7d60c2	-0.0038662408
133	0x3b12abad	0.0022380159
134	0xbc585e9c	-0.01320615
135	0xbaa2bfe7	-0.001241681
136	0x3bf190b6	0.007371987
137	0xbc51234c	-0.012764763
138	0x3b0dd43d	0.0021641396
139	0xbb54d36b	-0.0032474648
140	0x3bd92ea3	0.006627874
141	0x3c0b97a1	0.008520038
142	0x3af0f500	0.0018383563
143	0xbb1304ca	-0.0022433274
144	0xbc70191a	-0.014654422
145	0x3bde1a0a	0.0067780064
146	0x3c2a0b52	0.010378676
147	0xbbca9e28	-0.0061834045
148	0xbc8a7919	-0.016903447
149	0x3c6205a5	0.013795291
150	0xbb82f02a	-0.003995915
151	0x3b5f3638	0.0034059417
152	0xbb9ccf74	-0.0047854725
153	0x3c31df15	0.01085641
154	0x3c88026f	0.016602723
155	0x3c2ed58a	0.010671029
156	0xbe13670e	-0.14394781
157	0xbc5ea7b6	-0.01358979
158	0xbc903a96	-0.017606061
159	0xbb951bd0	-0.0045504346
160	0xbf02220c	-0.508332
161	0x3d0e4873	0.03473706
162	0xbe5fa7e0	-0.21841383
163	0xbefa765f	-0.48918435
164	0x3dcbf781	0.09959317
165	0x3db1101a	0.08645649
166	0xbd94acce	-0.072595224
167	0xbd9fad77	-0.07796758
168	0x3c863f59	0.016387628
169	0xbc0d674b	-0.008630584
170	0xbbbb46e2	-0.005715237
171	0xbc7a6e51	-0.015285091
172	0xbadcf3d2	-0.0016857332
173	0x3a990ef3	0.0011677429
174	0x3b98b313	0.004660019
175	0xbc420944	-0.011843029
176	0xbb011a58	-0.001969954
177	0xbc65d352	-0.0140274335
178	0xbc62e126	-0.013847625
179	0x3b116b35	0.0022189145
180	0xbc882199	-0.016617583
181	0x3b948989	0.004532997
182	0xbc8077c7	-0.015682114
183	0xbc42136a	-0.011845449
184	0xbb677e73	-0.0035323172
185	0xbc8514c5	-0.016245255
186	0x3c61428f	0.013748779
187	0x3c6487b3	0.013948369
188	0xbc11af4f	-0.0088918945
189	0x3b69b51d	0.003566093
190	0x3c0eaf69	0.008708813
191	0x3bb14343	0.0054096295
192	0xbb1572e6	-0.002280408
193	0xbc838989	-0.016056793
194	0x3c4acf58	0.012378536
195	0xbc74a261	-0.014931292
196	0xbb4e9ea6	-0.0031527667
197	0x3a8a695b	0.0010559963
198	0xbbb7b74d	-0.005606568
199	0xbbcc074c	-0.006226456
200	0xbc710e98	-0.014712952
201	0x3a75e327	0.00093798566
202	0xbafd5aef	-0.0019329468
203	0x3c732880	0.014841199
204	0xbbb7a5fb	-0.005604503
205	0x3c57939f	0.013157754
206	0x3a5342b9	0.00080589537
207	0xbbfa9f60	-0.0076483935
208	0xbb84a976	-0.0040485216
209	0xbafd363c	-0.0019318531
210	0x3938e644	0.00017633388
211	0xbb37ceb5	-0.002804679
212	0x3ba58c53	0.0050521283
213	0x3c65b0d4	0.01401921
214	0x3b2f5ce8	0.0026758257
215	0x3bca0d7c	0.0061661582
216	0xbd7c03f9	-0.061527226
217	0xbc868b36	-0.016423803
218	0xbc496fca	-0.012294719
219	0xbc229159	-0.009922349
220	0xbcf7464e	-0.030184891
221	0x3e2a13a1	0.1660905
222	0xbcee5980	-0.029095411
223	0xbd3c5de7	-0.04598799
224	0x3c9ef315	0.01940302
225	0xb938c103	-0.0001761951
226	0x3d6ee974	0.058328107
227	0x3d3a0e04	0.045423523
228	0x3aaa200f	0.0012979525
229	0xbc86579f	-0.016399203
230	0xbc63c8ff	-0.013902902
231	0xbd19969c	-0.037497148
232	0xbb1c4ef3	-0.0023850768
233	0x3dc22cf9	0.09481234
234	0x3cd5482d	0.026035393
235	0xbd82014e	-0.06347905
236	0xbb81aa12	-0.0039570415
237	0x3b73ed1e	0.003722019
238	0x3a8067e6	0.0009796589
239	0xbd77ee87	-0.06053021
240	0xbc9087be	-0.017642852
241	0xba19e624	-0.00058707804
242	0xbc9b76f8	-0.018977627
243	0x385e226f	5.2960993e-05
244	0xbba9fbf9	-0.005187508
245	0x3d47db7d	0.048793305
246	0xbc8108b3	-0.015751218
247	0xbd452f31	-0.04814071
248	0xbc39b465	-0.011334513
249	0x3bf92d56	0.0076042814
250	0xbc0d7d86	-0.008635884
251	0x3d2b0ed8	0.041762203
252	0xbe0c4ad8	-0.13700426
253	0xbc93dc63	-0.018049425
254	0xbd152e45	-0.03642108
255	0xbb65a44a	-0.003504055

conv2.lin_l.weight f4 [64, 64]
0	0xbae6072b	-0.0017549744
1	0x3c112f5f	0.008861392
2	0xb927fda2	-0.00016020847
3	0x3bb26aaa	0.0054448443
4	0xbb81977c	-0.003954826
5	0x3ae0d824	0.0017154259
6	0x3cabbffc	0.020965569
7	0x3bbd41d3	0.005775669
8	0x3b0db5f8	0.0021623354
9	0xba513940	-0.0007981248
10	0x3c2729e8	0.010202862
11	0x3bc9e46c	0.006161263
12	0xbbe39489	-0.006945197
13	0xba952a45	-0.0011380395
14	0x395bc65c	0.00020959362
15	0x3b254934	0.0025220634
16	0x3ab363ef	0.0013686399
17	0x3bbd44bd	0.0057760165
18	0x3b39ded2	0.002836157
19	0xbb8970ef	-0.004194371
20	0xba42eceb	-0.0007435816
21	0x3b60f0bd	0.0034323179
22	0xbbb2b546	-0.0054537384
23	0x3bbcae87	0.00575811
24	0xbb556443	-0.0032560981
25	0x3ad81090	0.0016484428
26	0x3d239d63	0.039945018
27	0x3a893a87	0.0010469713
28	0x3b19e5b8	0.002348287
29	0x3aef89cf	0.0018275323
30	0xbba051ae	-0.0048925495
31	0xbbd9f41d	-0.006651415
32	0xbbc8e965	-0.0061313384
33	0x3ba222f5	0.004948015
34	0xba56a273	-0.0008187659
35	0x3ab9ffe4	0.0014190641
36	0x3c048330	0.008087918
37	0xba82bca4	-0.0009974432
38	0x3acc0de4	0.0015568105
39	0xbbc04963	-0.0058681234
40	0xbd0d1ecc	-0.0344532
41	0x3c9fe404	0.019517906
42	0x3c3a1ae2	0.011358948
43	0xbbef51ee	-0.007303468
44	0x3b66c54f	0.003521282
45	0x3ad8b5f0	0.0016533714
46	0xbb83e88b	-0.004025524
47	0xbb563136	-0.003268314
48	0xbbb3e855	-0.0054903426
49	0x3bea2f74	0.00714677
50	0x3c0622a5	0.008186971
51	0x3b2e0aae	0.0026556659
52	0xbb84072f	-0.0040291767
53	0x3b735803	0.0037131316
54	0xbb8eb8c3	-0.0043555214
55	0x3906a584	0.00012840895
56	0x3b8c23ae	0.0042767143
57	0x3c221efa	0.009895081
58	0x3933ead8	0.00017158256
59	0xbb828a9e	-0.0039838096
60	0x3a391455	0.00070602197
61	0xbbb60858	-0.005555194
62	0x3b921c65	0.0044589513
63	0x3aa9c06b	0.0012951022
64	0x3a861320	0.0010229088
65	0xbb3ef96e	-0.002914037
66	0x3b9bdc28	0.0047564693
67	0x3a251acd	0.0006298244
68	0xbadd4ff8	-0.0016884794
69	0xbb175603	-0.0023092038
70	0x3ca4a4cd	0.020098114
71	0xbad4da68	-0.0016239407
72	0xbbc8be22	-0.006126181
73	0xbb521375	-0.0032055054
74	0x3c8351fd	0.016030306
75	0x3be9294a	0.0071155177
76	0xbba94c86	-0.005166593
77	0x386e4003	5.6803237e-05
78	0x3bb920fc	0.005649684
79	0x3b141267	0.0022593976
80	0x3bdb26d4	0.0066879783
81	0xba8ef089	-0.0010905425
82	0x3b6187a5	0.0034413126
83	0x3c33cd88	0.010974295
84	0x3ad6eadc	0.0016396898
85	0xbbbba414	-0.0057263467
86	0xba12cfc2	-0.00056004163
87	0x3bb2f9b4	0.005461896
88	0x3b9407d3	0.0045175343
89	0x3abb3cd3	0.0014285095
90	0x3c1c650a	0.009545574
91	0x3c121931	0.008917139
92	0x3aebe25f	0.0017996541
93	0x3b140d49	0.0022590926
94	0x3bb3e092	0.0054894174
95	0x3b83a0e5	0.004016983
96	0x3b15649e	0.0022795568
97	0x3b5339eb	0.0032230567
98	0x3b7e3579	0.0038789196
99	0x3b8a3028	0.0042171665
100	0x39cf6e60	0.00039564352
101	0x3b2b46df	0.0026134772
102	0x3c254038	0.010086112
103	0x3b7a40e0	0.0038185641
104	0x3da3d3ac	0.079993576
105	0x3c7ce7d9	0.015436136
106	0x3b5a1846	0.0033278628
107	0xbb8ccb6a	-0.00429671
108	0xbb57bcfe	-0.0032919045
109	0x3b862269	0.0040934575
110	0x3a29649b	0.000646183
111	0xbb5c22b4	-0.003359002
112	0x3bc1adef	0.005910627
113	0xbc03ca0e	-0.008043779
114	0x3bbf8ff4	0.005846018
115	0x3b49ec48	0.0030811
116	0xba43329e	-0.0007446202
117	0x3bef8c11	0.0073103984
118	0xbba57cf7	-0.0050502974
119	0x3bb17cfe	0.0054165116
120	0x3b8c52db	0.004282338
121	0xbb041a65	-0.0020157334
122	0x3b77115f	0.0037699563
123	0xbb7df604	-0.0038751373
124	0xbb0b14f0	-0.0021222197
125	0x3a51654a	0.00079878105
126	0x3baa6b22	0.0052007595
127	0xbb10e833	-0.0022111058
128	0xbb85f135	-0.004087592
129	0x3ad3fa00	0.0016172528
130	0xba50f95d	-0.00079717283
131	0x3c2c7d30	0.010527894
132	0xbb06da51	-0.0020576904
133	0x3b65b609	0.0035051128
134	0xbba1fc38	-0.004943397
135	0x3b0284e2	0.001991563
136	0x3bbae733	0.0057038306
137	0x3a82f17a	0.0009990179
138	0x3ba2e7e0	0.0049714893
139	0x3badb756	0.0053013964
140	0xbbe71680	-0.0070522428
141	0xbb97bd53	-0.0046307235
142	0x3bc0319e	0.00586529
143	0xbaa19243	-0.0012326915
144	0x3be61db7	0.0070225853
145	0xbbeafe67	-0.0071714404
146	0xbb9b1001	-0.0047321324
147	0x3c4acadd	0.012377468
148	0x3bb96983	0.00565833
149	0xbbed9cd1	-0.00725136
150	0x3aea3dd1	0.0017871206
151	0xbbedc149	-0.0072557074
152	0xbbcac74d	-0.0061883093
153	0x3b099fd0	0.0020999797
154	0xbcf44bab	-0.029821238
155	0x3af3252e	0.0018550509
156	0xba35e025	-0.0006938002
157	0xbbc1cfd6	-0.0059146686
158	0xbbd7468a	-0.006569688
159	0x3b472e70	0.003039267
160	0x3b933cb8	0.004493322
161	0xba019d79	-0.0004944425
162	0x3aba062c	0.0014192513
163	0xbb4ebfb6	-0.0031547374
164	0xbaa65083	-0.0012688789
165	0xbbd2e2c0	-0.006435722
166	0x3bdff6a4	0.006834822
167	0x39738da7	0.00023227055
168	0xbd9fc02c	-0.07800326
169	0xbb5a2882	-0.0033288305
170	0xbb795e4d	-0.0038050592
171	0x3bd4c7c7	0.006493542
172	0x3b21aa5f	0.00246682
173	0xbab067d1	-0.0013458674
174	0x39dbeeb6	0.0004194879
175	0x3b07f6d5	0.0020746489
176	0xbb649533	-0.0034878969
177	0x3bfa9b4e	0.0076479083
178	0x3a95dfa8	0.0011434453
179	0x3a3ed697	0.0007279901
180	0xbbda5093	-0.006662437
181	0xbbabd6d9	-0.0052441177
182	0x3b0ef8a0	0.0021815673
183	0xba0431ab	-0.00050428015
184	0xbbcb172d	-0.006197831
185	0xba3b6917	-0.00071491435
186	0xbb1680b5	-0.00229649
187	0x3bca10ba	0.0061665447
188	0x3a7262d7	0.00092462957
189	0xbb83866a	-0.004013826
190	0xbbb3f7ed	-0.0054922015
191	0xb9b3002d	-0.00034141671
192	0xbc7e9d11	-0.015540377
193	0xba2b2c8c	-0.00065297703
194	0xbb26c097	-0.0025444382
195	0x3b73c1c5	0.0037194353
196	0xba8701af	-0.0010300184
197	0xb8950e23	-7.107507e-05
198	0xbc540d3c	-0.012942608
199	0xbc16a122	-0.0091936905
200	0x3b854c17	0.0040679085
201	0xbb81a532	-0.0039564604
202	0xbc1b535c	-0.009480324
203	0xbb4f47d4	-0.0031628506
204	0x3af2d9e4	0.0018528071
205	0x3b761eff	0.0037555096
206	0xba8ae42a	-0.0010596563
207	0xbb0239ab	-0.0019870799
208	0xb9c784d9	-0.00038055217
209	0xbbc85d79	-0.0061146584
210	0xbb9c0a0f	-0.0047619413
211	0xb8f2c816	-0.00011576728
212	0x3bb06a24	0.0053837467
213	0x3c035e4d	0.0080180885
214	0xbb46a7f8	-0.003031252
215	0xbb21fdf3	-0.0024718016
216	0xbb89333d	-0.0041870163
217	0x3be5a954	0.007008711
218	0x3c40ccfa	0.01176762
219	0x3aa31244	0.0012441357
220	0xbc124ea5	-0.008929883
221	0xbb6657e6	-0.0035147606
222	0x39d024b0	0.00039700186
223	0x3baa752a	0.0052019553
224	0xb9d6ff3c	-0.00041007425
225	0x3b0a1a34	0.0021072747
226	0x3a1558e9	0.00056971476
227	0xbbed28fb	-0.0072375513
228	0x3b58dd3b	0.0033090848
229	0xbb4c59f4	-0.0031181546
230	0xbc211e46	-0.009833878
231	0x3b28cc74	0.002575663
232	0xbd41b5ed	-0.04729264
233	0xbc5b7006	-0.013393408
234	0xbbd61d62	-0.0065342644
235	0xbbb03d55	-0.005378405
236	0x3a126292	0.0005584146
237	0xbaba90d1	-0.0014233832
238	0xbb47478f	-0.0030407642
239	0xbbcabe51	-0.0061872383
240	0xbb1060d9	-0.0022030382
241	0xbaa15862	-0.0012309665
242	0xbbf8c191	-0.0075914343
243	0x3b15f7fd	0.0022883408
244	0xbdbeeb9d	-0.093222834
245	0xb8a9d112	-8.09749e-05
246	0xbbdb0692	-0.006684133
247	0x3b4dbbfd	0.0031392567
248	0xbbc88cae	-0.006120286
249	0x3a9801f5	0.0011597263
250	0x3b3b09ef	0.0028539856
251	0xbbaab1ec	-0.005209198
252	0xbaa44f92	-0.0012535921
253	0xb974af67	-0.00023334996
254	0x3b80cbba	0.003930536
255	0xbb41d475	-0.0029576097

conv2.lin_l.bias f4 [64]
0	0x3e8ec3a1	0.27883628
1	0x3db530b7	0.08847182
2	0xbe69f4e7	-0.22847329
3	0xb97f5f15	-0.00024354116
4	0xbd15e641	-0.03659654
5	0x3e4a8c25	0.19780023
6	0xbe87bb5f	-0.2651014
7	0xbc1a6f81	-0.009425999
8	0xbccfd58f	-0.025370387
9	0xbd3e0fea	-0.046401896
10	0xbe0fefbb	-0.14056294
11	0xbd07e449	-0.033176694
12	0xbe868fdc	-0.2628163
13	0xbe5b236f	-0.21400236
14	0xbd654ef0	-0.055983484
15	0xbe6c2673	-0.23061542
16	0xbb959a62	-0.004565523
17	0x3e47203e	0.19445893
18	0xbccfc3a8	-0.02536185
19	0xbd3287fd	-0.04358672
20	0xbb8ac70b	-0.0042351536
21	0x3b8c455b	0.0042807288
22	0xbd601bd9	-0.054714058
23	0x3e135c2b	0.14390628
24	0xbe9ad3bd	-0.30239668
25	0xbdf0bf78	-0.1175527
26	0xbe63b854	-0.22238284
27	0x3cd07288	0.025445238
28	0xbd7d75b0	-0.061879814
29	0x3e398c11	0.18119837
30	0xbeca064d	-0.39457932
31	0x3ecdc5e0	0.4019003
32	0xbcaa73f0	-0.020807236
33	0xbe89d0bd	-0.26917067
34	0xba8e6899	-0.0010864913
35	0xbe07e37f	-0.13270377
36	0xbd5a19cd	-0.05324726
37	0x3db4284e	0.0879675
38	0xbe65be88	-0.22435963
39	0xbd4dc072	-0.05023236
40	0xbcd5d7b6	-0.026103836
41	0xbce86320	-0.028367579
42	0x3d9121de	0.07086538
43	0xbdb2dc2b	-0.087334
44	0xbe192567	-0.14955674
45	0x3c46d940	0.012136757
46	0x3e2367e7	0.15957604
47	0xbc5b8f39	-0.013400846
48	0xbe0c5c75	-0.13707145
49	0xbe66d757	-0.22543083
50	0x3e241d9f	0.16026925
51	0x3e3540fc	0.17700571
52	0x3ea5dcbe	0.32394975
53	0x3eab25a8	0.33427167
54	0x3cee611c	0.02909904
55	0xbdb1bc9d	-0.08678553
56	0xbd8a3348	-0.06748062
57	0x3c3528c9	0.011057087
58	0x3d2b34ab	0.041798275
59	0xbd49263a	-0.04910872
60	0x3e4ae445	0.1981364
61	0xbe5e59eb	-0.21713988
62	0xbe9a8d74	-0.30186045
63	0x3d0837e2	0.03325642

conv2.lin_r.weight f4 [64, 64]
0	0xbbcb1444	-0.006197484
1	0x3c14104b	0.009037088
2	0x3bc5d61d	0.006037487
3	0x3cc38c14	0.023870505
4	0xbbe35a4b	-0.006938254
5	0x3be195a6	0.0068842946
6	0x3c078af1	0.008272872
7	0xbbbe1065	-0.005800294
8	0xbbe29308	-0.0069145
9	0xba55b3b3	-0.00081520824
10	0xbc005d8a	-0.007834801
11	0x3c1629c1	0.009165228
12	0x3b5a2482	0.003328592
13	0xbbc2caa3	-0.0059445663
14	0x3bcd7b73	0.00627082
15	0xbbefa58b	-0.0073134354
16	0x3aa941ca	0.0012913283
17	0xbb61d76c	-0.0034460677
18	0x3becc3d7	0.0072254944
19	0x3b18c94d	0.0023313344
20	0xb98f2b4b	-0.0002730734
21	0x3b3d0ced	0.0028846816
22	0xbb3001c8	-0.002685653
23	0xbb0ba33c	-0.0021307012
24	0x3acec109	0.0015774082
25	0x3df2898f	0.118426435
26	0xbbf7008e	-0.007537908
27	0xbb171ee4	-0.0023059184
28	0xba09bc04	-0.0005254152
29	0x3bcf0089	0.0063172025
30	0x3ba57ceb	0.005050292
31	0x3bf0b1be	0.0073454073
32	0xbb018a5d	-0.0019766309
33	0xbc162469	-0.009163954
34	0xbaf57d6b	-0.0018729394
35	0x39c9a946	0.00038463826
36	0x3c290a95	0.010317464
37	0xbbc2ad30	-0.0059410557
38	0x3aadb6ef	0.0013253371
39	0xbbab5323	-0.0052284165
40	0x3d0a316b	0.033738535
41	0x3ba1e220	0.0049402863
42	0x3bbaa901	0.0056964164
43	0xba676f30	-0.0008828519
44	0x3ca22254	0.01979176
45	0x3bc8e9f2	0.006131404
46	0xbb82b1bf	-0.003988474
47	0x3bcdb3df	0.006277546
48	0xba7d6bcd	-0.00096672477
49	0xb995b6a2	-0.00028555567
50	0x37ee0807	2.8375549e-05
51	0xbb9de794	-0.004818866
52	0xbbaae737	-0.0052155512
53	0xbaa26f52	-0.0012392795
54	0x3b74499e	0.0037275325
55	0xbaa04d16	-0.0012230005
56	0x3bbe9f82	0.0058173547
57	0x3bdfd3a9	0.006830652
58	0xba338c9e	-0.00068492617
59	0xbba5bba9	-0.005057771
60	0xbb7b779d	-0.0038370856
61	0xbaa0e10b	-0.0012274099
62	0xbb916ae7	-0.0044377926
63	0x3c4247e1	0.011857958
64	0xb9fa470a	-0.00047736644
65	0x3ba54f9c	0.0050448906
66	0x3c08380d	0.008314145
67	0xbd31c431	-0.043399993
68	0xbb9ac735	-0.0047234544
69	0x3c15e346	0.0091484245
70	0xbc49aad8	-0.012308799
71	0x3b9e727c	0.004835425
72	0xbabd64fc	-0.0014449651
73	0xb7b2cdd6	-2.1315103e-05
74	0xbb4d0c1c	-0.0031287735
75	0x3c2713d6	0.0101976
76	0xbbca19e9	-0.0061676395
77	0x3bd8dc34	0.006618047
78	0xbbaad920	-0.0052138716
79	0x3b059d6d	0.0020388023
80	0x3b9e9f1d	0.004840745
81	0x398fa73b	0.00027399682
82	0x3b57b917	0.0032916719
83	0x3c0d97c8	0.0086421445
84	0xb8fbb032	-0.000120014316
85	0x3b57c77a	0.0032925294
86	0x3b839256	0.0040152473
87	0x3ac50afb	0.001503318
88	0xbb9875f7	-0.0046527344
89	0x3d2192ef	0.039446767
90	0x3c116fd0	0.008876756
91	0xbb40f8d3	-0.0029445186
92	0x3c19e958	0.009394012
93	0xbafb2789	-0.0019161563
94	0xbc1f630d	-0.009728205
95	0x3bcbf924	0.0062247682
96	0xbb28877e	-0.0025715525
97	0xbc237bb7	-0.009978226
98	0x3c2202c8	0.009888358
99	0xba621210	-0.00086239073
100	0xba8523fa	-0.0010157817
101	0xbb1d903a	-0.0024042265
102	0xba85abf7	-0.0010198344
103	0x3b867c71	0.00410419
104	0x3d30e138	0.043183535
105	0x3bc08504	0.0058752317
106	0x3bb10c9c	0.0054031145
107	0x3b78b5fe	0.0037950273
108	0x3b193fec	0.0023384048
109	0xbbddda0b	-0.0067703775
110	0x3bd63b7e	0.0065378537
111	0x3b0c1004	0.002137185
112	0xbba75858	-0.005106967
113	0x3b7a542f	0.003819715
114	0x3b2f1236	0.0026713735
115	0xbb34a916	-0.0027566603
116	0xbbd25cc6	-0.006419751
117	0xbc087d3d	-0.00833064
118	0xbb47cd86	-0.0030487492
119	0xba1a1cae	-0.00058789074
120	0x3a3163b2	0.000676687
121	0x3b79bddc	0.003810755
122	0x3b3fbe95	0.0029257883
123	0xba9ec831	-0.0012114105
124	0x3b4a4611	0.0030864517
125	0x3b9a182b	0.004702588
126	0xbb45b388	-0.0030166823
127	0x3dbcddf8	0.09222025
128	0xbb3a2b79	-0.002840726
129	0xbb8f54e7	-0.004374135
130	0xbb82b7e4	-0.0039892066
131	0xbde8f255	-0.11374346
132	0xbb2a4fe5	-0.0025987562
133	0x3bc7827c	0.006088553
134	0xb8fcce21	-0.00012054691
135	0x3c022619	0.0079436535
136	0x3a97fdb6	0.0011595997
137	0x3b69f7f8	0.003570078
138	0xbb1297f5	-0.0022368405
139	0xbb771a88	-0.0037705023
140	0x3b5d8a95	0.0033804525
141	0xbbe68c7b	-0.0070357895
142	0x3a77ed4a	0.0009457661
143	0x390b71ac	0.00013298419
144	0x3be025fa	0.0068404647
145	0xbbdbe0a9	-0.006710131
146	0xbb866d89	-0.004102413
147	0x3b23374a	0.002490478
148	0xbbed53b6	-0.007242645
149	0x39f0ca9b	0.0004592732
150	0xbbf05b08	-0.0073350705
151	0xbb2b1fef	-0.0026111563
152	0xbad48b4f	-0.0016215834
153	0x3cef6c6a	0.0292265
154	0xbc8b20e7	-0.016983462
155	0x3c060f82	0.008182408
156	0x3baf784a	0.0053549157
157	0xbb343a75	-0.0027500663
158	0xbb85a14e	-0.004078067
159	0xbab0c4bd	-0.0013486367
160	0x3b8009ae	0.003907404
161	0xbb9a4233	-0.0047075986
162	0xbba26b8a	-0.0049566673
163	0xbb62b42d	-0.0034592256
164	0xbce011c5	-0.027352223
165	0x3baa4517	0.0051962244
166	0xba9206f0	-0.0011140984
167	0x3b84dabb	0.004054395
168	0xbd5678b2	-0.052361198
169	0xbb3d835a	-0.0028917403
170	0xbb539568	-0.0032285098
171	0xba681fb2	-0.00088548206
172	0xbb427a1f	-0.002967484
173	0x3a7d9fcc	0.00096749957
174	0xbb414276	-0.0029489077
175	0x3bd30b07	0.0064405235
176	0x3aa4c739	0.001257158
177	0xbbdbc0bf	-0.0067063267
178	0x3a4e1222	0.00078609784
179	0xbb406a84	-0.0029360363
180	0x39a4eb8b	0.0003145601
181	0x3b7d11f4	0.0038615437
182	0x3bccb434	0.006247068
183	0x3b782428	0.0037863348
184	0xb8f1896b	-0.000115173716
185	0x3bce3e7e	0.0062940707
186	0xbc03b1a0	-0.008037955
187	0x3bc2cb9e	0.005944683
188	0x3b7bf62c	0.003844629
189	0xba221404	-0.0006182792
190	0xbb3849bf	-0.0028120128
191	0xbdf156ed	-0.11784158
192	0x3aa56092	0.0012617281
193	0xbb866d62	-0.004102395
194	0xbba0764e	-0.0048969155
195	0x3c197aff	0.009367703
196	0x3bf2c5a9	0.007408817
197	0x3ba835a8	0.0051333494
198	0x3acc17d7	0.001557107
199	0xbaf4912f	-0.0018658991
200	0xbb2d4188	-0.0026436765
201	0xbc2851a0	-0.010273367
202	0x3b77a5bf	0.0037788001
203	0x3aaf414c	0.00133709
204	0xbbb0e818	-0.0053987615
205	0xbb62fb50	-0.0034634657
206	0x3b98e046	0.0046654074
207	0x3be5167d	0.006991206
208	0x3b8112ea	0.0039390223
209	0xbad0e614	-0.0015937709
210	0xbc535276	-0.012898078
211	0xbcc8ffd4	-0.02453605
212	0xbbacf4cd	-0.005278206
213	0x3b8dd7ac	0.0043286886
214	0x3a42e5a6	0.0007434733
215	0xbaf2a191	-0.0018511285
216	0x3b00e1a4	0.0019665742
217	0x3c22f039	0.009944969
218	0x3d0b7c76	0.034054242
219	0xbb2820b3	-0.0025654256
220	0xbb6bd4fb	-0.00359851
221	0x3b305f97	0.0026912445
222	0xb9fd9073	-0.00048363543
223	0xbbd3fb46	-0.006469163
224	0x3bcc1006	0.006227496
225	0x3bc82832	0.0061083073
226	0xba26bd58	-0.0006360612
227	0x38424637	4.6318597e-05
228	0x3d39b250	0.045336068
229	0x3b0c390f	0.0021396314
230	0xbba13e9b	-0.004920793
231	0x3bb53982	0.005530537
232	0x3b009601	0.001962066
233	0xbc3043fd	-0.010758397
234	0xbb233050	-0.0024900623
235	0x3bc66a10	0.006055124
236	0x3d76405c	0.06011997
237	0xbb43c9eb	-0.002987499
238	0x3b8cb405	0.004293921
239	0x38f49308	0.000116622134
240	0x3a99b016	0.0011725451
241	0x3c8dc23d	0.017304534
242	0xbb9fc922	-0.004876272
243	0xbba9eb30	-0.0051855072
244	0x3c8a132a	0.016854841
245	0xbb353932	-0.00276525
246	0x3b965a85	0.0045884275
247	0xba2e3b77	-0.0006646434
248	0xbba718dd	-0.0050993995
249	0xbb826130	-0.003978871
250	0xbbb27e4f	-0.005447186
251	0x3b3217ca	0.0027174824
252	0x3ab7508b	0.0013985796
253	0xb8f3610c	-0.00011605219
254	0xbb81c35a	-0.0039600553
255	0x3d910094	0.070801884

fc1.weight f4 [128, 74]
0	0x3ed3a7b0	0.41338873
1	0x3e9a635b	0.30153927
2	0xbe632b1e	-0.22184417
3	0x3cb9cc7e	0.022680517
4	0xbdbbb4b0	-0.09165323
5	0x3dfd4156	0.123659775
6	0xbe6cb5c8	-0.23116219
7	0x3e1c7c81	0.1528187
8	0xbd5efb9f	-0.054439183
9	0xbd800e0c	-0.06252679
10	0xbe55a213	-0.20862608
11	0xbd0b97e4	-0.0340804
12	0xbe31e28d	-0.17371579
13	0xbe53f71b	-0.20699732
14	0xbd66e220	-0.056367993
15	0xbdc4cb24	-0.096090585
16	0x3c2fd774	0.01073252
17	0x3e9cd932	0.30634457
18	0xbc8f65ac	-0.017504536
19	0xbd0c9571	-0.034322206
20	0xbca43618	-0.020045325
21	0x3e5ec0a1	0.2175317
22	0xbddb8254	-0.107182175
23	0x3e51a2f2	0.20472315
24	0xbeec069f	-0.46098801
25	0xbd887b8c	-0.0666419
26	0xbda9e87e	-0.082962975
27	0x3d362d7b	0.044476967
28	0xbd44ab8b	-0.04801516
29	0x3e8f7acb	0.2802337
30	0xbea13413	-0.31485042
31	0x3e55a4ff	0.20863722
32	0xbc8fa0c2	-0.01753271
33	0xbe53838b	-0.20655648
34	0xbcada374	-0.021196105
35	0xbe1bf272	-0.15229204
36	0xbd5a7cb0	-0.053341568
37	0x3d89deed	0.06731973
38	0xbe0fb914	-0.14035445
39	0xbe6d602f	-0.23181222
40	0xbcfd5cb7	-0.030927999
41	0xbd33ebea	-0.043926157
42	0x3dd2afd9	0.102874465
43	0xbdb892e1	-0.0901239
44	0xbec6d57d	-0.38834754
45	0xbd4c1585	-0.04982521
46	0x3e04962e	0.12947914
47	0x3d315c52	0.043300934
48	0xbe46e2b8	-0.19422424
49	0xbdf31046	-0.11868338
50	0x3eb5923f	0.3546314
51	0x3e8f2c5f	0.2796354
52	0x3ec38330	0.38186026
53	0x3e83c2d0	0.25734568
54	0x3d7e259e	0.062047593
55	0xbd805431	-0.06266058
56	0xbd7fe061	-0.062469844
57	0x3da4ad1d	0.08040831
58	0x3dbf1fb6	0.0933222
59	0xbdeb96e7	-0.11503392
60	0x3eba16c0	0.36345482
61	0xbe95794c	-0.29194105
62	0xbe8398d5	-0.2570254
63	0x3d1a96fe	0.037741654
64	0x3f2d009a	0.6757904
65	0xbbb58b8b	-0.0055403165
66	0x3c5b1620	0.013371974
67	0x3f2dbe36	0.67868364
68	0xbd2d5e33	-0.042326164
69	0x3cf21e8d	0.029555583
70	0x3c26c6a2	0.010179194
71	0x3a4d814b	0.00078393955
72	0x3b9ad49e	0.004725053
73	0x3c11117b	0.008854265
74	0x3e4750b7	0.19464384
75	0x3dffc07f	0.124878876
76	0xbe7a59e1	-0.24448349
77	0xbd4702c5	-0.048586626
78	0xbdaa0f87	-0.08303743
79	0x3e8d570a	0.27605468
80	0xbe80f3fd	-0.25186148
81	0xbc044f39	-0.008075529
82	0xbd1d1f06	-0.038359664
83	0xbe0dc985	-0.13846405
84	0xbe564d2b	-0.20927875
85	0xbe113a65	-0.14182432
86	0xbe5428ba	-0.20718661
87	0xbe80af24	-0.25133622
88	0xbe5c80a3	-0.21533446
89	0xbe9a4a12	-0.30134636
90	0xbd89093e	-0.06691216
91	0x3e5f8b7c	0.21830553
92	0xbe012489	-0.12611593
93	0xbe372504	-0.17885214
94	0xbd63e02c	-0.05563371
95	0xbac40ce7	-0.0014957458
96	0xbe46b1a5	-0.19403704
97	0x3e485c2c	0.19566411
98	0xbe74289b	-0.23843615
99	0xbe895777	-0.26824543
100	0xbea7faae	-0.3280844
101	0x3c6e99b5	0.014563014
102	0xbe2c93ec	-0.16853303
103	0x3e38aa53	0.18033724
104	0xbe46dcbd	-0.19420142
105	0x3eb0093a	0.3438204
106	0xbdf274bc	-0.118386716
107	0xbe547665	-0.20748289
108	0xbd8b5e00	-0.068050385
109	0xbe8824e5	-0.26590648
110	0xbe2fafbd	-0.17156883
111	0x3e317437	0.17329489
112	0xbe81c3fe	-0.25344843
113	0xbded22a5	-0.115788735
114	0xbdd8bca0	-0.10582852
115	0xbd79a588	-0.06094888
116	0x3e088a97	0.13334118
117	0xbe2b6eb6	-0.16741452
118	0xbe2f660e	-0.17128775
119	0x3d4e0ad3	0.05030329
120	0x3e7b28ea	0.24527326
121	0xbce6fa74	-0.028195597
122	0xbe5f6ca3	-0.21818785
123	0xbe866efa	-0.26256543
124	0x3e2ddd71	0.16979004
125	0x3e096bc8	0.13420022
126	0x3e821f70	0.2541461
127	0x3e39f9ec	0.18161744
128	0x3deafb42	0.11473705
129	0xbe6a918d	-0.22907086
130	0xbe2a3c44	-0.16624552
131	0x3c2ab379	0.010418766
132	0xbc9fd98b	-0.019512912
133	0xbe010bac	-0.12602109
134	0x3e427696	0.1899055
135	0xbe27fa6b	-0.1640412
136	0xbe6f4ac3	-0.23368363
137	0x3e0db54b	0.13838689
138	0xbed13d5b	-0.40867123
139	0xbacfe9ab	-0.0015862485
140	0x3fc9237e	1.5713956
141	0xc147c13c	-12.484676
142	0x3f43ef5f	0.76537126
143	0x405a9697	3.4154413
144	0xbecc9707	-0.39958975
145	0xc0c83630	-6.2566147
146	0xbe8e4ca7	-0.27792856
147	0xbe85e74f	-0.26153037
148	0x3eae8958	0.3408916
149	0x3e1f8050	0.15576291
150	0xbe714fe6	-0.23565635
151	0x3d414791	0.04718739
152	0xbd4a27ce	-0.049354367
153	0x3e9e415b	0.30909237
154	0xbec18fcf	-0.3780503
155	0xbc8043a3	-0.015657252
156	0xbde9064b	-0.113781534
157	0xbe06d860	-0.13168478
158	0xbebeaff5	-0.3724362
159	0xbe056034	-0.1302498
160	0xbea7d496	-0.32779378
161	0xbe9232cf	-0.2855439
162	0xbdb22cd2	-0.08699955
163	0xbe917a97	-0.2841384
164	0xbd484cad	-0.04890125
165	0x3e8f1f89	0.27953747
166	0xbe20615b	-0.15662138
167	0xbe352773	-0.1769083
168	0xbce331b6	-0.027733665
169	0x3d06a2e9	0.032870207
170	0xbe2cbe4b	-0.16869466
171	0x3e71794d	0.23581429
172	0xbeb8702c	-0.3602308
173	0xbe9562f2	-0.29177052
174	0xbebeaf37	-0.37243053
175	0x3e4fba26	0.20285854
176	0xbe604409	-0.21900953
177	0x3e91b5b2	0.28458935
178	0xbef7a6d4	-0.48369467
179	0x3ed1ab23	0.4095088
180	0xbd9f1949	-0.07768495
181	0xbeeff516	-0.46866673
182	0xbd22b6a3	-0.039724957
183	0xbec9dcb3	-0.39426193
184	0xbe2f7582	-0.1713467
185	0x3e8332e7	0.25624773
186	0xbe82ce7a	-0.25548154
187	0xbe0be2d1	-0.13660742
188	0xbe0ffe7d	-0.14061923
189	0xbe02a91f	-0.12759827
190	0x3e443565	0.19160993
191	0xbe9b9f1d	-0.3039483
192	0xbe588c28	-0.21147215
193	0x3d3b4314	0.045718268
194	0x3e84dbb2	0.25948864
195	0xbe05b2c0	-0.13056469
196	0xbe6785fc	-0.22609705
197	0xbe787c7e	-0.2426624
198	0x3e5a1d82	0.21300319
199	0x3e936073	0.28784522
200	0x3eb7b4f8	0.35880256
201	0x3ecd5dbb	0.40110573
202	0x3d1aa287	0.037752654
203	0xbe2e590a	-0.17026153
204	0xbea581bd	-0.32325545
205	0x3d36b0b2	0.044602104
206	0x3db5e7c7	0.08882099
207	0xbe3d719e	-0.18500373
208	0x3e7c1f8d	0.2462141
209	0xbea5b8d4	-0.32367575
210	0xbee6808a	-0.45019943
211	0x3de9519f	0.11392521
212	0xbef98280	-0.48732376
213	0xbb61fe92	-0.003448401
214	0x3f3b8dee	0.7326344
215	0xc0c739a7	-6.2257876
216	0x3efd9006	0.49523944
217	0x40180dea	2.3758492
218	0xbea13f83	-0.31493768
219	0xc00c406f	-2.1914327
220	0xbe8496b0	-0.25896215
221	0xbe85541d	-0.26040736
222	0x3ece7d8b	0.40330157
223	0x3ec20105	0.37891403
224	0xbec30fc2	-0.3809796
225	0xbe9b77f2	-0.3036495
226	0xbed6a335	-0.41921392
227	0x3ebcff07	0.3691332
228	0xbec95547	-0.39322874
229	0x3ebfe850	0.37481928
230	0xbecb14c1	-0.3966427
231	0xbe9f103f	-0.31067082
232	0xbed74af0	-0.4204936
233	0xbe9cecfd	-0.30649558
234	0xbebd839e	-0.37014478
235	0xbee16dc5	-0.4402906
236	0xbebc09d2	-0.36726242
237	0xbebb02ad	-0.3652548
238	0xbeaa55a9	-0.3326848
239	0x3eb0c527	0.34525415
240	0xbeabf3c8	-0.33584428
241	0xbea34f64	-0.31896508
242	0xbe80fe8c	-0.25194204
243	0x3ec08723	0.376031
244	0xbebf65eb	-0.37382445
245	0x3ee35b1d	0.4440545
246	0xbec5ea71	-0.38655427
247	0xbed57b6a	-0.4169572
248	0xbeda0d68	-0.42588353
249	0x3c62772a	0.013822356
250	0xbea109aa	-0.31452686
251	0x3eafdde7	0.34348986
252	0xbec5955a	-0.3859051
253	0x3eac645f	0.33670327
254	0xbea19233	-0.31556854
255	0xbeb6c3af	-0.3569617

fc1.bias f4 [128]
0	0x3c2611da	0.010136092
1	0xbecc253b	-0.39872155
2	0xbe9ea8ce	-0.30988163
3	0xbda63850	-0.081162095
4	0x38ddaa33	0.00010569803
5	0xbe17ce3b	-0.14824764
6	0xbe0571b8	-0.13031662
7	0xbe6aba43	-0.22922616
8	0xbe465a02	-0.19370273
9	0xbec4c79f	-0.3843355
10	0xbd435c1a	-0.047695257
11	0xba4f06c3	-0.0007897431
12	0x3d25135a	0.04030166
13	0xbd4fd804	-0.050743118
14	0xbc9f8a17	-0.019475026
15	0x3a0feb43	0.0005490074
16	0xbdff4e38	-0.12466091
17	0xbe3b6d73	-0.1830347
18	0xbce183c6	-0.027528655
19	0xbd1a6e73	-0.03770299
20	0xbe2bef0b	-0.16790406
21	0xbd19b00a	-0.0375214
22	0xbcfc82b5	-0.030824045
23	0x3c9e5123	0.019325798
24	0x3d6be9ad	0.057595897
25	0xbdbe5e0a	-0.0929528
26	0xbd986f6f	-0.07443129
27	0xbcceda9f	-0.025250731
28	0xbe4495d9	-0.19197787
29	0x3bacf239	0.0052778986
30	0xbdb9dd7d	-0.09075449
31	0xbe2ef036	-0.1708382
32	0xbd26d614	-0.040731505
33	0xbcf3cc7d	-0.029760594
34	0xbe759bb7	-0.23985182
35	0xbd8febbb	-0.07027384
36	0xbdee6de5	-0.116420545
37	0xbdf6acba	-0.12044664
38	0xbe0a9d46	-0.13536558
39	0xbb5edef1	-0.0034007395
40	0xbd197126	-0.037461422
41	0xbde6c7ab	-0.112685524
42	0xbc14c1a7	-0.009079373
43	0xbcd8a381	-0.026445152
44	0xbe5630b7	-0.2091702
45	0xbca2fc82	-0.019895796
46	0x3d74c465	0.05975761
47	0xbe404888	-0.18777668
48	0xbe79de45	-0.24401195
49	0xbd1b8b78	-0.037974805
50	0x3c9f1b5f	0.019422231
51	0xbcc853b1	-0.02445397
52	0x3c4f2722	0.012643607
53	0xbe517703	-0.20455556
54	0xbd0a4378	-0.03375575
55	0xbeb3b638	-0.3509996
56	0xbc5bae83	-0.013408306
57	0xbe006657	-0.1253904
58	0xbc91cee2	-0.017798845
59	0x3db902c5	0.09033731
60	0xbdb986ad	-0.090588905
61	0x3c494b49	0.012286016
62	0xbd8572cb	-0.06516036
63	0xbdc76bf2	-0.09737386
64	0x3d35e25a	0.04440532
65	0xbe4dc410	-0.20094323
66	0xbe221b07	-0.15830623
67	0x3c826670	0.015917987
68	0xbdc965b7	-0.09833854
69	0xbd856315	-0.06513039
70	0xbe834a1d	-0.2564248
71	0xbd28d831	-0.0412218
72	0xbde2e8e9	-0.1107958
73	0xbdd58b55	-0.10426966
74	0xbc8f45d5	-0.017489353
75	0xbe3c0731	-0.18362118
76	0xbe16314e	-0.14667246
77	0x3d8db6a0	0.069195986
78	0xbd91259b	-0.07087251
79	0xbdb8c402	-0.090217605
80	0xbe55d5f8	-0.20882404
81	0xbd4e09dc	-0.05030237
82	0xbe0e88c9	-0.13919367
83	0xbdb1d789	-0.08683688
84	0xbdeb9ea0	-0.11504865
85	0xbd484dc6	-0.048902296
86	0x3de45442	0.111488834
87	0xbde4bf5d	-0.11169312
88	0xbe061206	-0.13092813
89	0x3e10909f	0.14117669
90	0xbd29eb61	-0.04148424
91	0xbde330b8	-0.11093277
92	0xbe0a250e	-0.13490698
93	0x3d887a18	0.066639125
94	0xbc19f640	-0.0093970895
95	0x3d3b299f	0.04569399
96	0xbd0a0ced	-0.033703733
97	0xbd0f942a	-0.03505341
98	0xbe4424fd	-0.19154735
99	0x3c1414f5	0.0090382
100	0xbe4a3372	-0.19746187
101	0xbe9dc92e	-0.3081755
102	0x3d4a2449	0.04935101
103	0xbd8044aa	-0.06263097
104	0xbe02ba73	-0.12766437
105	0xbe22b6ea	-0.15890089
106	0xbd9aaf45	-0.07552961
107	0x3c00b683	0.007856014
108	0xbc237236	-0.0099759605
109	0xbe880c42	-0.26571852
110	0xbe1f5a46	-0.1556178
111	0xbddc90bc	-0.107697934
112	0xbd31d5c0	-0.04341674
113	0xbd61a449	-0.055088315
114	0xbddec67b	-0.10877701
115	0xbde3d1b7	-0.11123984
116	0xbe2a1cd8	-0.16612566
117	0xbe273f20	-0.16332674
118	0xbd512f1a	-0.05107031
119	0xbe9a761b	-0.30168232
120	0xbe1c328b	-0.15253656
121	0xbd82074a	-0.063490465
122	0xbe9c4802	-0.30523688
123	0xbd2dbdae	-0.04241722
124	0x3e100fd6	0.14068541
125	0xbdb5ce8f	-0.088772886
126	0xbe0422b3	-0.12903862
127	0x3bd19473	0.0063958704

fc2.weight f4 [64, 128]
0	0x3e99998f	0.29999968
1	0x3ebd3a66	0.36958617
2	0x3ee792ab	0.45229086
3	0xbe4cfed8	-0.2001909
4	0x3eb0cf1a	0.34533006
5	0xbd83b6dc	-0.06431362
6	0x3eabf280	0.3358345
7	0xbd6e5360	-0.05818498
8	0xbee5d93b	-0.44892296
9	0x3ebeb203	0.37245187
10	0x3e45ee83	0.19329266
11	0x3f040380	0.5156784
12	0x3e1978d2	0.14987496
13	0x3e739717	0.23788105
14	0x3e94743e	0.28994936
15	0x3efd95a1	0.4952822
16	0x3eaa25d5	0.3323199
17	0xbd648f1d	-0.055800546
18	0x3e153234	0.14569932
19	0x3edb1683	0.42790613
20	0xbd9dcbc9	-0.077048846
21	0x3eb08ca7	0.3448231
22	0x3e144428	0.14479125
23	0x3ebe7722	0.37200266
24	0x3e773a43	0.24143319
25	0x3db38cfa	0.087671235
26	0x3e1b8ae2	0.15189698
27	0x3e8845ca	0.26615745
28	0xbe17fc01	-0.14842226
29	0x3df67492	0.12033953
30	0x3df6438c	0.12024602
31	0xbd13c8bb	-0.036080103
32	0x3ee44f50	0.4459176
33	0x3e268416	0.16261324
34	0xbeb5e263	-0.35524282
35	0x3ec01898	0.37518764
36	0xbe2e4c06	-0.17021188
37	0x3cb3bac7	0.021939648
38	0x3e82ea86	0.25569552
39	0x3ee68ba3	0.4502841
40	0x3d8b7280	0.068089485
41	0x3edf37bc	0.4359721
42	0x3e645fd5	0.22302182
43	0x3ea7681c	0.32696617
44	0xbda36ed6	-0.07980125
45	0x3e5c180c	0.21493548
46	0x3e83866e	0.256885
47	0x3eeb95ec	0.4601282
48	0x3f0e3d76	0.5556253
49	0x3e545009	0.20733656
50	0x3e931d7d	0.28733435
51	0x3eb1e72a	0.34746677
52	0x3ebdf104	0.37097943
53	0x3c9f9b2e	0.019483175
54	0x3e9f4ab8	0.31111693
55	0x3eecc224	0.46241868
56	0x3e9401b4	0.2890755
57	0x3ef2a1ba	0.47389013
58	0x3eae9ff7	0.34106418
59	0x3ef0663a	0.46952993
60	0x3ec6cd25	0.38828388
61	0x3e40eb9b	0.18839876
62	0x3ea4072f	0.3203673
63	0x3eb5b320	0.35488224
64	0x3e66c4e7	0.2253605
65	0xbe013fbb	-0.12621967
66	0x3e30bc71	0.17259385
67	0x3e69e739	0.2284211
68	0xbc43ae04	-0.011943344
69	0x3ea6f9bc	0.32612407
70	0xbe802196	-0.25025624
71	0x3e449a6f	0.19199537
72	0x3e17905a	0.1480116
73	0xbe742249	-0.23841204
74	0x3df31284	0.11868766
75	0x3ecc7df5	0.39939848
76	0x3eaa23ca	0.3323043
77	0xbe712ddd	-0.23552652
78	0x3ecf249c	0.40457618
79	0x3ed9d33a	0.42543966
80	0xbe8004aa	-0.25003558
81	0x3ec7cc08	0.3902285
82	0x3eeb9fbf	0.46020314
83	0xbe37ac99	-0.17936935
84	0xbd9f78d2	-0.077867165
85	0x3dbc3885	0.09190468
86	0x3e167f2d	0.14696951
87	0x3eab855c	0.33500183
88	0x3e58c9b2	0.2117069
89	0x3d8ff1f5	0.070285715
90	0x3d7eea55	0.062235195
91	0x3e866ad0	0.26253366
92	0x3ec5c559	0.38627127
93	0x3ee21387	0.44155523
94	0x3e9c6ef2	0.30553395
95	0x3dabc52a	0.083872154
96	0x3e7389c1	0.23783018
97	0x3e71b6a1	0.23604824
98	0x3e1edc10	0.15513635
99	0x3e7fa5bb	0.24965565
100	0x3e8cbd64	0.27488244
101	0xbeaa9919	-0.3331993
102	0x3ed5b2f4	0.41738093
103	0x3ec5dfa7	0.38647196
104	0x3ec67336	0.38759774
105	0x3ec87f72	0.39159733
106	0x3f0ce366	0.5503448
107	0x3e962d82	0.29331595
108	0x3ee4f037	0.4471452
109	0x3ec6480f	0.3872685
110	0xbdd94b43	-0.10610058
111	0x3e295b4f	0.16538738
112	0xbe3884f7	-0.18019472
113	0x3dc87b76	0.09789173
114	0x3ec32733	0.38115844
115	0x3ebf482e	0.37359756
116	0xbe27cac8	-0.16385949
117	0x3cbf1a4f	0.023327975
118	0x3e9365d7	0.28788635
119	0xbd3a7233	-0.045519065
120	0xbc52cfc2	-0.012866916
121	0x3e9ad29f	0.30238816
122	0xbe886326	-0.26638144
123	0x3ed6696b	0.41877303
124	0x3e8d87fb	0.27642807
125	0x3e5b7fb5	0.21435435
126	0xbdd8cae8	-0.10585576
127	0x3e5207c5	0.20510776
128	0x3e9dac9e	0.3079576
129	0x3ee561d3	0.44801196
130	0x3ee237f0	0.44183302
131	0x3d7b3c0d	0.061336566
132	0x3ebf1334	0.37319338
133	0xbc49ae1b	-0.012309576
134	0x3f1d191a	0.61366427
135	0x3d076e25	0.033064026
136	0xbedc4abd	-0.4302577
137	0x3eca4ca1	0.39511588
138	0x3e47e30e	0.19520208
139	0x3f07f389	0.5310598
140	0x3e9b6c2a	0.3035596
141	0x3e4a5bf4	0.1976164
142	0x3e201dd5	0.1563638
143	0x3e9285c2	0.28617674
144	0x3e97cf2a	0.2965024
145	0x3d25ef1c	0.040511236
146	0x3e6a3642	0.2287226
147	0x3e60d3c7	0.21955787
148	0xbc4021e4	-0.01172683
149	0x3ea53ab5	0.32271352
150	0x3ea07817	0.3134162
151	0x3ea835e0	0.32853603
152	0x3ef6d247	0.48207304
153	0xbccd956b	-0.025095662
154	0x3eacc2c4	0.33742344
155	0x3e9fd143	0.31214342
156	0xbe424ac8	-0.1897384
157	0x3e678816	0.22610506
158	0x3db2fc9d	0.087395884
159	0xbe362bcf	-0.17790149
160	0x3e8c3790	0.2738614
161	0x3e82cd1e	0.25547117
162	0xbec4cc37	-0.38437054
163	0x3e2aac8b	0.16667382
164	0xbe476cff	-0.19475172
165	0xbd748bc8	-0.05970362
166	0x3ebf0149	0.37305668
167	0x3edf5afd	0.43624106
168	0x3dbbdbef	0.091728084
169	0x3e6bf7ed	0.23043795
170	0x3f0429c3	0.51626223
171	0x3ec5025c	0.38478363
172	0xbda624a8	-0.081124604
173	0x3ea8861f	0.32914826
174	0x3df3e591	0.11909021
175	0x3f066716	0.52501047
176	0x3ee46321	0.4460688
177	0x3e905842	0.28192335
178	0x3e759349	0.23981966
179	0x3f07367a	0.528175
180	0x3e5b2bc7	0.21403418
181	0x3e4f7e27	0.20262967
182	0x3eab8248	0.33497834
183	0x3ebbe84d	0.3670067
184	0x3ea913df	0.33022973
185	0x3e9572c6	0.29189128
186	0x3ec4370b	0.38323244
187	0x3f1aa8ed	0.6041401
188	0x3f08e772	0.5347816
189	0x3e053d1a	0.1301159
190	0x3ea0b5e7	0.3138878
191	0x3ec94a67	0.39314577
192	0x3e65f4cc	0.22456664
193	0xbd54fd4a	-0.051999368
194	0xbe327214	-0.1742633
195	0x3e2142d7	0.15748154
196	0x3ddffb05	0.1093655
197	0x3f0cb227	0.5495934
198	0xbf15c0f1	-0.5849753
199	0x3f0899fd	0.5335997
200	0x3eae8951	0.3408914
201	0x3c217acc	0.009855937
202	0x3eb984dc	0.36234176
203	0x3ea7b7ec	0.3275751
204	0x3ec256ce	0.37956852
205	0xbe3155ea	-0.1731793
206	0x3f1dc1e8	0.61624
207	0x3ed5d6a4	0.4176532
208	0x3e1a99c6	0.15097722
209	0x3eeacd61	0.45859817
210	0x3ecac60e	0.3960423
211	0x3d9ab1a9	0.07553417
212	0xbd6f289f	-0.05838835
213	0x3eee6b9f	0.46566483
214	0x3ec5b827	0.3861706
215	0x3eebcae4	0.4605323
216	0x3ec8a3dd	0.39187518
217	0x3dcf6494	0.10126606
218	0xbe6e4a17	-0.2327045
219	0x3ef34712	0.4751516
220	0x3f1797ad	0.59215814
221	0x3ec7fff4	0.39062464
222	0x3e3b3df3	0.1828535
223	0x3e1bf7cc	0.15231246
224	0xbcf8d197	-0.030373378
225	0x3e9ee281	0.31032184
226	0xbd4fb109	-0.050705943
227	0x3e5a556e	0.21321651
228	0x3ecb60ff	0.3972244
229	0xbead8e4b	-0.33897623
230	0x3ee1cccf	0.4410157
231	0x3efb040b	0.49026522
232	0x3ed72a3f	0.4202442
233	0x3e402d3b	0.18767254
234	0x3e775a78	0.24155605
235	0x3e12a17e	0.14319417
236	0x3e9f662e	0.31132644
237	0x3f369a94	0.7132962
238	0xbcbca70d	-0.023028875
239	0x3e6790ec	0.22613877
240	0x3c7babce	0.015360786
241	0x3e299de1	0.16564132
242	0x3f0f4178	0.5595927
243	0x3ec068ec	0.3758005
244	0xbe23fce1	-0.16014434
245	0xbe16d288	-0.14728749
246	0x3eac524a	0.33656532
247	0x3d74fd85	0.059812088
248	0xbe0f0595	-0.13966973
249	0x3ed2b11b	0.41150746
250	0xbec2a26b	-0.3801454
251	0x3de732bb	0.11288973
252	0x3e92ae5e	0.28648657
253	0x3ebb8510	0.36624956
254	0x3cfc5ae9	0.030805068
255	0x3e28020d	0.16407032

fc2.bias f4 [64]
0	0xbf1dd387	-0.6165089
1	0xbf097c44	-0.5370524
2	0xbe96823b	-0.29396233
3	0xbeeda8be	-0.46417803
4	0xbe89aa1b	-0.26887593
5	0xbea8084e	-0.32818836
6	0xbe81b12c	-0.25330484
7	0xbf2c6f88	-0.67357683
8	0xbee6550c	-0.4498676
9	0xbeb4fb95	-0.35348192
10	0xbf15baa6	-0.5848793
11	0xbe360039	-0.17773522
12	0xbf1f972e	-0.62340057
13	0xbe202264	-0.15638119
14	0xbebf8b15	-0.374108
15	0xbe66dcb1	-0.22545125
16	0xbe2894dc	-0.16463035
17	0xbe8b94e9	-0.27262047
18	0xbf47edb1	-0.78097063
19	0xbec84dd1	-0.3912187
20	0xbeb66b4b	-0.35628733
21	0xbdff94f2	-0.12479581
22	0xbeb92aab	-0.36165366
23	0xbe55498e	-0.2082884
24	0xbe23a2a4	-0.15980011
25	0xbe58da64	-0.2117706
26	0xbdfc4c82	-0.1231928
27	0xbebb64d0	-0.3660035
28	0xbeb66555	-0.35624185
29	0xbebd933e	-0.370264
30	0xbee407e9	-0.44537285
31	0xbee19b2d	-0.44063702
32	0xbe66cb80	-0.22538567
33	0xbeb735ce	-0.35783237
34	0xbea74cb3	-0.32675704
35	0xbd480da0	-0.04884112
36	0xbe2170e6	-0.15765724
37	0xbe101b90	-0.14073014
38	0xbeb29c1b	-0.34884724
39	0x3c869f19	0.016433286
40	0xbd5e477a	-0.054267384
41	0xbe86238e	-0.26199
42	0xbed5600f	-0.4167485
43	0xbe63c68f	-0.22243713
44	0xbf18b018	-0.596437
45	0xbe9506e8	-0.29106832
46	0xbf0e61ab	-0.5561778
47	0xbef223da	-0.47292978
48	0xbeb65b82	-0.3561669
49	0xbebb6ba6	-0.36605567
50	0xbf018f7d	-0.5060957
51	0xbf21cfa3	-0.63207453
52	0xbe9e9fb1	-0.3098121
53	0xbf0ab93a	-0.54188883
54	0xbf0dcfb6	-0.55395067
55	0xbe3fdaca	-0.18735805
56	0xbe23ee48	-0.16008866
57	0xbe259de2	-0.16173509
58	0xbef82186	-0.48463076
59	0xbeb4e42f	-0.3533034
60	0xbeb95ba8	-0.3620274
61	0xbf2bf733	-0.6717407
62	0xbea8403b	-0.32861504
63	0xbea3772b	-0.31926855
