models/0_2023_2023/Postal_GAT/100.pth (torch, 96740 bytes, 13 tensors)

conv1.att_src f4 [1, 8, 8]
-0.0050805835 -0.0071943835 -0.0048013176 -0.0051133535 -0.005788879 -0.008288921 -0.004376135 0.004043103
0.11730853 0.35754573 0.5581788 0.20309757 -0.55448896 0.8309247 0.7472875 -0.08644076
0.001368336 0.0020757304 0.002224098 0.0018732488 -0.0013399461 -0.0023171804 -0.0059783235 -0.0023727978
-0.0027997878 -0.0013088686 -0.0025247198 -0.0007463062 -0.0019260151 -0.00029667804 0.002721306 -0.0010110285
-0.00536789 -0.000115919494 -0.0027382213 -0.0010615145 -0.0020931705 -0.0022806851 -0.000658863 -0.0035913852
-1.5837384 2.1452975 -1.3144095 2.015951 1.2662985 2.0931306 -0.5431526 0.4455027
0.012643723 0.008393387 0.020982802 -0.032861322 -0.057947066 0.0207373 -0.0038447545 0.043878607
-0.018236214 0.18989265 -0.13035306 -0.12346305 0.026476549 -0.13730927 -0.122055225 -0.02121521
00000000: 067b a6bb ddbe ebbb 5f54 9dbb eb8d a7bb
00000010: a3b0 bdbb 41ce 07bc ae65 8fbb 027c 843b
00000020: 743f f03d 3c10 b73e cee4 0e3f cff8 4f3e
00000030: fdf2 0dbf 7bb7 543f 3c4e 3f3f da07 b1bd
00000040: bd59 b33a fa08 083b 2cc2 113b cd87 f53a
00000050: 21a1 afba d6db 17bb d0e5 c3bb f180 1bbb
00000060: a57c 37bb 588e abba c575 25bb c3a3 43ba
00000070: 5872 fcba 748b 9bb9 f057 323b 7d84 84ba
00000080: 20e5 afbb ce19 f3b8 bb73 33bb 8422 8bba
00000090: 932d 09bb 8c77 15bb 8cb7 2cba 725d 6bbb
000000a0: f1b7 cabf 8e4c 0940 923e a8bf 5705 0140
000000b0: 1216 a23f daf5 0540 0c0c 0bbf ee18 e43e
000000c0: 9e27 4f3c 6b84 093c 20e4 ab3c 9899 06bd
000000d0: e759 6dbd 45e1 a93c 47f8 7bbb 0eba 333d
000000e0: 1d64 95bc 3873 423e 467b 05be 32da fcbd
000000f0: 59e5 d83c cd9a 0cbe 17f8 f9bd 85cb adbc

conv1.att_dst f4 [1, 8, 8]
-0.0052067884 0.002915062 -0.0014663982 -0.0024130773 0.0054366747 0.006873563 0.0019076328 0.004800779
-0.72776 -0.30365705 -0.24834241 -0.6198476 -0.36385798 0.13690732 -0.37127253 -0.22865936
0.0032258863 0.00177938 0.001528875 0.00030949208 1.2612653e-06 -0.0020930183 -0.004248961 0.0011359708
-0.006368945 2.184403e-05 -0.005790488 -0.006472199 -0.0047511533 -0.0056838132 0.006712593 -0.010553498
0.0015252416 2.526176e-06 0.0011102696 -0.0004103607 0.0031442947 0.0027115585 0.00029835835 0.0029457232
0.012852504 0.11427743 0.054219082 0.1724613 0.14949872 0.14779297 0.180575 0.22792189
-0.032604028 0.024117427 -0.022397693 -0.014636303 0.011207109 -0.027798133 -0.022713969 -0.0829127
-0.06503566 -0.0010856324 -0.0092185605 0.04629929 -0.07167362 0.014869669 -0.11457842 -0.053145286
00000000: b59d aabb a00a 3f3b 2934 c0ba b824 1ebb
00000010: 2226 b23b a03b e13b 8909 fa3a da4f 9d3b
00000020: 7b4e 3abf f078 9bbe 794d 7ebe 55ae 1ebf
00000030: 984b babe 6f31 0c3e 6f17 bebe ae25 6abe
00000040: 6469 533b 163a e93a 8864 c83a 5343 a239
00000050: bf48 a935 052b 09bb de3a 8bbb dbe4 943a
00000060: 95b2 d0bb b23d b737 22be bdbb be14 d4bb
00000070: 90af 9bbb 483f babb 50f5 db3b 94e8 2cbc
00000080: 9eea c73a 6087 2936 7786 913a ae25 d7b9
00000090: 8310 4e3b 67b4 313b fb6c 9c39 090d 413b
000000a0: 4f93 523c 490a ea3d d414 5e3d b299 303e
000000b0: 3116 193e 0a57 173e a7e8 383e 5b64 693e
000000c0: cd8b 05bd e991 c53c 5e7b b7bc 1bcd 6fbc
000000d0: 069e 373c e9b8 e3bc a512 babc 22ce a9bd
000000e0: 6b31 85bd c74b 8eba 7209 17bc 53a4 3d3d
000000f0: 9ec9 92bd ea9f 733c 17a8 eabd dfae 59bd

conv1.bias f4 [64]
-0.0019387195 -0.0035475853 0.0011433221 -0.0025290397 -0.0037484386 -0.0007399439 -0.0027377638 -0.0022868894
-0.26726666 -0.46455666 -0.27886912 -0.4825376 -0.20884342 0.12157571 -0.6249391 -0.050002217
0.00075572927 -0.0005655102 -0.001604435 -0.0009621185 -0.0005205818 -0.00086932455 -0.0025344337 -0.0029036573
-0.0035933254 -0.0032552863 -0.0022169345 -0.0050412305 -0.0025272735 -0.0024991126 0.0015310559 -0.0053799353
0.0021764112 -0.0011706672 -0.00018455308 -0.0009578519 -0.0015713909 -0.00026052952 -0.0057826997 -0.0010986321
-0.37101948 -0.16393389 -0.22012873 -0.1117959 0.19371633 -0.11667453 0.11103483 -0.1904724
-0.022875216 -0.013773325 -0.041579228 -0.042007137 -0.04568729 -0.022197928 -0.035134975 0.003127264
-0.1655265 -0.085106276 0.06314348 -0.000987757 -0.061237797 0.013422863 -0.028116072 -0.06088138
00000000: a21c feba 9b7e 68bb 86db 953a 3fbe 25bb
00000010: 5da8 75bb cbf8 41ba 0e6c 33bb a3df 15bb
00000020: 2dd7 88be 5fda edbe efc7 8ebe 2b0f f7be
00000030: 0ddb 55be b0fc f83d 02fc 1fbf 20cf 4cbd
00000040: 221c 463a bf3e 14ba e84b d2ba ae36 7cba
00000050: a777 08ba 62e3 63ba be18 26bb 494b 3ebb
00000060: ff7d 6bbb a456 55bb fd49 11bb e830 a5bb
00000070: 9da0 25bb 27c8 23bb b6ad c83a 2b4a b0bb
00000080: 1fa2 0e3b 1371 99ba 9784 41b9 5a18 7bba
00000090: 21f7 cdba ae97 88b9 cd7c bdbb faff 8fba
000000a0: 44f6 bdbe 49de 27be 6d69 61be 40f5 e4bd
000000b0: 935d 463e 0ef3 eebd 3b66 e33d 320b 43be
000000c0: ce64 bbbc 83a9 61bc fb4e 2abd ad0f 2cbd
000000d0: 9922 3bbd 6ed8 b5bc b1e9 0fbd c9f2 4c3b
000000e0: c77f 29be 334c aebd 5e51 813d a077 81ba
000000f0: 7cd4 7abd 91eb 5b3c ad53 e6bc c15e 79bd

conv1.lin.weight f4 [64, 12]
-0.0023059906 -0.0020582 -0.0017163899 -0.0032269743 0.0031318385 0.006140136 -0.00046937453 0.02249697
0.014754551 0.038404766 -0.015613907 -0.010045443 -0.0059258915 -0.0012373339 -0.0018071069 -0.0018665702
-0.002269659 0.0016125842 0.008803457 -0.0062869643 0.00836249 0.0016253304 0.0011335782 -0.0024298767
-0.004899533 0.0012329705 0.00086589844 -0.001351262 0.003281711 -0.008800512 0.0063881148 -0.002170317
0.011834648 -0.012371242 0.02844269 -0.01752877 -0.005454532 -0.0021593869 -0.0020901025 -0.001206366
0.0009286685 -0.0006647542 0.0006567914 -0.006505528 0.0023753673 0.011837652 0.026507689 0.002296917
-0.0015379785 -0.0030097824 -0.0035786023 -0.0030657672 -0.0008541769 0.002427445 0.0060860333 0.0074918503
0.005440989 0.009026842 0.009350501 -0.0013489522 -0.0052991025 -0.00075628934 -0.0005080179 -0.0070779803
-0.0067424094 0.0044514304 0.0074629826 -0.014305399 0.010610543 -0.0076480648 -0.0027005966 -0.0041090613
-0.0015290069 -0.0012521574 -0.0016188582 -0.002318048 -0.001234265 -0.0022245494 -0.002747653 0.008736149
0.0025217556 0.008535143 0.0021276616 -0.009756285 -0.0002940598 -0.0033753186 -0.002756657 -0.007601157
0.00066289114 -0.0041305344 0.00091421575 0.019958671 0.0022856507 0.031779375 0.004410135 -0.0016284332
-0.37363937 -0.45702362 -0.48000607 -0.3940113 0.46221688 1.1159087 0.4798013 2.3627484
0.076821394 1.4128872 2.8315387 -0.9980319 -0.22476189 -0.31298244 -0.33523545 -0.095013775
0.707423 2.362269 0.71015173 3.2797577 -0.027237985 1.841616 2.1224303 -1.0303042
-0.6411948 -0.12711227 -0.13148682 -0.10210479 1.2714417 -0.059352465 0.78874516 2.0244992
-0.03501536 0.40432727 1.5220025 -1.2969563 -0.44344 -0.5430708 -0.5449777 -0.12589045
0.60254914 0.5691742 0.37320948 2.5450141 0.13948767 1.5216697 3.1160061 -0.45203778
0.3026243 -0.39193335 -0.36175996 -0.06330608 -0.8523811 0.72814816 0.3519679 -3.4156275
-0.52610177 -1.6587024 -3.4413114 -1.0933475 0.02189222 0.12777086 0.14938667 -0.1847086
1.2970477 2.7382023 0.93057036 5.0991125 -1.1630477 -1.4462811 5.9373345 -5.996655
-0.36415833 -0.31952533 -0.34985855 -0.23325504 0.83051175 0.83893603 1.0271835 3.037412
0.18328607 1.9795132 2.7254775 -0.95401716 -0.09393333 -0.048938934 -0.065659724 -0.11967859
-1.2148265 2.960566 -1.9160153 1.8434037 -0.47459456 0.87934357 -3.5691955 -0.572082
-0.004364873 0.000885356 0.0013117698 -0.00014967722 0.0009997983 -0.0024807984 0.0053980174 -0.00082989776
-0.0014873613 0.016941845 0.008862674 -0.00012479966 0.0002668678 -7.064106e-05 -0.0008176769 -0.0004086041
-0.00037725587 -0.0035901635 -0.0041768253 -0.00044951594 -0.00079290185 -0.0017872908 -0.016304972 -0.0025104352
1.4269353e-05 -0.0016098975 -0.0017825809 -0.0019376491 -0.0013120159 0.015638929 0.0003665219 -0.00015810425
0.0058326246 -0.00075383805 -0.01044089 -0.008878009 -0.00030980332 -0.0008949031 -0.00062091113 -0.0013142112
-0.0048023616 -0.006839739 -0.010064956 -0.004151576 -0.00069137086 0.0036488692 -0.004929823 -0.0055014426
-0.0015782216 -0.0006463799 -0.00037414735 -0.00023991344 0.0021609096 0.002869129 0.0006089364 0.00025030304
0.0011302471 -0.0015521302 0.018881857 -0.0025809216 -0.0024426803 -0.00124135 -0.0012156885 -0.00030332105
00000000: 1a20 17bb dee2 06bb 7df8 e0ba a57b 53bb
00000010: 883f 4d3b 3233 c93b 6216 f6b9 914b b83c
00000020: 13bd 713c 514e 1d3d 79d1 7fbc a495 24bc
00000030: fb2d c2bb 092e a2ba 72dc ecba b4a7 f4ba
00000040: 8fbe 14bb 595d d33a 603c 103c e102 cebb
00000050: d302 093c 0a09 d53a 9394 943a 913e 1fbb
00000060: 438c a0bb a09b a13a 76fd 623a d41c b1ba
00000070: f911 573b 0630 10bc 6453 d13b e13b 0ebb
00000080: 1de6 413c c0b0 4abc a500 e93c 7f98 8fbc
00000090: eebb b2bb 8084 0dbb 1afa 08bb ed1e 9eba
000000a0: e371 733a e642 2eba 862c 2c3a 532c d5bb
000000b0: 0dac 1b3b b6f2 413c a726 d93c df87 163b
000000c0: ff95 c9ba c53f 45bb fc86 6abb 0aeb 48bb
000000d0: d7ea 5fba c515 1f3b 596d c73b 327e f53b
000000e0: 534a b23b 52e5 133c d832 193c 53cf b0ba
000000f0: 18a4 adbb b841 46ba 812c 05ba 67ee e7bb
00000100: 6eef dcbb 4edd 913b 098c f43b 3161 6abc
00000110: d8d7 2d3c 9e9c fabb 7efc 30bb 4ea5 86bb
00000120: f568 c8ba 6e1f a4ba de2f d4ba 64ea 17bb
00000130: 10c7 a1ba bfc9 11bb f811 34bb 1122 0f3c
00000140: 0a44 253b fcd6 0b3c 3d70 0b3b d3d8 1fbc
00000150: 0a2c 9ab9 7334 5dbb 08a9 34bb 2013 f9bb
00000160: dfc5 2d3a 6f59 87bb fba7 6f3a 5e80 a33c
00000170: dbca 153b 172b 023d e582 903b 2771 d5ba
00000180: a94d bfbe 00ff e9be 5bc3 f5be d9bb c9be
00000190: b1a7 ec3e 19d6 8e3f 84a8 f53e 4537 1740
000001a0: 8954 9d3d 7dd9 b43f ee37 3540 057f 7fbf
000001b0: fb27 66be 3c3f a0be fba3 abbe 9596 c2bd
000001c0: ac19 353f 6a2f 1740 81cc 353f 8de7 5140
000001d0: 3222 dfbc 13ba eb3f e6d5 0740 02e1 83bf
000001e0: 5825 24bf b829 02be 7ba4 06be 511c d1bd
000001f0: 9abe a23f 921b 73bd 34eb 493f 6591 0140
00000200: 446c 0fbd fc03 cf3e fad0 c23f aa02 a6bf
00000210: 910a e3be b006 0bbf a983 0bbf 6de9 00be
00000220: a940 1a3f 66b5 113f 5015 bf3e 83e1 2240
00000230: dbd5 0e3e 13c6 c23f a56c 4740 7f71 e7be
00000240: 92f1 9a3e 7dab c8be 9a38 b9be 9ea6 81bd
00000250: a635 5abf eb67 3a3f 2335 b43e a499 5ac0
00000260: 9bae 06bf 5c50 d4bf 723e 5cc0 d0f2 8bbf
00000270: 5057 b33c 5dd6 023e d2f8 183e 4024 3dbe
00000280: a905 a63f b53e 2f40 dc39 6e3f ee2b a340
00000290: bfde 94bf bd1f b9bf a5fe bd40 99e4 bfc0
000002a0: f672 babe d398 a3be a920 b3be 69da 6ebe
000002b0: 6b9c 543f 83c4 563f c07a 833f f564 4240
000002c0: 58af 3b3e b060 fd3f 396e 2e40 783a 74bf
000002d0: 1e60 c0bd 3174 48bd 9b78 86bd 0c1a f5bd
000002e0: 6f7f 9bbf ea79 3d40 fd3f f5bf a7f4 eb3f
000002f0: 0ffe f2be a91c 613f b36d 64c0 f773 12bf
00000300: 3507 8fbb 3c17 683a b1ef ab3a acf2 1cb9
00000310: aa0b 833a e494 22bb dae1 b03b 7f8d 59ba
00000320: 90f3 c2ba a0c9 8a3c c034 113c a7dc 02b9
00000330: 64ea 8b39 2125 94b8 5e59 56ba ea39 d6b9
00000340: 6dca c5b9 f348 6bbb c0dd 88bb 02ad ebb9
00000350: beda 4fba 8743 eaba 0192 85bc 1d86 24bb
00000360: 6866 6f37 3203 d3ba 7da5 e9ba b7f8 fdba
00000370: f3f7 abba 361d 803c bd29 c039 c9c8 25b9
00000380: 9a1f bf3b 379d 45ba 4410 2bbc 1275 11bc
00000390: 196d a2b9 ee97 6aba a4c4 22ba 9c41 acba
000003a0: 215d 9dbb e41f e0bb 7ce7 24bc f209 88bb
000003b0: 1d3d 35ba de21 6f3b 5a8a a1bb 7245 b4bb
000003c0: 54dc ceba d271 29ba 3529 c4b9 4691 7bb9
000003d0: 0c9e 0d3b ff07 3c3b 08a1 1f3a 1b3b 8339
000003e0: cd24 943a d970 cbba 20ae 9a3c ae24 29bb
000003f0: 6015 20bb cbb4 a2ba bd57 9fba 1007 9fb9

conv2.att_src f4 [1, 8, 8]
-0.13983442 0.97608066 0.47800246 -0.8695781 -0.5030432 1.4778928 -0.066957735 0.1299077
0.07295787 -0.28899541 -0.58414966 0.9708084 -0.22610153 0.1902194 -0.43828335 0.3827325
-0.54989636 -0.26525798 0.31748852 -0.20930348 -0.017546702 -0.05858709 -0.03278646 0.71660244
-0.35834202 -0.23470972 0.6542567 0.7194574 0.2858982 -0.9015689 1.050405 0.684432
0.14384319 0.0031051796 0.04906121 0.28132278 0.4429762 -0.014227398 -0.032306645 0.78642404
-0.17690386 -1.1113502 -0.12540628 -0.15959363 -0.02617137 0.79505175 0.8693314 0.9887924
0.22450556 -0.11650917 0.26775178 -0.8086596 1.6876239 -0.24181396 1.5939356 0.63050866
0.50313056 -0.042205043 -0.4052193 -0.014792595 0.099260524 -0.15358372 0.2823256 -0.036409687
00000000: c130 0fbe 6ce0 793f bdbc f43e ac9c 5ebf
00000010: 70c7 00bf 972b bd3f 2321 89bd 8606 053e
00000020: f06a 953d 35f7 93be d58a 15bf e686 783f
00000030: 2987 67be e0c8 423e ad66 e0be 84f5 c33e
00000040: 02c6 0cbf e5cf 87be db8d a23e a753 56be
00000050: 1abe 8fbc 04f9 6fbd 184b 06bd 4273 373f
00000060: 9b78 b7be bf57 70be 5e7d 273f 5c2e 383f
00000070: 4061 923e 38cd 66bf ac73 863f f036 2f3f
00000080: a14b 133e 4580 4b3b 68f4 483d 8a09 903e
00000090: c7cd e23e 081a 69bc f953 04bd 1653 493f
000000a0: 4926 35be b940 8ebf 816a 00be 836c 23be
000000b0: 5765 d6bc 8388 4b3f 818c 5e3f 8021 7d3f
000000c0: c9e4 653e 5c9c eebd c316 893e 5104 4fbf
000000d0: 0f04 d83f 149e 77be 1506 cc3f 0469 213f
000000e0: 2acd 003f 32df 2cbd e778 cfbe a45c 72bc
000000f0: 1a49 cb3d 0d45 1dbe fb8c 903e 5322 15bd

conv2.att_dst f4 [1, 8, 8]
0.5563522 -0.5407694 -0.42690256 0.22544901 0.29911444 -0.31440943 0.34319365 -0.03396011
-0.21188958 0.28420433 0.22048822 -0.20971116 0.12990811 -0.20992929 0.0083780615 0.051730048
-0.28137597 1.0194007 0.094259985 1.0712193 0.95236087 0.5948278 -1.3114517 -0.89812964
-0.3182131 0.3966702 0.5518145 0.27293384 1.128146 -1.3928196 1.3415781 -0.22955751
-0.78324926 -0.08590001 -0.95061994 0.43837735 0.9921651 -0.05635169 -0.088515505 -0.121646866
-0.09873961 0.55654275 -0.28328842 0.27634 -0.1419354 -0.20735134 -0.19654216 0.014599737
-0.09910925 0.21939759 0.20417957 -0.4273294 0.59784997 -0.3993389 0.16700734 0.027178647
0.23667477 0.83193326 -0.31343883 0.50221753 0.6095293 0.39438933 0.26608318 -0.09083429
00000000: 196d 0e3f dd6f 0abf f992 dabe 1bdc 663e
00000010: 8725 993e 46fa a0be 14b7 af3e c219 0bbd
00000020: 95f9 58be 3b83 913e aac7 613e 86be 56be
00000030: a206 053e b4f7 56be 2344 093c e3e2 533d
00000040: 8310 90be b97b 823f 610b c13d b71d 893f
00000050: eccd 733f a246 183f a6dd a7bf d3eb 65bf
00000060: d4ec a2be 5b18 cb3e b743 0d3f fcbd 8b3e
00000070: 1767 903f ea47 b2bf d5b8 ab3f 2011 6bbe
00000080: 0683 48bf 58ec afbd d45b 73bf ff72 e03e
00000090: 88fe 7d3f 08d1 66bd 9e47 b5bd fe21 f9bd
000000a0: fe37 cabd 9679 0e3f 2e0b 91be 707c 8d3e
000000b0: 8357 11be e953 54be 5942 49be bc33 6f3c
000000c0: caf9 cabd c3a9 603e 7314 513e ebca dabe
000000d0: b20c 193f 2676 ccbe f903 2b3e c1a5 de3c
000000e0: df5a 723e 94f9 543f 0e7b a0be 5491 003f
000000f0: 1d0a 1c3f 66ed c93e 0e3c 883e 5407 babd

conv2.bias f4 [64]
-0.07999842 -0.45908174 -0.28258157 0.59883946 0.14685835 -0.44950214 0.36697143 0.46799362
-0.10204908 0.030278763 0.016023746 0.16743357 0.013445741 -0.067351416 -0.0004999544 0.20419544
0.26426134 0.25768295 -0.12651479 0.18051562 -0.1469781 -0.33013484 0.23499466 -0.6909333
0.07543174 0.13113739 -0.2449301 -0.08308817 0.20776649 -0.4300367 0.2923833 -0.09961634
-0.04935414 -0.053509887 0.122176096 -0.15279622 -0.043006808 -0.11283354 0.118050575 -0.42840612
-0.3917751 0.1861068 -0.4020381 0.2967006 -0.39156803 -0.54803026 0.3099974 -0.67298216
-0.20233953 0.348567 0.08120418 0.062619075 -0.22647858 -0.1645947 -0.24497415 -0.35093668
0.22968332 -0.177816 0.12091741 -0.32174557 0.19087824 0.37329686 0.2378147 -0.30005133
00000000: 36d6 a3bd c30c ebbe 88ae 90be 8b4d 193f
00000010: 0962 163e 2525 e6be aee3 bb3e dc9c ef3e
00000020: 1cff d0bd 2b0b f83c 3b44 833c b573 2b3e
00000030: 864b 5c3c 8aef 89bd 5f0f 03ba 9c18 513e
00000040: 434d 873e 05ef 833e 188d 01be 16d9 383e
00000050: 6d81 16be 6f07 a9be 71a2 703e 01e1 30bf
00000060: f57b 9a3d e148 063e f5ce 7abe 212a aabd
00000070: bdc0 543e c52d dcbe 44b3 953e a703 ccbd
00000080: 9127 4abd 2f2d 5bbd 7637 fa3d 9d76 1cbe
00000090: e827 30bd 4515 e7bd 80c4 f13d 0c58 dbbe
000000a0: bf96 c8be c892 3e3e f0d7 cdbe 24e9 973e
000000b0: 9b7b c8be b64b 0cbf fbb7 9e3e 8f48 2cbf
000000c0: 1832 4fbe 6077 b23e 614e a63d 6e3e 803d
000000d0: 00ea 67be 838b 28be 81da 7abe f9ad b3be
000000e0: 1b32 6b3e 6615 36be 8ca3 f73d d6bb a4be
000000f0: 9675 433e c420 bf3e b285 733e 54a0 99be

conv2.lin.weight f4 [64, 64]
-0.0043393117 0.0020511472 0.00051391043 -0.00015479763 0.0010233485 -9.529957e-05 0.0024141779 -0.0031507383
0.028474545 0.19097711 -0.30735585 -0.0020200266 0.26674265 -0.3925121 0.071131155 0.19245744
0.000275296 -0.0005133725 0.002149256 0.0016296192 -0.00013793184 3.1949123e-05 0.00015836977 0.00029217385
-0.0020107997 -0.0035152927 0.00088194973 0.0022503186 -0.003042866 -0.0011018639 -0.002470654 0.00056836667
0.0054671154 -0.00025729387 -0.00028034084 -0.00010394088 -0.00036114856 -0.00020333535 0.0018640701 -5.5854238e-05
-0.14635976 -0.05416549 -0.1254171 0.13494697 0.5310511 -0.036088016 -0.49022827 -0.010739003
-0.013983826 -0.00027736335 -0.013075457 0.0016074757 -0.012558838 0.028765026 0.08011141 0.0041124616
0.006984275 -0.112499855 0.21014649 0.1257525 -0.0189115 -0.20544325 -0.027179426 0.27122247
0.002400658 0.0020414768 0.0010962696 0.0017424211 -0.0013154749 0.0005541969 0.001957622 -0.003076611
-0.11482447 -0.6036137 0.57882816 -0.12522236 -0.03138243 0.44494933 -0.4565965 -0.630249
0.0038724341 -0.00055449 -0.0047250623 -0.0007099418 0.0004362535 -0.001162579 -0.00015163519 -0.00075799186
-0.002021322 -0.0010550207 -0.0006192791 0.0010772605 0.0025824686 -0.0019478755 -0.0043944377 -0.001073777
-0.0019280243 -0.0029775999 0.00038328132 0.0003131298 -0.00035104182 -0.00014393902 0.0012853659 -0.00017579814
1.084525 -0.05670026 0.1334782 -0.041147836 -0.28144452 -0.0427673 -0.18007378 -0.042967577
0.027505059 -0.0038122158 -0.008553877 -0.008884877 -0.013231808 0.023032038 0.068559855 0.008657577
-0.049472805 -0.061964963 -0.36235157 -0.026252806 -0.018130532 -0.24831265 -0.03415639 -0.26905376
-0.0024083273 -0.00220368 0.0052679298 -0.00067048945 4.7628643e-07 0.00056032714 -0.005051712 -0.0068809697
-0.07678423 -0.5649606 0.26628953 -0.09940021 -0.18276851 0.5897206 -0.81760424 -0.28467864
0.0010517505 0.00014534256 0.004734885 0.0010851114 9.533809e-05 -1.7233828e-05 -0.00047483682 -0.00023936256
-0.0016149466 0.0017547111 -0.00024154955 -0.0025905478 0.00071747747 -0.0025579366 -0.00077316735 0.00029773428
0.0039104307 -0.0011304843 6.537605e-05 -0.00021711896 -0.00066160277 0.00014627278 0.0015389335 -0.00024762584
-0.16411172 -0.05332502 0.14794788 -0.050966363 -0.23783523 -0.11079887 0.00281965 -0.07003861
-0.013664943 -0.007558524 -0.010455959 -0.021802131 0.011251323 -0.028717175 0.1062333 0.0059900414
0.009604597 -0.049521394 -0.41655192 -0.010726144 -0.018850902 -0.19233058 -0.018929476 -0.7755616
0.0008295203 0.0012571672 -0.002569968 -0.0007194054 0.0019800575 -0.00059779297 -0.0018059933 0.00089058833
0.17863333 0.18530487 -0.9165048 0.11987375 -0.06707368 -0.21514851 0.26378468 0.007034393
-0.0009513134 0.00097118324 -0.008177895 -0.00047750594 0.0005643182 4.9656766e-05 0.00017858321 -0.00039716347
0.0005257741 -0.0024349676 0.0006531654 0.0023878324 -0.0029010833 0.0024216298 0.0050491793 -0.00087772124
-0.0036370275 -0.00088048744 -7.070326e-05 6.3202286e-05 0.0007673863 4.871954e-05 -0.0010383349 0.00027631124
-0.81083316 -0.0039675073 -0.15002695 -0.18080258 0.12807061 0.06793883 0.27246287 0.059859987
0.009222177 0.004214344 0.026809946 0.029379712 0.025067234 -0.018112719 -0.037345435 0.010859354
0.05527287 0.00025061922 -0.18044364 -0.016400853 0.0055162273 0.16776037 -0.021899069 0.030850532
00000000: c930 8ebb 8a6c 063b f2b7 063a 2c51 22b9
00000010: e121 863a 91db c7b8 2f37 1e3b 9e7c 4ebb
00000020: 7343 e93c 818f 433e bf5d 9dbe 6c62 04bb
00000030: 7e92 883e 59f7 c8be 36ad 913d 9013 453e
00000040: 9b55 9039 d893 06ba 88da 0c3b f298 d53a
00000050: cca1 10b9 1c01 0638 1010 2639 e92e 9939
00000060: 9fc7 03bb d360 66bb a532 673a 157a 133b
00000070: d26a 47bb 6b6c 90ba b2ea 21bb 71fe 143a
00000080: 7d25 b33b 66e5 86b9 b6fa 92b9 d6fa d9b8
00000090: 8a58 bdb9 6b36 55b9 d053 f43a 0845 6ab8
000000a0: 55df 15be a2dc 5dbd 576d 00be 8a2f 0a3e
000000b0: f7f2 073f 07d1 13bd 33ff fabe a5f2 2fbc
000000c0: 6b1c 65bc 146b 91b9 713a 56bc efb1 d23a
000000d0: 96c3 4dbc a2a4 eb3c 7311 a43d d4c1 863b
000000e0: 58dc e43b 5366 e6bd a430 573e 43c5 003e
000000f0: 4aec 9abc b75f 52be 63a7 debc acdd 8a3e
00000100: 5c54 1d3b 4cca 053b b4b0 8f3a f361 e43a
00000110: 036c acba 8647 113a 724b 003b f8a0 49bb
00000120: 1729 ebbd 6d86 1abf 152e 143f 4a3a 00be
00000130: dd8a 00bd 66d0 e33e 04c7 e9be 0058 21bf
00000140: aac8 7d3b 325b 11ba b2d4 9abb 631b 3aba
00000150: f4b8 e439 ae61 98ba 4300 1fb9 f9b3 46ba
00000160: 2878 04bb 9f48 8aba 1e57 22ba dd32 8d3a
00000170: a23e 293b db4f ffba 37ff 8fbb fabd 8cba
00000180: c3b5 fcba d623 43bb 26f3 c839 922b a439
00000190: 090c b8b9 56ee 16b9 b979 a83a 7456 38b9
000001a0: b7d1 8a3f 883e 68bd 82ae 083e a28a 28bd
000001b0: 7f19 90be c42c 2fbd 4365 38be c5fe 2fbd
000001c0: 4a52 e13c 5ed6 79bb 8f25 0cbc e091 11bc
000001d0: 3aca 58bc afad bc3c 1c69 8c3d 83d8 0d3c
000001e0: ffa3 4abd f9ce 7dbd 2586 b9be 2010 d7bc
000001f0: 7b86 94bc ac45 7ebe 92e7 0bbd 6ac1 89be
00000200: 07d5 1dbb 9e6b 10bb 999e ac3b c9c3 2fba
00000210: 4fb4 ff34 ebe2 123a d588 a5bb c279 e1bb
00000220: 0d41 9dbd 42a1 10bf 1a57 883e 5692 cbbd
00000230: ab27 3bbe eef7 163f 834e 51bf 66c1 91be
00000240: e4da 893a 1967 1839 1827 9b3b 4c3a 8e3a
00000250: 3ff0 c738 5d91 90b7 85f3 f8b9 66fd 7ab9
00000260: 9eac d3ba 56fe e53a 7748 7db9 2ec6 29bb
00000270: 1915 3c3a 0ea3 27bb 62ae 4aba 3819 9c39
00000280: 1223 803b c22c 94ba 801a 8938 6daa 63b9
00000290: 696f 2dba cd60 1939 0ab6 c93a c7d3 81b9
000002a0: e70c 28be 566b 5abd a67f 173e 1bc2 50bd
000002b0: 148b 73be 85ea e2bd e1c9 383b 6770 8fbd
000002c0: ede2 5fbc 7fad f7bb 784f 2bbc 629a b2bc
000002d0: 7857 383c 4840 ebbc d890 d93d 1c48 c43b
000002e0: 9a5c 1d3c f2d6 4abd 4b46 d5be b5bc 2fbc
000002f0: 356d 9abc 4ff2 44be fd11 9bbc 348b 46bf
00000300: 2a74 593a 88c7 a43a e96c 28bb 7b96 3cba
00000310: dac3 013b 35b5 1cba 14b7 ecba 5f76 693a
00000320: a8eb 363e 8fc0 3d3e 0fa0 6abf 5e80 f53d
00000330: ed5d 89bd e44f 5cbe c90e 873e c480 e63b
00000340: 9061 79ba 0197 7e3a 94fc 05bc c359 fab9
00000350: c1ee 133a 8c46 5038 1142 3b39 613a d0b9
00000360: 1ad4 093a fa93 1fbb 3039 2b3a 2e7d 1c3b
00000370: 1a20 3ebb 35b4 1e3b 9673 a53b e016 66ba
00000380: 325b 6ebb 83d0 66ba 8646 94b8 788b 8438
00000390: 6c2a 493a 3558 4c38 bd18 88ba dedd 9039
000003a0: c392 4fbf dd01 82bb aaa0 19be 5024 39be
000003b0: f124 033e 8323 8b3d 4180 8b3e bf2f 753d
000003c0: 9d18 173c 7b18 8a3b 88a0 db3c b9ad f03c
000003d0: cd59 cd3c 2061 94bc 87f7 18bd 6feb 313c
000003e0: ce65 623d 8b65 8339 38c6 38be 155b 86bc
000003f0: 78c1 b43b 60c9 2b3e ad65 b3bc 41ba fc3c

fc1.weight f4 [128, 74]
0.044816397 0.032869283 0.122422054 0.1015652 0.18733075 0.22978908 -0.19512965 0.1358482
0.17420061 0.022639731 -0.060035147 -0.03646599 0.051709786 0.077681996 0.1326455 -0.25081652
0.13745132 0.023835862 -0.13645162 -0.021779714 -0.04892539 -0.042749856 0.051616047 -0.08159382
0.4000063 -0.012021103 -0.40261486 0.1697226 -0.104658745 -0.03697366 -0.1957065 0.06714924
0.009197662 -0.021172749 0.0101817055 -0.094012216 -0.061472595 0.10058026 -0.1567195 -0.041504353
-0.34627092 0.5185848 -0.51614755 0.5755078 -0.357445 -0.20312124 0.19783446 -0.068277754
-0.14478034 0.13522452 0.4166231 0.11847807 -0.26424327 -0.35265338 0.10200554 -0.21028352
0.19975385 -0.335197 0.037735853 -0.19061075 0.07614786 0.3526011 0.20957425 -0.20212455
-0.1438601 -0.00021660293 -0.86123246 3.2355297 -0.35859486 -1.5154773 0.05656868 5.4098845
0.0027615943 -0.029298458 0.54326123 0.094549514 0.08791596 0.07891442 0.16936561 0.23251393
0.033948228 0.42821133 0.1338502 0.00784809 -0.30289477 -0.057204515 -0.16935062 0.08502506
0.17337641 -0.45395523 0.13089144 0.16616268 0.07749819 0.10956753 -0.25738192 -0.114850506
0.18123515 -0.0683678 0.038391728 -0.199876 -0.67520356 0.15451165 -0.28321722 -0.004621656
-0.29871303 0.25415742 0.0064809336 0.017935237 -0.09810194 0.091092765 0.32525492 0.26260293
-0.24220237 0.30950892 -0.1527103 0.08088736 -0.39020818 0.36708927 -0.25523102 -0.04131223
0.15167397 -0.05996625 -0.12200575 0.0832721 0.18940228 0.3286127 -0.009483468 -0.13750182
-0.058010437 -0.052729037 0.15476432 -0.9416128 -0.18069224 -0.6875985 0.04762633 0.31683317
0.13368684 -0.19886236 -0.04698755 -0.00023112806 -0.21866733 4.6606956 -0.27261713 -1.3603904
-0.0036161114 2.7975576 -0.029415317 -0.03994296 -0.012080624 0.06450244 0.10169481 0.088056035
0.05451186 0.17715089 -0.19485211 0.012816724 0.06688351 -0.03817007 0.008459824 -0.03598329
-0.02027507 -0.018349756 0.046833858 -0.099176936 0.09095702 0.0012191889 -0.07563624 -0.014927396
-0.03719489 -0.034010056 0.018024271 -0.03880937 0.27089837 0.017531889 -0.08720684 0.16662374
-0.11560162 -0.05340533 -0.13375685 0.03289907 0.013990648 -0.05796956 0.004227478 -0.09032486
-0.095865555 0.062455937 -0.16146581 -0.11637664 0.0121745905 0.042870846 0.03138342 0.019712705
0.012615357 0.107993014 -0.16958241 0.17895469 -0.053972557 0.14452155 0.05567074 0.13473749
-0.23938692 -0.013760905 0.11668906 -0.17618328 0.18739283 -0.20953366 0.08102164 -0.19447695
0.039672732 0.2915734 0.17194067 -0.17869495 -0.06380395 0.0002096461 -0.7063613 2.3180327
-0.402198 -1.5065241 0.029073237 4.591123 -0.0097665 -0.02136365 0.3854869 0.037907593
0.074448444 0.09563933 0.079071954 0.11872615 0.021930153 0.37770072 0.2211847 -0.042192597
-0.42308116 -0.051720824 -0.19325174 0.13405453 0.12909493 -0.4152006 0.09925871 0.13339734
0.32128435 0.07311684 -0.039969213 -0.13085619 0.12674159 0.063666075 -0.05195211 -0.088707864
-0.12431801 0.20703068 -0.06837699 -0.20356971 -0.01594686 0.4058414 0.20131028 -0.068708725
00000000: 6691 373d f1a1 063d 6ab8 fa3d 6a01 d03d
00000010: a2d3 3f3e d44d 6b3e 11d0 47be ca1b 0b3e
00000020: a561 323e f576 b93c 6ae7 75bd 5d5d 15bd
00000030: a4cd 533d bd17 9f3d 39d4 073e 066b 80be
00000040: 0ac0 0c3e 6d43 c33c f9b9 0bbe 5f6b b2bc
00000050: fd65 48bd 791a 2fbd 596b 533d a91a a7bd
00000060: a0cd cc3e 29f4 44bc 8923 cebe c3cb 2d3e
00000070: 5357 d6bd b171 17bd 4967 48be 8a85 893d
00000080: cab1 163c 7972 adbc 2bd1 263c 7a89 c0bd
00000090: b0ca 7bbd 06fd cd3d 147b 20be 7800 2abd
000000a0: 6c4a b1be f9c1 043f 3f22 04bf 7b54 133f
000000b0: 0803 b7be 04ff 4fbe 1e95 4a3e 35d5 8bbd
000000c0: 4c41 14be 4c78 0a3e 9f4f d53e a1a4 f23d
000000d0: e54a 87be fc8e b4be 48e8 d03d 9054 57be
000000e0: 468c 4c3e f19e abbe e990 1a3d 772f 43be
000000f0: 69f3 9b3d 2288 b43e a29a 563e bdf9 4ebe
00000100: 1050 13be e81f 63b9 bb79 5cbf eb12 4f40
00000110: bf99 b7be 29fb c1bf 8fb4 673d c61d ad40
00000120: ddfb 343b 5203 f0bc 2b13 0b3f 2da3 c13d
00000130: 480d b43d e29d a13d 2e6e 2d3e 2218 6e3e
00000140: 4c0d 0b3d 843e db3e 0710 093e 4695 003c
00000150: 0615 9bbe 484f 6abd 406a 2dbe 9e21 ae3d
00000160: 9689 313e d26c e8be 6808 063e 8d26 2a3e
00000170: 5fb7 9e3d f164 e03d 90c7 83be be36 ebbd
00000180: b595 393e 6b04 8cbd a540 1d3d 4bac 4cbe
00000190: 24da 2cbf 4d38 1e3e d901 91be 4371 97bb
000001a0: eaf0 98be ec20 823e 035e d43b ebec 923c
000001b0: abe9 c8bd d88e ba3d d087 a63e e473 863e
000001c0: e603 78be f477 9e3e 1760 1cbe 46a8 a53d
000001d0: 5ec9 c7be 20f3 bb3e a4ad 82be 0337 29bd
000001e0: 6c50 1b3e 2c9f 75bd 27de f9bd 908a aa3d
000001f0: acf2 413e ec3f a83e 8c60 1bbc 47cd 0cbe
00000200: 5a9c 6dbd 67fa 57bd 8a7a 1e3e 890d 71bf
00000210: 6307 39be 7506 30bf d413 433d f537 a23e
00000220: 34e5 083e 93a2 4bbe 0476 40bd f75a 72b9
00000230: 54ea 5fbe 6b24 9540 7994 8bbe 4621 aebf
00000240: 48fc 6cbb 2f0b 3340 64f8 f0bc 3b9b 23bd
00000250: cfed 45bc db19 843d 5e45 d03d b956 b43d
00000260: d447 5f3d 0b67 353e 5087 47be 3dfd 513c
00000270: 39fa 883d 3858 1cbd 139b 0a3c 3763 13bd
00000280: e717 a6bc 3a52 96bc dcd4 3f3d 471d cbbd
00000290: ad47 ba3d 31cd 9f3a 2ce7 9abd 0992 74bc
000002a0: ab59 18bd 214e 0bbd a3a7 933c 93f6 1ebd
000002b0: 31b3 8a3e 099f 8f3c 8099 b2bd 6a9f 2a3e
000002c0: 8bc0 ecbd 8cbf 5abd 8ef7 08be 2dc1 063d
000002d0: 0839 653c 7d71 6dbd a886 8a3b 3dfc b8bd
000002e0: 2955 c4bd ccd1 7f3d 4b57 25be e056 eebd
000002f0: ef77 473c 5799 2f3d e78b 003d 8a7c a13c
00000300: a4b0 4e3c 712b dd3d 03a7 2dbe e63f 373e
00000310: 5412 5dbd 75fd 133e 0007 643d a0f8 093e
00000320: d821 75be 6b75 61bc adfa ee3d 6469 34be
00000330: e8e3 3f3e fe8f 56be acee a53d f724 47be
00000340: e07f 223d 1c49 953e 3711 303e cffb 36be
00000350: a5ab 82bd 72d4 5b39 18d4 34bf a65a 1440
00000360: e5ec cdbe c8d5 c0bf ff2a ee3c 7bea 9240
00000370: ac03 20bc d202 afbc 8a5e c53e fe44 1b3d
00000380: 6d78 983d 8ede c33d 7af0 a13d b226 f33d
00000390: dda6 b33c fd61 c13e 3e7e 623e 25d2 2cbd
000003a0: 189e d8be 37d9 53bd c9e3 45be 9745 093e
000003b0: 7631 043e 2c95 d4be 2748 cb3d 5099 083e
000003c0: 627f a43e 48be 953d c2b6 23bd 2aff 05be
000003d0: 8cc8 013e 5c63 823d bccb 54bd 78ac b5bd
000003e0: 719a febd daff 533e 3c09 8cbd 9474 50be
000003f0: fda2 82bc 72ca cf3e 4824 4e3e 29b7 8cbd

fc1.bias f4 [128]
0.056623932 -0.0036116447 0.02927142 -0.13024661 0.036276918 -0.050191008 0.061840843 -0.10977401
-0.00031986824 -0.08618077 0.015647922 0.025833013 -0.064949356 -0.21126942 0.057203542 0.033672348
0.048617773 -0.1343568 0.08411093 0.044061057 -0.0074083563 -0.14031729 -0.062070575 -0.070224226
0.17718783 -0.03730713 0.034865316 0.033134393 0.019592565 0.02409322 0.016392497 0.04017537
0.047022264 0.04998962 0.03937338 0.06183705 0.047603916 0.0305545 0.051009215 0.037685473
-0.012506861 0.058822952 -0.15880717 -0.021317992 -0.014174032 -0.11295122 0.03872518 0.04818647
-0.050380863 -0.07290278 -0.04128987 -0.1288247 -0.1369951 0.049989548 -0.038903676 0.03729739
-0.039721433 0.010978445 0.042069085 -0.06758573 -0.025379019 0.045980133 0.20354834 0.017296338
-0.17972828 -0.1725287 0.04710751 -0.14206249 0.0380539 -0.07999085 -0.034796342 -0.065445974
-0.16627505 -0.041606035 0.060205594 -0.09114314 -0.06303253 -0.04966649 -0.080876894 -0.06937761
0.049954858 -0.02279991 0.034806427 -0.032503188 0.003121299 0.0008896184 0.008954006 0.02961127
-0.11371062 -0.08398834 0.020985272 -0.10975646 -0.0014816622 0.038172036 0.028590793 -0.015391157
-0.04251801 0.023824122 -0.08453887 0.012475982 -0.061942223 0.052756257 0.012943206 -0.19014798
0.038801778 -0.18612844 0.020633645 0.060788732 0.018456003 0.04648984 0.017789194 0.011566966
0.048386242 0.04923313 -0.06160491 0.036592603 -0.07128288 0.10079577 -0.008985399 -0.033935893
0.023784192 -0.03691399 -0.043758266 -0.11805727 0.036292486 -0.15409547 0.041706357 -0.01976989
00000000: 7fee 673d 58b1 6cbb 9eca ef3c 5e5f 05be
00000010: 1b97 143d 1695 4dbd d34c 7d3d 32d1 e0bd
00000020: fdb3 a7b9 8b7f b0bd 1230 803c c19f d33c
00000030: 2b04 85bd 0357 58be 434e 6a3d 04ec 093d
00000040: 6e23 473d d494 09be 5a42 ac3d 5e79 343d
00000050: ccc1 f2bb 56af 0fbe b73d 7ebd b8d1 8fbd
00000060: ba70 353e 5ccf 18bd efce 0e3d eeb7 073d
00000070: 9680 a03c 255f c53c 8f49 863c ee8e 243d
00000080: 6b9a 403d eac1 4c3d fb45 213d d948 7d3d
00000090: 53fc 423d 6e4d fa3c 0aef 503d 155c 1a3d
000000a0: 94e9 4cbc 56f0 703d 599e 22be 12a3 aebc
000000b0: 333a 68bc f852 e7bd 4b9e 1e3d 2d5f 453d
000000c0: 2a5c 4ebd 0d4e 95bd 911f 29bd 9fea 03be
000000d0: 7248 0cbe d7c1 4c3d 7659 1fbd 26c5 183d
000000e0: f1b2 22bd f0de 333c a250 2c3d 636a 8abd
000000f0: a9e7 cfbc aa55 3c3d fa6e 503e 0db1 8d3c
00000100: b10a 38be 5dab 30be cef3 403d d478 11be
00000110: 68de 1b3d 3ed2 a3bd 9c86 0ebd 8a08 86bd
00000120: 0244 2abe 176b 2abd 249a 763d 41a9 babd
00000130: 3317 81bd 176f 4bbd c9a2 a5bd d915 8ebd
00000140: 779d 4c3d e0c6 babc 2f91 0e3d 1022 05bd
00000150: b58e 4c3b 4835 693a d3b3 123c 5693 f23c
00000160: 1de1 e8bd 1402 acbd 4ee9 ab3c ffc7 e0bd
00000170: 5534 c2ba 485a 1c3d 3d37 ea3c 312b 7cbc
00000180: 5d27 2ebd ce2a c33c b722 adbd 1068 4c3c
00000190: 21b7 7dbd f216 583d be0f 543c 27b6 42be
000001a0: 9dee 1e3d 7498 3ebe e407 a93c 9bfd 783d
000001b0: 0b31 973c 216c 3e3d a5ba 913c 5f83 3d3c
000001c0: a730 463d aea8 493d 6e55 7cbd 20e2 153d
000001d0: c2fc 91bd 036e ce3d 7f37 13bc 5d00 0bbd
000001e0: 11d7 c23c 2033 17bd de3b 33bd 03c8 f1bd
000001f0: 6ea7 143d 34cb 1dbe 49d4 2a3d 77f4 a1bc

fc2.weight f4 [64, 128]
0.06359402 0.22305304 0.080049194 0.21277499 0.03540736 0.012632411 0.07193858 -0.026618058
0.12996915 0.2415746 0.04527254 0.15200685 -0.008795533 0.22869658 0.0788933 0.06465672
0.07302292 -0.14437619 0.047430933 0.076789744 0.031102423 -0.040129714 0.036062002 0.14732696
0.09106864 0.24113524 0.046431873 0.07834151 0.12656887 0.06542058 0.042981062 0.06981458
0.081880316 0.067374185 0.07746771 0.0858413 0.052195746 0.037123308 0.07457402 0.03894232
0.079362415 0.060931366 -0.07123765 0.06391119 0.22872342 -0.13307992 0.07112893 0.0823174
0.20421559 -0.16186404 -0.22050735 0.21317895 0.19523986 0.06369489 0.13822685 -0.19045821
0.10050002 0.14851171 0.06570852 0.17895034 0.20742038 0.083375946 -0.009168213 0.12074572
0.00926759 0.016479738 0.08347546 -0.307105 0.08497446 0.26906854 -0.056773975 0.0033532633
-0.46330637 -0.1545525 0.10630702 0.13465232 0.19332674 0.16468753 -0.006022158 -0.008769237
0.09177501 0.17425303 0.060439274 0.15964176 0.47285536 0.03471617 0.09875296 0.034007277
0.08968413 -0.023562336 0.24264888 -0.33384642 0.17181298 0.07767189 0.07413189 0.23780221
-0.010502043 0.14638159 -0.01653716 0.06398918 -0.0032216038 0.06435914 0.059644807 0.06530621
0.068736106 -0.0019336146 0.191692 0.097523876 0.069732495 0.09295417 0.06202387 0.05618881
0.08355375 0.09254244 -0.006585643 0.07074183 0.20647395 0.21818316 -0.017746426 0.18417995
0.06665187 0.22962819 0.00066894246 0.17889658 0.06012078 0.047415357 0.05683441 0.076802626
-0.020475663 0.10126475 -0.07210256 0.05367977 0.112522215 -0.017677603 0.01889232 0.10196197
0.09113872 0.10572118 -0.12802844 0.1269565 -0.026257794 -0.009280492 -0.087992445 -0.019267494
-0.09421113 -0.042693995 0.074164465 -0.08389147 -0.08153398 -0.112023175 0.0074879983 0.29826593
0.033586193 0.17577095 -0.040436793 -0.06493366 -0.02275948 -0.02106829 0.056256108 -0.017448489
0.049899835 -0.1312686 0.00932484 -0.10729171 -0.065636314 0.0064883204 0.0012800153 -0.08012485
0.028148416 0.01925515 0.10358613 -0.029974725 0.055637266 0.0617492 -0.02262014 -0.14966674
0.12996402 -0.3509186 -0.30987594 -0.06165984 0.0015263014 -0.060379196 0.3188659 -0.10864298
0.03519868 -0.17670982 -0.1281236 0.13368273 0.11120291 0.08302391 -0.11486041 -0.04391208
-0.13408504 -0.10249686 -0.01718651 -0.22032236 -0.09100962 0.12513942 0.033710603 0.051588677
0.28040028 0.1369249 -0.046326064 0.08720479 -0.12153126 0.26367924 -0.026094928 0.024792457
-0.039054956 0.051808875 0.045190226 0.22468334 0.015548988 0.12544045 0.008512132 0.06467474
-0.19187646 0.017877491 0.11482708 -0.45340833 -0.0010047056 -0.076505095 0.11446256 0.0012200957
-0.022057896 0.08296825 0.06274001 0.006202519 -0.09074484 -0.10098352 0.007963644 -0.09200006
0.01087537 -0.13624524 0.241309 0.014532175 -0.020930266 -0.06162495 0.064570285 -0.008661274
-0.09958052 0.08531866 0.020631345 -0.14253277 0.19084081 0.22054973 0.017324707 0.0760958
0.011734162 0.19082037 0.0010944431 0.08898137 -0.040088862 -0.1218958 -0.013884149 0.016657896
00000000: 953d 823d 0468 643e d5f0 a33d b0e1 593e
00000010: 4f07 113d 2cf8 4e3c 8954 933d 1d0e dabc
00000020: a216 053e 555f 773e b36f 393d afa7 1b3e
00000030: 241b 10bc 702f 6a3e cf92 a13d be6a 843d
00000040: 0a8d 953d 5ad7 13be f046 423d f143 9d3d
00000050: 82ca fe3c 0e5f 24bd c0b5 133d e1dc 163e
00000060: 3282 ba3d 28ec 763e 592f 3e3d 8371 a03d
00000070: 459b 013e 3afb 853d e90c 303d f2fa 8e3d
00000080: deb0 a73d 7afb 893d 64a7 9e3d 90cd af3d
00000090: 35cb 553d 9c0e 183d 44ba 983d fb81 1f3d
000000a0: c388 a23d 2b93 793d 0ce5 91bd dfe3 823d
000000b0: 7936 6a3e 1a46 08be 0bac 913d 0696 a83d
000000c0: e41d 513e b0bf 25be aecc 61be 954b 5a3e
000000d0: f5ec 473e 7772 823d 578b 0d3e 7a07 43be
000000e0: f4d2 cd3d 7413 183e 3092 863d c23e 373e
000000f0: 0266 543e 02c1 aa3d 4636 16bc 8849 f73d
00000100: 17d7 173c 8400 873c 2ff5 aa3d de3c 9dbe
00000110: 1707 ae3d 5ac3 893e d48b 68bd 6cc2 5b3b
00000120: 7e36 edbe 0343 1ebe 7fb7 d93d 4ce2 093e
00000130: 72f7 453e d9a3 283e 8655 c5bb d9ac 0fbc
00000140: 89f4 bb3d 636f 323e 2c8f 773d 2179 233e
00000150: 191a f23e 8b32 0e3d fe3e ca3d 374b 0b3d
00000160: 50ac b73d cd05 c1bc f378 783e ebed aabe
00000170: beef 2f3e 7112 9f3d 76d2 973d 6c82 733e
00000180: c310 2cbc 0ee5 153e f078 87bc c20c 833d
00000190: 8b21 53bb bace 833d 1d4e 743d 43bf 853d
000001a0: 84c5 8c3d 5771 fdba e84a 443e 99ba c73d
000001b0: e9cf 8e3d c25e be3d be0c 7e3d 3d26 663d
000001c0: 3a1e ab3d e486 bd3d 61cc d7bb 18e1 903d
000001d0: e86d 533e 686b 5f3e f460 91bc ab99 3c3e
000001e0: c780 883d a723 6b3e f85b 2f3a aa30 373e
000001f0: 3541 763d 9b36 423d 33cb 683d b24a 9d3d
00000200: 94bc a7bc e563 cf3d 82aa 93bd 52df 5b3d
00000210: 0c72 e63d 9fd0 90bc 11c4 9a3c 70d1 d03d
00000220: f0a6 ba3d 5984 d83d e319 03be e200 023e
00000230: 961a d7bc 340d 18bc 6235 b4bd ddd6 9dbc
00000240: c4f1 c0bd e6df 2ebd 8ae3 973d 4bcf abbd
00000250: 4afb a6bd 686c e5bd e25d f53b 50b6 983e
00000260: ad91 093d 4dfd 333e 0da1 25bd f0fb 84bd
00000270: 1772 babc 6897 acbc ce6c 663d 22f0 8ebc
00000280: c563 4c3d 476b 06be 37c7 183c c2bb dbbd
00000290: 556c 86bd fa9b d43b 30c6 a73a 7f18 a4bd
000002a0: 8297 e63c fabc 9d3c f724 d43d 8e8d f5bc
000002b0: e7e3 633d bbec 7c3d df4d b9bc 3d42 19be
000002c0: 4a15 053e 9aab b3be 0fa8 9ebe 078f 7cbd
000002d0: 2d0e c83a 2d50 77bd 6442 a33e 3680 debd
000002e0: 7e2c 103d 6bf3 34be d532 03be 20e4 083e
000002f0: 5abe e33d 7108 aa3d ef3b ebbd 27dd 33bd
00000300: 974d 09be e0e9 d1bd b9ca 8cbc 2f9c 61be
00000310: 4063 babd 8c24 003e 2114 0a3d a64e 533d
00000320: a090 8f3e 0a36 0c3e 66c0 3dbd 6d98 b23d
00000330: 62e5 f8bd f700 873e 08c5 d5bc 8d19 cb3c
00000340: 17f8 1fbd 8b35 543d 6319 393d 6413 663e
00000350: 2fc1 7e3c 7673 003e 7876 0b3c 3174 843d
00000360: 437b 44be d173 923c 762a eb3d 2325 e8be
00000370: 53b0 83ba b4ae 9cbd 596b ea3d 9eeb 9f3a
00000380: c3b2 b4bc 42eb a93d d67d 803d 803e cb3b
00000390: 6ed8 b9bd 73d0 cebd f279 023c 876a bcbd
000003a0: 9c2e 323c df83 0bbe b519 773e 5c18 6e3c
000003b0: f375 abbc 726a 7cbd 6d3d 843d 04e8 0dbc
000003c0: dff0 cbbd 8dbb ae3d 1103 a93c 1cf4 11be
000003d0: c66b 433e cad7 613e 8bec 8d3c 1dd8 9b3d
000003e0: a540 403c 6a66 433e 6b73 8f3a dd3b b63d
000003f0: 3834 24bd 81a4 f9bd 577a 63bc 2476 883c

fc2.bias f4 [64]
-0.38694495 -0.19063582 -0.34224984 -0.44398537 -0.48324686 -0.34211156 -0.33103025 -0.2901666
-0.46856228 -0.35968167 -0.22379814 -0.62419593 -0.41399652 -0.30163857 -0.09649343 -0.16511992
-0.3434652 -0.14353828 -0.35001054 -0.1626667 -0.078576565 -0.2914752 -0.23933513 -0.46413147
-0.25674656 -0.32291287 -0.38689825 -0.31158364 -0.23985599 -0.26773998 -0.35585546 -0.356228
-0.34204593 -0.35950565 -0.097280905 -0.4728725 -0.54799175 -0.41856158 -0.25945762 -0.12963347
-0.39525202 -0.1398309 -0.27424657 -0.03820668 -0.4211577 -0.31792036 -0.42204565 -0.19149515
-0.4968523 -0.20743532 -0.5133486 -0.017751567 -0.20401634 -0.358748 -0.16922788 -0.32221475
-0.17381969 -0.22316831 0.27165735 -0.38346413 -0.2877594 -0.3055921 -0.20775683 -0.18102841
00000000: a61d c6be 0936 43be 5f3b afbe 0d52 e3be
00000010: 226c f7be 3f29 afbe cc7c a9be b790 94be
00000020: 65e7 efbe 3228 b8be 572b 65be 4ecb 1fbf
00000030: 5af7 d3be 5f70 9abe 599e c5bd 3215 29be
00000040: acda afbe b3fb 12be 9534 b3be 1992 26be
00000050: c0ec a0bd 3d3c 95be 4514 75be a4a2 edbe
00000060: 4974 83be d654 a5be 8717 c6be e487 9fbe
00000070: cf9c 75be 3715 89be b032 b6be 8463 b6be
00000080: a520 afbe 2011 b8be 363b c7bd 581c f2be
00000090: 3049 0cbf b44d d6be a1d7 84be a3be 04be
000000a0: 795e cabe d52f 0fbe 0c6a 8cbe 9c7e 1cbd
000000b0: fba1 d7be 75c6 a2be 5e16 d8be 4e17 44be
000000c0: 6d63 febe ed69 54be d06a 03bf bc6b 91bc
000000d0: a9e9 50be d1ad b7be 134a 2dbe 55f9 a4be
000000e0: cafd 31be 3c86 64be ac16 8b3e 6955 c4be
000000f0: 3355 93be 9176 9cbe 35be 54be 835f 39be

fc3.weight f4 [1, 64]
0.0008235074 -0.06630542 -0.07575279 -0.026051745 -0.081238806 -0.02760143 -0.023583777 0.14634609
0.055079494 -0.01883294 -0.14662075 0.25624812 0.009899266 -0.030806724 0.006753594 -0.09757619
-0.02747655 -0.029570224 0.16761675 -0.16185156 -0.0032726978 0.003541419 0.01713301 0.19671747
-0.1622392 -0.0109407855 0.12734516 -0.070464775 -0.15593193 -0.03124179 0.008030685 -0.09179061
-0.11088282 -0.17021011 0.24424806 0.15537299 0.039655164 0.06476957 0.0054191756 -0.12269547
0.00056085363 5.5105094e-05 0.06635011 -0.09281457 0.1548086 0.0055185 0.07938984 -0.056416575
0.24812129 -0.043497976 0.0673333 -0.013671517 -0.08217575 0.15361896 -0.1629992 0.15633605
-0.019552397 0.0032810718 -0.1631566 0.043611366 0.0048163114 -0.027746748 0.036093652 -0.0838731
00000000: a5e0 573a 23cb 87bd 4724 9bbd 786a d5bc
00000010: 8860 a6bd 651c e2bc c432 c1bc c0db 153e
00000020: 099b 613d 8a47 9abc c023 16be f432 833e
00000030: 8830 223c 625e fcbc 414d dd3b 07d6 c7bd
00000040: 8016 e1bc 413d f2bc baa3 2b3e 6abc 25be
00000050: c27a 56bb 2717 683b 875a 8c3c 4e70 493e
00000060: 0822 26be fb40 33bc c566 023e d64f 90bd
00000070: 9fac 1fbe c8ee ffbc 2293 033c b7fc bbbd
00000080: 8816 e3bd 8f4b 2ebe 2a1c 7a3e 191a 1f3e
00000090: 746d 223d e9a5 843d 5793 b13b c347 fbbd
000000a0: 4006 133a a520 6738 91e2 873d 9115 bebd
000000b0: 2586 1e3e 89d4 b43b 2497 a23d 1115 67bd
000000c0: 8213 7e3e ef2a 32bd 0be6 893d 80fe 5fbc
000000d0: c24b a8bd 4a4e 1d3e 43e9 26be 8f16 203e
000000e0: 592c a0bc 4007 573b 8612 27be d5a1 323d
000000f0: 26d2 9d3b 264d e3bc f0d6 133d a9c5 abbd
