models/0_2023_2023/Postal_GAT/20.pth (torch, 96722 bytes, 13 tensors)

conv1.att_src f4 [1, 8, 8]
0	0xbf060bb2	-0.52361596
1	0xbf3dd0e3	-0.7414686
2	0xbefd5ab6	-0.4948327
3	0xbf06e8f9	-0.5269924
4	0xbf18bbc4	-0.5966151
5	0xbf5ab1ba	-0.8542744
6	0xbee6eb49	-0.45101383
7	0x3ed5587c	0.4166907
8	0xbe2ddb70	-0.1697824
9	0x3e3247f0	0.17410254
10	0x3e14f110	0.14545083
11	0x3edd0a24	0.431718
12	0xbf119e6a	-0.56882346
13	0x3f05f7bb	0.5233113
14	0x3daa6304	0.08319667
15	0x3f0925af	0.53573126
16	0x3e106877	0.1410235
17	0x3e5b103e	0.21392915
18	0x3e6ab8a7	0.22922002
19	0x3e45b1c5	0.19306095
20	0xbe0d6977	-0.13809763
21	0xbe748b94	-0.2388137
22	0xbf1dbb3a	-0.6161381
23	0xbe7a6a21	-0.24454547
24	0xbe93bd1f	-0.28855225
25	0xbe0a21c1	-0.13489439
26	0xbe85393b	-0.26020226
27	0xbd9d8613	-0.07691588
28	0xbe4b4338	-0.1984986
29	0xbcfa7aef	-0.030576197
30	0x3e8f98ee	0.28046364
31	0xbdd56602	-0.10419847
32	0xbf0da04c	-0.5532272
33	0xbc43bcfb	-0.011946912
34	0xbe907d63	-0.28220662
35	0xbde00e2b	-0.10940202
36	0xbe5ce755	-0.21572621
37	0xbe70b17e	-0.23505208
38	0xbd8b111a	-0.06790371
39	0xbebd8263	-0.3701354
40	0x3e9b7844	0.30365193
41	0x3e9b0167	0.30274507
42	0xbf448918	-0.7677169
43	0x3e841ef4	0.25804865
44	0x3f54e040	0.8315468
45	0xbe6ee744	-0.23330408
46	0x3ead0a6e	0.3379702
47	0x3fb3e55d	1.4054371
48	0xbf764ae0	-0.96208
49	0xbeb37ec7	-0.3505766
50	0x3e83c9a6	0.25739783
51	0x3ed44970	0.41462278
52	0x3e16ade9	0.14714779
53	0xbd975381	-0.07388974
54	0x3e28e46a	0.16493383
55	0xbdaff0d7	-0.085908584
56	0x3dac9f23	0.084287904
57	0x3e2b07eb	0.16702239
58	0xbe9eb525	-0.30997577
59	0xbf331fb2	-0.6997024
60	0xbd94865e	-0.07252191
61	0x3eb3c8a1	0.35114005
62	0xbeb46a85	-0.35237518
63	0x3ee17a44	0.44038594

conv1.att_dst f4 [1, 8, 8]
0	0xbf09600c	-0.5366218
1	0x3e99d238	0.30043197
2	0xbe1ac1d7	-0.15113007
3	0xbe7eaa47	-0.24869643
4	0x3f0f70c3	0.56031436
5	0x3f355a09	0.7084051
6	0x3e49529f	0.19660424
7	0x3efd53bb	0.49477944
8	0xbe7796a5	-0.2417856
9	0x3e0a162e	0.13485023
10	0x3f2fbdf1	0.686492
11	0xbeb115d2	-0.3458696
12	0xbefc549b	-0.492833
13	0x3ed583f8	0.41702247
14	0xbce869fc	-0.02837085
15	0xbe9a59a9	-0.3014653
16	0x3eaa390b	0.33246645
17	0x3e3bc9b8	0.18338668
18	0x3e2159c9	0.15756907
19	0x3d02a65c	0.031896934
20	0x39084d8a	0.00012998856
21	0xbe5ce349	-0.21571077
22	0xbee03555	-0.4379069
23	0x3defc56d	0.11707578
24	0xbf2809b1	-0.6563979
25	0x3b138a69	0.0022512919
26	0xbf18c69b	-0.5967805
27	0xbf2ac2fe	-0.66703784
28	0xbefab535	-0.48966375
29	0xbf15f622	-0.58578694
30	0x3f311ab9	0.691814
31	0xbf8b389c	-1.0876651
32	0x3e20f799	0.15719451
33	0x39887ffb	0.00026035294
34	0x3dea5887	0.114426665
35	0xbd2d3b10	-0.042292655
36	0x3ea5eaea	0.32405788
37	0x3e8f1535	0.27945867
38	0x3cfbe615	0.03074936
39	0x3e9b707f	0.30359265
40	0x3e48703e	0.19574067
41	0x3e9dc56e	0.3081469
42	0x3e8dc884	0.27692044
43	0xbe947cea	-0.29001552
44	0xbde8f8ec	-0.11375603
45	0x3ca6339f	0.020288287
46	0x3e5955c1	0.21224119
47	0x3f0295d6	0.5100988
48	0x3c85de6e	0.016341414
49	0xbd4e1167	-0.050309565
50	0x3d9b6f03	0.07589533
51	0x3d5d1aab	0.05398051
52	0xbdcd0c67	-0.10012131
53	0xb9c47eb6	-0.0003747844
54	0x3e9e9ce3	0.3097907
55	0xbd1acbd6	-0.03779205
56	0x3e4d72b6	0.2006329
57	0x3dd539b3	0.10411396
58	0x3e5e147e	0.21687505
59	0x3f3e715e	0.74391735
60	0x3e87f44a	0.26553565
61	0x3e80c824	0.25152695
62	0x3e280a0c	0.16410083
63	0x3e687c7e	0.2270374

conv1.bias f4 [64]
0	0xbe4c9a7a	-0.19980803
1	0xbebb32af	-0.36562106
2	0x3df1529b	0.11783334
3	0xbe857398	-0.26064754
4	0xbec5cbe1	-0.3863211
5	0xbd9c2e45	-0.07626013
6	0xbe907734	-0.28215945
7	0xbe715909	-0.2356912
8	0xbee1b553	-0.44083652
9	0xbe36e24a	-0.1785976
10	0x3e88e3b7	0.26736233
11	0xbecc78f3	-0.39936027
12	0xbe5e7ba3	-0.21726851
13	0x3f2737db	0.65319604
14	0x3c81fae3	0.015866702
15	0xbeb2820e	-0.3486485
16	0x3d9f8337	0.07788699
17	0xbd6eb9c7	-0.05828264
18	0xbe295312	-0.16535595
19	0xbdcb1343	-0.09915783
20	0xbd5bc288	-0.053652316
21	0xbdb77d50	-0.08959448
22	0xbe85bc85	-0.2612039
23	0xbe993850	-0.29925776
24	0xbebd9c8c	-0.37033498
25	0xbeabc638	-0.33549666
26	0xbe69f709	-0.22848143
27	0xbf0501d1	-0.51955897
28	0xbe855bcc	-0.26046598
29	0xbe83df5a	-0.2575634
30	0x3e2194ba	0.15779391
31	0xbf0df197	-0.5544676
32	0x3e65b031	0.22430493
33	0xbdf7181e	-0.12065147
34	0xbc9bd0c1	-0.01902044
35	0xbdca2cd8	-0.098718345
36	0xbe25d669	-0.16195072
37	0xbcdbf5f4	-0.026850678
38	0xbf1891e7	-0.5959763
39	0xbde7e3b8	-0.11322731
40	0xbea0a2d2	-0.31374222
41	0xbe93830e	-0.28810924
42	0xbe99adc0	-0.30015373
43	0xbcf6e711	-0.030139478
44	0x3eb59cd6	0.3547122
45	0xbf0552bd	-0.52079374
46	0xbe9ff342	-0.31240278
47	0xbe5a7eeb	-0.21337478
48	0xbe3cc96d	-0.18436213
49	0x3f00eede	0.5036448
50	0xbd1513f9	-0.036396
51	0xbf24164a	-0.6409651
52	0xbf0e5e95	-0.5561307
53	0x3a8bdd14	0.0010670745
54	0xbf36bc2f	-0.71380895
55	0xbe68af55	-0.22723134
56	0xbf0fb74a	-0.5613905
57	0xbf69b88f	-0.9129724
58	0x3e46e404	0.19422919
59	0xbeb600a1	-0.35547355
60	0xbee1824e	-0.44044727
61	0xbf49f3d4	-0.7888768
62	0xbecb65bc	-0.39726055
63	0xbf5f757b	-0.87288636

conv1.lin.weight f4 [64, 12]
0	0xbe735d0e	-0.23765966
1	0xbe59367a	-0.21212187
2	0xbe3523d8	-0.17689455
3	0xbeaa47d9	-0.3325794
4	0x3ea542aa	0.32277423
5	0x3f220042	0.63281643
6	0xbd46249a	-0.04837475
7	0x401463a0	2.3185806
8	0x3fc2a425	1.5206343
9	0x407d5111	3.958073
10	0xbfcdfa7e	-1.6092069
11	0xbf8484c7	-1.035302
12	0xbf1c5922	-0.61073506
13	0xbe029533	-0.12752227
14	0xbe3eb6c7	-0.18624412
15	0xbe44fd59	-0.1923727
16	0xbe6f87ab	-0.23391597
17	0x3e2a2f4a	0.16619602
18	0x3f6844d5	0.9073003
19	0xbf25dfe5	-0.6479476
20	0x3f5ca2c0	0.86185837
21	0x3e2b87dd	0.16751046
22	0x3def4406	0.11682896
23	0xbe80380b	-0.25042757
24	0xbf0144ce	-0.5049561
25	0x3e021f48	0.12707245
26	0x3db6c426	0.08924131
27	0xbe0e9b2b	-0.1392638
28	0x3ead2b2f	0.3382201
29	0xbf683109	-0.9069982
30	0x3f288b17	0.65837234
31	0xbe650bc2	-0.22367766
32	0x3f9c1f38	1.2197027
33	0xbfa3336a	-1.2750065
34	0x403b9b70	2.9313622
35	0xbfe73d31	-1.8065549
36	0xbf0fe96a	-0.56215537
37	0xbe63e455	-0.2225507
38	0xbe5c9494	-0.21541053
39	0xbdfea120	-0.12433076
40	0x3dc403f1	0.09571064
41	0xbd8c4f60	-0.06851077
42	0x3d8aa137	0.067690305
43	0xbf2ba43a	-0.67047465
44	0x3e7aaf80	0.2448101
45	0x3f9c294c	1.2200103
46	0x402ed824	2.7319422
47	0x3e726807	0.23672496
48	0xbe224fcb	-0.15850751
49	0xbe9ed1da	-0.3101948
50	0xbebcd5a6	-0.3688175
51	0xbea1c609	-0.315964
52	0xbdb44abe	-0.088033184
53	0x3e801731	0.25017694
54	0x3f2092b3	0.62723845
55	0x3f45aa14	0.77212644
56	0x3f0f8df1	0.5607596
57	0x3f6e29ab	0.9303233
58	0x3f76b3bc	0.96368
59	0xbe0e5cdb	-0.13902609
60	0xbf0bcf92	-0.546136
61	0xbd9fa173	-0.07794466
62	0xbd5674a3	-0.052357327
63	0xbf3abea1	-0.72947127
64	0xbf31e41a	-0.6948868
65	0x3eeae460	0.4587736
66	0x3f44e6f8	0.7691493
67	0xbfbcb733	-1.4743408
68	0x3f8bf949	1.0935451
69	0xbf49c918	-0.7882247
70	0xbe8e8116	-0.2783286
71	0xbed8d36b	-0.423488
72	0xbe215d4e	-0.15758249
73	0xbe0425ac	-0.12904996
74	0xbe2ad8de	-0.16684291
75	0xbe74a2fa	-0.23890296
76	0xbe02423b	-0.12720577
77	0xbe6ac4d8	-0.22926652
78	0xbe90fcba	-0.28317815
79	0x3f667e63	0.900366
80	0x3e85113f	0.2598972
81	0x3f613094	0.8796475
82	0x3e608b38	0.21928108
83	0xbf80b446	-1.0055015
84	0xbcf84546	-0.03030647
85	0xbeb21bc5	-0.3478681
86	0xbe91766f	-0.2841067
87	0xbf488c56	-0.78339136
88	0x3d8bead0	0.06831896
89	0xbed9f583	-0.42570123
90	0x3dc0f707	0.09422117
91	0x4003a588	2.0569782
92	0x3e713788	0.2355634
93	0x40519d91	3.275242
94	0x3ee8b695	0.454518
95	0xbe2bdb8f	-0.16782974
96	0xbe9c1748	-0.30486512
97	0xbeedd0f9	-0.46448496
98	0xbedd63f6	-0.43240327
99	0xbe10e5b3	-0.14150123
100	0xbee76b45	-0.45199028
101	0xbe7dc38d	-0.24781628
102	0xbf058e59	-0.5217033
103	0xbee66fd2	-0.45007187
104	0x3eca1218	0.3946693
105	0x3cd5214e	0.026016857
106	0x3e903155	0.28162637
107	0xbe218b2a	-0.15775743
108	0xbf719a5a	-0.94376147
109	0xbdef5176	-0.11685459
110	0xbe5c133a	-0.2149171
111	0x3e2780a6	0.16357669
112	0x3eace318	0.3376701
113	0xbf339b64	-0.7015898
114	0xbecb62a2	-0.39723688
115	0x3f3f5b48	0.7474866
116	0xbe06f4e7	-0.1317936
117	0x3e1ca5b6	0.15297589
118	0x40392c1f	2.893318
119	0x3edc42c0	0.43019676
120	0xbd9cd487	-0.07657724
121	0x3ea5cdf4	0.32383692
122	0x3e6bdcdd	0.23033471
123	0x3e81a3cd	0.25320283
124	0xbf8b8765	-1.0900694
125	0x3f36f44d	0.71466523
126	0x3cca6753	0.024707472
127	0xbd9c3802	-0.0762787
128	0x3efee51d	0.49784175
129	0xbe77a852	-0.24185303
130	0x40411d3c	3.0174093
131	0xbe9ab406	-0.30215472
132	0xbf075b7f	-0.52873987
133	0xbe29543e	-0.16536042
134	0xbeaff2af	-0.3436484
135	0xbee5e1e4	-0.44898903
136	0xbe85b66f	-0.26115748
137	0xbd31f770	-0.043448865
138	0xbd9366d6	-0.07197349
139	0x3e8a98be	0.27069658
140	0xbefb13c1	-0.4903851
141	0x3e098455	0.13429387
142	0x3f2f3b1d	0.68449575
143	0xbf0003d2	-0.5000583
144	0xbe6b1e76	-0.22960839
145	0xbeb229d8	-0.3479755
146	0xbe560be6	-0.20902976
147	0xbe189bbb	-0.14903156
148	0xbf99984b	-1.1999601
149	0x3f89eea7	1.0775956
150	0xbf3847f3	-0.71984786
151	0xbf2e004f	-0.6796922
152	0x3e20ef11	0.15716197
153	0xbededdd6	-0.43528622
154	0xbf003fc3	-0.5009729
155	0x3f000e82	0.5002214
156	0x3eadc64e	0.33940357
157	0x3f1707b4	0.5899613
158	0x3f2d6466	0.6773132
159	0xbe6fd1b2	-0.23419836
160	0x3eccf65f	0.40031716
161	0xbea42bbe	-0.32064623
162	0x3f93aa16	1.1536281
163	0xbef9937d	-0.48745337
164	0x3fe916cf	1.8210086
165	0x3ffe0dc4	1.9847951
166	0x40526fcf	3.2880743
167	0xc041e531	-3.0296137
168	0x3e8da2b1	0.27663186
169	0xbd1f2f19	-0.038863275
170	0x3d983db5	0.07433645
171	0x3e4a5ffd	0.19763179
172	0xbf6e881b	-0.9317643
173	0x3ee2513c	0.44202602
174	0x3da9d43f	0.08292436
175	0xbf39440f	-0.72369474
176	0xbd689644	-0.05678393
177	0xbdc6733b	-0.09689947
178	0xbd925b82	-0.0714636
179	0xbda6b988	-0.08140856
180	0xbe302069	-0.17199863
181	0xbea757e7	-0.32684252
182	0xbebd997b	-0.3703116
183	0xbeee8caa	-0.46591693
184	0xbdfd497c	-0.12367532
185	0xbf1819e2	-0.59414494
186	0xbd9f7ed6	-0.07787864
187	0x3f635be2	0.8881208
188	0xbf34b877	-0.7059397
189	0x3f1d9678	0.6155772
190	0x3f647913	0.89247245
191	0xbeb1e88e	-0.34747738
192	0xbee65331	-0.44985345
193	0x3dbadf81	0.09124661
194	0x3e0a7043	0.13519387
195	0xbc7cbd68	-0.015426017
196	0x3dd3074b	0.103041254
197	0xbe82e802	-0.25567633
198	0x3f0e6bb7	0.5563311
199	0xbdaf2ad8	-0.08553094
200	0xbe1cf848	-0.15329087
201	0x3fdf7ed4	1.746058
202	0x3f69d50c	0.9134071
203	0xbc52bb80	-0.012862086
204	0x3ce14ff1	0.02750394
205	0xbbee90a5	-0.0072804266
206	0xbdac9699	-0.08427162
207	0xbd2c7d2a	-0.042111553
208	0xbd1f4164	-0.03888072
209	0xbebd71e5	-0.37000957
210	0xbedc66dd	-0.43047228
211	0xbd3dc27f	-0.046328064
212	0xbda75bec	-0.081718296
213	0xbe3c9f5f	-0.1842017
214	0xbfd7181f	-1.6804236
215	0xbe84785c	-0.25873077
216	0x3ac0c20c	0.0014706268
217	0xbe29e6a4	-0.16591889
218	0xbe3c2024	-0.18371636
219	0xbe4c7db7	-0.19969831
220	0xbe0a76e2	-0.13521913
221	0x3fce4ed1	1.6117803
222	0x3d1ab982	0.03777457
223	0xbc857c07	-0.016294492
224	0x3f19e30f	0.6011209
225	0xbd9f1d07	-0.077692084
226	0xbf89bc61	-1.0760614
227	0xbf6a3c77	-0.9149851
228	0xbd02c7eb	-0.031928938
229	0xbdbce35c	-0.09223053
230	0xbd830e62	-0.06399228
231	0xbe0ab233	-0.1354454
232	0xbefd68f9	-0.4949415
233	0xbf34755e	-0.7049159
234	0xbf84c6ba	-1.0373147
235	0xbedb11f6	-0.4278714
236	0xbd91edaa	-0.07125409
237	0x3ec08aef	0.37605998
238	0xbf02115e	-0.5080775
239	0xbf112630	-0.56698895
240	0xbe268f01	-0.16265489
241	0xbd886ea4	-0.06661728
242	0xbd1df17c	-0.038560376
243	0xbcca8e44	-0.02472604
244	0x3e640d91	0.222708
245	0x3e9765b9	0.29569796
246	0x3d808775	0.062758364
247	0x3cd353a4	0.025796719
248	0x3dee9014	0.116485745
249	0xbe23ce1e	-0.15996596
250	0x3ff9169f	1.9460028
251	0xbe883088	-0.26599526
252	0xbe80e516	-0.2517478
253	0xbe0301b2	-0.12793615
254	0xbe004c5d	-0.1252913
255	0xbd000b73	-0.03126092

conv2.att_src f4 [1, 8, 8]
0	0xbe069ca6	-0.13145694
1	0x3d394a35	0.045236785
2	0x3ec4f1e0	0.38465786
3	0xbd9c6879	-0.07637114
4	0x3d6a1782	0.057151325
5	0x3d2f7390	0.04283482
6	0x3db3b0ba	0.08773942
7	0xbf193c93	-0.59858054
8	0xbf1a5970	-0.6029272
9	0x3f566588	0.83748674
10	0xbf301e36	-0.687961
11	0x3e335fb2	0.17516974
12	0xbf35161b	-0.70736855
13	0xbe63f630	-0.22261882
14	0xbde04d60	-0.10952258
15	0x3f2a88c1	0.6661492
16	0x3e339152	0.17535904
17	0xbef4167e	-0.4767341
18	0xbde4d68b	-0.11173733
19	0xbe49a4a5	-0.19691713
20	0xbe928fd2	-0.2862535
21	0x3ec2edc7	0.38072035
22	0xbe45d0be	-0.1931791
23	0xbd9a32ff	-0.07529258
24	0x3e141b85	0.14463623
25	0xbf2d8e1a	-0.67794955
26	0xbdbe94e6	-0.09305744
27	0xbe919fc1	-0.28442195
28	0x3e6f8e61	0.23394157
29	0x3d01020d	0.031496096
30	0x3f3dbe91	0.74118906
31	0x3f154703	0.5831148
32	0xbdba4d33	-0.09096756
33	0x3eebfc51	0.4609094
34	0x3e2439c2	0.16037658
35	0xbd75bf63	-0.059996974
36	0x3f2a3d32	0.66499627
37	0xbe8ca3f5	-0.2746884
38	0x3ea63c4a	0.32467872
39	0xbef18e76	-0.47179002
40	0xbeb384b7	-0.3506219
41	0x3e5a7b4a	0.21336094
42	0x3ea14ee9	0.31505516
43	0x3eefeea6	0.46861762
44	0xbf0a0f74	-0.5392983
45	0x3e27c8d9	0.16385211
46	0x3ece532b	0.40297827
47	0xbefff9cf	-0.49995276
48	0x3c616b6e	0.013758523
49	0x3efad42c	0.4899
50	0xbdf94b0c	-0.12172517
51	0x3f4265a0	0.7593632
52	0x3f050587	0.5196156
53	0xbf18a9ca	-0.5963408
54	0x3e88ce4b	0.2671989
55	0x3dfbd6ed	0.12296853
56	0x3f60378c	0.8758476
57	0x3ec00c89	0.37509564
58	0xbd317ca9	-0.043331776
59	0x3e800200	0.25001526
60	0x3c4b3583	0.012402895
61	0x3eab9f7d	0.33520117
62	0x3e3245c6	0.17409429
63	0x3db68226	0.089115426

conv2.att_dst f4 [1, 8, 8]
0	0x3e78633b	0.24256603
1	0x3fb2951d	1.3951756
2	0x3dd8ed05	0.10592083
3	0xbf2bd249	-0.67117745
4	0x3e559f64	0.20861584
5	0x3f858dfe	1.0433958
6	0x3f091b70	0.5355749
7	0x3d054739	0.032538626
8	0xbe243ba0	-0.1603837
9	0x3c742e9d	0.014903692
10	0x3ce200b2	0.027588222
11	0x3ea69fcc	0.3254379
12	0xbe824478	-0.25442863
13	0xbd46631d	-0.048434366
14	0x3eb0ac52	0.3450647
15	0x3dacaffb	0.08432003
16	0x3e02f23c	0.12787718
17	0x3da0b6ac	0.07847342
18	0x3ebc17b9	0.3673685
19	0xbee50cf3	-0.44736442
20	0xbdc661b4	-0.09686604
21	0x3f0ba531	0.5454894
22	0x3d69c23b	0.05707
23	0x3e3cf818	0.18454015
24	0xbe3fd06d	-0.18731852
25	0xbe4a4e7f	-0.19756506
26	0x3e437ef0	0.19091392
27	0xbe5dad69	-0.21648182
28	0x3f442d30	0.7663145
29	0xbddd8bf2	-0.10817708
30	0x3f1cd7bc	0.61266685
31	0xbed638c5	-0.41840187
32	0x3cdc7dfb	0.02691554
33	0xbe12fee2	-0.14355043
34	0x3f521779	0.82067066
35	0xbe917a00	-0.2841339
36	0x3cc2b362	0.023767177
37	0x3edd4bd2	0.4322191
38	0xbed74801	-0.42047122
39	0x3ed766e3	0.42070684
40	0x3f684f55	0.9074605
41	0x3e0eaf97	0.1393417
42	0xbcd58931	-0.026066395
43	0xbe5eb0c4	-0.21747118
44	0x3f7cab5c	0.98698974
45	0x3eaa7d57	0.33298752
46	0x3ee5786a	0.4481843
47	0x3f0dae4d	0.55344087
48	0x3f0c8bdb	0.549009
49	0x3d1a7da0	0.03771746
50	0x3ca12086	0.019668829
51	0x3f1d5cc5	0.6146968
52	0x3f158b95	0.5841611
53	0xbf0858ea	-0.5326067
54	0x3ecbf8b5	0.39838186
55	0x3f1951bb	0.59890336
56	0x3cb34200	0.021882057
57	0xbf2d2fc0	-0.67650986
58	0xbd924f55	-0.07144038
59	0xbdf90c9e	-0.1216061
60	0xbeb69e2c	-0.3566755
61	0xbdfe3ab6	-0.12413542
62	0x3ec78254	0.3896662
63	0xbf261e3b	-0.6488988

conv2.bias f4 [64]
0	0xbf1a0262	-0.60159886
1	0xbf6e8443	-0.93170565
2	0x3dceff86	0.10107331
3	0x3f52edf0	0.82394314
4	0xbeaa706a	-0.3328889
5	0xbe906c10	-0.28207445
6	0xbf6423dd	-0.89117223
7	0xbed268ff	-0.4109573
8	0x3f0678d8	0.5252814
9	0xbf25a42b	-0.64703625
10	0x3f639dac	0.88912463
11	0x3f1d27f7	0.61389107
12	0x3e2f48b7	0.17117582
13	0x3e9ffa04	0.31245434
14	0x3e90a99c	0.28254402
15	0xbefe6f79	-0.49694422
16	0xbf07e7c8	-0.53088045
17	0x3e06802b	0.1313483
18	0x3f43f5f2	0.7654716
19	0xbe41482c	-0.18875188
20	0x3f078aa1	0.52945906
21	0x3ede5097	0.4342086
22	0xbc1d9c4a	-0.009619782
23	0xbec516ee	-0.38494056
24	0xbea20d96	-0.3165099
25	0x3f5968c1	0.84925467
26	0xbd441513	-0.04787166
27	0xbcd47635	-0.025935272
28	0xbebd4473	-0.36966285
29	0xbf6c3710	-0.9227152
30	0xbf284c01	-0.6574097
31	0xbeff3d65	-0.49851528
32	0xbbfe0877	-0.007752474
33	0xbe0f0829	-0.13967957
34	0x3f81d5ab	1.0143331
35	0x3eb6d374	0.357082
36	0xbf5b57ff	-0.85681146
37	0x3ebe019f	0.37110612
38	0xbf7508c6	-0.9571651
39	0x3f2afa3d	0.66788083
40	0x3f564d18	0.83711386
41	0xbf622e21	-0.8835164
42	0xbf4d59e2	-0.80215275
43	0xbf69d2ab	-0.9133708
44	0x3ec511b3	0.38490066
45	0xbf51f151	-0.82008845
46	0xbf4628e5	-0.7740615
47	0x3f48e9e1	0.7848187
48	0xbf286537	-0.6577944
49	0x3e92ae20	0.28648472
50	0x3f37cc7a	0.7179638
51	0xbf10a8d1	-0.56507593
52	0xbf230364	-0.6367705
53	0x3f14b6f0	0.5809164
54	0xbf48720d	-0.7829903
55	0xbf7061cf	-0.93899244
56	0x3e180c10	0.14848351
57	0x3f1c53d4	0.6106541
58	0x3f335300	0.7004852
59	0xbd8021d5	-0.06256453
60	0x3ef9b46a	0.48770458
61	0xbf612ea6	-0.87961805
62	0xbf48a3c2	-0.78374875
63	0xbf579d83	-0.8422472

conv2.lin.weight f4 [64, 64]
0	0xbee4f9b4	-0.44721758
1	0x3e587823	0.21139579
2	0x3d58f19b	0.052964788
3	0xbc82b177	-0.015953762
4	0x3dd7ffbe	0.10546826
5	0xbc20eb78	-0.009821765
6	0x3e7ec830	0.24881053
7	0xbea641e5	-0.3247215
8	0xbb5d55a2	-0.0033772965
9	0x3e08d78d	0.13363476
10	0xbe74049c	-0.23829883
11	0xbdab9fc3	-0.083800815
12	0xbe532ce6	-0.20622596
13	0xbdf1797b	-0.11790749
14	0xbe267624	-0.16256005
15	0x3e9fe926	0.31232566
16	0x3ce86da4	0.028372593
17	0xbd58b748	-0.052909166
18	0x3e62d2c3	0.22150712
19	0x3e2bfb9a	0.16795197
20	0xbc68e82c	-0.01421551
21	0x3b57cb13	0.0032927438
22	0x3c85b57b	0.016321888
23	0x3cf6ad9b	0.030112078
24	0xbe5435dc	-0.2072367
25	0xbeb97e7e	-0.36229318
26	0x3dba278d	0.09089575
27	0x3e6d7ce9	0.2319218
28	0xbea090a3	-0.3136035
29	0xbde89250	-0.11356032
30	0xbe825ef7	-0.25463077
31	0x3d6fee8a	0.058577098
32	0x3f103e61	0.5634518
33	0xbcd93aae	-0.026517238
34	0xbcecafcf	-0.028892426
35	0xbc2f82de	-0.0107123535
36	0xbd1874b5	-0.037220675
37	0xbcabac4c	-0.020956181
38	0x3e44b9d5	0.19211514
39	0xbbbca0a1	-0.005756453
40	0xbe425afd	-0.18980022
41	0xbe30ab58	-0.17252862
42	0x3f3aee85	0.730202
43	0xbebfff17	-0.37499306
44	0xbdeff93e	-0.11717461
45	0xbe5bc969	-0.2146355
46	0xbee23d29	-0.44187286
47	0x3eaff8e0	0.34369564
48	0x3ee5924c	0.44838178
49	0x3d6dc92b	0.058053177
50	0xbe38a454	-0.18031436
51	0xbdb02453	-0.08600678
52	0xbe657afe	-0.22410199
53	0xbe60c9b3	-0.21951942
54	0x3e40a28d	0.18812008
55	0xbf11aafa	-0.56901515
56	0xbd9b8167	-0.07593041
57	0x3f1d8c92	0.6154262
58	0xbeafede6	-0.3436119
59	0xbb009559	-0.0019620268
60	0x3c44088c	0.011964928
61	0xbe1e6b67	-0.15470658
62	0x3e811232	0.25209194
63	0x3e8fa9a8	0.28059125
64	0x3e7d5aa8	0.24741614
65	0x3e5772c3	0.21039872
66	0x3de763f4	0.112983614
67	0x3e37e322	0.17957738
68	0xbe0ad444	-0.13557535
69	0x3d69f328	0.057116657
70	0x3e4e992c	0.20175618
71	0xbea2587b	-0.3170813
72	0xbcfb1bbb	-0.030652871
73	0x3f0ce46e	0.55036056
74	0xbe588fd3	-0.21148615
75	0xbe5d7495	-0.21626504
76	0xbe96cde4	-0.29453957
77	0xbecd63f4	-0.4011532
78	0xbe2ca18f	-0.16858505
79	0x3ea34e87	0.3189585
80	0x3ecc56e8	0.39910054
81	0xbd6a12c4	-0.057146803
82	0xbef954bf	-0.4869747
83	0xbd95d918	-0.07316798
84	0x3d38292e	0.044961147
85	0xbdf56318	-0.11981791
86	0xbc8005ea	-0.01562782
87	0xbd9ffd74	-0.07812014
88	0xbe555239	-0.20832147
89	0xbddeaf1b	-0.108732425
90	0xbd82b647	-0.06382423
91	0x3de360e2	0.11102463
92	0x3e88458a	0.26615554
93	0xbe4d91fc	-0.2007522
94	0xbee7e278	-0.4528997
95	0xbde2a49a	-0.110665515
96	0xbe4b79a4	-0.19870621
97	0xbe9d1f0e	-0.30687755
98	0x3d21ccaf	0.039501842
99	0x3d042f58	0.032271713
100	0xbd14307a	-0.036179043
101	0xbc730ceb	-0.014834623
102	0x3e07a6ee	0.13247272
103	0xbc946c60	-0.018118083
104	0xbdf240f3	-0.11828794
105	0xbe72ccb4	-0.237109
106	0x3e9c7016	0.30554265
107	0xbecec175	-0.4038197
108	0xbe73625d	-0.23767991
109	0x3da9a9e4	0.08284357
110	0xbeb803e7	-0.35940477
111	0x3e51c1a5	0.20484026
112	0x3f71016a	0.9414278
113	0xbe9a451c	-0.3013085
114	0xbd72557f	-0.059163567
115	0xbdbc862f	-0.09205281
116	0x3de43f11	0.111448415
117	0xbeadb5ea	-0.33927852
118	0x3e42b1f4	0.19013196
119	0xbe2dbccc	-0.16966552
120	0xbee00be4	-0.43759072
121	0xbd6a3619	-0.057180498
122	0xbedfae2c	-0.4368757
123	0xbb7a9c4d	-0.0038240135
124	0x3bcc55a1	0.0062357937
125	0x3dec2796	0.11530988
126	0x3f01d125	0.50709754
127	0x3e275ce5	0.1634403
128	0xbe7e2a11	-0.24820735
129	0xbe689111	-0.22711588
130	0x3f0afcf9	0.54292256
131	0xbd8d8566	-0.06910209
132	0x384de2f4	4.9087175e-05
133	0x3d6c89ae	0.05774849
134	0xbf0548aa	-0.52064
135	0xbf358c0e	-0.7091683
136	0x3e35891f	0.17728089
137	0x3e8964a5	0.26834598
138	0x3dbe2a8d	0.0928546
139	0xbe0315ae	-0.12801239
140	0xbe401f4c	-0.18761939
141	0xbe234fed	-0.15948458
142	0x3db3eef3	0.0878581
143	0xbc04341b	-0.008069064
144	0x3dddfe73	0.10839548
145	0x3c756bca	0.014979312
146	0x3ef9d95f	0.48798653
147	0x3de50919	0.11183376
148	0x3c20fc23	0.009825739
149	0xbae8cdaa	-0.0017761488
150	0xbd4872e9	-0.048937712
151	0xbcca1710	-0.0246692
152	0xbe2a6f3c	-0.16643995
153	0x3e392f3f	0.18084429
154	0xbccbefb4	-0.024894573
155	0xbe88b287	-0.26698706
156	0x3d977055	0.073944725
157	0xbe86fa0c	-0.26362646
158	0xbda3318a	-0.07968433
159	0x3cfb5f64	0.030685134
160	0x3ece5836	0.40301675
161	0xbdee9cc9	-0.11650998
162	0x3bdcc874	0.006737763
163	0xbcb74f6a	-0.022376735
164	0xbd8ba525	-0.06818608
165	0x3c76fdf0	0.015075192
166	0x3e226978	0.15860546
167	0xbcd1110d	-0.025520826
168	0x3e5f21ea	0.21790281
169	0x3e85e9e0	0.26154995
170	0xbf0de513	-0.55427665
171	0x3d4d487a	0.050117947
172	0x3dc62a94	0.0967609
173	0x3ebe8b96	0.3721587
174	0xbe66bf9f	-0.22534035
175	0x3cd6c47b	0.026216736
176	0x3ef69ded	0.48167363
177	0x3dd1c738	0.10243076
178	0x3dfc8b73	0.12331285
179	0xbf16c514	-0.5889447
180	0x3ec84e86	0.3912241
181	0xbdd1c476	-0.1024255
182	0x3c678820	0.014131576
183	0xbeade6c4	-0.33965123
184	0xbe87c3c9	-0.2651656
185	0x3e72c900	0.23709488
186	0x3c9b7b76	0.01897977
187	0xbd3fa8b8	-0.046791762
188	0x3d596419	0.053073976
189	0xbe965aa1	-0.2936602
190	0x3dcf6b82	0.10127927
191	0x3b2cd161	0.0026369917
192	0x3daf1693	0.085492276
193	0x3e04ad0b	0.12956636
194	0xbe879c8c	-0.26486623
195	0xbd97d881	-0.07414342
196	0x3e50f779	0.20406903
197	0xbd7c5a83	-0.061609756
198	0xbe3e98cd	-0.18612976
199	0x3dbbfa21	0.09178568
200	0x3d8cb376	0.06870167
201	0xbed51142	-0.4161473
202	0xbba18245	-0.0049288594
203	0x3e75112b	0.2393233
204	0x3e2286e3	0.15871768
205	0x3e14fcfd	0.14549632
206	0x3dd9847d	0.10620973
207	0xbea21c92	-0.31662422
208	0xbdc8cb6e	-0.09804426
209	0x3dccfd0e	0.10009204
210	0xbf57c3b6	-0.84283006
211	0xbd499347	-0.04921272
212	0x3d6e38cf	0.058159646
213	0x3ba7b2b2	0.0051177377
214	0x3c96c676	0.01840518
215	0xbd27a8cc	-0.04093246
216	0x3d5df3b1	0.05418748
217	0xbe807cdc	-0.2509526
218	0x3d89dd47	0.067316584
219	0x3e7c0044	0.24609476
220	0xbe99156e	-0.29899162
221	0x3e7f9180	0.24957848
222	0x3f05379b	0.5203797
223	0xbdb94302	-0.09045984
224	0xbebfeaf7	-0.3748395
225	0xbdb9d867	-0.090744786
226	0xbbeec66e	-0.0072868383
227	0x3bd5713c	0.0065137427
228	0x3da1f913	0.07908835
229	0x3ba48849	0.0050211293
230	0xbddb298a	-0.10701282
231	0x3ce948e4	0.02847714
232	0x3df461c0	0.11932707
233	0x3e678b8f	0.22611831
234	0x3e75608d	0.23962612
235	0x3ead8d9a	0.33897096
236	0x3e42a524	0.19008309
237	0x3e96fc07	0.29489157
238	0x3ec707c4	0.38873112
239	0x3c05913c	0.008152302
240	0xbf73aac0	-0.9518242
241	0x3daa8d4d	0.08327732
242	0xbdfe0f22	-0.1240523
243	0x3e2c6acc	0.16837615
244	0xbe1f064a	-0.15529743
245	0x3eeaadb0	0.45835638
246	0xbd4ffb18	-0.05077657
247	0x3f211acf	0.6293153
248	0x3e832c98	0.2561996
249	0xbd3ca896	-0.046059214
250	0x3eee382a	0.46527225
251	0x3ccbe107	0.024887575
252	0xbda51747	-0.080610804
253	0xbe0839d1	-0.13303305
254	0xbe87fd99	-0.26560667
255	0xbc872502	-0.016497139

fc1.weight f4 [128, 74]
0	0x3ede45e0	0.43412685
1	0x3f3af45d	0.7302912
2	0xbd19c923	-0.037545335
3	0xbeb43c4d	-0.35202256
4	0x3e3f2f58	0.18670404
5	0x3e1fb1b5	0.15595134
6	0x3eb970bc	0.36218822
7	0x3e39d58a	0.18147865
8	0xbe7c7b65	-0.24656446
9	0xbe748489	-0.23878683
10	0xbdadf9dc	-0.084949225
11	0x3e9cc0b3	0.30615768
12	0xbe8753ad	-0.26431027
13	0x3f16329a	0.5867096
14	0xbefb8efd	-0.4913253
15	0xbf122c1b	-0.5709855
16	0x3ee91910	0.45526934
17	0x3e4ab277	0.19794641
18	0xbee87261	-0.45399764
19	0x3e3c1430	0.18367076
20	0xbf24956e	-0.6429051
21	0xbed3f1fd	-0.4139556
22	0xbe578052	-0.21045044
23	0xbe57c166	-0.2106987
24	0xbd92b2b1	-0.07162989
25	0xbf0937fb	-0.53601044
26	0xbf3ccce3	-0.7375013
27	0xbe739959	-0.23788966
28	0x3cf54e29	0.029944496
29	0x3e1b2789	0.151518
30	0x3f18dce1	0.59712034
31	0x3e517c5c	0.20457596
32	0xbf1f2c20	-0.62176704
33	0x3f506791	0.8140803
34	0xbe6ca727	-0.23110639
35	0xbf0a3f60	-0.5400295
36	0x3f287e83	0.6581804
37	0xbe9768f0	-0.29572248
38	0x3e8ffb8f	0.2812161
39	0xbe9c452d	-0.30521527
40	0xbe5f8ae5	-0.21830328
41	0x3df5a126	0.11993627
42	0xbcecb69f	-0.028895674
43	0x3ef065d3	0.46952686
44	0xbdc45589	-0.09586627
45	0x3e8507a2	0.25982386
46	0x3e44eef0	0.19231772
47	0xbecbf661	-0.3983641
48	0x3e31159f	0.17293404
49	0x3df84219	0.12121982
50	0xbeac98d4	-0.3371035
51	0x3e2ba2d6	0.16761336
52	0x3f0349c7	0.5128445
53	0xbd490c88	-0.049084216
54	0x3ef77c16	0.48336858
55	0x3e9b1197	0.30286857
56	0x3e90dde5	0.28294292
57	0x3dbeebf0	0.09322345
58	0xbf026711	-0.50938517
59	0x3de937fb	0.113876306
60	0x3dbf5ad5	0.09343497
61	0x3f26a362	0.6509305
62	0x3eee1ebf	0.46507832
63	0x3eadca4c	0.33943403
64	0xbf0baae9	-0.54557663
65	0xbcb6dfda	-0.022323538
66	0xbf04679f	-0.51720613
67	0x40c446bd	6.133635
68	0xbecc2997	-0.3987548
69	0x3e7cdda3	0.24693923
70	0xbe08f3d4	-0.13374263
71	0x3faa0fde	1.3286092
72	0xbe1dfcdc	-0.1542849
73	0xbe118f2e	-0.14214775
74	0xbf1320e3	-0.57472056
75	0xbf2a12da	-0.66435015
76	0x3d4ffa59	0.05077586
77	0x3eace33a	0.3376711
78	0xbf216d82	-0.6305772
79	0xbcb130c7	-0.021629704
80	0xbec88805	-0.39166275
81	0xbe4ea484	-0.20179945
82	0x3f368066	0.7128967
83	0xbed91641	-0.4239979
84	0x3ed442ac	0.41457117
85	0xbc586314	-0.013207216
86	0x3ea35292	0.31898934
87	0xbf52ecf7	-0.8239283
88	0x3f35961b	0.7093217
89	0x3e039e03	0.12853245
90	0xbec48352	-0.3838144
91	0xbec0caec	-0.37654817
92	0x3ef4012e	0.4765715
93	0xbebdf886	-0.3710367
94	0x3f1c5ae9	0.6107622
95	0x3e87ab0c	0.26497686
96	0x3ede8108	0.43457818
97	0x3ebb09e4	0.36530983
98	0x3d668275	0.056276757
99	0x3f391f29	0.7231317
100	0x3ebd675a	0.36992913
101	0x3e39bd47	0.1813861
102	0xbed46858	-0.41485858
103	0xbcbe39f0	-0.023220986
104	0xbed8768a	-0.42277938
105	0x3d5cc524	0.053898945
106	0x3f08ddd9	0.5346351
107	0xbf104dc8	-0.56368685
108	0xbd72edfd	-0.059308995
109	0x3f39dfa0	0.7260685
110	0xbf59df4f	-0.85106367
111	0x3f508701	0.81456
112	0xbebcd41e	-0.36880583
113	0x3f6d7976	0.9276346
114	0x3e8ee37b	0.2790793
115	0x3e303d10	0.17210793
116	0x3eabfe0b	0.33592257
117	0x3e53a3c7	0.20667945
118	0x3ecd36ac	0.40080774
119	0x3d8c5e91	0.068539746
120	0x3e4e6a2a	0.20157686
121	0xbeb9eb8f	-0.3631253
122	0xbe35918e	-0.17731306
123	0x3d01e31f	0.03171074
124	0x3e943ccd	0.28952637
125	0xbeaea1ca	-0.3410781
126	0xbf4d2805	-0.8013919
127	0x3edad124	0.42737687
128	0xbf0cba09	-0.5497137
129	0xbf201a4a	-0.62540114
130	0xbdc04976	-0.093890116
131	0x3db6cd05	0.08925823
132	0x3ea876be	0.32903093
133	0xbe403d37	-0.18773352
134	0x3de3671f	0.11103653
135	0xbf1a81cd	-0.6035431
136	0xbe870432	-0.26370388
137	0xbec4e0cb	-0.38452753
138	0x3ee20f88	0.44152474
139	0xbcc3234c	-0.023820542
140	0x3ef10d63	0.47080526
141	0x4080f3c3	4.029756
142	0x3e7997a4	0.24374253
143	0x3f7fe45f	0.9995784
144	0x3f5388d7	0.82630676
145	0x3f90d02b	1.1313528
146	0x3f520a94	0.8204739
147	0x3f4fad65	0.81123954
148	0x3c17def8	0.0092694685
149	0x3da515d2	0.080608025
150	0xbeb53c7f	-0.35397717
151	0x3ea62578	0.3245046
152	0x3eab1c5e	0.3342008
153	0xbe34c1f6	-0.17652115
154	0xbca8cdee	-0.020606007
155	0x3e7c9fd0	0.24670339
156	0xbeb636dd	-0.35588732
157	0x3ea8063f	0.32817265
158	0xbeccd9eb	-0.40010008
159	0xbea7e403	-0.32791147
160	0xbcf3d5d1	-0.029765042
161	0x3ef18785	0.47173706
162	0xbf31505c	-0.69263244
163	0x3e9de37c	0.3083762
164	0x3ddf7ba2	0.10912253
165	0x3efad8a6	0.48993415
166	0xbd941147	-0.07229858
167	0x3ebf4868	0.3735993
168	0xbe80dd40	-0.251688
169	0xbc338f7f	-0.010959505
170	0xbeef1756	-0.4669749
171	0xbef49922	-0.4777308
172	0xbe23665b	-0.15957014
173	0xbf3553dd	-0.7083109
174	0xbe16077b	-0.14651291
175	0xbe9f89e7	-0.311599
176	0x3f1be78a	0.60900176
177	0x3ed6d2d8	0.41957736
178	0x3f3dd4df	0.7415294
179	0x3e26460b	0.16237657
180	0xbd37a09f	-0.044830915
181	0x3ed74fe5	0.42053142
182	0xbddc89a2	-0.10768439
183	0x3e399d10	0.18126321
184	0x3ddf6785	0.10908417
185	0xbf029553	-0.510091
186	0x3e7dcf2c	0.24786061
187	0xbedd55da	-0.43229562
188	0xbee38c47	-0.4444296
189	0x3d2f78e8	0.042839915
190	0x3c05c020	0.008163482
191	0x3e6090fd	0.21930309
192	0xbe213117	-0.15741383
193	0x3e2f5c95	0.17125161
194	0x3dc89a9d	0.09795115
195	0xbd589ee2	-0.052885897
196	0xbe70c19e	-0.23511359
197	0x3e5e66a0	0.21718836
198	0x3c31f92c	0.01086263
199	0x3a3c0ab5	0.00071732263
200	0x3f0caf76	0.5495523
201	0xbf1dcc18	-0.6163955
202	0x3e88de67	0.2673218
203	0x3f163059	0.5866752
204	0x3f24ffa8	0.644526
205	0xbdf074b6	-0.11741011
206	0x3ed13f0f	0.40868422
207	0x3f587647	0.84555477
208	0xbe1ea5ec	-0.15492982
209	0x3ed30c65	0.41220394
210	0xbed9551d	-0.4244775
211	0x3d00dc26	0.03145995
212	0xbf1cdf63	-0.6127836
213	0x3cb1003f	0.021606563
214	0xbeb46d82	-0.35239798
215	0xc09a3549	-4.8190045
216	0xbf05f853	-0.5233204
217	0xbfa0a44a	-1.2550137
218	0xbf38472e	-0.7198361
219	0xbeddd2d7	-0.4332492
220	0xbf36ff70	-0.71483517
221	0xbf3619b1	-0.7113295
222	0xbe2f24af	-0.17103837
223	0xbe518d5c	-0.2046408
224	0xbe6bc99b	-0.23026125
225	0x3ee2e183	0.44312677
226	0x3dd9ad6c	0.10628781
227	0xbf02ebab	-0.5114085
228	0xbea5f05e	-0.32409948
229	0x3e9d44fe	0.307167
230	0xbe965a9a	-0.29365999
231	0x3ef659c7	0.4811537
232	0xbef5ac59	-0.47983053
233	0xbe076547	-0.13222228
234	0xbcfb8c93	-0.03070668
235	0x3dd3fe36	0.10351221
236	0xbf05d653	-0.5228016
237	0x3effdbda	0.4997242
238	0xbe29e823	-0.1659246
239	0x3e98544a	0.29751807
240	0x3dfa1229	0.12210495
241	0x3e889c24	0.26681626
242	0xbc88bebd	-0.016692514
243	0x3e0fd6be	0.14046761
244	0xbea9c158	-0.33155322
245	0xbe9f8042	-0.3115254
246	0x3ca5d9a2	0.020245377
247	0xbf084451	-0.5322924
248	0x3d3e54cf	0.0464676
249	0xbe1387b1	-0.14407231
250	0x3ea56215	0.32301393
251	0x3efeb102	0.4974442
252	0x3eed5b24	0.46358597
253	0x3e60ebeb	0.21964996
254	0x3e89da16	0.269242
255	0x3d2b76e5	0.041861434

fc1.bias f4 [128]
0	0xbe031797	-0.12801968
1	0x3f53a59d	0.8267458
2	0xbf331060	-0.6994686
3	0xbf0843c8	-0.53228426
4	0x3d83fedf	0.06445097
5	0x3e442b1e	0.19157073
6	0xbc54a740	-0.012979329
7	0xbd27d057	-0.040970173
8	0xbe08953a	-0.13338175
9	0xbe3493a4	-0.17634445
10	0xbe68a839	-0.22720422
11	0xbe7ccd10	-0.246876
12	0xbef38e63	-0.4756957
13	0x3ec383b5	0.38186422
14	0xbe29f715	-0.1659816
15	0xbf529341	-0.8225594
16	0xbf1a17b5	-0.60192424
17	0x3e9d4bca	0.30721885
18	0xbf2621fb	-0.648956
19	0xbf0c94c6	-0.5491451
20	0xbe882ae7	-0.26595232
21	0x3ea6295e	0.32453436
22	0xbf257dd8	-0.6464515
23	0xbcc93e86	-0.024565946
24	0xbf3fcb35	-0.74919444
25	0xbdf7a701	-0.120924
26	0xbeb2e047	-0.34936735
27	0xbf82e3c3	-1.0225757
28	0xbf02aec2	-0.5104791
29	0xbf3a9da3	-0.72896785
30	0xbe8e92ec	-0.27846467
31	0xbf3c88bc	-0.7364614
32	0xbe2527d5	-0.16128476
33	0xbf864660	-1.0490227
34	0xbeb71655	-0.35759225
35	0xbf68e3a8	-0.90972376
36	0xbd5dc8da	-0.054146625
37	0xbf23a397	-0.63921493
38	0xbf505348	-0.8137708
39	0x3da6cb46	0.0814424
40	0x3e418915	0.18899949
41	0xbd607424	-0.05479826
42	0xbf97d7a9	-1.1862689
43	0x3efc06dc	0.49223983
44	0xbf34d778	-0.7064128
45	0x3ea955fc	0.33073413
46	0xbdd95844	-0.106125385
47	0xbd820a07	-0.06349569
48	0xbf5d3782	-0.86412823
49	0x3df649c7	0.12025791
50	0x3e0d6fa9	0.13812126
51	0x3d8d70bd	0.06906269
52	0x3e832670	0.25615263
53	0xbf7a0032	-0.9765655
54	0xbe2699b5	-0.16269572
55	0xbf468a92	-0.7755519
56	0xbe55759d	-0.20845647
57	0xbe459fad	-0.19299193
58	0xbf739c0e	-0.95159996
59	0x3d8be976	0.068316385
60	0x3f70a2fe	0.93998706
61	0xbe3e6351	-0.18592574
62	0xbe88f20c	-0.26747167
63	0xbf0d918d	-0.5530022
64	0x3eb5b630	0.3549056
65	0xbe01ebb4	-0.1268757
66	0xbf2b468a	-0.6690451
67	0x3d257852	0.04039795
68	0xbf2cd747	-0.6751599
69	0xbf7f259a	-0.9966675
70	0xbf8bf450	-1.0933933
71	0x3caed911	0.02134374
72	0xbf13eed3	-0.5778629
73	0x3d9c8a4e	0.07643567
74	0xbef7605c	-0.48315704
75	0xbf2cbd96	-0.67476785
76	0x3c69c7f2	0.014268862
77	0x3e93a9cc	0.28840482
78	0xbd814b75	-0.063132204
79	0xbf4b73ae	-0.7947339
80	0xbf225e3d	-0.63425046
81	0xbf4fe3bf	-0.8120689
82	0xbf38fcef	-0.72260946
83	0x3e9fae5e	0.3118772
84	0xbf3feb69	-0.7496858
85	0xbf2dbe97	-0.6786894
86	0xbbe3d338	-0.0069526695
87	0x3e19a208	0.15003216
88	0x3a1250cc	0.00055814977
89	0x3f625f04	0.8842623
90	0x3eea7f99	0.45800474
91	0x3d9c93a3	0.07645347
92	0xbf3cdb9c	-0.737726
93	0xbf62ece4	-0.88642716
94	0xbf15d8fd	-0.5853422
95	0x3e19cc24	0.1501928
96	0xbf330e46	-0.69943655
97	0xbe0d0bd9	-0.13774051
98	0x3ea21f26	0.3166439
99	0xbf6f9212	-0.9358226
100	0xbc346582	-0.0110105295
101	0xbf6d1dc8	-0.9262357
102	0x3ebf61bf	0.37379262
103	0x3e473270	0.19452834
104	0xbf355560	-0.70833397
105	0x3e0e55a2	0.13899854
106	0x3f3a2e4d	0.727269
107	0xbf78ca86	-0.97184026
108	0xbf46db41	-0.77678305
109	0xbe29b2f9	-0.16572179
110	0xbf7fbc45	-0.9989665
111	0xbe0c5d15	-0.13707383
112	0xbf5ccc27	-0.8624901
113	0xbf5dd2e5	-0.86649925
114	0xbf68dc80	-0.90961456
115	0xbf3b7b25	-0.7323478
116	0x3e2e6a12	0.1703265
117	0x3f3c0bb0	0.73455334
118	0xbe8c9c5e	-0.2746305
119	0xbde4dc9d	-0.11174891
120	0xbf83a12f	-1.0283564
121	0x3e9a97d0	0.3019395
122	0xbf2532b3	-0.64530486
123	0x3bbc11b9	0.0057394174
124	0xbf304f7a	-0.6887127
125	0x3cf64893	0.030063903
126	0xbf4111f0	-0.75417995
127	0xbf2a4400	-0.6651001

fc2.weight f4 [64, 128]
0	0xbf1b463c	-0.60654044
1	0x3afcf1cf	0.0019298139
2	0x3e816214	0.2527014
3	0x3e1fa4fd	0.15590282
4	0xbecf09fc	-0.40437305
5	0xbe8696c3	-0.26286897
6	0xbef79338	-0.48354506
7	0xbd9b55a3	-0.07584693
8	0xbeac70d4	-0.3367983
9	0xbe478262	-0.19483331
10	0xbe1fb916	-0.15597948
11	0xbd83040c	-0.06397256
12	0x3cb69110	0.022285968
13	0xbc1f0ed0	-0.009708121
14	0xbec2400d	-0.37939492
15	0x3e8f82d7	0.2802951
16	0xbe39daae	-0.18149826
17	0xbe95085c	-0.2910794
18	0x3eb671c0	0.3563366
19	0x3e0d3f50	0.13793683
20	0xbe946a8f	-0.28987548
21	0xbe845061	-0.25842574
22	0x3df2b373	0.118506335
23	0xbe43c92e	-0.19119713
24	0x3e99a931	0.30011895
25	0xbf060bd5	-0.52361804
26	0xbe027f4e	-0.12743875
27	0x3e077c56	0.13231024
28	0x3f044efc	0.5168302
29	0x3edaf530	0.42765188
30	0x3d85c470	0.06531608
31	0x3e94a3f9	0.2903135
32	0x3df57187	0.11984544
33	0x3ea1b6d5	0.31584802
34	0xbe659cfe	-0.22423169
35	0x3e48d0a7	0.19610845
36	0xbe3f9157	-0.18707787
37	0x3e1252e5	0.14289434
38	0x3c95446d	0.018221105
39	0xbe84c16a	-0.25928813
40	0xbec5659f	-0.38554093
41	0xbf10f4b1	-0.5662337
42	0x3e8dcc29	0.27694824
43	0xbda43a87	-0.08018976
44	0x3f190b07	0.5978245
45	0xbe9dec60	-0.30844402
46	0xbefae9e3	-0.49006566
47	0x3e30fd2c	0.17284077
48	0x3e79f789	0.24410833
49	0x3d57852c	0.052617237
50	0x3d3c0fe2	0.045913585
51	0xbe94ae8c	-0.2903942
52	0xbec49c77	-0.38400623
53	0x3e913993	0.28364238
54	0xbe24c20d	-0.1608965
55	0x3eb907bc	0.36138713
56	0x3ea9a1da	0.33131295
57	0xbe0ab47a	-0.13545409
58	0x3e28e9f7	0.164955
59	0xbeb79b4a	-0.35860664
60	0xbf065a47	-0.524815
61	0xbdbda20f	-0.09259426
62	0x3e85aaa2	0.26106745
63	0x3e18966d	0.14901133
64	0xbd51d3ae	-0.051227264
65	0xbabf9b2b	-0.0014618387
66	0xbd83acd6	-0.0642945
67	0xbf1a8825	-0.6036399
68	0xbd7e6a4f	-0.062113103
69	0x3e4d5a24	0.20053917
70	0x3e895484	0.26822293
71	0xbe54ac06	-0.20768747
72	0x3e30431c	0.172131
73	0xbe6f6e94	-0.23382026
74	0x3d1aec08	0.037822753
75	0x3ec0c2a2	0.37648493
76	0x3e1c4d43	0.15263848
77	0xbe2c0a91	-0.16800906
78	0x3e9efe82	0.3105355
79	0x3e6ac827	0.22927915
80	0xbe446877	-0.19180475
81	0x3e2707d5	0.16311581
82	0x3e258d48	0.16167176
83	0xbebf4159	-0.37354544
84	0xbdc7a6f1	-0.097486384
85	0xbd69264e	-0.056921296
86	0xbee49466	-0.4464447
87	0xbef5c6f0	-0.4800334
88	0xbe03b399	-0.1286148
89	0xbdf2f1c1	-0.11862517
90	0xbd052590	-0.032506526
91	0x3dbdf01f	0.09274315
92	0xbdfe13fc	-0.124061555
93	0x3ec94dab	0.39317068
94	0x3d3d17c5	0.046165247
95	0xbe5aebc0	-0.21378994
96	0x3e5be9e8	0.21475947
97	0xbde65eaa	-0.112485245
98	0xbe4e3cd5	-0.20140393
99	0x3e18aa4a	0.1490871
100	0xbe0b3747	-0.13595305
101	0x3cbba24b	0.022904536
102	0x3cc6bee0	0.024260938
103	0xbebbb195	-0.36658922
104	0x3ead3c48	0.33835053
105	0x3ea4a852	0.32159668
106	0xbe5947c8	-0.21218789
107	0x3e964055	0.29345956
108	0x3e81c33b	0.25344262
109	0xbe8055dd	-0.25065508
110	0x3de09a3d	0.109669186
111	0xbf0f5ce8	-0.5600114
112	0x3e4fae15	0.20281251
113	0x3e903a5d	0.28169528
114	0x3e5c6656	0.21523413
115	0x3e939cbf	0.28830525
116	0xbec10558	-0.3769939
117	0xbf0c70bb	-0.54859513
118	0x3e97c5f4	0.29643214
119	0xbe0396eb	-0.1285054
120	0x3f0287c6	0.50988424
121	0xbe782a44	-0.24234873
122	0x3e603fa7	0.21899281
123	0x3d60939f	0.054828282
124	0x3d041848	0.03224972
125	0x3e9dd39d	0.3082551
126	0x3e8be638	0.2732408
127	0x3e02fd4e	0.1279194
128	0xbe9998ba	-0.29999334
129	0xbe394d20	-0.18095827
130	0x3e9610f4	0.2930981
131	0x3ea6db14	0.32589018
132	0xbddb70f6	-0.10714905
133	0x3d9e6e62	0.077358976
134	0xbe9903dd	-0.2988576
135	0x3bc7cf1b	0.006097687
136	0xbd4a5574	-0.0493979
137	0x3e5c04e8	0.21486247
138	0xbe07ce43	-0.13262276
139	0xbe16accc	-0.14714354
140	0x3e322c7f	0.17399786
141	0xbd61e78d	-0.055152465
142	0xbe921326	-0.28530234
143	0x3ec2d08c	0.38049734
144	0xbeb14834	-0.346254
145	0xbe14db06	-0.14536676
146	0xbd476f5c	-0.048690185
147	0xbea542f3	-0.3227764
148	0x3e25ed9d	0.16203924
149	0xbe61aa24	-0.2203756
150	0x3e9caa30	0.30598593
151	0x3da617be	0.08109997
152	0xbe4038b8	-0.18771636
153	0xbe974fd8	-0.29553103
154	0x3d90b04c	0.07064876
155	0x3e06fe51	0.13182952
156	0x3e9c3538	0.30509353
157	0xbd84419b	-0.06457826
158	0xbe99fcb1	-0.300756
159	0xbe0fbe9d	-0.14037557
160	0x3df545d0	0.11976206
161	0x3e8ababb	0.2709559
162	0xbd327eac	-0.043577835
163	0x3e4df62d	0.2011344
164	0x3e3fd50b	0.18733613
165	0xbe684a52	-0.22684601
166	0xbea18e94	-0.3155409
167	0x3de74dd9	0.11294145
168	0xbc37f116	-0.011226913
169	0xbe92b83e	-0.2865619
170	0xbd2e1213	-0.042497706
171	0x3e3a0391	0.18165423
172	0xbdcfc93a	-0.10145803
173	0xbea42e90	-0.32066774
174	0xbe98095c	-0.2969464
175	0x3e592cb0	0.21208453
176	0x3e5d1367	0.21589433
177	0xbda1b474	-0.07895747
178	0xbd5857a0	-0.05281794
179	0x3dfffafe	0.12499045
180	0x3d16cefd	0.036818493
181	0x3d13e1d0	0.036104023
182	0xbe8f4380	-0.27981186
183	0xbe17fa4d	-0.14841576
184	0x3c3c94c2	0.011510076
185	0x3d70efb0	0.058822334
186	0x3dcfb538	0.101419866
187	0x3e2e5b66	0.17027053
188	0xbeaf55c3	-0.34245118
189	0xbe2cab28	-0.16862166
190	0x3e0437dd	0.12911935
191	0xbe9ebd86	-0.3100397
192	0xbdf7feb8	-0.121091306
193	0xbc1f6c16	-0.00973036
194	0xbe144293	-0.14478521
195	0xbe2c16fb	-0.16805641
196	0xbd3ab3af	-0.045581516
197	0x3cbf20d5	0.023331085
198	0xbd7f03d5	-0.062259514
199	0x3d49a0fb	0.04922579
200	0x3e7b3678	0.24532497
201	0x3c951edb	0.01820319
202	0xbe071040	-0.13189793
203	0xbd926ee1	-0.07150055
204	0x3e1365de	0.14394328
205	0xbe86e7ac	-0.26348627
206	0x3f10c6fb	0.5655362
207	0x3e76d1f3	0.24103527
208	0xbed0891c	-0.40729606
209	0x3e8512e9	0.2599099
210	0xbdab7db0	-0.08373582
211	0xbeacf828	-0.33783078
212	0xbeb270c5	-0.3485166
213	0xbe9dfd79	-0.30857447
214	0xbe27fc83	-0.1640492
215	0xbe2c744a	-0.16841236
216	0x3e328949	0.17435183
217	0xbe5133dc	-0.20429939
218	0x3e0f31f2	0.13983896
219	0x3de4e625	0.11176709
220	0xbe8e166d	-0.27751485
221	0x3ec0e503	0.37674722
222	0xbeb9573b	-0.36199364
223	0x3e0a3377	0.13496195
224	0x3ea249e5	0.31697002
225	0xbd939a7d	-0.07207201
226	0xbe8130b6	-0.25232476
227	0x3d2eaae9	0.04264346
228	0x3e4c013b	0.19922344
229	0x3e1f32b2	0.15546682
230	0x3dd82951	0.105547555
231	0xbcf50765	-0.029910753
232	0xbe3a15ba	-0.1817235
233	0x3eef6162	0.46753985
234	0x3d807d7c	0.06273934
235	0x3e7cc827	0.24685727
236	0xbe577bc4	-0.21043307
237	0xbe81e73f	-0.2537174
238	0x3dd51dcb	0.10406073
239	0xbec48644	-0.38383687
240	0x3d0e3531	0.034718696
241	0x3de80abe	0.11330174
242	0x3e9aa0b1	0.30200723
243	0xbe317fe4	-0.17333943
244	0xbe883a66	-0.26607054
245	0xbe3097d1	-0.17245413
246	0x3e899043	0.26867875
247	0xbd5f2521	-0.05447877
248	0x3ee19cb6	0.44064873
249	0xbe468089	-0.1938497
250	0x3ea3099c	0.3184327
251	0xbe247a5f	-0.16062306
252	0x3d4a2176	0.049348317
253	0x3ee1932a	0.4405759
254	0xbc83e803	-0.016101843
255	0xbdc022c8	-0.09381634

fc2.bias f4 [64]
0	0xbf02d5bc	-0.5110738
1	0xbf888579	-1.0665733
2	0xbf208901	-0.6270905
3	0xbf3ba870	-0.7330389
4	0xbf07a666	-0.5298828
5	0xbf0ba65e	-0.5455073
6	0xbec9d557	-0.39420578
7	0xbf4654a6	-0.77472913
8	0xbe401698	-0.18758619
9	0xbe46d724	-0.19418007
10	0xbeff60a2	-0.49878412
11	0xbf1a2661	-0.6021481
12	0xbf890910	-1.0705891
13	0xbec1a5a1	-0.37821677
14	0xbf03fa7a	-0.5155407
15	0xbf43e50f	-0.7652139
16	0xbeb1f273	-0.34755287
17	0xbeffad9a	-0.49937135
18	0xbe9b8fbe	-0.30383104
19	0xbf28f265	-0.65994865
20	0xbf32d15b	-0.698507
21	0xbe8f8e3b	-0.280382
22	0xbeb198ab	-0.3468679
23	0xbf2b5c12	-0.66937363
24	0xbf03ffa1	-0.51561934
25	0xbf245d51	-0.6420489
26	0xbedeea56	-0.4353816
27	0xbec9b4a9	-0.39395645
28	0xbee5db39	-0.44893816
29	0xbf5e45b2	-0.86825097
30	0xbf04124b	-0.5159041
31	0xbf5b9df4	-0.8578789
32	0xbf263e27	-0.64938587
33	0xbef7ce72	-0.48399693
34	0xbdd883a5	-0.10571984
35	0xbef0df96	-0.47045583
36	0xbf52c7c7	-0.82336086
37	0xbeb5e53c	-0.35526454
38	0xbf043a07	-0.5165104
39	0xbf21f8f5	-0.63270503
40	0xbf18e861	-0.5972958
41	0xbf0ec56a	-0.5576998
42	0xbf0cb4ae	-0.54963195
43	0xbf4977c5	-0.7869838
44	0xbea066a9	-0.31328323
45	0xbf8aac85	-1.0833899
46	0xbe027c81	-0.12742807
47	0xbf0aafe1	-0.5417462
48	0xbf19f56e	-0.6014012
49	0xbefc9905	-0.49335495
50	0xbf2252d0	-0.6340761
51	0xbeb548d9	-0.3540714
52	0xbeae1766	-0.34002227
53	0xbe894f50	-0.26818323
54	0xbe8c7d17	-0.27439186
55	0xbed21dcd	-0.4103836
56	0xbee1319e	-0.43983167
57	0xbfc902ab	-1.5703939
58	0xbea096d8	-0.31365085
59	0xbf20e0ec	-0.62843204
60	0xbf4288b7	-0.7598986
61	0x3e2c2939	0.168126
62	0xbf5de25e	-0.86673534
63	0xbcefebd4	-0.029287256

fc3.weight f4 [1, 64]
0	0xbe0d173b	-0.13778393
1	0x3dadef45	0.08492903
2	0xbdfcac25	-0.123375215
3	0x3d437bd5	0.047725517
4	0xbd7bb38e	-0.061450534
5	0x3cd9aebf	0.026572583
6	0xbd1a0596	-0.037602983
7	0xbd57ae42	-0.05265642
8	0xbe4568b2	-0.1927822
9	0x3e447760	0.19186163
10	0xb887b828	-6.4716034e-05
11	0x3c0d7300	0.008633375
12	0xbd55687d	-0.0521016
13	0xbe96c827	-0.2944958
14	0xbda166a9	-0.07880909
15	0xbdfd1f1d	-0.1235945
16	0xbe40505f	-0.18780659
17	0x3d91a1d8	0.07110947
18	0xbc0a4d0e	-0.008441223
19	0xbd8ef99b	-0.06981202
20	0xbda83c8b	-0.08214673
21	0xbda718ec	-0.0815905
22	0xbd1286a5	-0.03577294
23	0xbdd8c2d1	-0.10584033
24	0x3d2ee152	0.04269535
25	0xbd0083cc	-0.03137569
26	0xbd7b9031	-0.06141681
27	0xbe4591b1	-0.19293858
28	0xbcf7df80	-0.03025794
29	0x3d0aa1ec	0.033845827
30	0xbcadd07c	-0.021217577
31	0xbc8a5f3b	-0.016891113
32	0xbdcf7850	-0.1013037
33	0xbe29aaa2	-0.16568998
34	0x3e3193aa	0.17341486
35	0xbd468c7d	-0.048473824
36	0x3d557b35	0.052119453
37	0xbda74a43	-0.08168461
38	0xbcbfc305	-0.023408422
39	0xbd6d1806	-0.05788424
40	0xbda18d21	-0.07888246
41	0xbe078fc0	-0.1323843
42	0x3baeacd5	0.005330662
43	0xbdd2f397	-0.10300367
44	0xbe1ca3bd	-0.15296836
45	0xbdeab0d1	-0.11459506
46	0x3de2cb50	0.11073935
47	0x3d0b2b01	0.03397656
48	0x3ca937f2	0.02065656
49	0xbdf7725f	-0.120823614
50	0xbe43e222	-0.19129232
51	0xbdec6051	-0.115418084
52	0x3d4d834a	0.050174035
53	0xbe4fcba3	-0.20292525
54	0xbe5e4527	-0.21706067
55	0xbd4b597a	-0.04964588
56	0xbcbdf33e	-0.023187276
57	0xbdaf2b14	-0.085531384
58	0xbde20d9e	-0.110377535
59	0x3c1cffd6	0.00958248
60	0xbdedeb93	-0.11617198
61	0x3e2976a1	0.1654916
62	0xbd02bc36	-0.031917773
63	0x3e3a251a	0.18178216
