models/0_2023_2023/Postal_GAT/75.pth (torch, 96722 bytes, 13 tensors)

conv1.att_src f4 [1, 8, 8]
00000000: 52c4 91bc 0b6a cebc 1dc1 89bc f8b4 92bc
00000010: b316 a6bc 2cd1 edbc 881c 7bbc 3a00 683c
00000020: 96b1 8f3e 3bd3 153e c6d0 1dbd d9b5 663e
00000030: 50db 97bd 2d91 8cbd 7204 1c3e 7901 f1bd
00000040: 1c09 9d3b 0b38 ee3b 003f ff3b 39fb d63b
00000050: 02c7 99bb e9f6 04bc 2586 abbc d527 08bc
00000060: 43a8 20bc f535 96bb 8cdf 10bc 4b4c 2bbb
00000070: 7009 ddbb 0931 88ba 6627 1c3c 010f 68bb
00000080: 9902 9abc 9bda d4b9 d21f 1dbc b0a5 73bb
00000090: 5738 f0bb c6de 02bc 3b3a 17bb a514 4ebc
000000a0: 833d cfbe 4309 373f 3402 1bbf 3118 e43f
000000b0: 5ae7 163f 7928 b03e 9ee6 9cbe e59d 073e
000000c0: 5461 353d 8ad0 f03c 1881 963d a1b4 ebbd
000000d0: cbd1 4fbe 50be 943d 859e 5cbc 625d 1d3e
000000e0: 72ee ebbb 3444 143f de21 48be 3fa1 04be
000000f0: c238 423c bccc a6bb a09f 55be 232a ae3e
-0.017793808 -0.02519705 -0.016815716 -0.017908558 -0.020274496 -0.029030405 -0.015326627 0.01416021
0.28065175 0.1463136 -0.03852918 0.22530307 -0.074148774 -0.068636276 0.15236071 -0.11767859
0.0047923457 0.0072698644 0.0077894926 0.00656071 -0.004692913 -0.008115509 -0.020937989 -0.008310278
-0.009805742 -0.004584069 -0.00884236 -0.0026138003 -0.00674551 -0.001039059 0.009530878 -0.0035409334
-0.018800067 -0.00040598665 -0.009590106 -0.0037177615 -0.007330935 -0.007987684 -0.002307548 -0.012578164
-0.40476617 0.7149851 -0.60550237 1.7819883 0.58946764 0.34405878 -0.30644697 0.13243826
0.044282272 0.029396314 0.073488414 -0.115090616 -0.20294873 0.07262862 -0.013465528 0.15367654
-0.0072000558 0.5791657 -0.1954417 -0.12952136 0.011854352 -0.005090324 -0.20861673 0.34016523

conv1.att_dst f4 [1, 8, 8]
00000000: 4063 95bc 9e45 273c 264a a8bb 8e77 0abc
00000010: c7fb 9b3c a235 c53c 5ded da3b 3bbd 893c
00000020: e731 8abf e3fc d1bd 90b5 50be 0b54 4bbf
00000030: f7ad b8bd dcbc 303d 0446 f7be b8f2 643e
00000040: 851b 393c 5f35 cc3b ae75 af3b 0213 8e3a
00000050: b238 9436 e733 f0bb 4ed0 73bc 595e 823b
00000060: 2dbb b6bc 2271 a038 7d22 a6bc a1b1 b9bc
00000070: c050 88bc fd12 a3bc 3f97 c03c 2065 17bd
00000080: e90a af3b 966f 1437 81d6 7e3b de60 bcba
00000090: 076d 343c 2898 1b3c 81f6 883a 0c08 293c
000000a0: f13f c9be fbaf b6be 7ac8 b1be 7af7 3fbe
000000b0: 79e0 86be 97ab 52be 46fa 093e 9f90 ad3e
000000c0: 3ddc e9bd f3fc ac3d 21a7 a0bd f7f6 51bd
000000d0: 7cc5 203d 7b63 c7bd e7eb a2bd 7fad 94be
000000e0: af00 7dbe 7a0a 12be 7ec8 8bbe db85 803d
000000f0: 9786 99be 1429 bfbd fd04 9fbe 3b08 02bf
-0.018235803 0.010209469 -0.0051357923 -0.008451356 0.019040955 0.024073426 0.006681128 0.016813865
-1.0796479 -0.102533124 -0.2038176 -0.79425114 -0.09017556 0.04314886 -0.48295605 0.22358215
0.011298065 0.0062319483 0.0053546047 0.0010839405 4.417344e-06 -0.007330406 -0.014881207 0.0039785323
-0.02230605 7.650467e-05 -0.020280117 -0.022667708 -0.016640067 -0.019906515 0.02350962 -0.036961675
0.0053418768 8.847468e-06 0.0038885179 -0.001437213 0.011012322 0.009496726 0.001044944 0.01031686
-0.39306596 -0.35681137 -0.34723264 -0.18746749 -0.26343134 -0.20573269 0.13474378 0.338994
-0.1141896 0.08446684 -0.07844377 -0.051260915 0.039250836 -0.09735771 -0.07955151 -0.29038617
-0.24707292 -0.14261809 -0.273014 0.06275531 -0.29985496 -0.09334007 -0.31058493 -0.5079381

conv1.bias f4 [64]
00000000: ac7e debb 4491 4bbc 5036 833b 041f 11bc
00000010: b917 57bc 70d6 29bb 2219 1dbc e039 03bc
00000020: decc 6fbe 5de8 b5be 64ca 4ebe b257 11be
00000030: 62a4 883d 6f13 8bbd 11df a0be 2f9a 823e
00000040: f275 2d3b e6cc 01bb 9321 b8bb 39d5 5cbb
00000050: e9f9 eeba c388 47bb 476e 11bc 1c9e 26bc
00000060: 3531 4ebc 6ecb 3abc 866c febb 36a3 90bc
00000070: 1905 11bc 6467 0fbc c5b5 af3b 095b 9abc
00000080: f2c5 f93b a959 86bb c170 29ba 8eda 5bbb
00000090: c856 b4bb eb31 6fba 42e9 a5bc ae2a 7cbb
000000a0: cbc5 a0be 7ffc 68be 6306 a7be 35dc 9cbe
000000b0: 2427 80bd bf6a 71be 5bcd 8e3e e4b0 193e
000000c0: f513 a4bd c195 45bd 5d1e 15be 33a7 16be
000000d0: fad9 23be 5638 9fbd b603 fcbd db72 333c
000000e0: e468 14bf f65b a4bd 7b34 713e c808 5e3e
000000f0: 169f 5bbe ac86 f83e 6aab c9bd 00c2 573d
-0.006790003 -0.012424771 0.0040042773 -0.008857492 -0.0131282145 -0.0025915168 -0.009588512 -0.008009404
-0.23417994 -0.35528842 -0.20194393 -0.1419361 0.066719785 -0.06790816 -0.31420186 0.25508258
0.0026468006 -0.0019805967 -0.0056192367 -0.0033696427 -0.0018232438 -0.0030446507 -0.00887639 -0.010169532
-0.012584974 -0.0114010405 -0.007764402 -0.01765595 -0.008851313 -0.008752678 0.005362245 -0.018842237
0.007622474 -0.004100044 -0.000646364 -0.0033547017 -0.005503509 -0.0009124565 -0.020252828 -0.0038477588
-0.31400904 -0.2275257 -0.3262206 -0.30636755 -0.062574655 -0.23575877 0.2789105 0.15008885
-0.08011619 -0.04823852 -0.14562364 -0.14712219 -0.1600112 -0.07774417 -0.12305395 0.010952677
-0.5797255 -0.08025353 0.23555176 0.21683037 -0.21447405 0.48540246 -0.09847148 0.052675247

conv1.lin.weight f4 [64, 12]
00000000: 7752 04bc ef34 ecbb c6fa c4bb 912b 39bc
00000010: 10b6 333c b32a b03c fa77 d7ba 6c5d a13d
00000020: 45a9 533d d8bb 093e 40fd 5fbd 4d1b 10bd
00000030: fc04 aabc 4e00 8ebb fc63 cfbb f736 d6bb
00000040: c93c 02bc f610 b93b 6294 fc3c 1961 b4bc
00000050: abed ef3c 8687 ba3b 0318 823b 5c6e 0bbc
00000060: 8592 8cbc 1f80 8d3b 76bf 463b 7b13 9bbb
00000070: ac4f 3c3c c07e fcbc f847 b73c fa12 f9bb
00000080: 10c6 293d b878 31bd 2003 cc3d 7f75 7bbd
00000090: f27e 9cbc d1d1 f7bb 47de efbb 8172 8abb
000000a0: d527 553b 5c94 18bb 8cc0 163b 65a6 babc
000000b0: 9d4d 083c 0dd1 293d 1222 be3d 32cd 033c
000000c0: 1b81 b0bb 1ab5 2cbc df58 4dbc 70eb 2fbc
000000d0: b40e 44bb a74a 0b3c 419d ae3c dff2 d63c
000000e0: 771b 9c3c 857e 013d 2823 063d 9fcf 9abb
000000f0: 4b09 98bc e496 2dbb 5e35 e9ba f912 cbbc
00000100: 4a72 c1bc 936e 7f3c c41e d63c c137 4dbd
00000110: a736 183d 3b6e dbbc 1df7 1abc 33c9 6bbc
00000120: 8679 afbb cdb3 8fbb 5bc9 b9bb a003 05bc
00000130: 24a6 8dbb 4f4c ffbb 66aa 1dbc 18a6 fa3c
00000140: 09b4 103c a0e1 f43c be2d f43b 61f5 0bbd
00000150: 6efd 86ba b5ae 41bc ab2e 1ebc b015 dabc
00000160: ec26 183b a604 6dbc 96d6 513b 8628 8f3d
00000170: ae27 033c 10f2 e33d ec0f 7d3c a7e2 babb
00000180: a3de a23e 1b8d 80be ea11 74be 7e9a 23be
00000190: 80cc 8dbf fd47 963d c59a c6be 2728 76bf
000001a0: b479 b73d d579 763f fe77 4f40 a87a 38bf
000001b0: 84f7 1d3d d7cb 87be ae71 89be b32f 0bbd
000001c0: b5c4 cabe 781d 0740 4c58 a13f 195a 113f
000001d0: de4d 5bbe 2808 1440 6ad1 cfbf 625f 033c
000001e0: 39b7 d4bd 73a1 03be 28ce 08be e404 83bd
000001f0: 014b f53d 3613 ac3e 2a79 983f b27d d6be
00000200: 20af c53c ab5f fa3e df38 6cc0 7d09 94bf
00000210: 8030 7f3e 6577 13be fee8 0ebe fb4b 8cbd
00000220: 9c79 12bf be49 c0bf 6f1f 323e f50d 8abe
00000230: 6d93 c93d 5dff 9f3f 4f66 5140 d8c2 f23f
00000240: d062 0d3d 8618 183e 619b 343e 1451 d5bc
00000250: 5448 ebbe 09bb 8540 6e08 3540 cd9f a9be
00000260: 4e10 d4bf 2d74 e8bf 886a 5dc0 4ac6 b7c0
00000270: b49e 82bd e7ba 90bd 012c 7cbd 0ee7 84bd
00000280: e4a6 303f e03b 673f d505 df3d db50 ab3f
00000290: bb6d bd3e a77c b33c a4fc b140 9c22 4bbf
000002a0: 13ab 3e3e f7a2 a4be 277a a1be a020 21bd
000002b0: 3fa0 5f3f c61c 283f cb53 9b3f 5272 7cbf
000002c0: fca2 a83d 1d8c 1340 6429 963f 0139 1bbf
000002d0: b343 52be 43df 823e ce02 763e a7e8 09bc
000002e0: a4aa 88c0 29a3 cc3f d6b9 53bf c9bd 56bd
000002f0: 3d12 4bbf eb38 09bf c1ce 7bc0 95b6 52bc
00000300: 0977 7abc ca36 4b3b 428b 963b 9a6b 09ba
00000310: 437b 653b 645a 0ebc d9df 9a3c 087c 3ebb
00000320: 01b2 aabb ee09 733d 7647 fe3c f528 e5b9
00000330: aa03 753a 78b6 81b9 0aae 3bbb 6492 bbba
00000340: 742e adba d402 4ebc a8ac 6fbc 5e5a ceba
00000350: 45fe 35bb e21d cdbb 1fe7 69bd b70d 10bc
00000360: 229d 5138 fcc1 b8bb 7793 ccbb 4e5f debb
00000370: 7892 96bb 1459 603d 0d41 a83a 3328 11ba
00000380: ee57 a73c d806 2dbb a1c7 15bd 0db8 febc
00000390: 8a37 8eba b267 4dbb 2784 0ebb edd2 96bb
000003a0: d0c8 89bc 173d c4bc f862 10bd da39 6ebc
000003b0: 53b0 1ebb 0e61 513c ff70 8dbc 74d7 9dbc
000003c0: 7a1f b5bb ba5c 14bb 25c1 abba 6e44 5cba
000003d0: 91fe f73b e0a2 243c 9dc4 0b3b 48ce 653a
000003e0: 2db6 813b e520 b2bb 416f 873d 3519 14bc
000003f0: 682a 0cbc 5776 8ebb 6184 8bbb c53d 8bba
-0.008076302 -0.0072084586 -0.00601134 -0.011301891 0.0109687 0.021504736 -0.0016438954 0.07879147
0.0516751 0.13450563 -0.054684877 -0.035182286 -0.02075433 -0.0043335324 -0.0063290577 -0.006537314
-0.007949063 0.005647774 0.030832473 -0.022018956 0.029288134 0.005692425 0.0039701476 -0.008510198
-0.01715971 0.0043182517 0.0030326522 -0.004732547 0.011493605 -0.030822158 0.022373185 -0.007601139
0.041448653 -0.043328017 0.099615335 -0.06139135 -0.019103501 -0.007562854 -0.0073201987 -0.0042250757
0.0032524962 -0.0023281788 0.002300295 -0.022784421 0.008319286 0.041459132 0.09283842 0.008044528
-0.0053864843 -0.010541225 -0.012533396 -0.010737285 -0.002991599 0.008501685 0.021315219 0.026238857
0.019056065 0.0316148 0.03274837 -0.0047244574 -0.018559119 -0.0026487643 -0.0017792394 -0.02478932
-0.023614068 0.015590328 0.026137717 -0.050102 0.037161496 -0.02678596 -0.00945833 -0.014391231
-0.005355063 -0.0043854476 -0.0056697554 -0.00811854 -0.004322784 -0.007791079 -0.009623146 0.030596778
0.008831986 0.029892743 0.007451742 -0.03416956 -0.0010298917 -0.011821439 -0.009654681 -0.02662167
0.0023216559 -0.01446644 0.0032018772 0.06990151 0.008005066 0.11130154 0.015445691 -0.0057032886
0.31810483 -0.25107655 -0.23834959 -0.15976903 -1.1078033 0.073379494 -0.38789955 -0.9615502
0.0895876 0.9627965 3.2416987 -0.7206216 0.038566127 -0.26522705 -0.26844543 -0.033981036
-0.396032 2.1111736 1.2605071 0.56778103 -0.21416423 2.3129978 -1.6235783 0.0080183465
-0.103865094 -0.12854557 -0.13359892 -0.06397417 0.119771965 0.33608407 1.1911976 -0.41892773
0.024131358 0.48901114 -3.6909711 -1.1565396 0.24920845 -0.14401014 -0.13956067 -0.068504296
-0.5721681 -1.5022504 0.17394803 -0.26963773 0.09842572 1.2499806 3.2718694 1.8965712
0.034518063 0.14853105 0.17637397 -0.026039638 -0.4595362 4.1790814 2.8286395 -0.3312973
-1.6567476 -1.8160454 -3.4596272 -5.742955 -0.063779265 -0.07066899 -0.061565403 -0.06489383
0.69004655 0.90325737 0.10889784 1.338405 0.3699778 0.021910025 5.56209 -0.79349685
0.18619947 -0.32155582 -0.31538507 -0.039337754 0.8735389 0.65668905 1.2134947 -0.9861194
0.08234212 2.3054268 1.1731381 -0.60633856 -0.20533638 0.2556096 0.24024507 -0.008417285
-4.27083 1.5987293 -0.8270544 -0.052427087 -0.79324704 -0.53602475 -3.9344943 -0.012860914
-0.015287169 0.0031007999 0.0045942375 -0.0005242169 0.0035016097 -0.008688543 0.018905567 -0.0029065628
-0.005209208 0.05933564 0.031039935 -0.000437088 0.0009346554 -0.00024740747 -0.002863767 -0.0014310596
-0.0013212697 -0.012573916 -0.014628567 -0.0015743484 -0.0027769965 -0.006259666 -0.05710518 -0.008792332
4.9975824e-05 -0.005638359 -0.006243165 -0.0067862635 -0.004595097 0.05477245 0.001283677 -0.0005537301
0.02042767 -0.0026401784 -0.036567334 -0.031093622 -0.0010850292 -0.0031342325 -0.002174625 -0.004602781
-0.016819388 -0.023954911 -0.035250634 -0.01454016 -0.0024213984 0.012779487 -0.017265795 -0.019267775
-0.005527434 -0.0022638277 -0.0013103826 -0.0008402531 0.0075681885 0.010048598 0.0021326907 0.0008766395
0.0039584846 -0.0054360502 0.06613017 -0.009039213 -0.008555032 -0.0043476033 -0.004257724 -0.0010623267

conv2.att_src f4 [1, 8, 8]
00000000: 6f00 e33e bf23 273e c95d f73d 933e abbf
00000010: ea53 a33d 7483 483f 9983 363f 9380 80be
00000020: d932 8c3d 1c7e 6ebe f956 35be f6d5 1e3f
00000030: 14cd 5e3d bc77 bb3e 0dea afbe 3285 683e
00000040: d661 64bf 1f45 5dbe 3c71 473e 5bd8 dabd
00000050: 0fb0 aebe 8028 b23d 44b6 4bbe 8fa2 d53d
00000060: ea92 9abf 596e e93d 4faa 0abf 2987 533e
00000070: a1f0 8fbe 6185 c7be 0142 313f 1567 093f
00000080: d675 00bf 5c58 8abc 00d8 07bf a260 f33d
00000090: 576b 243f 738b 443e a5a0 12bd a720 123f
000000a0: f9e9 33be 5b43 0abf 0326 b7bd 8018 98be
000000b0: fa1e 49bb 980a fd3a 10d1 d63d 53b0 47bc
000000c0: ea24 ca3e fcd8 2c3e 5e50 9dbc 6c6b d33c
000000d0: 2350 0f3f 7ea9 a7be f1cb 4bbb 3410 0c3f
000000e0: 1caf 00be 3c56 863c c93c 07be c7fa 9d3e
000000f0: 0c53 973e 64a4 a2be 18cf d6be 1c66 9f3f
0.44336268 0.1632223 0.12078435 -1.3378471 0.0797499 0.7832558 0.7129455 -0.25098094
0.06845636 -0.23290294 -0.17708959 0.6204523 0.054394796 0.36614788 -0.34358254 0.2270706
-0.89211786 -0.21608399 0.19476789 -0.10685798 -0.34118697 0.08699131 -0.19893748 0.10431396
-1.2076085 0.11398 -0.5416612 0.20657028 -0.28113273 -0.38968948 0.6924134 0.53672916
-0.50179803 -0.016887836 -0.53063965 0.118836656 0.6422629 0.1919382 -0.035797734 0.57081074
-0.17569722 -0.54009026 -0.08942797 -0.29706192 -0.003068863 0.0019305525 0.10489094 -0.012188035
0.39481288 0.16879648 -0.019203361 0.025808059 0.55981654 -0.327465 -0.00310969 0.54712224
-0.12566799 0.016398542 -0.13206781 0.3085539 0.29555547 -0.31766045 -0.41954875 1.2453036

conv2.att_dst f4 [1, 8, 8]
00000000: 2172 00bf 8496 09bf 45cf 20be 50f6 b93e
00000010: 2f42 3b3e 733a 4cbe 1272 0fbf 66d0 ddbd
00000020: cce9 423e 09ae 0bbf d004 e8bd 5038 c3bd
00000030: 14cd 7dbb 2a84 8a3e ffe2 963e 854d a53e
00000040: 2424 b4be a949 923c cb0c a5bc 7296 a03c
00000050: 0576 bbbd f9eb 15be 5572 6dbd aab2 2ebd
00000060: 6bb2 b63d 74c3 163f cf0f 5b3f 144c 6d3f
00000070: f087 b3be fe54 b3be a9f4 2fbf 59a8 0fbe
00000080: ba15 32bc 66e1 fe3e 9b59 67bd 8a4b 24bd
00000090: bc98 ab3e fb70 063e 4ec2 50bd 4a3f 833e
000000a0: 1e57 aa3b c5b6 8a3e 293c ffbe 93d6 683e
000000b0: 123e a33d ddfb a03b b9d1 1abd c8d5 a53d
000000c0: 3bf1 673e f66f 5b3d 08f0 01bd 855a 04bf
000000d0: 4d4a 5fbe 9bf3 803e 2f5b 60be e432 c5be
000000e0: 838f e5bc aa50 2f3f 1c50 5abf bf5b fc3e
000000f0: f6cd 1d3f 0806 86be 0aa1 b23e b953 4c3f
-0.50174147 -0.53745294 -0.15704067 0.36320734 0.18286966 -0.19944172 -0.5603343 -0.108307645
0.19034499 -0.5456243 -0.11329043 -0.09532225 -0.0038726972 0.27053958 0.2947006 0.32285705
-0.35183823 0.01785739 -0.020147702 0.019602988 -0.0915337 -0.14640798 -0.057970364 -0.042650856
0.08920749 0.5889199 0.85570997 0.9269421 -0.3506465 -0.3502578 -0.68732697 -0.14029063
-0.010869438 0.4978134 -0.05648194 -0.040111102 0.33514965 0.13129036 -0.050966553 0.25634223
0.0051983735 0.27092567 -0.49850586 0.22738104 0.07970823 0.004912837 -0.037797663 0.08097416
0.22650616 0.05357357 -0.031723052 -0.5170062 -0.21805687 0.25185856 -0.21909784 -0.3851539
-0.028022533 0.6848246 -0.8527849 0.49288747 0.61642396 -0.26176476 0.34888488 0.7981525

conv2.bias f4 [64]
00000000: bcf6 c0bc bd85 4fbd db07 49be 90ef 4dbe
00000010: 2fac 183d 7124 093e 91ad 3e3d e31c 27be
00000020: f835 0c3d ed79 e8bc fb9e e73c 8d73 12be
00000030: 0b3f 95be 5205 26be 8362 d33c a3f4 abbd
00000040: e02d 49be 4188 2e3e 4c51 dfbc f483 d93d
00000050: abc2 9e3e 6b5c 91bd e2b9 9d3c adf4 9dbd
00000060: d417 25bc cd1a 1fbe 0868 1dbe 1661 afbd
00000070: 00ad 4ebe c5dc e93d 242a 66be 3fc8 c23d
00000080: 0464 40be e5f3 1e3e 5a13 a1ba 70e4 e6bd
00000090: 5fb4 433e f2ca 81bd bcfb 633d f7e1 89bd
000000a0: 64ba 35bc 7a85 d0be 1d9c 8dbe c780 2c3e
000000b0: 3d91 65bd b25c c0be 72e9 54be be1b 83bd
000000c0: 606e 86bd e552 6a3c de83 75be f2e4 15be
000000d0: 9fb6 aabd b6bd 043e a119 73bd 962c babe
000000e0: 9cc5 46be a776 18bb b561 9bbd 5eee 41be
000000f0: f6b8 47bd 5f74 d3bd d066 553d e179 13bd
-0.023555152 -0.050664652 -0.19631903 -0.20110917 0.037273582 0.13392808 0.046552245 -0.16319613
0.034231156 -0.028378451 0.02827405 -0.14301892 -0.2914966 -0.16212967 0.02580381 -0.0839627
-0.19646406 0.17044164 -0.027260445 0.10620871 0.31007895 -0.070977055 0.019253675 -0.07712684
-0.010076482 -0.15537567 -0.15371716 -0.085634395 -0.20183182 0.114190616 -0.22477013 0.0951085
-0.18788153 0.15522726 -0.0012289092 -0.1127404 0.19111775 -0.06337537 0.055659994 -0.067325525
-0.011091802 -0.40726835 -0.27658167 0.16846 -0.056046713 -0.3757072 -0.20792177 -0.06401776
-0.06564021 0.01430199 -0.23976085 -0.14638117 -0.083356135 0.12962994 -0.059350614 -0.3636214
-0.1941132 -0.0023264082 -0.075869955 -0.18938586 -0.048760377 -0.103249304 0.052100003 -0.036004905

conv2.lin.weight f4 [64, 64]
00000000: 7dff 78bc d665 eb3b e3e9 eb3a 1a1f 0eba
00000010: 12e3 6a3b ccfd aeb9 c287 0a3c aacb 34bc
00000020: bb42 a7be 6ed4 38bd e769 16be bd31 56be
00000030: 329f 153f f6a9 d7ba 75e1 8dbe 1e3d 91be
00000040: 9fc0 7c3a a0aa ebba 43a8 f63b 8905 bb3b
00000050: 0d46 fdb9 a6a9 ea38 a466 113a cf1f 863a
00000060: 6cc4 e6bb d9b6 49bc a46e 4a3b a620 013c
00000070: f69a 2ebc 81e8 7cbb 61c5 0dbc c174 023b
00000080: 68db 9c3c 7f39 6cba 1fb1 80ba c2db beb9
00000090: 8ec9 a5ba 43af 3aba 92ed d53b 261f 4db9
000000a0: 25a2 adbe f541 42be b82c 173c ffe0 003f
000000b0: f758 1d3f 4d70 01be 8d61 ee3e 471b b8bd
000000c0: d79a 48bd 81a6 7eba e692 3bbd ee7a b83b
000000d0: b229 34bd 1053 ce3d 95a7 8f3e 24fb 6b3c
000000e0: b362 c83c 219b aebe d742 8c3f a93d aa3e
000000f0: bea5 87bd 6570 48bf 87f3 c2bd 32e1 5a3f
00000100: 1cc1 093c 9f49 ea3b d89f 7b3b 8cf7 c73b
00000110: 08f8 96bb 4368 fe3a fda9 e03b c08a 30bc
00000120: d2ec be3d e026 42bd 4ff6 423e e4cc 5bbe
00000130: 6c60 6c3e b8b4 8a3d 7d4b 46be 13a3 bebe
00000140: 3e35 5e3c 9f8a feba 0b91 87bc 8af3 22bb
00000150: c843 c83a 0a6c 85bb ca37 0bba ebfa 2dbb
00000160: 88f9 e7bb f827 72bb 4d24 0ebb e242 773b
00000170: ed2f 143c bd8b dfbb 4d29 7cbc 2d76 76bb
00000180: 8b44 ddbb 52dc 2abc 95f2 af3a 70be 8f3a
00000190: c725 a1ba e926 04ba 7a83 933b f566 21ba
000001a0: 1268 6ebf 2a59 4bbe d8c5 34be d057 13be
000001b0: 7a54 35be 6a5c 19be 81ba 283f acb5 05bd
000001c0: 7049 c53d 9bc0 5abc 536b f5bc 52ea febc
000001d0: 25d1 3dbd fb33 a53d aae1 753e f464 f83c
000001e0: 8d6d 31be 25fb 0dbe 1315 bcbf fa65 043d
000001f0: a30b 82bd a8ec 8ebf aafe f4bd ef19 44bf
00000200: cb31 0abc 37e7 fcbb 6124 973c 63e5 19bb
00000210: b7e3 df35 549c 003b 43f0 90bc 016c c5bc
00000220: de4d 6d3e c812 44bd e3c7 283d 11c5 10be
00000230: 0458 45be b0cb 1dbe 4b70 8dbe 2e24 b5be
00000240: f367 713b d270 053a 26d9 873c 2910 793b
00000250: dc0f af39 3429 7db8 12fa d9ba f5c2 5bba
00000260: 6e56 b9bb a860 c93b 00c5 5dba 9aa6 14bc
00000270: 55ae 243b 89c7 12bc a376 31bb 37ad 883a
00000280: 5e63 603c 1dbd 81bb eb16 7039 de56 47ba
00000290: 2adb 17bb 774b 063a 359d b03b 1659 63ba
000002a0: 2aa8 68bf 3e3e 3fbe 9446 fbbc a772 a1be
000002b0: a936 12bf 5eae c6be e9ad 183b 0d88 3fbe
000002c0: c307 44bd 73dc d8bc f8fe 15bd 8b61 9cbd
000002d0: db67 213d 17fb cdbd fb7e be3e 3ddc ab3c
000002e0: 63c8 093d a129 c8bd 2c83 dbbf f39a 003e
000002f0: 7536 87bd 4338 7cbf a8c6 87bd c1c1 13c0
00000300: f465 3e3b 0647 903b 4378 13bc a21f 25bb
00000310: 3c3d e33b d535 09bb 5643 cfbb 216a 4c3b
00000320: 3097 c43e f4cc dd3d 2fa8 85bc d542 3e3e
00000330: 9d84 19bf e223 23be dfa6 b83e 7730 ebbe
00000340: 555a 5abb d3e9 5e3b a5a1 eabc b733 dbba
00000350: dc86 013b b05c 3639 91f5 233a f251 b6ba
00000360: 165c f13a 22b9 0bbc 65eb 153b b904 093c
00000370: 4078 26bc 37f5 0a3c a6dd 903c 2376 49bb
00000380: 26b3 50bc aa18 4abb b9d3 81b9 691b 6839
00000390: eb22 303b 77eb 3239 9b53 6ebb 2caf 7d3a
000003a0: 7ece 183f d7a9 63bc 0082 91bd c948 30bf
000003b0: f210 da3d 13b0 733e 059c 2b3e ed0e 143e
000003c0: f74b 043d ccd3 713c 034d c03d 9ebb d23d
000003d0: 12cd b33d f8ea 81bd 3fef 05be 69c8 1b3d
000003e0: a03a 463e 4f85 3cbe 97a6 e0be 4100 44be
000003f0: 2144 9e3c 77fc 1e3f 9213 9dbd ff81 f4bb
-0.015197632 0.0071837706 0.0017998781 -0.00054215046 0.003584091 -0.0003337696 0.008455219 -0.011034885
-0.326681 -0.045124464 -0.14688836 -0.20917411 0.5844604 -0.001645385 -0.27711073 -0.2836694
0.000964174 -0.0017979927 0.0075273826 0.005707447 -0.00048308112 0.00011189589 0.00055466057 0.0010232868
-0.0070424583 -0.012311661 0.00308887 0.007881319 -0.010657063 -0.0038590732 -0.008653016 0.0019906017
0.01914759 -0.0009011253 -0.0009818411 -0.00036403356 -0.0012648569 -0.0007121453 0.0065285647 -0.00019561927
-0.3391277 -0.18970473 0.00922697 0.50343317 0.61463875 -0.12640496 0.465588 -0.08989578
-0.04897579 -0.0009714142 -0.04579439 0.0056298887 -0.043985076 0.10074437 0.28057542 0.014403138
0.024461126 -0.3410273 1.0957898 0.33250168 -0.0662341 -0.782965 -0.095191054 0.8549987
0.008407857 0.0071498896 0.0038394835 0.006102508 -0.0046072043 0.0019409735 0.0068562017 -0.010775268
0.09322514 -0.047400355 0.19039272 -0.21464878 0.23083657 0.067727506 -0.19364734 -0.3723379
0.013562499 -0.0019419974 -0.016548654 -0.00248644 0.001527899 -0.004071717 -0.00053107424 -0.0026547264
-0.007079307 -0.0036950093 -0.0021689117 0.0037729074 0.0090446295 -0.006822078 -0.015390706 -0.003760706
-0.0067525557 -0.010428505 0.0013423736 0.0010966789 -0.0012294584 -0.00050411985 0.004501757 -0.00061570044
-0.9312755 -0.19858232 -0.17653596 -0.14388967 -0.17708007 -0.1497666 0.6590958 -0.03264396
0.09633148 -0.013351585 -0.029958403 -0.031117592 -0.046342034 0.08066555 0.24011865 0.030321576
-0.17326947 -0.13865335 -1.4693931 0.032323815 -0.06349876 -1.1165972 -0.11962636 -0.7660207
-0.008434723 -0.0077179926 0.018449964 -0.0023482672 1.6681068e-06 0.0019624429 -0.01769269 -0.024099352
0.23174235 -0.047869474 0.04120625 -0.14137675 -0.19271857 -0.15409732 -0.27624735 -0.35379165
0.003683564 0.0005090359 0.016583037 0.0038004017 0.00033390417 -6.0358274e-05 -0.0016630313 -0.0008383238
-0.005656055 0.0061455555 -0.0008459836 -0.009072924 0.0025128324 -0.008958706 -0.002707877 0.0010427599
0.013695566 -0.0039593116 0.00022896721 -0.0007604192 -0.0023171403 0.00051229395 0.0053898343 -0.00086726376
-0.908816 -0.18676087 -0.030673303 -0.31532785 -0.57114655 -0.38804907 0.0023297018 -0.18704243
-0.047858965 -0.026472306 -0.03662011 -0.07635792 0.039405685 -0.10057657 0.37206253 0.020979041
0.03363837 -0.09773565 -1.7149405 0.12559108 -0.06602184 -0.9852335 -0.066296875 -2.3087008
0.0029052468 0.004402998 -0.009000841 -0.0025195857 0.00693479 -0.0020936627 -0.0063251657 0.0031191187
0.38396597 0.10830107 -0.016315548 0.18580182 -0.59967977 -0.15931657 0.36064813 -0.45935413
-0.0033318002 0.0034013882 -0.028641531 -0.0016723786 0.001976422 0.00017391401 0.0006254549 -0.001390992
0.0018414285 -0.008528026 0.0022875902 0.008362942 -0.010160506 0.008481315 0.017683815 -0.003074058
-0.012738025 -0.0030837455 -0.00024762543 0.00022135455 0.0026876281 0.0001706312 -0.003636575 0.0009677287
0.5969008 -0.013895473 -0.07104874 -0.6886106 0.10647763 0.23797636 0.16758735 0.14458819
0.03229901 0.014759969 0.09389689 0.102896914 0.087793484 -0.06343645 -0.13079546 0.038032923
0.19358301 -0.18410228 -0.43877098 -0.19140722 0.019319596 0.6210398 -0.07669748 -0.007461786

fc1.weight f4 [128, 74]
00000000: fd30 dabd 3f23 8d3d a375 163e 26a1 01bc
00000010: 6271 36be bbda 8b3d 6336 aebe d97b 6fbc
00000020: 03c4 e53d 2fb1 b6bd 3878 a0bd 934e 573e
00000030: 0d5b 033e d228 683e 3169 d4bd dba5 4b3e
00000040: 596e e4bd 1efa 813d 0be3 b43d 7b6f 9e3d
00000050: a8b3 913d e8c3 393d 55e7 9bbd 9a6a acbd
00000060: b081 42bd ba75 013e b32c 82bd a013 b73c
00000070: cc02 34be 1452 8bbd db0c 0cbe 66bd eabc
00000080: 5152 bcbc 324e 52be 4206 77bb 90f3 fd3d
00000090: 2d11 083d da0a 123d 9319 e73a 2091 093e
000000a0: ecca 973d 2f6b ccbd 8b57 683b 5255 2fbe
000000b0: 4ed7 c53d 59a3 b5bd 67e4 c03d 8a3a fc3c
000000c0: 146e 54bd 4c9f f73d 2d95 d03d c983 613d
000000d0: ee0b 28be 4b41 e33d b651 2d3e a063 19be
000000e0: 4e21 5bbd a54c 4c3e 4c24 04be fac0 2b3e
000000f0: c3a5 413e 397f dc3d 8891 473e 44cb 163e
00000100: ec90 7ebe 94dd 46ba 508e 84be d9f0 1540
00000110: 7485 81be d604 35bc 20f1 2cbe 711a a93e
00000120: 955f 32be 16c5 38be 81a0 cb3b 1066 563e
00000130: aa2c 9d3e 5932 95be 7191 77be fb2d 883e
00000140: 0061 17be 2c1f 703d a63d 953e 35dc b6be
00000150: d647 87bd 1c30 2abe bbc9 75be fbc4 3abe
00000160: 5b55 c03e 1b9c fcbd 3d61 9bbd 4253 3e3e
00000170: 199a 483c 2fb8 413e 7338 603e f704 3a3e
00000180: d979 b2bd d87e 87be 7e63 843e b070 4abe
00000190: d263 a43d a6d8 cabd 9a51 a9be b0c3 233e
000001a0: fded adbe d5db 4bbd 8fa6 a33e eebf 5dbe
000001b0: e67d ec3d 7d08 ad3e dc49 76be 3661 2e3e
000001c0: d2b8 a83d 99c7 b63e 2aba 843e 8eff 2b3e
000001d0: e690 2e3e 2928 9fbd c136 6f3e 5da7 94bd
000001e0: edd3 72be d4a9 97be 8ca3 b03d f0bb 38be
000001f0: ca91 bebd 11a5 843e 4a2e 8fbe 0b8b 833e
00000200: 1ccc 14be f098 60be d1fb 86be e115 0fbe
00000210: 9fa7 1bbe 9200 4bbe 0dbc 03be 4820 f03d
00000220: e7e2 14be 50e6 093e 85c5 12bf 9133 54ba
00000230: da1f 7abf ece6 ec40 6664 84bf d31b 893e
00000240: cbb5 1dbe d7bd 3640 f779 3abe 5564 2fbe
00000250: ed6f 60be ee0f 3e3e eb64 273e b3c4 8f3d
00000260: 2817 8cbe 13aa 043e 28ca cdbe 085f d7bd
00000270: 3bb0 1cbd 9711 1ebc fbaa 7cbe 55a4 4a3e
00000280: b9fa 01bc f38c 193e 0dc8 40be c642 4f3e
00000290: cc68 31bd 58cb d33d bdfc 193e b758 cc3d
000002a0: ef5f 913d 42af f9ba 3d9e c5bd 0ece 23bb
000002b0: 5582 9e3c 66ac 7b3e b1ce 60bc 3eae fb39
000002c0: 16d6 cdbc 8d0c 68bd 9ece 793d c678 22be
000002d0: acdc f83d 6f8a a5be 8bd7 ab3d 6283 803e
000002e0: 97b9 86bd fd71 d9bd bbc4 eabc f719 2e3e
000002f0: 9e77 c33c 06b2 60bc 7293 1d3e 1f76 9cbd
00000300: 2311 9f3d 18b1 32be 5f53 bc3c d0d3 e2bd
00000310: 1aab 143e 588c ca3d 8c39 80bc c63f ea3d
00000320: da8f 0abe 5be1 063e cad0 e53d 9a86 bfbd
00000330: cfb4 b13c 1367 e53d 347d 58bd f70b 503e
00000340: 0b91 f23d 1b20 303e 35bc 413d 89c2 ad3d
00000350: a668 96be 7c7a 403a a71e 87be 3233 afbc
00000360: 10b3 93be b6fe 74be 8da2 59be 4d3f b13e
00000370: 87eb 5abe 04a2 5cbe a75b 263d fc90 523e
00000380: 3c98 913e 194a 9ebe 4693 80be e501 723e
00000390: b7ca 01be beac f43d e593 8d3e 6f90 70be
000003a0: adf8 913d ca2e ccbd d656 2dbe 75e6 e0bd
000003b0: 48d0 653e e5b8 c8bd d6fb ab3b b081 773e
000003c0: a5e1 bdbc 6b2e 743e 35a3 833e d709 1c3d
000003d0: f984 eebb 66af 8bbe 9ef0 573e d694 63be
000003e0: d6cb bb3d da99 a8bd fb1e 4ebe 84fd e13d
000003f0: 0e1d 4bbe 7e86 73bd 7cbb 963e efd9 05be
-0.10653875 0.06891488 0.14693312 -0.007911956 -0.1781669 0.06828829 -0.3402587 -0.01461693
0.11219027 -0.08920514 -0.0783543 0.21026067 0.12827702 0.22671822 -0.10371626 0.19887488
-0.1115386 0.06346534 0.088323675 0.07736107 0.07114345 0.045352846 -0.076124825 -0.0841877
-0.04748696 0.12642565 -0.06356182 0.022348225 -0.17579192 -0.068027645 -0.13676779 -0.028654765
-0.02298847 -0.20537642 -0.003769294 0.123999715 0.033219505 0.03565488 0.0017631523 0.13434267
0.07411751 -0.09981381 0.003545257 -0.17122391 0.09660207 -0.08869047 0.09418564 0.030789632
-0.05186279 0.1209093 0.10184703 0.05505732 -0.16410801 0.11096438 0.16925701 -0.1497941
-0.05349856 0.19951113 -0.12904471 0.16772833 0.1891089 0.10766453 0.1948911 0.14725977
-0.24859971 -0.00075861183 -0.25889826 2.3428252 -0.2529713 -0.011048516 -0.16888857 0.33027986
-0.17419274 -0.18043932 0.006214202 0.20937371 0.30698138 -0.29139975 -0.24176575 0.2659758
-0.14783096 0.058623478 0.29148597 -0.3571488 -0.066054985 -0.16619915 -0.24002735 -0.18239205
0.3756512 -0.12334462 -0.07586906 0.18586448 0.012243771 0.18917917 0.21896534 0.18165956
-0.08714647 -0.26463962 0.25857157 -0.1976955 0.08026852 -0.09904604 -0.3307007 0.15992618
-0.33970633 -0.049770195 0.31963012 -0.21655247 0.11547451 0.3379554 -0.24051613 0.1702927
0.08238377 0.35699156 0.25923282 0.16796705 0.17047462 -0.07771332 0.2336073 -0.072584845
-0.23713656 -0.29621756 0.08624944 -0.18040442 -0.09305151 0.25907186 -0.27965003 0.2569202
-0.14530987 -0.21933341 -0.26363996 -0.1397319 -0.15200661 -0.19824436 -0.12864704 0.11724907
-0.14539681 0.13466763 -0.5733264 -0.0008094842 -0.9770485 7.4031887 -1.0343139 0.2677904
-0.1540138 2.855337 -0.18210588 -0.17128117 -0.21917696 0.18560764 0.16347091 0.07019939
-0.27361417 0.12955503 -0.40193295 -0.10516173 -0.038254004 -0.009647748 -0.24674599 0.1978925
-0.007933312 0.14995174 -0.18826313 0.20240316 -0.043312833 0.10341519 0.15037818 0.099778585
0.07098376 -0.0019049423 -0.09649322 -0.0024994644 0.019349257 0.24577484 -0.013721154 0.0004800427
-0.025126498 -0.056652594 0.06098806 -0.15866384 0.12151465 -0.3233218 0.08390721 0.25100237
-0.06578367 -0.10617445 -0.028658262 0.17002092 0.023860749 -0.013714319 0.15388277 -0.07639717
0.077669404 -0.17450368 0.022988973 -0.11075556 0.14518395 0.0989005 -0.01565244 0.11437945
-0.13531438 0.13171904 0.11221464 -0.09351845 0.021692662 0.112013005 -0.052853778 0.20317064
0.11844071 0.17199747 0.04729863 0.0848437 -0.29376715 0.00073424703 -0.26390573 -0.021386717
-0.2884755 -0.2392529 -0.21253414 0.34618607 -0.21378909 -0.21546179 0.04061475 0.2056312
0.28436458 -0.30915907 -0.2511236 0.23633535 -0.12674986 0.119470105 0.27651897 -0.23492597
0.07127509 -0.09969862 -0.16927657 -0.10981456 0.22442734 -0.09800891 0.005248527 0.24170566
-0.023178885 0.23845832 0.25710455 0.03809532 -0.007279035 -0.27282256 0.21087882 -0.22224745
0.09169738 -0.0823247 -0.20129006 0.110346824 -0.19835302 -0.059454434 0.29439914 -0.13071416

fc1.bias f4 [128]
00000000: 32be 2cbe f2b1 1dbe e7ec 58be 34db 65be
00000010: f17c 45be 22ae f33d f645 1dbe 7dec dcbd
00000020: 6bb5 2cbe 8841 9dbe 43db 2dbe 3c16 3dbe
00000030: 143b 9f3d 59c3 03be 42cf 58be 9818 82be
00000040: d304 f6bd eee7 c0bd 6ca3 fdbd f4cf 55be
00000050: 802b 48be 2f21 a2bd 96fd 913d 46f9 c8be
00000060: 8e15 5abe 8025 afbe 66da 38be e203 4dbe
00000070: 1be5 51be f6cf 5cbe 1686 c73d 1f4c 4abe
00000080: 8436 89bd d8c6 5abe 93da f5bd 675b 5abe
00000090: a5c9 4dbe 6169 43be 960a 39be 1f15 39be
000000a0: 31d0 a2be 6757 2dbe cbd4 48be 8bfb 49be
000000b0: c69e eebd 1607 e2bd b505 1ebe 5f9d 33be
000000c0: 5f50 33be 3515 f73d ab1b 693e 938a 293d
000000d0: 8500 92be 28b4 6dbe c9ea b8be 7cfe e33d
000000e0: ff01 fcbd aeb9 86bd 7c9f 5bbe c3f3 89be
000000f0: b0da 1dbe eb39 40be 3c40 ce3e 2ec6 54be
00000100: 002c ddbd 1525 f0bc 8412 e5bd 6cfd 06be
00000110: 9fad f9bd ce1c 85be 640e dfbd 9435 9fbd
00000120: 9381 7fbe 4530 b5bd c585 30be 8922 393d
00000130: 79b7 1dbe c9b7 acbe d63e f73d a0cb 073e
00000140: fcec f9bd 1777 afbd 475d 60be 3da1 6cbe
00000150: d955 6e3e f2c2 d3bd f0e0 1abe ad29 13be
00000160: 35e3 13be 3cfa a03d 2077 1abe 6e4a d53c
00000170: 7ac6 b6bd ba74 5abe 6ccb 4abe 48f5 5cbe
00000180: fa31 ac3d fe9e 2fbe c0b4 c0bd 9d67 7cbe
00000190: f74b 00be d74d 4cbe 4e06 87be d030 86be
000001a0: aa9f 53be 1d64 26be 433b 20be 8832 5fbe
000001b0: 2213 58be 2e79 22be ce70 65be 473a 27be
000001c0: fe25 50be 9166 4ebe c6c2 063e 6388 56be
000001d0: 744b 95be 1ae6 f03d 107b 7d3e 924c d5bd
000001e0: 74f6 55be 84b6 3ebe e81e a73d df45 fdbd
000001f0: e6d1 66be 1bf0 bfbd aee0 50be 88c1 99bd
-0.16869429 -0.15399912 -0.21184121 -0.224469 -0.19285943 0.118984476 -0.15358719 -0.10787294
-0.1686608 -0.3071406 -0.16978173 -0.18465513 0.0777494 -0.12867488 -0.21172813 -0.2540939
-0.12012639 -0.09419237 -0.12384686 -0.20880109 -0.19547844 -0.079164855 0.07128446 -0.3925268
-0.21297285 -0.34208298 -0.18052062 -0.20021012 -0.20497553 -0.21563706 0.09742372 -0.197556
-0.06699851 -0.21364915 -0.1200458 -0.2132393 -0.20096453 -0.19083168 -0.18070444 -0.18074463
-0.31799462 -0.16927873 -0.19612424 -0.19724862 -0.116513774 -0.11036508 -0.15431865 -0.17540501
-0.17511128 0.12064592 0.2276446 0.04139192 -0.2851602 -0.23213255 -0.36116627 0.111325234
-0.12305068 -0.06578384 -0.21447557 -0.26943788 -0.15415454 -0.18772094 0.40283382 -0.20778725
-0.10799408 -0.029314557 -0.11185172 -0.1318261 -0.12191319 -0.2599854 -0.10891417 -0.07773891
-0.24951772 -0.08847097 -0.17238529 0.04519895 -0.1540202 -0.33733967 0.12072532 0.1326127
-0.12203404 -0.085676365 -0.21910582 -0.23108383 0.23274936 -0.10339917 -0.1512487 -0.14371367
-0.14442141 0.078602284 -0.15084505 0.026036467 -0.08924575 -0.2133359 -0.19804162 -0.21577942
0.0840797 -0.17150494 -0.09409475 -0.246489 -0.12528978 -0.19951569 -0.26371998 -0.26209116
-0.20666376 -0.16249128 -0.15647607 -0.2179662 -0.21101049 -0.15866539 -0.22406313 -0.16330825
-0.20326993 -0.20156313 0.13160238 -0.20950465 -0.2915913 0.117626384 0.24753976 -0.10414995
-0.20894796 -0.18624312 0.08160192 -0.123668425 -0.22541007 -0.09371968 -0.20398208 -0.07507616

fc2.weight f4 [64, 128]
00000000: 7625 69bc 6e1a 0f3e 35e8 193e b957 933d
00000010: 92c9 37bc 4144 1dbd 7d25 d53c 6abf f13d
00000020: 5859 22bc 832b 1a3e a7ee 8e3c 1a1f ce3d
00000030: f84f 58bd bf62 513d e80b 043e e441 d93d
00000040: 54f3 83bc 5705 87bd 85f3 1f3e 9604 123e
00000050: 02f1 29bd 0e7b 7e3d 7be1 8c3d 8591 1c3e
00000060: 7d1f 3b3e 9306 8a3e 1634 cf3c 7d35 093e
00000070: 7106 b33e a21d 023e 1a89 b7bd 443f 203e
00000080: ba29 edbc 8a1f d53d 44be 99bb b4b2 333e
00000090: 974b 6dba d26c 303d e9fe cc3d a122 ba3d
000000a0: 8f75 653e f954 89bc fe31 9b3d 3aa8 583e
000000b0: fce3 d13d 1030 0f3e 6a4c df3c 1e18 163e
000000c0: f88d ad3d 0557 1bbe 75db 70be 1565 c6bd
000000d0: b6dd 1c3d 7918 d73d cc09 0e3e 5a86 94bd
000000e0: 9b11 803d f682 cabc b1cd dd3d 2a5e 113e
000000f0: b056 c93d 0d61 1c3e 4d8d 44be a725 9f3e
00000100: 31dc 5a3d 3676 26be a56e fd3d 6074 403c
00000110: 3301 de3d f22a 7c3e 63e3 91bd 2b57 85ba
00000120: a03e bfbe 1b67 0ebd c094 4c3e 33b9 52bd
00000130: 0bba d53d 73b9 283e a4a2 67bd 6d4a 413c
00000140: c739 e43d 0f52 073e 8200 ce3d 9f94 f43d
00000150: 89c6 acbd 4ec8 3a3d 1e2d b93b ffb4 713d
00000160: 668e 1b3d aab7 bcbd 45bf 103e 3432 91be
00000170: 79b7 143d 0b20 1c3e 68a2 1c3e 7d28 6a3e
00000180: beb4 6ebd e0f3 e93c c15b d1bd 23d9 d23d
00000190: 39bd b93b badf c23d caa0 c53d aecd 943d
000001a0: c960 083e 5251 c83d 8565 863e 7ec8 383e
000001b0: d441 1a3e 9e5e 0e3e 6c14 b63d 7aaa a8bb
000001c0: 6f10 363e 788c 343e 80c7 fc3a 9c1c 1f3e
000001d0: 30e8 f63d e49e a63e 7500 03be 9049 5c3c
000001e0: 4775 db3d d869 093e f69b febc 3809 043d
000001f0: 4ce2 c83d 9c98 133e 4f50 283d 518d d73d
00000200: 16a4 e4bd 286a bc3d 1409 e5bd cf21 a33d
00000210: 119d 40bd 703a 44be fc59 bdbd e570 503d
00000220: 0f55 38bd 6cc9 123e bde0 7ebd 5d25 05be
00000230: db58 2fbe 6dd8 953d 5edd 10be e9d0 843c
00000240: 344f 04be a6e4 98bc 004e f7bd 02a6 23be
00000250: 80a7 30bd 1c58 8a3d 94b2 3ebe cf1d 753e
00000260: 1cf2 d3bd ef6d ef3b 7674 40bd 0fdf 10be
00000270: 11fb 0cbe 6f46 bdbd 4794 39be 363e e9bd
00000280: ded2 2cbd 3d3a b6bd 6d5b ebbd 64d1 04be
00000290: 0b4a 10bd 3ef5 dabd 87df c2bd 0afd 00bd
000002a0: bb78 d5bd aed5 d2bd b86c 223e e01e 06be
000002b0: 784d 29be 7057 3e3d 6805 c3bd 7e45 05be
000002c0: 8a0a 0e3e 09e7 50be 9bf3 26be f9ca 3ebe
000002d0: 4b52 cf3d 49d3 943c 7467 3d3e 08b5 e9bd
000002e0: 8929 8ebd 03e2 e5bd 733b c2bd 7b2f 743e
000002f0: 8349 963d 4e4f 3dbd 32da 33be 7268 b0bd
00000300: 0e57 803d ac8d 103e b485 33be 208d 8b3d
00000310: ff1b 2fbe 2c69 5f3d e890 1abe c390 d7bd
00000320: bc2d 773e 8df7 04bd eafb 20be 13e6 0abe
00000330: b476 8f3d 8d40 a43d b0a3 57be c36d 68be
00000340: 730d 37be 0132 1dbe a8af 36bb 9cd6 b23d
00000350: b786 42be 33da 06be 9789 8ebd 8128 6cbd
00000360: 175c 10bd c262 23be 1fb9 823d 4186 c53d
00000370: cbdd 31be 263f d3bd 9224 2abe 8d43 d83d
00000380: a6d0 42be 679b 1dbe c808 1fbe 3a58 a43a
00000390: 0c19 44bd 7ed8 85bd 8bbd 07bc 07e2 4c3e
000003a0: f769 fabd 952e 8c3d 9061 873d 1582 09be
000003b0: 40d5 f9bd 81c8 24be 7aa2 c9bc 131e e9bd
000003c0: e93f 0dbe 7529 11be 27ca 4dbe f776 f2bd
000003d0: bac7 6f3e 4a7e 56bd 6469 38be 8757 12be
000003e0: bb48 a3bc 3874 5c3d 4702 3bbe 7456 693d
000003f0: 162e acbc 37a4 af3d 3746 c6bd a914 30be
-0.014230123 0.13974926 0.15029986 0.07194466 -0.011217492 -0.03839517 0.026018852 0.118040875
-0.0099089965 0.15055661 0.017447783 0.10064526 -0.05281064 0.051119562 0.12895167 0.10608271
-0.016107239 -0.06592815 0.15620239 0.14259562 -0.04148961 0.062129073 0.068789445 0.15289886
0.1827373 0.2695814 0.025293391 0.1339931 0.34965852 0.12706617 -0.08961697 0.15649134
-0.02895056 0.10406406 -0.004691871 0.17548639 -0.0009052096 0.04307253 0.10009558 0.09088636
0.22408126 -0.016764151 0.07577895 0.21157923 0.10248563 0.13983178 0.027258117 0.14657637
0.08474344 -0.15169914 -0.23521216 -0.096872486 0.038297378 0.10502715 0.13870925 -0.07252188
0.06253358 -0.02472065 0.10830248 0.14196077 0.098309875 0.15271397 -0.19194527 0.31083414
0.053432647 -0.16256031 0.123746194 0.011746496 0.108400725 0.24625757 -0.07123449 -0.0010173073
-0.37352467 -0.034766298 0.19978619 -0.05144615 0.104358755 0.16476993 -0.05655159 0.01179753
0.11143833 0.13214897 0.100586906 0.1194241 -0.08436305 0.04560118 0.0056511303 0.059010502
0.0379776 -0.09214719 0.14135464 -0.28358614 0.036307786 0.15246598 0.15296328 0.22867008
-0.058277838 0.028558671 -0.10222579 0.10295322 0.005668309 0.09515329 0.09649809 0.07265793
0.1331817 0.097811356 0.26249328 0.18045232 0.15064174 0.13903281 0.08890614 -0.0051472755
0.17779706 0.1763171 0.001928553 0.15538257 0.12056005 0.325431 -0.12793143 0.013445273
0.10715728 0.13419282 -0.031080227 0.032235354 0.09808788 0.14413685 0.041092213 0.10525001
-0.111641094 0.09199935 -0.11183372 0.07965433 -0.04702479 -0.19162917 -0.09245679 0.050888915
-0.045002993 0.14334649 -0.062226046 -0.13002534 -0.1712374 0.073166706 -0.14146945 0.016212897
-0.12920839 -0.018663716 -0.12075424 -0.15981296 -0.04312849 0.06755087 -0.1862281 0.23937152
-0.10348913 0.0073068063 -0.046986066 -0.1414759 -0.13767649 -0.0924195 -0.1812297 -0.11388819
-0.042193286 -0.08897827 -0.114920475 -0.12970501 -0.035226863 -0.106913075 -0.09515291 -0.031491317
-0.10423418 -0.102946624 0.15861785 -0.13097715 -0.16533458 0.046470106 -0.095225155 -0.1301479
0.13871208 -0.20400633 -0.16303866 -0.18632115 0.10123118 0.018167155 0.18496495 -0.11411482
-0.06941516 -0.11224749 -0.09483995 0.23846237 0.0733824 -0.04621821 -0.17563704 -0.08613671
0.06266604 0.14116544 -0.17531472 0.06814027 -0.17100523 0.05454366 -0.1509434 -0.10525658
0.2413854 -0.032462645 -0.15721098 -0.13564329 0.07005063 0.080201246 -0.21058536 -0.22698121
-0.17876224 -0.15351106 -0.0027875695 0.0873234 -0.18996702 -0.13169174 -0.06959837 -0.057655815
-0.035244074 -0.15955642 0.06382965 0.096447475 -0.17369764 -0.10314779 -0.16615513 0.10559759
-0.19024906 -0.15391313 -0.15530694 0.0012538501 -0.04787545 -0.06535433 -0.008284937 0.20008098
-0.122272424 0.06844822 0.066104054 -0.13428529 -0.12198877 -0.16092111 -0.024613608 -0.11382689
-0.13793911 -0.14175971 -0.20096646 -0.11839097 0.23416033 -0.052366532 -0.18008953 -0.14291202
-0.019932142 0.053821772 -0.18262587 0.056967214 -0.02101807 0.08576243 -0.09681361 -0.17195381

fc2.bias f4 [64]
00000000: 36a5 10bf d306 d3be 1b63 77be 9d54 32bf
00000010: e17f 1bbf 94b0 56be 7775 9cbe 17fb 25be
00000020: 3bf6 92be ff1e 82be b765 c1be 1661 17bf
00000030: 4913 ebbe 6586 89be 72a1 f0bd c249 cbbe
00000040: 6488 bebe 2257 c8be 711e 13be 47d6 84be
00000050: 4c4f 84bd c168 09be bbd0 31be bf32 aabe
00000060: c059 acbe 614e 7dbe 41fe 18be e03f 1bbf
00000070: a309 7abe aa7f c2be 1fd8 63be 1493 55bf
00000080: b29f 09bf 382d 21bf ace4 edbb cb4d 3fbf
00000090: f086 37bf 25f5 13bf b0db b1be e86c 43be
000000a0: c5a7 02bf d493 e1be 3b54 bfbe 585a 853e
000000b0: b0c8 c4be 7144 afbe 9d98 05bc cd65 a8be
000000c0: 39f2 e3be 3480 45bf d6a2 c5be b930 75bd
000000d0: 360a 13bf 8169 66be ea0a f9be c9ef 60be
000000e0: 3f32 04bf 656d a2be 68bd 97be 53ff e9be
000000f0: 5ac4 6bbe 7418 a4be 96db 8dbe 2fdc 23be
-0.5650209 -0.41216144 -0.241589 -0.6966036 -0.60742 -0.20965797 -0.3055837 -0.16209064
-0.28703484 -0.25414273 -0.37772915 -0.59132516 -0.4591315 -0.26860347 -0.11749543 -0.3970471
-0.37213433 -0.39128977 -0.14367081 -0.2594473 -0.06460437 -0.13418867 -0.1736478 -0.3324184
-0.33662224 -0.2473693 -0.1494074 -0.6064434 -0.24417739 -0.37988025 -0.22250412 -0.8342755
-0.537593 -0.62959623 -0.007259926 -0.7472808 -0.71690273 -0.57795936 -0.3473792 -0.19084513
-0.51037246 -0.44058096 -0.3736895 0.2604549 -0.38434362 -0.34231904 -0.008154062 -0.32890168
-0.4452074 -0.7714875 -0.38600796 -0.05986092 -0.57437456 -0.22501184 -0.4864114 -0.21966471
-0.5163917 -0.31724086 -0.29636693 -0.4570261 -0.23024121 -0.32049906 -0.27706593 -0.16001962

fc3.weight f4 [1, 64]
00000000: 55a8 30bd 5e7e 023d 6373 1c3c 65a8 83bd
00000010: dfa5 9cbd d5e0 30bd 9bd8 08bd 9724 d5bd
00000020: fd6b ad3d ad68 20bd 8c50 753d 9e2f c0bd
00000030: 7ada a3bd fbf4 0d3c 55f8 853d e8e8 8abd
00000040: 7243 42bc 9981 47bd fbf8 9a3d db33 713d
00000050: bde8 783d 5b41 9b3d 4afe 7cbd feb1 8dbd
00000060: 9944 873d d782 d3bd 7938 ce3d f862 8bbd
00000070: 3638 5cbd 1c9f 83bb c47d 263e b5c3 97bd
00000080: 01a8 f5bd 14f6 86bd 1eb4 43bd a855 07be
00000090: ff61 b8bd 1e2c 33be 1231 f2bd 7e23 1d3d
000000a0: 5692 993d 94d5 41b9 f18b f9bb a5cd babd
000000b0: fa8d bb3d 79f4 e0bd 5cdf bc3d 5eb3 69bc
000000c0: 3545 92bc 811d b2bd 0bd7 6e3d a761 e73d
000000d0: d4dc d6bd 7407 c63d b334 5bbd a4ab 2cbd
000000e0: 5f3a 933d e9ff 3d3d 6a43 a5bd d885 90bc
000000f0: 067b ffbc 3dee 24be 3285 92bd 1446 bc3d
-0.043129284 0.031858794 0.009548995 -0.06428603 -0.07648825 -0.043183167 -0.033409696 -0.104073696
0.08467863 -0.039162327 0.05989127 -0.09384082 -0.080006555 0.008664365 0.06541506 -0.067827046
-0.0118569005 -0.04870758 0.075670205 0.058887344 0.06076883 0.07580825 -0.061765946 -0.06918715
0.06604881 -0.1032769 0.10069365 -0.06805986 -0.053764544 -0.00401677 0.16258913 -0.07410375
-0.11994935 -0.065899044 -0.047779195 -0.13216269 -0.09003066 -0.17497298 -0.11825766 0.038363926
0.074986145 -0.00018485478 -0.0076155593 -0.09121255 0.09157939 -0.109841295 0.0922229 -0.014263956
-0.017855266 -0.08697034 0.05831055 0.112979226 -0.10491338 0.0966939 -0.053517055 -0.042155877
0.07188868 0.046386633 -0.08069499 -0.017641947 -0.031186592 -0.16106506 -0.07154311 0.09193054
