models/0_2023_2023/Postal_GAT/80.pth (torch, 96722 bytes, 13 tensors)

conv1.att_src f4 [1, 8, 8]
0	0xbc5f541e	-0.013630895
1	0xbc9e1f71	-0.019302102
2	0xbc530d72	-0.012881624
3	0xbc60c4cd	-0.013718796
4	0xbc7e7696	-0.015531203
5	0xbcb62dd4	-0.02223865
6	0xbc405cee	-0.011740906
7	0x3c31b938	0.010847382
8	0x3e80ca7e	0.2515449
9	0x3e0222cd	0.12708588
10	0x3c82a692	0.015948568
11	0x3e150fed	0.14556856
12	0xbe9489a5	-0.29011264
13	0x3dd2495d	0.10267899
14	0x3ea0ac3e	0.3138141
15	0xbdf7b0e9	-0.1209429
16	0x3b7097dc	0.003671161
17	0x3bb67c9a	0.005569053
18	0x3bc387c6	0.005967113
19	0x3ba4af8b	0.005025809
20	0xbb6b99e8	-0.003594989
21	0xbbcbb6c5	-0.006216856
22	0xbc836536	-0.016039472
23	0xbbd09a64	-0.006366061
24	0xbbf62455	-0.0075116553
25	0xbb662311	-0.0035116116
26	0xbbddf59c	-0.0067736637
27	0xbb0338e1	-0.0020022916
28	0xbba95318	-0.0051673763
29	0xba50a877	-0.00079596735
30	0x3bef3e06	0.007301095
31	0xbb31c487	-0.0027125196
32	0xbc6bf534	-0.014401723
33	0xb9a30e57	-0.00031100467
34	0xbbf0bab0	-0.0073464736
35	0xbb3aa523	-0.0028479777
36	0xbbb80514	-0.0056158397
37	0xbbc8815e	-0.0061189374
38	0xbae7b1cb	-0.0017676888
39	0xbc1dde0e	-0.0096354615
40	0xbef503fc	-0.47854602
41	0x3f38a28b	0.7212302
42	0xbf06242c	-0.52398944
43	0x3fc71051	1.5551854
44	0x3f211dc3	0.6293604
45	0x3eb2dd54	0.34934485
46	0xbe93ab41	-0.28841594
47	0x3db8ca31	0.0902294
48	0x3d0af21f	0.03392231
49	0x3cb879a4	0.02251894
50	0x3d66962d	0.056295563
51	0xbdb48fbd	-0.088164784
52	0xbe1f330b	-0.15546815
53	0x3d63e37f	0.05563688
54	0xbc29012e	-0.010315223
55	0x3df118fe	0.11772345
56	0xbd486755	-0.04892667
57	0x3f026c9f	0.5094699
58	0xbeb30fa7	-0.3497288
59	0xbea998cd	-0.3312439
60	0x3d917ac7	0.07103496
61	0xbebc9de4	-0.3683921
62	0xbea7a9b5	-0.32746664
63	0xbd6923ee	-0.05691903

conv1.att_dst f4 [1, 8, 8]
0	0xbc64e03a	-0.013969475
1	0x3c00235d	0.007820931
2	0xbb80eaeb	-0.0039342544
3	0xbbd424f0	-0.00647413
4	0x3c6efb2a	0.014586249
5	0x3c97124f	0.018441347
6	0x3ba7b55e	0.005118056
7	0x3c530781	0.012880207
8	0xbf75208c	-0.9575279
9	0x3d0dfb0a	0.034663238
10	0xbbaf98dd	-0.005358799
11	0xbf490f5b	-0.78539056
12	0xbe6e6f52	-0.23284653
13	0x3e4eb48b	0.20186059
14	0xbe192773	-0.14956455
15	0x3ea05c5c	0.31320465
16	0x3c0dcd14	0.0086548515
17	0x3b9c6ee6	0.0047739623
18	0x3b86690b	0.0041018776
19	0x3a59abc7	0.000830349
20	0x366316d5	3.3838926e-06
21	0xbbb801ad	-0.005615434
22	0xbc3ac5d1	-0.011399702
23	0x3b47bc9a	0.0030477406
24	0xbc8bfb06	-0.01708747
25	0x3875cfe6	5.8606172e-05
26	0xbc7e88ae	-0.015535517
27	0xbc8e4009	-0.017364519
28	0xbc50d908	-0.012747057
29	0xbc79d850	-0.015249327
30	0x3c938891	0.018009456
31	0xbce7f38a	-0.02831437
32	0x3b861741	0.0040921276
33	0x36e36ae6	6.777572e-06
34	0x3b4337be	0.0029787864
35	0xba904e80	-0.0011009723
36	0x3c0a36f1	0.008435951
37	0x3bee629a	0.007274938
38	0x3a51d707	0.0008004759
39	0x3c017c63	0.007903191
40	0xbef1d4d6	-0.47232693
41	0xbe80030c	-0.25002325
42	0xbece12bd	-0.4024867
43	0xbdf81211	-0.12112821
44	0xbe46ede0	-0.1942668
45	0xbe162537	-0.14662634
46	0x3d41c257	0.047304478
47	0x3e6abfff	0.22924803
48	0xbdb325da	-0.08747454
49	0x3d848457	0.06470554
50	0xbd76229f	-0.06009161
51	0xbd20d7bc	-0.03926824
52	0x3cf65117	0.030067964
53	0xbd98bdb5	-0.07458059
54	0xbd799c5d	-0.060940135
55	0xbe63c9cb	-0.22244947
56	0xbe32ac96	-0.17448649
57	0xbb3ee290	-0.002912674
58	0xbcca9c88	-0.024732843
59	0x3dfe660d	0.124218084
60	0xbe44e93b	-0.19229595
61	0x3d236854	0.039894417
62	0xbe9d645c	-0.3074063
63	0xbe1201e9	-0.14258541

conv1.bias f4 [64]
0	0xbbaa7100	-0.005201459
1	0xbc1bf131	-0.009517954
2	0x3b49077f	0.0030674634
3	0xbbde56ce	-0.0067852503
4	0xbc24c560	-0.0100568235
5	0xbb021a80	-0.001985222
6	0xbbf0b061	-0.0073452448
7	0xbbc90cf2	-0.0061355764
8	0xbeb7bc27	-0.35885736
9	0xbee2e80d	-0.44317666
10	0xbed500c5	-0.4160215
11	0xbec3abba	-0.38216954
12	0xbe44eb25	-0.19230326
13	0xbdaabe30	-0.08337057
14	0xbf1cc85b	-0.6124322
15	0x3d811685	0.063031234
16	0x3b04e107	0.0020275728
17	0xbac6ddc2	-0.001517229
18	0xbb8d0d92	-0.004304596
19	0xbb292b13	-0.0025813028
20	0xbab7111d	-0.0013966892
21	0xbb18da3f	-0.0023323444
22	0xbbded046	-0.0067997305
23	0xbbff460e	-0.0077903336
24	0xbc1df3ea	-0.009640673
25	0xbc0f17ed	-0.008733732
26	0xbbc2e689	-0.005947892
27	0xbc5d9923	-0.01352528
28	0xbbde2f17	-0.006780516
29	0xbbdbb549	-0.0067049605
30	0x3b869a23	0.00410773
31	0xbc6c7cb5	-0.014434029
32	0x3bbf5681	0.0058391695
33	0xbb4dd64b	-0.0031408246
34	0xba01cc97	-0.0004951446
35	0xbb286b10	-0.002569858
36	0xbb8a25e5	-0.004215943
37	0xba373c06	-0.000698984
38	0xbc7e3104	-0.015514616
39	0xbb412be2	-0.002947562
40	0xbea78e57	-0.32725784
41	0xbe327a74	-0.17429525
42	0xbe7fe5ce	-0.24990007
43	0xbe9995c2	-0.2999707
44	0x3d8fca06	0.07020955
45	0xbea0458b	-0.31303057
46	0xbdaa9099	-0.08328361
47	0xbd1f36f3	-0.038870763
48	0xbd7b61fd	-0.061372746
49	0xbd175bff	-0.03695297
50	0xbde476aa	-0.11155446
51	0xbde6d094	-0.11270252
52	0xbdfb092b	-0.12257608
53	0xbd73f095	-0.05955561
54	0xbdc10e0a	-0.09426506
55	0x3c09774a	0.008390257
56	0xbee360ab	-0.4440969
57	0xbe69d099	-0.2283348
58	0x3e2d79cd	0.16940995
59	0xbb2dad1d	-0.0026500889
60	0xbe283d82	-0.16429713
61	0x3d138218	0.03601274
62	0xbd9a7cfd	-0.07543371
63	0xbe2742d7	-0.16334091

conv1.lin.weight f4 [64, 12]
0	0xbbcabada	-0.006186825
1	0xbbb4f205	-0.005522015
2	0xbb96e548	-0.004604969
3	0xbc0dd95c	-0.00865778
4	0x3c09aac7	0.008402533
5	0x3c86f3b1	0.016473623
6	0xbaa50f1e	-0.0012593006
7	0x3d7739e4	0.060357943
8	0x3d22246f	0.039585527
9	0x3dd3055d	0.10303757
10	0xbd2b960d	-0.041891146
11	0xbcdcc8f0	-0.026951283
12	0xbc823e30	-0.015898794
13	0xbb598f1b	-0.003319687
14	0xbb9edeed	-0.004848352
15	0xbba41931	-0.005007886
16	0xbbc7892c	-0.00608935
17	0x3b8dc4fd	0.0043264613
18	0x3cc17cde	0.023619112
19	0xbc8a2dca	-0.016867537
20	0x3cb7cbd7	0.022436066
21	0x3b8ee3db	0.0043606586
22	0x3b4750de	0.003041319
23	0xbbd59f1c	-0.0065192115
24	0xbc575eb5	-0.0131451385
25	0x3b58cab7	0.0033079812
26	0x3b18400c	0.0023231534
27	0xbb6d9751	-0.0036253522
28	0x3c10414b	0.00880463
29	0xbcc16c45	-0.023611197
30	0x3c8c66e0	0.017138898
31	0xbbbecd65	-0.005822825
32	0x3d020df4	0.031751588
33	0xbd07f397	-0.03319129
34	0x3d9c486c	0.07631001
35	0xbd40a119	-0.047028635
36	0xbc6fc426	-0.014634168
37	0xbbbdd763	-0.0057934984
38	0xbbb7c016	-0.005607615
39	0xbb541d34	-0.003236604
40	0x3b23497b	0.0024915624
41	0xbae9c422	-0.0017834941
42	0x3ae6f756	0.0017621319
43	0xbc8efb8f	-0.017453937
44	0x3bd0d444	0.0063729603
45	0x3d021669	0.031759653
46	0x3d91a697	0.071118526
47	0x3bc9eea4	0.0061624814
48	0xbb8735e7	-0.0041262987
49	0xbc044d48	-0.008075066
50	0xbc1d4e32	-0.009601163
51	0xbc06c33e	-0.00822526
52	0xbb163064	-0.0022917027
53	0x3bd56860	0.0065126866
54	0x3c85c33b	0.016328445
55	0x3ca4a925	0.020100186
56	0x3c6f2bc8	0.014597841
57	0x3cc665af	0.024218408
58	0x3ccd82c9	0.025086777
59	0xbb6d2f4c	-0.0036191521
60	0xbc68ef08	-0.014217146
61	0xbb04fa3f	-0.002029076
62	0xbab2a60b	-0.0013629807
63	0xbc9b9077	-0.018989785
64	0xbc943063	-0.018089479
65	0x3c43ac39	0.011942917
66	0x3ca406ac	0.020022713
67	0xbd1d34d4	-0.03838046
68	0x3ce93484	0.028467424
69	0xbca81812	-0.02051929
70	0xbbed6be0	-0.0072455257
71	0xbc349f7c	-0.011024352
72	0xbb866bfe	-0.004102229
73	0xbb5c2a5b	-0.0033594582
74	0xbb8e5234	-0.0043432955
75	0xbbcbca42	-0.0062191794
76	0xbb5904fd	-0.0033114546
77	0xbbc391f6	-0.0059683276
78	0xbbf18ef3	-0.007371777
79	0x3cc00234	0.02343855
80	0x3bddb2ea	0.006765713
81	0x3cbb972e	0.022899237
82	0x3bbb0d63	0.005708383
83	0xbcd66df3	-0.026175475
84	0xba4ed136	-0.0007889451
85	0xbc145eab	-0.009055774
86	0xbbf2599f	-0.0073959376
87	0xbca71026	-0.020393442
88	0x3ae91c69	0.0017784956
89	0xbc359120	-0.011081964
90	0x3b20bef1	0.0024527872
91	0x3d5b54f3	0.05354781
92	0x3bc8f111	0.006132253
93	0x3dae9deb	0.08526214
94	0x3c41db7d	0.011832115
95	0xbb8f29b8	-0.004368987
96	0x3da2fc54	0.07958284
97	0xbec06406	-0.37576312
98	0xbeba40fc	-0.36377704
99	0xbec67db5	-0.38767782
100	0xbf4fb51d	-0.8113573
101	0xbed7494d	-0.42048112
102	0xbe52a790	-0.20571733
103	0x3fa816ab	1.3131918
104	0x3e42285c	0.18960708
105	0x3fa3b241	1.2788774
106	0x404d0513	3.2034347
107	0xbf874d79	-1.0570518
108	0x3d8022f0	0.06256664
109	0xbebc5641	-0.36784557
110	0xbebc2ae7	-0.36751482
111	0xbd395891	-0.04525048
112	0xbeaa3aa8	-0.33247876
113	0x3ed4d109	0.4156573
114	0x3f90619b	1.1279787
115	0x4046cb23	3.1061485
116	0x3b8fc8e2	0.004387961
117	0x400f4481	2.2385561
118	0x3e6d8e88	0.23198903
119	0xbe4a49ac	-0.19754666
120	0xbebcbc2f	-0.36862323
121	0xbdb7770a	-0.08958252
122	0xbdd55a5c	-0.10417625
123	0xbd621bef	-0.05520242
124	0x3e325e78	0.1741885
125	0xc044248e	-3.0647311
126	0xbde4e241	-0.11175967
127	0x3fb8633b	1.4405283
128	0x3e09e067	0.13464509
129	0x3f37dbc1	0.7181969
130	0xc00b4a0b	-2.1763942
131	0xbf7e4081	-0.99317175
132	0x3d3647aa	0.044501938
133	0xbecad6e7	-0.39617082
134	0xbec8872e	-0.39165634
135	0xbdf6f53e	-0.12058495
136	0xbedd9d57	-0.43284103
137	0xc00a7bed	-2.1638138
138	0x3f18e4b2	0.5972396
139	0x4000fc16	2.015386
140	0x3e4ddbb1	0.20103337
141	0x3fc31b8e	1.5242784
142	0x4054a3ac	3.3224897
143	0x3fa5c76e	1.2951486
144	0xbda4407c	-0.08020112
145	0xbe05c78c	-0.13064402
146	0xbddc11c5	-0.10745577
147	0xbe347c39	-0.17625512
148	0xbea6509b	-0.32483372
149	0x40597812	3.3979535
150	0x4001321c	2.0186834
151	0xc03227ca	-2.7836785
152	0xbfd78c1f	-1.6839637
153	0xbfe051db	-1.752498
154	0xc0a67bbe	-5.2026052
155	0xc09a5138	-4.8224144
156	0x3eb3d9d7	0.35127136
157	0xbdaa729b	-0.083226405
158	0xbd8d89bc	-0.06911036
159	0xbe486e6d	-0.19573374
160	0x3f8c9a54	1.0984597
161	0x40333997	2.80039
162	0xbe9c6e50	-0.30552912
163	0x40288a99	2.6334593
164	0xbed5f6cb	-0.4178985
165	0x3eabf54b	0.3358558
166	0x40a4e392	5.1527796
167	0xc060d72f	-3.5131338
168	0x3c120d60	0.008914322
169	0xbf19b484	-0.6004107
170	0xbf18e5d6	-0.597257
171	0xbd28329e	-0.041063897
172	0x3e61793d	0.22018905
173	0x3dda9e7f	0.10674762
174	0x3fb2f634	1.3981385
175	0x4018d024	2.387704
176	0x3f15fff2	0.58593667
177	0x400e0c00	2.2194824
178	0x40062e23	2.096566
179	0x3ebd1d66	0.36936492
180	0xbe8f81ff	-0.28028867
181	0x3d8378a1	0.064194925
182	0x3d2e2bca	0.04252223
183	0xbe339a9e	-0.1753945
184	0xc044cc17	-3.0749567
185	0x400166d8	2.021902
186	0xc04449c9	-3.0670035
187	0x3f35ff09	0.7109228
188	0xbfb07bd5	-1.378779
189	0xbf80acd7	-1.0052747
190	0xc10532c2	-8.324892
191	0x3dc2ac65	0.09505538
192	0xbc3fde28	-0.011710681
193	0x3b1babe3	0.0023753576
194	0x3b66a5b6	0.0035193986
195	0xb9d28a70	-0.00040157465
196	0x3b2fcb20	0.0026823953
197	0xbbda1920	-0.006655827
198	0x3c6d482f	0.014482542
199	0xbb11eb89	-0.0022265634
200	0xbb82c2b8	-0.0039904974
201	0x3d3a2ddb	0.045453887
202	0x3cc2ca28	0.023778036
203	0xb9af8c12	-0.00033482962
204	0x3a3bb13f	0.00071598956
205	0xb946bb6e	-0.00018952574
206	0xbb0fc57a	-0.0021937774
207	0xba8fb051	-0.001096258
208	0xba84aa41	-0.001012154
209	0xbc1dd05c	-0.009632196
210	0xbc379a0b	-0.01120616
211	0xba9e1374	-0.0012060241
212	0xbb0b6a4d	-0.0021273077
213	0xbb9d2101	-0.004795194
214	0xbd332e30	-0.04374522
215	0xbbdcb418	-0.006735336
216	0x382092f0	3.828382e-05
217	0xbb8d887d	-0.004319249
218	0xbb9cb6f7	-0.0047825533
219	0xbbaa58f5	-0.005198593
220	0xbb66b0d0	-0.0035200603
221	0x3d2bdc67	0.04195824
222	0x3a80e3f1	0.0009833557
223	0xb9de64ee	-0.00042418338
224	0x3c803169	0.01564856
225	0xbb048bf0	-0.002022501
226	0xbce579fa	-0.028012265
227	0xbcc32065	-0.023819158
228	0xba59e3be	-0.00083118293
229	0xbb1d598f	-0.002400968
230	0xbada5920	-0.0016658641
231	0xbb671391	-0.0035259465
232	0xbc53193b	-0.012884433
233	0xbc9653f8	-0.018350586
234	0xbcdd36ba	-0.027003635
235	0xbc367dfc	-0.011138435
236	0xbaf32045	-0.0018549046
237	0x3c2064e6	0.009789681
238	0xbc58b392	-0.013226407
239	0xbc71d402	-0.014760019
240	0xbb8abfa1	-0.0042342697
241	0xbae34dff	-0.001734197
242	0xba839267	-0.0010038138
243	0xba28bc27	-0.0006436728
244	0x3bbdf9aa	0.0057975845
245	0x3bfc3ceb	0.0076976917
246	0x3ad62336	0.0016337398
247	0x3a300abe	0.0006715468
248	0x3b46baf5	0.0030323837
249	0xbb88746f	-0.0041642706
250	0x3d4f7f99	0.050658796
251	0xbbe2e692	-0.006924459
252	0xbbd6bf31	-0.0065535535
253	0xbb5a43ef	-0.0033304652
254	0xbb55c0cf	-0.0032616144
255	0xba55549c	-0.0008137913

conv2.att_src f4 [1, 8, 8]
0	0x3e28ff2c	0.1650359
1	0x3d0856f7	0.03328606
2	0x3d8ec648	0.06971413
3	0xbf9238f8	-1.1423635
4	0x3dba48ff	0.09095954
5	0x3f6de058	0.92920446
6	0x3e97b0e8	0.29627156
7	0xbe74ace7	-0.23894082
8	0xbda8ad5e	-0.08236192
9	0xbe05a009	-0.1304933
10	0xbe776486	-0.2415944
11	0x3f6f7dbd	0.93551236
12	0xbe7f5c86	-0.24937639
13	0x3ebcbd6b	0.36863264
14	0xbe843457	-0.25821182
15	0x3f0fbd48	0.56148195
16	0xbf5cd348	-0.8625989
17	0xbe89c505	-0.26908126
18	0x3e812e28	0.25230527
19	0xbe3c49d1	-0.18387534
20	0xbede340e	-0.4339909
21	0xbe41b470	-0.18916488
22	0xbd156680	-0.036474705
23	0x3ed0ad9c	0.40757453
24	0xbf98d003	-1.193848
25	0xbe87c585	-0.26517883
26	0xbf092c46	-0.5358318
27	0x3d84ab93	0.06478038
28	0xbf427f47	-0.7597546
29	0x3da571e2	0.08078362
30	0x3e5403a6	0.20704517
31	0x3f3018fb	0.6878812
32	0x3c1dd8ac	0.009634178
33	0xbd65a4a6	-0.056065224
34	0xbdc5d9de	-0.096606955
35	0x3e8f6ff1	0.28015092
36	0x3f059134	0.5217469
37	0xbc51e8a0	-0.01281181
38	0x3e7c7738	0.24654853
39	0x3f67e68f	0.9058618
40	0x3d716e0a	0.058942832
41	0xbf2fed90	-0.68721867
42	0x3db8438f	0.08997261
43	0xbeaee5d0	-0.34159708
44	0x3e63fcef	0.22264455
45	0x3e9a8698	0.30180812
46	0x3e1697a2	0.14706281
47	0x3e44e3c3	0.19227509
48	0x3e42f75e	0.19039676
49	0x3e9e7bde	0.30953878
50	0x3ce2edee	0.027701344
51	0x3ca8f0f0	0.0206227
52	0x3f179ec7	0.5922665
53	0xbeb9f63e	-0.3632068
54	0x3dca7491	0.098855145
55	0x3f4755aa	0.7786509
56	0xbde4b4b3	-0.11167278
57	0x3d98292e	0.074297294
58	0xbec8e4bd	-0.39237013
59	0x3e3776c7	0.17916404
60	0x3ea527fa	0.32257062
61	0xbed78ecd	-0.42101136
62	0xbe514c4e	-0.20439264
63	0x3f5818b5	0.844127

conv2.att_dst f4 [1, 8, 8]
0	0xbe9780ef	-0.29590556
1	0xbf6fbe10	-0.9364939
2	0xbde63390	-0.112403035
3	0x3f1d227f	0.6138076
4	0x3f27ca50	0.6554308
5	0x3cff6a21	0.031178536
6	0xbed06b26	-0.40706748
7	0x3eb2e768	0.34942174
8	0x3eb92728	0.36162686
9	0xbedd9b15	-0.4328238
10	0xbde32d96	-0.11092679
11	0x3e3a78d5	0.18210156
12	0x3e21ec01	0.15812685
13	0x3e9504f0	0.2910533
14	0x3dd73485	0.10508064
15	0x3ed8ffd5	0.42382684
16	0xbf24329e	-0.64139736
17	0x3e433660	0.19063711
18	0x3ea92cee	0.3304209
19	0x3e68f964	0.22751385
20	0x3d30d444	0.043171182
21	0x3e155d4c	0.14586371
22	0xbec12fa9	-0.37731674
23	0xbe26230f	-0.16224311
24	0xbe5ea609	-0.21743025
25	0x3f016219	0.5054031
26	0x3e6478e5	0.22311743
27	0x3f582721	0.84434706
28	0xbe3962a3	-0.18104033
29	0xbf280f9d	-0.65648824
30	0xbe9d68ed	-0.30744115
31	0x3e8418a8	0.2580006
32	0xbe11f0e3	-0.14252047
33	0x3e82c4ff	0.2554092
34	0xbef7e2e7	-0.484153
35	0xbed8ee8b	-0.42369494
36	0x3e228b22	0.15873387
37	0x3f3a40ff	0.72755426
38	0xbf3a23da	-0.72710955
39	0xbe81aed8	-0.25328708
40	0x3e8f386c	0.27972734
41	0x3f108061	0.5644589
42	0xbee11ebe	-0.43968767
43	0x3eaaba08	0.33345056
44	0x3ead2d80	0.33823776
45	0xbd873c2a	-0.06603272
46	0xbdf3adb3	-0.11898365
47	0x3e21b859	0.1579298
48	0xbdf70a86	-0.12062554
49	0x3ea4a240	0.32155037
50	0x3e0fd568	0.14046252
51	0xbf5c2731	-0.859973
52	0x3e65ddee	0.2244794
53	0xbe19e208	-0.1502763
54	0x3d0202c1	0.031740908
55	0xbeba03c3	-0.36330995
56	0x3e78a7f1	0.24282815
57	0x3f2f8eef	0.68577474
58	0xbe89b88d	-0.26898614
59	0x3f090e51	0.5353747
60	0x3f771285	0.96512634
61	0x3de6567b	0.112469636
62	0x3ed0ee7e	0.40806955
63	0x3f260f04	0.6486666

conv2.bias f4 [64]
0	0x3d703a71	0.058649484
1	0xbe7927a6	-0.24331531
2	0xbe9b2758	-0.30303454
3	0xbc708f12	-0.014682548
4	0x3e831d3d	0.25608245
5	0xbc891a93	-0.016736304
6	0x3e40fa81	0.1884556
7	0x3e96a783	0.29424676
8	0xbe7770ca	-0.2416412
9	0x3e87a056	0.26489514
10	0x3e9c91c2	0.30579954
11	0xbec36888	-0.3816569
12	0xbec4fbcf	-0.38473365
13	0xbeaac1ae	-0.3335089
14	0x3d9f3a95	0.077748455
15	0xbeb5607f	-0.35425183
16	0x3dff73ee	0.12473284
17	0xbdd033ac	-0.10166106
18	0xbea7c8d5	-0.3277041
19	0xbe10c212	-0.14136532
20	0xbd0e08d2	-0.03467638
21	0xbea77ab1	-0.32710794
22	0x3e77dbf8	0.24205005
23	0x3e5dcebd	0.21660896
24	0xbe7b763c	-0.24556822
25	0xbe960874	-0.29303324
26	0x3e209352	0.15681198
27	0x3e630a93	0.22172002
28	0x3d02ec9b	0.031963926
29	0x3da10847	0.07862907
30	0x3d770f6c	0.06031744
31	0x3e98293f	0.29718968
32	0xbec20eee	-0.37902015
33	0x3e961771	0.2931476
34	0xbe83f77e	-0.2577476
35	0xbeb71aa7	-0.35762522
36	0x3ed8076e	0.42193168
37	0x3e7cd1cc	0.24689406
38	0xbe5dfa3e	-0.21677491
39	0xbe754e3d	-0.23955627
40	0xbe81e6c9	-0.25371388
41	0xbe2aa1ec	-0.16663331
42	0xbed62a6b	-0.41829237
43	0x3eeac6e2	0.4585486
44	0xbe9ab614	-0.3021704
45	0xbd2b9a0c	-0.041894957
46	0xbe66fe80	-0.22558022
47	0x3e44ca7b	0.19217865
48	0xbe9062d8	-0.28200412
49	0x3de743f0	0.11292255
50	0xbc0f873f	-0.0087602725
51	0xbe954a71	-0.29158357
52	0x3e1d0fa5	0.15337999
53	0xbde1da67	-0.11027985
54	0xbe3ac793	-0.18240194
55	0xbd6c1fc4	-0.05764748
56	0x3ce54db7	0.027991159
57	0x3dbd534f	0.092444055
58	0x3e2ba0fb	0.16760628
59	0xbe93e3d2	-0.2888475
60	0xbe5453a5	-0.20735033
61	0xbe883506	-0.26602954
62	0xbdac5d1b	-0.08416196
63	0xbd02c46f	-0.031925615

conv2.lin.weight f4 [64, 64]
0	0xbc3ebe78	-0.011642091
1	0x3bb4535b	0.005503101
2	0x3ab4b88a	0.0013787907
3	0xb9d9be4c	-0.00041531248
4	0x3b33ef34	0.0027455809
5	0xb9860d2d	-0.00025568288
6	0x3bd43dc8	0.0064770915
7	0xbc0a7f6e	-0.008453233
8	0xbe813235	-0.25233617
9	0x3df78db9	0.12087578
10	0x3d1c242c	0.038120434
11	0xbe141a5e	-0.14463183
12	0x3f379510	0.71711826
13	0xbebff301	-0.37490085
14	0xbec32cf7	-0.38120243
15	0x3f2a097c	0.6642072
16	0x3a419ec1	0.0007386022
17	0xbab48813	-0.0013773463
18	0x3bbcf375	0.005766327
19	0x3b8f446d	0.0043721707
20	0xb9c204f4	-0.00037006254
21	0x38b3c339	8.571748e-05
22	0x39dec495	0.00042489605
23	0x3a4d7da7	0.0007838853
24	0xbbb0c749	-0.0053948504
25	0xbc1a85c8	-0.00943131
26	0x3b1b128c	0.0023662178
27	0x3bc5d5db	0.0060374564
28	0xbc05c181	-0.008163811
29	0xbb41bd49	-0.0029562286
30	0xbbd934d6	-0.006628613
31	0x3ac7deee	0.0015248933
32	0x3c7051cb	0.014667938
33	0xba34f581	-0.0006903038
34	0xba452b01	-0.00075213617
35	0xb99234dd	-0.00027886676
36	0xba7e0063	-0.00096893887
37	0xba0f0252	-0.0005455363
38	0x3ba3e0fa	0.0050011845
39	0xb91d21f7	-0.0001498534
40	0xbe85d5a1	-0.26139548
41	0xbe14cf73	-0.1453226
42	0x3be79d15	0.007068286
43	0x3eb95f3f	0.3620548
44	0x3ef1abd8	0.4720142
45	0xbdc64a8d	-0.09682188
46	0x3e6e2723	0.23257117
47	0xbcea0cbc	-0.028570525
48	0xbd19ac36	-0.03751775
49	0xba4312fa	-0.00074414874
50	0xbd0fb0b3	-0.035080623
51	0x3b8d5206	0.0043127565
52	0xbd0a035b	-0.033694606
53	0x3d9e0dda	0.07717486
54	0x3e5c179e	0.21493384
55	0x3c34c5be	0.011033474
56	0x3c998131	0.018738361
57	0xbe9a8974	-0.30182993
58	0x3f1055de	0.5638102
59	0x3eacbde3	0.33738622
60	0xbd4fd30c	-0.05073838
61	0xbf0d1ada	-0.551191
62	0xbd95577a	-0.072920755
63	0x3f3a48d0	0.72767353
64	0x3bd30d70	0.006440811
65	0x3bb379aa	0.00547715
66	0x3b40c188	0.0029412229
67	0x3b992f1a	0.0046748044
68	0xbb674c66	-0.003529334
69	0x3ac2e342	0.0014868753
70	0x3bac1a68	0.0052521713
71	0xbc073d50	-0.008254364
72	0xbd0d412d	-0.034485985
73	0xbe604178	-0.21899974
74	0x3dfe3228	0.1241191
75	0xbe8b7389	-0.27236584
76	0xbdaca401	-0.08429719
77	0x3f9dff6d	1.2343575
78	0xbe3906d2	-0.18069008
79	0xbf98a21c	-1.1924472
80	0x3c2a38bc	0.010389503
81	0xbac2fd9a	-0.0014876605
82	0xbc4fb35f	-0.012677043
83	0xbaf9a818	-0.0019047288
84	0x3a99697b	0.0011704409
85	0xbb4c6a41	-0.0031191262
86	0xb9d54b7d	-0.0004068277
87	0xbb0546e2	-0.002033644
88	0xbbb1b417	-0.0054230797
89	0xbb3980ba	-0.0028305487
90	0xbad9c642	-0.0016614872
91	0x3b3d69e8	0.0028902236
92	0x3be3095e	0.006928607
93	0xbbab3f1c	-0.005226029
94	0xbc412ad1	-0.011789993
95	0xbb3ccd11	-0.0028808753
96	0xbba9805a	-0.0051727714
97	0xbc02e31f	-0.00798872
98	0x3a86c8b4	0.0010283203
99	0x3a5c3aa5	0.00084010727
100	0xba76e4a5	-0.0009418226
101	0xb9ca7818	-0.0003861792
102	0x3b620128	0.0034485552
103	0xb9f74879	-0.00047165508
104	0xbf35e952	-0.71059144
105	0xbe1bc633	-0.15212326
106	0xbe0a7b03	-0.13523488
107	0xbde217d6	-0.110397026
108	0xbe0aef3c	-0.13567823
109	0xbdeafdd9	-0.11474199
110	0x3ee56dc4	0.44810307
111	0xbde97793	-0.1139976
112	0x3d972184	0.073794395
113	0xbc27930e	-0.010227932
114	0xbcbc00a8	-0.022949532
115	0xbcc346ec	-0.02383753
116	0xbd116897	-0.035500135
117	0x3d7d1b3b	0.061793547
118	0x3e3c5b4d	0.18394203
119	0x3cbe481d	0.023227746
120	0xbe07eb03	-0.13273244
121	0xbe2a3cf3	-0.16624813
122	0xbf78dfea	-0.97216666
123	0xbd90400f	-0.07043468
124	0xbd473de5	-0.04864301
125	0xbf2a8c89	-0.6662069
126	0xbdbbad67	-0.09163933
127	0xbf38cb8c	-0.7218559
128	0xbbd3ba09	-0.006461386
129	0xbbc1bc4f	-0.0059123407
130	0x3c67904f	0.014133527
131	0xbaebc87a	-0.0017988824
132	0x35ab827f	1.2778472e-06
133	0x3ac50b24	0.0015033227
134	0xbc5e0f29	-0.013553419
135	0xbc973c02	-0.018461231
136	0x3da920d7	0.08258217
137	0xbe5c7dfd	-0.21532436
138	0x3f79a952	0.9752399
139	0xbe60edfc	-0.21965784
140	0xbefb6390	-0.49099398
141	0x3f607eb5	0.8769334
142	0xbea16b7b	-0.31527314
143	0xbe88d28c	-0.26723135
144	0x3b38eda2	0.0028217812
145	0x39cc7195	0.00038994537
146	0x3c5021d9	0.012703382
147	0x3b3ecb3e	0.002911284
148	0x39861b08	0.00025578612
149	0xb841eee1	-4.623726e-05
150	0xbaa6faf9	-0.0012739591
151	0xba2858fc	-0.0006421951
152	0xbb8dfa34	-0.004332805
153	0x3b9a43c2	0.0047077844
154	0xba29e2c3	-0.00064806285
155	0xbbe3bf2e	-0.0069502806
156	0x3afc4e7a	0.0019249462
157	0xbbe0e13a	-0.0068627866
158	0xbb07f1f9	-0.0020743592
159	0x3a5166c4	0.00079880306
160	0x3c2be44f	0.010491445
161	0xbb46c595	-0.003033017
162	0x3937eb71	0.00017539949
163	0xba18b404	-0.0005825164
164	0xbae8a863	-0.0017750378
165	0x39cdc08e	0.0003924411
166	0x3b874b68	0.004128862
167	0xba2e28bf	-0.0006643645
168	0xbf318014	-0.69336057
169	0xbe128050	-0.1430676
170	0xbcc07d2a	-0.023497183
171	0xbe0c056e	-0.13673946
172	0xbedff74d	-0.43743363
173	0xbe983358	-0.29726672
174	0xbd9a852c	-0.07544932
175	0xbe3f34cc	-0.18672484
176	0xbd162b14	-0.036662176
177	0xbca62030	-0.02027902
178	0xbce5cec5	-0.028052697
179	0xbd6f9727	-0.05849376
180	0x3cf749e1	0.030186595
181	0xbd9dca77	-0.07704633
182	0x3e91edca	0.2850173
183	0x3c83a727	0.016070915
184	0x3cd31890	0.025768548
185	0xbe080d36	-0.1328629
186	0xbf8f0cf8	-1.1175833
187	0xbcebbeed	-0.028777564
188	0xbd4f288e	-0.050575785
189	0xbf04194e	-0.5160111
190	0xbd500580	-0.050786495
191	0xc0052b8c	-2.080783
192	0x3b11da9a	0.002225554
193	0x3b5d0bf0	0.003372904
194	0xbbe1effe	-0.0068950644
195	0xbafcfc12	-0.0019301197
196	0x3bae1366	0.005312371
197	0xbad23808	-0.0016038427
198	0xbb9ec5ec	-0.0048453715
199	0x3b1c9754	0.002389391
200	0x3eebca2d	0.46052685
201	0xbd79f18d	-0.061021376
202	0xbe6d34cc	-0.23164672
203	0x3e93e875	0.28888288
204	0xbe51ae3f	-0.20476626
205	0xbf7cc192	-0.98732865
206	0x3ee184a8	0.4404652
207	0xbf25d468	-0.6477723
208	0xbb2744ba	-0.0025523142
209	0x3b2ac317	0.0026056224
210	0xbcb3bd17	-0.021940751
211	0xbaa7eb40	-0.0012811199
212	0x3ac6726f	0.0015140305
213	0x390bb29d	0.00013322612
214	0x39fb3369	0.00047912754
215	0xba8baa6f	-0.0010655652
216	0x3ab8e489	0.0014106195
217	0xbbd611a8	-0.0065328665
218	0x3ae5b0d7	0.0017524016
219	0x3bd1ecd3	0.0064064055
220	0xbbff0c18	-0.007783424
221	0x3bd4e57b	0.0064970828
222	0x3c5df2a8	0.013546623
223	0xbb1a5433	-0.0023548722
224	0xbc1fdfb1	-0.009757922
225	0xbb1ad0b7	-0.002362294
226	0xb946e83c	-0.00018969266
227	0x3931ce09	0.0001695679
228	0x3b06edc6	0.0020588501
229	0x39090f92	0.00013071139
230	0xbb3691b7	-0.002785785
231	0x3a425582	0.00074132544
232	0x3ee4ad81	0.44663623
233	0xbc2e6696	-0.010644576
234	0xbd5eee75	-0.05442663
235	0xbef85cb3	-0.48508224
236	0x3db0d8a5	0.08635072
237	0x3e3aa669	0.18227543
238	0x3e94a79d	0.2903413
239	0x3dcc03e3	0.09961679
240	0x3ccab0db	0.024742534
241	0x3c39403f	0.011306821
242	0x3d934fb7	0.07192939
243	0x3da16e64	0.078823835
244	0x3d89bc63	0.06725385
245	0xbd470bd8	-0.04859528
246	0xbdcd333e	-0.10019539
247	0x3ceeac84	0.029134996
248	0x3e17da44	0.14829355
249	0x3a3043ab	0.00067239505
250	0xbef7de7e	-0.48411936
251	0xbd343be7	-0.04400244
252	0x3c727a74	0.014799703
253	0x3ee6723e	0.45009035
254	0xbd70a7d6	-0.05875381
255	0x3da98367	0.08277016

fc1.weight f4 [128, 74]
0	0xbed94c1b	-0.42440876
1	0x3cb62535	0.022234539
2	0x3efb0aa7	0.49031565
3	0x3ea970ff	0.33094022
4	0xbdae70ab	-0.085175835
5	0x3e85dbab	0.26144156
6	0xbf194dcb	-0.5988433
7	0x3e776a93	0.24161749
8	0x3eaa5424	0.3326732
9	0xbe929a38	-0.28633285
10	0x3e04bad5	0.12961896
11	0xbd9eb232	-0.07748832
12	0xbdea2a26	-0.114338204
13	0xbda37dc7	-0.079829745
14	0x3e333dfb	0.17504112
15	0xbddd26fb	-0.107984506
16	0x3e234a15	0.15946229
17	0xbdce3217	-0.10068148
18	0xbe02c120	-0.12768984
19	0xbde1c0d1	-0.11023105
20	0xbde2b393	-0.11069407
21	0xbe2c4c3c	-0.16825956
22	0x3dbed61a	0.093181804
23	0x3de97843	0.11399891
24	0x3de0e911	0.10981954
25	0x3e625a6f	0.2210481
26	0x3e1ccfe4	0.15313679
27	0x3e414ee9	0.18877758
28	0x3dbf764d	0.09348736
29	0x3ce76649	0.028247016
30	0xbea475d9	-0.3212116
31	0x3d2400eb	0.040039938
32	0x3e9147e5	0.28375164
33	0xbebd3755	-0.36956277
34	0x3eb101b4	0.34571612
35	0xbdd74cfc	-0.105127305
36	0xbe8ef7eb	-0.2792352
37	0x3d7b22e5	0.061312575
38	0xbe274339	-0.16334237
39	0xbe47840a	-0.19483963
40	0xbdd90a5f	-0.10597681
41	0x3df291c2	0.11844207
42	0xbe36023a	-0.17774287
43	0x3d42b9c9	0.04754046
44	0xbe14e63c	-0.14540952
45	0x3d7f43c7	0.062320497
46	0xbd60a7c0	-0.05484748
47	0x3e2f10fa	0.1709632
48	0xbe4cb9cf	-0.19992755
49	0x3d77017b	0.060304146
50	0x3c883fce	0.016631987
51	0xbcc4c627	-0.024020268
52	0xbea0da49	-0.31416538
53	0x3e364155	0.1779836
54	0x3e0028bc	0.12515539
55	0xbe814465	-0.25247493
56	0xbd67c931	-0.056588355
57	0xbe8ea1fd	-0.27857962
58	0x3e60ef43	0.21966271
59	0xbe430cd2	-0.1904786
60	0xbdea9888	-0.11454874
61	0x3ed91416	0.42398137
62	0x3e4c7f48	0.19970429
63	0xbdda5b12	-0.106619015
64	0xbf127fb5	-0.57226115
65	0xba185719	-0.00058113184
66	0xbe96f4d6	-0.2948367
67	0x4079f2ba	3.9054399
68	0xbf0b1f79	-0.543449
69	0x3ec0d17b	0.3765982
70	0xbe697e2a	-0.22802034
71	0x3f8086e2	1.0041163
72	0xbe727815	-0.2367862
73	0xbe808bd7	-0.2510669
74	0xbed2a344	-0.41140187
75	0x3daa18c0	0.08305502
76	0x3f20b337	0.6277346
77	0x3e37b52a	0.17940202
78	0xbe1a7aa3	-0.15085845
79	0x3f14e0ac	0.5815532
80	0xbf0bc971	-0.5460425
81	0x3ee3b59d	0.44474497
82	0x3e855566	0.26041716
83	0xbe9d9c55	-0.30783334
84	0x3e8fdf88	0.28100228
85	0xbef9355d	-0.48673525
86	0xbf0d7a7f	-0.5526504
87	0xbefc935b	-0.49331173
88	0x3f01b291	0.50663096
89	0xbed8c7bd	-0.42339888
90	0xbc47e32a	-0.012200156
91	0xbe005038	-0.12530601
92	0xbeae701b	-0.34069905
93	0xbe0cb10e	-0.13739416
94	0xbe0c329e	-0.13691184
95	0xbdbf8143	-0.093508266
96	0x3df0d23d	0.1175885
97	0x3d7580e0	0.059937358
98	0x3d03c96e	0.03217452
99	0xbe8147f9	-0.25250223
100	0x3c337c71	0.010954962
101	0x3e335d37	0.17516027
102	0xbeb4d534	-0.3531891
103	0xbd33070e	-0.0437079
104	0xbe87106f	-0.26379725
105	0x3e0bbd31	0.1364639
106	0x3e9704c4	0.29495823
107	0xbe7eece5	-0.24895056
108	0x3de7cc32	0.11318244
109	0xbddd2f19	-0.10799999
110	0xbe7aa80e	-0.2447817
111	0x3ef928aa	0.48663837
112	0xbe847336	-0.2586915
113	0x3e7f2e46	0.24919996
114	0x3e9fc45c	0.31204498
115	0xbd633e7c	-0.05547951
116	0x3c4c1647	0.012456483
117	0x3e1d977e	0.15389821
118	0x3e86da79	0.26338556
119	0x3e01a6cd	0.12661286
120	0xbd075168	-0.03303662
121	0xbd1784e8	-0.036991984
122	0xbe041307	-0.12897883
123	0xbdeef51f	-0.11667847
124	0xbdc3aad4	-0.09554067
125	0x3ec06a20	0.37580967
126	0xbdf79194	-0.12088314
127	0x3def5469	0.11686022
128	0xbde3d4f6	-0.111246035
129	0xbd02a4b2	-0.031895347
130	0xbecddc2f	-0.4020705
131	0xbd7d5774	-0.06185098
132	0xbe2758d9	-0.16342486
133	0xbe38a00e	-0.18029806
134	0xbce2a5d3	-0.027666962
135	0x3d268fb7	0.0406644
136	0xbe3d9d7c	-0.18517107
137	0x3e807096	0.25085896
138	0xbed5c496	-0.41751546
139	0xba228e61	-0.00062010257
140	0xbf576f8b	-0.84154576
141	0x407a9648	3.9154224
142	0xbf59ff9a	-0.8515564
143	0xbc209851	-0.00980194
144	0xbe9a1457	-0.30093643
145	0x401ec728	2.4809055
146	0xbea3bd37	-0.31980297
147	0xbe9fb5bf	-0.3119335
148	0xbedc1010	-0.42981005
149	0x3de1b7e2	0.11021401
150	0x3ed9302c	0.42419565
151	0x3e9f4fea	0.31115657
152	0xbd989ecb	-0.07452162
153	0x3e9dd7c7	0.30828688
154	0xbf11247a	-0.56696284
155	0x3e16d77a	0.14730635
156	0x3e448c9d	0.19194265
157	0xbe623fab	-0.220946
158	0x3c9e7e06	0.019347202
159	0xbd856472	-0.06513299
160	0xbe479c18	-0.19493139
161	0xbdd5ed65	-0.1044567
162	0x3d5e9344	0.054339662
163	0xbd882d46	-0.0664926
164	0x3e3f0f1c	0.18658108
165	0xbdfa92ee	-0.12235056
166	0xbd928c5e	-0.07155679
167	0xbe05688e	-0.13028166
168	0xbe1d092f	-0.15335535
169	0xbe5b9286	-0.21442613
170	0x3dfde85f	0.12397837
171	0x3e51dfbb	0.20495503
172	0x3db8e7b0	0.09028566
173	0x3ec1e9ef	0.3787379
174	0x3e42b8f0	0.1901586
175	0x3e26f83e	0.16305634
176	0x3e42f791	0.19039752
177	0xbbc75110	-0.0060826614
178	0xbdf0c1d9	-0.117557235
179	0xbd9f6234	-0.07782403
180	0x3eaf549f	0.34244248
181	0xbeea5b50	-0.4577279
182	0x3eb81972	0.35956913
183	0xbc942bf8	-0.018087372
184	0xbe9e7924	-0.30951798
185	0xbc83b474	-0.016077258
186	0xbe5eab74	-0.21745092
187	0xbe13d967	-0.14438401
188	0xbdf6e8f1	-0.12056149
189	0x3e18c4ea	0.14918867
190	0xbdcc8df2	-0.099880114
191	0x3dc3584c	0.09538326
192	0xbe09e5ac	-0.13466519
193	0xbd587b51	-0.05285198
194	0xbd44b112	-0.04802043
195	0x3d240220	0.04004109
196	0xbbc6249e	-0.0060468456
197	0x3e016bf4	0.12638837
198	0xbbe28ace	-0.0069135195
199	0xbd66a2a1	-0.05630744
200	0xbe48edde	-0.19621989
201	0x3e01d3f1	0.12678505
202	0x3e1a7163	0.15082316
203	0xbe1397da	-0.14413396
204	0x3ca3a460	0.019975841
205	0xbea19eca	-0.3156646
206	0x3e48c1ac	0.1960513
207	0xbe8e68e5	-0.27814403
208	0xbdb81de3	-0.089900754
209	0x3ec07a60	0.37593365
210	0x3e19ef33	0.15032654
211	0xbe12af88	-0.14324772
212	0xbf2d9ac8	-0.678143
213	0x3a137292	0.0005624677
214	0xbed03066	-0.40661925
215	0x4071be9b	3.7772586
216	0xbf131e99	-0.57468563
217	0x3e927049	0.28601292
218	0xbe83462d	-0.25639477
219	0x3fc99505	1.5748602
220	0xbe894e6a	-0.26817638
221	0xbe8d03f7	-0.27542087
222	0xbec12a71	-0.37727693
223	0x3dd300c7	0.10302883
224	0x3f188d59	0.5959068
225	0x3e24d638	0.16097343
226	0xbe3dc2ef	-0.18531393
227	0x3f04c757	0.5186667
228	0xbf0446e3	-0.51670665
229	0x3eea69c7	0.45783827
230	0x3e8467b0	0.25860357
231	0xbe6685c9	-0.22511972
232	0x3eb526b0	0.3538108
233	0xbed35e5a	-0.41282922
234	0xbed41e34	-0.41429293
235	0xbecc4f1e	-0.39904112
236	0x3eb9c1fc	0.3628081
237	0xbebb3d3c	-0.36570156
238	0x3d36ed9e	0.044660203
239	0xbd874ad3	-0.066060685
240	0xbeae24f7	-0.34012577
241	0xbda5fe0e	-0.08105098
242	0xbdb3e00c	-0.08782968
243	0xbe37b048	-0.1793834
244	0x3e24822c	0.16065282
245	0x3ce94beb	0.028478583
246	0xbc194abc	-0.009356197
247	0xbe6b63f2	-0.22987345
248	0x3c94fe5e	0.018187698
249	0x3e49f446	0.19722089
250	0xbe6a6a59	-0.22892131
251	0xbde5b3f0	-0.11215961
252	0xbdc7deff	-0.0975933
253	0x3e057fa3	0.13036971
254	0x3ea13276	0.3148381
255	0xbe775c8a	-0.24156395

fc1.bias f4 [128]
0	0xbe69571c	-0.22787136
1	0xbe9a12d9	-0.30092505
2	0xbe8300a8	-0.25586438
3	0xbeac29af	-0.33625552
4	0xbe7e6392	-0.2484267
5	0xbd304002	-0.043029793
6	0xbe6c8dd0	-0.23100972
7	0xbe54ec13	-0.2079318
8	0xbe6fcc7a	-0.23417845
9	0xbec8098c	-0.39069784
10	0xbe6903f0	-0.22755408
11	0xbe122f71	-0.1427591
12	0xbd0ce147	-0.03439453
13	0xbe8a4bb5	-0.27010885
14	0xbe81e3b0	-0.25369024
15	0xbe731554	-0.23738605
16	0xbe766a12	-0.240639
17	0xbe997153	-0.29969272
18	0xbdf8069b	-0.12110635
19	0xbe77654e	-0.24159738
20	0xbe7e3ba1	-0.24827434
21	0xbe013bc9	-0.12620462
22	0xbe45a331	-0.19300534
23	0xbecc25ef	-0.3987269
24	0x3d31c00a	0.043396033
25	0xbeb0aa20	-0.34504795
26	0xbe84e747	-0.259577
27	0xbe7b751a	-0.2455639
28	0xbe864306	-0.2622301
29	0xbe71d92a	-0.23617998
30	0xbcc32d93	-0.023825442
31	0xbe7a2cd4	-0.24431163
32	0xbb457074	-0.0030126842
33	0xbe807671	-0.25090364
34	0xbe730ee3	-0.23736148
35	0xbe80af28	-0.25133634
36	0xbe81f57a	-0.25382596
37	0xbe67f2ad	-0.22651167
38	0xbe61b48e	-0.22041532
39	0xbe823325	-0.25429645
40	0xbea13d2e	-0.3149199
41	0xbe681440	-0.22663975
42	0xbe8f82e1	-0.2802954
43	0xbea0eaff	-0.31429288
44	0xbe23c39c	-0.15992588
45	0xbe60437f	-0.21900748
46	0xbe6da7c2	-0.23208526
47	0xbe7a65fc	-0.24452966
48	0xbe6550d2	-0.22394112
49	0x3e59a146	0.21252927
50	0x3e8d6920	0.27619267
51	0xbd9d3099	-0.07675285
52	0xbea16c9f	-0.31528184
53	0xbe74fb1a	-0.23923913
54	0xbea53de5	-0.32273784
55	0x3e8e0e1b	0.27745137
56	0xbe90742a	-0.28213626
57	0xbe692940	-0.22769642
58	0xbe790a98	-0.24320447
59	0xbead2c1b	-0.33822712
60	0xbe8ee4a3	-0.2790881
61	0xbe69885e	-0.22805926
62	0x3ee864ae	0.45389313
63	0xbe8ed76b	-0.27898726
64	0xbe386f5b	-0.18011229
65	0xbe641828	-0.2227484
66	0xbe7cc2c4	-0.24683672
67	0x3c9ebd40	0.01937735
68	0xbe72c18f	-0.23706649
69	0xbec7486d	-0.38922444
70	0xbdf9f5db	-0.12205096
71	0xbe2a45e7	-0.16628228
72	0xbd058dfc	-0.03260611
73	0xbdd7a369	-0.10529215
74	0xbe5d985f	-0.21640156
75	0xbc8cbd92	-0.017180238
76	0xbe712c8e	-0.23552153
77	0xbea6912b	-0.3253263
78	0xbd444c9a	-0.047924615
79	0xbd9d7f8f	-0.076903455
80	0xbe6c66d7	-0.23086105
81	0xbe5b5239	-0.21418084
82	0xbe6a10c4	-0.22857958
83	0xbe960497	-0.29300377
84	0x3db7869e	0.08961223
85	0xbe5c8ed9	-0.21538867
86	0xbe7fa50c	-0.24965304
87	0xbe6ac25d	-0.22925706
88	0xbe6f198d	-0.2334959
89	0xbd88f3df	-0.0668714
90	0xbe9381bf	-0.28809926
91	0x3ca5fca0	0.020262063
92	0xbdee2ba0	-0.116294146
93	0xbe8043d4	-0.2505175
94	0xbe774c31	-0.24150158
95	0xbe8aa8ad	-0.27081814
96	0xbd8713ad	-0.0659555
97	0xbe2e81a3	-0.1704164
98	0xbdf30052	-0.118652955
99	0xbe6f1c74	-0.23350698
100	0xbe2f44b5	-0.17116053
101	0xbe890d5c	-0.26768005
102	0xbe809134	-0.2511078
103	0xbe8464ed	-0.2585825
104	0xbe745c5a	-0.23863354
105	0xbe5e7774	-0.21725255
106	0xbe81afb2	-0.25329357
107	0xbe89be9d	-0.2690324
108	0xbe807126	-0.25086325
109	0xbe771911	-0.24130656
110	0xbe7de0ee	-0.24792835
111	0xbe610692	-0.21975163
112	0xbe745479	-0.23860349
113	0xbe7c62ac	-0.24647015
114	0xbd704c79	-0.05866668
115	0xbe7e671f	-0.24844025
116	0xbebe80f5	-0.3720776
117	0xbe0cae04	-0.13738257
118	0xbd16df0b	-0.036833804
119	0xbe7d2fcd	-0.24725266
120	0xbe6f6ea9	-0.23382057
121	0xbe88242b	-0.26590094
122	0xbd5e9c83	-0.05434848
123	0xbe41022e	-0.18848488
124	0xbe69df4a	-0.22839084
125	0xbe0380c5	-0.1284209
126	0xbe70ee80	-0.2352848
127	0xbe66e605	-0.22548683

fc2.weight f4 [64, 128]
0	0xbe3d4ab5	-0.1848553
1	0x3e8c2c32	0.27377468
2	0xbde6ab75	-0.112631716
3	0x3e6607cc	0.22463912
4	0xbe637932	-0.22214201
5	0x3eb6d626	0.35710257
6	0xbe2656ec	-0.16244096
7	0x3e82b624	0.25529587
8	0x3e2be6a9	0.16787209
9	0x3e91c0e6	0.28467482
10	0xbe4547a2	-0.19265607
11	0x3e978f5b	0.2960156
12	0x3eb41880	0.35174942
13	0x3e91a963	0.28449544
14	0xbdf7698d	-0.12080679
15	0xbe120776	-0.14260659
16	0xbe0ba099	-0.13635482
17	0xbd54bad8	-0.051936
18	0xbddb7c07	-0.10717016
19	0xbde5cfe2	-0.11221291
20	0xbe68f959	-0.22751369
21	0x3e3b2134	0.18274385
22	0x3ee7729f	0.45204636
23	0x3e88cec1	0.2672024
24	0xbcfa20d0	-0.030533224
25	0x3ebd014d	0.36915055
26	0xbe6b2964	-0.22965008
27	0xbdf46606	-0.11933522
28	0xba42ae1d	-0.00074264576
29	0xbe0b75f8	-0.1361922
30	0x3ea477de	0.321227
31	0xbdfa941b	-0.1223528
32	0x3e38ba8f	0.18039916
33	0xbe1034a8	-0.14082587
34	0xbe3fa98a	-0.18717018
35	0xbddd57fb	-0.108077966
36	0xbe41e6f5	-0.1893576
37	0xbe3f0077	-0.18652521
38	0xbe057de5	-0.13036306
39	0xbe86b132	-0.26307064
40	0xbd73c650	-0.059515297
41	0xbe3d08d6	-0.18460402
42	0x3e682d88	0.22673619
43	0xbe22212d	-0.15832968
44	0x3eae0c7f	0.3399391
45	0x3e8ff6d1	0.28117993
46	0xbe235544	-0.15950495
47	0xbddb716c	-0.10714993
48	0x3e6b5045	0.22979839
49	0xbe788501	-0.24269487
50	0xbe9873f9	-0.2977598
51	0x3e8f47dd	0.27984515
52	0x3e3e3417	0.18574558
53	0xbe144aba	-0.14481631
54	0x3e7f32c3	0.24921708
55	0xbe748ad7	-0.23881088
56	0xbe1da88a	-0.15396324
57	0xbe2f67c3	-0.17129426
58	0xbe137381	-0.1439953
59	0x3e830b86	0.2559473
60	0x3e6adcbd	0.22935767
61	0xbde8431a	-0.113409236
62	0xbea93411	-0.33047536
63	0xbcc48eea	-0.023993928
64	0x3e78f8ff	0.24313734
65	0x3e8724a5	0.26395145
66	0xbdcc7dcd	-0.09984932
67	0xbeb176c3	-0.3466092
68	0xbdec94dd	-0.11551831
69	0x3eb5e9f2	0.3553005
70	0x3e6b0dac	0.22954434
71	0x3e85cf30	0.26134634
72	0xbedb97a5	-0.42889133
73	0x3eaea0cd	0.34107056
74	0xbda29572	-0.07938661
75	0x3ea92538	0.33036208
76	0x3e726391	0.23670794
77	0x3e8e7c30	0.27829123
78	0x3eb31c98	0.34982753
79	0x3eccdbfa	0.4001158
80	0xbdd45319	-0.10367412
81	0x3e90e42e	0.28299087
82	0xbe1c239b	-0.15247957
83	0x3e76067c	0.24025911
84	0x3e238eab	0.15972392
85	0xbe514351	-0.20435835
86	0xbe583c88	-0.21116841
87	0xbe6a6cdd	-0.2289309
88	0xbdf886cd	-0.12135086
89	0x3eab436d	0.3344988
90	0x3e9590ef	0.29212138
91	0xbead74b4	-0.338781
92	0x3e837128	0.2567227
93	0xbde72168	-0.112856686
94	0xbdf22e30	-0.11825216
95	0x3eb0bab0	0.3451743
96	0x3eb1c6cb	0.3472198
97	0x3e872585	0.26395813
98	0x3eacc9dc	0.33747756
99	0xbe1377c3	-0.14401154
100	0xbeaf4a54	-0.34236395
101	0xbe251765	-0.16122206
102	0xbe250f65	-0.16119154
103	0x3e5da67e	0.21645543
104	0xbe03e0a9	-0.1287867
105	0x3e853264	0.26015007
106	0x3eb3c156	0.3510844
107	0xbdc45eed	-0.09588418
108	0xbdf5f971	-0.12010468
109	0xbdb74871	-0.08949364
110	0xbe206e84	-0.15667158
111	0xbe49243d	-0.1964273
112	0xbdd9e5eb	-0.106395565
113	0xbdcb68ab	-0.09932073
114	0x3ec97352	0.39345795
115	0xbdf0c962	-0.11757161
116	0x3e7646d1	0.24050452
117	0x3edadc90	0.427464
118	0x3e9605fb	0.29301438
119	0x3e7ec17c	0.24878496
120	0xbe104b5b	-0.14091246
121	0x3e8cf8c2	0.27533537
122	0x3ebd0242	0.36915785
123	0x3e60f79c	0.21969455
124	0xbe19fdc5	-0.15038212
125	0x3e814d30	0.25254202
126	0xbe2e5f5a	-0.17028561
127	0xbdc7733d	-0.09738777
128	0xbe041dd2	-0.12902
129	0x3e8c984a	0.27459937
130	0xbe21f3f5	-0.15815718
131	0x3e583975	0.21115668
132	0xbd9b00ef	-0.075685374
133	0xbe615621	-0.22005512
134	0xbddd5e07	-0.1080895
135	0x3d1db3af	0.038501438
136	0xbc937284	-0.017998941
137	0x3e3a0b8a	0.18168464
138	0xbdb19a54	-0.08672014
139	0xbd8d22e8	-0.068914235
140	0xbe1949ff	-0.14969634
141	0x3d892791	0.06697
142	0xbe3ec85b	-0.18631117
143	0xbdf308e9	-0.11866934
144	0xbe096e38	-0.13420951
145	0xbe85209a	-0.26001436
146	0xbe474723	-0.1946073
147	0xbe6bf5c2	-0.23042968
148	0xbd90b76b	-0.07066234
149	0xbd97b01b	-0.07406636
150	0xbe39a775	-0.18130286
151	0x3ec36a97	0.3816726
152	0xbe5abfb3	-0.2136219
153	0x3e1732ab	0.14765422
154	0xbdd005b4	-0.10157338
155	0xbe4ff06c	-0.20306557
156	0xbe16c764	-0.14724499
157	0xbe446b0d	-0.19181462
158	0xbe1ebc09	-0.15501417
159	0xbe3b0f4d	-0.18267556
160	0xbd4a49a5	-0.04938664
161	0xbe2fa260	-0.17151785
162	0xbdf4ca0e	-0.119526014
163	0xbe21b481	-0.15791513
164	0xbde0b1f3	-0.10971441
165	0xbe100168	-0.14063036
166	0xbe1b6055	-0.15173467
167	0xbdb0d429	-0.08634216
168	0xbe1bfed5	-0.1523393
169	0xbdf72cd8	-0.120691
170	0x3e9008b6	0.28131646
171	0xbe4df50f	-0.20113014
172	0xbddaf1c7	-0.106906466
173	0x3c41bfc6	0.0118255075
174	0xbdeb35bb	-0.11484858
175	0xbe50dccf	-0.20396732
176	0x3e8a7b00	0.27046967
177	0xbebd695e	-0.3699445
178	0xbe8fc34c	-0.28078687
179	0xbe5d20d4	-0.21594554
180	0x3e2697aa	0.16268793
181	0xbd9d8067	-0.076905064
182	0x3eb956ef	0.36199138
183	0xbebe3069	-0.3714631
184	0xbd8af4bc	-0.06784961
185	0xbda9ced3	-0.08291402
186	0xbe306806	-0.17227182
187	0x3e6b3f98	0.22973478
188	0x3e5c1098	0.21490705
189	0xbd83ecf7	-0.06441682
190	0xbea695d6	-0.3253619
191	0xbdd8e16f	-0.10589873
192	0xbdbec696	-0.09315221
193	0xbdd19699	-0.10233802
194	0xbe32bcde	-0.1745486
195	0xbe09c33f	-0.13453387
196	0xbe825d97	-0.25462028
197	0x3e79ec17	0.24406467
198	0xbd0b5b4b	-0.03402261
199	0xbd85d15a	-0.06534071
200	0x3e78db10	0.24302316
201	0xbcef7d7b	-0.029234638
202	0xbe6d2ce8	-0.23161662
203	0xbe45d2cf	-0.19318698
204	0x3dc9d4ec	0.09855065
205	0x3ea28aef	0.31746623
206	0xbe4ec734	-0.20193177
207	0xbe5bfbbb	-0.21482746
208	0xbe5d7e6f	-0.21630262
209	0xbdda5c19	-0.106620975
210	0xbde1b0f5	-0.1102008
211	0x3e883b79	0.26607874
212	0xbe8b88c7	-0.2725279
213	0xbdd14236	-0.10217707
214	0xbd6b1293	-0.05739076
215	0xbe117d32	-0.14207914
216	0xbdaac93b	-0.08339163
217	0xbdcb269f	-0.09919476
218	0x3e4431c1	0.19159605
219	0xbe01093e	-0.12601182
220	0xbdf29f41	-0.118467815
221	0xbe1a4976	-0.15067086
222	0xbe5b238d	-0.2140028
223	0x3c3db937	0.011579803
224	0xbe298b75	-0.16557105
225	0xbdac735d	-0.08420441
226	0xbda941dd	-0.082645155
227	0xbddbb1d0	-0.107272744
228	0xbe48eded	-0.19622011
229	0xbe04a2d1	-0.12952735
230	0xbe004063	-0.12524562
231	0x3ae7621a	0.0017653138
232	0xbe48b8f0	-0.19601798
233	0xbd3dcb15	-0.046336252
234	0x3e771cfc	0.2413215
235	0xbe013b08	-0.12620175
236	0xbe3fd04c	-0.18731803
237	0xbe6d8638	-0.23195732
238	0xbdfead9c	-0.12435457
239	0xbe0609d4	-0.13089687
240	0xbe341f48	-0.17590058
241	0xbe20c55d	-0.15700288
242	0xbe4fb235	-0.20282824
243	0xbe35d3d6	-0.1775659
244	0x3ebcfb08	0.36910272
245	0x3ba0b5dc	0.004904492
246	0xbe511008	-0.20416272
247	0xbdc551d4	-0.09634748
248	0xbdf2cc9f	-0.118554346
249	0x3e5978f1	0.21237542
250	0xbe19b1e9	-0.15009274
251	0x3e714d88	0.23564732
252	0xbe0a7a65	-0.13523252
253	0xbd9d1185	-0.07669357
254	0xbe5e82eb	-0.21729629
255	0xbe6c621f	-0.23084305

fc2.bias f4 [64]
0	0xbf301454	-0.6878102
1	0xbf035e70	-0.51315975
2	0xbeb1a5f6	-0.3469693
3	0xbf3ddf40	-0.7416878
4	0xbf4e4e39	-0.8058811
5	0xbee7e064	-0.45288384
6	0xbeeab82b	-0.45843634
7	0xbcea4d54	-0.028601326
8	0xbf03d549	-0.5149732
9	0xbf176bc7	-0.5914883
10	0xbf00e24d	-0.5034531
11	0xbf1e24db	-0.61774987
12	0xbf111ef3	-0.5668785
13	0xbec21a76	-0.37910813
14	0xbe99cb37	-0.30037853
15	0xbecffb1d	-0.40621272
16	0xbef3f155	-0.4764506
17	0xbec18aa6	-0.37801093
18	0xbee163c1	-0.4402142
19	0xbec9daba	-0.39424688
20	0xbe647e70	-0.22313857
21	0xbed07d10	-0.40720415
22	0xbe839572	-0.25699955
23	0xbeee43ed	-0.46536198
24	0xbeea50c1	-0.45764735
25	0xbe974eb3	-0.2955223
26	0xbeef9b8f	-0.4679837
27	0xbed2e4c7	-0.41190168
28	0xbed785dc	-0.42094314
29	0xbf07c59b	-0.53035897
30	0xbe3523b7	-0.17689405
31	0xbf6d653e	-0.9273261
32	0xbf4ebc42	-0.8075601
33	0xbf3378f5	-0.7010644
34	0xbd8d08a0	-0.06886411
35	0xbf56efc6	-0.83959615
36	0xbf158ee6	-0.5842117
37	0xbeefb61a	-0.4681862
38	0xbf2f1321	-0.68388563
39	0xbe8917b2	-0.2677589
40	0xbf298601	-0.662201
41	0xbf073aa0	-0.5282383
42	0xbef809af	-0.48444888
43	0x3dec3717	0.11533945
44	0xbf1dd01b	-0.6164567
45	0xbea7a93d	-0.32746306
46	0xbeade370	-0.33962584
47	0xbee4dec9	-0.44701222
48	0xbec800e8	-0.3906319
49	0xbf17c261	-0.59280974
50	0xbf1bd7c3	-0.608761
51	0xbe6991c1	-0.22809507
52	0xbf3229c9	-0.6959501
53	0xbefa7458	-0.48916888
54	0xbeacd3b7	-0.33755276
55	0xbdfe36dd	-0.12412808
56	0xbf15e0df	-0.5854625
57	0xbedc9e7c	-0.43089664
58	0xbeccd287	-0.4000437
59	0xbedf9287	-0.4366648
60	0xbeddef61	-0.43346694
61	0xbf114215	-0.5674146
62	0xbe10b004	-0.14129645
63	0xbeaeb4c5	-0.3412229

fc3.weight f4 [1, 64]
0	0xbdb456c7	-0.08805614
1	0x3e1f8290	0.1557715
2	0x3dd7e29d	0.1054127
3	0x3df25d53	0.118342064
4	0xbe0f7ed4	-0.14013225
5	0xbe283994	-0.16428214
6	0xbd98a482	-0.074532524
7	0xbe3c5785	-0.18392761
8	0xbde6e1c2	-0.11273529
9	0x3dd3c03c	0.103394
10	0x3df17479	0.117897935
11	0x3e148be0	0.14506483
12	0xbe330bd5	-0.17484982
13	0xbe18f0ff	-0.14935683
14	0x3e07bd5d	0.1325583
15	0x3dab54bd	0.08365772
16	0xbe2fd603	-0.17171483
17	0x3c815856	0.015789192
18	0xbd99c6a7	-0.07508593
19	0x3e1bed3f	0.15227221
20	0x3dee7da4	0.11645058
21	0xbdeb2f37	-0.11483615
22	0x3cf3480e	0.029697444
23	0x3dbd6309	0.09247405
24	0x3e0a2db7	0.13494001
25	0xbe35ceab	-0.17754619
26	0xbdbd95c1	-0.09257079
27	0x3c99ddf7	0.018782599
28	0x3de8f4a2	0.11374785
29	0x3e250624	0.16115624
30	0xbe51aa29	-0.20475067
31	0x3de903c2	0.1137767
32	0x3dad30cf	0.08456575
33	0x3dd60acb	0.10451277
34	0x3d838bca	0.06423147
35	0x3d8560ba	0.0651259
36	0x3d3dc645	0.046331663
37	0x3d0bbfc0	0.034118414
38	0x3daeba05	0.08531574
39	0x3e2fbe4c	0.17162436
40	0xbdcf5c39	-0.10125012
41	0x3e1db4e1	0.15401031
42	0x3e249190	0.16071153
43	0x3c9f6f15	0.019462148
44	0xbd933b56	-0.07189052
45	0xbe33f15e	-0.17572543
46	0xbdeea62d	-0.11652789
47	0x3e124f78	0.14288127
48	0x3d0e3327	0.03471675
49	0xbbdc3580	-0.006720245
50	0xbe10eeb3	-0.14153557
51	0x3dcff599	0.10154266
52	0x3dff824d	0.12476025
53	0xbce651d0	-0.028115183
54	0x3b298ae9	0.002587015
55	0xbc256265	-0.01009426
56	0x3e00787a	0.12545958
57	0x3e0642ef	0.1311147
58	0xbe48a7a5	-0.19595201
59	0x3d0dbde0	0.034604907
60	0xbdbbad79	-0.09163947
61	0x3d97c878	0.07411283
62	0xbe219dce	-0.15782854
63	0x3dea767a	0.11448379
