models/0_2023_2023/Postal_GAT/85.pth (torch, 96722 bytes, 13 tensors)

conv1.att_src f4 [1, 8, 8]
-0.0105829425 -0.01498603 -0.010001213 -0.01065119 -0.012058332 -0.017265944 -0.009115566 0.008421839
0.4631572 0.4017823 -0.17550607 0.23069763 -0.8995005 0.3266497 0.5004981 -0.24401121
0.0028502662 0.0043237805 0.0046328288 0.003902006 -0.002791128 -0.004826727 -0.012452943 -0.0049425727
-0.005832005 -0.0027263935 -0.0052590305 -0.0015545673 -0.004011918 -0.0006179842 0.0056685233 -0.0021059855
-0.011181404 -0.00024146211 -0.005703759 -0.0022111528 -0.0043601044 -0.004750707 -0.0013724228 -0.007480912
-1.0610054 1.61072 -0.98217815 1.9159212 0.6808649 1.3130927 -0.26293856 0.34514472
0.026337076 0.01748356 0.04370754 -0.06845061 -0.12070453 0.04319612 -0.008008679 0.09139976
-0.037986364 0.3955492 -0.27152723 -0.25717565 0.05515111 -0.28601748 -0.25424314 -0.04419161
00000000: 1464 2dbc f787 75bc 21dc 23bc 5482 2ebc
00000010: 4f90 45bc 4f71 8dbc 7459 15bc c1fb 093c
00000020: f122 ed3e 69b6 cd3e ddb7 33be 003c 6c3e
00000030: aa45 66bf a13e a73e a520 003f 13de 79be
00000040: 88cb 3a3b 80ae 8d3b fcce 973b ccb8 7f3b
00000050: 5beb 36bb 8529 9ebb 6e07 4cbc 4ef5 a1bb
00000060: 671a bfbb 4bad 32bb f253 acbb 9fc2 cbba
00000070: 6876 83bb 3800 22ba 05bf b93b 9304 0abb
00000080: 3532 37bc fe30 7db9 99e6 babb fde8 10bb
00000090: 35df 8ebb d2ab 9bbb dee2 b3ba 7022 f5bb
000000a0: 06cf 87bf 132c ce3f 0770 7bbf e83c f53f
000000b0: 294d 2e3f 6c13 a83f e29f 86be cfb6 b03e
000000c0: dac0 d73c af39 8f3c ad06 333d d52f 8cbd
000000d0: f033 f7bd 6aee 303d d636 03bc cc2f bb3d
000000e0: 9797 1bbd 6d85 ca3e 9e05 8bbe 87ac 83be
000000f0: 21e6 613d e270 92be 282c 82be 4302 35bd

conv1.att_dst f4 [1, 8, 8]
-0.010845812 0.006072122 -0.0030545301 -0.0050264746 0.011324676 0.0143177435 0.0039736303 0.010000112
-0.6244496 0.17600785 0.118169755 -0.49190336 -0.037873108 0.28987822 -0.0011864154 0.16869654
0.0067195697 0.0037064762 0.0031846703 0.0006446778 2.6272328e-06 -0.00435979 -0.008850658 0.002366247
-0.013266606 4.5501478e-05 -0.012061679 -0.0134817045 -0.009896736 -0.011839482 0.013982439 -0.021983104
0.0031771013 5.2620644e-06 0.0023127105 -0.00085478765 0.006549618 0.005648217 0.000621485 0.0061359867
-0.19603352 -0.007513667 -0.12263863 0.1047566 0.079197645 0.061059993 0.14876135 0.30997527
-0.06791469 0.050236978 -0.04665475 -0.030487629 0.023344586 -0.057903916 -0.04731356 -0.17270845
-0.1354703 -0.0022613893 -0.019202428 0.096442126 -0.14929739 0.030973766 -0.23866856 -0.11070241
00000000: a2b2 31bc a7f8 c63b 832e 48bb 20b5 a4bb
00000010: 228b 393c f894 6a3c 3a35 823b 82d7 233c
00000020: eedb 1fbf 673b 343e fc02 f23d c2da fbbe
00000030: d520 1bbd eb6a 943e 7f81 9bba c9be 2c3e
00000040: d62f dc3b 5ae8 723b e7b5 503b 98ff 283a
00000050: 844f 3036 92dc 8ebb 5a02 11bc 0913 1b3b
00000060: 2e5c 59bc d7d8 3e38 599e 45bc 5ee2 5cbc
00000070: eb25 22bc 63fa 41bc 9a16 653c e915 b4bc
00000080: ea36 503b ca90 b036 d890 173b d413 60ba
00000090: 2e9e d63b ae14 b93b 27eb 223a 6310 c93b
000000a0: 03bd 48be 3535 f6bb f629 fbbd a18a d63d
000000b0: 6032 a23d 0b1a 7a3d e554 183e 14b5 9e3e
000000c0: db16 8bbd 4ac5 4d3d 0d19 3fbd 31c1 f9bc
000000d0: 253d bf3c a82c 6dbd ddcb 41bd 7cda 30be
000000e0: bab8 0abe d133 14bb 694e 9dbc 7383 c53d
000000f0: 6ae1 18be b2bc fd3c 8865 74be f2b7 e2bd

conv1.bias f4 [64]
-0.00403838 -0.0073896777 0.0023815592 -0.005268027 -0.007808054 -0.0015413138 -0.0057028015 -0.0047636265
-0.380131 -0.6832753 -0.33839053 -0.6243801 -0.14924319 -0.11978619 -0.6332765 0.097295746
0.0015741951 -0.0011779668 -0.0033420627 -0.0020041077 -0.0010843808 -0.0018108183 -0.0052792686 -0.0060483664
-0.007484956 -0.006780811 -0.004617909 -0.010500946 -0.0052643507 -0.0052056885 0.0031892157 -0.011206495
0.004533496 -0.002438517 -0.000384427 -0.0019952212 -0.0032732328 -0.00054268684 -0.012045454 -0.0022884689
-0.38588718 -0.1415045 -0.13578203 -0.2328726 0.26647717 -0.24303487 0.03632955 -0.07104455
-0.0476494 -0.028690064 -0.086610176 -0.08750155 -0.09516733 -0.046238605 -0.073186785 0.0065141423
-0.34479403 -0.17727773 0.13152881 -0.0020575144 -0.1275593 0.027960053 -0.058566235 -0.12681685
00000000: 6354 84bb 1c25 f2bb ef13 1c3b 6a9f acbb
00000010: b4da ffbb e905 caba 91de babb 3218 9cbb
00000020: 88a0 c2be 21eb 2ebf 8641 adbe 60d7 1fbf
00000030: 35d3 18be 7652 f5bd 691e 22bf fe42 c73d
00000040: 3955 ce3a 0266 9aba 8206 5bbb 5957 03bb
00000050: c821 8eba fb58 edba b7fd acbb 6031 c6bb
00000060: 5d44 f5bb 9131 debb d451 97bb 290c 2cbc
00000070: 9380 acbb 7b94 aabb 2902 513b 729b 37bc
00000080: b98d 943b 87cf 1fbb eb8c c9b9 42c2 02bb
00000090: bc83 56bb 1943 0eba 4c5a 45bc 23fa 15bb
000000a0: 0193 c5be 8ee6 10be 720a 0bbe 2876 6ebe
000000b0: b26f 883e 22de 78be 4bce 143d ce7f 91bd
000000c0: 042c 43bd 6d07 ebbc ad60 b1bd 0334 b3bd
000000d0: 17e7 c2bd b164 3dbd f4e2 95bd 9674 d53b
000000e0: d888 b0be 4b88 35be 7daf 063e 5dd7 06bb
000000f0: e89e 02be 7b0c e53c 26e3 6fbd 47dc 01be

conv1.lin.weight f4 [64, 12]
-0.0048034135 -0.004287261 -0.0035752673 -0.006721841 0.0065236706 0.012790017 -0.0009777138 0.046861526
0.030733941 0.079997726 -0.03252402 -0.020924807 -0.012343725 -0.002577384 -0.003764232 -0.0038880939
-0.004727736 0.0033590381 0.018337732 -0.013095848 0.017419226 0.0033855892 0.0023612618 -0.0050614737
-0.010205807 0.0025682962 0.0018036807 -0.0028147015 0.0068358597 -0.018331593 0.013306535 -0.004520807
0.024651743 -0.025769498 0.059246607 -0.036512744 -0.0113618765 -0.0044980366 -0.0043537193 -0.002512879
0.0019344323 -0.0013846941 0.0013681082 -0.013551123 0.004947925 0.024657998 0.055215947 0.0047845137
-0.0032036325 -0.00626943 -0.0074542803 -0.00638604 -0.001779264 0.00505641 0.012677309 0.015605655
0.011333676 0.018803032 0.019477231 -0.0028098873 -0.011038104 -0.0015753617 -0.0010582096 -0.014743557
-0.014044557 0.009272402 0.0155454995 -0.029798342 0.022101937 -0.015931046 -0.0056253825 -0.008559237
-0.0031849453 -0.0026082636 -0.0033721074 -0.004828536 -0.0025709933 -0.0046337727 -0.005723403 0.018197551
0.005252857 0.017778827 0.0044319513 -0.020322483 -0.0006125317 -0.0070308433 -0.0057421634 -0.015833346
0.0013808132 -0.008603969 0.0019043282 0.041574184 0.0047610435 0.06619695 0.00918638 -0.003392053
0.17685954 -0.37611791 -0.36622733 -0.43671227 -0.52780646 -0.031508237 -0.103357494 1.8013638
0.29386058 1.8848443 2.57319 -1.4154032 0.20546572 -0.6550058 -0.6508085 -0.13694729
-0.03905264 0.8316855 1.0343101 3.1832657 0.1643754 2.7452786 0.22161958 -1.0799977
-0.17906429 -0.08494616 -0.096268065 -0.2045535 1.0476159 -2.3031359 0.10601424 1.2830766
0.092629336 0.33961636 -1.476372 -1.3976614 0.14779867 -0.56389576 -0.55723006 -0.1645653
-0.21547914 -1.3010434 0.5141702 2.2742672 0.2790195 1.96397 2.743644 0.48629507
-0.21415114 -0.09380991 -0.076189145 -0.13684355 -0.35430625 2.326355 1.6629122 -3.1755683
-1.4269056 -2.1963682 -4.272586 -3.4224315 0.23743191 -0.12176321 -0.10557016 -0.14421137
1.4225193 5.825507 -0.26359805 3.2609172 -0.37832114 0.22502464 6.082395 -8.946664
0.19083317 -0.6489759 -0.6438214 -0.17326148 0.2278821 0.5430723 1.1449339 2.6895547
0.53445196 2.6981611 1.6219566 -0.20515306 -0.39755902 0.10044651 0.07092451 -0.13614382
-1.9577308 2.6322098 -3.076392 2.2963645 -1.067713 1.818924 -8.554466 -0.019626364
-0.0090921 0.0018442118 0.00273244 -0.0003117799 0.0020825958 -0.005167543 0.0112441555 -0.0017286902
-0.0030981968 0.03529012 0.01846112 -0.0002599595 0.00055588986 -0.00014714662 -0.001703234 -0.0008511282
-0.0007858297 -0.007478371 -0.008700395 -0.0009363491 -0.0016516278 -0.0037229569 -0.033963516 -0.005229274
2.972331e-05 -0.0033534383 -0.003713149 -0.0040361565 -0.0027329528 0.03257612 0.0007634712 -0.00032933336
0.012149444 -0.0015702568 -0.02174855 -0.018493045 -0.0006453252 -0.0018640974 -0.001293367 -0.0027375235
-0.010003395 -0.0142472815 -0.020965453 -0.008647811 -0.0014401361 0.007600645 -0.010268906 -0.011459586
-0.00328746 -0.0013464198 -0.00077935477 -0.00049974385 0.004501208 0.0059764404 0.0012684253 0.0005213852
0.0023543248 -0.003233113 0.03933117 -0.0053761075 -0.005088138 -0.0025857524 -0.002532297 -0.0006318226
00000000: f465 9dbb 277c 8cbb 084f 6abb e442 dcbb
00000010: 84c4 d53b 388d 513c a226 80ba dff1 3f3d
00000020: bfc5 fb3c d9d5 a33d e837 05bd 806a abbc
00000030: 563d 4abc 54e9 28bb 55b1 76bb 64cf 7ebb
00000040: 20eb 9abb 4f23 5c3b 0339 963c f88f 56bc
00000050: c4b2 8e3c c3e0 5d3b 66bf 1a3b b8da a5bb
00000060: 4236 27bc dc50 283b 7b69 ec3a db76 38bb
00000070: 59ff df3b 232c 96bc a703 5a3c 4723 94bb
00000080: 74f2 c93c 8e1a d3bc 92ac 723d 638e 15bd
00000090: 2a27 3abc 4464 93bb a5a9 8ebb 1daf 24bb
000000a0: c78c fd3a a07e b5ba 1852 b33a 8805 5ebc
000000b0: 3422 a23b 92ff c93c 1e2a 623d 69c7 9c3b
000000c0: 09f4 51bb ca6f cdbb 0943 f4bb fc41 d1bb
000000d0: 3136 e9ba 3eb0 a53b 7db4 4f3c dcae 7f3c
000000e0: e2b0 393c d108 9a3c b78e 9f3c 1626 38bb
000000f0: 2ad9 34bc 5e7c ceba 9fb3 8aba f68e 71bc
00000100: 241b 66bc 46eb 173c 8db2 7e3c a71b f4bc
00000110: 1f0f b53c d381 82bc 2155 b8bb 0b3c 0cbc
00000120: 84ba 50bb 67ef 2abb 93fe 5cbb b238 9ebb
00000130: 1c7e 28bb e7d6 97bb 628b bbbb 0813 953c
00000140: 2920 ac3b e7a4 913c e739 913b 567b a6bc
00000150: 4e92 20ba fd62 e6bb c228 bcbb efb4 81bc
00000160: 67fc b43a a9f7 0cbc a79a f93a b149 2a3d
00000170: 8702 9c3b 4492 873d 7882 163c 354d 5ebb
00000180: ab1a 353e 8792 c0be 2682 bbbe c098 dfbe
00000190: 531e 07bf c80e 01bd 18ad d3bd 1793 e63f
000001a0: e574 963e 9442 f13f 25af 2440 ef2b b5bf
000001b0: 9b65 523e 76ae 27bf 639b 26bf e93b 0cbe
000001c0: a9f5 1fbd 57e9 543f 4664 843f a0ba 4b40
000001d0: 0652 283e a5b2 2f40 3ef0 623e 5d3d 8abf
000001e0: a15c 37be 41f8 adbd 3128 c5bd 7976 51be
000001f0: 4718 863f 9466 13c0 fe1d d93d db3b a43f
00000200: 73b4 bd3d 32e2 ad3e c2f9 bcbf 92e6 b2bf
00000210: 8958 173e 795b 10bf a1a6 0ebf ce83 28be
00000220: 90a6 5cbe 9788 a6bf a9a0 033f 988d 1140
00000230: a5db 8e3e 5e63 fb3f dd97 2f40 abfb f83e
00000240: 704a 5bbe 691f c0bd 0e09 9cbd b720 0cbe
00000250: a167 b5be 00e3 1440 4fda d43f 833c 4bc0
00000260: d8a4 b6bf 4c91 0cc0 06b9 88c0 1e09 5bc0
00000270: 5a21 733e fd5e f9bd 2b35 d8bd 25ac 13be
00000280: 1d15 b63f 8e6a ba40 53f6 86be deb2 5040
00000290: 4fb3 c1be dc6c 663e fba2 c240 8925 0fc1
000002a0: c569 433e 4923 26bf 7bd1 24bf 756b 31be
000002b0: ed59 693e c906 0b3f 328d 923f aa21 2c40
000002c0: d8d1 083f acae 2c40 469c cf3f a513 52be
000002d0: db8c cbbe e6b6 cd3d df40 913d 4969 0bbe
000002e0: ec96 fabf 2076 2840 9be3 44c0 a3f7 1240
000002f0: d2aa 88bf 80d2 e83f 18df 08c1 78c7 a0bc
00000300: 08f7 14bc 7bb9 f13a bc12 333b 6476 a3b9
00000310: 297c 083b 7e54 a9bb 6839 383c 3895 e2ba
00000320: 1e0b 4bbb 5f8c 103d c63b 973c 2c4b 88b9
00000330: 23b9 113a 5f4b 1ab9 0d3f dfba 3f1e 5fba
00000340: 2300 4eba 1f0d f5bb 1a8c 0ebc 5375 75ba
00000350: 6f7b d8ba dafc 73bb 541d 0bbd 545a abbb
00000360: 5256 f937 5cc5 5bbb 4e58 73bb bc41 84bb
00000370: 571b 33bb 8a6e 053d af23 483a 60aa acb9
00000380: 760e 473c 13d1 cdba 042a b2bc ba7e 97bc
00000390: 0b2b 29ba bb54 f4ba 3286 a9ba 0668 33bb
000003a0: 48e5 23bc 6e6d 69bc bebf abbc 8caf 0dbc
000003b0: f3c2 bcba d50e f93b ea3e 28bc fdc0 3bbc
000003c0: 6d72 57bb 5a7a b0ba 9d4d 4cba 3e01 03ba
000003d0: df7e 933b 04d6 c33b 4a41 a63a 92ad 083a
000003e0: 044b 1a3b a3e2 53bb b919 213d 0f2a b0bb
000003f0: 65ba a6bb ba75 29bb e5f4 25bb e6a0 25ba

conv2.att_src f4 [1, 8, 8]
0.06099406 0.2744619 0.26540145 -1.1149871 -0.14862084 1.0999091 0.062337797 -0.1711305
0.05232583 -0.48115176 -0.21810742 0.5702214 -0.39348692 0.14985606 -0.36288863 0.3112294
-0.916799 -0.34992734 0.41378397 -0.3128987 -0.54784673 -0.33417735 0.19440477 0.62542874
-0.43096334 -0.20445949 -0.29879546 -0.1548521 -0.5122397 0.40988255 0.14007351 -0.14736532
-0.0057763667 -0.044536367 -0.13353491 0.32512334 0.41314396 0.016224345 0.20082127 0.74433213
-0.05290538 -0.9050704 0.08680051 -0.5068942 0.1347528 0.37855405 0.10602376 0.1835058
0.14028402 -0.358304 0.22022966 -0.51184696 0.7010176 -0.29242945 0.005671509 0.24648128
-0.021689363 0.08443692 -0.32333404 0.15842272 -0.013798373 -0.63735193 -0.061601046 0.4111525
00000000: e8d4 793d 4586 8c3e b3e2 873e e6b7 8ebf
00000010: 1030 18be d2c9 8c3f eb55 7f3d d53c 2fbe
00000020: 9c53 563d 8659 f6be 8d57 5fbe 08fa 113f
00000030: 1e77 c9be de73 193e 8acc b9be 7659 9f3e
00000040: 57b3 6abf ad29 b3be 7edb d33e 4234 a0be
00000050: af3f 0cbf 4b19 abbe 0b12 473e 191c 203f
00000060: 3aa7 dcbe d45d 51be b8fb 98be 8d91 1ebe
00000070: 2422 03bf 20dc d13e 6e6f 0f3e efe6 16be
00000080: ad47 bdbb c46b 36bd 60bd 08be 9176 a63e
00000090: 9b87 d33e ebe8 843c 17a4 4d3e 8d8c 3e3f
000000a0: 50b3 58bd b2b2 67bf 77c4 b13d d1c3 01bf
000000b0: a3fc 093e d6d1 c13e fc22 d93d f2e8 3b3e
000000c0: 9da6 0f3e 9f73 b7be e283 613e 6708 03bf
000000d0: e475 333f 50b9 95be 11d8 b93b 9765 7c3e
000000e0: e4ad b1bc 44ed ac3d 0a8c a5be 9139 223e
000000f0: 9212 62bc 7f29 23bf 6151 7cbd 9582 d23e

conv2.att_dst f4 [1, 8, 8]
-0.039310414 -0.67520094 -0.10133257 0.4133097 0.49959177 0.049734518 -0.22968821 0.27513078
0.06326263 0.19158259 0.5021013 -0.68979603 -0.16910626 -0.16827127 0.79962575 -0.41321227
-0.37316364 0.08213965 0.2425247 0.09215207 -0.014491048 -0.01742357 -0.23853645 0.12962003
-0.23603936 1.3126997 -0.661874 0.26522294 0.5243481 -0.877225 0.57052463 -0.40737888
-0.00261307 -0.83630896 -0.4388409 0.04684762 0.12366843 -0.17820278 -0.529907 -0.28281805
0.1542054 1.340899 -0.30537385 0.42112994 -0.022249945 -0.80363446 -0.8382281 -0.27430236
-0.23548333 0.85366696 0.39177838 -0.36009043 0.77437145 -0.62860453 0.12513347 0.2669999
0.79760987 1.3865402 0.2193358 1.0808154 0.766668 0.33347398 0.9438549 0.28274816
00000000: f503 21bd f8d9 2cbf 7387 cfbd 549d d33e
00000010: 7eca ff3e 6cb6 4b3d 6333 6bbe f1dd 8c3e
00000020: d68f 813d 3a2e 443e b689 003f 7996 30bf
00000030: 312a 2dbe 4e4f 2cbe 46b4 4c3f 8f90 d3be
00000040: 4e0f bfbe d538 a83d 6558 783e 39ba bc3d
00000050: dc6b 6dbc e0bb 8ebc e642 74be 1dbb 043e
00000060: 4db4 71be 8b06 a83f 9370 29bf 4dcb 873e
00000070: ad3b 063f d191 60bf e70d 123f f793 d0be
00000080: 0a40 2bbb 5818 56bf c1af e0be 4ae3 3f3d
00000090: e045 fd3d ca7a 36be fca7 07bf 87cd 90be
000000a0: 05e8 1d3e 94a2 ab3f f659 9cbe 589e d73e
000000b0: 8445 b6bc fdba 4dbf 1e96 56bf 5c71 8cbe
000000c0: 8b22 71be eb89 5a3f 2d97 c83e c65d b8be
000000d0: 353d 463f 3aec 20bf fd22 003e 36b4 883e
000000e0: 2930 4c3f 267a b13f 9099 603e 2958 8a3f
000000f0: 5b44 443f 1abd aa3e 7aa0 713f 5ec4 903e

conv2.bias f4 [64]
-0.01457669 -0.20039156 -0.19166094 0.13285168 0.20441164 0.036355123 0.10425095 0.29143208
-0.07672637 0.105312064 0.2593993 -0.3421974 -0.41094083 -0.31428015 0.08598028 -0.3053409
0.18157123 -0.13115193 -0.28465083 -0.16069652 -0.09120297 -0.3668454 0.23939039 0.25131544
-0.15538773 -0.16981521 0.16673823 0.24010673 0.09336547 -0.015043634 -0.008515152 0.22010967
-0.22806655 0.17998606 -0.13727704 -0.29282504 0.22574148 0.18867548 -0.2836197 -0.2469927
-0.25069258 -0.049833212 -0.3437681 0.3603675 -0.2945888 -0.05448728 -0.18341525 0.13340212
-0.2098404 0.16794749 -0.023589473 -0.24501184 0.07331608 -0.055154487 -0.018764634 -0.11799965
0.016262734 -0.06864665 0.22527222 -0.38172638 -0.17614736 -0.13761607 0.03344877 -0.070479475
00000000: 12d3 6ebc 7233 4dbe c442 44be 450a 083e
00000010: 4951 513e 1ce9 143d 8681 d53d 9636 953e
00000020: b722 9dbd daad d73d fccf 843e 7f34 afbe
00000030: d666 d2be 54e9 a0be 6e16 b03d a455 9cbe
00000040: cfed 393e b14c 06be c1bd 91be a18d 24be
00000050: 9fc8 babd 29d3 bbbe c122 753e 6bac 803e
00000060: f61d 1fbe 0ae4 2dbe 6dbd 2a3e 8ade 753e
00000070: 6536 bf3d 9379 76bc 2383 0bbc 6e64 613e
00000080: 478a 69be 444e 383e 5a92 0cbe 2aed 95be
00000090: c628 673e 2534 413e 9a36 91be a8eb 7cbe
000000a0: c75a 80be e91d 4cbd 5f02 b0be 1782 b83e
000000b0: 58d4 96be 0e2e 5fbd 35d1 3bbe 919a 083e
000000c0: 67e0 56be 6dfa 2b3e b63e c1bc 62e4 7abe
000000d0: be26 963d ace9 61bd 4ab8 99bc cda9 f1bd
000000e0: 6d39 853c 9d96 8cbd c3ad 663e a471 c3be
000000f0: f95f 34be 3aeb 0cbe 9401 093d 8b57 90bd

conv2.lin.weight f4 [64, 64]
-0.009038853 0.004272572 0.0010704844 -0.00032244605 0.0021316519 -0.00019851058 0.005028773 -0.006563036
-0.10631933 0.14810993 0.11260482 -0.023146795 0.55676615 -0.2871253 -0.07816466 0.5056222
0.000573446 -0.0010693629 0.004476943 0.0033945239 -0.00028731432 6.6550514e-05 0.0003298867 0.00060860324
-0.0041885306 -0.007322407 0.001837116 0.004687446 -0.0063383346 -0.002295198 -0.0051464145 0.001183917
0.011388094 -0.0005359475 -0.0005839539 -0.00021651041 -0.0007522783 -0.00042355075 0.0038828873 -0.000116345254
-0.2820755 -0.11282758 -0.32258224 0.281097 1.0793229 -0.07517191 -0.33453244 -0.022509681
-0.02912854 -0.0005777524 -0.027236374 0.003348397 -0.026160281 0.05991805 0.16687341 0.008566324
0.014548356 -0.23433895 0.43773848 0.2619446 -0.039392963 -0.42794126 -0.056615196 0.5649611
0.0050006057 0.004252427 0.002283548 0.0036294882 -0.0027401533 0.0011544015 0.004077755 -0.0064086355
-0.086894825 -0.62069523 0.2507683 -0.25576854 -0.06544785 0.97830707 -0.25453353 -0.9617784
0.008066344 -0.0011550105 -0.009842376 -0.0014788199 0.0009087232 -0.0024216704 -0.00031585852 -0.0015789085
-0.004210445 -0.0021976219 -0.0012899685 0.0022439517 0.005379328 -0.004057458 -0.009153679 -0.0022366946
-0.0040161074 -0.006202391 0.0007983812 0.000652254 -0.0007312254 -0.00029982728 0.002677437 -0.00036619016
-0.5796484 -0.11810749 -0.22901095 -0.08571158 -0.106336966 -0.08908497 0.31592214 -0.088555194
0.057293497 -0.007940905 -0.017817872 -0.018507313 -0.027562073 0.04797611 0.14281149 0.01803387
-0.103052594 -0.12907399 -0.75478417 -0.054685026 -0.037766136 -0.51723903 -0.07114822 -0.5604443
-0.005016582 -0.004590304 0.0109731825 -0.0013966409 9.92113e-07 0.0011671701 -0.010522794 -0.014333184
0.029404217 -0.47612995 0.8089767 -0.20180899 -0.38120475 0.7849733 -0.47200066 -0.2446556
0.0021908127 0.000302751 0.009862829 0.0022603043 0.00019859074 -3.589833e-05 -0.0009890938 -0.0004985963
-0.0033639602 0.0036550926 -0.00050315185 -0.005396156 0.0014945163 -0.005328226 -0.0016105195 0.00062018575
0.008145492 -0.0023548156 0.00013617912 -0.00045226203 -0.0013781284 0.0003046888 0.003205622 -0.0005158087
-0.43773353 -0.11107676 0.22636792 -0.10616371 -0.4569316 -0.23079593 0.12256688 -0.14484982
-0.028464276 -0.015744517 -0.021779947 -0.04541419 0.023436688 -0.05981829 0.22128566 0.012477354
0.020006549 -0.10315388 -0.8676847 -0.022342723 -0.039266743 -0.40062773 -0.03943034 -1.6155065
0.0017279052 0.0026187012 -0.005353286 -0.0014985324 0.004124493 -0.0012452132 -0.0037619146 0.0018551088
0.41775662 -0.0316759 -0.25637475 0.25174794 -0.15897927 -0.8362383 0.2937517 -0.44454345
-0.0019816004 0.00202299 -0.017034661 -0.0009946538 0.0011754837 0.000103435865 0.00037199171 -0.00082729827
0.0010951958 -0.005072078 0.0013605537 0.004973895 -0.0060430025 0.005044298 0.010517513 -0.0018283076
-0.0075759874 -0.0018340694 -0.0001472762 0.00013165151 0.001598478 0.000101483485 -0.002162866 0.0005755606
0.345794 -0.008264381 0.26540163 -0.3766147 -0.073712274 0.14151762 0.2690811 0.086199485
0.019209953 0.008778547 0.05584553 0.061198354 0.05221546 -0.037729103 -0.07779112 0.022620229
0.11513423 0.00052204396 -0.37586728 -0.034163225 0.011490401 0.34944737 -0.045616094 0.064262256
00000000: b317 14bc ef00 8c3b 7f4f 8c3a fa0d a9b9
00000010: 2fb3 0b3b 4727 50b9 68c8 a43b bc0e d7bb
00000020: f3bd d9bd 21aa 173e 5b9d e63d 599e bdbc
00000030: 3a88 0e3f 1602 93be cb14 a0bd 7570 013f
00000040: 4f53 163a dd29 8cba 52b3 923b a976 5e3b
00000050: ada2 96b9 0991 8b38 a5f4 ac39 ac8a 1f3a
00000060: f13f 89bb cdf0 efbb 62cb f03a 2699 993b
00000070: ceb1 cfbb 086b 16bb 41a3 a8bb aa2d 9b3a
00000080: 2195 3a3c d47e 0cba 7c14 19ba 1207 63b9
00000090: 8b34 45ba 0510 deb9 0a78 7e3b 62fe f3b8
000000a0: 336c 90be 2512 e7bd 8029 a5be f2eb 8f3e
000000b0: 4127 8a3f bbf3 99bd d647 abbe 3966 b8bc
000000c0: fa9e eebc 4f74 17ba d11e dfbc c870 5b3b
000000d0: 164e d6bc a16c 753d dde0 2a3e c459 0c3c
000000e0: 3a5c 6e3c 8df6 6fbe 421f e03e 9a1d 863e
000000f0: 845a 21bd 1e1b dbbe 56e5 67bd 4aa1 103f
00000100: 1fdc a33b f157 8b3b 94a7 153b b5dc 6d3b
00000110: 2594 33bb 494f 973a b09e 853b 88ff d1bb
00000120: eaf5 b1bd e2e5 1ebf b464 803e 18f4 82be
00000130: 8609 86bd 5572 7a3f 3852 82be 1c37 76bf
00000140: b328 043c b963 97ba eb41 21bc f6d4 c1ba
00000150: 6237 6e3a e3b4 1ebb d099 a5b9 61f3 ceba
00000160: c6f7 89bb fa05 10bb 2914 a9ba 430f 133b
00000170: 1345 b03b 6df4 84bb 50f9 15bc 8295 12bb
00000180: 8d99 83bb 6d3d cbbb 754a 513a 06fc 2a3a
00000190: b5af 3fba 2332 9db9 f077 2f3b 36fd bfb9
000001a0: d663 14bf 57e2 f1bd d981 6abe 8e89 afbd
000001b0: 32c7 d9bd 2e72 b6bd 8cc0 a13e 6d5c b5bd
000001c0: 96ac 6a3d 921a 02bc c9f6 91bc a69c 97bc
000001d0: dbc9 e1bc 9982 443d 2d3d 123e c4bb 933c
000001e0: 3d0d d3bd f92b 04be 8939 41bf 68fd 5fbd
000001f0: aab0 1abd c769 04bf 28b6 91bd 4779 0fbf
00000200: 2462 a4bb 436a 96bb ddc8 333c 7e0f b7ba
00000210: be28 8535 bbfb 983a cc67 2cbc bbd5 6abc
00000220: 1de1 f03c 4ec7 f3be 1919 4f3f 04a7 4ebe
00000230: 452d c3be 03f4 483f 12aa f1be ff86 7abe
00000240: bd93 0f3b 8dba 9e39 b497 213c 9d21 143b
00000250: cc3c 5039 8a91 16b8 7ba4 81ba 3bb4 02ba
00000260: e375 5cbb 478a 6f3b f3e5 03ba 3dd2 b0bb
00000270: a5e3 c33a 6698 aebb 1118 d3ba f693 223a
00000280: ab74 053c 4053 1abb 4ecb 0e39 951d edb9
00000290: 51a2 b4ba a3be 9f39 6a15 523b 5637 07ba
000002a0: 9c1e e0be 367c e3bd fecc 673e 5c6c d9bd
000002b0: f0f2 e9be c555 6cbe 5804 fb3d 8353 14be
000002c0: ea2d e9bc a5fa 80bc dc6b b2bc 3b04 3abd
000002d0: 4cfe bf3c 0604 75bd b598 623e d16d 4c3c
000002e0: c6e4 a33c 5742 d3bd 9620 5ebf 1608 b7bc
000002f0: 2ad6 20bd 141f cdbe b581 21bd ebc8 cebf
00000300: e17a e23a 849e 2b3b 9e6a afbb 676a c4ba
00000310: c126 873b 6c36 a3ba 748a 76bb 1f27 f33a
00000320: 32e4 d53e 97be 01bd 8d43 83be 1be5 803e
00000330: 76cb 22be b713 56bf 9f66 963e 339b e3be
00000340: bddd 01bb 2494 043b 468c 8bbc 0b5f 82ba
00000350: b012 9a3a b5eb d838 e207 c339 0cdf 58ba
00000360: ac8c 8f3a ad33 a6bb 9b54 b23a 0efc a23b
00000370: 6104 c6bb a34a a53b a651 2c3c d3a3 efba
00000380: fd3f f8bb 2865 f0ba 276e 1ab9 ef0b 0a39
00000390: 0584 d13a 88d3 d438 dfbe 0dbb 38e1 163a
000003a0: e90b b13e 5467 07bc b9e2 873e a4d3 c0be
000003b0: 76f6 96bd ffe9 103e ffc4 893e 5b89 b03d
000003c0: 315e 9d3c e5d3 0f3c 48be 643d 20ab 7a3d
000003d0: e1df 553d d589 1abd f350 9fbd 0f4e b93c
000003e0: 7fcb eb3d c7d9 083a ad71 c0be bdee 0bbd
000003f0: 3c42 3c3c c4ea b23e f1d7 3abd ee9b 833d

fc1.weight f4 [128, 74]
-0.3328701 0.021074343 0.38369688 0.25570425 -0.074833006 0.20782194 -0.46584028 0.18716441
0.2584972 -0.22191185 0.101158135 -0.05960801 -0.090617314 -0.0613639 0.13578644 -0.0837217
0.12310733 -0.07818871 -0.09826706 -0.08553818 -0.08610861 -0.13066722 0.07216467 0.08918087
0.055362497 0.17306635 0.11673262 0.13538024 0.057034943 0.035888426 -0.24739327 0.046019815
0.22105528 -0.28811303 0.27103564 -0.08008641 -0.21698055 0.046741217 -0.12562895 -0.14998513
-0.11778185 0.091573305 -0.15256561 0.049343284 -0.1332998 0.05856831 -0.0434044 0.14926124
-0.11006579 0.038473208 -0.009869786 -0.011993997 -0.2602576 0.1695876 0.0859261 -0.20892657
-0.061742127 -0.26989713 0.17041728 -0.29606366 -0.088029735 0.3371435 0.13484001 -0.09035821
-0.53765 -0.000451187 -0.82201934 3.1263888 -0.44868678 0.31064847 -0.15367465 2.4388585
-0.16290635 -0.1752441 -0.31046364 0.068556614 0.49003473 0.13511804 -0.11545659 0.46015024
-0.4228557 0.34516767 0.205411 -0.24280886 0.21404792 -0.38315055 -0.44963923 -0.38892817
0.39473778 -0.35832012 -0.01238699 -0.09923888 -0.24938022 -0.10869795 -0.108294524 -0.07683118
0.09129331 0.061811883 0.042112485 -0.23305108 0.046100255 0.15293951 -0.28159574 0.016433863
-0.27415743 0.091504455 0.23127931 -0.19278422 0.09461482 -0.08150378 -0.18959442 0.3790944
-0.19777292 0.20184927 0.23587157 -0.041940402 -0.03992576 0.15868795 0.18549336 0.104125194
-0.032331202 -0.016044758 -0.0910907 -0.08595091 -0.072077565 0.31846547 -0.08770587 0.08796336
-0.09332951 -0.0070656636 -0.30701634 -0.030232208 -0.13578849 -0.0962219 -0.030208418 0.0061309724
-0.14532714 0.2080151 -0.19767007 -0.00048144363 -0.28284416 2.3925717 -0.44265696 -0.25801712
-0.2154441 1.4658802 -0.22201155 -0.21127896 -0.33698082 0.08817883 0.33170262 0.2408494
-0.06440747 0.24270326 -0.44098136 0.11400423 0.1492762 -0.17115672 0.015412836 -0.050144106
-0.15310892 -0.08059386 0.04210303 -0.05200286 0.14427455 -0.094890624 -0.05477454 -0.100961894
-0.11908625 -0.16640873 0.095981695 0.15937777 0.052432757 0.30439374 0.14489849 0.118151255
0.13763893 -0.0021310137 -0.08235619 -0.04909806 0.26669276 -0.3563623 0.28190234 -0.012872225
-0.24061835 -0.013311474 -0.16783549 -0.111677796 -0.121923395 0.11431511 -0.09290418 0.084447585
-0.124351956 -0.035077572 -0.038232714 0.04352158 0.037192047 0.08589401 -0.030667752 -0.03912925
-0.162115 0.11798086 0.10563487 -0.120998025 -0.0024895286 -0.2975043 0.15292051 -0.45002088
-0.07498496 0.29988855 0.096966125 -0.118213736 -0.6442286 0.00043669625 -0.8277321 3.0053396
-0.45985004 0.22161674 -0.18068571 2.7988193 -0.1918541 -0.19851 -0.25232422 0.06145852
0.4474599 0.12675658 -0.10429359 0.38369384 -0.3921186 0.35637137 0.20548113 -0.18582185
0.26177734 -0.33848256 -0.35530922 -0.32973477 0.28737035 -0.3504715 0.033648897 -0.054989453
-0.23813708 -0.06706666 -0.07069198 -0.14841886 0.12511064 0.049314175 0.041268345 -0.23428291
0.080964915 0.23698303 -0.16376357 -0.038374957 -0.1426853 0.065851495 0.24447098 -0.17623313
00000000: f36d aabe 1aa4 ac3c eb73 c43e abeb 823e
00000010: 0c42 99bd 46cf 543e 9e82 eebe 07a8 3f3e
00000020: bf59 843e dc3c 63be ff2b cf3d 8727 74bd
00000030: 9295 b9bd b658 7bbd 9a0b 0b3e 4876 abbd
00000040: b21f fc3d 6721 a0bd 3e40 c9bd a42e afbd
00000050: b659 b0bd a1cd 05be 12cb 933d 76a4 b63d
00000060: c9c3 623d 4e38 313e 8311 ef3d 1ea1 0a3e
00000070: 799d 693d beff 123d a954 7dbe 467f 3c3d
00000080: 515c 623e 8d83 93be 2fc5 8a3e 5804 a4bd
00000090: 2630 5ebe b873 3f3d e0a4 00be b495 19be
000000a0: 9c37 f1bd c98a bb3d 293a 1cbe 2f1c 4a3d
000000b0: be7f 08be 53e5 6f3d d0c8 31bd f0d7 183e
000000c0: 2c6a e1bd 1596 1d3d e2b4 21bc 7882 44bc
000000d0: 7c40 85be 5fa8 2d3e 06fa af3d d9f0 55be
000000e0: 50e5 7cbd f52f 8abe de81 2e3e a895 97be
000000f0: ef48 b4bd 139e ac3e 8013 0a3e ba0d b9bd
00000100: 6ea3 09bf 4b8d ecb9 dc6f 52bf c116 4840
00000110: 46ba e5be 510d 9f3e e35c 1dbe 4216 1c40
00000120: ecd0 26be 3073 33be 17f5 9ebe 6967 8c3d
00000130: d5e5 fa3e 625c 0a3e 8174 ecbd d098 eb3e
00000140: 8b80 d8be d1b9 b03e 4357 523e e3a2 78be
00000150: 612f 5b3e 4f2c c4be 1d37 e6be 9821 c7be
00000160: 121b ca3e bc75 b7be cdf2 4abc c13d cbbd
00000170: 875d 7fbe 089d debd 85c9 ddbd aa59 9dbd
00000180: fdf7 ba3d 752e 7d3d 247e 2c3d f1a4 6ebe
00000190: 9fd3 3c3d 2d9c 1c3e 512d 90be 4fa0 863c
000001a0: 5d5e 8cbe b066 bb3d 7cd4 6c3e 3a69 45be
000001b0: 6ac5 c13d 74eb a6bd 0a25 42be a918 c23e
000001c0: fc84 4abe 93b1 4e3e 5188 713e b3c9 2bbd
000001d0: 3289 23bd 187f 223e f9f1 3d3e 973f d53d
000001e0: b96d 04bd 4c70 83bc c38d babd 0807 b0bd
000001f0: 679d 93bd e80d a33e 239f b3bd 2226 b43d
00000200: 8b23 bfbd 1587 e7bb 3f31 9dbe 89a9 f7bc
00000210: 230c 0bbe fd0f c5bd a577 f7bc 53e6 c83b
00000220: a3d0 14be e901 553e 066a 4abe 456a fcb9
00000230: f3d0 90be e51f 1940 efa3 e2be d21a 84be
00000240: 619d 5cbe f6a1 bb3f ff56 63be 8359 58be
00000250: c088 acbe 1a97 b43d edd4 a93e 3aa1 763e
00000260: 10e8 83bd 3487 783e 4fc8 e1be 0d7b e93d
00000270: dcdb 183e b543 2fbe 1f86 7c3c e863 4dbd
00000280: 96c8 1cbe 650e a5bd 3a74 2c3d f300 55bd
00000290: b5bc 133e 0456 c2bd 455b 60bd 1cc5 cebd
000002a0: 7ee3 f3bd 0d67 2abe 0d92 c43d ed33 233e
000002b0: bbc3 563d 7fd9 9b3e 4560 143e 49f9 f13d
000002c0: 38f1 0c3e 7aa8 0bbb 5daa a8bd 0c1b 49bd
000002d0: f48b 883e 1f75 b6be 8155 903e 06e6 52bc
000002e0: a864 76be 5e18 5abc 11dd 2bbe 54b7 e4bd
000002f0: f9b2 f9bd 0a1e ea3d 8c44 bebd dbf2 ac3d
00000300: 3dac febd 80ad 0fbd e899 1cbd af43 323d
00000310: b056 183d 33e9 af3d f03a fbbc fe45 20bd
00000320: 7901 26be f39f f13d 1857 d83d d0cd f7bd
00000330: 5c27 23bb 7c52 98be 3297 1c3e 2369 e6be
00000340: b791 99bd fe8a 993e 2d96 c63d 0b1a f2bd
00000350: 2aec 24bf 61f4 e439 40e6 53bf 7c57 4040
00000360: 7771 ebbe 80ef 623e ad05 39be db1f 3340
00000370: 6775 44be 3546 4bbe a430 81be eebb 7b3d
00000380: 7719 e53e 7acc 013e e197 d5bd 8573 c43e
00000390: c5c3 c8be 4f76 b63e a569 523e 1548 3ebe
000003a0: ae07 863e 964d adbe 17eb b5be ffd2 a8be
000003b0: 3522 933e 0071 b3be 6dd3 093d 9f3c 61bd
000003c0: 35da 73be 3f5a 89bd f5c6 90bd 1dfb 17be
000003d0: 011d 003e a9fd 493d ff08 293d dce7 6fbe
000003e0: efd0 a53d aeab 723e a3b1 27be 0f2f 1dbd
000003f0: 181c 12be 26dd 863d 9a56 7a3e 7576 34be

fc1.bias f4 [128]
-0.15355876 -0.21543533 -0.18027377 -0.26941973 -0.17289107 0.008510407 -0.15755013 -0.15674654
-0.12860289 -0.28849912 -0.15369883 -0.06450272 0.011289338 -0.20115404 -0.17680179 -0.16441646
-0.16441515 -0.17506996 -0.0721905 -0.1656634 -0.1699112 -0.10517157 -0.06129877 -0.2929648
0.12181601 -0.23587732 -0.18553875 -0.16940665 -0.19213647 -0.15937454 -0.018771147 -0.169202
-0.011221867 -0.1742592 -0.16219763 -0.17737119 -0.17581375 -0.15123281 -0.1488409 -0.18101782
-0.23034745 -0.15253486 -0.1922409 -0.22240108 -0.05792167 -0.16491954 -0.15828535 -0.17193723
-0.14196263 0.11476263 0.17266193 -0.095152594 -0.2566168 -0.16682142 -0.2261021 0.18372943
-0.2066026 -0.1594117 -0.16726893 -0.25989062 -0.19585648 -0.16624816 0.33999315 -0.20578961
-0.20756802 -0.26623687 -0.17534441 -0.08316209 -0.16304144 -0.28032932 -0.03286371 -0.051614113
-0.12740833 -0.092352085 -0.15090385 -0.025788559 -0.18395571 -0.23316698 -0.017018523 -0.010081215
-0.15637903 -0.12438542 -0.15740941 -0.2011955 0.14156257 -0.1468651 -0.17344163 -0.15595701
-0.16289736 -0.02234024 -0.17785063 -0.044766083 -0.028234012 -0.17533913 -0.16652842 -0.1861131
-0.010828682 -0.08949097 -0.018334897 -0.1623363 -0.100571424 -0.18743199 -0.17789385 -0.20322165
-0.16214019 -0.16962281 -0.13712184 -0.19302419 -0.17463985 -0.16892149 -0.17234093 -0.14806713
-0.16591343 -0.1745717 -0.0040359353 -0.17299846 -0.28651157 -0.015047629 0.03287484 -0.1655846
-0.16104513 -0.16652423 -0.002908504 -0.15022722 -0.155907 -0.10207262 -0.16245686 -0.15333983
00000000: 823e 1dbe 149b 5cbe b099 38be 62f1 89be
00000010: 5b0a 31be 3c6f 0b3c d254 21be 2a82 20be
00000020: 7ab0 03be 28b6 93be 3a63 1dbe 011a 84bd
00000030: eaf6 383c 53fb 4dbe 870b 35be ca5c 28be
00000040: 725c 28be 8a45 33be 9dd8 93bd aba3 29be
00000050: 34fd 2dbe 3164 d7bd 6b14 7bbd 7bff 95be
00000060: ac7a f93d d389 71be dffd 3dbe f078 2dbe
00000070: 6cbf 44be 1433 23be f3c5 99bc 4a43 2dbe
00000080: ecdb 37bc 0171 32be 2317 26be cba0 35be
00000090: 8508 34be c6dc 1abe c069 18be bc5c 39be
000000a0: 34e0 6bbe 1932 1cbe ccda 44be 1cbd 63be
000000b0: 463f 6dbd abe0 28be 8e15 22be 5010 30be
000000c0: a75e 11be ab08 eb3d 4ace 303e 5ddf c2bd
000000d0: 4763 83be 3cd3 2abe 4f87 67be 9123 3c3e
000000e0: a28f 53be d23c 23be 8c48 2bbe 6210 85be
000000f0: 9a8e 48be f53c 2abe 9513 ae3e 83ba 52be
00000100: b68c 54be 3350 88be 7c8d 33be e350 aabd
00000110: 56f4 26be 5387 8fbe 199c 06bd 5269 53bd
00000120: 5477 02be 1723 bdbd 8a86 1abe 8742 d3bc
00000130: e35e 3cbe 53c3 6ebe 6e6a 8bbc ae2b 25bc
00000140: d321 20be c8bd febd ef2f 21be 3106 4ebe
00000150: c7f5 103e ce63 16be af9a 31be 32b3 1fbe
00000160: 91ce 26be e102 b7bc 7a1e 36be a45c 37bd
00000170: 044b e7bc 1a8c 33be 6d86 2abe 6f94 3ebe
00000180: c96a 31bc 0b47 b7bd 1133 96bc 7d3b 26be
00000190: 64f8 cdbd 2cee 3fbe ce29 36be 5619 50be
000001a0: 1408 26be 9ab1 2dbe ab69 0cbe 22a8 45be
000001b0: cad4 32be c1f9 2cbe 247a 30be e99e 17be
000001c0: 36e5 29be ecc2 32be e13f 84bb 8226 31be
000001d0: a5b1 92be 558a 76bc c5a7 063d 028f 29be
000001e0: 04e9 24be 5485 2abe 9a9c 3ebb 2ad5 19be
000001f0: 16a6 1fbe 730b d1bd 175b 26be 1e05 1dbe

fc2.weight f4 [64, 128]
-0.13901985 0.21815737 -0.08396928 0.17903103 -0.16773161 0.2840062 -0.12046546 0.20344415
0.16782865 0.24084018 -0.144257 0.24757361 0.27397212 0.23036847 -0.09062379 -0.10909339
-0.09908844 -0.038309976 -0.08171343 -0.08488424 -0.17142238 0.14858453 0.3567746 0.2221819
-0.026057718 0.3276082 -0.17554374 -0.09023631 0.0033201012 -0.10362108 0.25008008 -0.092404686
0.16920783 -0.10772494 -0.13771982 -0.07980605 -0.14489955 -0.14142317 -0.09810892 -0.19999756
-0.043556385 -0.13868834 0.19636469 -0.12062537 0.36457437 0.223809 -0.11890569 -0.08106389
0.1904804 -0.19815958 -0.24480562 0.21948972 0.14972392 -0.10971715 0.20929816 -0.19713706
-0.1115176 -0.058081403 -0.10964845 0.2090208 0.18442859 -0.08157344 -0.3005286 -0.013215299
0.20897652 0.22309025 -0.071849234 -0.27569076 -0.08802412 0.2866369 0.17997797 0.22138856
-0.37815538 0.27412292 -0.05688522 0.26306614 0.18738589 0.2271759 0.27220815 0.31282014
-0.07705629 0.27734593 -0.116305396 0.19563796 0.18746467 -0.13607869 -0.13900399 -0.17529073
-0.08922498 0.2610119 0.23789361 -0.2859602 0.2780628 -0.084313504 -0.08884022 0.28829747
0.2698474 0.22390638 0.2640695 -0.10968296 -0.2651475 -0.12259305 -0.12376053 0.25688264
-0.09746311 0.21013786 0.29852092 -0.06633372 -0.09077445 -0.06674463 -0.11963347 -0.14804326
-0.07912853 -0.07270791 0.30690575 -0.08849344 0.19782674 0.34339064 0.2323015 0.22166117
-0.10723373 0.22378798 0.28716996 0.17399316 -0.11487413 0.22230002 -0.13076992 -0.07334432
-0.12607911 0.1752602 -0.15187474 0.15607351 -0.08274205 -0.20269838 -0.111426584 0.006183642
-0.019256262 0.109288335 -0.09556209 -0.069458835 -0.12310325 0.02637584 -0.17426383 -0.11198255
-0.13310623 -0.18174902 -0.17082325 -0.20702448 -0.08064408 -0.06517728 -0.15984464 0.26915786
-0.18377101 0.07408273 -0.09610763 -0.18384232 -0.1648882 -0.17814611 -0.12713319 -0.16747236
-0.04774407 -0.15139522 -0.121426396 -0.1523106 -0.10546247 -0.13438489 -0.14960067 -0.086533375
-0.1392827 -0.12001438 0.2069275 -0.17148268 -0.09341897 -0.009733035 -0.11514287 -0.18380603
0.20289877 -0.21075445 -0.1801473 -0.14522214 0.12085527 -0.08676763 0.26685458 -0.21154773
-0.06294718 -0.082096934 -0.15998444 0.15602973 0.12416506 -0.073063314 -0.24251875 -0.13667516
-0.1165959 -0.0891059 -0.15873888 -0.02454528 -0.2179814 0.15001872 -0.028206877 -0.060138408
0.76457393 -0.035383254 -0.24655388 -0.16499859 0.060772922 0.24077192 -0.1598793 -0.17506805
-0.1973096 -0.08259759 -0.10931992 0.17921326 -0.34145564 -0.105655596 -0.07926571 -0.13866703
-0.08007507 -0.0899596 0.09693177 0.1637679 -0.09747375 -0.14425536 -0.1964493 -0.028192507
-0.12624247 -0.07350112 -0.06477105 -0.1067235 -0.16131721 -0.12220469 -0.10969803 0.0006874064
-0.18196596 -0.05461469 0.09439271 -0.12793614 -0.1688525 -0.21292014 -0.11971457 -0.12784266
-0.16606678 -0.14941204 -0.16156404 -0.16295637 0.25580788 -0.10817956 -0.18073978 -0.07806527
-0.11674516 0.14599504 -0.118623585 0.11767151 -0.12974969 -0.06502402 -0.19436105 -0.20278072
00000000: 385b 0ebe a564 5f3e 16f8 abbd e953 373e
00000010: d6c1 2bbe 4369 913e 98b6 f6bd aa53 503e
00000020: 46db 2b3e cf9e 763e 1bb8 13be f083 7d3e
00000030: 1346 8c3e b6e5 6b3e f798 b9bd 5b6c dfbd
00000040: e1ee cabd ecea 1cbd 5f59 a7bd cad7 adbd
00000050: 5989 2fbe 8b26 183e 29ab b63e a783 633e
00000060: ff76 d5bc 43bc a73e bdc1 33be d1cd b8bd
00000070: 0e96 593b 4a37 d4bd 7f0a 803e ab3e bdbd
00000080: d144 2d3e e59e dcbd 6d06 0dbe 5b71 a3bd
00000090: 8c60 14be 3cd1 10be 54ed c8bd 29cc 4cbe
000000a0: 2e68 32bd 5104 0ebe d313 493e 6f0a f7bd
000000b0: 7ea9 ba3e 302e 653e d484 f3bd d304 a6bd
000000c0: 4b0d 433e 58ea 4abe 53ae 7abe eac1 603e
000000d0: 3a51 193e 63b3 e0bd 4252 563e 4cde 49be
000000e0: 5763 e4bd c4e6 6dbd 5e8f e0bd 8c09 563e
000000f0: d9da 3c3e fa0f a7bd e2de 99be fb84 58bc
00000100: f1fd 553e c571 643e b125 93bd 5727 8dbe
00000110: fd45 b4bd 12c2 923e 254c 383e afb3 623e
00000120: 959d c1be d759 8c3e 7a00 69bd 9bb0 863e
00000130: 16e2 3f3e cda0 683e de5e 8b3e f629 a03e
00000140: b0cf 9dbd 4900 8e3e 8631 eebd 5155 483e
00000150: bdf6 3f3e 3658 0bbe 1057 0ebe 6a7f 33be
00000160: 96bb b6bd 5aa3 853e 629a 733e 6069 92be
00000170: 3f5e 8e3e 8fac acbd dcf1 b5bd ba9b 933e
00000180: 7029 8a3e b747 653e 1e34 873e 76a1 e0bd
00000190: 6ac1 87be 1112 fbbd 2976 fdbd 1f86 833e
000001a0: bd9a c7bd 612e 573e bcd7 983e f9d9 87bd
000001b0: f4e7 b9bd 69b1 88bd 6502 f5bd a798 17be
000001c0: 240e a2bd e2e7 94bd c022 9d3e 0c3c b5bd
000001d0: 1893 4a3e e6d0 af3e 72e0 6d3e 25fb 623e
000001e0: 5c9d dbbd ad28 653e f107 933e 432b 323e
000001f0: 2143 ebbd 9ea2 633e 8de8 05be 8c35 96bd
00000200: e21a 01be 6977 333e 0d85 1bbe bcd1 1f3e
00000210: aa74 a9bd 2a90 4fbe 9f33 e4bd 26a0 ca3b
00000220: 4fbf 9dbc 90d2 df3d 0fb6 c3bd 6f40 8ebd
00000230: 8f1d fcbd 2512 d83c 3872 32be 1b57 e5bd
00000240: 004d 08be 6a1c 3abe 4aec 2ebe 3afe 53be
00000250: b928 a5bd aa7b 85bd 50ae 23be 0fcf 893e
00000260: 782e 3cbe b0b8 973d 14d4 c4bd 2941 3cbe
00000270: 74d8 28be ef6b 36be 342f 02be e07d 2bbe
00000280: 498f 43bd 5907 1bbe 67ae f8bd 4ff7 1bbe
00000290: b5fc d7bd 319c 09be eb30 19be 6938 b1bd
000002a0: 20a0 0ebe 19ca f5bd cde4 533e 2899 2fbe
000002b0: 7252 bfbd 4f77 1fbc 06d0 ebbd a637 3cbe
000002c0: b2c4 4f3e 04d0 57be 8978 38be 1db5 14be
000002d0: f882 f73d 3ab3 b1bd 2aa1 883e f89f 58be
000002e0: 73ea 80bd 7022 a8bd f6d2 23be 42c6 1f3e
000002f0: 404a fe3d 38a2 95bd d656 78be 93f4 0bbe
00000300: d5c9 eebd 277d b6bd 728c 22be 2f13 c9bc
00000310: 8436 5fbe 829e 193e 1c12 e7bc b153 76bd
00000320: 1ebb 433f 08ee 10bd 9f78 7cbe 64f5 28be
00000330: 07ed 783d ea8c 763e 66b7 23be 0a45 33be
00000340: 870b 4abe ed28 a9bd 1fe3 dfbd ae83 373e
00000350: 46d3 aebe f661 d8bd 1056 a2bd bbfe 0dbe
00000360: 66fe a3bd bd3c b8bd 2a84 c63d c6b2 273e
00000370: 51a0 c7bd adb7 13be 012a 49be f9f3 e6bc
00000380: b545 01be c187 96bd afa6 84bd da91 dabd
00000390: 5730 25be 7446 fabd 5ca9 e0bd 1033 343a
000003a0: 4955 3abe a7b3 5fbd f750 c13d b101 03be
000003b0: abe7 2cbe bd07 5abe ea2c f5bd 30e9 02be
000003c0: 690d 2abe 78ff 18be 0b71 25be 09de 26be
000003d0: 40f9 823e 3f8d ddbd d913 39be afe0 9fbd
000003e0: 1618 efbd b97f 153e ecf0 f2bd c3fd f03d
000003f0: 1add 04be 502b 85bd 9506 47be c0a5 4fbe

fc2.bias f4 [64]
-0.549728 -0.37012407 -0.26998648 -0.64666486 -0.6832031 -0.41174394 -0.3690262 -0.13243118
-0.4260245 -0.44073066 -0.41010848 -0.55883527 -0.53045934 -0.34060162 -0.22772503 -0.37710145
-0.42198682 -0.3613945 -0.3538392 -0.25738546 -0.13843858 -0.34215415 -0.25551742 -0.42798066
-0.37566695 -0.29629582 -0.380109 -0.31341067 -0.43453506 -0.4532408 -0.20784095 -0.7249374
-0.5893258 -0.6075141 -0.12866314 -0.6777599 -0.5019662 -0.41469586 -0.47453868 -0.26213026
-0.5434197 -0.39716136 -0.41366848 0.0724019 -0.48991692 -0.3222801 -0.29060254 -0.34538928
-0.3507074 -0.50195146 -0.52185744 -0.12148987 -0.5289967 -0.38315496 -0.2854727 -0.08504374
-0.42529365 -0.3230404 -0.23259297 -0.40167782 -0.35291854 -0.42720363 -0.14867845 -0.22709842
00000000: f9ba 0cbf e780 bdbe ab3b 8abe d48b 25bf
00000010: 66e6 2ebf 1ad0 d2be 01f1 bcbe 0a9c 07be
00000020: e21f dabe 73a7 e1be bdf9 d1be d40f 0fbf
00000030: 2fcc 07bf 5663 aebe c030 69be 7113 c1be
00000040: a80e d8be b308 b9be 692a b5be 07c8 83be
00000050: d8c2 0dbe d42e afbe 2ed3 82be 4820 dbbe
00000060: 6b57 c0be 16b4 97be a69d c2be 5d77 a0be
00000070: 617b debe 2e0f e8be 42d4 54be 7f95 39bf
00000080: 0ede 16bf 0b86 1bbf 45c0 03be ac81 2dbf
00000090: db80 00bf 0453 d4be bcf6 f2be f035 86be
000000a0: 8e1d 0bbf bc58 cbbe 5bcc d3be 7347 943d
000000b0: 64d6 fabe e601 a5be dbc9 94be ddd6 b0be
000000c0: ec8f b3be e47f 00bf 7398 05bf aecf f8bd
000000d0: 546c 07bf e32c c4be 7a29 92be 6a2b aebd
000000e0: 17c0 d9be 8d65 a5be da2c 6ebe b7a8 cdbe
000000f0: bdb1 b4be 6fba dabe 2a3f 18be 7d8c 68be

fc3.weight f4 [1, 64]
-0.090595536 0.022004167 0.06761894 0.061811034 -0.14507349 -0.1397885 -0.08478816 -0.15133022
-0.09665402 0.02682738 0.065982364 0.17449127 -0.1430533 -0.13119997 0.079871595 0.031819772
-0.13884482 -0.0046267244 -0.067205176 0.088786095 0.06313551 -0.09754493 -0.033309724 0.03583255
0.08112897 -0.1423168 -0.082096964 -0.038446542 0.051484663 0.09519636 -0.16379142 0.04738575
0.029477475 0.0445901 0.057186384 0.026379844 0.029344197 -0.02033566 0.027988903 0.101192914
-0.0878576 0.08169795 0.011184132 -0.041286815 -0.06585232 -0.14108443 -0.099099375 0.046697855
0.023232881 -0.00989226 -0.119730555 0.07068798 0.05201449 -0.031193934 -0.022729969 -0.037881244
0.08096598 0.07782704 -0.12314204 0.01746475 -0.0876403 0.03880575 -0.12731138 0.06438286
00000000: 278a b9bd 1542 b43c cc7b 8a3d 912d 7d3d
00000010: 258e 14be b724 0fbe 6aa5 adbd 4ff6 1abe
00000020: 8bf2 c5bd 18c5 db3c c321 873d d7ad 323e
00000030: 907c 12be 4959 06be b893 a33d 7355 023d
00000040: 562d 0ebe c79b 97bb dea2 89bd 7cd5 b53d
00000050: 314d 813d a3c5 c7bd c76f 08bd 27c5 123d
00000060: f226 a63d 7fbb 11be 7422 a8bd 1f7a 1dbd
00000070: 95e1 523d 4ff6 c23d f0b8 27be 8f17 423d
00000080: bf7a f13c 1ca4 363d 453c 6a3d 8b1a d83c
00000090: 3e63 f03c f896 a6bc fc48 e53c 3b3e cf3d
000000a0: afee b3bd 4151 a73d a63d 373c 5d1c 29bd
000000b0: 95dd 86bd 7078 10be 9df4 cabd 4046 3f3d
000000c0: e252 be3c 2513 22bc 4b35 f5bd dcc4 903d
000000d0: 250d 553d 6c8a ffbc 3334 babc 5d29 1bbd
000000e0: 7ed1 a53d c863 9f3d e531 fcbd 3c12 8f3c
000000f0: c27c b3bd c7f2 1e3d ea5d 02be 29db 833d
