models/0_2023_2023/Postal_GAT/90.pth (torch, 96722 bytes, 13 tensors)

conv1.att_src f4 [1, 8, 8]
-0.008216528 -0.01163506 -0.0077648833 -0.00826952 -0.009362011 -0.013405165 -0.0070772646 0.006538663
0.21836656 0.39127722 0.069282055 0.115009174 -0.8473685 0.5204305 0.5461957 -0.3763959
0.0022129295 0.0033569562 0.0035968989 0.0030294931 -0.0021670144 -0.0037474404 -0.009668389 -0.0038373838
-0.0045279325 -0.002116756 -0.004083078 -0.0012069567 -0.0031148286 -0.00047979923 0.004401007 -0.0016350741
-0.008681169 -0.00018746969 -0.0044283643 -0.001716725 -0.003385159 -0.0036884178 -0.0010655405 -0.0058081313
-1.4791605 2.262673 -1.4909343 2.212051 0.8325632 2.0289848 -0.38892362 0.40119687
0.020447943 0.013574129 0.033934254 -0.053144652 -0.09371427 0.033537213 -0.0062178904 0.07096222
-0.029492367 0.30710202 -0.21081209 -0.19966957 0.04281897 -0.22206225 -0.19739272 -0.034310088
00000000: 9e9e 06bc fba0 3ebc 9070 febb e17c 07bc
00000010: 1f63 19bc 56a1 5bbc 66e8 e7bb 4842 d63b
00000020: 7c9b 5f3e 7d55 c83e c0e3 8d3d ee89 eb3d
00000030: 24ed 58bf ef3a 053f 7bd3 0b3f f7b6 c0be
00000040: cc06 113b 6100 5c3b f3b9 6b3b 768a 463b
00000050: 7804 0ebb 9e97 75bb 2a68 1ebc 9e7c 7bbb
00000060: 0d5f 94bb 46b9 0abb 57cb 85bb bf32 9eba
00000070: 2722 4cbb 908d fbb9 5336 903b fc4f d6ba
00000080: 763b 0ebc 8393 44b9 d01b 91bb bb03 e1ba
00000090: 8bd9 5dbb 62b9 71bb 9ba9 8bba 2352 bebb
000000a0: 2255 bdbf a2cf 1040 efd6 bebf 3e92 0d40
000000b0: dd22 553f e3da 0140 ff20 c7be ad69 cd3e
000000c0: 7282 a73c 0666 5e3c a5fe 0a3d 35ae 59bd
000000d0: 44ed bfbd 515e 093d 72bf cbbb a454 913d
000000e0: fa99 f1bc 7a3c 9d3e 20df 57be 2e76 4cbe
000000f0: f262 2f3d 4964 63be 5121 4abe bc88 0cbd

conv1.att_dst f4 [1, 8, 8]
-0.0084206285 0.0047143553 -0.0023715193 -0.0039025228 0.008792407 0.011116205 0.0030851024 0.0077640214
-0.47174075 0.20924564 0.13707902 -0.30028492 0.059715595 0.29165262 0.08787837 -0.05841049
0.0052170334 0.0028776852 0.002472559 0.0005005236 2.039769e-06 -0.0033849142 -0.0068715974 0.0018371384
-0.01030011 3.5327066e-05 -0.009364613 -0.01046711 -0.0076837605 -0.009192098 0.010855879 -0.017067542
0.002466683 4.0854347e-06 0.0017955732 -0.0006636519 0.005085082 0.0043852427 0.00048251695 0.0047639445
0.01499712 0.17783415 0.08093544 0.26705185 0.25006393 0.22969678 0.29194757 0.36286375
-0.05272854 0.03900369 -0.036222473 -0.023670405 0.01812459 -0.044956233 -0.036733966 -0.13408978
-0.105178215 -0.0017557278 -0.014908638 0.07487708 -0.115913525 0.024047837 -0.18530084 -0.08594869
00000000: adf6 09bc e17a 9a3b 7e6b 1bbb 78c1 7fbb
00000010: 070e 103c be20 363c 6e2f 4a3b 5569 fe3b
00000020: 0188 f1be 7d44 563e 715e 0c3e f2be 99be
00000030: 5798 743d 7e53 953e 93f9 b33d d73f 6fbd
00000040: a6f3 aa3b 8c97 3c3b a80a 223b 9235 033a
00000050: f7e2 0836 70d5 5dbb 232b e1bb 23cc f03a
00000060: cbc1 28bc 262c 1438 096e 19bc 3e7e 2bbc
00000070: 0ec8 fbbb 749a 16bc dbdc 313c 3bd1 8bbc
00000080: 13a8 213b 9e15 8936 7059 eb3a edf8 2dba
00000090: c2a0 a63b 15b2 8f3b 54fa fc39 dd1a 9c3b
000000a0: 7bb6 753c 281a 363e 7bc1 a53d 05bb 883e
000000b0: 6108 803e a235 6b3e 277a 953e 47c9 b93e
000000c0: e2f9 57bd 55c2 1f3d 045e 14bd 70e8 c1bc
000000d0: 057a 943c 0724 38bd 5b76 16bd d54e 09be
000000e0: ad67 d7bd 7320 e6ba 5c43 74bc 2859 993d
000000f0: 1264 edbd f8ff c43c 81bf 3dbe de05 b0bd

conv1.bias f4 [64]
-0.0031353731 -0.005737299 0.0018490272 -0.0040900637 -0.006062124 -0.0011966672 -0.0044276225 -0.0036984484
-0.4322343 -0.75130004 -0.36626962 -0.5682473 -0.11503016 -0.16642782 -0.6338319 0.1350363
0.0012221955 -0.0009145659 -0.0025947574 -0.0015559762 -0.0008419061 -0.001405908 -0.00409879 -0.0046959124
-0.0058112736 -0.0052645793 -0.0035853162 -0.008152877 -0.0040872092 -0.0040416657 0.0024760873 -0.008700652
0.0035197777 -0.0018932495 -0.00029846674 -0.0015490772 -0.002541319 -0.00042133874 -0.009352015 -0.0017767516
-0.48965052 -0.2651206 -0.29504406 -0.18080086 0.28406054 -0.18869083 0.051667813 -0.16539963
-0.036994707 -0.022274792 -0.06724363 -0.067935646 -0.07388735 -0.03589937 -0.05682175 0.005057539
-0.26769617 -0.13763736 0.10211814 -0.0015974413 -0.0990362 0.021708013 -0.04547047 -0.098459795
00000000: d57a 4dbb f4ff bbbb 0f5b f23a f105 86bb
00000010: c8a4 c6bb 7dd9 9cba 9715 91bb ab61 72bb
00000020: d04d ddbe 3355 40bf b187 bbbe a878 11bf
00000030: ef94 ebbd 0e6c 2abe cf42 22bf f546 0a3e
00000040: 1332 a03a 7bbf 6fba ce0c 2abb e6f1 cbba
00000050: 5db3 5cba 7246 b8ba 254f 86bb 2be0 99bb
00000060: 7f6c bebb 7e82 acbb a0f7 6abb a593 05bc
00000070: ffed 85bb f36f 84bb da45 223b 2e8d 0ebc
00000080: 12ac 663b e926 f8ba 877b 9cb9 680a cbba
00000090: 428c 26bb 21e7 dcb9 3239 19bc e4e1 e8ba
000000a0: 79b3 fabe e3bd 87be 0410 97be dc23 39be
000000b0: 6270 913e 2b38 41be a1a1 533d 855e 29be
000000c0: c387 17bd a079 b6bc 07b7 89bd d821 8bbd
000000d0: 4052 97bd 380b 13bd ecbd 68bd b6b9 a53b
000000e0: 790f 89be cff0 0cbe 5123 d13d 3c61 d1ba
000000f0: 7ed3 cabd 01d5 b13c 3e3f 3abd 4aa5 c9bd

conv1.lin.weight f4 [64, 12]
-0.0037293385 -0.0033286032 -0.0027758155 -0.0052187955 0.005064937 0.009930083 -0.00075909094 0.03638301
0.023861641 0.062109716 -0.02525145 -0.01624589 -0.009583592 -0.0020010655 -0.0029225275 -0.0030186928
-0.0036705844 0.0026079365 0.0142373005 -0.010167535 0.013524174 0.002628551 0.001833268 -0.003929697
-0.007923723 0.001994009 0.0014003664 -0.002185316 0.00530732 -0.014232534 0.010331118 -0.0035099243
0.019139469 -0.020007275 0.04599869 -0.028348265 -0.008821291 -0.0034922457 -0.0033802018 -0.001950983
0.0015018819 -0.0010750677 0.0010621906 -0.010521006 0.0038415364 0.01914432 0.042869326 0.0037146658
-0.002487281 -0.0048675435 -0.005787457 -0.004958084 -0.0013814097 0.0039257654 0.009842586 0.012116137
0.0087993955 0.014598565 0.01512201 -0.0021815794 -0.008569922 -0.0012231017 -0.00082158734 -0.0114468075
-0.010904106 0.0071990364 0.012069433 -0.02313525 0.017159805 -0.012368764 -0.004367514 -0.0066453386
-0.0024727732 -0.0020250394 -0.0026180828 -0.0037488437 -0.0019961037 -0.003597631 -0.0044436175 0.014128455
0.004078288 0.013803368 0.0034409375 -0.015778251 -0.0004755657 -0.005458703 -0.0044581788 -0.012292904
0.0010720544 -0.006680064 0.0014785083 0.032277968 0.003696446 0.051394902 0.007132252 -0.0026335686
0.043065894 -0.41927856 -0.41432044 -0.6233471 -0.1946403 0.12732905 -0.19773735 1.496362
0.21437481 1.4482155 1.6704427 -1.0231225 0.15036029 -0.7286075 -0.73045886 -0.10627187
0.33283406 1.5805626 0.8283288 2.5401318 0.25386596 2.0815225 -0.10847034 -0.93402845
-0.28421664 -0.1645586 -0.17328905 -0.15877017 0.8314244 -2.0946326 0.74836254 0.9111866
0.06751151 0.06523169 -0.7537465 -1.0022607 0.04638543 -0.46879274 -0.4653006 -0.14212774
0.15347727 -1.4534873 0.3288634 1.8344104 0.1915023 1.5472472 1.8953586 0.082356945
-0.13567549 -0.060392957 -0.046186354 -0.10624463 -0.61506975 2.5063217 1.3097662 -2.5688567
-1.0624583 -1.7042346 -2.862698 -2.523639 0.25902253 -0.17041983 -0.14840911 -0.08657412
1.5488361 5.67279 0.018199166 3.2733035 -0.55139303 -0.20987353 4.1943016 -8.62053
0.082472526 -0.6506274 -0.648272 -0.13438113 0.4745089 -0.23639408 0.8834543 2.1566463
0.42008433 2.0814238 0.97775453 -0.57537293 -0.4983077 0.1392135 0.11326276 -0.105609275
-1.9335128 2.8077374 -2.7968125 2.5598893 -1.4019123 1.4546095 -5.870285 -0.62398005
-0.0070590493 0.001431835 0.0021214487 -0.00024206394 0.0016169135 -0.0040120506 0.008729894 -0.0013421447
-0.0024054209 0.027399039 0.014333089 -0.00020183105 0.00043158967 -0.000114243645 -0.0013223805 -0.0006608106
-0.00061011343 -0.005806161 -0.0067549283 -0.0007269754 -0.0012823136 -0.0028904802 -0.026369056 -0.0040599783
2.3076991e-05 -0.0026035912 -0.002882866 -0.0031336455 -0.0021218474 0.025291888 0.0005927541 -0.00025569252
0.009432758 -0.0012191376 -0.016885435 -0.014357878 -0.0005010266 -0.0014472741 -0.0010041622 -0.002125396
-0.0077665704 -0.0110615 -0.016277451 -0.0067141005 -0.0011181127 0.0059010936 -0.007972715 -0.008897154
-0.0025523633 -0.0010453517 -0.0006050864 -0.0003879981 0.0034947095 0.004640073 0.0009847974 0.00040480032
0.001827882 -0.0025101681 0.030536495 -0.004173973 -0.003950399 -0.0020075622 -0.0019660597 -0.00049054326
00000000: eb67 74bb b224 5abb 75ea 35bb 6e02 abbb
00000010: c5f7 a53b c9b1 223c bbfd 46ba 5a06 153d
00000020: 7d79 c33c c266 7e3d 21dc cebc 1a16 85bc
00000030: 8004 1dbc 4f24 03bb e087 3fbb 43d5 45bb
00000040: 308e 70bb eae9 2a3b 9143 693c bc95 26bc
00000050: 7f94 5d3c c543 2c3b 444a f03a b0c4 80bb
00000060: 81d2 01bc ebad 023b 808c b73a 8537 0fbb
00000070: 07e9 ad3b 932f 69bc d943 293c c206 66bb
00000080: 60ca 9c3c 4ce6 a3bc 1f69 3c3d 9f3a e8bc
00000090: 2d87 10bc 29de 64bb 6086 5dbb 20b8 ffba
000000a0: cbda c43a 49e9 8cba 3439 8b3a 4c60 2cbc
000000b0: 49c2 7b3b 8dd4 9c3c bf97 2f3d c071 733b
000000c0: a701 23bb ea7f 9fbb b5a4 bdbb 6c77 a2bb
000000d0: 6b10 b5ba b5a3 803b cc42 213c c382 463c
000000e0: 572b 103c d22e 6f3c 4fc2 773c d4f8 0ebb
000000f0: dc68 0cbc 7c50 a0ba cb5f 57ba 648b 3bbc
00000100: 23a7 32bc e5e5 eb3b dfbe 453c 2386 bdbc
00000110: b892 8c3c 5ba6 4abc 5d1d 8fbb 24c1 d9bb
00000120: 400e 22bb 86b6 04bb 2494 2bbb 29af 75bb
00000130: 10d1 02bb 3bc6 6bbb c49b 91bb 097b 673c
00000140: 29a3 853b 8627 623c 5a81 613b 6441 81bc
00000150: 5955 f9b9 ebde b2bb ea15 92bb 2d68 49bc
00000160: 2d84 8c3a 70e4 dabb 82ca c13a e735 043d
00000170: 1340 723b 7683 523d abb5 e93b f397 2cbb
00000180: dd65 303d aeab d6be cf21 d4be ad93 1fbf
00000190: c94f 47be 8c62 023e a97b 4abe ca88 bf3f
000001a0: 1285 5b3e 205f b93f 11d1 d53f aef5 82bf
000001b0: 0cf8 193e 0586 3abf 5aff 3abf 11a5 d9bd
000001c0: 3a69 aa3e e04f ca3f 5b0d 543f 8591 2240
000001d0: b8fa 813e aa37 0540 b325 debd 7d1c 6fbf
000001e0: d884 91be 0d82 28be af72 31be a694 22be
000001f0: 3bd8 543f 760e 06c0 b094 3f3f 8643 693f
00000200: 7943 8a3d 3198 853d 88f5 40bf 144a 80bf
00000210: a6fe 3d3d 9a05 f0be e13b eebe ef89 11be
00000220: 2529 1d3e df0b babf c960 a83e f6cd ea3f
00000230: 2e19 443e 320c c63f 1c9b f23f c2aa a83d
00000240: 84ee 0abe 9b5e 77bd e72d 3dbd c996 d9bd
00000250: 3675 1dbf 9367 2040 6ba6 a73f 2668 24c0
00000260: a2fe 87bf 5c24 dabf 7236 37c0 4d83 21c0
00000270: 9a9e 843e 8982 2ebe 8ff8 17be c64d b1bd
00000280: 4340 c63f 7f87 b540 6b16 953c ce7d 5140
00000290: 1828 0dbf 16e9 56be b837 8640 b1ed 09c1
000002a0: 5be7 a83d 848f 26bf 27f5 25bf 359b 09be
000002b0: d5f2 f23e 4a11 72be 102a 623f 7e06 0a40
000002c0: 4b15 d73e 0c36 0540 1f4e 7a3f a44b 13bf
000002d0: 3022 ffbe fc8d 0e3e 4ef6 e73d ad49 d8bd
000002e0: 597d f7bf f8b1 3340 fafe 32c0 3ad5 2340
000002f0: dd71 b3bf a530 ba3f 60d9 bbc0 28bd 1fbf
00000300: 994f e7bb 69ac bb3a 0108 0b3b 8bd2 7db9
00000310: 9dee d33a 8577 83bb d407 0f3c e7ea afba
00000320: 44a4 1dbb f373 e03c 55d5 6a3c 9ca2 53b9
00000330: fc46 e239 1796 efb8 ba53 adba 403a 2dba
00000340: 05f0 1fba 9c41 bebb 7258 ddbb 7e92 3eba
00000350: 4e13 a8ba 366e 3dbb eb03 d8bc 9109 85bb
00000360: 7695 c137 03a1 2abb 77ee 3cbb d95d 4dbb
00000370: b10e 0bbb ef30 cf3c 0e63 1b3a 780e 86b9
00000380: db8b 1a3c 78cb 9fba 5353 8abc 4e3d 6bbc
00000390: 5357 03ba 76b2 bdba 189e 83ba 3a4a 0bbb
000003a0: b77e febb 4b3b 35bc 4a58 85bc f501 dcbb
000003b0: a38d 92ba f65d c13b fe9f 02bc 5ec5 11bc
000003c0: 8d45 27bb 2f04 89ba a99e 1eba 396c cbb9
000003d0: 7f07 653b c10b 983b 5114 813a 613b d439
000003e0: 8b95 ef3a a281 24bb ac27 fa3c d3c5 88bb
000003f0: 5972 81bb 4e91 03bb 02d9 00bb cd97 00ba

conv2.att_src f4 [1, 8, 8]
0.10510063 0.63117665 0.3210758 -1.1823461 -0.2973096 1.346281 0.06970178 -0.12963833
-0.17034627 -0.2379349 -0.5273207 0.8691651 -0.23868686 0.2589849 -0.5026649 0.59523505
-0.8431259 -0.1613075 0.6279297 -0.09775072 -0.30807632 -0.2843377 -0.09314876 0.5522509
-0.1168982 -0.16211584 -0.10775336 0.042131905 -0.53148025 0.46790698 -0.047259465 -0.15095378
-0.14442532 0.22783662 -0.26051763 0.094338335 0.42983532 0.19764821 0.14802222 0.5454936
-0.04235914 -1.763749 0.12517744 -0.57410264 0.16900015 0.8038487 0.14503132 0.356126
0.2554178 -0.3513333 0.13264787 -0.4910666 0.7781174 -0.16409375 0.04912532 0.4149482
-0.090729855 -0.027119493 0.10240318 0.07936386 -0.28737572 -0.24318244 -0.15776204 0.17125866
00000000: 003f d73d cb94 213f 0c64 a43e 1e57 97bf
00000010: f738 98be f052 ac3f cfbf 8e3d e9bf 04be
00000020: 416f 2ebe 35a5 73be 7dfe 06bf 9b81 5e3f
00000030: 546a 74be ab99 843e a6ae 00bf 5361 183f
00000040: 19d7 57bf cb2d 25be 00c0 203f 8831 c8bd
00000050: 2ebc 9dbe b694 91be c7c4 bebd 5160 0d3f
00000060: 5368 efbd b201 26be cbad dcbd 8192 2c3d
00000070: 170f 08bf 8191 ef3e 2493 41bd a193 1abe
00000080: 3be4 13be 014e 693e 9162 85be 7534 c13d
00000090: 6013 dc3e 4b64 4a3e 2393 173e 78a5 0b3f
000000a0: c780 2dbd 87c2 e1bf 842e 003e 64f8 12bf
000000b0: 600e 2d3e 07c9 4d3f 1783 143e 2656 b63e
000000c0: 1fc6 823e f5e1 b3be d8d4 073e 156d fbbe
000000d0: b432 473f 3108 28be a237 493d 1774 d43e
000000e0: 93d0 b9bd b329 debc c2b8 d13d 8589 a23d
000000f0: e922 93be d104 79be 5f8c 21be 6e5e 2f3e

conv2.att_dst f4 [1, 8, 8]
0.39486575 -0.52911377 -0.24810803 0.3297965 0.4799585 -0.08549365 -0.05018805 0.3907516
-0.0057592443 0.3419917 -0.42016196 -0.01437487 0.02203073 0.33247173 -0.17984168 0.051034164
-0.5658154 0.8108362 0.51012564 0.827271 0.7613318 0.69557816 -0.9470102 -0.69061
-0.18163875 0.91530335 -0.020036146 -0.0022131996 1.1274241 -0.80205756 0.828708 -0.13662384
-0.31963262 -0.2049461 -0.6839559 -0.048122685 0.42797714 0.17759623 -0.40774915 -0.03738697
0.03526555 0.7394453 -0.23285565 0.1845689 -0.03340936 -0.54191047 -0.32842827 -0.2107113
-0.2178174 0.5118431 0.28730127 -0.5903462 0.80990785 -0.6317234 0.48953196 0.081043325
0.31015384 1.3334241 0.026860725 1.2687937 0.51498777 0.3114387 0.45350933 0.15473995
00000000: d82b ca3e 0074 07bf 0810 7ebe 16db a83e
00000010: 1fbd f53e 4b17 afbd fc91 4dbd 9810 c83e
00000020: 0bb8 bcbb 8919 af3e 781f d7be 9384 6bbc
00000030: ca79 b43c bc39 aa3e 6b28 38be 3309 513d
00000040: 47d9 10bf f692 4f3f 9897 023f 08c8 533f
00000050: a4e6 423f 6911 323f 436f 72bf d1cb 30bf
00000060: 82ff 39be 5251 6a3f d822 a4bc 540b 11bb
00000070: 6f4f 903f a553 4dbf 3526 543f 1fe7 0bbe
00000080: e3a6 a3be 64dd 51be bc17 2fbf 4b1c 45bd
00000090: d21f db3e c9db 353e 7fc4 d0be 1423 19bd
000000a0: 9c72 103d 4a4c 3d3f b671 6ebe a1ff 3c3e
000000b0: 41d8 08bd a5ba 0abf c027 a8be b4c4 57be
000000c0: 860b 5fbe 2608 033f 2719 933e ee20 17bf
000000d0: 1f56 4f3f a0b8 21bf efa3 fa3e 0bfa a53d
000000e0: 7ccc 9e3e a4ad aa3f 060b dc3c d567 a23f
000000f0: 3dd6 033f e574 9f3e 6032 e83e 2674 1e3e

conv2.bias f4 [64]
0.009307443 -0.24890389 -0.23858239 0.15229715 0.23327331 -0.12165878 0.14977546 0.2756385
-0.14360592 0.16263542 0.1488367 -0.17868738 -0.1988542 -0.16292143 -0.024391424 -0.036788154
0.18604252 0.056755647 -0.15944748 0.033433616 0.07365694 -0.14720504 0.052920014 -0.02308852
-0.09083004 -0.21196194 0.00744109 0.21542512 0.0097354725 -0.51839364 0.25698334 0.21991022
-0.26948628 0.25361595 -0.1799534 -0.32787064 0.18052794 0.064115584 -0.30429602 -0.33989176
-0.15434091 -0.07076959 -0.17069668 0.12813668 -0.16699143 -0.24455856 -0.04838804 -0.18687819
-0.23508848 0.4288569 -0.107926235 -0.067371055 -0.005999211 -0.0010617935 0.03201082 -0.21897155
0.21179461 0.006628805 0.25261384 -0.24681892 -0.034192998 -0.050357297 0.21115483 -0.16408701
00000000: 3f7e 183c a9e0 7ebe f14e 74be c9f3 1b3e
00000010: 33df 6e3e 3d28 f9bd bd5e 193e 7d20 8d3e
00000020: 6e0d 13be e689 263e a668 183e d3f9 36be
00000030: 6fa0 4bbe e0d4 26be 86d0 c7bc 2daf 16bd
00000040: ee81 3e3e 9c78 683d 3346 23be b0f1 083d
00000050: 73d9 963d ebbc 16be a8c2 583d 2324 bdbc
00000060: 1a05 babd 8d0c 59be 63d4 f33b 6798 5c3e
00000070: 8881 1f3c 72b5 04bf 5293 833e 2530 613e
00000080: 1bfa 89be f3d9 813e b445 38be a9de a7be
00000090: 51dc 383e 084f 833d b0cc 9bbe 4b06 aebe
000000a0: 8b0b 1ebe a6ef 90bd 1ccb 2ebe 4336 033e
000000b0: cdff 2abe 8f6d 7abe 8a32 46bd ff5c 3fbe
000000c0: 09bb 70be 2293 db3e 6e08 ddbd d6f9 89bd
000000d0: 0895 c4bb e12b 8bba c71d 033d 143a 60be
000000e0: b0e0 583e 7236 d93b 9a56 813e 19be 7cbe
000000f0: f50d 0cbd 7443 4ebd f938 583e 6d06 28be

conv2.lin.weight f4 [64, 64]
-0.0070177144 0.0033171966 0.00083111675 -0.00025034507 0.001655001 -0.00015412233 0.0039043073 -0.0050954986
0.04605023 0.30885613 -0.28745687 -0.003266868 0.43226975 -0.06523708 0.077533744 0.3129025
0.00044521986 -0.0008302468 0.0034758686 0.0026354876 -0.00022306896 5.1669413e-05 0.00025612192 0.0004725157
-0.0032519484 -0.005685072 0.0014263252 0.003639303 -0.0049210456 -0.001781977 -0.003995644 0.0009191856
0.008841646 -0.00041610625 -0.00045337807 -0.00016809731 -0.0005840644 -0.00032884217 0.0030146497 -9.032973e-05
-0.0296454 -0.08759864 -0.060732115 0.21824181 1.1523652 -0.058363024 -0.7915106 -0.01750981
-0.02261522 -0.0004485631 -0.021146165 0.0025996747 -0.020310676 0.046520017 0.12955944 0.0066508343
0.011295255 -0.18193938 0.33985746 0.20337205 -0.030584447 -0.33225092 -0.04395569 0.43863192
0.0038824407 0.0033015576 0.0017729321 0.0028179123 -0.002127438 0.0008962702 0.0031659417 -0.004975624
-0.18569882 -0.9761878 0.31088912 -0.20251457 -0.05081328 0.68580973 -0.2594298 -1.0246652
0.0062626577 -0.00089674344 -0.0076415553 -0.0011481468 0.00070552726 -0.0018801687 -0.00024523056 -0.0012258556
-0.0032689634 -0.0017062203 -0.0010015233 0.0017421895 0.0041764756 -0.003150184 -0.007106858 -0.0017365548
-0.00311808 -0.0048154946 0.0006198581 0.00050640607 -0.0005677189 -0.00023278399 0.002078745 -0.00028430784
-0.2757185 -0.091697946 0.004286187 -0.06654595 -0.15602931 -0.06916503 -0.097539835 -0.06894446
0.04448233 -0.006165269 -0.013833681 -0.014368972 -0.021399025 0.03724836 0.11087792 0.014001377
-0.08000943 -0.100212224 -0.5860096 -0.042457107 -0.029321427 -0.4015811 -0.05523903 -0.43512526
-0.0038948425 -0.0035638828 0.008519515 -0.0010843431 7.7027005e-07 0.0009061834 -0.008169833 -0.011128195
-0.12417856 -0.91367763 1.0108019 -0.16075408 -0.29596514 0.39599434 -0.5402558 -0.4677315
0.0017009334 0.00023505394 0.007657444 0.0017548867 0.00015418461 -2.7871245e-05 -0.0007679261 -0.000387107
-0.0026117577 0.0028377909 -0.0003906439 -0.004189541 0.0011603339 -0.0041368003 -0.0012503978 0.00048150815
0.0063241064 -0.0018282632 0.00010572864 -0.00035113352 -0.0010699704 0.0002365584 0.002488825 -0.00040047048
-0.52981406 -0.08623934 -0.014261923 -0.082424864 -0.5104882 -0.17918853 0.24435845 -0.11264995
-0.022099491 -0.012223946 -0.016909815 -0.03525931 0.018196093 -0.046442557 0.17180488 0.009687337
0.01553296 -0.080088034 -0.67366505 -0.017346757 -0.030486438 -0.31104484 -0.030613497 -1.2542698
0.001341535 0.0020331426 -0.004156258 -0.0011634515 0.0032022288 -0.00096677535 -0.0029207275 0.0014402954
0.2888933 0.2996827 -0.44809717 0.19386472 -0.12343045 -0.86474013 0.2915754 0.015148156
-0.0015385019 0.0015706375 -0.013225606 -0.0007722427 0.00091263786 8.0306934e-05 0.00028881215 -0.00064230926
0.0008503025 -0.003937933 0.001056326 0.0038616988 -0.00469175 0.0039163614 0.008165733 -0.0014194866
-0.0058819493 -0.0014239596 -0.000114344264 0.00010221338 0.0012410483 7.879122e-05 -0.0016792348 0.00044686184
0.07963106 -0.006416413 0.016581243 -0.2924014 -0.12719585 0.10987343 0.47517636 0.058315996
0.01491448 0.00681561 0.043358136 0.047514036 0.04053976 -0.029292626 -0.060396526 0.017562209
0.08938952 0.00040531164 -0.29182094 -0.026524104 0.008921073 0.27130887 -0.035416055 0.049892794
00000000: dbf4 e5bb 5365 593b 4ddf 593a bf40 83b9
00000010: 9eec d83a e69b 21b9 68df 7f3b 24f8 a6bb
00000020: 2a9f 3c3d 6422 9e3e 8c2d 93be f318 56bb
00000030: 7652 dd3e 059b 85bd 03ca 9e3d c234 a03e
00000040: 666c e939 eba4 59ba 66cb 633b 25b8 2c3b
00000050: 9ee7 69b9 9cb7 5838 1a48 8639 fcbb f739
00000060: a41e 55bb d749 babb 88f3 ba3a 5f81 6e3b
00000070: b940 a1bb 3a91 e9ba e4ed 82bb 80f5 703a
00000080: 8ddc 103c d628 dab9 60b3 edb9 4743 30b9
00000090: e61b 19ba 7368 acb9 6e91 453b 686f bdb8
000000a0: e9da f2bc ea66 b3bd 3dc2 78bd c87a 5f3e
000000b0: b480 933f 110e 6fbd 70a0 4abf bc70 8fbc
000000c0: 8e43 b9bc 1f2d ebb9 b93a adbc 4e5f 2a3b
000000d0: 9362 a6bc c68b 3e3d 3bab 043e 3eef d93b
000000e0: bc0f 393c 514e 3abe cc01 ae3e c340 503e
000000f0: 3c8c fabc cb1c aabe e20a 34bd 5d94 e03e
00000100: 8c70 7e3b f25e 583b bb61 e83a b9ac 383b
00000110: 7d6c 0bbb adf3 6a3a b07b 4f3b 8f0a a3bb
00000120: d527 3ebe 72e7 79bf dc2c 9f3e fb5f 4fbe
00000130: 9621 50bd 3a91 2f3f fcd3 84be 3b28 83bf
00000140: fb36 cd3b 6f13 6bba 0366 fabb 6a7d 96ba
00000150: 22f3 383a fe6f f6ba 4a92 80b9 e3ac a0ba
00000160: 1b3c 56bb 41a3 dfba 8c45 83ba 2e5a e43a
00000170: d1da 883b 5173 4ebb a5e0 e8bb 1c9d e3ba
00000180: b458 4cbb 4ccb 9dbb f97d 223a 56c0 043a
00000190: f8d2 14ba 7a17 74b9 8e3b 083b 270f 95b9
000001a0: fa2a 8dbe 22cc bbbd 2473 8c3b 3e49 88bd
000001b0: 26c6 1fbe 65a6 8dbd f7c2 c7bd c132 8dbd
000001c0: 1b33 363d 0606 cabb aaa6 62bc d66b 6bbc
000001d0: 024d afbc bd91 183d f713 e33d 0866 653c
000001e0: fcdb a3bd 113c cdbd ba04 16bf 81e7 2dbd
000001f0: 7d33 f0bc 0a9c cdbe 5242 62bd bdc8 debe
00000200: 9d40 7fbb 0890 69bb 7095 0b3c 8420 8eba
00000210: 8ec4 4e35 f08c 6d3a c3da 05bc 0853 36bc
00000220: 5451 febd c7e6 69bf f561 813f b89c 24be
00000230: be88 97be c5bf ca3e 344e 0abf 817a efbe
00000240: dbf1 de3a d078 7639 4ceb fa3b 3a04 e63a
00000250: 9eac 2139 0bcd e9b7 a64e 49ba 9ff4 cab9
00000260: 062a 2bbb 3bfa 393b 56cf ccb9 6b48 89bb
00000270: 5816 983a ff8d 87bb 63e4 a3ba ee72 fc39
00000280: 733a cf3b 55a2 efba a2ba dd38 5818 b8b9
00000290: 403e 8cba a90c 7839 8e1b 233b 3df6 d1b9
000002a0: e5a1 07bf 409e b0bd d7aa 69bc 5ece a8bd
000002b0: 5baf 02bf 337d 37be 1a39 7a3e 04b5 e6bd
000002c0: fe09 b5bc f246 48bc 7486 8abc 116c 10bd
000002d0: f90f 953c 8d3a 3ebd 9eed 2f3e a3b7 1e3c
000002e0: f57d 7e3c 3205 a4bd 5075 2cbf c91a 8ebc
000002f0: b2be f9bc 4541 9fbe 28c9 fabc ea8b a0bf
00000300: 72d6 af3a 793e 053b 3831 88bb f47e 98ba
00000310: 7cdc 513b 326f 7dba ad69 3fbb 4bc8 bc3a
00000320: d3e9 933e 0370 993e fe6c e5be 7984 463e
00000330: 1bc9 fcbd 9c5f 5dbf 5f49 953e f92f 783c
00000340: 8fa7 c9ba d9dd cd3a 36b0 58bc 5570 4aba
00000350: 173e 6f3a 756a a838 b66b 9739 a560 28ba
00000360: d6e6 5e3a c709 81bb 6b74 8a3a 8e14 7d3b
00000370: 40bd 99bb d254 803b 91c9 053c 110e baba
00000380: 5ebd c0bb 28a4 baba 1ccc efb8 645b d638
00000390: acaa a23a b73c a538 c519 dcba c848 ea39
000003a0: 9c15 a33d c640 d2bb 63d5 873c a3b5 95be
000003b0: a13f 02be 5205 e13d 514a f33e c1dc 6e3d
000003c0: dd5b 743c 7b55 df3b 4d98 313d 149e 423d
000003d0: 050d 263d 17f7 efbc 5962 77bd 9fde 8f3c
000003e0: da11 b73d 0280 d439 8e69 95be 1449 d9bc
000003f0: b129 123c ffe8 8a3e 6d10 11bd 635c 4c3d

fc1.weight f4 [128, 74]
-0.25906503 0.016788548 0.29698133 0.19908255 -0.05859514 0.1573222 -0.36181372 0.14740516
0.20151426 -0.17078324 0.07908961 -0.04925053 -0.072456315 -0.04764607 0.10671169 -0.10225944
0.116438426 0.06627349 0.0058161602 0.055273082 0.04125363 0.016603565 -0.05736165 -0.102236174
0.26813376 -0.066170104 0.08445373 0.29004595 -0.16029601 -0.106901966 -0.038390014 0.10188574
-0.004092399 -0.04103095 0.024105635 -0.23723963 -0.18211797 0.1596866 -0.23840478 -0.29055423
-0.185656 0.11603861 -0.15412788 0.09415266 -0.16602993 0.0802357 -0.05618222 0.18751207
-0.18565026 0.20449708 -0.1730663 0.19048184 -0.4037047 0.3202306 0.24390899 -0.34600604
0.13418673 -0.26696706 0.3090942 -0.06365868 -0.27457127 0.42866138 0.2816308 -0.2538154
-0.2583127 -0.00035029883 -1.1662433 2.6826887 -0.4812024 -0.15681331 -0.20256694 3.9435704
-0.21648695 -0.23385301 -0.24032642 0.08227525 0.38847232 0.091008425 -0.09323166 0.37556705
-0.33594733 0.28988189 0.16632491 -0.18344815 0.16975799 -0.3135158 -0.3657632 -0.30403644
0.31353137 -0.43681568 0.03862198 0.0945017 -0.0153305875 0.086755864 0.07681161 0.10711627
-0.10341068 -0.12534502 0.19178423 -0.35174632 0.005328656 0.30501273 -0.40047178 -0.18961972
-0.0003149415 0.24849615 -0.0032998829 0.037466124 -0.10598872 -0.25310802 -0.19832928 0.46355703
-0.3323212 -0.042075895 0.04339117 -0.11073629 -0.27145055 0.27696803 -0.075034425 0.13006286
0.017881399 0.07143423 -0.24011835 0.11306783 -0.12392493 0.43168318 -0.24216534 0.11327484
0.11242541 -0.18490045 -0.09313234 -0.17165528 0.090902984 0.07070656 -0.24101841 0.18142967
-0.0037210556 -0.020576524 -0.104182854 -0.00037378984 -0.4644317 3.139695 -0.5687887 -0.50204086
-0.17397761 2.0914419 -0.19042185 -0.18618068 -0.26113653 0.06637838 0.2551927 0.18842006
-0.047818717 0.18193893 -0.34189036 0.08925277 0.11710177 -0.13166231 0.012239753 -0.0419771
-0.12157631 -0.06275528 0.034007102 -0.079220705 0.12948564 0.040606707 0.02835014 0.030453999
0.0029057285 -0.024161985 -0.02594281 -0.042418424 0.23916714 0.046287272 0.1076666 0.27693185
-0.09162566 -0.16630597 0.10236686 0.08127632 0.03540863 -0.09578066 0.031686235 -0.18092397
-0.19723716 0.10103014 -0.25995472 -0.25598827 -0.15449952 0.14229947 -0.10465813 0.109740734
-0.14697126 -0.014660877 -0.043539874 0.07836463 -0.083243854 0.23985808 -0.15895915 0.16847627
-0.3169069 0.18790846 0.26045346 -0.27661836 0.17873892 -0.28536326 0.29319328 -0.22137071
-0.26331747 0.40388504 0.2518722 -0.2759099 -0.37733355 0.00033904833 -1.1063049 2.477823
-0.45919207 -0.18799223 -0.23012044 4.1211486 -0.24369448 -0.2559451 -0.10976372 0.03147222
0.3062931 0.0949837 -0.012010933 0.24860144 -0.2925433 0.28090426 0.17996478 -0.13516647
0.19242586 -0.28873116 -0.29410863 -0.25908226 0.23027076 -0.5269096 0.0825051 0.13393816
0.04785357 0.12731364 0.11618181 0.05575662 -0.09309413 -0.11623905 0.17251728 -0.33067903
0.038237024 0.37647247 -0.27710402 -0.26939753 0.11881553 0.3056582 -0.0058161714 0.064054094
00000000: 2ca4 84be 2388 893c f00d 983e 4cdc 4b3e
00000010: 7501 70bd 1219 213e a63f b9be 61f1 163e
00000020: c159 4e3e cde1 2ebe bcf9 a13d ecba 49bd
00000030: fa63 94bd 8728 43bd a98b da3d 666d d1bd
00000040: 4577 ee3d 65ba 873d 7d95 be3b 0766 623d
00000050: 91f9 283d 3304 883c 0df4 6abd 3361 d1bd
00000060: d448 893e 3184 87bd 14f6 ac3d e780 943e
00000070: a324 24be 6bef dabd d93e 1dbd 79a9 d03d
00000080: 8819 86bb 1210 28bd 2e79 c53c f2ee 72be
00000090: 227d 3abe e284 233e 6220 74be 86c3 94be
000000a0: 9b1c 3ebe a7a5 ed3d b3d3 1dbe 1cd3 c03d
000000b0: c003 2abe 9d52 a43d 541f 66bd 2a03 403e
000000c0: 1a1b 3ebe af67 513e 4b38 31be ac0d 433e
000000d0: 62b2 cebe 44f5 a33e 47c3 793e b427 b1be
000000e0: 3f68 093e e8af 88be 9841 9e3e 7b5f 82bd
000000f0: 9b94 8cbe 8179 db3e ea31 903e 18f4 81be
00000100: 9041 84be 50a8 b7b9 7647 95bf 2cb1 2b40
00000110: 2960 f6be ab93 20be b56d 4fbe 7563 7c40
00000120: c1ae 5dbe 2a77 6fbe 2118 76be ed7f a83d
00000130: d8e5 c63e a062 ba3d 3ef0 bebd 534a c03e
00000140: 4a01 acbe 666b 943e 1451 2a3e d5d9 3bbe
00000150: 0ad5 2d3e 2585 a0be 5045 bbbe aaaa 9bbe
00000160: 2f87 a03e 4ea6 dfbe 1532 1e3d 1b8a c13d
00000170: 252d 7bbc 0fad b13d 684f 9d3d c65f db3d
00000180: fbc8 d3bd 725a 00be 1663 443e 1818 b4be
00000190: 029c ae3b a12a 9c3e a30a cdbe ac2b 42be
000001a0: bc1e a5b9 c675 7e3e d942 58bb 1476 193d
000001b0: 9d10 d9bd 6097 81be d516 4bbe 5957 ed3e
000001c0: 0126 aabe c657 2cbd f1ba 313d b5c9 e2bd
000001d0: 91fb 8abe c1ce 8d3e a6ab 99bd 332f 053e
000001e0: 037c 923c 1c4c 923d 96e1 75be 1b90 e73d
000001f0: 5bcc fdbd 9405 dd3e 31fa 77be a4fc e73d
00000200: 4b3f e63d 8b56 3dbe 2bbc bebd 67c6 2fbe
00000210: 582b ba3d 9ace 903d 88cd 76be b3c8 393e
00000220: f4dc 73bb 1990 a8bc d25d d5bd 39f9 c3b9
00000230: fec9 edbe c3f0 4840 239c 11bf c085 00bf
00000240: 3027 32be 2fda 0540 f2fd 42be 26a6 3ebe
00000250: b0b3 85be 63f1 873d 9ea8 823e 30f1 403e
00000260: 8fdd 43bd 334e 3a3e 410c afbe 28ca b63d
00000270: 0ed3 ef3d 7cd2 06be 3f89 483c 2ef0 2bbd
00000280: 00fd f8bd d785 80bd 084b 0b3d 773e a2bd
00000290: e297 043e 3853 263d 8e3e e83c aa7a f93c
000002a0: 096e 3e3b 5bef c5bc 0486 d4bc f1be 2dbd
000002b0: 3be8 743e b997 3d3d 4e80 dc3d 03ca 8d3e
000002c0: 3ca6 bbbd 1d4c 2abe b7a5 d13d 3374 a63d
000002d0: a408 113d a728 c4bd 6dc9 013d 2244 39be
000002e0: 8af8 49be e4e8 ce3d c918 85be e510 83be
000002f0: 1f35 1ebe f4b6 113e 0057 d6bd c0bf e03d
00000300: a27f 16be 2d34 70bc de56 32bd a37d a03d
00000310: c17b aabd 5b9d 753e 30c6 22be 0b85 2c3e
00000320: 9f41 a2be 136b 403e 285a 853e eca0 8dbe
00000330: 5607 373e 221b 92be 6e1d 963e 01af 62be
00000340: 8cd1 86be 05ca ce3e 65f5 803e 1044 8dbe
00000350: dd31 c1be 4cc2 b139 669b 8dbf a794 1e40
00000360: 391b ebbe 0981 40be b1a4 6bbe 73e0 8340
00000370: 0c8b 79be 3c0b 83be cdcb e0bd 04e9 003d
00000380: 73d2 9c3e d086 c23d 81c9 44bc 6091 7e3e
00000390: 3cc8 95be afd2 8f3e b048 383e 1469 0abe
000003a0: 490b 453e 92d4 93be 6895 96be 6ea6 84be
000003b0: 19cc 6b3e 8ce3 06bf 6ff8 a83d 1627 093e
000003c0: 1b02 443d 825e 023e bbf0 ed3d 0e61 643d
000003d0: 23a8 bebd bd0e eebd 5fa8 303e c34e a9be
000003e0: 6d9e 1c3d 00c1 c03e 94e0 8dbe 79ee 89be
000003f0: 8e55 f33d 3b7f 9c3e 9595 bebb cb2e 833d

fc1.bias f4 [128]
-0.20247729 -0.17397092 -0.22980049 -0.24567635 -0.2192488 -0.012643943 -0.2106677 -0.12980956
-0.19825359 -0.25369465 -0.20286635 -0.15971452 -0.0007148078 -0.20108286 -0.21989316 -0.1872136
-0.07060815 -0.09430165 -0.050273336 -0.20178865 -0.20640291 -0.11278961 0.00652176 -0.35388374
0.1707986 -0.30211002 -0.23758763 -0.21120669 -0.1199863 -0.1922521 -0.04429525 -0.21728092
0.027966287 -0.20971921 -0.22279024 -0.23006748 -0.21049385 -0.19071746 -0.18976496 -0.2295331
-0.25985196 -0.20138001 -0.17479071 -0.25291178 -0.14800154 -0.14721511 -0.2099384 -0.22607009
-0.26374605 -0.028109552 0.0081210565 -0.09083083 -0.22322042 -0.20427908 -0.2978245 0.1773932
-0.12964992 -0.11206635 -0.20024924 -0.21448034 -0.14635621 -0.23666716 0.34466618 -0.13648869
-0.18580393 -0.13809529 -0.09079292 -0.16420235 -0.20627123 -0.2557359 0.016707674 -0.030685065
-0.14375354 -0.01628233 -0.2160972 -0.080701135 -0.15429682 -0.31458187 -0.0070976773 0.02041267
-0.20356905 -0.19722271 -0.19075242 -0.2769888 0.18070835 -0.22435819 -0.2528292 -0.19890691
-0.21700522 -0.018246802 -0.12624694 -0.10498392 -0.13413717 -0.22247449 -0.20971298 -0.13510217
-0.008174887 -0.17756964 -0.042921666 -0.19626722 -0.08860613 -0.21969183 -0.20643263 -0.17524475
-0.19779047 -0.17933261 -0.21096863 -0.2545446 -0.22102481 -0.22218062 -0.20475824 -0.20052144
-0.21317208 -0.23057067 -0.017492922 -0.22027783 -0.25138393 -0.09729068 0.039289407 -0.23896974
-0.19663201 -0.25778815 0.0015866419 -0.24793318 -0.18454684 -0.11648854 -0.21177949 -0.05502355
00000000: 3556 4fbe 6f25 32be d250 6bbe 9592 7bbe
00000010: c282 60be 8a28 4fbc 46b9 57be ccec 04be
00000020: fd02 4bbe 44e4 81be 32bc 4fbe 348c 23be
00000030: f061 3bba aae8 4dbe ac2b 61be ecb4 3fbe
00000040: 019b 90bd 3921 c1bd 6aeb 4dbd afa1 4ebe
00000050: 495b 53be 3dfe e6bd 7db4 d53b 4030 b5be
00000060: d4e5 2e3e 2aae 9abe 2c4a 73be 9146 58be
00000070: 61bb f5bd bcdd 44be f06e 35bd e47e 5ebe
00000080: 8e19 e53c a2c0 56be 2023 64be cf96 6bbe
00000090: b38b 57be 704b 43be bf51 42be ba0a 6bbe
000000a0: 510b 85be 9036 4ebe 56fc 32be a77d 81be
000000b0: b78d 17be 8fbf 16be 18fa 56be eb7e 67be
000000c0: b909 87be 0146 e6bc 2e0e 053c 8405 babd
000000d0: e593 64be 892e 51be 747c 98be 90a6 353e
000000e0: f3c2 04be 0b83 e5bd 230e 4dbe bca0 5bbe
000000f0: 67de 15be e058 72be 1678 b03e b1c3 0bbe
00000100: 6343 3ebe da68 0dbe a3f1 b9bd a924 28be
00000110: c438 53be d1ef 82be 88de 883c 3f5f fbbc
00000120: 2134 13be 8562 85bc 9648 5dbe a346 a5bd
00000130: fcff 1dbe e010 a1be a293 e8bb 7938 a73c
00000140: 6874 50be c0f4 49be 9a54 43be 7ad1 8dbe
00000150: 9c0b 393e 27be 65be d472 81be 41ae 4bbe
00000160: 9e36 5ebe 517a 95bc e146 01be cf01 d7bd
00000170: 415b 09be 5ad0 63be 00bf 56be 3958 0abe
00000180: f6ef 05bc d1d4 35be a1ce 2fbd 46fa 48be
00000190: 2177 b5bd e5f6 60be 1363 53be 5c73 33be
000001a0: 9689 4abe f8a2 37be 2908 58be ab53 82be
000001b0: 5454 62be 5183 63be 25ac 51be 7e55 4dbe
000001c0: c849 5abe b81a 6cbe 514d 8fbc 8390 61be
000001d0: 65b5 80be 5640 c7bd eeed 203d 7cb4 74be
000001e0: e759 49be cffc 83be def6 cf3a 32e2 7dbe
000001f0: d9f9 3cbe 8b91 eebd b9dc 58be 6060 61bd

fc2.weight f4 [64, 128]
-0.10638887 0.18410613 -0.08386869 0.15081994 -0.15722272 0.24118552 -0.09455661 0.17757705
0.004576794 0.22309354 -0.14308664 0.051185064 0.2333748 0.21528265 -0.08030926 -0.09915911
-0.057876702 -0.0142754875 -0.10495083 -0.08350749 -0.16196558 0.14860173 0.29320028 0.061467383
-0.08952469 0.19443531 -0.13691507 -0.0815854 0.016094811 -0.10732964 0.20638438 -0.09794209
0.076241024 -0.09396068 -0.087986976 -0.07439512 -0.12520334 -0.1452342 -0.086590745 -0.15338348
-0.07328391 -0.10789066 0.16557622 -0.10467928 0.16677977 0.19959861 -0.09156714 -0.07277291
0.12003119 -0.1636512 -0.19534469 0.19306435 0.12197497 -0.10527125 0.024417624 -0.18705468
-0.055530265 0.05796951 -0.10019772 0.18466876 0.1551777 -0.07773109 -0.3325293 0.01053317
0.23401377 0.24589495 -0.038368404 -0.28234097 -0.06296893 0.2524088 0.13752735 0.21256997
-0.46700257 0.16712803 -0.027502729 0.16530259 0.1570517 0.07216691 0.22226961 0.25602505
-0.051637374 0.09913576 -0.10948353 0.063132785 0.7283061 -0.16396438 -0.056294326 -0.15507984
-0.07533968 0.20936228 0.20338865 -0.3313455 0.08991752 -0.08657119 -0.085371025 0.24903755
0.21630965 0.045497008 0.21635604 -0.10279304 -0.22403497 -0.104371786 -0.11081909 0.3164942
-0.097560905 0.20991684 0.15216596 -0.05437513 -0.09591156 -0.05201057 -0.1072824 -0.12252219
-0.07630083 -0.06092095 0.25020194 -0.09436329 0.18060802 0.23680398 0.19557254 0.13566563
-0.09842885 0.1623912 0.22968887 0.085368425 -0.10529339 0.28166157 -0.109335594 -0.051080316
-0.06371471 0.14991061 -0.046849962 0.09485059 0.00038633082 -0.1651657 -0.049091548 0.0007459936
0.06208244 0.08441564 -0.0029511629 0.08617788 -0.11622336 -0.04224456 -0.07850845 -0.009869884
-0.08027625 -0.12784266 -0.001630554 -0.07711648 0.0067364434 -0.0878332 -0.12128284 0.3355467
0.106510185 0.115223356 -0.04153606 -0.07904739 -0.09270385 -0.027901871 -0.10311862 -0.036415197
0.03423613 -0.060346793 -0.069365464 -0.059380222 -0.023894211 -0.015284169 -0.056373943 -0.03665706
0.0104030045 -0.05677785 0.14119306 -0.07501936 0.02062143 -0.022448922 -0.054941364 -0.08129122
0.16247642 -0.22862771 -0.1901865 -0.15436181 0.067324474 0.0124962 0.37543672 -0.110336795
-0.03546176 -0.051224686 -0.052212164 0.12557863 0.11612416 -0.007487108 -0.13973762 -0.07805644
-0.13770129 -0.089102164 -0.09908488 -0.08373476 -0.15170464 0.11454149 -0.012147075 -0.037051696
0.52263904 -0.0018543405 -0.16511494 -0.08766762 0.0324666 0.2964017 -0.13878806 -0.13974574
-0.13019536 0.013432786 -0.002461544 0.2695206 -0.18996729 -0.035318606 -0.04769507 -0.027382016
-0.0313597 -0.08198006 0.090964675 -0.046695802 0.030016204 -0.03812029 -0.07865883 -0.020427926
-0.094237335 0.048731446 -0.05506882 -0.0024318218 -0.034956913 -0.040926635 -0.0129937995 -0.039750103
-0.05147618 -0.10243803 0.20302345 -0.05790211 -0.039674826 -0.12427984 -0.024079032 -0.052809533
-0.063599706 -0.07225741 -0.12653531 -0.036903024 0.20107149 0.069379896 -0.13973044 -0.041983355
-0.02003761 0.15544176 -0.09221824 0.15289967 -0.022203913 -0.09312232 -0.0891594 -0.13459581
00000000: 68e2 d9bd 5186 3c3e 59c3 abbd 8b70 1a3e
00000010: fefe 20be 56f9 763e e5a6 c1bd c2d6 353e
00000020: eef8 953b a272 643e 4e85 12be 6ea7 513d
00000030: cef9 6e3e 0e73 5c3e 2e79 a4bd ee13 cbbd
00000040: 1f10 6dbd bce3 69bc 76f0 d6bd fa05 abbd
00000050: 4eda 25be 0d2b 183e 591e 963e 39c5 7b3d
00000060: b858 b7bd 0d1a 473e 7733 0cbe 3f16 a7bd
00000070: 44d9 833c a4cf dbbd 6d56 533e dd95 c8bd
00000080: 4124 9c3d 756e c0bd 8432 b4bd 785c 98bd
00000090: 4e35 00be 46b8 14be 7d56 b1bd 8f10 1dbe
000000a0: e015 96bd c7f5 dcbd d08c 293e 1762 d6bd
000000b0: 51c8 2a3e 9463 4c3e 8d87 bbbd f709 95bd
000000c0: ead2 f53d 2e94 27be 7008 48be a9b2 453e
000000d0: 03ce f93d 7498 d7bd 7807 c83c 438b 3fbe
000000e0: b473 63bd 7071 6d3d 7634 cdbd cf19 3d3e
000000f0: e7e6 1e3e 7a31 9fbd 4841 aabe 5193 2c3c
00000100: 4ea1 6f3e e3cb 7b3e 3028 1dbd ff8e 90be
00000110: dbf5 80bd ba3b 813e f8d3 0c3e f1ab 593e
00000120: f61a efbe 9c23 2b3e 674d e1bc 1545 293e
00000130: 29d2 203e 3fcc 933d a59a 633e b715 833e
00000140: b681 53bd b007 cb3d e738 e0bd c34b 813d
00000150: 4572 3a3f 47e6 27be e194 66bd 40cd 1ebe
00000160: b14b 9abd 1163 563e 1d45 503e 1ea6 a9be
00000170: ad26 b83d 3c4c b1bd 01d7 aebd b303 7f3e
00000180: 4780 5d3e 125b 3a3d 708c 5d3e 2885 d2bd
00000190: 6c69 65be e0c0 d5bd 1ef5 e2bd 870b a23e
000001a0: 03ce c7bd 71f4 563e 65d1 1b3e 75b8 5ebd
000001b0: 486d c4bd 0909 55bd e0b6 dbbd eaec fabd
000001c0: 9c43 9cbd 3f88 79bd 781a 803e 8a41 c1bd
000001d0: 4ff1 383e be7c 723e 2b44 483e eeeb 0a3e
000001e0: 1195 c9bd e149 263e 8f33 6b3e a4d5 ae3d
000001f0: 10a4 d7bd f235 903e 57eb dfbd 9839 51bd
00000200: dc7c 82bd 2b82 193e bfe5 3fbd 0741 c23d
00000210: 728c ca39 3221 29be 3814 49bd c88e 433a
00000220: 284a 7e3d 1be2 ac3d 4c68 41bb 077e b03d
00000230: 8306 eebd a208 2dbd 0ac9 a0bd 4bb5 21bc
00000240: e067 a4bd 30e9 02be 50b8 d5ba 3fef 9dbd
00000250: 62bd dc3b e5e1 b3bd 2363 f8bd c7cc ab3e
00000260: 0322 da3d 39fa eb3d b721 2abd 99e3 a1bd
00000270: 84db bdbd 7792 e4bc db2f d3bd 1a28 15bd
00000280: 2f3b 0c3d 332e 77bd 7b0f 8ebd ad38 73bd
00000290: cbbd c3bc 746a 7abc 5de8 66bd b725 16bd
000002a0: 5d71 2a3c e48f 68bd ea94 103e c0a3 99bd
000002b0: 46ee a83c cde6 b7bc 320a 61bd 037c a6bd
000002c0: 3860 263e 621d 6abe 40c0 42be 0611 1ebe
000002d0: 6ae1 893d ddbc 4c3c 3e39 c03e 42f8 e1bd
000002e0: 5a40 11bd fad0 51bd 6cdc 55bd af97 003e
000002f0: 81d2 ed3d 6a56 f5bb 6117 0fbe 0edc 9fbd
00000300: 9101 0dbe 327b b6bd 03ed cabd 217d abbd
00000310: 7658 1bbe bb94 ea3d 8604 47bc 85c3 17bd
00000320: accb 053f 580d f3ba e413 29be 158b b3bd
00000330: b3fb 043d f7c1 973e 751e 0ebe 8219 0fbe
00000340: ef51 05be 3015 5c3c db51 21bb 9bfe 893e
00000350: c986 42be 3eaa 10bd e85b 43bd 4050 e0bc
00000360: 0773 00bd 29e5 a7bd b04b ba3d 1944 3fbd
00000370: 8be4 f53c 0524 1cbd e117 a1bd 7758 a7bc
00000380: 81ff c0bd a09a 473d d88f 61bd 335f 1fbb
00000390: fb2e 0fbd b0a2 27bd f2e3 54bc 01d1 22bd
000003a0: b0d8 52bd 08cb d1bd 61e5 4f3e c32a 6dbd
000003b0: 1282 22bd 6e86 febd 6441 c5bc cf4e 58bd
000003c0: 9040 82bd b1fb 93bd 7992 01be a027 17bd
000003d0: afe5 4d3e 0c17 8e3d 7f15 0fbe bdf6 2bbd
000003e0: ea25 a4bc 202c 1f3e ebdc bcbd bb91 1c3e
000003f0: fbe4 b5bc eab6 bebd 3499 b6bd 7cd3 09be

fc2.bias f4 [64]
-0.4748513 -0.29290327 -0.23971955 -0.45753255 -0.62832934 -0.41647518 -0.33754712 -0.33844432
-0.5518754 -0.39489478 -0.28505185 -0.5000852 -0.5128133 -0.34939736 -0.15346906 -0.29922864
-0.4324947 -0.3363915 -0.44391406 -0.19948557 -0.1651227 -0.3319145 -0.25833684 -0.31699023
-0.25596985 -0.38136867 -0.48658404 -0.397195 -0.305456 -0.41250902 -0.41081652 -0.60233784
-0.50443494 -0.58549875 -0.18417363 -0.5240337 -0.41830835 -0.36123627 -0.3621295 -0.1828265
-0.4919128 -0.2880103 -0.3058955 -0.028387891 -0.54995406 -0.3694972 -0.44505036 -0.27298447
-0.291271 -0.46880946 -0.64531475 -0.08098306 -0.5397752 -0.40455818 -0.36695796 -0.22094753
-0.33256882 -0.26479024 -0.09326532 -0.34148455 -0.3203749 -0.33489257 -0.19362684 -0.18421343
00000000: b61f f3be 6bf7 95be 0b79 75be b541 eabe
00000010: 31da 20bf 3c3c d5be fad2 acbe 9348 adbe
00000020: b547 0dbf a62f cabe 51f2 91be 9505 00bf
00000030: bc47 03bf 36e4 b2be fe26 1dbe 7f34 99be
00000040: f26f ddbe 823b acbe b448 e3be f245 4cbe
00000050: ed15 29be b3f0 a9be ba44 84be 8b4c a2be
00000060: 7b0e 83be c142 c3be 8b21 f9be 255d cbbe
00000070: bb64 9cbe 6234 d3be 8b56 d2be d032 1abf
00000080: a622 01bf 3fe3 15bf 0398 3cbe 1327 06bf
00000090: 832c d6be f6f3 b8be 0a69 b9be df36 3bbe
000000a0: ffdb fbbe 1676 93be 569e 9cbe b98d e8bc
000000b0: cac9 0cbf bd2e bdbe a4dd e3be 9fc4 8bbe
000000c0: 7921 95be cb07 f0be 5933 25bf 72da a5bd
000000d0: b52e 0abf 4022 cfbe eae1 bbbe 1240 62be
000000e0: 7646 aabe 9692 87be e301 bfbd 10d7 aebe
000000f0: 2e08 a4be 0a77 abbe 1d46 46be 72a2 3cbe

fc3.weight f4 [1, 64]
-0.11670936 -0.010525159 0.004509974 -0.04063422 -0.21271537 -0.13672757 -0.14603338 0.047498696
-0.05585687 -0.152796 0.0019401497 0.20125367 -0.12287696 -0.13296713 0.007246949 -0.044827916
-0.112773344 -0.08155093 0.10144905 -0.007552392 0.0137803005 -0.08818023 -0.06856218 -0.028532473
0.01409018 -0.1360825 0.039980054 -0.123586364 -0.038675603 -0.057369534 0.047419183 -0.047242384
-0.087684885 -0.11351964 0.06612941 -0.020141764 -0.039235815 -0.009672919 -0.014445008 0.009751195
-0.083769746 -0.009690304 -0.0176007 -0.084014304 0.08387019 -0.12493864 -0.03846464 -0.025355637
-0.0006595813 -0.060959063 -0.04861343 0.0013919456 -0.13116798 0.10382375 -0.1176091 0.045864142
0.012136618 -0.022172835 -0.08338738 -0.009806485 -0.09925217 -0.056538917 -0.08402015 -0.0150362775
00000000: 5105 efbd b771 2cbc 67c8 933b 1170 26bd
00000010: 0fd2 59be 5002 0cbe c689 15be fe8d 423d
00000020: 2cca 64bd 8e76 1cbe 9f4c fe3a 7115 4e3e
00000030: eaa6 fbbd 8928 08be d077 ed3b 7a9d 37bd
00000040: b6f5 e6bd 2d04 a7bd 85c4 cf3d 0e7a f7bb
00000050: c5c6 613c d697 b4bd 546a 8cbd efbc e9bc
00000060: 80da 663c 3659 0bbe 20c2 233d d91a fdbd
00000070: 4f6a 1ebd 51fc 6abd 9e3a 423d 3b81 41bd
00000080: 2294 b3bd fc7c e8bd db6e 873d 5700 a5bc
00000090: bcb5 20bd 2a7b 1ebc c1aa 6cbc 7ac3 1f3c
000000a0: 798f abbd 15c4 1ebc 582f 90bc b10f acbd
000000b0: 22c4 ab3d d4df ffbd 198d 1dbd a0b6 cfbc
000000c0: c0e7 2cba 36b0 79bd e01e 47bd f271 b63a
000000d0: e650 06be 8ca1 d43d 0add f0bd 0adc 3b3d
000000e0: aad8 463c cea3 b5bc 01c7 aabd 61ab 20bc
000000f0: b944 cbbd 5a95 67bd c212 acbd b85a 76bc
