models/0_2023_2023/Postal_GCN/30.pth (torch, 100130 bytes, 17 tensors)

conv1.bias f4 [64]
00000000: 0000 0000 aba3 fbbb 0000 0000 0000 0000
00000010: a52b 77bd 0000 0000 877f 31bd 0000 0000
00000020: 0000 0000 adfe 54bc 1b04 10be d777 39bd
00000030: b645 2ebd 0000 0000 0000 0000 0000 0000
00000040: 0000 0000 fecc 04bc 0000 0000 0000 0000
00000050: f0cf 0abc 921c 233b 0a88 e6bb c959 f6bc
00000060: 0000 0000 0000 0000 0000 0000 0000 0000
00000070: 0000 0000 0000 0000 e8d9 a5bd 0000 0000
00000080: 0000 0000 0000 0000 0000 0000 a367 27c0
00000090: 0000 0000 0000 0000 346b 07bd 0000 0000
000000a0: 91b7 fabd 0000 0000 0000 0000 f5ec f7bd
000000b0: 0000 0000 0000 0000 0000 0000 0000 0000
000000c0: 0000 0000 a876 3bbc 25b4 bfbd 0000 0000
000000d0: 0000 0000 0000 0000 860a c0bb 8f64 dfbb
000000e0: 0000 0000 0000 0000 ff9d 88bd 1bf7 8bbc
000000f0: 721a 7b3d 0000 0000 0000 0000 0000 0000
0.0 -0.007679423 0.0 0.0 -0.060344357 0.0 -0.04333451 0.0
0.0 -0.013000173 -0.14064066 -0.045280304 -0.04254695 0.0 0.0 0.0
0.0 -0.008105515 0.0 0.0 -0.008472428 0.0024888855 -0.00703526 -0.03007211
0.0 0.0 0.0 0.0 0.0 0.0 -0.08098203 0.0
0.0 0.0 0.0 -2.6157005 0.0 0.0 -0.03306122 0.0
-0.12242044 0.0 0.0 -0.12105743 0.0 0.0 0.0 0.0
0.0 -0.011441864 -0.09360532 0.0 0.0 0.0 -0.0058606295 -0.0068174074
0.0 0.0 -0.0667076 -0.017085603 0.061304517 0.0 0.0 0.0

conv1.lin.weight f4 [64, 12]
00000000: 234a c8bc b199 18bc b83d 2b3c c5b4 e4bc
00000010: 101c 8f3c 44e4 873c 43e8 a13c 476f a6bc
00000020: 5e01 023d 4bbe 9abc 7a4f 023d 3288 fabc
00000030: 54a1 13bd f9e2 423c b871 8ebb 5f6d c1bb
00000040: 225a cfbc ed63 acbc ef9f 8bbc 5efa 1ebd
00000050: c1c8 c2bb 7a37 03bb a367 fbbb 6367 2d3b
00000060: 93b3 f73c 0dd2 0a3c 3a21 3fbc 51df 56bc
00000070: 3a06 a7bc e6f7 b4bc cf2b a8bb b7af b8bb
00000080: 4044 683c 362b 5fbc 1f1d d03c 2b2d b7bc
00000090: 7ef1 bd38 bdaa ea3c 5dcb 013d 2038 97bc
000000a0: 6a01 ba3b f4b0 763b acca 74bc de62 34bc
000000b0: 566a 0d3c 2987 b5bc 9f4a ac3b d6ed 613c
000000c0: 471b 1fbe 262f 37bd ed10 97bd 45de 10bb
000000d0: 42f4 1abe 5dac 41be b4f6 44be 12de fabd
000000e0: 450c 8c3d 2f92 583d 2215 4bbe 51d8 e63d
000000f0: 28c0 f43b d462 9d3a dd7a a53c fb5a d3bb
00000100: e56d 513b 0e38 42bc 119f dabc d947 533c
00000110: b99d 853b 9518 51bc 0387 30bc ea8a 083c
00000120: 75b2 4bbd b84e ccbc fa44 35bd 4e1e 29b9
00000130: 16be a2bd 47b2 e0bd ba4e 98bd 27c5 0b3d
00000140: 5a56 083d 67a3 193d 52da 27bd 2e4d bb3d
00000150: ac6e 5cbc bdc4 8abc bf82 633c fc32 e3bc
00000160: 62ee 053a 271d 70bc e24d ac3c 530d f3bc
00000170: 1949 9e3c 4523 013d 9949 d33b 4e25 0bbb
00000180: fc7b 003d df1f 5fbc 985a 27bb 39a2 64bc
00000190: 1825 90bb d3f2 e23b 9777 8b3b fc39 c5bb
000001a0: 9181 02bd 9fdf d53a 6974 77ba c316 9d3b
000001b0: efa1 293c 1386 8a3c 23f4 06bd a594 83bc
000001c0: 7a26 d0bc bb7c 09bd 8a23 16bd 1bc3 c03c
000001d0: 6044 aa3b f3b9 4c3c fa8b 413c 0067 cfbc
000001e0: 8075 6cbe bdfb 06be 6cae 38be bd91 15bb
000001f0: cfc9 c6be e1e0 cdbe 8a7b e8be 872a 38be
00000200: e487 1b3e a565 293e 39c8 d5be 314b b13e
00000210: 6b21 68bd 6c7a a0bc e7cc b5bc 88ac 00ba
00000220: 3497 b7bd 1568 d6bd d8a9 14be 87e2 8fbd
00000230: b1ec c63c 857d 073c 21bf 95bd a6db 7c3d
00000240: d4f5 07be 6be0 33bd c592 c4bc 17ee 2eb9
00000250: c269 30be 8a37 22be 28fd 23be 1fa8 bebd
00000260: cc05 8f3d 5737 14bc b907 2ebe e291 993d
00000270: 8bfb a63c cb2d ecbc 4d2f 463c b4d7 cbbc
00000280: ccb2 c53c 40d5 233c 4710 013d dbb2 00bd
00000290: ba4f fbbc f47f b03c 18c5 e73c 6bf1 9f3c
000002a0: a58e ad3c e8e0 dbbc 62f4 bc3c 4c79 f6bc
000002b0: af47 e93b cdff aabc 1161 4fbc 0be6 b83b
000002c0: 6b48 4dbc 0238 a5bb fa6e f7bc 4524 f6bc
000002d0: fc3e 4a3c 75ff 5cbc b3d2 9ebc f503 4ebc
000002e0: 166e d5bc fcaf d0bc 4235 9c3c cbad 843c
000002f0: fb17 8b3b 939a 8ebc c2b4 2d3c 9ba5 bb3a
00000300: 7891 babc 9db4 e03b b5b3 ed3c 3a63 00bd
00000310: 98cb 01bd 61ca 853b 9094 c43c 54d9 9ebc
00000320: 0edf e53b 9384 b73c 88f9 203c d2fa e13b
00000330: 293c c23c 0363 4f3c c832 d5bc c06f b5bb
00000340: 4852 063c adf2 a43c 5e16 23bd 67dc 123c
00000350: adb2 8dbc fe22 21bd 96d3 64ba b457 d0bc
00000360: 8efa 933b 397d a9bc 8173 c4bc c734 31bb
00000370: cd63 2fbc 7dae 983c a20f 343b c1c4 cb3c
00000380: 9db0 c33b d5e3 27bc 34d2 b03c bc3e e43a
00000390: cdfd c33b 0dec 27bc e8d6 ef38 7ac6 c8bb
000003a0: a08d 31bb 3697 cbbc 9f7f 4db9 d6af d8bc
000003b0: d3a4 e0bb 204b 973c 4b86 b5bc c6f6 afbc
000003c0: c7a3 84bc 21ef 8cbc 8a62 49bb ce71 64bb
000003d0: 22ad fc3b 270c f7bc 68fa 2fbc a244 133c
000003e0: c7db 9d3c 8d99 30bc 7a0d dabc c063 3f3a
000003f0: 303a 513d 3350 7abc 7ddd 60bc ba93 1bbb
-0.024449414 -0.009313987 0.010451727 -0.027918229 0.017469436 0.016588338 0.019764071 -0.020316733
0.031739585 -0.018889567 0.031814076 -0.030582521 -0.036042526 0.011894935 -0.0043470524 -0.0059029306
-0.025311533 -0.021043742 -0.017044036 -0.038812988 -0.005944342 -0.002002208 -0.0076722666 0.0026459328
0.030236995 0.008472932 -0.011665637 -0.013114766 -0.020388711 -0.022090863 -0.0051321755 -0.005636181
0.014176428 -0.013621142 0.025404511 -0.022360405 9.057204e-05 0.028645867 0.031688083 -0.01845938
0.005676438 0.0037642093 -0.014940899 -0.0110099 0.0086313095 -0.022159176 0.005257919 0.013789615
-0.15537749 -0.0447227 -0.07376275 -0.002210514 -0.1513224 -0.18913408 -0.19234735 -0.12249388
0.06838278 0.052873787 -0.1983228 0.11271728 0.007469196 0.0012007602 0.020200187 -0.0064500547
0.0031956371 -0.011854185 -0.026687177 0.012895548 0.00407764 -0.0127622085 -0.010774377 0.008333901
-0.049730737 -0.02493988 -0.044255234 -0.00016128385 -0.07946412 -0.10971504 -0.07436891 0.034123566
0.033285476 0.03750935 -0.04097969 0.0914558 -0.013454121 -0.016939515 0.013886153 -0.027734272
0.0005109069 -0.014655388 0.021033231 -0.02966944 0.019321965 0.031527776 0.0064479825 -0.0021231952
0.03136824 -0.0136184385 -0.0025536176 -0.0139546925 -0.004398953 0.0069259196 0.0042561996 -0.006018875
-0.031861845 0.0016317255 -0.0009439649 0.004793973 0.010353549 0.016909635 -0.03294767 -0.01606209
-0.025408972 -0.033566218 -0.036654986 0.023530534 0.005196139 0.012495506 0.011813158 -0.025317669
-0.23091698 -0.13181968 -0.18035287 -0.0022822462 -0.38825843 -0.4021063 -0.45406753 -0.17984973
0.15188557 0.1654268 -0.4175432 0.3462768 -0.056672495 -0.019589625 -0.022192432 -0.00049085217
-0.089643866 -0.10469071 -0.14517915 -0.070256285 0.024282785 0.008269672 -0.073118456 0.06173291
-0.1327737 -0.043915194 -0.023995766 -0.00016682628 -0.17227843 -0.15841499 -0.1601454 -0.0930941
0.069835275 -0.009046397 -0.16995133 0.07498528 0.020383617 -0.02883043 0.012096238 -0.024883129
0.024133109 0.009999573 0.031509664 -0.03142057 -0.030677665 0.021545388 0.028292224 0.019524297
0.021186182 -0.026840642 0.02306575 -0.030087136 0.007119141 -0.020873928 -0.01265742 0.0056426576
-0.012529473 -0.005042077 -0.030204285 -0.030046592 0.012344118 -0.01348864 -0.019387579 -0.012574186
-0.02605347 -0.02547454 0.019068364 0.016196152 0.004244802 -0.017407691 0.010602178 0.0014316322
-0.022774443 0.0068574683 0.029016355 -0.03134463 -0.031688303 0.0040829633 0.023996621 -0.01939074
0.0070151156 0.022402084 0.009825118 0.006896355 0.023710327 0.012657884 -0.026025191 -0.0055370033
0.008198328 0.020135248 -0.039816253 0.008963681 -0.017297113 -0.03934001 -0.00087290385 -0.025432445
0.0045159524 -0.020689594 -0.023980858 -0.0027039514 -0.010704947 0.01863789 0.0027475138 0.024874093
0.0059719817 -0.0102471905 0.021584608 0.0017413716 0.005981183 -0.01024915 0.000114364375 -0.006127176
-0.0027092472 -0.024852376 -0.00019597866 -0.026451033 -0.006855586 0.01846844 -0.022158762 -0.021479975
-0.016191376 -0.01720387 -0.00307289 -0.0034857872 0.0077110687 -0.030157162 -0.010740854 0.008988531
0.019269837 -0.010778797 -0.026617754 0.00073009357 0.051080883 -0.01527791 -0.013724682 -0.0023739175

conv2.bias f4 [64]
00000000: 3535 7f3e 36b0 a0be ec06 62be 9dac 6abd
00000010: 5232 81bd 90f6 dc3d 3c6f f3bd 22d6 5c3b
00000020: 99d6 133e 7464 a03e 1ba6 e0bd 5e6e 913e
00000030: f0b8 a83a ea5b 0e3e 187a 19be bef5 543e
00000040: 8033 0bbf 7f1b b0bd 81d0 3d3e 6972 9b3e
00000050: 5320 473f edac 983e 8b56 9a3d 9be9 2dbe
00000060: f8c1 8fbe 09ca 803d 0632 133e c851 7a3d
00000070: cd3f 93be 4335 873e 3aa5 ac3e 3157 2e3e
00000080: 98fe 4cbf 2a4e 6ebe ccea 213e 5da8 dabd
00000090: e0c8 83be a2e2 633e 35cc 23be 8f79 82be
000000a0: 4aa1 5c3d 50b6 1bbe 1d86 5e3e c45e 15bc
000000b0: 15ee 473e 1738 84bd ff95 e13d fdf5 d7bd
000000c0: b4e3 62bd 485e 10bd 86c4 6a3e 5311 993e
000000d0: 8feb 333e 01df 48be 98c8 25be 4abf 6fbe
000000e0: c397 2cbe f9c9 e1bd dc24 a63c 733c 2a3e
000000f0: 9ea7 a9be 7dd5 fbbd ac90 12be a504 643e
0.2492264 -0.31384438 -0.22072953 -0.057293523 -0.06308426 0.107892156 -0.11886451 0.003369697
0.14437331 0.3132664 -0.10969182 0.28404516 0.0012872498 0.1390225 -0.14987981 0.20796868
-0.5437546 -0.085989945 0.18536569 0.30360726 0.777837 0.29819432 0.07536038 -0.16983645
-0.28077674 0.06288535 0.14374551 0.06111315 -0.28759614 0.26407823 0.33719808 0.17025448
-0.8007598 -0.23272005 0.15812224 -0.10676644 -0.25739193 0.22254422 -0.15995868 -0.25483367
0.053864755 -0.15206265 0.21730848 -0.009116832 0.19524415 -0.06456011 0.110149376 -0.105449654
-0.055392936 -0.035246164 0.2292653 0.2989603 0.17570327 -0.19616319 -0.16189802 -0.23412815
-0.16854768 -0.11024851 0.020281248 0.16624622 -0.33135694 -0.12296579 -0.14313 0.22267397

conv2.lin.weight f4 [64, 64]
00000000: b0ec 973c 700e 9b3b 5928 bc3a a6c8 a53b
00000010: e18e 89bc 3ba6 9dbb 98c9 a6bb e093 7ebc
00000020: 81b4 8eba 0656 71bc b616 5d3a 0fbc bbbb
00000030: fa9e 4dbc 76b3 bf3c fd4c 463c e76d 913c
00000040: 4e3b abbc d951 c9bc c397 953c 544b 8dbb
00000050: ed62 913b 4d36 513c 57b1 433a d2c6 733a
00000060: 8c0d 6f3c 3bb3 a03c b33a e0bb 32bd abbc
00000070: 589a 5cbc 4fc0 8f3c 4b82 83bb d73c ac3c
00000080: 01bc 0cbc 8699 bebc 29df f93b 4d74 cb3a
00000090: c286 70bc 89d1 7a3c 3f16 03bb e569 09bb
000000a0: b87c 83bb fc3b af3c 1b54 a4bc 634b 81bc
000000b0: 73f1 46bc 892e 9cbc 3c7b 53bc 0eb6 873c
000000c0: 23d9 85bc 6be3 9c3c 1028 103c b6ca 8b3a
000000d0: 76a1 893b 49d5 a93b 30a6 d93b 6080 57bc
000000e0: 80e7 dfb9 7571 853c 7129 a83c 7e79 feba
000000f0: c369 b0bc ece4 383c 040c b8bc c44b b33c
00000100: 9144 773c 13bf 993c 06d1 5b3b fb39 923c
00000110: 9890 d2bb d2c7 a7bc 8c5a 3bbc 3fb0 953c
00000120: ac11 49bc 8086 f4bb 0e68 083c 8403 53bc
00000130: 33b8 3f3b 9e5a 7fbc 9d01 aa3b f75a 83bb
00000140: a953 543b 2115 9c3c f985 81bc c32a 09bc
00000150: 29f4 22bc 6421 cf3c 7761 3abb f3e4 663c
00000160: a1b2 b93b 0675 c6bc eacd 8ebc c6c9 cebb
00000170: 4735 9abc 7553 553c f81a 883c 8df0 3cb8
00000180: 1a0c 453b c609 d43b cece 053c 13ca f3bb
00000190: 644d 1ebc 86c2 78bc fb27 8a3b 5b10 9f3c
000001a0: 24bb 4e3b bb15 ad3c 3cb9 0c3c a283 04bc
000001b0: 5844 1c3c c825 213c 480d 33bc 2e09 8dbb
000001c0: 1020 27bb cc50 633c 44e8 b93c 1af6 b0bb
000001d0: 28ce 823c c0ec 583c 6a24 80bc 3ae7 ca3c
000001e0: 925b 82ba 6043 9b3c 23c7 b33c a50d 95bc
000001f0: 3400 81bc 652e 37bb 6d47 013c 570e 80bb
00000200: 0aa8 c1bc 3aeb 073c 7d0d 66bc e7a3 363c
00000210: 6734 3a3c fbb1 07bc 05e0 0f3c d1fe 553b
00000220: 009a fcbb b53f 543c a486 813b 7f66 db3b
00000230: 424f 9ebc ad5a 963c 2647 3ebc 0748 adbc
00000240: a2ea 2dbc 04ee dcbc 914b e13b c0ab d83a
00000250: 92d8 e2bb 9503 b7bc 1b77 ec3b b7f0 ccba
00000260: eef0 c9bb b08e 8e3b 38e4 0d3c 07b5 71bc
00000270: 85bf e7bb a1b2 36bc eace 783c f6f4 c63b
00000280: 65cf 97bc 0310 8e3c fd86 7fbb 2f66 3fbb
00000290: fd36 503b 65f2 3bbb c772 8b3c 0b45 2e3c
000002a0: b368 f634 bc43 12bc f230 b93b 25cb b5bc
000002b0: 8118 0bbc 99fd 4b3c 74fa c5bc 33f1 21ba
000002c0: 2347 14bc 0bac da3b 1fbe aabc f644 8b3b
000002d0: c0f7 e7bb f7c1 a83c 1042 1bbc f517 36bc
000002e0: cef9 f9bb 8ace 8d3c da3c 5e3b 4a80 f1b9
000002f0: be52 0f3c 015c 1b3c ec53 4ebb 7f14 55bc
00000300: 817f c0bc a9c5 7e3c 90df 9c3c a4c3 19bc
00000310: 2627 2cbc a2ba 8a3b 2297 27bb 8073 9a3c
00000320: 3edd deb9 770f 26bc 4b19 84bc 461f ef3b
00000330: f699 0fba 6ad2 bd3b 20f7 753c 2627 2b3c
00000340: ee2b 4438 74c6 253b d233 4bbc 95a6 b53c
00000350: 4e89 df3c 631d 993b 0e75 fd3c c33a cd3c
00000360: d54a 673c 17ce 4e3c 6f46 1f3c 5e25 8dbb
00000370: 95eb 1f3b 86a6 a33c 315e 10bb f01c fb3b
00000380: 60d6 01bc 300b 843b 2fa8 693c 6dbd 06bb
00000390: ecdb 443c 5c6f 3f3c adad 47bb c62b b73c
000003a0: db8b ab3b 146e be3c 7da4 a2bc 0c69 30bc
000003b0: c107 a7bc e48d 0e3b c7b3 993c db7b 89bc
000003c0: 9e94 d23b 2a1a ad3b ad4b a2bc fac5 7cba
000003d0: dff1 3cbb 3f20 43bc dcf0 0fbc ea4a fc3b
000003e0: 6b24 25bb c678 9fbb 917c b9bb 5cce 253b
000003f0: cf2a 29bb 6204 71bc 6fa6 2b3c dd51 beb9
0.018545479 0.0047319457 0.0014355286 0.0050593195 -0.016791763 -0.004811076 -0.00508995 -0.015538186
-0.0010887535 -0.014729982 0.0008433865 -0.0057292054 -0.01255011 0.023401003 0.012103316 0.0177526
-0.020902302 -0.02457516 0.018260842 -0.0043119583 0.0044368417 0.012769294 0.00074650854 0.0009299341
0.014590632 0.019616714 -0.006842935 -0.020964239 -0.013464533 0.017547755 -0.004013335 0.021025104
-0.0085897455 -0.023266565 0.0076254797 0.0015522331 -0.014680566 0.015308746 -0.0020002273 -0.002096766
-0.0040126704 0.021390907 -0.020059636 -0.015783018 -0.012142527 -0.019065158 -0.012907799 0.016566303
-0.01633889 0.01915141 0.008798614 0.0010665271 0.004200156 0.0051828963 0.0066421255 -0.013153166
-0.00042706355 0.016289452 0.020527573 -0.001941487 -0.021534806 0.011285048 -0.022466667 0.021886714
0.015092031 0.01876787 0.0033541336 0.017849913 -0.0064259283 -0.020481024 -0.011435162 0.018272517
-0.01227228 -0.0074623227 0.00832559 -0.012879256 0.0029254078 -0.01558557 0.0051881806 -0.0040086466
0.0032398498 0.019053044 -0.015810953 -0.008372012 -0.009945908 0.025284477 -0.0028439441 0.014092672
0.005667046 -0.024225723 -0.017432172 -0.0063106744 -0.018824233 0.013020386 0.016614422 -4.5046723e-05
0.0030067028 0.0064708916 0.008166982 -0.0074398606 -0.009662006 -0.015183097 0.004216192 0.019416979
0.003154465 0.021128526 0.008589085 -0.008088024 0.009537779 0.009835668 -0.010928459 -0.004304073
-0.0025501288 0.013874244 0.02269376 -0.0054004313 0.015967444 0.013240039 -0.015642364 0.02476846
-0.0009945503 0.018953025 0.021945542 -0.018194983 -0.015747167 -0.0027951237 0.007890564 -0.0039079594
-0.023639698 0.0082958285 -0.014041302 0.011147476 0.011365033 -0.00828218 0.008781438 0.0032653103
-0.007708788 0.012954642 0.003952818 0.006695568 -0.019324902 0.018353784 -0.011613643 -0.02115251
-0.010615023 -0.026968963 0.0068754633 0.0016530678 -0.00692279 -0.022340575 0.007216347 -0.0015635703
-0.0061627543 0.004350506 0.008660369 -0.014752633 -0.0070723915 -0.011150987 0.015186051 0.006071682
-0.01853151 0.01734162 -0.0038990371 -0.0029205193 0.0031771057 -0.0028678414 0.017022504 0.010636578
4.589725e-07 -0.008927282 0.0056515867 -0.022191593 -0.008489729 0.012450599 -0.024167277 -0.0006177604
-0.009050163 0.006673341 -0.02084261 0.004250164 -0.0070790946 0.020600302 -0.0094762 -0.01111411
-0.007628656 0.0173104 0.0033910782 -0.00046062685 0.008747755 0.009482385 -0.0031483127 -0.013005375
-0.023498299 0.015550056 0.019149572 -0.009385023 -0.010507381 0.004233674 -0.002557226 0.018853903
-0.00042507978 -0.010135523 -0.016125342 0.0072974293 -0.0005477959 0.0057929056 0.0150125325 0.010446345
4.6770954e-05 0.002529529 -0.012402492 0.022174159 0.027287152 0.0046726926 0.030939605 0.025052434
0.014116962 0.012622378 0.0097213825 -0.004307433 0.0024401892 0.019976866 -0.0022028799 0.0076633617
-0.007924646 0.004029654 0.0142612895 -0.0020559684 0.012015324 0.011684265 -0.003046851 0.02235974
0.005235178 0.023245849 -0.019853825 -0.010767233 -0.02038944 0.0021752054 0.018762482 -0.016782692
0.006426408 0.00528266 -0.019811476 -0.0009642538 -0.002883069 -0.011909544 -0.008785453 0.00769936
-0.0025198709 -0.0048666922 -0.0056606014 0.0025300002 -0.002581287 -0.014710518 0.010476693 -0.00036300617

fc1.weight f4 [128, 74]
00000000: bc42 7ebe dbce 353e c17c 093e 8d11 e93d
00000010: 9f82 333e 32b9 3b3e 4eba 19be b1cf 9d3b
00000020: 9a99 033d 8bf4 acbd 795d 023e 6ba3 c13c
00000030: 8b5a a23d e426 20ba 3940 9abc be2f cbbd
00000040: 3f68 a1bd fa46 87bd 3eb7 00bd 2894 6fbd
00000050: 6ad5 b93d d591 123d b62a 083d de7c 9a3d
00000060: f1d4 b13c 4c58 2d3d 5fac d1bc 3139 303e
00000070: d053 09bc 3dc2 643c d941 81be a966 8cbb
00000080: e03e a0bd 4bf2 1dbe 9af1 ce3d faf9 d43c
00000090: 88d7 b6bd 647c 183c 0edf 34bd a89b ab3d
000000a0: f631 7b3d a575 e33d f843 2ebd 2e91 003e
000000b0: f0af c1bd 6f6b fabd a60c a53d c74f 03bb
000000c0: 49e1 d5bd eaae d73d f432 f23b 8441 ff3c
000000d0: 475f 823d 728a cb3c 397f 33bd 0619 9f3d
000000e0: 2a24 41bc 1c35 3dbd a494 52bd 265e b0bd
000000f0: 4d63 7cbc cef7 bdbd ea13 a73d 23db 01be
00000100: a56f b4bf ddf8 1f3c 3271 f0be f3a7 4240
00000110: 64c5 bc3e 2dce 89bd b8a1 22bd 68d6 303e
00000120: 6351 23bd 7e3f 29bd ae72 23bd 2a49 113e
00000130: e8f0 3d3e 14d2 6d3e e0ce 923e 4122 ef3d
00000140: 7b50 6abe 742d 4abd 3201 c13c 24cf 53be
00000150: a73c 373e 9336 4e3e 29fd c5bd 7e78 0fbe
00000160: 246c 143d 74a0 ecbd 4414 84be 0930 ecbd
00000170: a964 c9bd 4e77 2a3e cd9d 3b3e 9f34 c43e
00000180: 6941 b8bd 11d3 25be ddda 723d 9caa 6d3b
00000190: 1a8b bf3d 9bb6 c53d 4e82 97be b32d e33e
000001a0: 0796 06be 2324 b7bd e1d9 23be dfc4 d53d
000001b0: 6955 393e bd51 06be 53ba bfbc 8752 0f3e
000001c0: b68a ad3b d6c0 efbd c0c2 963b 10a8 7b3e
000001d0: 49f5 0d3e 9cf7 0f3d d113 21be e543 40be
000001e0: b6e5 2b3e 91fe 22be c85b 9abe 1039 21bd
000001f0: 782d 4f3c 707f 953d 486b 563e 9265 89bd
00000200: 2317 4bbe a408 babe 7872 2ebe 637b d0bc
00000210: ec9d 6cbd a058 a33e c31e 46bd 8222 8abe
00000220: 8796 273d f5cf bdbc e7ae 8ebf 5d3f 0e3c
00000230: f487 f83c 57f7 b53e 13c0 923f e590 183e
00000240: b915 00be e135 4ebe 1c12 8fbd 9813 55bd
00000250: e924 333d 5a5b b3bc 9887 edbd 7f08 433d
00000260: cad6 2bbd e621 5fbc 1059 0ebe 7dd2 19bd
00000270: b454 863c c77b 513e 2082 0b3d cfa9 fabd
00000280: 7c71 f0bc 5307 c23c 8a72 63be 4a9f 543d
00000290: c6ae ad3d 2727 4dbb 98f1 acbd 7389 babd
000002a0: 0fea 8b3d 56f0 27be 235c a8bd 59bc 653c
000002b0: 0376 f8bc 96dc fd3b 4a27 99be 9877 ccbd
000002c0: 7c4f 32bd eae1 15be 3a7c f13d 8dfb 753d
000002d0: 854e afbc 5c99 babd 6ea8 63bd 90c1 00bd
000002e0: 30ee de3d 447b 3b3e 696c cebb 9940 7f3d
000002f0: 99cb e53d 2ce3 533d ccbc 803d ce0c c63c
00000300: 2e61 f83d f3a9 a33b e0e5 7e3d 603f a73c
00000310: d119 0d3e eedf 87bd b562 3c3e bbf9 93bd
00000320: b397 6dbc 0de8 27bd b0d6 81bd 170d e8bd
00000330: b306 10be 9857 5dbc eb93 663e 2d46 11bd
00000340: 56f5 ec3c 010e 4dbc 56bf 833c 9347 a83d
00000350: 229b 45bf a181 3cbb a065 19bf 5998 5e40
00000360: 1e85 623e 3601 22be 71dd bfbd de62 003f
00000370: 7842 b1bd 34a2 76bd 7149 41ba 6341 46be
00000380: f74a b03c 65e4 41bd 7bc0 90bd 187f babc
00000390: 689e 9abd a4a8 26bd 7142 963d 9bf0 623d
000003a0: 50d3 a53c f35c 343e db55 1ebe b812 623c
000003b0: 9032 9ebd 2e43 543d 2027 51bd b873 383d
000003c0: 0722 37bd f720 6dbd 2dc4 083b aaf4 5e3d
000003d0: 3216 bf3d 012e 773d 5ecb ad3c 1546 c6bb
000003e0: 1b00 ef3d fd95 663d 6d56 97bd ac8c a53c
000003f0: 8dc9 df3d 7b4b 76bd 472c 463d 0993 903d
-0.24830145 0.1775469 0.13426496 0.11380301 0.17530297 0.18332365 -0.15012476 0.0048160185
0.032128908 -0.0844508 0.1273097 0.023637494 0.07927426 -0.0006109311 -0.018829452 -0.099212155
-0.078812115 -0.066053346 -0.031424753 -0.058490902 0.090739086 0.035783608 0.033243857 0.07543348
0.021707984 0.042320535 -0.025594888 0.17209317 -0.008381799 0.013962326 -0.2524555 -0.004284699
-0.078244925 -0.15424459 0.101046756 0.025998104 -0.08927828 0.009307001 -0.044158034 0.083792984
0.061326943 0.11106423 -0.04254529 0.12555382 -0.094573855 -0.122275226 0.08059053 -0.0020036565
-0.1044336 0.10531409 0.007391328 0.03115917 0.06365829 0.02484629 -0.0438225 0.07768445
-0.011788407 -0.046193227 -0.051411286 -0.086117074 -0.0154045345 -0.092757806 0.08158095 -0.1268125
-1.4096571 0.0097639235 -0.4696136 3.0415008 0.36869347 -0.06728778 -0.03970501 0.1726929
-0.03987254 -0.041320316 -0.03990429 0.14188066 0.1854893 0.2322467 0.28673458 0.11676455
-0.22882263 -0.049359754 0.02356014 -0.20684487 0.17894231 0.20138006 -0.09667427 -0.14010808
0.036235943 -0.115540415 -0.2579671 -0.115325995 -0.098336525 0.16647074 0.18321915 0.38321397
-0.08996851 -0.16193797 0.059290756 0.0036265021 0.093527034 0.0965397 -0.29591602 0.44370803
-0.13143168 -0.089424394 -0.16001083 0.10437941 0.18098988 -0.13117118 -0.023404276 0.13996325
0.0052960766 -0.117067024 0.0046008527 0.2457583 0.138631 0.035148248 -0.15730216 -0.187759
0.16786847 -0.15917422 -0.3014815 -0.03936106 0.012645118 0.072996974 0.20939362 -0.06708826
-0.19833045 -0.36334717 -0.17035854 -0.02544946 -0.057767794 0.31903553 -0.04836918 -0.26979452
0.04091504 -0.02317045 -1.1147126 0.008682099 0.030338265 0.35540268 1.1464866 0.14899023
-0.12508287 -0.2013774 -0.06985876 -0.05202064 0.043736372 -0.021894146 -0.11598128 0.047615524
-0.041952886 -0.013618922 -0.13901162 -0.037554253 0.016397811 0.20457374 0.034059644 -0.1223942
-0.029350989 0.023685133 -0.22211662 0.051909722 0.08480601 -0.0031303854 -0.08444518 -0.091082476
0.068317525 -0.16400275 -0.08220699 0.014021956 -0.03032971 0.007747243 -0.29912788 -0.09983748
-0.043532833 -0.1463696 0.117912725 0.06005435 -0.021399746 -0.09111282 -0.05558055 -0.031434596
0.108852744 0.18308741 -0.0062995446 0.062317465 0.11220474 0.05173032 0.0628601 0.024176028
0.121279106 0.0049946248 0.062230945 0.020415962 0.1377938 -0.06634508 0.18397029 -0.07225367
-0.0145015 -0.040992785 -0.063397765 -0.11330622 -0.14065056 -0.0135096535 0.22517364 -0.035467315
0.028925579 -0.012515546 0.016082447 0.08216777 -0.7718984 -0.0028763788 -0.5992069 3.4780486
0.22121093 -0.15820774 -0.093684085 0.5015086 -0.08655256 -0.060213283 -0.00073733093 -0.1936088
0.021520121 -0.047336955 -0.07067963 -0.022765681 -0.07549745 -0.040688172 0.073368914 0.05540524
0.020242363 0.17613582 -0.15462439 0.013798408 -0.07724488 0.05182188 -0.051062703 0.045032233
-0.044710185 -0.057892766 0.0020868883 0.05443255 0.09330405 0.060346607 0.021215137 -0.006050835
0.11669942 0.056295384 -0.07389531 0.02020868 0.10927115 -0.060130578 0.04838207 0.07059295

fc1.bias f4 [128]
00000000: 4b10 26bd d519 f3bd e74d 95bd 7fb1 16be
00000010: 9aca e4bd d14c 333d e94e 9bbd fb3b 2ebd
00000020: 077b 94bd 9e06 8ebd 496c 15bd 9ba9 28bd
00000030: 5de6 f6bd 6ccd 02bd 07a1 11bd 8bbd 57bd
00000040: 19e9 81bd 1a52 9bbe a15a 18bc 8772 85bd
00000050: be31 5dbd ac43 8cbc 6731 f0bc 3cfe a03a
00000060: cbe6 8b3c 0f6a 123d 00ef 76bd a0fa c8bc
00000070: ce95 88bc 5020 f1bc 6823 cabe aa92 dabc
00000080: 9fc6 62bd 1685 75bd fdf7 77bd a929 a3bd
00000090: 9c51 ed3b 5187 17bd 0739 19be 1935 d83d
000000a0: 20b8 17be ed74 d4bd b48e 7dbd 0b26 03bd
000000b0: d3d0 87bc a9eb 0b3e c5fe 14bd c771 adbd
000000c0: 7b08 f5bd b525 92bd 7006 873c d702 4bbd
000000d0: 9523 29bd 7dd2 3dbd d643 cdbe 4ec7 ccbd
000000e0: 9553 91bd e2a2 4abe a752 8fbd fc73 3dbd
000000f0: a222 18bd 3fb3 c9bc bc24 44bc faad 82bd
00000100: 9b9a dbbd b4f0 10bd e510 f5bc 98f9 58bd
00000110: 6b5b c2bd a0fb 32bc 080c afbd 6242 8939
00000120: bfba 9bbd 094c a6bd d703 57bd 9e38 3dbe
00000130: 04aa cebc ce90 95bd 57bd 23bd 601b 96bd
00000140: 1c7b b93b 27bc 0b3e 704e f6bc 86a5 2a3d
00000150: 2788 a4bd d167 35bd c9e0 85bc b101 fdbd
00000160: e02e 08bd f9bb 8abd 96b7 ba3c 0a2f 93bc
00000170: bf41 1fbe e9d0 acbd f644 0ebd 446b 8fbd
00000180: 83c3 35bd 2e7a 773c 797b 55bd 4723 25bd
00000190: 34af 39bd d412 17be c47b ddbc fa81 1dbd
000001a0: 5182 6abd 155a 91bd 75ed a5bc 89c5 50bd
000001b0: 521f 8abd 297e 14be 949c 52be dd91 63be
000001c0: 06c2 773c 0e6f 1fbd e4ff 06be aa2a 1ebd
000001d0: bcf0 29be 0898 34be fd90 5ebd 20ca 93bd
000001e0: 5f8c d5bd 27ee 2fbd a93f e7bc 5a6c 18bc
000001f0: 2962 34be 8d48 ad3c 7103 8fbd 63b8 20bd
-0.040542882 -0.118701614 -0.07290249 -0.14716147 -0.11171456 0.04377443 -0.0758341 -0.04253767
-0.07250028 -0.06934856 -0.036480222 -0.041177373 -0.12055657 -0.031934187 -0.03555396 -0.052670997
-0.06343288 -0.30336076 -0.009298951 -0.06515985 -0.054002516 -0.017122112 -0.029320432 0.0012282799
0.017077824 0.035745677 -0.060286522 -0.02453357 -0.016672995 -0.029434353 -0.39480138 -0.026681263
-0.0553652 -0.059941374 -0.060539234 -0.079669304 0.0072423946 -0.036994282 -0.1496316 0.105570026
-0.14816332 -0.10373864 -0.06190367 -0.032018702 -0.016579067 0.13664116 -0.03637578 -0.08468967
-0.11964508 -0.07136098 0.016482562 -0.049563255 -0.0412937 -0.046343315 -0.40090817 -0.09998952
-0.0709602 -0.19788697 -0.069981866 -0.04625319 -0.037142403 -0.024621604 -0.011971649 -0.0638084
-0.10722848 -0.035385802 -0.029915283 -0.052972406 -0.09490093 -0.01092425 -0.08547217 0.00026180135
-0.07603978 -0.08119971 -0.052493896 -0.18478629 -0.025227554 -0.0730301 -0.03997549 -0.0732944
0.0056604277 0.13645993 -0.030066699 0.04166176 -0.080337815 -0.04428846 -0.016342537 -0.12353838
-0.03324783 -0.06774134 0.022792619 -0.017966766 -0.15552424 -0.08438284 -0.034733735 -0.07002881
-0.044375908 0.0151048135 -0.052119706 -0.040316846 -0.045333102 -0.14753276 -0.027036555 -0.038454033
-0.057253186 -0.0709726 -0.02025483 -0.050969634 -0.06744255 -0.14501251 -0.20567542 -0.22223611
0.015121942 -0.03892427 -0.13183552 -0.038614906 -0.16595739 -0.1763612 -0.05433749 -0.07216287
-0.10427164 -0.04295173 -0.028228598 -0.009303177 -0.1761557 0.021152759 -0.06983078 -0.039238345

fc2.weight f4 [64, 128]
00000000: bc72 213d aaa6 963e 225e 7bbc cebf b6bd
00000010: 9825 cbbd fd6f 213e a521 173e c7b3 97be
00000020: 5b41 973e 71b8 65bc b43e 583e bd66 23bd
00000030: cfdd 1fbe 392c 7ebe 2c89 cd3d bd91 5ebe
00000040: db61 863d 1666 883e 9449 473d 2744 fdbc
00000050: 322d ea3d d231 1739 0c4d 8c3e 0d9c 6cbd
00000060: 7aaf 61bd f9e6 ebbd e1d5 13bd 899e 40bc
00000070: a959 e4bd 6e3e aebd 65a9 013c 7458 503d
00000080: 4183 34bd af4a c43e d202 0b3e 51da 683b
00000090: ed23 32bd 32d2 3dbe 2c52 e03b bad6 f43c
000000a0: a534 ae3e da38 4bbe 65eb 663e f794 a53d
000000b0: 33c1 82bc a153 173e c2fc 95bb ebc6 ecbd
000000c0: 641d 0b3e 64e8 2f3d ee54 563e 4c69 22bd
000000d0: bf17 7c3e ef08 263e cfab 4c3e 14d5 c7bd
000000e0: f7b6 ff3d 11a5 b73d 6888 3bbe 01a6 88be
000000f0: 4213 763b 2ed6 80be 094c 18be 0e26 23ba
00000100: 1934 803d e5aa 00bd dbc2 6bbe 8320 94be
00000110: f6be 3d3e 6a5e bc3c 1a6e b6be 1e82 1abe
00000120: 03b3 32bc c756 f2bb 5f32 903c 80c5 dcbd
00000130: e760 30bd 1ebc 9fbe 2148 553c 2d06 19be
00000140: da34 943d 5f9e 45be aaa2 10be dcf0 debc
00000150: 1650 dd39 46bd 1ebe 8537 773d 2eec ab3d
00000160: 992c 41be aba3 1b3e 11d9 dc3d 211f 80be
00000170: 23cf 9bbe e57d ebbd d547 41be 0b6a 6ebd
00000180: bb02 85bd 66c5 2bbe 0736 64bd 28c0 a13e
00000190: c24d a3bd 6d93 223d d485 e83d 6bfe 69be
000001a0: a73f 87be 1748 27be 1d1f 7abe 9c25 b4bd
000001b0: 233c 2d3e f6ce 1bbe b970 433e 26d9 5f3e
000001c0: 1edf 6ebd 234b 10be 8c61 873d 41c2 5cbd
000001d0: 9c02 e13d d4ee 953d 344e 743d a733 15bd
000001e0: b8ba 613e 4186 15be 84a7 70bd 5ab0 6a3d
000001f0: 4b90 393e 3097 6dbd e41d 4cbd b690 24be
00000200: f3c9 a9bc 5ca7 f23c 7a0e 513c 00af eb3c
00000210: 2b96 a8bc 223e 01bd 6227 db3a 88f6 65bc
00000220: 3a65 593c ec37 76bc 01d7 453c dfb8 013d
00000230: 5f43 9a3d 573b 4bbd f1a5 9e3d 3761 173d
00000240: 67fc 2e3e c83f bf3c 0d42 653d 5b66 9c3d
00000250: 6c7a ba3d a52e 413d 844c 1aba 03d7 02bd
00000260: 1139 023d 9891 eabc 8c47 c83d 430a 493b
00000270: dc9c ca3c f046 b93d 2329 613d e2c8 733d
00000280: eab4 033d 2aed 773d 06bd 0fbc 49d3 573d
00000290: f376 813d 65a7 843d 8744 493d dea3 8dbe
000002a0: f7c3 f63c 9700 143d dbdd 56bd 2d59 213d
000002b0: 8793 333d 8246 93bf 34c6 6e3d a00b be3c
000002c0: e487 013e bc7b 3a3e 9b20 963d cd1b a3bc
000002d0: 509e 203b 880c 8d3c 1026 01bd 6a37 fa3d
000002e0: 5f5a 19bd af77 8cb8 eef7 de3d afb7 d83c
000002f0: 72e3 bb3d 766d 863d 1f1b 8fbb 726c 0c3d
00000300: dd19 a13d 720a 75bd b89e 583e 30b3 493d
00000310: 777f 303d 4841 7f3c 1ff0 153d 1466 da3c
00000320: 5581 963d 9991 2b3e 3a79 113e f60d 8e3d
00000330: 8744 853d da10 b83b b8bc 1d3d bf95 35bc
00000340: cf0d 2fbc d958 3dbe 0ddb 693d 26a5 563c
00000350: 7a53 03bd 9509 853d e557 2cbd a296 b6bb
00000360: ce89 eabc 92b9 9f3d f3de cabc 6895 153d
00000370: ede9 d73b f944 cf3d 1a1c 023e ed5b 4f3d
00000380: 6ec9 a83d 3bf7 473d 9fdb 87ba f2fd b13d
00000390: d8a9 283c 74ef 1e3c 0046 d43c e4b4 febb
000003a0: 6c7c bc3c f4ef 683d 8d10 84bd ff11 983c
000003b0: ec34 a63d 836d 243f 5e86 a03a 39d7 a93d
000003c0: be3e 2c3e 49b9 d7bb e147 b53d 299c d53d
000003d0: 2f3a b43a 60e0 8dbc afad b73c 9dd6 e23d
000003e0: 68e6 9dbb 8cf1 7b3d c5d8 8d3d 7297 ce3b
000003f0: ab11 31bd c061 febc b668 7e3d 4be3 9fbb
0.03941606 0.2942403 -0.015342267 -0.089233026 -0.0991928 0.15765376 0.14758928 -0.29629347
0.2954205 -0.014021025 0.2111767 -0.0398929 -0.15611957 -0.24821557 0.10035929 -0.21735282
0.06561633 0.26640385 0.048654154 -0.030916287 0.114344016 0.00014419042 0.27402532 -0.05776601
-0.055098988 -0.11518664 -0.036092643 -0.011756548 -0.11149914 -0.08508001 0.007913922 0.050865605
-0.044070486 0.3833823 0.13575295 0.0035530517 -0.043491293 -0.18537214 0.006845733 0.029887546
0.3402454 -0.19845906 0.22550733 0.080850534 -0.015961265 0.14777996 -0.00457725 -0.11561378
0.1358543 0.042946234 0.20930836 -0.0396512 0.24618433 0.16214345 0.19987415 -0.09757438
0.1248607 0.08967031 -0.18313754 -0.2668915 0.00375481 -0.25163406 -0.14872755 -0.0006223627
0.06259937 -0.031412978 -0.2302355 -0.28931054 0.18529877 0.022994239 -0.35630876 -0.15088698
-0.0109069375 -0.0073955986 0.017602144 -0.10779858 -0.043061163 -0.3119821 0.013017685 -0.14943762
0.07236643 -0.19298695 -0.14124551 -0.02721446 0.00042212073 -0.1550189 0.060355682 0.08394657
-0.18864669 0.15199153 0.1078359 -0.2502375 -0.3043147 -0.11498622 -0.18875058 -0.0582066
-0.064946614 -0.1677452 -0.055715587 0.31591916 -0.079738155 0.039691377 0.11353651 -0.22850959
-0.2641575 -0.16336094 -0.24425931 -0.08796236 0.16917472 -0.15215668 0.19085969 0.2186018
-0.05831825 -0.14091162 0.066104025 -0.053896192 0.10986826 0.073209435 0.059644893 -0.036426213
0.22043884 -0.14601995 -0.058753505 0.05729709 0.1812145 -0.05800551 -0.049833193 -0.16070828
-0.02072618 0.029620819 0.012759799 0.02876997 -0.020579418 -0.031553395 0.0016720111 -0.014035828
0.013268763 -0.015027981 0.012075187 0.031670447 0.07532381 -0.049617138 0.077464946 0.036957946
0.17088471 0.023345843 0.055971194 0.0763671 0.09105381 0.047163624 -0.00058860355 -0.031943332
0.031792704 -0.028633878 0.097792715 0.0030676282 0.024733 0.090467334 0.05497087 0.05951775
0.032154955 0.06052891 -0.008773094 0.05269173 0.06321516 0.064772405 0.04913762 -0.27664083
0.03012274 0.036133375 -0.05245767 0.039391685 0.043841865 -1.1505892 0.05829449 0.023198903
0.12649494 0.18211263 0.07330438 -0.019910717 0.0024508424 0.01721789 -0.03153044 0.12217601
-0.0374397 -6.698013e-05 0.108871326 0.026454775 0.09174241 0.06563847 -0.0043672468 0.03428311
0.07866261 -0.059824415 0.21154296 0.049243152 0.04309031 0.015579529 0.03660595 0.026660003
0.07348887 0.1675476 0.142064 0.069362566 0.06507211 0.0056172432 0.038510054 -0.0110830655
-0.010684445 -0.18490924 0.05709367 0.013100898 -0.03206203 0.06495968 -0.04207601 -0.005572156
-0.028630164 0.077990666 -0.024764514 0.036519438 0.0065891654 0.10120577 0.12706032 0.050624777
0.08241545 0.04881976 -0.0010365135 0.08691014 0.0102944 0.009700645 0.025912285 -0.0077730287
0.023008548 0.056869462 -0.06448469 0.018563269 0.08115563 0.642296 0.0012247076 0.082930036
0.16820809 -0.006583367 0.088516004 0.10430176 0.001375025 -0.017318904 0.022421686 0.110760905
-0.0048187263 0.061509654 0.06926111 0.006304675 -0.04322974 -0.03105247 0.06211158 -0.0048793904

fc2.bias f4 [64]
00000000: 8289 46be ceb1 043c ae9b 04be dba9 80be
00000010: 2dac 2ebe 0d30 6ebe cb37 63be ec4c 76bd
00000020: dc12 d6bd c527 3bbe cd83 27be 462a 5ebe
00000030: 573a 17be 365a 04bf 9dd6 57be 8a4b f5bd
00000040: 34d9 66be af74 4bbe 9d59 50be d75f e2bd
00000050: dffd 3bbe 6886 4cbe af7e f2be 4cc7 63bd
00000060: 3b8a 98be 89f9 823f 49e2 46be a452 92be
00000070: f126 30bf b166 9ebe 145a 85be 15f8 46be
00000080: b551 34be eb31 04bd b2d3 46be 8e8c 27bf
00000090: ba35 51be 433a 02be 9758 3dbe 0137 efbd
000000a0: 9c4e 57be e63a 1fbe cd28 08bf 873c de3c
000000b0: 75f3 59be 7814 d3bd b511 4fbe d3bc 53be
000000c0: e66d e3bd 8c74 50be 9def 8bbe 0ad0 19be
000000d0: 3733 3dbf 952f 2ebe f8c8 10be a6cd 95be
000000e0: bfbe 15bf 29d3 91be 6795 2ebf a318 8abe
000000f0: 246f 6dbd 3a42 26be d4cb a4be c486 9ebe
-0.19388393 0.008099033 -0.12950012 -0.2512959 -0.17057867 -0.23260517 -0.22189252 -0.060131952
-0.10452816 -0.1827689 -0.16358872 -0.21695814 -0.14768349 -0.5170015 -0.21077962 -0.119772986
-0.22543794 -0.1986873 -0.20346685 -0.11053436 -0.18358563 -0.19973147 -0.47362277 -0.055609986
-0.2979296 1.0232402 -0.19422258 -0.28578675 -0.6880942 -0.30937722 -0.26045287 -0.19430573
-0.17609294 -0.032274168 -0.19416693 -0.65448844 -0.20430651 -0.12717538 -0.18490826 -0.11680413
-0.21026081 -0.15549812 -0.5318726 0.027128471 -0.21284278 -0.103066385 -0.20221598 -0.206775
-0.11104946 -0.20356959 -0.27331248 -0.15020767 -0.7390627 -0.17010339 -0.14139163 -0.2925846
-0.5849418 -0.28481415 -0.6819672 -0.2697192 -0.05796732 -0.16236201 -0.3218676 -0.30962193

fc3.weight f4 [1, 64]
00000000: c964 87bc a599 0e3e df47 2cbd ff20 153d
00000010: 6cc6 8eb9 a38e 51bc 605d 2bbe e623 33bc
00000020: d9e6 ebbc 4e63 80bc 1f00 1cbc 2dd8 48bc
00000030: 3f40 2e3d 391b 4fbe 2a13 1ebd 1450 703b
00000040: f552 c0bc 400c 993c f349 533b 5b05 2ebc
00000050: b262 3c3a 02bd debc 7f00 11be c83f 183c
00000060: c1e9 873a 2cf9 0abe 7e08 29bc 5d30 2cbd
00000070: c7f0 e6be e61d 1d3d 0eac 3fbd 6324 01bc
00000080: d316 d83c 4efe a73d 217c 1e3b 8945 6cbd
00000090: e561 d2bc 5972 2abc 990f 0bbd 72f3 11bc
000000a0: 59ee 7abc 72cb 90bc 0b23 74be c5e8 5bbc
000000b0: 716e 64bb a731 9ebb d71d d3b6 8dce 05bc
000000c0: b03c 0fbc 72a7 923b 416a 2dbd 351e 81bb
000000d0: 258d 0bbf 355c 20bc 16fe b5bb 6ce7 c1bd
000000e0: 67a1 9ebe 1413 a1bd 1326 f8be 4fbe f7bb
000000f0: ff77 37bd 3271 4fbc 087a e2bc 1d3e 61bd
-0.01652755 0.13925798 -0.04206073 0.03640842 -0.00027232186 -0.012790355 -0.16734838 -0.010933852
-0.0287966 -0.015672352 -0.009521513 -0.012258572 0.04254174 -0.20225228 -0.038592495 0.0036668824
-0.023477057 0.018682599 0.0032240122 -0.010621394 0.00071863376 -0.027189735 -0.14160345 0.00929255
0.0010369347 -0.13571614 -0.010316966 -0.04203831 -0.45105574 0.03835859 -0.046794944 -0.00788221
0.026378071 0.08202802 0.0024182873 -0.0576835 -0.025681445 -0.010403239 -0.033950422 -0.00890814
-0.015315616 -0.017675135 -0.23841493 -0.013422196 -0.0034855867 -0.0048276964 -6.291764e-06 -0.008166921
-0.008742496 0.0044755274 -0.04233766 -0.0039403685 -0.54512244 -0.009787609 -0.005553971 -0.09467968
-0.30982515 -0.07864967 -0.48466548 -0.0075605283 -0.04479217 -0.012661265 -0.02764608 -0.054990876

bn1.weight f4 [128]
00000000: 0000 803f 0000 803f 0000 803f 0000 803f
00000010: 0000 803f 0000 803f 0000 803f 0000 803f
00000020: 0000 803f 0000 803f 0000 803f 0000 803f
00000030: 0000 803f 0000 803f 0000 803f 0000 803f
00000040: 0000 803f 0000 803f 0000 803f 0000 803f
00000050: 0000 803f 0000 803f 0000 803f 0000 803f
00000060: 0000 803f 0000 803f 0000 803f 0000 803f
00000070: 0000 803f 0000 803f 0000 803f 0000 803f
00000080: 0000 803f 0000 803f 0000 803f 0000 803f
00000090: 0000 803f 0000 803f 0000 803f 0000 803f
000000a0: 0000 803f 0000 803f 0000 803f 0000 803f
000000b0: 0000 803f 0000 803f 0000 803f 0000 803f
000000c0: 0000 803f 0000 803f 0000 803f 0000 803f
000000d0: 0000 803f 0000 803f 0000 803f 0000 803f
000000e0: 0000 803f 0000 803f 0000 803f 0000 803f
000000f0: 0000 803f 0000 803f 0000 803f 0000 803f
00000100: 0000 803f 0000 803f 0000 803f 0000 803f
00000110: 0000 803f 0000 803f 0000 803f 0000 803f
00000120: 0000 803f 0000 803f 0000 803f 0000 803f
00000130: 0000 803f 0000 803f 0000 803f 0000 803f
00000140: 0000 803f 0000 803f 0000 803f 0000 803f
00000150: 0000 803f 0000 803f 0000 803f 0000 803f
00000160: 0000 803f 0000 803f 0000 803f 0000 803f
00000170: 0000 803f 0000 803f 0000 803f 0000 803f
00000180: 0000 803f 0000 803f 0000 803f 0000 803f
00000190: 0000 803f 0000 803f 0000 803f 0000 803f
000001a0: 0000 803f 0000 803f 0000 803f 0000 803f
000001b0: 0000 803f 0000 803f 0000 803f 0000 803f
000001c0: 0000 803f 0000 803f 0000 803f 0000 803f
000001d0: 0000 803f 0000 803f 0000 803f 0000 803f
000001e0: 0000 803f 0000 803f 0000 803f 0000 803f
000001f0: 0000 803f 0000 803f 0000 803f 0000 803f
1.0 1.0 1.0 1.0 1.0 1.0 1.0 1.0
1.0 1.0 1.0 1.0 1.0 1.0 1.0 1.0
1.0 1.0 1.0 1.0 1.0 1.0 1.0 1.0
1.0 1.0 1.0 1.0 1.0 1.0 1.0 1.0
1.0 1.0 1.0 1.0 1.0 1.0 1.0 1.0
1.0 1.0 1.0 1.0 1.0 1.0 1.0 1.0
1.0 1.0 1.0 1.0 1.0 1.0 1.0 1.0
1.0 1.0 1.0 1.0 1.0 1.0 1.0 1.0
1.0 1.0 1.0 1.0 1.0 1.0 1.0 1.0
1.0 1.0 1.0 1.0 1.0 1.0 1.0 1.0
1.0 1.0 1.0 1.0 1.0 1.0 1.0 1.0
1.0 1.0 1.0 1.0 1.0 1.0 1.0 1.0
1.0 1.0 1.0 1.0 1.0 1.0 1.0 1.0
1.0 1.0 1.0 1.0 1.0 1.0 1.0 1.0
1.0 1.0 1.0 1.0 1.0 1.0 1.0 1.0
1.0 1.0 1.0 1.0 1.0 1.0 1.0 1.0

bn1.bias f4 [128]
00000000: 0000 0000 0000 0000 0000 0000 0000 0000
00000010: 0000 0000 0000 0000 0000 0000 0000 0000
00000020: 0000 0000 0000 0000 0000 0000 0000 0000
00000030: 0000 0000 0000 0000 0000 0000 0000 0000
00000040: 0000 0000 0000 0000 0000 0000 0000 0000
00000050: 0000 0000 0000 0000 0000 0000 0000 0000
00000060: 0000 0000 0000 0000 0000 0000 0000 0000
00000070: 0000 0000 0000 0000 0000 0000 0000 0000
00000080: 0000 0000 0000 0000 0000 0000 0000 0000
00000090: 0000 0000 0000 0000 0000 0000 0000 0000
000000a0: 0000 0000 0000 0000 0000 0000 0000 0000
000000b0: 0000 0000 0000 0000 0000 0000 0000 0000
000000c0: 0000 0000 0000 0000 0000 0000 0000 0000
000000d0: 0000 0000 0000 0000 0000 0000 0000 0000
000000e0: 0000 0000 0000 0000 0000 0000 0000 0000
000000f0: 0000 0000 0000 0000 0000 0000 0000 0000
00000100: 0000 0000 0000 0000 0000 0000 0000 0000
00000110: 0000 0000 0000 0000 0000 0000 0000 0000
00000120: 0000 0000 0000 0000 0000 0000 0000 0000
00000130: 0000 0000 0000 0000 0000 0000 0000 0000
00000140: 0000 0000 0000 0000 0000 0000 0000 0000
00000150: 0000 0000 0000 0000 0000 0000 0000 0000
00000160: 0000 0000 0000 0000 0000 0000 0000 0000
00000170: 0000 0000 0000 0000 0000 0000 0000 0000
00000180: 0000 0000 0000 0000 0000 0000 0000 0000
00000190: 0000 0000 0000 0000 0000 0000 0000 0000
000001a0: 0000 0000 0000 0000 0000 0000 0000 0000
000001b0: 0000 0000 0000 0000 0000 0000 0000 0000
000001c0: 0000 0000 0000 0000 0000 0000 0000 0000
000001d0: 0000 0000 0000 0000 0000 0000 0000 0000
000001e0: 0000 0000 0000 0000 0000 0000 0000 0000
000001f0: 0000 0000 0000 0000 0000 0000 0000 0000
0.0 0.0 0.0 0.0 0.0 0.0 0.0 0.0
0.0 0.0 0.0 0.0 0.0 0.0 0.0 0.0
0.0 0.0 0.0 0.0 0.0 0.0 0.0 0.0
0.0 0.0 0.0 0.0 0.0 0.0 0.0 0.0
0.0 0.0 0.0 0.0 0.0 0.0 0.0 0.0
0.0 0.0 0.0 0.0 0.0 0.0 0.0 0.0
0.0 0.0 0.0 0.0 0.0 0.0 0.0 0.0
0.0 0.0 0.0 0.0 0.0 0.0 0.0 0.0
0.0 0.0 0.0 0.0 0.0 0.0 0.0 0.0
0.0 0.0 0.0 0.0 0.0 0.0 0.0 0.0
0.0 0.0 0.0 0.0 0.0 0.0 0.0 0.0
0.0 0.0 0.0 0.0 0.0 0.0 0.0 0.0
0.0 0.0 0.0 0.0 0.0 0.0 0.0 0.0
0.0 0.0 0.0 0.0 0.0 0.0 0.0 0.0
0.0 0.0 0.0 0.0 0.0 0.0 0.0 0.0
0.0 0.0 0.0 0.0 0.0 0.0 0.0 0.0

bn1.running_mean f4 [128]
00000000: 0000 0000 0000 0000 0000 0000 0000 0000
00000010: 0000 0000 0000 0000 0000 0000 0000 0000
00000020: 0000 0000 0000 0000 0000 0000 0000 0000
00000030: 0000 0000 0000 0000 0000 0000 0000 0000
00000040: 0000 0000 0000 0000 0000 0000 0000 0000
00000050: 0000 0000 0000 0000 0000 0000 0000 0000
00000060: 0000 0000 0000 0000 0000 0000 0000 0000
00000070: 0000 0000 0000 0000 0000 0000 0000 0000
00000080: 0000 0000 0000 0000 0000 0000 0000 0000
00000090: 0000 0000 0000 0000 0000 0000 0000 0000
000000a0: 0000 0000 0000 0000 0000 0000 0000 0000
000000b0: 0000 0000 0000 0000 0000 0000 0000 0000
000000c0: 0000 0000 0000 0000 0000 0000 0000 0000
000000d0: 0000 0000 0000 0000 0000 0000 0000 0000
000000e0: 0000 0000 0000 0000 0000 0000 0000 0000
000000f0: 0000 0000 0000 0000 0000 0000 0000 0000
00000100: 0000 0000 0000 0000 0000 0000 0000 0000
00000110: 0000 0000 0000 0000 0000 0000 0000 0000
00000120: 0000 0000 0000 0000 0000 0000 0000 0000
00000130: 0000 0000 0000 0000 0000 0000 0000 0000
00000140: 0000 0000 0000 0000 0000 0000 0000 0000
00000150: 0000 0000 0000 0000 0000 0000 0000 0000
00000160: 0000 0000 0000 0000 0000 0000 0000 0000
00000170: 0000 0000 0000 0000 0000 0000 0000 0000
00000180: 0000 0000 0000 0000 0000 0000 0000 0000
00000190: 0000 0000 0000 0000 0000 0000 0000 0000
000001a0: 0000 0000 0000 0000 0000 0000 0000 0000
000001b0: 0000 0000 0000 0000 0000 0000 0000 0000
000001c0: 0000 0000 0000 0000 0000 0000 0000 0000
000001d0: 0000 0000 0000 0000 0000 0000 0000 0000
000001e0: 0000 0000 0000 0000 0000 0000 0000 0000
000001f0: 0000 0000 0000 0000 0000 0000 0000 0000
0.0 0.0 0.0 0.0 0.0 0.0 0.0 0.0
0.0 0.0 0.0 0.0 0.0 0.0 0.0 0.0
0.0 0.0 0.0 0.0 0.0 0.0 0.0 0.0
0.0 0.0 0.0 0.0 0.0 0.0 0.0 0.0
0.0 0.0 0.0 0.0 0.0 0.0 0.0 0.0
0.0 0.0 0.0 0.0 0.0 0.0 0.0 0.0
0.0 0.0 0.0 0.0 0.0 0.0 0.0 0.0
0.0 0.0 0.0 0.0 0.0 0.0 0.0 0.0
0.0 0.0 0.0 0.0 0.0 0.0 0.0 0.0
0.0 0.0 0.0 0.0 0.0 0.0 0.0 0.0
0.0 0.0 0.0 0.0 0.0 0.0 0.0 0.0
0.0 0.0 0.0 0.0 0.0 0.0 0.0 0.0
0.0 0.0 0.0 0.0 0.0 0.0 0.0 0.0
0.0 0.0 0.0 0.0 0.0 0.0 0.0 0.0
0.0 0.0 0.0 0.0 0.0 0.0 0.0 0.0
0.0 0.0 0.0 0.0 0.0 0.0 0.0 0.0

bn1.running_var f4 [128]
00000000: 0000 803f 0000 803f 0000 803f 0000 803f
00000010: 0000 803f 0000 803f 0000 803f 0000 803f
00000020: 0000 803f 0000 803f 0000 803f 0000 803f
00000030: 0000 803f 0000 803f 0000 803f 0000 803f
00000040: 0000 803f 0000 803f 0000 803f 0000 803f
00000050: 0000 803f 0000 803f 0000 803f 0000 803f
00000060: 0000 803f 0000 803f 0000 803f 0000 803f
00000070: 0000 803f 0000 803f 0000 803f 0000 803f
00000080: 0000 803f 0000 803f 0000 803f 0000 803f
00000090: 0000 803f 0000 803f 0000 803f 0000 803f
000000a0: 0000 803f 0000 803f 0000 803f 0000 803f
000000b0: 0000 803f 0000 803f 0000 803f 0000 803f
000000c0: 0000 803f 0000 803f 0000 803f 0000 803f
000000d0: 0000 803f 0000 803f 0000 803f 0000 803f
000000e0: 0000 803f 0000 803f 0000 803f 0000 803f
000000f0: 0000 803f 0000 803f 0000 803f 0000 803f
00000100: 0000 803f 0000 803f 0000 803f 0000 803f
00000110: 0000 803f 0000 803f 0000 803f 0000 803f
00000120: 0000 803f 0000 803f 0000 803f 0000 803f
00000130: 0000 803f 0000 803f 0000 803f 0000 803f
00000140: 0000 803f 0000 803f 0000 803f 0000 803f
00000150: 0000 803f 0000 803f 0000 803f 0000 803f
00000160: 0000 803f 0000 803f 0000 803f 0000 803f
00000170: 0000 803f 0000 803f 0000 803f 0000 803f
00000180: 0000 803f 0000 803f 0000 803f 0000 803f
00000190: 0000 803f 0000 803f 0000 803f 0000 803f
000001a0: 0000 803f 0000 803f 0000 803f 0000 803f
000001b0: 0000 803f 0000 803f 0000 803f 0000 803f
000001c0: 0000 803f 0000 803f 0000 803f 0000 803f
000001d0: 0000 803f 0000 803f 0000 803f 0000 803f
000001e0: 0000 803f 0000 803f 0000 803f 0000 803f
000001f0: 0000 803f 0000 803f 0000 803f 0000 803f
1.0 1.0 1.0 1.0 1.0 1.0 1.0 1.0
1.0 1.0 1.0 1.0 1.0 1.0 1.0 1.0
1.0 1.0 1.0 1.0 1.0 1.0 1.0 1.0
1.0 1.0 1.0 1.0 1.0 1.0 1.0 1.0
1.0 1.0 1.0 1.0 1.0 1.0 1.0 1.0
1.0 1.0 1.0 1.0 1.0 1.0 1.0 1.0
1.0 1.0 1.0 1.0 1.0 1.0 1.0 1.0
1.0 1.0 1.0 1.0 1.0 1.0 1.0 1.0
1.0 1.0 1.0 1.0 1.0 1.0 1.0 1.0
1.0 1.0 1.0 1.0 1.0 1.0 1.0 1.0
1.0 1.0 1.0 1.0 1.0 1.0 1.0 1.0
1.0 1.0 1.0 1.0 1.0 1.0 1.0 1.0
1.0 1.0 1.0 1.0 1.0 1.0 1.0 1.0
1.0 1.0 1.0 1.0 1.0 1.0 1.0 1.0
1.0 1.0 1.0 1.0 1.0 1.0 1.0 1.0
1.0 1.0 1.0 1.0 1.0 1.0 1.0 1.0

bn2.weight f4 [64]
00000000: 0000 803f 0000 803f 0000 803f 0000 803f
00000010: 0000 803f 0000 803f 0000 803f 0000 803f
00000020: 0000 803f 0000 803f 0000 803f 0000 803f
00000030: 0000 803f 0000 803f 0000 803f 0000 803f
00000040: 0000 803f 0000 803f 0000 803f 0000 803f
00000050: 0000 803f 0000 803f 0000 803f 0000 803f
00000060: 0000 803f 0000 803f 0000 803f 0000 803f
00000070: 0000 803f 0000 803f 0000 803f 0000 803f
00000080: 0000 803f 0000 803f 0000 803f 0000 803f
00000090: 0000 803f 0000 803f 0000 803f 0000 803f
000000a0: 0000 803f 0000 803f 0000 803f 0000 803f
000000b0: 0000 803f 0000 803f 0000 803f 0000 803f
000000c0: 0000 803f 0000 803f 0000 803f 0000 803f
000000d0: 0000 803f 0000 803f 0000 803f 0000 803f
000000e0: 0000 803f 0000 803f 0000 803f 0000 803f
000000f0: 0000 803f 0000 803f 0000 803f 0000 803f
1.0 1.0 1.0 1.0 1.0 1.0 1.0 1.0
1.0 1.0 1.0 1.0 1.0 1.0 1.0 1.0
1.0 1.0 1.0 1.0 1.0 1.0 1.0 1.0
1.0 1.0 1.0 1.0 1.0 1.0 1.0 1.0
1.0 1.0 1.0 1.0 1.0 1.0 1.0 1.0
1.0 1.0 1.0 1.0 1.0 1.0 1.0 1.0
1.0 1.0 1.0 1.0 1.0 1.0 1.0 1.0
1.0 1.0 1.0 1.0 1.0 1.0 1.0 1.0

bn2.bias f4 [64]
00000000: 0000 0000 0000 0000 0000 0000 0000 0000
00000010: 0000 0000 0000 0000 0000 0000 0000 0000
00000020: 0000 0000 0000 0000 0000 0000 0000 0000
00000030: 0000 0000 0000 0000 0000 0000 0000 0000
00000040: 0000 0000 0000 0000 0000 0000 0000 0000
00000050: 0000 0000 0000 0000 0000 0000 0000 0000
00000060: 0000 0000 0000 0000 0000 0000 0000 0000
00000070: 0000 0000 0000 0000 0000 0000 0000 0000
00000080: 0000 0000 0000 0000 0000 0000 0000 0000
00000090: 0000 0000 0000 0000 0000 0000 0000 0000
000000a0: 0000 0000 0000 0000 0000 0000 0000 0000
000000b0: 0000 0000 0000 0000 0000 0000 0000 0000
000000c0: 0000 0000 0000 0000 0000 0000 0000 0000
000000d0: 0000 0000 0000 0000 0000 0000 0000 0000
000000e0: 0000 0000 0000 0000 0000 0000 0000 0000
000000f0: 0000 0000 0000 0000 0000 0000 0000 0000
0.0 0.0 0.0 0.0 0.0 0.0 0.0 0.0
0.0 0.0 0.0 0.0 0.0 0.0 0.0 0.0
0.0 0.0 0.0 0.0 0.0 0.0 0.0 0.0
0.0 0.0 0.0 0.0 0.0 0.0 0.0 0.0
0.0 0.0 0.0 0.0 0.0 0.0 0.0 0.0
0.0 0.0 0.0 0.0 0.0 0.0 0.0 0.0
0.0 0.0 0.0 0.0 0.0 0.0 0.0 0.0
0.0 0.0 0.0 0.0 0.0 0.0 0.0 0.0

bn2.running_mean f4 [64]
00000000: 0000 0000 0000 0000 0000 0000 0000 0000
00000010: 0000 0000 0000 0000 0000 0000 0000 0000
00000020: 0000 0000 0000 0000 0000 0000 0000 0000
00000030: 0000 0000 0000 0000 0000 0000 0000 0000
00000040: 0000 0000 0000 0000 0000 0000 0000 0000
00000050: 0000 0000 0000 0000 0000 0000 0000 0000
00000060: 0000 0000 0000 0000 0000 0000 0000 0000
00000070: 0000 0000 0000 0000 0000 0000 0000 0000
00000080: 0000 0000 0000 0000 0000 0000 0000 0000
00000090: 0000 0000 0000 0000 0000 0000 0000 0000
000000a0: 0000 0000 0000 0000 0000 0000 0000 0000
000000b0: 0000 0000 0000 0000 0000 0000 0000 0000
000000c0: 0000 0000 0000 0000 0000 0000 0000 0000
000000d0: 0000 0000 0000 0000 0000 0000 0000 0000
000000e0: 0000 0000 0000 0000 0000 0000 0000 0000
000000f0: 0000 0000 0000 0000 0000 0000 0000 0000
0.0 0.0 0.0 0.0 0.0 0.0 0.0 0.0
0.0 0.0 0.0 0.0 0.0 0.0 0.0 0.0
0.0 0.0 0.0 0.0 0.0 0.0 0.0 0.0
0.0 0.0 0.0 0.0 0.0 0.0 0.0 0.0
0.0 0.0 0.0 0.0 0.0 0.0 0.0 0.0
0.0 0.0 0.0 0.0 0.0 0.0 0.0 0.0
0.0 0.0 0.0 0.0 0.0 0.0 0.0 0.0
0.0 0.0 0.0 0.0 0.0 0.0 0.0 0.0

bn2.running_var f4 [64]
00000000: 0000 803f 0000 803f 0000 803f 0000 803f
00000010: 0000 803f 0000 803f 0000 803f 0000 803f
00000020: 0000 803f 0000 803f 0000 803f 0000 803f
00000030: 0000 803f 0000 803f 0000 803f 0000 803f
00000040: 0000 803f 0000 803f 0000 803f 0000 803f
00000050: 0000 803f 0000 803f 0000 803f 0000 803f
00000060: 0000 803f 0000 803f 0000 803f 0000 803f
00000070: 0000 803f 0000 803f 0000 803f 0000 803f
00000080: 0000 803f 0000 803f 0000 803f 0000 803f
00000090: 0000 803f 0000 803f 0000 803f 0000 803f
000000a0: 0000 803f 0000 803f 0000 803f 0000 803f
000000b0: 0000 803f 0000 803f 0000 803f 0000 803f
000000c0: 0000 803f 0000 803f 0000 803f 0000 803f
000000d0: 0000 803f 0000 803f 0000 803f 0000 803f
000000e0: 0000 803f 0000 803f 0000 803f 0000 803f
000000f0: 0000 803f 0000 803f 0000 803f 0000 803f
1.0 1.0 1.0 1.0 1.0 1.0 1.0 1.0
1.0 1.0 1.0 1.0 1.0 1.0 1.0 1.0
1.0 1.0 1.0 1.0 1.0 1.0 1.0 1.0
1.0 1.0 1.0 1.0 1.0 1.0 1.0 1.0
1.0 1.0 1.0 1.0 1.0 1.0 1.0 1.0
1.0 1.0 1.0 1.0 1.0 1.0 1.0 1.0
1.0 1.0 1.0 1.0 1.0 1.0 1.0 1.0
1.0 1.0 1.0 1.0 1.0 1.0 1.0 1.0
