models/0_2023_2023/Postal_GCN/5.pth (torch, 100042 bytes, 17 tensors)

conv1.bias f4 [64]
00000000: 0000 0000 2f5d 3dbd 0000 0000 0000 0000
00000010: 4d33 29be 0000 0000 9770 58bd 0000 0000
00000020: 0000 0000 7048 a0bd 41ac 3abe 2e38 0cbe
00000030: a549 3ebe 0000 0000 0000 0000 0000 0000
00000040: 0000 0000 e1de 47bd 0000 0000 0000 0000
00000050: 24eb 50bd ab86 e7ba d27a 2dbd 4f62 39be
00000060: 0000 0000 0000 0000 0000 0000 0000 0000
00000070: 0000 0000 0000 0000 148e edbd 0000 0000
00000080: 0000 0000 0000 0000 0000 0000 d228 97bf
00000090: 0000 0000 0000 0000 4e49 a6bd 0000 0000
000000a0: 0efe 80bd 0000 0000 0000 0000 24a0 0fbe
000000b0: 0000 0000 0000 0000 0000 0000 0000 0000
000000c0: 0000 0000 9fe8 04bd 23ea aabe 0000 0000
000000d0: 0000 0000 0000 0000 c883 10bd aa1b 28bd
000000e0: 0000 0000 0000 0000 7195 29be 34a7 d2bd
000000f0: cc2a 383d 0000 0000 0000 0000 0000 0000
0.0 -0.046231445 0.0 0.0 -0.16523476 0.0 -0.05284175 0.0
0.0 -0.07826316 -0.18229772 -0.13693306 -0.1858278 0.0 0.0 0.0
0.0 -0.04879654 0.0 0.0 -0.051005498 -0.0017664036 -0.04235346 -0.18103908
0.0 0.0 0.0 0.0 0.0 0.0 -0.11599365 0.0
0.0 0.0 0.0 -1.1809332 0.0 0.0 -0.081194505 0.0
-0.06298457 0.0 0.0 -0.14025933 0.0 0.0 0.0 0.0
0.0 -0.032448407 -0.33381757 0.0 0.0 0.0 -0.035281926 -0.041042008
0.0 0.0 -0.16560914 -0.10285798 0.04496269 0.0 0.0 0.0

conv1.lin.weight f4 [64, 12]
00000000: f5b8 16be 93ab 65bd d3dc 803d 231b 2cbe
00000010: cf62 d73d aa85 cc3d 68ad f33d b07d fabd
00000020: c9a9 433e 13e5 e8bd 7a1f 443e b987 3cbe
00000030: 5f30 5ebe fea7 923d 7262 d6bc e48e 11bd
00000040: 6909 1cbe 1eba 01be 0324 d2bd b544 6fbe
00000050: 3b94 12bd 997c 45bc f82f 3dbd 787d 823c
00000060: 9e66 3a3e 35ee 503d 44d4 8fbd 25b2 a1bd
00000070: dc60 fbbd a32e 08be c61a fdbc f2fa 0abd
00000080: 15c9 ae3d 5df0 a7bd 1d9c 1c3e 23d8 09be
00000090: b3ef 0e3a 8997 303e 8c58 433e 5397 e3bd
000000a0: 13f9 0b3d faa3 b93c fa35 b8bd 88be 87bd
000000b0: 03d6 543d 949a 08be 27a7 013d 3704 aa3d
000000c0: 0c04 0abf e62a 00bd 8b26 51be dd07 de3c
000000d0: c633 60be 0dd2 e5be bb77 c1be e99b abbe
000000e0: 5c40 4f3d fd71 51bc 9c0e dabe 1d8d 683d
000000f0: 1f2e 383d 6adf ec3b d40d f93d a00c 1fbd
00000100: 7a99 9d3c 6f27 92bd 5484 24be 32fe 9e3d
00000110: f018 c93c 6559 9dbd 30d7 84bd a280 4d3d
00000120: df4d 06be a089 8c3d 6360 3cbd 95c2 ff3c
00000130: c874 7bbb ce98 06be 940b 1fbc 11b0 8e3d
00000140: 22fc 58bc c9e9 2b3b a83c a8bd 63fc f93d
00000150: 32e1 a5bd 54da d0bd e534 ab3d e1f8 2abe
00000160: 6592 493b b7b0 b4bd aba9 013e d6e6 36be
00000170: 0d3a ee3d ac5b 423e 76ff 1e3d 726b 51bc
00000180: e05f 413e dfe7 a7bd e1df 7bbc 460d acbd
00000190: cff1 d8bc aec8 2a3d 68e7 d13c cc6a 14bd
000001a0: e76a 44be 9ff1 203c eb36 babb db6c ec3c
000001b0: c24d 7f3d e07b d03d 511c 4bbe d108 c6bd
000001c0: 3aa3 1cbe 91ec 4ebe 04f7 61be b90e 113e
000001d0: 2821 003d 830f 9a3d c6a5 913d 1613 1cbe
000001e0: 6fca f9be 07cd 02bd 5016 a3be 7c59 b83d
000001f0: f18f c4be 8b45 94be 7dd1 1abf 7242 7abe
00000200: d0aa c0bd ef2c 86bc 8c82 d5be 0828 413e
00000210: ef2d 00be 4a2a 1a3d 4665 bd3c 6f13 2e3d
00000220: 511e 04be 0c37 83be ff6a dfbe 6090 88be
00000230: 990e 29bd 9afe 0ebe 3ec7 04be 0596 a63d
00000240: 7022 0dbf 6b97 31be 9076 57bd a324 473c
00000250: 7887 35bf 31be 1fbf 94d5 14bf aade c1be
00000260: 3317 853e 74ca 20be 2bb7 2dbf 7663 7e3e
00000270: c350 fb3d beba 31be 5623 953d 6365 19be
00000280: bac5 143e 4593 763d 053f 423e 6eb2 41be
00000290: e01d 3dbe d2d1 043e 6869 2e3e 81b8 f03d
000002a0: eb9a 023e 9c76 25be 4131 0e3e 087a 39be
000002b0: 4e8c 2f3d 46ae 00be aa0e 9cbd d523 0b3d
000002c0: c77a 9abd 5da9 f8bc ef32 3abe fa39 39be
000002d0: b831 983d 274e a6bd 0009 efbd d407 9bbd
000002e0: 3d9c 20be 990a 1dbe 6e19 eb3d f3af c73d
000002f0: 6b57 d13c d09f d6bd a5b7 823d 4d35 0d3c
00000300: 8465 0cbe 6018 293d 1de0 323e 783a 41be
00000310: dc58 43be 265c c93c 39ee 133e 0013 efbd
00000320: 9ffb 2c3d ce19 0a3e 0a46 723d fb0d 2a3d
00000330: 772a 123e 0b10 9c3d a26f 20be d288 08bd
00000340: be28 4a3d db40 f83d f173 75be fd07 5d3d
00000350: dd42 d5bd 7584 72be 6232 acbb 40c8 1cbe
00000360: b4b6 de3c 8416 ffbd 5cd5 13be eb59 85bc
00000370: 0efc 83bd bcca e53d e77f 873c 0657 193e
00000380: ae42 133d 82ae 7cbd bc0f 053e 69c2 2b3c
00000390: c87c 133d d3ba 7cbd dd7b 343a 6216 17bd
000003a0: c29c 85bc d834 19be 51a4 9aba b40f 23be
000003b0: 810c 29bd d4b3 e33d c799 08be a36a 04be
000003c0: c1a0 c7bd b41c d4bd d48b 97bc c1e8 abbc
000003d0: d224 3e3d 7ee8 39be 6d6d 84bd 03a5 5d3d
000003e0: 6b95 ed3d 2be5 84bd d216 24be 3a06 903b
000003f0: d794 b13e 1cb0 c9bd 60c3 b6bd d348 7dbb
-0.14718993 -0.05607183 0.06292119 -0.16807227 0.10516893 0.09986432 0.11898309 -0.12231004
0.19107737 -0.113718174 0.19152632 -0.18411149 -0.2169814 0.07160948 -0.02616999 -0.03553666
-0.15237965 -0.12668654 -0.10260775 -0.23366053 -0.035785895 -0.012053632 -0.046188325 0.015928969
0.18203208 0.051008422 -0.07022908 -0.078953065 -0.12274334 -0.1329904 -0.030896556 -0.033930726
0.08534447 -0.082001425 0.15293927 -0.13461356 0.0005452588 0.17245306 0.19076747 -0.11112847
0.034173083 0.022661198 -0.0899467 -0.06628138 0.05196191 -0.13340217 0.03165355 0.08301585
-0.53912425 -0.03129091 -0.20424859 0.027103359 -0.2189475 -0.4488682 -0.3778666 -0.33517388
0.050598487 -0.012783525 -0.4258927 0.0567752 0.04496586 0.0072287815 0.12160841 -0.0388304
0.019238222 -0.071364276 -0.16066104 0.07763328 0.024548024 -0.07683066 -0.06486356 0.050171502
-0.13115643 0.068621874 -0.04599036 0.031220714 -0.0038369168 -0.13144228 -0.00970735 0.06967176
-0.013243707 0.0026231876 -0.08214694 0.12206342 -0.08099593 -0.10197893 0.08359698 -0.16696502
0.0030757424 -0.08822768 0.1266238 -0.17861494 0.11632166 0.18980283 0.038817845 -0.012781965
0.1888423 -0.08198523 -0.015373201 -0.08400969 -0.02648249 0.04169529 0.025623038 -0.036234662
-0.19181405 0.009823232 -0.0056828163 0.0288605 0.062330015 0.10179877 -0.1983502 -0.0966965
-0.15296641 -0.2020743 -0.22066885 0.14165772 0.03128162 0.0752249 0.07111697 -0.15241656
-0.48787257 -0.03193381 -0.3185296 0.09001443 -0.3839107 -0.28959307 -0.60475904 -0.2443941
-0.0940758 -0.016378848 -0.41701162 0.18862927 -0.12517522 0.037637986 0.02311958 0.042499002
-0.1290219 -0.25627935 -0.4363632 -0.2667265 -0.041273687 -0.1396431 -0.1296663 0.08134083
-0.5513067 -0.17342918 -0.052603304 0.012154731 -0.70909834 -0.62399584 -0.58138394 -0.37865192
0.25994262 -0.1570223 -0.6785762 0.24842629 0.122712635 -0.17356393 0.072821304 -0.14980082
0.14528552 0.06019904 0.18969353 -0.18915722 -0.18468428 0.12970665 0.17032397 0.11753941
0.12754409 -0.16158527 0.13885976 -0.18112957 0.042858414 -0.1256648 -0.076199844 0.03396972
-0.07542949 -0.030354196 -0.18183492 -0.18088523 0.07431358 -0.08120375 -0.116716385 -0.075698525
-0.156846 -0.15336074 0.1147946 0.097503565 0.02555438 -0.104797006 0.06382684 0.008618665
-0.137106 0.04128301 0.17468305 -0.1886996 -0.19076866 0.024580073 0.14446343 -0.11673546
0.042232152 0.13486406 0.059148826 0.04151724 0.14274012 0.076202475 -0.15667585 -0.033333607
0.04935526 0.12121745 -0.2397001 0.053962696 -0.10413144 -0.23683341 -0.0052550295 -0.15310764
0.027186729 -0.124554664 -0.14436859 -0.016278228 -0.0644456 0.11220309 0.01654048 0.14974603
0.035952263 -0.06168986 0.12994283 0.010483363 0.036007673 -0.061701607 0.0006884912 -0.03688658
-0.0163101 -0.14961565 -0.0011798238 -0.15923959 -0.04127169 0.11118284 -0.13339911 -0.12931304
-0.09747458 -0.10357037 -0.018499292 -0.02098501 0.046421833 -0.18155095 -0.06466184 0.054112446
0.11600765 -0.06489023 -0.1602433 0.0043952735 0.34683868 -0.09848043 -0.089239836 -0.0038648143

conv2.bias f4 [64]
00000000: 6ca2 e1bd eee3 bebc f8dc 39bd 7fe0 19bd
00000010: bcca 27bc a955 8abd adc1 7f3d 7ac2 5b3d
00000020: 731d 7ebc e269 be3c 7ee9 8d3d 82d0 2b3d
00000030: 77fb 053e 39d6 d1bc 6b2b e63c 868a 9c3c
00000040: f10d efbd 8600 56bd 9fae 813d ab6f 803d
00000050: 3ef4 db3d 8041 e23c 9738 1bbd e230 61bd
00000060: 8f45 a23d 3624 413d 58bc 0bbd 6643 febb
00000070: a4d0 9abd fd9a a43b 6ae0 4a3d 0cf9 8a3c
00000080: 798c c9bd d26e 083a 198a e23c 6493 3ebd
00000090: e93d b83d 12f5 4ebd 4d84 e63c 520a 953a
000000a0: 7fa5 ff3c f198 843d 5e35 f6bc 6388 d83d
000000b0: aa5c 343c fb40 f13c 789f 86ba 3b3a d43c
000000c0: a961 1f3c 6cfb cebc 72d6 96bc 0fbe 1bbd
000000d0: 79f9 fdbd 108a bd3d 9d42 223d bd90 34bd
000000e0: 9a27 36bb a88a 1abd ef2f 1c3c a2c5 aa3c
000000f0: 38b2 f7bb d3cf 4e3c efe7 a63d 17a7 1f3e
-0.11017308 -0.023302045 -0.045376748 -0.03756761 -0.010241207 -0.0675462 0.062440563 0.053652264
-0.015509951 0.023243848 0.06929301 0.041946895 0.13084207 -0.025614845 0.028096875 0.019109022
-0.11672581 -0.052246593 0.063321345 0.06271299 0.10739945 0.027619123 -0.037895765 -0.05497826
0.079234235 0.047153674 -0.034115165 -0.0077594994 -0.07559326 0.005023359 0.049530424 0.016964458
-0.09841246 0.0005204502 0.02765374 -0.04652728 0.089961834 -0.050526686 0.028139258 0.0011370874
0.031206844 0.06474484 -0.030054744 0.10572889 0.011008421 0.02944993 -0.0010270914 0.025906673
0.009727874 -0.025266372 -0.018412802 -0.03802305 -0.12401099 0.09254849 0.03961431 -0.044083346
-0.00277946 -0.03772989 0.009532913 0.020846192 -0.007559087 0.012622791 0.081497066 0.15591083

conv2.lin.weight f4 [64, 64]
00000000: 1da7 e43d d35d e93c 9697 0d3c f682 f93c
00000010: 25ad b2bd ca44 edbc 00bc 8bbb 3293 bfbd
00000020: e5c6 d6bb 559c b5bd 026a 3cbd 34c0 19bd
00000030: 157f bdbd 4442 103e b339 953d 76e0 da3d
00000040: f8da 00be 587f 17be a724 e13d 5aa7 d4bc
00000050: 13d0 da3c a4c0 9d3d 4443 933b 8972 b73b
00000060: 7ce4 b33d 38dc f13d a9bc 28bd a83c 01be
00000070: 1002 a6bd f459 d83d 3ada 1d3c de9c 013e
00000080: b7cf 53bd 2a6e 0fbe ab08 3c3d 148b 27bd
00000090: 2f00 b5bd f3be bc3d c5d0 193c 1bd0 4ebc
000000a0: cfe7 193e 0ede 033e 3952 f7bd 1b56 04be
000000b0: 8db5 95bd 5f0f ebbd db24 9fbd 2b40 cc3d
000000c0: 9972 c9bd e9aa f63d daea 623d 7f64 d23b
000000d0: cb23 cf3c 329b ff3c 13c9 233d 582b a2bd
000000e0: 2c7e 28bb 6bd6 c83d 7a09 143e 5c7f 3fbc
000000f0: 1876 cabd 0323 8b3d d07f 0abe 7eec 063e
00000100: e712 ba3d ec64 e73d a66a a53c a613 dc3d
00000110: bd90 26bd 7484 fcbd 7b37 86bd a549 e13d
00000120: 1c4f 97bd ac02 38bd 18da 243d d97b a3bd
00000130: bcc4 9c3c d128 c0bd c6dd ff3c f9b1 c5bc
00000140: c1c7 9f3c 06e9 ea3d 1af0 c2bd 2071 4ebd
00000150: 9340 75bd 56f1 1b3e 4f41 8cbc a1c0 ad3d
00000160: d7bd 0b3d cc57 15be 16ed d6bd cd9c 1bbd
00000170: f416 e8bd 3f88 a03d 6303 d33d 622e 8eb9
00000180: 3f48 943c 3490 1f3d df62 493d 85c0 cbbc
00000190: 7640 6ebd 6d32 bbbd 276e b63c c765 ef3d
000001a0: 787f 54bc ec3f 023e 6dcb 533d 6116 8abd
000001b0: 3430 6b3d a888 723d 80bd 86bd ad43 d4bc
000001c0: cb87 7bbc ac61 aa3d 0478 0d3e bd2a 05bd
000001d0: 30de c43d 853d a33d e1db c0bd 52b0 183e
000001e0: 9531 c4bb 76ad e93d 58f9 063e c354 e0bd
000001f0: 8ec6 d9bd f1d8 89bc db91 423d c0ba c0bc
00000200: e9ba 11be 2390 4c3d 911e adbd cc70 893d
00000210: 8c61 8b3d 1e3a 4cbd 192f 543d 1a09 a13c
00000220: 8116 3ebd c1b8 9f3d 3751 783c 2f3b 1d3d
00000230: 8c56 f2bd 034a e23d 2230 8fbd cf65 02be
00000240: 3fe0 82bd 1341 26be 108a 293d 9b0c 233c
00000250: d3b4 2abd 16ba 09be ddf1 313d b538 1abc
00000260: 07f7 17bd f38d d63c 6c8d 553d bee3 b5bd
00000270: 2865 2ebd da7b 89bd d81a be3d 1bb8 153d
00000280: 037b e4bd 5fcf d53d 114a c0bc 9529 d5bc
00000290: a0af 9c3c 046f 8dbc f12e d33d 3824 833d
000002a0: a7d1 ddbb 5322 5cbd 3c5c 0b3d 96fb 14be
000002b0: 1958 51bd c781 993d 9bfb 14be ceba 73bb
000002c0: 062a 5fbd 488d 263d 6020 02be 299b d13c
000002d0: 7a8f 2ebd cafc fd3d 70ab 69bd 6107 89bd
000002e0: aa1c 3cbd d96c d53d 6fae a13c 0cbc 35bb
000002f0: 4a84 603d 82d2 693d 0444 9bbc d558 a0bd
00000300: c7db 10be 9cb8 bf3d c019 ec3d fa6b 67bd
00000310: f3e5 34bd 35cb d03c 8924 0f3c 8e74 e83d
00000320: c9b5 27bb 70ed 79bd 20fd febd 9c87 753d
00000330: a688 953b 5cd8 0e3d 2518 b93d c5cb 803d
00000340: 779f 9339 a37f 793c 0fea 98bd 2cb2 083e
00000350: 4037 283e 986b e73c 5bbb 3e3e 7d70 1a3e
00000360: 5c0d ae3d 12a0 9b3d 33b7 6f3d 286e d4bc
00000370: c8af 703c eb4c f63d d62d 01bc d5f7 3c3d
00000380: 2369 43bd 31bb c63c e7d4 af3d 6748 c23d
00000390: f723 943d 1f0f 903d bf63 58bc 04d7 093e
000003a0: cb64 e83d 5e4d 0f3e 81c8 f4bd db29 5ebd
000003b0: 2c63 fbbd e58c 563c ec53 e73d 49eb cebd
000003c0: 5577 1e3d 1b21 083d 196f edbd 9837 bebb
000003d0: 502f 8ebc 28d6 92bd 0fa3 58bd f9da 3d3d
000003e0: b38b 78bc e502 f0bc fadb 9ebc 7f8b 793c
000003f0: 308e adbc d05e b5bd a32b 813d 2138 0fbb
0.11164687 0.028487122 0.008642098 0.030457955 -0.08724431 -0.028963465 -0.0042643547 -0.09354247
-0.006554472 -0.088677086 -0.045999534 -0.037536815 -0.092527546 0.14087778 0.07286396 0.10687344
-0.1258353 -0.14794672 0.10993319 -0.025958706 0.026710546 0.07702759 0.0044941027 0.0055983705
0.08783814 0.118095815 -0.041195545 -0.12620795 -0.08105862 0.10564032 0.009634549 0.12657496
-0.051711764 -0.14006868 0.045906704 -0.04090412 -0.08837926 0.09216108 0.009388153 -0.012622858
0.15029834 0.12877676 -0.120762296 -0.12923472 -0.07310019 -0.11477541 -0.077707015 0.099731766
-0.09836311 0.12044317 0.055399753 0.0064206715 0.025285622 0.031201933 0.03998668 -0.079184234
-0.002570997 0.09806522 0.1445674 -0.01168808 -0.09885806 0.06793787 -0.13525319 0.13176152
0.090856366 0.11298546 0.020192456 0.10745935 -0.040665377 -0.12329951 -0.06553551 0.11000375
-0.07388136 -0.044924423 0.040247053 -0.079826064 0.019136779 -0.09382785 0.03123368 -0.024132716
0.01950443 0.11470227 -0.09518452 -0.050400853 -0.059876036 0.15228781 -0.017120985 0.08484007
0.034116592 -0.14584273 -0.10494439 -0.037991334 -0.11332503 0.07838487 0.1030338 -0.00027118908
0.018100856 0.038955882 0.049166556 -0.024872074 -0.058166943 -0.09140477 0.022269322 0.11689334
-0.012969844 0.12719697 0.051707674 -0.0674255 0.057419017 0.059212357 -0.06579113 -0.025911177
-0.0153522 0.08319411 0.13815314 -0.03251146 0.096126914 0.07970718 -0.094169386 0.14911011
-0.005987356 0.11410038 0.13181055 -0.10953667 -0.106335744 -0.016827079 0.04750238 -0.02352655
-0.14231457 0.049942147 -0.08453096 0.067109674 0.06805715 -0.049860112 0.05180273 0.01965766
-0.04640818 0.07798911 0.015156082 0.03838652 -0.11832914 0.11049273 -0.069916025 -0.1273415
-0.06390428 -0.16235761 0.041391432 0.009951736 -0.041676354 -0.13449892 0.04344355 -0.009412934
-0.037100818 0.026190734 0.052136824 -0.08881329 -0.04257694 -0.06713076 0.09282464 0.03655253
-0.11156275 0.104399435 -0.023472818 -0.026020804 0.019126713 -0.01726485 0.10311688 0.064033926
-0.0067693773 -0.05374367 0.03402351 -0.14549097 -0.051109407 0.07495456 -0.14549105 -0.0037190202
-0.054483436 0.04066208 -0.12707663 0.025586681 -0.0426173 0.12401731 -0.05704826 -0.066908605
-0.045925774 0.10421152 0.019736497 -0.0027730493 0.05481366 0.05708552 -0.01895333 -0.07829443
-0.14146338 0.09361383 0.11528349 -0.05649946 -0.04416461 0.025487522 0.008736738 0.11350356
-0.002559053 -0.061017454 -0.124506235 0.05994378 0.004563409 0.034874305 0.09037808 0.06288866
0.00028156835 0.015228185 -0.07466518 0.13349217 0.16427326 0.028249547 0.18626158 0.15081973
0.08498642 0.0759889 0.05852432 -0.025931433 0.014690347 0.1202639 -0.007884463 0.04613479
-0.047707688 0.024259182 0.0858553 0.09486466 0.07233422 0.07034134 -0.013207375 0.13460928
0.1134735 0.13994357 -0.119523056 -0.054239135 -0.12274775 0.013095115 0.11295304 -0.10103471
0.038688023 0.033234697 -0.11593456 -0.005804967 -0.017356545 -0.07169753 -0.05288988 0.046351407
-0.015170026 -0.029298255 -0.019392002 0.015231012 -0.021185964 -0.08855975 0.06307151 -0.0021853524

fc1.weight f4 [128, 74]
00000000: 749b 9b3c 68ab 913c 5f90 a73d 5226 2abd
00000010: aa51 7e3d 8bd0 f73b d2c7 933d d8a0 9a3d
00000020: 15db a93c 327b 20bc 33d4 823d f004 0fbd
00000030: cf5b 113d 800f 143c 7b6f 0dbd a158 743c
00000040: 7b0d 39bd 63ee c53d 0fbe 8ebd 2182 6abd
00000050: 57b9 fc3c ab85 413d 32a5 a73b 4448 4abd
00000060: e7e6 8d3d 8728 7d3d aeec 1b3d 3f0e 0fbd
00000070: 182e 083b 02b8 2abd 7ee7 12bd 87da 12bd
00000080: 0a8c c73c c771 d53c 16ac 023e 2e50 c1bc
00000090: 9c4c 2b3c deb3 86bd 5858 e53b de64 a03d
000000a0: 3522 68bd f07d ed3c 8c72 e6bc 9a1b a1bc
000000b0: eaa0 5dbd 7e1e a83d a332 8c3c a1ab 3d3b
000000c0: ee21 71bd dd15 4c3d 860d c7ba 188b 223c
000000d0: e7c1 ab3d 0d24 233c 29d6 c7bd b539 b8bd
000000e0: 7051 6bbd 9653 8abd 1c3e 05bd 70a4 683d
000000f0: 38bb 0a3d 7de8 3bbd 86bb d33d fcc7 bcbd
00000100: e253 393d afc3 703d b05d f73c 59f6 4d3e
00000110: 8a7d 043c 4d22 74bd d061 bf3d f78b 9dbd
00000120: c981 5abc 7ebd b93d 0f3b 8a3b 1ab7 51bc
00000130: fa47 7ebc b1c4 30bc 0fa7 b23a 0b22 8abd
00000140: 081a c93d 3b27 d9bc ddbc ca3c 846d 3ebd
00000150: c5d1 38bd 035d 8b3d d8b2 4dbb 8a06 963d
00000160: 5f6a 24bd b76a 4fbc 3d41 66bd f8ee 2d3d
00000170: a6e6 cfbd cfd4 e53c 90d8 e83d 4e4c 26bd
00000180: 9e3d 893d ce6b 28bd f600 4b3d a795 603b
00000190: fd5b ab3c e716 00bd e238 6bbc 183d 75bc
000001a0: 0bb2 89bc 954c a3bc 786d ccbd 1dfa 223d
000001b0: 98dc 053d 864d 8ebd 5ab6 373d 7b7c 263c
000001c0: 11e3 573c 4e4e 5f3d f357 72bd bc72 afbc
000001d0: b321 953d da9d 003e b6f8 a6bc a6b8 933d
000001e0: 021c a0bc ea5c dcbd 5092 b9bd a4fc 39bd
000001f0: c83a 923d 9728 983d ae0c b5bc a423 96bc
00000200: 0c73 30bd 4edf 73bc 4249 a9bd 4255 f4bb
00000210: 7e9c 1dbb b524 b2bc ff9a 2b3d 0067 71bd
00000220: eccf 863d 6eda bebb 5a2d 66be 9316 563d
00000230: 271e 92be cae8 5d40 df09 aa3c 6721 213e
00000240: d8f2 39bd 42b8 fd3e 1bca fb3c e418 57bc
00000250: bd59 8cbc 3f80 573d 19b5 6abd aac8 c2bd
00000260: 37c1 0f3d 8809 7bbd f91f 94bd a246 a23d
00000270: 63ca d0bb ff04 86bd 40d1 653d b621 b13d
00000280: 757c 013d 4313 983d 791c 0fbc 46a3 0e3d
00000290: bd6e fcbc b75f 43bd d09a a2bc 3990 8e3b
000002a0: eb78 87bc c1a2 73bd 6cad 10bd ee3b 6e3c
000002b0: 218e e3bb 9d79 57bd 87d3 05bd 3f60 3cbb
000002c0: c899 85bc 6bb2 c43c 0a79 1f3d ea27 f03c
000002d0: 2cbe 243d 82eb ba3c b130 503c 5cc4 cbbc
000002e0: b700 733d 188f a8bd 1c67 3b3d 28f6 633d
000002f0: 69fd 90bd 8a42 f13c 1f98 ff3c 8543 253d
00000300: 405b 8dbd f296 c43d 0d12 f1bc a4ea bf3b
00000310: dde9 d9bc 69f4 313d e98c d33c f19b d4bc
00000320: 2f7c 8cbd d904 343d 2de2 41bc 74ff aa3b
00000330: a51c 75bd 63e6 e2ba 8060 e2bb dbec 153d
00000340: f775 b63d 561d a9bd 236f 643d 84ab 5cbd
00000350: b893 b83d f0da 8dbc 129c 963d 099a 4ebf
00000360: 0a2e ed3d 1713 4b3d 8eba 2cbd effb d6bd
00000370: 7673 673d 3e2c 46bd 194f 9d3c ce6e 73bd
00000380: 94cf 45bd a588 92bb 8283 c73b 70d9 0bbe
00000390: 5ee0 0c3d 235b 833d 12f7 1e3d b8b5 393d
000003a0: cf82 843d 0be2 e83c 3de8 b33c bab4 b13d
000003b0: f3ba a2bc 3877 c43d 561b da3c 9411 3e3d
000003c0: 4496 a3bb 731c 59bd d547 113e ea8e c43b
000003d0: 4e35 a23c c2be 9bbc bcd8 be3d 2cd7 ba3b
000003e0: 79a3 24bd a0a8 3cbd f1ff 7a3d dac0 d5bd
000003f0: 6dba 5dbb b592 233b db00 99bd 9637 42bd
0.018995024 0.017781928 0.081818335 -0.04154045 0.0620896 0.007562702 0.07215847 0.0755021
0.02073435 -0.009794997 0.0638813 -0.03491682 0.035487946 0.009036899 -0.034530144 0.014913709
-0.04517887 0.09664609 -0.069698445 -0.057253007 0.030850096 0.047246616 0.0051161284 -0.049385324
0.06928807 0.061806228 0.038067512 -0.034925696 0.0020779427 -0.04167939 -0.0358653 -0.035852935
0.024358768 0.02605523 0.12760958 -0.023597803 0.010455277 -0.06577276 0.006999057 0.07831739
-0.056673247 0.028990716 -0.028130792 -0.019666482 -0.054108538 0.08208941 0.01711399 0.002894141
-0.05887025 0.049825538 -0.0015186525 0.009920858 0.08386593 0.009957326 -0.09757645 -0.08995382
-0.05745071 -0.06754224 -0.032529935 0.056797445 0.033869952 -0.045876015 0.10338502 -0.092178315
0.045246013 0.05878037 0.03019604 0.20113505 0.0080865715 -0.059603024 0.09344828 -0.07692712
-0.013336607 0.09069346 0.004218466 -0.0128000025 -0.01552009 -0.010789082 0.001363011 -0.067447744
0.09819418 -0.026507964 0.02474826 -0.04649116 -0.045121927 0.0680485 -0.0031387117 0.07325466
-0.040140506 -0.01265972 -0.05621456 0.042464226 -0.101514146 0.028055577 0.11369431 -0.040600114
0.06701206 -0.041118436 0.049561463 0.0034268887 0.020917887 -0.03127184 -0.014356824 -0.014968179
-0.01680853 -0.019933978 -0.09981817 0.039789308 0.032681078 -0.0694838 0.04485164 0.010161514
0.013176695 0.054518037 -0.059165906 -0.021417014 0.07281818 0.12560216 -0.020382266 0.07212953
-0.019544605 -0.107599095 -0.0906111 -0.045406953 0.07140118 0.07429617 -0.022100773 -0.018327542
-0.043078467 -0.014884783 -0.08265926 -0.0074564526 -0.0024049575 -0.021746019 0.041895863 -0.05893612
0.06582627 -0.0058243787 -0.22478238 0.052267622 -0.2853863 3.4673333 0.02075666 0.15735398
-0.04539761 0.4955464 0.03073602 -0.013128493 -0.017132634 0.05261254 -0.057301614 -0.0951093
0.035096373 -0.061288387 -0.07232661 0.079236284 -0.0063717826 -0.06543922 0.05610776 0.08649008
0.031612832 0.07425549 -0.008734816 0.03482368 -0.030814523 -0.047698703 -0.019849211 0.004350689
-0.01653715 -0.059481386 -0.035321638 0.014540656 -0.0069444333 -0.052606214 -0.03267243 -0.002874389
-0.01630868 0.024010858 0.03893379 0.029315908 0.040220425 0.022817377 0.012706921 -0.024873905
0.059326854 -0.08230418 0.04575263 0.055654675 -0.07079584 0.029450674 0.031200467 0.040347595
-0.0690217 0.09599103 -0.029427553 0.0058568288 -0.026600773 0.04344598 0.025824027 -0.025953265
-0.06859624 0.043949936 -0.01183371 0.0052184407 -0.05984177 -0.0017311092 -0.0069084764 0.036602836
0.08909219 -0.082575485 0.05577005 -0.053874508 0.0901255 -0.017316312 0.07353987 -0.8070379
0.11581047 0.049578752 -0.0421701 -0.10497271 0.056506597 -0.048382036 0.019202756 -0.059431843
-0.048293665 -0.0044718557 0.006088675 -0.13657165 0.03439366 0.06413867 0.038809843 0.045339316
0.06470262 0.028428098 0.021961326 0.08677049 -0.019864535 0.09593052 0.026624363 0.046403483
-0.0049922783 -0.053005647 0.14187558 0.005998482 0.019800808 -0.019011859 0.093186826 0.00570192
-0.040194962 -0.04605925 0.06127924 -0.10437174 -0.0033833042 0.002495927 -0.07470866 -0.047416292

fc1.bias f4 [128]
00000000: 400c b53d cea8 e4bb 05de a93d 713c 39bd
00000010: 335c 813d 774c 2f3d 7918 283d fb75 eabd
00000020: 7533 94bd efc6 9cbd 56ce 803c 83f4 b23d
00000030: 4a64 6bbd 27d8 433d 15aa e7bc 16ca 26bd
00000040: 5aff 38bc b04e 9dbd ffdd 8ebd 7241 efbd
00000050: 5d5e b3bd 82a0 1e3c 35fc 00be 9590 233d
00000060: 4533 333d 6ea3 b4bd 9fe8 9a3b 6fea 173d
00000070: 00af 143d 19ae 05be 17f1 8ebe ea7e ed3c
00000080: 6942 c2bd 12d3 ea3c 6049 cdbd 27aa fbbd
00000090: adae d9bc 38c2 8bbd 63f5 81bd 631e 013e
000000a0: 9995 d6bd caa1 45bd c56e 04be 5a2a 92bb
000000b0: 69b4 fb3c c5fb 1b3d 141f 26bd d0d0 3abd
000000c0: 65d4 0c3d 857b cb3c 56a4 61bb a702 8bbd
000000d0: 5e8b 373d 5288 78bd 3a8a 28be 41cf 7dbd
000000e0: 70b6 083d c6a9 dcbc b2a6 053d 0562 303d
000000f0: d77a 1ebd cacc 783d fcfd 13bd c91c 353d
00000100: f5be fdbd fea2 813c b70b 1c3d a0fe 8fbc
00000110: 63e1 65bc 15e8 9d3c 1fea 2abd 35ad 993c
00000120: b999 f8bc 7961 5b3c 0d32 d93c 46a3 a3bd
00000130: b6a1 cfbc e3f0 fbbc 7859 953c ea49 06bd
00000140: 4234 e63c b68b fd3a ad99 bebd e7ee 00bd
00000150: 75e9 a5bd c761 efbd 9a1f dd3c 1dda 85bd
00000160: 599d 8cbd f22b 7abd 0c89 933c bd2f d23c
00000170: 0f28 89bd 60b4 5cbd 0314 21bc dd35 703d
00000180: 6a08 f4bb 8da0 85ba c022 99bd a4c6 dcbc
00000190: 7446 50bd 067c 30be cd1a 993d b21c 86bd
000001a0: 6892 45bd 3ed8 77bd b7c2 14bd de81 9abd
000001b0: e41b a2bb a05e 59be 79ee 20be 2393 fb3c
000001c0: 8fac ed3c 9fe8 73bd 1e8e c63b 2ba1 ce3c
000001d0: 1329 a2bd 61be 183d d67b 37bd 37c6 ed3c
000001e0: 2eee 9bbd e5b4 dfbc d24d 9fbb a7c8 4abb
000001f0: f8da 24bc ef0e c1bc a893 34bc f47a bdbd
0.08840227 -0.006978131 0.082943 -0.045223657 0.06316414 0.042797532 0.041038964 -0.11448284
-0.07236377 -0.07655131 0.015723389 0.08738043 -0.05746869 0.04781356 -0.028279344 -0.040720068
-0.011291349 -0.07681024 -0.06975936 -0.116824046 -0.08758233 0.009681823 -0.1259621 0.039932806
0.043750066 -0.08820234 0.0047274376 0.037088808 0.036299706 -0.13054694 -0.27918312 0.028991181
-0.09485323 0.0286651 -0.10023761 -0.12288313 -0.02657255 -0.06824154 -0.06345632 0.12609248
-0.10477752 -0.048249997 -0.1293288 -0.004460615 0.030725675 0.038081903 -0.040556982 -0.045609295
0.034382243 0.024839172 -0.0034430227 -0.06787615 0.044810645 -0.06067688 -0.16458979 -0.06196523
0.03337711 -0.026936423 0.032629676 0.04306223 -0.038691368 0.060742177 -0.03613089 0.044216905
-0.12389938 0.015824791 0.03809711 -0.01757747 -0.014030787 0.019275704 -0.04172718 0.01875935
-0.030346738 0.0133899385 0.026513124 -0.07990126 -0.025345664 -0.030754512 0.018231139 -0.032785334
0.02810109 0.0019344005 -0.09306655 -0.031477835 -0.08101169 -0.116885714 0.026992608 -0.065357424
-0.06865949 -0.061077066 0.018009685 0.025657529 -0.06697094 -0.053882957 -0.009831431 0.058645118
-0.007447292 -0.0010194943 -0.07477331 -0.026950188 -0.05084844 -0.17234811 0.07475815 -0.06548442
-0.048235327 -0.06050896 -0.036318507 -0.075443015 -0.0049471725 -0.21227503 -0.1571597 0.030709809
0.029012946 -0.059548017 0.006059422 0.025223335 -0.079179905 0.037290934 -0.044795834 0.02902518
-0.076137885 -0.027307937 -0.004861572 -0.0030942352 -0.010061972 -0.023566691 -0.011021532 -0.09251967

fc2.weight f4 [64, 128]
00000000: 5507 d7bc dffb 403d 1bdb 89bd dda4 8ebb
00000010: 9fa0 98bc e29a 92bc e114 073d 6170 423c
00000020: 9d29 bfb9 63fd 043d c369 a63c c2e0 a03d
00000030: a41f 053d 4507 65bd 0b35 56bd e2ba 953b
00000040: bdf6 babb 82df b7bd 25eb 84bc f567 9d3d
00000050: b32c 8ebd 441f 093c 3925 c73b c673 31bd
00000060: dc29 c33d 2bfc c03d eed7 c3bc 6617 11bd
00000070: b6b4 6b3d 7196 bd3d 4bcb 0bbc b75d f73b
00000080: 869f 18bc 07fa 2fbd 0424 03bd bd89 f7bc
00000090: b997 3abd 35ef 623a d677 02bd 9bf9 d33d
000000a0: 91a7 0ebd 2391 1bbc 2d6a 253d bf90 663c
000000b0: b3dd 9bbc 0fac 0e3d 704a 9bbc ead8 c73c
000000c0: 3fe3 a2bd a083 31bd 4130 963c e161 0dbd
000000d0: 8516 73bd c13e 203b ad26 16bc 3926 943d
000000e0: e8a4 8e3d 76b8 85bc 4b13 e3bc 3b17 48bd
000000f0: 4dd9 1a3c a690 9f3c 6e04 02bb 38aa 583d
00000100: 4f84 4d3c 5ce9 fa3c 91e5 7d3a 8bfe 503d
00000110: 9360 5b3c b814 88bd 1548 023d fdde 0abb
00000120: 88e0 23bd d4ba 5dbc a563 c3bc 0aaf 94bc
00000130: ab51 9fbd 3090 3fbd dae8 773d 53ce 8a3b
00000140: b026 863d ad55 943d bdba a43b 1013 193b
00000150: 680d 363b b030 423b 0f24 2c3d 1415 a43d
00000160: c856 29bd f0dc 923c e2ca 27bd 9fc0 713d
00000170: 8078 15bd 7d2c b03c 55f9 903c 168d 04bd
00000180: 6bf8 333d d38c 2bbd c64d cebc a47e dcbb
00000190: c9a0 b43b 42ff 3e3c d0f6 e83c 82f1 14bd
000001a0: 6542 9e3c d013 2dbc 3d29 ab3c e2de f7bc
000001b0: 119c 4abd dec3 82be 1f31 babd 25ad 423c
000001c0: f08b 86ba 1ef8 3ebd 51c4 2dbd b3a9 ff3c
000001d0: e83e 2bbc 4883 cebd 2a08 2e3d 4e87 c03b
000001e0: 6347 383c 1c62 493b d186 b5bc 7171 c1bc
000001f0: 3d87 adbd 77dd 2b3d f0a6 b83b ea30 b63b
00000200: 2335 bcbc 6f0b 92bd c6ca 133c 56d2 9bba
00000210: 4fb8 e8bd b5ac 40bd 19e3 be3d 03a1 b5bd
00000220: dffa f4bc 2c2e a93c aaa5 16bd c448 b5bd
00000230: 8709 0b3c c6eb 27bd 8868 c73d ddbf 07bd
00000240: d786 033e a97d eb3c d8d3 a73d 8ac4 503d
00000250: 1e58 6f3d 55af 37bc d238 17bb c0ad 8839
00000260: 322b 3dbe 6a12 27be 17fa 1b3e 96ce 87bd
00000270: d08e 8f3d ca2e 12bd 43fa b73e 545a 923c
00000280: 1c5f 093d 721c ba3d 102b 963d 5cf0 7c3c
00000290: bc0e 02bd 6859 893d 2c3b e6bc 0f6f 97be
000002a0: 66a4 b33d ed71 64bd 79a4 633d f15e f8bc
000002b0: 47af a8bc 2901 a1bd ef83 30bd 4cd9 4dbc
000002c0: 29ac cb3d d16c d73c 582c 93bd 56ac 6fbb
000002d0: fdef 9dbc 5046 d73b 4e7b a83d 0b1e d8bc
000002e0: 23bc b63b 861a 9a3c 7f63 98bc bb80 4e3c
000002f0: 4b36 823d 5988 bdbd ee2a e33d 8cda 1b3c
00000300: d320 953c 201b 09be abba e2bd 63a6 36bd
00000310: 230e 923d e437 afbd 90ea 6abc fe47 9c3c
00000320: aa3c 383d fc4e 803d 5622 8d3d cc09 1a3c
00000330: 72ca 463d 2e3a 8dbd 676c c2bc 0ac6 45bc
00000340: 9b6a 19bc b58d 60be 9745 b43c 977d cebd
00000350: 834f 99bd 63d8 78bc 7f50 fc3c 17c7 a9bc
00000360: 6441 143d a843 09be c531 06bd e719 5bbc
00000370: 8bf8 e93d a29c 12bc 178b 0cbc ace1 adbc
00000380: 714c a63c df2d b03c 9d71 bb3d 1ba6 2b3d
00000390: 8876 d33c 90b3 a43d 590b 50bd 13de 633d
000003a0: df56 d3bd 8882 d7ba 5ac3 bb3d bdb8 97bd
000003b0: 373c 8539 3b8b 053f d83a d33d 8a22 353c
000003c0: 0f44 ac3c 611c 16bd b743 e73d e090 063d
000003d0: 9bba 013d d236 07bd 83da 94bd 0827 873d
000003e0: 8c0c 973c 3b45 8ebc e235 8d3d 687b 14bc
000003f0: a8f2 cc3c 8895 5bbd 10e9 5d3d 919b b13c
-0.026248613 0.047115203 -0.06731244 -0.0043531493 -0.018631278 -0.01789612 0.032978896 0.0118676135
-0.00036461363 0.03246821 0.020314103 0.07855369 0.032500878 -0.055915136 -0.05229668 0.0045693973
-0.005705683 -0.089781776 -0.016225407 0.07685844 -0.069421194 0.008369271 0.0060774353 -0.0433233
0.095294684 0.09423097 -0.023906674 -0.035422705 0.057545386 0.0925721 -0.008532356 0.0075490135
-0.009315377 -0.042963054 -0.03201677 -0.030217046 -0.04555485 0.00086568604 -0.031852566 0.10350343
-0.034827773 -0.0094950525 0.04038446 0.014072596 -0.019026613 0.034832057 -0.018956393 0.024395425
-0.079535 -0.043338418 0.018333556 -0.034517173 -0.05934765 0.0024451467 -0.009164494 0.07233853
0.06965047 -0.01632331 -0.02771916 -0.04885028 0.009451223 0.019478153 -0.0019839066 0.05289671
0.012543752 0.030628853 0.0009685392 0.051024 0.013389724 -0.06644577 0.031807024 -0.002119004
-0.04000905 -0.013533313 -0.023851225 -0.018149871 -0.07779249 -0.046768367 0.0605248 0.0042360215
0.06550348 0.07242904 0.0050271438 0.002335731 0.0027778987 0.002963107 0.042026576 0.08011833
-0.041342527 0.017927617 -0.04096497 0.05902159 -0.03649187 0.021505589 0.017697016 -0.032361113
0.04393808 -0.041882347 -0.02518357 -0.006728964 0.005512331 0.011657538 0.028438002 -0.036363132
0.019318769 -0.010563806 0.020893687 -0.030257646 -0.049465243 -0.2554006 -0.090914 0.011882101
-0.0010265093 -0.04662334 -0.04242355 0.031208849 -0.01045201 -0.10083634 0.042488255 0.0058755046
0.011247489 0.0030728644 -0.022159012 -0.023613663 -0.0847306 0.041959252 0.005635135 0.00556003
-0.022974556 -0.07131087 0.009020513 -0.0011888247 -0.11363279 -0.047039706 0.09320659 -0.08868601
-0.02990478 0.0206519 -0.036779083 -0.088517696 0.008486158 -0.040996335 0.09736735 -0.03314196
0.12844406 0.028746443 0.08194703 0.050968684 0.058433644 -0.011211236 -0.002307464 0.00026069395
-0.18473509 -0.16315618 0.1523212 -0.066312 0.07009661 -0.035689153 0.35933122 0.017865337
0.03353797 0.09087457 0.07332432 0.0154381655 -0.031752333 0.06706506 -0.028104387 -0.29576918
0.08771591 -0.05577271 0.055576775 -0.03031871 -0.020591391 -0.078615494 -0.04309457 -0.012564015
0.09944946 0.026297005 -0.07186192 -0.0036571226 -0.019279474 0.006569661 0.082266435 -0.026381513
0.005576627 0.018811475 -0.018602131 0.012603934 0.06358012 -0.09254522 0.110921726 0.009512555
0.018204128 -0.13389254 -0.1107076 -0.044592272 0.071316026 -0.08555582 -0.014338151 0.019077297
0.04497973 0.06265065 0.06891315 0.00940175 0.04853291 -0.068958625 -0.02373333 -0.012071142
-0.009363796 -0.21929057 0.02200584 -0.10082548 -0.07485869 -0.015188309 0.030800102 -0.020724816
0.036195174 -0.13404715 -0.032762308 -0.013372875 0.11424359 -0.008948477 -0.0085780835 -0.021225773
0.020300122 0.021506248 0.091525294 0.041906457 0.025813356 0.08042061 -0.050792072 0.05563171
-0.10319304 -0.00164421 0.0916812 -0.07408283 0.000254126 0.52165574 0.10313958 0.011055598
0.021028547 -0.036648158 0.112922125 0.032853007 0.0316721 -0.033011265 -0.0726824 0.065992415
0.0184386 -0.017366996 0.06895043 -0.0090626255 0.025018051 -0.0536094 0.054177344 0.021680625

fc2.bias f4 [64]
00000000: 7e9e a7bd 6760 6a3c 86c9 49bc 3028 c7bd
00000010: 03ab 11bd 4372 18bd 323e 653d 3ec5 a53b
00000020: c5b3 7abc 2522 8e3c d92f 7abd f64d 7ebd
00000030: 393b a9bd 9121 4ebe 2bf5 79bd 14e9 37bd
00000040: d23e 06be 916b a2bc d114 62be 5010 4fbd
00000050: 1fc9 06be 6d6f a4bd 4028 70be 23b1 113c
00000060: a85c f6bd f004 813c 37f7 693d f0bd bdbd
00000070: fa8b 07be c733 e2bc bc7a 4abd 2a5d 79bd
00000080: f2e4 adbd f7c2 84bd 439a cbbb c573 1abe
00000090: 6159 1cbd 1141 5bbb f1b3 b1bd 59bc e93c
000000a0: 00a3 a93d 8ec6 babb 21c0 c2bd 922e b43c
000000b0: 0613 e93a 30b8 403c 055a 35be e556 c13b
000000c0: 4249 c6bd afdf b0bc 53f1 93bd cce5 89bd
000000d0: 5d94 f1bd b703 66bd 178c 7e3a 5348 89bc
000000e0: a8cb 26be e21c dc3d cd7a 20be aed5 24be
000000f0: 4fc3 13bd 002a 51bd 26b3 21bd 3679 04bd
-0.08184527 0.014305211 -0.012316113 -0.09724462 -0.03556348 -0.037218343 0.055967517 0.0050589135
-0.015301649 0.017350266 -0.061080787 -0.062086068 -0.08263249 -0.20129992 -0.061024826 -0.044900015
-0.13109902 -0.019826682 -0.22078253 -0.050552666 -0.13162659 -0.08029065 -0.23452854 0.00889233
-0.120293915 0.015749425 0.057120528 -0.09264743 -0.1323699 -0.02761258 -0.049433455 -0.060879864
-0.084909335 -0.06482499 -0.006213458 -0.15083225 -0.038171176 -0.003345553 -0.08676899 0.028532194
0.08283043 -0.005699939 -0.09509302 0.021994863 0.0017782159 0.011762664 -0.17710121 0.005900251
-0.096819416 -0.021591036 -0.07223763 -0.067332834 -0.11795876 -0.056155887 0.0009710206 -0.01675812
-0.16288626 0.107476965 -0.15671845 -0.16097137 -0.036074933 -0.051065445 -0.03947749 -0.03234216

fc3.weight f4 [1, 64]
00000000: 8756 85bd 4cfa b03d 6d1d d3bb e414 81bd
00000010: cd2b bebc 76ac f63c 823a 15bd e383 cfbc
00000020: 8634 8e3c dabc eabc 916a 0abd a80d acbc
00000030: e677 49bd 262a d2bd 7309 afbb 0a76 c93c
00000040: 04f5 84bd 18ce b9bc 8c9d 69bd 3c14 adbc
00000050: 3fa5 293d 8838 ef3a a711 d6bd f3f1 31bd
00000060: a3b9 a0bc f930 22bc 7c8d a1bc 70ab 07bc
00000070: 4cb8 16be 1126 bfbc 87d3 f8bb d2e2 613b
00000080: 3a63 a03b 8480 eabc fd2b 2239 92de 5bbd
00000090: 9588 e1bb 98e3 11bc dbd3 3ebd 0624 913c
000000a0: 564e d43c 48ef 7abb a4ff 25be 2f6a a2bc
000000b0: c67a edbc 8582 d9bc 8a5c ccbd 51fb 9d3b
000000c0: 17b5 02bd 8c43 d23c 7c39 463c c3ab 34bd
000000d0: c1f3 88be bd49 bdbc 1d33 4c3c 9b7a 06bc
000000e0: 53d0 eabd 1e10 f3bc 0705 29be c2d0 61bd
000000f0: 89e6 5ebd 42bd 4b3c 714f 22bd 63d7 88bd
-0.065106444 0.0864149 -0.006442717 -0.06302813 -0.023214245 0.030111533 -0.03643275 -0.025331443
0.01735903 -0.028654505 -0.033793036 -0.021002606 -0.04918661 -0.102619454 -0.0053417026 0.024592418
-0.064920455 -0.022681281 -0.057035014 -0.021127813 0.041417357 0.00182511 -0.10452586 -0.04344363
-0.019619768 -0.009899371 -0.019720785 -0.00828062 -0.14718741 -0.023333581 -0.0075935754 0.003446747
0.004894641 -0.028625734 0.00015465911 -0.053679056 -0.006882737 -0.00890436 -0.04658876 0.017717373
0.02591626 -0.0038289595 -0.162108 -0.019826023 -0.028989207 -0.026551494 -0.09978588 0.004821219
-0.031910982 0.025666974 0.012098666 -0.044109117 -0.2674847 -0.02310645 0.012463358 -0.008207942
-0.11465516 -0.029670771 -0.16505824 -0.055130728 -0.054419074 0.012435259 -0.039626542 -0.06681707

bn1.weight f4 [128]
00000000: 0000 803f 0000 803f 0000 803f 0000 803f
00000010: 0000 803f 0000 803f 0000 803f 0000 803f
00000020: 0000 803f 0000 803f 0000 803f 0000 803f
00000030: 0000 803f 0000 803f 0000 803f 0000 803f
00000040: 0000 803f 0000 803f 0000 803f 0000 803f
00000050: 0000 803f 0000 803f 0000 803f 0000 803f
00000060: 0000 803f 0000 803f 0000 803f 0000 803f
00000070: 0000 803f 0000 803f 0000 803f 0000 803f
00000080: 0000 803f 0000 803f 0000 803f 0000 803f
00000090: 0000 803f 0000 803f 0000 803f 0000 803f
000000a0: 0000 803f 0000 803f 0000 803f 0000 803f
000000b0: 0000 803f 0000 803f 0000 803f 0000 803f
000000c0: 0000 803f 0000 803f 0000 803f 0000 803f
000000d0: 0000 803f 0000 803f 0000 803f 0000 803f
000000e0: 0000 803f 0000 803f 0000 803f 0000 803f
000000f0: 0000 803f 0000 803f 0000 803f 0000 803f
00000100: 0000 803f 0000 803f 0000 803f 0000 803f
00000110: 0000 803f 0000 803f 0000 803f 0000 803f
00000120: 0000 803f 0000 803f 0000 803f 0000 803f
00000130: 0000 803f 0000 803f 0000 803f 0000 803f
00000140: 0000 803f 0000 803f 0000 803f 0000 803f
00000150: 0000 803f 0000 803f 0000 803f 0000 803f
00000160: 0000 803f 0000 803f 0000 803f 0000 803f
00000170: 0000 803f 0000 803f 0000 803f 0000 803f
00000180: 0000 803f 0000 803f 0000 803f 0000 803f
00000190: 0000 803f 0000 803f 0000 803f 0000 803f
000001a0: 0000 803f 0000 803f 0000 803f 0000 803f
000001b0: 0000 803f 0000 803f 0000 803f 0000 803f
000001c0: 0000 803f 0000 803f 0000 803f 0000 803f
000001d0: 0000 803f 0000 803f 0000 803f 0000 803f
000001e0: 0000 803f 0000 803f 0000 803f 0000 803f
000001f0: 0000 803f 0000 803f 0000 803f 0000 803f
1.0 1.0 1.0 1.0 1.0 1.0 1.0 1.0
1.0 1.0 1.0 1.0 1.0 1.0 1.0 1.0
1.0 1.0 1.0 1.0 1.0 1.0 1.0 1.0
1.0 1.0 1.0 1.0 1.0 1.0 1.0 1.0
1.0 1.0 1.0 1.0 1.0 1.0 1.0 1.0
1.0 1.0 1.0 1.0 1.0 1.0 1.0 1.0
1.0 1.0 1.0 1.0 1.0 1.0 1.0 1.0
1.0 1.0 1.0 1.0 1.0 1.0 1.0 1.0
1.0 1.0 1.0 1.0 1.0 1.0 1.0 1.0
1.0 1.0 1.0 1.0 1.0 1.0 1.0 1.0
1.0 1.0 1.0 1.0 1.0 1.0 1.0 1.0
1.0 1.0 1.0 1.0 1.0 1.0 1.0 1.0
1.0 1.0 1.0 1.0 1.0 1.0 1.0 1.0
1.0 1.0 1.0 1.0 1.0 1.0 1.0 1.0
1.0 1.0 1.0 1.0 1.0 1.0 1.0 1.0
1.0 1.0 1.0 1.0 1.0 1.0 1.0 1.0

bn1.bias f4 [128]
00000000: 0000 0000 0000 0000 0000 0000 0000 0000
00000010: 0000 0000 0000 0000 0000 0000 0000 0000
00000020: 0000 0000 0000 0000 0000 0000 0000 0000
00000030: 0000 0000 0000 0000 0000 0000 0000 0000
00000040: 0000 0000 0000 0000 0000 0000 0000 0000
00000050: 0000 0000 0000 0000 0000 0000 0000 0000
00000060: 0000 0000 0000 0000 0000 0000 0000 0000
00000070: 0000 0000 0000 0000 0000 0000 0000 0000
00000080: 0000 0000 0000 0000 0000 0000 0000 0000
00000090: 0000 0000 0000 0000 0000 0000 0000 0000
000000a0: 0000 0000 0000 0000 0000 0000 0000 0000
000000b0: 0000 0000 0000 0000 0000 0000 0000 0000
000000c0: 0000 0000 0000 0000 0000 0000 0000 0000
000000d0: 0000 0000 0000 0000 0000 0000 0000 0000
000000e0: 0000 0000 0000 0000 0000 0000 0000 0000
000000f0: 0000 0000 0000 0000 0000 0000 0000 0000
00000100: 0000 0000 0000 0000 0000 0000 0000 0000
00000110: 0000 0000 0000 0000 0000 0000 0000 0000
00000120: 0000 0000 0000 0000 0000 0000 0000 0000
00000130: 0000 0000 0000 0000 0000 0000 0000 0000
00000140: 0000 0000 0000 0000 0000 0000 0000 0000
00000150: 0000 0000 0000 0000 0000 0000 0000 0000
00000160: 0000 0000 0000 0000 0000 0000 0000 0000
00000170: 0000 0000 0000 0000 0000 0000 0000 0000
00000180: 0000 0000 0000 0000 0000 0000 0000 0000
00000190: 0000 0000 0000 0000 0000 0000 0000 0000
000001a0: 0000 0000 0000 0000 0000 0000 0000 0000
000001b0: 0000 0000 0000 0000 0000 0000 0000 0000
000001c0: 0000 0000 0000 0000 0000 0000 0000 0000
000001d0: 0000 0000 0000 0000 0000 0000 0000 0000
000001e0: 0000 0000 0000 0000 0000 0000 0000 0000
000001f0: 0000 0000 0000 0000 0000 0000 0000 0000
0.0 0.0 0.0 0.0 0.0 0.0 0.0 0.0
0.0 0.0 0.0 0.0 0.0 0.0 0.0 0.0
0.0 0.0 0.0 0.0 0.0 0.0 0.0 0.0
0.0 0.0 0.0 0.0 0.0 0.0 0.0 0.0
0.0 0.0 0.0 0.0 0.0 0.0 0.0 0.0
0.0 0.0 0.0 0.0 0.0 0.0 0.0 0.0
0.0 0.0 0.0 0.0 0.0 0.0 0.0 0.0
0.0 0.0 0.0 0.0 0.0 0.0 0.0 0.0
0.0 0.0 0.0 0.0 0.0 0.0 0.0 0.0
0.0 0.0 0.0 0.0 0.0 0.0 0.0 0.0
0.0 0.0 0.0 0.0 0.0 0.0 0.0 0.0
0.0 0.0 0.0 0.0 0.0 0.0 0.0 0.0
0.0 0.0 0.0 0.0 0.0 0.0 0.0 0.0
0.0 0.0 0.0 0.0 0.0 0.0 0.0 0.0
0.0 0.0 0.0 0.0 0.0 0.0 0.0 0.0
0.0 0.0 0.0 0.0 0.0 0.0 0.0 0.0

bn1.running_mean f4 [128]
00000000: 0000 0000 0000 0000 0000 0000 0000 0000
00000010: 0000 0000 0000 0000 0000 0000 0000 0000
00000020: 0000 0000 0000 0000 0000 0000 0000 0000
00000030: 0000 0000 0000 0000 0000 0000 0000 0000
00000040: 0000 0000 0000 0000 0000 0000 0000 0000
00000050: 0000 0000 0000 0000 0000 0000 0000 0000
00000060: 0000 0000 0000 0000 0000 0000 0000 0000
00000070: 0000 0000 0000 0000 0000 0000 0000 0000
00000080: 0000 0000 0000 0000 0000 0000 0000 0000
00000090: 0000 0000 0000 0000 0000 0000 0000 0000
000000a0: 0000 0000 0000 0000 0000 0000 0000 0000
000000b0: 0000 0000 0000 0000 0000 0000 0000 0000
000000c0: 0000 0000 0000 0000 0000 0000 0000 0000
000000d0: 0000 0000 0000 0000 0000 0000 0000 0000
000000e0: 0000 0000 0000 0000 0000 0000 0000 0000
000000f0: 0000 0000 0000 0000 0000 0000 0000 0000
00000100: 0000 0000 0000 0000 0000 0000 0000 0000
00000110: 0000 0000 0000 0000 0000 0000 0000 0000
00000120: 0000 0000 0000 0000 0000 0000 0000 0000
00000130: 0000 0000 0000 0000 0000 0000 0000 0000
00000140: 0000 0000 0000 0000 0000 0000 0000 0000
00000150: 0000 0000 0000 0000 0000 0000 0000 0000
00000160: 0000 0000 0000 0000 0000 0000 0000 0000
00000170: 0000 0000 0000 0000 0000 0000 0000 0000
00000180: 0000 0000 0000 0000 0000 0000 0000 0000
00000190: 0000 0000 0000 0000 0000 0000 0000 0000
000001a0: 0000 0000 0000 0000 0000 0000 0000 0000
000001b0: 0000 0000 0000 0000 0000 0000 0000 0000
000001c0: 0000 0000 0000 0000 0000 0000 0000 0000
000001d0: 0000 0000 0000 0000 0000 0000 0000 0000
000001e0: 0000 0000 0000 0000 0000 0000 0000 0000
000001f0: 0000 0000 0000 0000 0000 0000 0000 0000
0.0 0.0 0.0 0.0 0.0 0.0 0.0 0.0
0.0 0.0 0.0 0.0 0.0 0.0 0.0 0.0
0.0 0.0 0.0 0.0 0.0 0.0 0.0 0.0
0.0 0.0 0.0 0.0 0.0 0.0 0.0 0.0
0.0 0.0 0.0 0.0 0.0 0.0 0.0 0.0
0.0 0.0 0.0 0.0 0.0 0.0 0.0 0.0
0.0 0.0 0.0 0.0 0.0 0.0 0.0 0.0
0.0 0.0 0.0 0.0 0.0 0.0 0.0 0.0
0.0 0.0 0.0 0.0 0.0 0.0 0.0 0.0
0.0 0.0 0.0 0.0 0.0 0.0 0.0 0.0
0.0 0.0 0.0 0.0 0.0 0.0 0.0 0.0
0.0 0.0 0.0 0.0 0.0 0.0 0.0 0.0
0.0 0.0 0.0 0.0 0.0 0.0 0.0 0.0
0.0 0.0 0.0 0.0 0.0 0.0 0.0 0.0
0.0 0.0 0.0 0.0 0.0 0.0 0.0 0.0
0.0 0.0 0.0 0.0 0.0 0.0 0.0 0.0

bn1.running_var f4 [128]
00000000: 0000 803f 0000 803f 0000 803f 0000 803f
00000010: 0000 803f 0000 803f 0000 803f 0000 803f
00000020: 0000 803f 0000 803f 0000 803f 0000 803f
00000030: 0000 803f 0000 803f 0000 803f 0000 803f
00000040: 0000 803f 0000 803f 0000 803f 0000 803f
00000050: 0000 803f 0000 803f 0000 803f 0000 803f
00000060: 0000 803f 0000 803f 0000 803f 0000 803f
00000070: 0000 803f 0000 803f 0000 803f 0000 803f
00000080: 0000 803f 0000 803f 0000 803f 0000 803f
00000090: 0000 803f 0000 803f 0000 803f 0000 803f
000000a0: 0000 803f 0000 803f 0000 803f 0000 803f
000000b0: 0000 803f 0000 803f 0000 803f 0000 803f
000000c0: 0000 803f 0000 803f 0000 803f 0000 803f
000000d0: 0000 803f 0000 803f 0000 803f 0000 803f
000000e0: 0000 803f 0000 803f 0000 803f 0000 803f
000000f0: 0000 803f 0000 803f 0000 803f 0000 803f
00000100: 0000 803f 0000 803f 0000 803f 0000 803f
00000110: 0000 803f 0000 803f 0000 803f 0000 803f
00000120: 0000 803f 0000 803f 0000 803f 0000 803f
00000130: 0000 803f 0000 803f 0000 803f 0000 803f
00000140: 0000 803f 0000 803f 0000 803f 0000 803f
00000150: 0000 803f 0000 803f 0000 803f 0000 803f
00000160: 0000 803f 0000 803f 0000 803f 0000 803f
00000170: 0000 803f 0000 803f 0000 803f 0000 803f
00000180: 0000 803f 0000 803f 0000 803f 0000 803f
00000190: 0000 803f 0000 803f 0000 803f 0000 803f
000001a0: 0000 803f 0000 803f 0000 803f 0000 803f
000001b0: 0000 803f 0000 803f 0000 803f 0000 803f
000001c0: 0000 803f 0000 803f 0000 803f 0000 803f
000001d0: 0000 803f 0000 803f 0000 803f 0000 803f
000001e0: 0000 803f 0000 803f 0000 803f 0000 803f
000001f0: 0000 803f 0000 803f 0000 803f 0000 803f
1.0 1.0 1.0 1.0 1.0 1.0 1.0 1.0
1.0 1.0 1.0 1.0 1.0 1.0 1.0 1.0
1.0 1.0 1.0 1.0 1.0 1.0 1.0 1.0
1.0 1.0 1.0 1.0 1.0 1.0 1.0 1.0
1.0 1.0 1.0 1.0 1.0 1.0 1.0 1.0
1.0 1.0 1.0 1.0 1.0 1.0 1.0 1.0
1.0 1.0 1.0 1.0 1.0 1.0 1.0 1.0
1.0 1.0 1.0 1.0 1.0 1.0 1.0 1.0
1.0 1.0 1.0 1.0 1.0 1.0 1.0 1.0
1.0 1.0 1.0 1.0 1.0 1.0 1.0 1.0
1.0 1.0 1.0 1.0 1.0 1.0 1.0 1.0
1.0 1.0 1.0 1.0 1.0 1.0 1.0 1.0
1.0 1.0 1.0 1.0 1.0 1.0 1.0 1.0
1.0 1.0 1.0 1.0 1.0 1.0 1.0 1.0
1.0 1.0 1.0 1.0 1.0 1.0 1.0 1.0
1.0 1.0 1.0 1.0 1.0 1.0 1.0 1.0

bn2.weight f4 [64]
00000000: 0000 803f 0000 803f 0000 803f 0000 803f
00000010: 0000 803f 0000 803f 0000 803f 0000 803f
00000020: 0000 803f 0000 803f 0000 803f 0000 803f
00000030: 0000 803f 0000 803f 0000 803f 0000 803f
00000040: 0000 803f 0000 803f 0000 803f 0000 803f
00000050: 0000 803f 0000 803f 0000 803f 0000 803f
00000060: 0000 803f 0000 803f 0000 803f 0000 803f
00000070: 0000 803f 0000 803f 0000 803f 0000 803f
00000080: 0000 803f 0000 803f 0000 803f 0000 803f
00000090: 0000 803f 0000 803f 0000 803f 0000 803f
000000a0: 0000 803f 0000 803f 0000 803f 0000 803f
000000b0: 0000 803f 0000 803f 0000 803f 0000 803f
000000c0: 0000 803f 0000 803f 0000 803f 0000 803f
000000d0: 0000 803f 0000 803f 0000 803f 0000 803f
000000e0: 0000 803f 0000 803f 0000 803f 0000 803f
000000f0: 0000 803f 0000 803f 0000 803f 0000 803f
1.0 1.0 1.0 1.0 1.0 1.0 1.0 1.0
1.0 1.0 1.0 1.0 1.0 1.0 1.0 1.0
1.0 1.0 1.0 1.0 1.0 1.0 1.0 1.0
1.0 1.0 1.0 1.0 1.0 1.0 1.0 1.0
1.0 1.0 1.0 1.0 1.0 1.0 1.0 1.0
1.0 1.0 1.0 1.0 1.0 1.0 1.0 1.0
1.0 1.0 1.0 1.0 1.0 1.0 1.0 1.0
1.0 1.0 1.0 1.0 1.0 1.0 1.0 1.0

bn2.bias f4 [64]
00000000: 0000 0000 0000 0000 0000 0000 0000 0000
00000010: 0000 0000 0000 0000 0000 0000 0000 0000
00000020: 0000 0000 0000 0000 0000 0000 0000 0000
00000030: 0000 0000 0000 0000 0000 0000 0000 0000
00000040: 0000 0000 0000 0000 0000 0000 0000 0000
00000050: 0000 0000 0000 0000 0000 0000 0000 0000
00000060: 0000 0000 0000 0000 0000 0000 0000 0000
00000070: 0000 0000 0000 0000 0000 0000 0000 0000
00000080: 0000 0000 0000 0000 0000 0000 0000 0000
00000090: 0000 0000 0000 0000 0000 0000 0000 0000
000000a0: 0000 0000 0000 0000 0000 0000 0000 0000
000000b0: 0000 0000 0000 0000 0000 0000 0000 0000
000000c0: 0000 0000 0000 0000 0000 0000 0000 0000
000000d0: 0000 0000 0000 0000 0000 0000 0000 0000
000000e0: 0000 0000 0000 0000 0000 0000 0000 0000
000000f0: 0000 0000 0000 0000 0000 0000 0000 0000
0.0 0.0 0.0 0.0 0.0 0.0 0.0 0.0
0.0 0.0 0.0 0.0 0.0 0.0 0.0 0.0
0.0 0.0 0.0 0.0 0.0 0.0 0.0 0.0
0.0 0.0 0.0 0.0 0.0 0.0 0.0 0.0
0.0 0.0 0.0 0.0 0.0 0.0 0.0 0.0
0.0 0.0 0.0 0.0 0.0 0.0 0.0 0.0
0.0 0.0 0.0 0.0 0.0 0.0 0.0 0.0
0.0 0.0 0.0 0.0 0.0 0.0 0.0 0.0

bn2.running_mean f4 [64]
00000000: 0000 0000 0000 0000 0000 0000 0000 0000
00000010: 0000 0000 0000 0000 0000 0000 0000 0000
00000020: 0000 0000 0000 0000 0000 0000 0000 0000
00000030: 0000 0000 0000 0000 0000 0000 0000 0000
00000040: 0000 0000 0000 0000 0000 0000 0000 0000
00000050: 0000 0000 0000 0000 0000 0000 0000 0000
00000060: 0000 0000 0000 0000 0000 0000 0000 0000
00000070: 0000 0000 0000 0000 0000 0000 0000 0000
00000080: 0000 0000 0000 0000 0000 0000 0000 0000
00000090: 0000 0000 0000 0000 0000 0000 0000 0000
000000a0: 0000 0000 0000 0000 0000 0000 0000 0000
000000b0: 0000 0000 0000 0000 0000 0000 0000 0000
000000c0: 0000 0000 0000 0000 0000 0000 0000 0000
000000d0: 0000 0000 0000 0000 0000 0000 0000 0000
000000e0: 0000 0000 0000 0000 0000 0000 0000 0000
000000f0: 0000 0000 0000 0000 0000 0000 0000 0000
0.0 0.0 0.0 0.0 0.0 0.0 0.0 0.0
0.0 0.0 0.0 0.0 0.0 0.0 0.0 0.0
0.0 0.0 0.0 0.0 0.0 0.0 0.0 0.0
0.0 0.0 0.0 0.0 0.0 0.0 0.0 0.0
0.0 0.0 0.0 0.0 0.0 0.0 0.0 0.0
0.0 0.0 0.0 0.0 0.0 0.0 0.0 0.0
0.0 0.0 0.0 0.0 0.0 0.0 0.0 0.0
0.0 0.0 0.0 0.0 0.0 0.0 0.0 0.0

bn2.running_var f4 [64]
00000000: 0000 803f 0000 803f 0000 803f 0000 803f
00000010: 0000 803f 0000 803f 0000 803f 0000 803f
00000020: 0000 803f 0000 803f 0000 803f 0000 803f
00000030: 0000 803f 0000 803f 0000 803f 0000 803f
00000040: 0000 803f 0000 803f 0000 803f 0000 803f
00000050: 0000 803f 0000 803f 0000 803f 0000 803f
00000060: 0000 803f 0000 803f 0000 803f 0000 803f
00000070: 0000 803f 0000 803f 0000 803f 0000 803f
00000080: 0000 803f 0000 803f 0000 803f 0000 803f
00000090: 0000 803f 0000 803f 0000 803f 0000 803f
000000a0: 0000 803f 0000 803f 0000 803f 0000 803f
000000b0: 0000 803f 0000 803f 0000 803f 0000 803f
000000c0: 0000 803f 0000 803f 0000 803f 0000 803f
000000d0: 0000 803f 0000 803f 0000 803f 0000 803f
000000e0: 0000 803f 0000 803f 0000 803f 0000 803f
000000f0: 0000 803f 0000 803f 0000 803f 0000 803f
1.0 1.0 1.0 1.0 1.0 1.0 1.0 1.0
1.0 1.0 1.0 1.0 1.0 1.0 1.0 1.0
1.0 1.0 1.0 1.0 1.0 1.0 1.0 1.0
1.0 1.0 1.0 1.0 1.0 1.0 1.0 1.0
1.0 1.0 1.0 1.0 1.0 1.0 1.0 1.0
1.0 1.0 1.0 1.0 1.0 1.0 1.0 1.0
1.0 1.0 1.0 1.0 1.0 1.0 1.0 1.0
1.0 1.0 1.0 1.0 1.0 1.0 1.0 1.0
