models/0_2023_2023/Postal_GCN/50.pth (torch, 100130 bytes, 17 tensors)

conv1.bias f4 [64]
0	0x00000000	0.0
1	0xbb0c87c5	-0.002144323
2	0x00000000	0.0
3	0x00000000	0.0
4	0xbc8a08d2	-0.016849909
5	0x00000000	0.0
6	0xbc46403c	-0.012100276
7	0x00000000	0.0
8	0x00000000	0.0
9	0xbb6de5d6	-0.0036300323
10	0xbd20daaa	-0.039271034
11	0xbc4f2718	-0.012643598
12	0xbc42a5e1	-0.011880369
13	0x00000000	0.0
14	0x00000000	0.0
15	0x00000000	0.0
16	0x00000000	0.0
17	0xbb1453e3	-0.0022633008
18	0x00000000	0.0
19	0x00000000	0.0
20	0xbb1b0ac1	-0.0023657533
21	0x3a362ea8	0.00069497013
22	0xbb00be0f	-0.0019644534
23	0xbc09939e	-0.008397011
24	0x00000000	0.0
25	0x00000000	0.0
26	0x00000000	0.0
27	0x00000000	0.0
28	0x00000000	0.0
29	0x00000000	0.0
30	0xbcb93e04	-0.02261258
31	0x00000000	0.0
32	0x00000000	0.0
33	0x00000000	0.0
34	0x00000000	0.0
35	0xbf3e7d66	-0.7441009
36	0x00000000	0.0
37	0x00000000	0.0
38	0xbc17406b	-0.009231667
39	0x00000000	0.0
40	0xbd0c03e6	-0.034183405
41	0x00000000	0.0
42	0x00000000	0.0
43	0xbd0a74d4	-0.033802822
44	0x00000000	0.0
45	0x00000000	0.0
46	0x00000000	0.0
47	0x00000000	0.0
48	0x00000000	0.0
49	0xbb5161a4	-0.0031949067
50	0xbcd61e08	-0.026137367
51	0x00000000	0.0
52	0x00000000	0.0
53	0x00000000	0.0
54	0xbad67e84	-0.0016364609
55	0xbaf982f7	-0.0019036223
56	0x00000000	0.0
57	0x00000000	0.0
58	0xbc989725	-0.018626759
59	0xbb9c545e	-0.0047707995
60	0x3c55473d	0.013017473
61	0x00000000	0.0
62	0x00000000	0.0
63	0x00000000	0.0

conv1.lin.weight f4 [64, 12]
0	0xbbdfb501	-0.0068269973
1	0xbb2a712f	-0.0026007404
2	0x3b3f4332	0.0029184339
3	0xbbff7228	-0.007795591
4	0x3b9fd772	0.004877978
5	0x3b97c7a7	0.0046319547
6	0x3bb4d653	0.0055187135
7	0xbbb9e4e1	-0.0056730364
8	0x3c113490	0.0088626295
9	0xbbacd5eb	-0.0052745244
10	0x3c118bd0	0.008883432
11	0xbc0be97d	-0.008539555
12	0xbc24e40d	-0.010064137
13	0x3b59ac2f	0.0033214202
14	0xba9f1939	-0.0012138254
15	0xbad80ae2	-0.0016482736
16	0xbbe79872	-0.0070677334
17	0xbbc08bc2	-0.0058760354
18	0xbb9bf31b	-0.004759205
19	0xbc3190be	-0.010837732
20	0xbad98ecc	-0.0016598343
21	0xba128eee	-0.0005590756
22	0xbb0c6634	-0.0021423222
23	0x3a41ad91	0.0007388229
24	0x3c0a54bb	0.008443053
25	0x3b1b0d18	0.0023658928
26	0xbb5579f8	-0.003257392
27	0xbb6ffeb4	-0.003662032
28	0xbbba8d74	-0.005693132
29	0xbbca2074	-0.0061684195
30	0xbabbd55c	-0.0014330554
31	0xbace47a0	-0.0015737899
32	0x3b81b622	0.0039584795
33	0xbb7942dc	-0.0038034236
34	0x3be8721f	0.0070936824
35	0xbbcc97c8	-0.0062436797
36	0x37d426b5	2.5290394e-05
37	0x3c030d48	0.007998772
38	0x3c10f840	0.00884825
39	0xbba8e64b	-0.005154406
40	0x3acfc0c0	0.0015850291
41	0x3a89c44b	0.001051077
42	0xbb88b4c1	-0.004171938
43	0xbb497a12	-0.0030742926
44	0x3b1df30b	0.0024101164
45	0xbbcac075	-0.0061874934
46	0x3ac06f84	0.0014681672
47	0x3b7c5838	0.003850473
48	0xbd31b587	-0.04338601
49	0xbc4c9a05	-0.012487893
50	0xbca8ba7c	-0.020596735
51	0xba21ce59	-0.0006172411
52	0xbd2d1240	-0.042253733
53	0xbd585138	-0.05281183
54	0xbd5bfe05	-0.05370905
55	0xbd0c1960	-0.034203887
56	0x3c9c6c1b	0.019094517
57	0x3c71e45d	0.014763919
58	0xbd62d38f	-0.05537754
59	0x3d00eae3	0.031474005
60	0x3b08aedd	0.002085618
61	0x39afc992	0.00033528783
62	0x3bb8d3e5	0.005640494
63	0xbaec1124	-0.0018010479
64	0x3a69ea67	0.00089231733
65	0xbb58ed44	-0.0033100406
66	0xbbf42eb0	-0.0074518546
67	0x3b6bfbd2	0.003600825
68	0x3a953d0d	0.0011385992
69	0xbb698af9	-0.0035635813
70	0xbb452aab	-0.0030085247
71	0x3b1881c8	0.0023270715
72	0xbc63834c	-0.013886284
73	0xbbe431e5	-0.0069639557
74	0xbc4a7695	-0.012357374
75	0xb83ce426	-4.5035173e-05
76	0xbcb5c51f	-0.022188721
77	0xbcfaf7ad	-0.03063568
78	0xbcaa1d78	-0.020766005
79	0x3c1c1ca4	0.009528313
80	0x3c184718	0.009294294
81	0x3c2b99f6	0.010473719
82	0xbc3b7a57	-0.011442742
83	0x3cd1334d	0.025537157
84	0xbb763473	-0.0037567883
85	0xbb9afe30	-0.0047300085
86	0x3b7e1c5e	0.0038774232
87	0xbbfdc34e	-0.0077442294
88	0x39159717	0.00014266033
89	0xbb861802	-0.0040922174
90	0x3bc07322	0.0058731
91	0xbc07bc17	-0.00828459
92	0x3bb0cab9	0.00539526
93	0x3c103c8b	0.008803497
94	0x3aebfda1	0.0018004664
95	0xba1b6a1c	-0.0005928592
96	0x3c0f81a7	0.008758939
97	0xbb793637	-0.00380267
98	0xba3aebaa	-0.00071304536
99	0xbb7f5d77	-0.0038965621
100	0xbaa0ff85	-0.0012283182
101	0x3afd7b9c	0.0019339207
102	0x3a9bc60f	0.0011884588
103	0xbadc4934	-0.0016806484
104	0xbc11c3d1	-0.008896784
105	0x39eee10f	0.0004556258
106	0xb98a317b	-0.00026358277
107	0x3aaf749d	0.0013386194
108	0x3b3d773a	0.0028910176
109	0x3b9ab835	0.004721666
110	0xbc16bb79	-0.00919997
111	0xbb92f700	-0.004485011
112	0xbbe87c97	-0.0070949304
113	0xbc198feb	-0.009372692
114	0xbc27b163	-0.010235163
115	0x3bd74ca6	0.0065704165
116	0x3abe2cb6	0.0014509175
117	0x3b64a997	0.0034891122
118	0x3b582d0f	0.0032985841
119	0xbbe7a6ba	-0.007069436
120	0xbd840d75	-0.06447879
121	0xbd16c3ed	-0.036807943
122	0xbd4e4620	-0.050359845
123	0xba270e7d	-0.00063727034
124	0xbdde07d7	-0.10841339
125	0xbde5f30d	-0.11227999
126	0xbe01d4fc	-0.12678903
127	0xbd4db2ce	-0.05021935
128	0x3d2db71e	0.042410962
129	0x3d3d33e2	0.046192057
130	0xbdeec6eb	-0.11659034
131	0x3dc605ce	0.09669076
132	0xbc81a2bb	-0.015824666
133	0xbbb33db1	-0.0054700007
134	0xbbcb0e66	-0.006196785
135	0xb90fb7e0	-0.00013706041
136	0xbccd0e54	-0.025031246
137	0xbcef797d	-0.029232735
138	0xbd260b7b	-0.040538292
139	0xbca0b51e	-0.019617613
140	0x3bde2eb3	0.0067804693
141	0x3b1754e8	0.002309138
142	0xbca7412b	-0.020416817
143	0x3c8d35f2	0.017237637
144	0xbd17db3f	-0.037074324
145	0xbc48e854	-0.012262423
146	0xbbdb8e58	-0.0067003183
147	0xb84361fb	-4.6582874e-05
148	0xbd4509f7	-0.048105206
149	0xbd352ee2	-0.044234164
150	0xbd372973	-0.044717263
151	0xbcd4f2b5	-0.025994638
152	0x3c9fbea1	0.019500079
153	0xbb258b99	-0.0025260209
154	0xbd4260a7	-0.047455456
155	0x3cab866a	0.020938117
156	0x3bba817b	0.005691705
157	0xbc03e57a	-0.008050317
158	0x3b5d5b31	0.0033776278
159	0xbbe3acf6	-0.006948109
160	0x3bdcd017	0.0067386734
161	0x3b36fcf5	0.002792177
162	0x3c102743	0.008798423
163	0xbc0fbef7	-0.008773557
164	0xbc0c58e3	-0.008566114
165	0x3bc522c5	0.0060161077
166	0x3c016f18	0.007900022
167	0x3bb2a4ab	0.005451759
168	0x3bc1d964	0.0059158076
169	0xbbf5960f	-0.007494695
170	0x3bd30c04	0.0064406414
171	0xbc09a53d	-0.008401212
172	0x3b0246fa	0.001987873
173	0xbbbefe06	-0.005828622
174	0xbb67a026	-0.0035343259
175	0x3ace844a	0.0015755978
176	0xbb6548c3	-0.0034985996
177	0xbab8893b	-0.0014078984
178	0xbc0a2e73	-0.008433926
179	0xbc0975cf	-0.008389904
180	0x3b61e46c	0.0034468425
181	0xbb76d628	-0.0037664268
182	0xbbb1647b	-0.0054135895
183	0xbb661a33	-0.003511083
184	0xbbee625a	-0.007274908
185	0xbbe9163a	-0.0071132453
186	0x3bae78c1	0.0053244536
187	0x3b943107	0.004522446
188	0x3a9b5b3f	0.0011852755
189	0xbb9f46e2	-0.004860745
190	0x3b420401	0.0029604437
191	0x39d19619	0.00039975418
192	0xbbd0619e	-0.006359293
193	0x3afafa65	0.001914811
194	0x3c04bf3b	0.0081022335
195	0xbc0f660a	-0.008752355
196	0xbc10f880	-0.0088483095
197	0x3a956ef3	0.0011400863
198	0x3bdb9083	0.0067005767
199	0xbbb16bd8	-0.0054144673
200	0x3b005fb3	0.0019588291
201	0x3bccf977	0.0062553245
202	0x3b33cbae	0.0027434635
203	0x3afc66ac	0.0019256673
204	0x3bd8f1cd	0.006620622
205	0x3b67a254	0.0035344558
206	0xbbee200d	-0.0072670043
207	0xbacaa659	-0.0015460952
208	0x3b1606a7	0.0022892149
209	0x3bb83bba	0.0056223543
210	0xbc3627c6	-0.011117881
211	0x3b240816	0.0025029234
212	0xbb9e43e2	-0.0048298696
213	0xbc33fa08	-0.010984905
214	0xb97f94ac	-0.0002437408
215	0xbbe8b3a1	-0.0071014916
216	0x3aa547c6	0.0012609891
217	0xbbbd4e3a	-0.0057771476
218	0xbbdb6b91	-0.0066961725
219	0xba45ecbe	-0.0007550231
220	0xbb43e56d	-0.0029891387
221	0x3baa8879	0.005204257
222	0x3a491d09	0.0007671868
223	0x3be397be	0.0069455793
224	0x3ada91d7	0.0016675544
225	0xbb3b84f9	-0.0028613193
226	0x3bc57ea6	0.0060270606
227	0x39feee6b	0.0004862429
228	0x3adae814	0.0016701245
229	0xbb3b8e22	-0.0028618653
230	0x3805f0d7	3.193397e-05
231	0xbae03ffb	-0.0017108911
232	0xba465002	-0.00075650227
233	0xbbe364f5	-0.0069395253
234	0xb8658655	-5.472296e-05
235	0xbbf20587	-0.007385913
236	0xbafae89f	-0.0019142813
237	0x3ba8fb80	0.0051569343
238	0xbbcabf8e	-0.006187386
239	0xbbc48989	-0.005997841
240	0xbb9425d6	-0.004521112
241	0xbb9d696c	-0.004803827
242	0xba60ee28	-0.000858041
243	0xba7f275b	-0.00097333424
244	0x3b0d1bfc	0.0021531573
245	0xbc09f745	-0.00842077
246	0xbb448da0	-0.0029991642
247	0x3b247c87	0.0025098638
248	0x3bb050ab	0.00538071
249	0xbb453f67	-0.0030097605
250	0xbbf38c20	-0.0074324757
251	0x3955c43c	0.00020386366
252	0x3c69b0b4	0.014263321
253	0xbb8bca26	-0.0042660413
254	0xbb7b27f5	-0.0038323377
255	0xba2dc458	-0.0006628684

conv2.bias f4 [64]
0	0xbd5d2154	-0.053986862
1	0xbd55363a	-0.052053668
2	0xbd54366d	-0.051809717
3	0xbc5fb99b	-0.013655092
4	0x3d161d5f	0.036649104
5	0xbc5b1347	-0.013371295
6	0x3d258cd0	0.040417492
7	0xbd21c06e	-0.039490156
8	0xbcc022e1	-0.023454132
9	0x3d3882ed	0.045046736
10	0xbd081552	-0.033223458
11	0xbcb04111	-0.021515401
12	0xbcee0e07	-0.029059423
13	0x3cb7e7d7	0.022449417
14	0x3d235751	0.039878193
15	0xbd1d022c	-0.03833215
16	0xbd05a30e	-0.032626204
17	0x3cfd692c	0.030933939
18	0xbd81e132	-0.06341781
19	0x3d355e60	0.044279456
20	0x3ce9014b	0.028443
21	0xbccfb395	-0.025354186
22	0x3d4e5915	0.050377924
23	0xbbf34821	-0.00742437
24	0xbd0982ae	-0.03357189
25	0x3d715e24	0.05892767
26	0xbc6821b3	-0.014168191
27	0xbca56587	-0.020190014
28	0x3d967391	0.07346261
29	0xbd7595f1	-0.05995745
30	0x3d715742	0.058921106
31	0xbd2ed8bb	-0.04268716
32	0xbc12662c	-0.0089354925
33	0xbcf666f8	-0.030078396
34	0x3d7366e1	0.059424285
35	0xbd2bf1bb	-0.04197858
36	0x3c4261be	0.011864124
37	0xbd2bb460	-0.041920066
38	0xbc4ff961	-0.012693734
39	0xbd779f26	-0.06045451
40	0x3ceb1f8d	0.028701568
41	0xbbfd22f9	-0.0077251163
42	0xbd18f700	-0.037344933
43	0x3cde1fc4	0.027114756
44	0xbd1510b2	-0.036392875
45	0xbcf4cffb	-0.029884329
46	0x3cfb8b20	0.030705988
47	0xbc826217	-0.015915914
48	0x3d9204c9	0.07129819
49	0xbcbaa4ce	-0.022783663
50	0x3d1c4b3e	0.038157694
51	0xbc35f0da	-0.011104787
52	0xbcc40278	-0.023926958
53	0x3c940b27	0.018071724
54	0xbd1feafe	-0.039042465
55	0x3ceb2824	0.028705664
56	0x3cb4b965	0.02206106
57	0x3d2a0e81	0.04151774
58	0xbc88c661	-0.016696157
59	0xbc6d9220	-0.014500171
60	0x3ceec023	0.029144352
61	0x3ca33f51	0.019927653
62	0x3cb37fd5	0.021911541
63	0x3cb32ddf	0.021872459

conv2.lin.weight f4 [64, 64]
0	0x3ba9b003	0.005178453
1	0x3aad2f6f	0.0013212989
2	0x39d22817	0.0004008419
3	0x3ab92ab8	0.0014127111
4	0xbb99a433	-0.0046887635
5	0xbab014d9	-0.0013433947
6	0xbaba49bc	-0.0014212648
7	0xbb8e2bd0	-0.004338719
8	0xb99f63cc	-0.00030401198
9	0xbb86c6bd	-0.004113047
10	0x3976f015	0.00023549826
11	0xbad1af39	-0.0015997655
12	0xbb65a967	-0.0035043599
13	0x3bd61d42	0.0065342495
14	0x3b5d7c53	0.0033796027
15	0x3ba26eba	0.0049570473
16	0xbbbf407a	-0.0058365436
17	0xbbe0db89	-0.006862108
18	0x3ba71546	0.0050989715
19	0xba9dd067	-0.0012040258
20	0x3aa26289	0.0012388985
21	0x3b69ac41	0.003565565
22	0x395a929a	0.00020844713
23	0x398823b5	0.00025966545
24	0x3b858050	0.004074134
25	0x3bb37d2e	0.005477569
26	0xbafa7229	-0.0019107509
27	0xbbbfd18c	-0.0058538374
28	0xbb766532	-0.0037596938
29	0x3ba08ee6	0.0048998473
30	0xba92e27e	-0.0011206416
31	0x3bc06015	0.005870829
32	0xbb1d305c	-0.0023985123
33	0xbbd4e264	-0.0064967144
34	0x3b0b8b0f	0.0021292602
35	0xbc40c7a8	-0.011766352
36	0xbb865303	-0.0040992512
37	0x3b8c126b	0.0042746565
38	0xba1269cb	-0.00055852224
39	0xba197ad3	-0.0005854789
40	0xba92dc4a	-0.0011204567
41	0x3bc3b8e1	0.005972967
42	0xbbb78aa6	-0.005601245
43	0xbb906945	-0.0044070804
44	0xbb5e340a	-0.003390553
45	0xbbae713e	-0.005323558
46	0xbb6c3523	-0.0036042414
47	0x3b97940b	0.0046258024
48	0xbb957f60	-0.0045623034
49	0x3baf3b49	0.0053476435
50	0x3b2102dc	0.0024568355
51	0x399c22df	0.0002978062
52	0x3a99b8db	0.0011728065
53	0x3abdb09a	0.0014472187
54	0x3af318ac	0.0018546782
55	0xbb70b27d	-0.003672748
56	0xb8fa1541	-0.00011924888
57	0x3b950b8d	0.004548496
58	0x3bbbd2be	0.0057319095
59	0xba0e1d1c	-0.0005421208
60	0xbbc2fbd3	-0.00595043
61	0x3b4e8307	0.0031511204
62	0xbbcd90bf	-0.0062733586
63	0x3bc8424e	0.0061114198
64	0x3b8a16d2	0.004214146
65	0x3babb8e4	0.0052405465
66	0x3a758484	0.00093657547
67	0x3ba352c0	0.00498423
68	0xbaeb2f0d	-0.0017943099
69	0xbbbb65b1	-0.0057189097
70	0xbb514249	-0.0031930378
71	0x3ba730a3	0.0051022335
72	0xbb609402	-0.0034267907
73	0xbb088eb5	-0.0020837013
74	0x3b185adf	0.0023247523
75	0xbb6baf55	-0.003596266
76	0x3a56228e	0.0008168601
77	0xbb8e9ad4	-0.004351953
78	0x3abde20f	0.0014486926
79	0xba92b693	-0.0011193327
80	0x3a6d26c8	0.00090466114
81	0x3bae54d9	0.005320173
82	0xbb90aab9	-0.004414883
83	0xbb193458	-0.0023377147
84	0xbb36018f	-0.0027771925
85	0x3be75903	0.0070601716
86	0xba502c19	-0.00079411414
87	0x3b80f1f4	0.003935093
88	0x3acf68c8	0.0015824074
89	0xbbdda907	-0.0067645344
90	0xbb9f8036	-0.004867579
91	0xbae6f722	-0.0017621259
92	0xbbac3cec	-0.005256286
93	0x3b6e448a	0.003635677
94	0x3b9804c1	0.0046392386
95	0xb75307af	-1.2578369e-05
96	0x3a5c15fc	0.000839561
97	0x3aecd443	0.001806863
98	0x3b1573d3	0.0022804632
99	0xbccd201d	-0.025039727
100	0xbb30cf83	-0.0026979155
101	0xbb8aec1c	-0.004239572
102	0x3a9a4f31	0.0011772868
103	0x3bb1a94e	0.005421794
104	0x3a66e6e3	0.00088082085
105	0x3bc15252	0.005899706
106	0x3b1d2d3e	0.0023983265
107	0xbb1401e3	-0.0022584132
108	0x3b2e8998	0.0026632305
109	0x3b33fd1c	0.0027464097
110	0xbb47fc86	-0.0030515506
111	0xba9d8683	-0.0012018237
112	0xba3aaa41	-0.0007120707
113	0x3b7de491	0.0038740973
114	0x3bcfa4b5	0.0063367733
115	0xbac5a6c7	-0.0015079611
116	0x3b921953	0.0044585853
117	0x3b72498a	0.0036970102
118	0xbb8f1fd7	-0.0043678093
119	0x3be2a05e	0.00691609
120	0xb9919957	-0.00027770802
121	0x3bad6a8a	0.0052922415
122	0x3bc8cc10	0.006127842
123	0xbba67af6	-0.005080576
124	0xbb8e1524	-0.0043360163
125	0xba4c9935	-0.0007804812
126	0x3b1064ea	0.0022032806
127	0xba8f0731	-0.0010912177
128	0xbbd84c6d	-0.0066009075
129	0x3b17cf6a	0.00231644
130	0xbb8079a6	-0.0039207516
131	0x3b4bfe79	0.003112702
132	0x3b4ff9b7	0.0031734535
133	0xbb178f86	-0.0023126318
134	0x3b20b260	0.0024520382
135	0x3a6f03e6	0.00091177074
136	0xbb0d115d	-0.0021525242
137	0x3b6d1096	0.0036173216
138	0x3a90ab7b	0.0011037433
139	0x3af50d5e	0.0018696
140	0xbbb0d1a3	-0.0053960844
141	0x3ba7eef2	0.00512492
142	0xbb548669	-0.0032428748
143	0xbbc18a83	-0.0059064045
144	0xbb424025	-0.0029640284
145	0xbbf6c2c9	-0.0075305444
146	0x3afba2e9	0.0019198331
147	0x39f200f6	0.00046158553
148	0xbafd5e4a	-0.0019330468
149	0xbbcc6967	-0.006238151
150	0x3b040e69	0.002015019
151	0xb9e4e6da	-0.00043659547
152	0xbae18d44	-0.0017208238
153	0x3a9f3996	0.0012147899
154	0x3b1e7b2e	0.0024182308
155	0xbb86fbca	-0.004119371
156	0xbb016bf9	-0.0019748195
157	0xbb4c0ef7	-0.003113685
158	0x3b8af2fb	0.0042403913
159	0x3ade37e5	0.0016953914
160	0xbba98f38	-0.0051745437
161	0x3b9eac19	0.004842293
162	0xba8eb396	-0.0010887261
163	0x3c98f2f9	0.018670546
164	0x3a688f11	0.0008871416
165	0xba51ebe4	-0.0008007868
166	0x3b9bc08e	0.004753179
167	0x3b42a520	0.0029700473
168	0x34099bee	1.2815846e-07
169	0xbb235db1	-0.002492767
170	0x3aced7e6	0.0015780895
171	0xbbcb0c68	-0.0061965473
172	0xbb1b5bbf	-0.0023705808
173	0x3b63d749	0.003476577
174	0xbbdd2033	-0.006748223
175	0xb934e049	-0.0001724969
176	0xbb259d39	-0.0025270714
177	0x3af43d3e	0.0018633974
178	0xbbbeb4a9	-0.005819876
179	0x3a9b8d6a	0.0011867706
180	0xbb018b65	-0.0019766924
181	0x3bbc7d07	0.005752209
182	0xbb2d691a	-0.002646035
183	0xbb4b6230	-0.0031033866
184	0xbb0b99f8	-0.002130149
185	0x3b9e6308	0.004833583
186	0x3a7838a3	0.0009468889
187	0xb906de58	-0.00012862065
188	0x3b1fbd31	0.0024374241
189	0x3b2d860c	0.0026477603
190	0xba66737a	-0.0008791011
191	0xbb6dfe48	-0.0036314894
192	0xbbd70121	-0.006561414
193	0x3b8e47ad	0.0043420405
194	0x3baf36ec	0.0053471234
195	0xbb2bbdf2	-0.0026205746
196	0xbb4047dd	-0.002933971
197	0x3a9af2fd	0.0011821684
198	0xba3b2f4a	-0.00071405305
199	0x3bac8260	0.0052645653
200	0xb8f8ebe2	-0.00011869498
201	0xbb3979cf	-0.0028301363
202	0xbb938b31	-0.004502677
203	0x3b058a48	0.0020376612
204	0xb920641b	-0.00015296081
205	0x3ad403f6	0.0016175497
206	0x3b895c8e	0.0041919416
207	0x3b3f2a04	0.002916933
208	0x375b1b82	1.3059822e-05
209	0x3a39283c	0.00070631853
210	0xbb62f5e1	-0.0034631419
211	0x3bcae391	0.006191679
212	0x3bf9ac07	0.007619384
213	0x3aab043f	0.001304753
214	0x3c0d8b9b	0.008639242
215	0x3be53985	0.0069953823
216	0x3b812acf	0.0039418708
217	0x3b66fc02	0.0035245423
218	0x3b31e5ba	0.0027144984
219	0xba9da603	-0.0012027625
220	0x3a329e35	0.0006813736
221	0x3bb6c8c9	0.0055781347
222	0xba213f4b	-0.0006151094
223	0x3b0c3c80	0.0021398365
224	0xbb11048f	-0.0022127961
225	0x3a937b5c	0.0011251974
226	0x3b827cdf	0.003982171
227	0x3c2358c3	0.009969893
228	0x3b5be023	0.0033550344
229	0x3b55d12f	0.0032625904
230	0xba5f0651	-0.0008507716
231	0x3bcc964c	0.0062435027
232	0x3abf9a69	0.0014618161
233	0x3bd4b1df	0.0064909304
234	0xbbb5a89b	-0.005543781
235	0xbb450932	-0.0030065295
236	0xbbba8f26	-0.005693334
237	0x3a1f38a9	0.00060738117
238	0x3babac36	0.005239035
239	0xbb998ee7	-0.0046862247
240	0x3aeb337f	0.0017944424
241	0x3ac1574a	0.0014750746
242	0xbbb5455f	-0.0055319513
243	0xb98d29da	-0.00026924798
244	0xba530936	-0.0008050384
245	0xbb59f0a7	-0.0033255012
246	0xbb20c526	-0.0024531572
247	0x3b0ce533	0.0021498918
248	0xba387346	-0.000703622
249	0xbab21df0	-0.0013589244
250	0xbacf2c61	-0.0015806073
251	0x3a393126	0.00070645136
252	0xba5ed54d	-0.0008500412
253	0xbb86992a	-0.004107614
254	0x3b3fb81e	0.002925403
255	0xb8d49262	-0.00010136214

fc1.weight f4 [128, 74]
0	0xbd8a28c1	-0.067460544
1	0x3d1f17bd	0.038840998
2	0x3d195ae8	0.03744021
3	0x3db33fcf	0.08752405
4	0x3d78ce89	0.060743842
5	0xbdba98e1	-0.091111906
6	0x3cde2455	0.027116934
7	0x3db5fb7f	0.0888586
8	0xbd951be6	-0.07280712
9	0x3d975588	0.07389361
10	0x3e1257c8	0.14291298
11	0x3e76c47b	0.24098389
12	0x3bb8be98	0.005637955
13	0xbef9627b	-0.48707947
14	0x3cb2b50c	0.021814846
15	0x3ddca140	0.107729435
16	0x3e412508	0.18861783
17	0x3d882009	0.06646735
18	0x3e2de0f2	0.16980341
19	0x3d3fa02c	0.04678361
20	0xbd63c7e9	-0.05561057
21	0x3c7da0d1	0.015480236
22	0xbe4a77a8	-0.19772208
23	0x3e429eef	0.19005941
24	0x3e271e1a	0.16320077
25	0x3d5e7d3b	0.054318648
26	0x3e545141	0.20734121
27	0xbcb5bc3b	-0.022184482
28	0xbe9bd59e	-0.30436414
29	0xbdeefbb4	-0.11669102
30	0xbe68304b	-0.22674672
31	0xbd3390d3	-0.043839287
32	0x3d72bfa0	0.05926478
33	0x3db32e01	0.08749009
34	0xbeb9c90a	-0.36286193
35	0x3d44fbb9	0.048091624
36	0xbcce66fa	-0.025195587
37	0xbdc2b7a3	-0.09507682
38	0xbde10c7c	-0.10988709
39	0xbcadb115	-0.021202603
40	0x3de6c483	0.112679504
41	0x3e438ad3	0.19095926
42	0xbcc9a86a	-0.024616439
43	0xbea2f1fb	-0.3182524
44	0xbd9f280c	-0.0777131
45	0x3e0cc41e	0.13746688
46	0xbdf9907d	-0.12185762
47	0x3d19826d	0.0374779
48	0xbea93ca6	-0.33054084
49	0x3d881c43	0.066460155
50	0xbdc88d0c	-0.097925276
51	0x3d40b707	0.04704955
52	0xbbb47183	-0.0055066957
53	0x3e179938	0.14804542
54	0x3dbb70ec	0.091523975
55	0x3d5a0805	0.053230304
56	0x3e0319ed	0.12802859
57	0xbd8d07cb	-0.06886252
58	0xbc5dc5e7	-0.013535953
59	0x3bb6d66b	0.00557976
60	0xbe5f3d67	-0.21800767
61	0xbe40941d	-0.188065
62	0x3dacab78	0.084311426
63	0x3d5186d2	0.051153965
64	0xbf61f442	-0.8826333
65	0x3b32ad0c	0.0027263789
66	0xbee73975	-0.45161024
67	0x401b3a91	2.4254496
68	0xbd27f05b	-0.041000705
69	0x3e200c4f	0.15629695
70	0xba3c1e37	-0.0007176133
71	0x3f74dc5e	0.95648754
72	0xbc98f203	-0.018670088
73	0xbca8884e	-0.020572808
74	0x3e3b823b	0.18311398
75	0x3ea3f975	0.32026258
76	0x3e616ed4	0.22014934
77	0x3de76de0	0.11300254
78	0x3e07f414	0.13276702
79	0x3e4a90e4	0.19781834
80	0xbe121070	-0.14264083
81	0x3df77369	0.120825596
82	0x3ea135cb	0.31486353
83	0xbe56c499	-0.20973434
84	0x3e8fbd6c	0.28074205
85	0xbd8092dd	-0.06278012
86	0x3bccbdcf	0.006248213
87	0xbe421269	-0.18952335
88	0x3c3f7e76	0.0116878655
89	0x3dd4f907	0.10399061
90	0x3dbca89d	0.09211848
91	0xbe6c6851	-0.23086669
92	0xbe2e4f39	-0.17022409
93	0xbe5395fc	-0.20662683
94	0x3c744f94	0.014911551
95	0x3d5e6760	0.054297805
96	0xbeec3799	-0.46136168
97	0x3e28b0b1	0.16473652
98	0xbcaa1d02	-0.020765785
99	0xbe0e5605	-0.13900001
100	0xbd8df347	-0.06931167
101	0x3e7aa829	0.2447821
102	0xbddadbef	-0.1068648
103	0x3eb091ea	0.34486324
104	0xbe4ff81e	-0.20309493
105	0xbb8eadfa	-0.0043542357
106	0xbbebf78b	-0.0072011403
107	0x3e20d1c3	0.15705018
108	0xbe944f50	-0.2896676
109	0xbdbc32d9	-0.09189386
110	0xbca17d79	-0.01971315
111	0x3d27ad16	0.040936552
112	0x3dd2cf5a	0.102934554
113	0xbe6cf1e1	-0.23139144
114	0x3d3f8b79	0.04676387
115	0x3db14311	0.0865537
116	0x3e05ff7c	0.13085741
117	0xbe1f2a31	-0.15543438
118	0xbd7515d5	-0.059835274
119	0x3cbbbd3d	0.022917384
120	0x3d2b952b	0.041890305
121	0x3e921a77	0.28535816
122	0xbea4b355	-0.3216807
123	0xbdc8125d	-0.097691275
124	0x3d07b270	0.033129156
125	0x3e26a088	0.16272175
126	0x3e679d30	0.22618556
127	0xbe9fadef	-0.31187388
128	0x3e244b85	0.16044433
129	0xbcce7e07	-0.025206579
130	0xbdc339d2	-0.09532513
131	0xbe95d0d6	-0.29260892
132	0x3c4038a3	0.011732253
133	0x3e1501a2	0.14551404
134	0x3d8c3ddf	0.068477385
135	0xbe08097c	-0.13284868
136	0xbdb03558	-0.086039245
137	0xbda87ae6	-0.08226566
138	0xbe9a64aa	-0.30154926
139	0x3b1ee0fd	0.002424299
140	0x3d68ea69	0.056864176
141	0x3e1f0956	0.15530905
142	0x3df25896	0.11833303
143	0xbef71c25	-0.4826366
144	0xbd3fcdab	-0.046827
145	0xbfc07b83	-1.5037693
146	0xbbeaceca	-0.0071657645
147	0xbcaf899d	-0.021427924
148	0x3e55e42c	0.20887822
149	0x3e5cb10b	0.21551912
150	0xbe292027	-0.16516171
151	0xbe0415d5	-0.12898953
152	0xbe7e1b78	-0.24815166
153	0x3e7e6da3	0.2484651
154	0xbe4305c6	-0.19045171
155	0x3e4d1ee7	0.2003132
156	0x3e51b544	0.20479304
157	0xbdddda9d	-0.10832713
158	0x3e048210	0.1294024
159	0x3ec23263	0.37929067
160	0xbee2caa7	-0.44295236
161	0xbef2bf0e	-0.47411388
162	0xbe595b5c	-0.21226257
163	0x3eae7e79	0.34080866
164	0x3e38eed0	0.1805985
165	0xbe58579f	-0.21127175
166	0x3ed08a62	0.40730578
167	0xbe4320ed	-0.19055529
168	0x3c6ab3ef	0.014325126
169	0x3d97129c	0.07376596
170	0xbda346ef	-0.07972514
171	0xbeec02ea	-0.46095973
172	0x3e34b93f	0.17648791
173	0xbeab2ded	-0.33433476
174	0x3e0fd965	0.14047773
175	0x3ec86d48	0.39145875
176	0xbecaa5e6	-0.39579695
177	0x3e1c3566	0.15254745
178	0xbe293948	-0.16525757
179	0x3e7f6179	0.24939527
180	0xbbb11375	-0.005403931
181	0x3cbc03d2	0.02295104
182	0xbea9fac9	-0.33199146
183	0x3eee571e	0.4655084
184	0xbecac5e1	-0.39604095
185	0x3ebeeed5	0.3729159
186	0x3db87eb5	0.090085424
187	0x3df288c4	0.11842492
188	0xbebac33b	-0.36477074
189	0x3ec03cae	0.37546295
190	0x3ea63c2f	0.3246779
191	0x3e50a4f0	0.20375419
192	0x3e8f8ca9	0.28037003
193	0x3ea9ca5b	0.33162197
194	0xbe45df76	-0.19323525
195	0x3e9335f9	0.28752115
196	0xbe690c1c	-0.22758526
197	0xbe91147c	-0.2833594
198	0xbea6e248	-0.32594514
199	0x3e1f4dcc	0.15557021
200	0xbe809485	-0.2511331
201	0xbe2cc2a6	-0.16871127
202	0xbd422339	-0.047396872
203	0xbeb80487	-0.35940954
204	0xbed44bb1	-0.41463998
205	0x3db683bc	0.08911845
206	0x3e5f2394	0.21790916
207	0x3ef580ad	0.47949734
208	0x3e865768	0.2623856
209	0x3e8b0af4	0.27156794
210	0xbe4c8f93	-0.19976644
211	0x3ec81f4a	0.39086372
212	0xbf35f183	-0.7107164
213	0xba528bc4	-0.0008031691
214	0xbf5875c8	-0.8455472
215	0x402a0fb6	2.657209
216	0xbdd9e2a6	-0.10638933
217	0xbcf149fb	-0.029454222
218	0xbd1cdf64	-0.03829898
219	0x3f1f1777	0.6214518
220	0xbd1a26d2	-0.03763468
221	0xbd999d66	-0.075007245
222	0xbc4fa890	-0.012674466
223	0xbe26b589	-0.16280188
224	0xbe188d69	-0.14897694
225	0xbe36fc2a	-0.1786963
226	0xbe4a0f96	-0.19732508
227	0x3e33c54c	0.17555732
228	0x3d7478fb	0.05968569
229	0xbe3598be	-0.17734048
230	0xbb756071	-0.0037441517
231	0xbdb07313	-0.08615699
232	0xbe6824c0	-0.22670269
233	0x3e7d05d9	0.24709262
234	0xbe5f968c	-0.21834773
235	0x3e3c2cc4	0.18376452
236	0xbd68b99d	-0.05681764
237	0x3dad58d2	0.08464207
238	0xbe2961b7	-0.16541182
239	0xbdff856c	-0.1247662
240	0x3ea3d3af	0.3199744
241	0x3df873cc	0.121314615
242	0x3b8be8f5	0.004269714
243	0x3e442bae	0.19157287
244	0x3e9310bf	0.28723714
245	0xbe62b04c	-0.22137564
246	0x3dc5fe6a	0.09667666
247	0xbdd2a835	-0.10285989
248	0x3e43eea1	0.19133998
249	0x3e28c468	0.16481173
250	0xbe2b9887	-0.16757403
251	0x3dd8e550	0.10590613
252	0x3e3749ad	0.17899199
253	0x3e3cad2f	0.1842544
254	0x3c34cec5	0.011035626
255	0xbe817ec7	-0.25292036

fc1.bias f4 [128]
0	0xba798277	-0.0009518037
1	0xbd388197	-0.04504546
2	0xbd051af1	-0.032496396
3	0xbcae5465	-0.021280477
4	0xbc33ea5b	-0.010981168
5	0xbd3112e4	-0.043230906
6	0xbc527397	-0.012844942
7	0x3c74b951	0.014936761
8	0xbd63f664	-0.0556549
9	0xbcf6f4a4	-0.03014595
10	0xbd064e0d	-0.03278928
11	0xbb4959d8	-0.0030723717
12	0xbdac86d3	-0.08424153
13	0xbc83b7e8	-0.016078904
14	0x3c766aa6	0.015040075
15	0xbd6c42a5	-0.057680745
16	0x3d20cd46	0.039258264
17	0xbdd81a74	-0.105519205
18	0x3ccb7617	0.024836583
19	0x3cb05063	0.021522706
20	0xbd410709	-0.04712585
21	0xbcccfe7c	-0.025023691
22	0x3d214eb0	0.039381683
23	0x3c08c38c	0.008347403
24	0x3cdc0d52	0.02686182
25	0xbc3d07d7	-0.011537514
26	0xbbfa64f4	-0.007641429
27	0x3cf37ff2	0.029724095
28	0xbd0b6add	-0.03403746
29	0x3ac88a97	0.0015300092
30	0xbeb5489c	-0.3540696
31	0x3d301e64	0.042997733
32	0xbc4d4825	-0.012529408
33	0x3d176a98	0.03696689
34	0xbc398503	-0.011323216
35	0xbe5339d2	-0.20627525
36	0xbc422c27	-0.011851347
37	0xbb804cda	-0.0039154114
38	0xbca89bc8	-0.020582095
39	0xbd6a3a4e	-0.05718451
40	0xbc1e44dd	-0.009659973
41	0xbdb42ee9	-0.0879801
42	0xbc88345b	-0.016626528
43	0x3c6d93bd	0.014500556
44	0x3c4f0aa9	0.012636819
45	0x3d3b3b62	0.04571093
46	0xbca53e73	-0.02017138
47	0xbd14cc23	-0.036327492
48	0xbd1b16d7	-0.03786358
49	0xbd45ac6a	-0.04826013
50	0x3c37bd23	0.011214527
51	0xbbd0ab60	-0.0063680857
52	0xbc43c289	-0.011948236
53	0xbcaadb49	-0.020856516
54	0xbc1e446d	-0.009659869
55	0xbb4e67e1	-0.0031495022
56	0xbd84533c	-0.06461188
57	0x3bf905e3	0.0075995787
58	0x3c0a4aa3	0.008440646
59	0xbc7e8026	-0.015533483
60	0x3cc9ddba	0.02464186
61	0xbc24c773	-0.010057318
62	0xbd1bf01c	-0.038070783
63	0xbdc71976	-0.09721653
64	0xbd02e5f5	-0.031957585
65	0x3c45ced2	0.012073236
66	0xbd0b8b83	-0.034068596
67	0xbcc5ba28	-0.024136618
68	0xbca62b52	-0.020284329
69	0x3d7ec15d	0.062196124
70	0xbd26df53	-0.040740322
71	0x3ce24324	0.027619906
72	0xbc5031cd	-0.012707186
73	0x3bb76097	0.005596231
74	0x3cbd88fc	0.023136608
75	0xbc92f66a	-0.017939765
76	0xbd62cbbf	-0.05537009
77	0xbd074813	-0.03302772
78	0x3c8ca5e9	0.017168956
79	0x3b26d179	0.0025454445
80	0xbc94f782	-0.018184427
81	0x3e3af6d0	0.18258214
82	0x3d633368	0.055468947
83	0xbcafbbc6	-0.021451842
84	0x3cb7fe02	0.022459988
85	0xbd2e1399	-0.04249916
86	0x3dba7c06	0.09105687
87	0xbd35d3b6	-0.044391356
88	0xbe1b175f	-0.15145634
89	0xbd3f95fd	-0.0467739
90	0x3cd46f2b	0.025931915
91	0x3c56fae6	0.013121342
92	0xbd084ffc	-0.033279404
93	0x3cbfa612	0.023394618
94	0x3d0c42cc	0.03424339
95	0xbd8d0935	-0.06886522
96	0x3aa88acc	0.0012858748
97	0x3bc0ea08	0.0058872737
98	0xbd0e4a41	-0.034738783
99	0xbca49571	-0.02009079
100	0xbcd87097	-0.026420875
101	0xbcd107ad	-0.025516355
102	0xbd5361e2	-0.05160702
103	0xbdc0c159	-0.09411878
104	0xbd3d49cb	-0.046212953
105	0xbd58894e	-0.05286532
106	0xbd1ae72f	-0.03781813
107	0xbd73eece	-0.059553914
108	0xbcff59f2	-0.031170819
109	0xbe921a5b	-0.28535733
110	0xbd34ddd2	-0.044156857
111	0x3ced4da8	0.028967693
112	0x3c5d866a	0.013520816
113	0x3baf5839	0.005351093
114	0x3ce6fa81	0.028195621
115	0xbdc4092c	-0.09572062
116	0x3cd3bde3	0.025847381
117	0xbe758753	-0.23977403
118	0xbd0ce694	-0.034399584
119	0xbe1079bf	-0.14108942
120	0x3d155db8	0.03646633
121	0xbd3aa8a5	-0.04557099
122	0x3bc6be2f	0.006065152
123	0x3b84a36d	0.004047802
124	0x3d321e7e	0.04348611
125	0xbdccbcbb	-0.09996935
126	0x3cf8e318	0.030381724
127	0x3c6fb7e4	0.014631245

fc2.weight f4 [64, 128]
0	0xbe5eca7e	-0.21756932
1	0x3e88b5d2	0.26701218
2	0xbdf457a7	-0.11930781
3	0xbea4f29f	-0.32216355
4	0xbbf14ee8	-0.0073641427
5	0xbc4c41e0	-0.012466878
6	0xbdda2371	-0.10651291
7	0x3d3d29f3	0.046182584
8	0x3e6cffef	0.23144506
9	0x3e7e4a1e	0.24832961
10	0x3d44559d	0.04793321
11	0x3e110367	0.14161454
12	0x3bbbf440	0.005735904
13	0xbc9f157e	-0.019419428
14	0x3ea929fb	0.3303984
15	0xbbb22039	-0.00543597
16	0x3ccb9a46	0.024853837
17	0x3e1a82eb	0.15089004
18	0x3e14f94c	0.14548224
19	0x3d759fe6	0.059966944
20	0x3eac776e	0.33684868
21	0xbdc117fc	-0.09428403
22	0xbdd37341	-0.10324717
23	0x3d8ee18a	0.06976612
24	0xbe2c6a30	-0.16837382
25	0xbd5419ad	-0.0517823
26	0x3ec38ab2	0.38191754
27	0x3e04702f	0.1293342
28	0x3d8c1172	0.06839265
29	0x3d4d0a86	0.050058864
30	0xbd2730cc	-0.04081802
31	0x3c7ab0c1	0.0153009305
32	0xbc319b45	-0.010840242
33	0x3d99b04e	0.075043306
34	0xbd87d472	-0.066323176
35	0xbd1b926b	-0.037981432
36	0xbd460c93	-0.048351835
37	0xbccd26ac	-0.025042854
38	0x3dd57f88	0.10424715
39	0x3e84c7c0	0.25933647
40	0xbd771b71	-0.060328905
41	0xbe4594dd	-0.19295068
42	0x3d9a117c	0.07522866
43	0x3c856515	0.016283551
44	0x3df791b4	0.120883375
45	0x3d8a71a4	0.067599565
46	0x3ea38d69	0.31943825
47	0x3e10c8fc	0.1413917
48	0x3e5fcd97	0.2185577
49	0xbe042d22	-0.12907842
50	0x3de30a86	0.110859916
51	0x3eab1c96	0.33420247
52	0x3d263697	0.040579405
53	0x3e8a9c6b	0.27072462
54	0x3e0ae333	0.13563232
55	0xbdc34b0b	-0.09535798
56	0xbd669016	-0.056289755
57	0x3e7ea47b	0.24867432
58	0x3e5b10d5	0.2139314
59	0xbe49bd0e	-0.19701025
60	0x3df0bc10	0.1175462
61	0xbefd4763	-0.49468526
62	0x3e69e969	0.22842945
63	0xbe45ed9d	-0.19328924
64	0x3e050d74	0.12993413
65	0xbe01ca59	-0.12674846
66	0x3d1588e8	0.036507517
67	0x3dfff47a	0.12497802
68	0xbf0fd91b	-0.5619065
69	0x3cd0256f	0.025408475
70	0x3e82afa2	0.25524622
71	0xbc96bb39	-0.018399822
72	0xbe08262e	-0.13295814
73	0x3c5cafd7	0.013469658
74	0xbd3c61b8	-0.04599163
75	0xbd885443	-0.06656697
76	0x3cac3bf6	0.021024685
77	0x3e65cc1e	0.22441146
78	0xbda1805b	-0.0788581
79	0xbdd11466	-0.10208969
80	0x3e35c1d4	0.17749721
81	0x3d91df52	0.07122673
82	0x3e47f83f	0.19528292
83	0xbe1d1623	-0.15340476
84	0xbcbab941	-0.022793414
85	0xbdb81930	-0.08989179
86	0x3d72effc	0.0593109
87	0xbd5baf37	-0.053633895
88	0x3e19a4b1	0.15004231
89	0xbde0547d	-0.10953615
90	0xbd9e34fd	-0.077249505
91	0x3e1ec1c6	0.15503606
92	0xbd610207	-0.054933574
93	0x3e183b4b	0.14866368
94	0xbe4864fc	-0.19569772
95	0x3d14617c	0.03622578
96	0x3d442b93	0.047893118
97	0x3e67c1a3	0.2263246
98	0xbe86e4a1	-0.26346305
99	0xbe2d831d	-0.16944547
100	0xbc69c356	-0.014267763
101	0x3e3cda75	0.1844271
102	0xbd5fb810	-0.054618895
103	0x3c9bdbce	0.01902571
104	0x3e05ac1b	0.13053934
105	0xbde86390	-0.11347115
106	0x3cafaa41	0.021443488
107	0xbe74d3d0	-0.23908925
108	0xbe193f7a	-0.1496562
109	0xbe772960	-0.24136877
110	0x3cb47e3e	0.022032853
111	0xbcf44c50	-0.029821545
112	0x3dbc4244	0.09192327
113	0xbe866e1d	-0.26255885
114	0xbe9e1b67	-0.3088028
115	0x3cd4dd12	0.02598432
116	0x3f0d349c	0.551584
117	0x3e83860f	0.25688216
118	0xbea77ff4	-0.32714808
119	0x3df781d5	0.1208531
120	0xbcb73b53	-0.022367155
121	0x3ebeb49a	0.37247163
122	0xbdcb96a6	-0.09940843
123	0xbd02bf47	-0.031920698
124	0x3e046c11	0.12931849
125	0xbdb198e3	-0.08671739
126	0xbe467052	-0.19378784
127	0xbdee02a6	-0.11621599
128	0x3cb4c10d	0.02206471
129	0xbabcd6ab	-0.0014407238
130	0xbd121d2b	-0.035672348
131	0x3cf5b200	0.029992104
132	0xbc4d7058	-0.012538992
133	0x3c213281	0.009838701
134	0x3b173e4a	0.0023077899
135	0x3aa60e58	0.001266907
136	0x3d7bf712	0.06151492
137	0xbb613543	-0.0034364022
138	0x3c9a27f2	0.018817876
139	0x3b856efc	0.0040720683
140	0x3e213b69	0.1574532
141	0xbc35449f	-0.011063724
142	0xbd0c7a83	-0.034296524
143	0xbd5c8b07	-0.053843524
144	0x3cc963b3	0.024583673
145	0x3e0f41e4	0.13989979
146	0xbaabc71f	-0.0013105607
147	0x3d46cd5e	0.048535697
148	0x3d977fa4	0.073973924
149	0xbc2d45cc	-0.010575723
150	0x3ccc9bd5	0.02497665
151	0xbbf9f08c	-0.0076275524
152	0xbd3e8ed0	-0.046522915
153	0xbd22322d	-0.039598633
154	0x3cadc799	0.02121334
155	0x3b9347ee	0.0044946587
156	0x3d1c40b1	0.038147632
157	0x3d35aeeb	0.044356268
158	0xbfc78e6c	-1.5590339
159	0x3db02e2c	0.086025566
160	0xbc130db5	-0.008975436
161	0xbd082164	-0.03323497
162	0x3c3c239f	0.011483102
163	0x3e0b24e4	0.13588291
164	0xbd7561e2	-0.0599078
165	0xbc64b5b0	-0.013959333
166	0x3c4bd5d2	0.012441115
167	0xbee7679d	-0.45196238
168	0x3c0a3917	0.008436463
169	0x3cd472c5	0.025933633
170	0x3cfaaf91	0.030601295
171	0x3a864fbd	0.0010247153
172	0x3c571027	0.01312641
173	0xc0152305	-2.3302624
174	0xbd0dc43b	-0.034610968
175	0xbc187872	-0.00930606
176	0x3d1ce292	0.03830201
177	0x3d93416e	0.07190214
178	0x3d1f3216	0.038866125
179	0xbaffa844	-0.0019505103
180	0x3d437421	0.04771817
181	0xbc858026	-0.016296457
182	0xbc73fe75	-0.01489221
183	0x3c934f3e	0.017982122
184	0x3de3bcdc	0.111200064
185	0x3c1238dd	0.00892469
186	0xbc0dc07c	-0.008651849
187	0x3d89fca2	0.06737639
188	0x3ca2be25	0.019866059
189	0x3ca2e7f3	0.019885993
190	0x3c1ac467	0.00944624
191	0xbd087ab2	-0.033320136
192	0xb9ae6a8c	-0.0003326725
193	0xbcd7fcd1	-0.02636567
194	0x3d4b85c2	0.04968811
195	0x3dc3b965	0.095568456
196	0xbd35928b	-0.044329207
197	0x3c65887f	0.014009594
198	0xbbcc84c2	-0.006241412
199	0x3c9632bc	0.018334739
200	0x3c946ce9	0.018118339
201	0x3cbfda6a	0.023419578
202	0x3d0ca35e	0.034335487
203	0x3d2b229f	0.041781064
204	0xbd2ad106	-0.041703247
205	0x3cdf04c1	0.027223947
206	0x3ca4be63	0.020110315
207	0x3d2e89fa	0.042612053
208	0x3caceb2a	0.021108229
209	0xbeac5f31	-0.33666375
210	0xbd1d76a1	-0.03844321
211	0x3d8fa255	0.07013384
212	0x3c298b95	0.01034822
213	0x3d172f84	0.03691055
214	0xbe05b704	-0.13058096
215	0x3be6c700	0.0070427656
216	0xbc547abb	-0.012968714
217	0xbd0b9301	-0.03407574
218	0x3be3c6dd	0.0069511966
219	0x3ba762e9	0.0051082266
220	0xbcf4767e	-0.029841658
221	0x3cd5119d	0.026009375
222	0x3ce6c7a2	0.028171364
223	0xbd20753b	-0.0391743
224	0x3d0de2df	0.03464019
225	0xbbb7e160	-0.0056115836
226	0xbce66acc	-0.028127097
227	0x3d1f47ad	0.038886715
228	0x3d9b522d	0.07584033
229	0x3d2c4706	0.04205992
230	0xbca3bc52	-0.019987259
231	0xbd7fb98c	-0.06243281
232	0x3c5a03a7	0.013306535
233	0x3c9808c4	0.018558867
234	0x3d0a94ad	0.033833195
235	0x3d53a141	0.051667456
236	0x3cdc3755	0.026881853
237	0x3f57cd3c	0.8429754
238	0xbca485ee	-0.020083394
239	0x3b17de52	0.0023173285
240	0x3cb8d865	0.022564122
241	0x3c53692e	0.012903495
242	0x3da46974	0.08027926
243	0xbdb88acf	-0.09010851
244	0xbcf08438	-0.029359922
245	0x3cf957c8	0.030437365
246	0x3d34b762	0.0441202
247	0x3e37fb1c	0.17966884
248	0x3a6bc6e9	0.00089941785
249	0xbc4dc4ed	-0.012559158
250	0x3ce453d8	0.027872011
251	0x3d451ff6	0.048126183
252	0x3c0e82f6	0.008698216
253	0xbd90ee66	-0.07076721
254	0xbcb6a42e	-0.022295084
255	0x3ca48cef	0.020086734

fc2.bias f4 [64]
0	0xbeae3667	-0.3402588
1	0x3dc92c22	0.09822871
2	0xbe971469	-0.2950776
3	0xbeeb6bf6	-0.45980805
4	0xbe95b6fd	-0.2924117
5	0xbe80f436	-0.25186318
6	0xbf014a40	-0.5050392
7	0xbe7e154b	-0.2481281
8	0xbe39eab6	-0.18155941
9	0xbeca3a79	-0.39497736
10	0xbe79111f	-0.24322937
11	0xbec4922f	-0.3839278
12	0xbe7268c1	-0.23672773
13	0xbf29a5b1	-0.6626845
14	0xbe86d8e5	-0.26337352
15	0xbe8f3e27	-0.27977106
16	0xbebc0f85	-0.3673059
17	0xbec70c0b	-0.38876376
18	0xbee81801	-0.45330814
19	0xbec3482f	-0.3814101
20	0xbea7995d	-0.32734194
21	0xbed96b6b	-0.42464766
22	0xbf2bb643	-0.67074984
23	0xbe989d84	-0.29807675
24	0xbea97905	-0.33100143
25	0x3e6b0ff5	0.22955306
26	0xbed981e9	-0.42481926
27	0xbf06af95	-0.52611667
28	0xbf1718c0	-0.5902214
29	0xbea87ce3	-0.3290778
30	0xbea36865	-0.31915584
31	0xbe88f09d	-0.26746073
32	0xbe842760	-0.2581129
33	0xbeac9162	-0.33704668
34	0xbe7414df	-0.23836087
35	0xbf110ff7	-0.56664985
36	0xbe9cde93	-0.3063856
37	0xbe393113	-0.18085127
38	0xbec8a837	-0.39190838
39	0xbee0485e	-0.43805212
40	0xbeb37133	-0.35047302
41	0xbe64cbc9	-0.22343363
42	0xbf218c41	-0.63104635
43	0xbe92d56c	-0.28678453
44	0xbf02cc54	-0.5109303
45	0xbf3442ef	-0.7041463
46	0xbf2cf263	-0.6755735
47	0xbecff043	-0.40612993
48	0xbf01a6c8	-0.50645113
49	0xbe94585b	-0.2897366
50	0xbee603bd	-0.44924727
51	0xbec5af10	-0.38610125
52	0xbf12d970	-0.57363033
53	0xbeb5fe3d	-0.3554553
54	0xbedbb9d2	-0.42915207
55	0xbebf52c4	-0.37367833
56	0xbf1d6a99	-0.6149078
57	0xbf202b95	-0.625665
58	0xbf1957a2	-0.5989934
59	0xbe9f744e	-0.3114342
60	0xbe8684b8	-0.2627313
61	0xbec3a537	-0.38211986
62	0xbeab5bb0	-0.3346839
63	0xbe8d12de	-0.27553457

fc3.weight f4 [1, 64]
0	0x3c5858dc	0.0132047795
1	0x3e8c009a	0.2734421
2	0xbca7a80a	-0.02046587
3	0xbb706843	-0.0036683239
4	0xbab43e23	-0.0013751428
5	0xbbd37a2a	-0.006453772
6	0xbdc35213	-0.09537139
7	0xbbb3219e	-0.005466654
8	0xbd23e722	-0.040015347
9	0xbb4d8cf7	-0.003136454
10	0xbc13409c	-0.008987572
11	0xbc29349f	-0.010327487
12	0xbc5861e5	-0.013206934
13	0xbf0d9019	-0.55298
14	0xbde0a611	-0.10969175
15	0x3bae7be8	0.0053248294
16	0xbb715720	-0.0036825612
17	0x3e3912bb	0.18073551
18	0x3c88dffe	0.01670837
19	0x3b1c9f44	0.002389864
20	0xbcc83a3a	-0.024441827
21	0xbdb25892	-0.087083
22	0xbf0755c2	-0.5286523
23	0xbcf39c96	-0.029737752
24	0xbdfe4869	-0.12416155
25	0xbddd9508	-0.10819441
26	0x3e288609	0.1645738
27	0xbc4506df	-0.012025564
28	0xbf1fbbff	-0.62396234
29	0x3df0fa7b	0.11766525
30	0xb9f4fac5	-0.00046726145
31	0x3b9f1cd2	0.0048557306
32	0x3be5021c	0.006988777
33	0x3c4f9d53	0.012671786
34	0xba5d0acd	-0.00084320904
35	0xbd95ed0a	-0.07320602
36	0xbca40c55	-0.020025412
37	0xbc2af919	-0.010435366
38	0xbc450c7d	-0.012026903
39	0xbc175160	-0.00923571
40	0xbbcc444f	-0.006233729
41	0xbc51b2e4	-0.0127989985
42	0xbf0de047	-0.55420345
43	0x3aaed824	0.0013339561
44	0x3cc8c55f	0.024508176
45	0xbe9b8273	-0.30372962
46	0x3ddcd1d5	0.1078221
47	0xbda1fc81	-0.079094894
48	0x3e0fd76b	0.14047019
49	0xbcb6a950	-0.022297531
50	0x3dfabc37	0.122429304
51	0xbcd3d8e3	-0.025860256
52	0xbf27293d	-0.652973
53	0xbc0ce8ca	-0.008600423
54	0x3d7f43e5	0.06232061
55	0xbc81940e	-0.015817668
56	0xbf13b027	-0.5769066
57	0xbe19c3ed	-0.15016146
58	0xbf1fb680	-0.6238785
59	0xbc084f95	-0.008319755
60	0x3d880695	0.066418804
61	0xbc31d8a7	-0.010854877
62	0x3cb3f8fc	0.021969311
63	0xbc737ba2	-0.014861019

bn1.weight f4 [128]
0	0x3f800000	1.0
1	0x3f800000	1.0
2	0x3f800000	1.0
3	0x3f800000	1.0
4	0x3f800000	1.0
5	0x3f800000	1.0
6	0x3f800000	1.0
7	0x3f800000	1.0
8	0x3f800000	1.0
9	0x3f800000	1.0
10	0x3f800000	1.0
11	0x3f800000	1.0
12	0x3f800000	1.0
13	0x3f800000	1.0
14	0x3f800000	1.0
15	0x3f800000	1.0
16	0x3f800000	1.0
17	0x3f800000	1.0
18	0x3f800000	1.0
19	0x3f800000	1.0
20	0x3f800000	1.0
21	0x3f800000	1.0
22	0x3f800000	1.0
23	0x3f800000	1.0
24	0x3f800000	1.0
25	0x3f800000	1.0
26	0x3f800000	1.0
27	0x3f800000	1.0
28	0x3f800000	1.0
29	0x3f800000	1.0
30	0x3f800000	1.0
31	0x3f800000	1.0
32	0x3f800000	1.0
33	0x3f800000	1.0
34	0x3f800000	1.0
35	0x3f800000	1.0
36	0x3f800000	1.0
37	0x3f800000	1.0
38	0x3f800000	1.0
39	0x3f800000	1.0
40	0x3f800000	1.0
41	0x3f800000	1.0
42	0x3f800000	1.0
43	0x3f800000	1.0
44	0x3f800000	1.0
45	0x3f800000	1.0
46	0x3f800000	1.0
47	0x3f800000	1.0
48	0x3f800000	1.0
49	0x3f800000	1.0
50	0x3f800000	1.0
51	0x3f800000	1.0
52	0x3f800000	1.0
53	0x3f800000	1.0
54	0x3f800000	1.0
55	0x3f800000	1.0
56	0x3f800000	1.0
57	0x3f800000	1.0
58	0x3f800000	1.0
59	0x3f800000	1.0
60	0x3f800000	1.0
61	0x3f800000	1.0
62	0x3f800000	1.0
63	0x3f800000	1.0
64	0x3f800000	1.0
65	0x3f800000	1.0
66	0x3f800000	1.0
67	0x3f800000	1.0
68	0x3f800000	1.0
69	0x3f800000	1.0
70	0x3f800000	1.0
71	0x3f800000	1.0
72	0x3f800000	1.0
73	0x3f800000	1.0
74	0x3f800000	1.0
75	0x3f800000	1.0
76	0x3f800000	1.0
77	0x3f800000	1.0
78	0x3f800000	1.0
79	0x3f800000	1.0
80	0x3f800000	1.0
81	0x3f800000	1.0
82	0x3f800000	1.0
83	0x3f800000	1.0
84	0x3f800000	1.0
85	0x3f800000	1.0
86	0x3f800000	1.0
87	0x3f800000	1.0
88	0x3f800000	1.0
89	0x3f800000	1.0
90	0x3f800000	1.0
91	0x3f800000	1.0
92	0x3f800000	1.0
93	0x3f800000	1.0
94	0x3f800000	1.0
95	0x3f800000	1.0
96	0x3f800000	1.0
97	0x3f800000	1.0
98	0x3f800000	1.0
99	0x3f800000	1.0
100	0x3f800000	1.0
101	0x3f800000	1.0
102	0x3f800000	1.0
103	0x3f800000	1.0
104	0x3f800000	1.0
105	0x3f800000	1.0
106	0x3f800000	1.0
107	0x3f800000	1.0
108	0x3f800000	1.0
109	0x3f800000	1.0
110	0x3f800000	1.0
111	0x3f800000	1.0
112	0x3f800000	1.0
113	0x3f800000	1.0
114	0x3f800000	1.0
115	0x3f800000	1.0
116	0x3f800000	1.0
117	0x3f800000	1.0
118	0x3f800000	1.0
119	0x3f800000	1.0
120	0x3f800000	1.0
121	0x3f800000	1.0
122	0x3f800000	1.0
123	0x3f800000	1.0
124	0x3f800000	1.0
125	0x3f800000	1.0
126	0x3f800000	1.0
127	0x3f800000	1.0

bn1.bias f4 [128]
0	0x00000000	0.0
1	0x00000000	0.0
2	0x00000000	0.0
3	0x00000000	0.0
4	0x00000000	0.0
5	0x00000000	0.0
6	0x00000000	0.0
7	0x00000000	0.0
8	0x00000000	0.0
9	0x00000000	0.0
10	0x00000000	0.0
11	0x00000000	0.0
12	0x00000000	0.0
13	0x00000000	0.0
14	0x00000000	0.0
15	0x00000000	0.0
16	0x00000000	0.0
17	0x00000000	0.0
18	0x00000000	0.0
19	0x00000000	0.0
20	0x00000000	0.0
21	0x00000000	0.0
22	0x00000000	0.0
23	0x00000000	0.0
24	0x00000000	0.0
25	0x00000000	0.0
26	0x00000000	0.0
27	0x00000000	0.0
28	0x00000000	0.0
29	0x00000000	0.0
30	0x00000000	0.0
31	0x00000000	0.0
32	0x00000000	0.0
33	0x00000000	0.0
34	0x00000000	0.0
35	0x00000000	0.0
36	0x00000000	0.0
37	0x00000000	0.0
38	0x00000000	0.0
39	0x00000000	0.0
40	0x00000000	0.0
41	0x00000000	0.0
42	0x00000000	0.0
43	0x00000000	0.0
44	0x00000000	0.0
45	0x00000000	0.0
46	0x00000000	0.0
47	0x00000000	0.0
48	0x00000000	0.0
49	0x00000000	0.0
50	0x00000000	0.0
51	0x00000000	0.0
52	0x00000000	0.0
53	0x00000000	0.0
54	0x00000000	0.0
55	0x00000000	0.0
56	0x00000000	0.0
57	0x00000000	0.0
58	0x00000000	0.0
59	0x00000000	0.0
60	0x00000000	0.0
61	0x00000000	0.0
62	0x00000000	0.0
63	0x00000000	0.0
64	0x00000000	0.0
65	0x00000000	0.0
66	0x00000000	0.0
67	0x00000000	0.0
68	0x00000000	0.0
69	0x00000000	0.0
70	0x00000000	0.0
71	0x00000000	0.0
72	0x00000000	0.0
73	0x00000000	0.0
74	0x00000000	0.0
75	0x00000000	0.0
76	0x00000000	0.0
77	0x00000000	0.0
78	0x00000000	0.0
79	0x00000000	0.0
80	0x00000000	0.0
81	0x00000000	0.0
82	0x00000000	0.0
83	0x00000000	0.0
84	0x00000000	0.0
85	0x00000000	0.0
86	0x00000000	0.0
87	0x00000000	0.0
88	0x00000000	0.0
89	0x00000000	0.0
90	0x00000000	0.0
91	0x00000000	0.0
92	0x00000000	0.0
93	0x00000000	0.0
94	0x00000000	0.0
95	0x00000000	0.0
96	0x00000000	0.0
97	0x00000000	0.0
98	0x00000000	0.0
99	0x00000000	0.0
100	0x00000000	0.0
101	0x00000000	0.0
102	0x00000000	0.0
103	0x00000000	0.0
104	0x00000000	0.0
105	0x00000000	0.0
106	0x00000000	0.0
107	0x00000000	0.0
108	0x00000000	0.0
109	0x00000000	0.0
110	0x00000000	0.0
111	0x00000000	0.0
112	0x00000000	0.0
113	0x00000000	0.0
114	0x00000000	0.0
115	0x00000000	0.0
116	0x00000000	0.0
117	0x00000000	0.0
118	0x00000000	0.0
119	0x00000000	0.0
120	0x00000000	0.0
121	0x00000000	0.0
122	0x00000000	0.0
123	0x00000000	0.0
124	0x00000000	0.0
125	0x00000000	0.0
126	0x00000000	0.0
127	0x00000000	0.0

bn1.running_mean f4 [128]
0	0x00000000	0.0
1	0x00000000	0.0
2	0x00000000	0.0
3	0x00000000	0.0
4	0x00000000	0.0
5	0x00000000	0.0
6	0x00000000	0.0
7	0x00000000	0.0
8	0x00000000	0.0
9	0x00000000	0.0
10	0x00000000	0.0
11	0x00000000	0.0
12	0x00000000	0.0
13	0x00000000	0.0
14	0x00000000	0.0
15	0x00000000	0.0
16	0x00000000	0.0
17	0x00000000	0.0
18	0x00000000	0.0
19	0x00000000	0.0
20	0x00000000	0.0
21	0x00000000	0.0
22	0x00000000	0.0
23	0x00000000	0.0
24	0x00000000	0.0
25	0x00000000	0.0
26	0x00000000	0.0
27	0x00000000	0.0
28	0x00000000	0.0
29	0x00000000	0.0
30	0x00000000	0.0
31	0x00000000	0.0
32	0x00000000	0.0
33	0x00000000	0.0
34	0x00000000	0.0
35	0x00000000	0.0
36	0x00000000	0.0
37	0x00000000	0.0
38	0x00000000	0.0
39	0x00000000	0.0
40	0x00000000	0.0
41	0x00000000	0.0
42	0x00000000	0.0
43	0x00000000	0.0
44	0x00000000	0.0
45	0x00000000	0.0
46	0x00000000	0.0
47	0x00000000	0.0
48	0x00000000	0.0
49	0x00000000	0.0
50	0x00000000	0.0
51	0x00000000	0.0
52	0x00000000	0.0
53	0x00000000	0.0
54	0x00000000	0.0
55	0x00000000	0.0
56	0x00000000	0.0
57	0x00000000	0.0
58	0x00000000	0.0
59	0x00000000	0.0
60	0x00000000	0.0
61	0x00000000	0.0
62	0x00000000	0.0
63	0x00000000	0.0
64	0x00000000	0.0
65	0x00000000	0.0
66	0x00000000	0.0
67	0x00000000	0.0
68	0x00000000	0.0
69	0x00000000	0.0
70	0x00000000	0.0
71	0x00000000	0.0
72	0x00000000	0.0
73	0x00000000	0.0
74	0x00000000	0.0
75	0x00000000	0.0
76	0x00000000	0.0
77	0x00000000	0.0
78	0x00000000	0.0
79	0x00000000	0.0
80	0x00000000	0.0
81	0x00000000	0.0
82	0x00000000	0.0
83	0x00000000	0.0
84	0x00000000	0.0
85	0x00000000	0.0
86	0x00000000	0.0
87	0x00000000	0.0
88	0x00000000	0.0
89	0x00000000	0.0
90	0x00000000	0.0
91	0x00000000	0.0
92	0x00000000	0.0
93	0x00000000	0.0
94	0x00000000	0.0
95	0x00000000	0.0
96	0x00000000	0.0
97	0x00000000	0.0
98	0x00000000	0.0
99	0x00000000	0.0
100	0x00000000	0.0
101	0x00000000	0.0
102	0x00000000	0.0
103	0x00000000	0.0
104	0x00000000	0.0
105	0x00000000	0.0
106	0x00000000	0.0
107	0x00000000	0.0
108	0x00000000	0.0
109	0x00000000	0.0
110	0x00000000	0.0
111	0x00000000	0.0
112	0x00000000	0.0
113	0x00000000	0.0
114	0x00000000	0.0
115	0x00000000	0.0
116	0x00000000	0.0
117	0x00000000	0.0
118	0x00000000	0.0
119	0x00000000	0.0
120	0x00000000	0.0
121	0x00000000	0.0
122	0x00000000	0.0
123	0x00000000	0.0
124	0x00000000	0.0
125	0x00000000	0.0
126	0x00000000	0.0
127	0x00000000	0.0

bn1.running_var f4 [128]
0	0x3f800000	1.0
1	0x3f800000	1.0
2	0x3f800000	1.0
3	0x3f800000	1.0
4	0x3f800000	1.0
5	0x3f800000	1.0
6	0x3f800000	1.0
7	0x3f800000	1.0
8	0x3f800000	1.0
9	0x3f800000	1.0
10	0x3f800000	1.0
11	0x3f800000	1.0
12	0x3f800000	1.0
13	0x3f800000	1.0
14	0x3f800000	1.0
15	0x3f800000	1.0
16	0x3f800000	1.0
17	0x3f800000	1.0
18	0x3f800000	1.0
19	0x3f800000	1.0
20	0x3f800000	1.0
21	0x3f800000	1.0
22	0x3f800000	1.0
23	0x3f800000	1.0
24	0x3f800000	1.0
25	0x3f800000	1.0
26	0x3f800000	1.0
27	0x3f800000	1.0
28	0x3f800000	1.0
29	0x3f800000	1.0
30	0x3f800000	1.0
31	0x3f800000	1.0
32	0x3f800000	1.0
33	0x3f800000	1.0
34	0x3f800000	1.0
35	0x3f800000	1.0
36	0x3f800000	1.0
37	0x3f800000	1.0
38	0x3f800000	1.0
39	0x3f800000	1.0
40	0x3f800000	1.0
41	0x3f800000	1.0
42	0x3f800000	1.0
43	0x3f800000	1.0
44	0x3f800000	1.0
45	0x3f800000	1.0
46	0x3f800000	1.0
47	0x3f800000	1.0
48	0x3f800000	1.0
49	0x3f800000	1.0
50	0x3f800000	1.0
51	0x3f800000	1.0
52	0x3f800000	1.0
53	0x3f800000	1.0
54	0x3f800000	1.0
55	0x3f800000	1.0
56	0x3f800000	1.0
57	0x3f800000	1.0
58	0x3f800000	1.0
59	0x3f800000	1.0
60	0x3f800000	1.0
61	0x3f800000	1.0
62	0x3f800000	1.0
63	0x3f800000	1.0
64	0x3f800000	1.0
65	0x3f800000	1.0
66	0x3f800000	1.0
67	0x3f800000	1.0
68	0x3f800000	1.0
69	0x3f800000	1.0
70	0x3f800000	1.0
71	0x3f800000	1.0
72	0x3f800000	1.0
73	0x3f800000	1.0
74	0x3f800000	1.0
75	0x3f800000	1.0
76	0x3f800000	1.0
77	0x3f800000	1.0
78	0x3f800000	1.0
79	0x3f800000	1.0
80	0x3f800000	1.0
81	0x3f800000	1.0
82	0x3f800000	1.0
83	0x3f800000	1.0
84	0x3f800000	1.0
85	0x3f800000	1.0
86	0x3f800000	1.0
87	0x3f800000	1.0
88	0x3f800000	1.0
89	0x3f800000	1.0
90	0x3f800000	1.0
91	0x3f800000	1.0
92	0x3f800000	1.0
93	0x3f800000	1.0
94	0x3f800000	1.0
95	0x3f800000	1.0
96	0x3f800000	1.0
97	0x3f800000	1.0
98	0x3f800000	1.0
99	0x3f800000	1.0
100	0x3f800000	1.0
101	0x3f800000	1.0
102	0x3f800000	1.0
103	0x3f800000	1.0
104	0x3f800000	1.0
105	0x3f800000	1.0
106	0x3f800000	1.0
107	0x3f800000	1.0
108	0x3f800000	1.0
109	0x3f800000	1.0
110	0x3f800000	1.0
111	0x3f800000	1.0
112	0x3f800000	1.0
113	0x3f800000	1.0
114	0x3f800000	1.0
115	0x3f800000	1.0
116	0x3f800000	1.0
117	0x3f800000	1.0
118	0x3f800000	1.0
119	0x3f800000	1.0
120	0x3f800000	1.0
121	0x3f800000	1.0
122	0x3f800000	1.0
123	0x3f800000	1.0
124	0x3f800000	1.0
125	0x3f800000	1.0
126	0x3f800000	1.0
127	0x3f800000	1.0

bn2.weight f4 [64]
0	0x3f800000	1.0
1	0x3f800000	1.0
2	0x3f800000	1.0
3	0x3f800000	1.0
4	0x3f800000	1.0
5	0x3f800000	1.0
6	0x3f800000	1.0
7	0x3f800000	1.0
8	0x3f800000	1.0
9	0x3f800000	1.0
10	0x3f800000	1.0
11	0x3f800000	1.0
12	0x3f800000	1.0
13	0x3f800000	1.0
14	0x3f800000	1.0
15	0x3f800000	1.0
16	0x3f800000	1.0
17	0x3f800000	1.0
18	0x3f800000	1.0
19	0x3f800000	1.0
20	0x3f800000	1.0
21	0x3f800000	1.0
22	0x3f800000	1.0
23	0x3f800000	1.0
24	0x3f800000	1.0
25	0x3f800000	1.0
26	0x3f800000	1.0
27	0x3f800000	1.0
28	0x3f800000	1.0
29	0x3f800000	1.0
30	0x3f800000	1.0
31	0x3f800000	1.0
32	0x3f800000	1.0
33	0x3f800000	1.0
34	0x3f800000	1.0
35	0x3f800000	1.0
36	0x3f800000	1.0
37	0x3f800000	1.0
38	0x3f800000	1.0
39	0x3f800000	1.0
40	0x3f800000	1.0
41	0x3f800000	1.0
42	0x3f800000	1.0
43	0x3f800000	1.0
44	0x3f800000	1.0
45	0x3f800000	1.0
46	0x3f800000	1.0
47	0x3f800000	1.0
48	0x3f800000	1.0
49	0x3f800000	1.0
50	0x3f800000	1.0
51	0x3f800000	1.0
52	0x3f800000	1.0
53	0x3f800000	1.0
54	0x3f800000	1.0
55	0x3f800000	1.0
56	0x3f800000	1.0
57	0x3f800000	1.0
58	0x3f800000	1.0
59	0x3f800000	1.0
60	0x3f800000	1.0
61	0x3f800000	1.0
62	0x3f800000	1.0
63	0x3f800000	1.0

bn2.bias f4 [64]
0	0x00000000	0.0
1	0x00000000	0.0
2	0x00000000	0.0
3	0x00000000	0.0
4	0x00000000	0.0
5	0x00000000	0.0
6	0x00000000	0.0
7	0x00000000	0.0
8	0x00000000	0.0
9	0x00000000	0.0
10	0x00000000	0.0
11	0x00000000	0.0
12	0x00000000	0.0
13	0x00000000	0.0
14	0x00000000	0.0
15	0x00000000	0.0
16	0x00000000	0.0
17	0x00000000	0.0
18	0x00000000	0.0
19	0x00000000	0.0
20	0x00000000	0.0
21	0x00000000	0.0
22	0x00000000	0.0
23	0x00000000	0.0
24	0x00000000	0.0
25	0x00000000	0.0
26	0x00000000	0.0
27	0x00000000	0.0
28	0x00000000	0.0
29	0x00000000	0.0
30	0x00000000	0.0
31	0x00000000	0.0
32	0x00000000	0.0
33	0x00000000	0.0
34	0x00000000	0.0
35	0x00000000	0.0
36	0x00000000	0.0
37	0x00000000	0.0
38	0x00000000	0.0
39	0x00000000	0.0
40	0x00000000	0.0
41	0x00000000	0.0
42	0x00000000	0.0
43	0x00000000	0.0
44	0x00000000	0.0
45	0x00000000	0.0
46	0x00000000	0.0
47	0x00000000	0.0
48	0x00000000	0.0
49	0x00000000	0.0
50	0x00000000	0.0
51	0x00000000	0.0
52	0x00000000	0.0
53	0x00000000	0.0
54	0x00000000	0.0
55	0x00000000	0.0
56	0x00000000	0.0
57	0x00000000	0.0
58	0x00000000	0.0
59	0x00000000	0.0
60	0x00000000	0.0
61	0x00000000	0.0
62	0x00000000	0.0
63	0x00000000	0.0
