models/0_2023_2023/Postal_GCN/70.pth (torch, 100130 bytes, 17 tensors)

conv1.bias f4 [64]
00000000: 0000 0000 e1ca 31ba 0000 0000 0000 0000
00000010: 88a2 aebb 0000 0000 71d1 7abb 0000 0000
00000020: 0000 0000 1b7d 96ba 6981 4bbc 4a0a 83bb
00000030: 8242 76bb 0000 0000 0000 0000 0000 0000
00000040: 0000 0000 4aa8 3bba 0000 0000 0000 0000
00000050: e226 44ba 0c7d 6639 f7e0 22ba 350e 2ebb
00000060: 0000 0000 0000 0000 0000 0000 0000 0000
00000070: 0000 0000 0000 0000 2f5c eabb 0000 0000
00000080: 0000 0000 0000 0000 0000 0000 cdff 70be
00000090: 0000 0000 0000 0000 505b 3fbb 0000 0000
000000a0: 0524 31bc 0000 0000 0000 0000 3a2b 2fbc
000000b0: 0000 0000 0000 0000 0000 0000 0000 0000
000000c0: 0000 0000 2e73 84ba 2372 07bc 0000 0000
000000d0: 0000 0000 0000 0000 1eaf 07ba d2d5 1dba
000000e0: 0000 0000 0000 0000 e60c c1bb f5c7 c5ba
000000f0: 42ea 863b 0000 0000 0000 0000 0000 0000
0.0 -0.00067822455 0.0 0.0 -0.005329434 0.0 -0.003827181 0.0
0.0 -0.0011481376 -0.0124209905 -0.0039990293 -0.0037576263 0.0 0.0 0.0
0.0 -0.0007158561 0.0 0.0 -0.00074826006 0.00021981093 -0.0006213332 -0.002655876
0.0 0.0 0.0 0.0 0.0 0.0 -0.0071521024 0.0
0.0 0.0 0.0 -0.2353508 0.0 0.0 -0.0029198714 0.0
-0.01081181 0.0 0.0 -0.010691458 0.0 0.0 0.0 0.0
0.0 -0.0010105127 -0.008266958 0.0 0.0 0.0 -0.0005175936 -0.00060209364
0.0 0.0 -0.00589143 -0.0015089499 0.004117281 0.0 0.0 0.0

conv1.lin.weight f4 [64, 12]
00000000: 1383 0dbb b1a2 57ba f6f9 713a d596 21bb
00000010: 5839 ca3a 7106 c03a 90c9 e43a 3c2f ebba
00000020: 0cb5 373b eea9 daba 7a23 383b a802 31bb
00000030: bd9c 50bb ddb1 893a be48 c9b9 e6a9 08ba
00000040: 7f80 12bb a799 f3ba df4c c5ba dca5 60bb
00000050: 479f 09ba 3d6b 39b9 70a0 31ba 4d08 7539
00000060: 9702 2f3b d529 443a 5d0a 87ba b2d0 97ba
00000070: 8804 ecba c2b8 ffba 66a3 edb9 e57c 02ba
00000080: db1a a43a 51ad 9dba 350a 133b c16b 01bb
00000090: b433 0637 fccc 253b b968 373b 07af d5ba
000000a0: 746b 033a da4b ae39 4ff4 acba 3ce6 7eba
000000b0: 8ed4 473a 9741 00bb d775 f339 a8a0 9f3a
000000c0: 4ad4 60bc 166d 81bb b377 d5bb afb5 4cb9
000000d0: 3bf6 5abc 5dd6 88bc 7d29 8bbc 483f 31bc
000000e0: fce5 c53b ea03 993b 3f7c 8fbc b719 233c
000000f0: deec 2c3a f565 de38 f8d5 e93a a154 15ba
00000100: 3cf8 9339 0939 89ba d676 1abb 2247 953a
00000110: 48cf bc39 e3bb 93ba 4072 79ba dcf1 403a
00000120: 5eeb 8fbb d159 10bb da12 80bb f1f9 6eb7
00000130: 94f7 e5bb 95c1 1ebc d438 d7bb 7881 453b
00000140: 98a7 403b 251a 593b 4e30 6dbb dd55 043c
00000150: 57be 9bba 0517 c4ba a5be a03a 4586 20bb
00000160: 2941 3d38 37a6 a9ba 7a7a f33a b2b9 2bbb
00000170: 40ab df3a 437b 363b 4648 153a 859f 44b9
00000180: c28e 353b 4da5 9dba b67b 6cb9 c489 a1ba
00000190: 06b0 cbb9 ec58 203a ed13 c539 0959 0bba
000001a0: 4c6a 38bb 071c 1739 f5d5 aeb8 76fa dd39
000001b0: 05b4 6f3a 80be c33a 17b3 3ebb e0ee b9ba
000001c0: d310 13bb a847 42bb 4f28 54bb 8c31 083b
000001d0: ad99 f039 93a5 903a 82bf 883a 9689 12bb
000001e0: 2211 a7bc c7bd 3ebc fd7b 82bc 395a 53b9
000001f0: 9a73 0cbd fc75 11bd f141 24bd c41e 82bc
00000200: d4c6 5b3c d25e 6f3c 7e0b 17bd 8087 fa3c
00000210: 5802 a4bb 75c4 e2ba da72 00bb 61d3 35b8
00000220: b3b6 01bc 747c 17bc 8212 52bc e051 cbbb
00000230: 308c 0c3b 3175 3f3a 449a d3bb 3fa7 b23b
00000240: 371f 40bc d92d 7ebb dee2 0abb 6d30 77b7
00000250: e548 79bc 8439 65bc 5dba 67bc bfb4 06bc
00000260: 0f1a ca3b be70 51ba f8ea 75bc 7201 d93b
00000270: 68f5 eb3a 88de 26bb 5606 8c3a b005 10bb
00000280: 6dae 0b3b fb81 673a 5460 363b 54dc 35bb
00000290: 9a8f 31bb 4068 f93a fac0 233b db02 e23a
000002a0: d13f f53a 2e5a 1bbb e080 053b 8624 2ebb
000002b0: 25d2 243a 7aa2 f1ba 5a85 92ba 53a3 023a
000002c0: 3b0a 91ba 6d77 e9b9 2dd2 2ebb 7be8 2dbb
000002d0: f1e4 8e3a ab24 9cba c76d e0ba b48e 91ba
000002e0: e2cb 16bb 0272 13bb c0bb dc3a 377c bb3a
000002f0: d28c c439 7f82 c9ba b475 753a 5e94 0439
00000300: 39d1 03bb 63c3 1e3a 0ef2 273b d36b 35bb
00000310: 0f69 37bb 620e bd39 3ce4 0a3b 1d77 e0ba
00000320: a069 223a 93a9 013b 1378 633a c7a9 1f3a
00000330: ec3b 093b c886 923a efa1 16bb 1231 00ba
00000340: 5fce 3d3a 5415 e93a 4b74 66bb 5f86 4f3a
00000350: d53a c8ba cab2 63bb a6ac a1b8 a133 13bb
00000360: f41a d139 3480 efba e4cc 0abb d367 7ab9
00000370: b4d6 77ba 28c0 d73a 7870 7e39 4bf8 0f3b
00000380: 2943 0a3a c33d 6dba 6ddc f93a 8943 2139
00000390: b779 0a3a 4549 6dba a374 2937 f7da 0dba
000003a0: 5ee5 7ab9 36d8 0fbb 2331 91b7 ee18 19bb
000003b0: 07b8 1eba f8c9 d53a 0141 00bb 5ba6 f8ba
000003c0: 166e bbba 7126 c7ba 1e49 8eb9 8867 a1b9
000003d0: 6086 323a 588c 2ebb 8fab 78ba ca19 503a
000003e0: e210 df3a 648c 79ba f40f 1abb 4639 8738
000003f0: bbd3 933b fdda b0ba 2be0 9eba 86d7 5bb9
-0.002159302 -0.0008225842 0.00092306675 -0.0024656553 0.0015428467 0.0014650357 0.001745509 -0.0017943154
0.0028031496 -0.0016682723 0.0028097318 -0.002700964 -0.0031831705 0.0010505278 -0.00038391905 -0.0005213305
-0.0022354422 -0.0018585221 -0.0015052817 -0.0034278547 -0.00052498694 -0.00017682924 -0.0006775921 0.00023368113
0.0026704425 0.000748304 -0.0010302771 -0.0011582582 -0.0018006722 -0.0019510018 -0.00045325904 -0.0004977717
0.0012520211 -0.0012029802 0.0022436504 -0.0019748064 7.9990605e-06 0.0025299182 0.0027986004 -0.0016302773
0.0005013265 0.0003324438 -0.0013195368 -0.00097236387 0.00076229207 -0.0019570345 0.0004643637 0.0012178617
-0.013722489 -0.0039497716 -0.0065145134 -0.00019522638 -0.01336437 -0.016703779 -0.016987557 -0.01081831
0.006039379 0.004669656 -0.0175153 0.009954861 0.0006596575 0.00010604776 0.0017840257 -0.00056965096
0.00028222974 -0.0010469268 -0.0023569367 0.0011388997 0.0003601259 -0.0011271205 -0.0009515621 0.00073602586
-0.0043920716 -0.002202619 -0.0039084973 -1.42440995e-05 -0.007018039 -0.009689708 -0.0065680537 0.0030136984
0.0029396769 0.0033127156 -0.0036192122 0.008077112 -0.0011882287 -0.0014960474 0.0012263848 -0.0024494093
4.5121797e-05 -0.0012943213 0.001857593 -0.0026203212 0.0017064586 0.0027844466 0.00056946685 -0.00018751442
0.0027703498 -0.0012027413 -0.000225528 -0.0012324383 -0.00038850325 0.0006116766 0.00037589614 -0.00053156965
-0.002813953 0.00014410923 -8.336819e-05 0.00042339013 0.00091439515 0.0014934093 -0.0029098445 -0.001418557
-0.0022440448 -0.0029644761 -0.0032372659 0.0020781485 0.00045890865 0.0011035673 0.001043305 -0.002235984
-0.020393912 -0.011641926 -0.015928263 -0.00020156139 -0.034289934 -0.03551291 -0.04010195 -0.01588381
0.013414104 0.014610009 -0.036876194 0.03058219 -0.005005162 -0.001730098 -0.0019599707 -4.3350625e-05
-0.007917094 -0.0092459805 -0.012821795 -0.0062048286 0.0021445863 0.00073035347 -0.006457599 0.005452066
-0.011726192 -0.0038784652 -0.0021192352 -1.4733622e-05 -0.015215133 -0.013990764 -0.014143554 -0.008221804
0.006167657 -0.0007989517 -0.015009634 0.0066224867 0.0018002214 -0.0025462229 0.0010683041 -0.0021976046
0.0021313683 0.0008831319 0.0027828412 -0.0027749734 -0.002709365 0.0019028261 0.002498685 0.0017243283
0.0018711035 -0.0023704874 0.0020371005 -0.0026572063 0.00062874175 -0.0018435263 -0.0011178658 0.00049834437
-0.0011065671 -0.00044530202 -0.0026675567 -0.0026536274 0.001090197 -0.0011912783 -0.001712256 -0.0011105151
-0.0023009707 -0.0022498374 0.0016840622 0.0014303987 0.00037488953 -0.0015373974 0.00093635474 0.00012643772
-0.002011372 0.00060563366 0.0025626454 -0.0027682676 -0.0027986204 0.00036059605 0.0021193167 -0.0017125342
0.0006195549 0.0019784912 0.0008677255 0.00060906674 0.0020940257 0.0011179084 -0.0022984704 -0.00048901245
0.00072405295 0.0017782846 -0.003516453 0.0007916446 -0.0015276322 -0.0034744018 -7.7092365e-05 -0.0022461193
0.00039883668 -0.001827246 -0.0021179253 -0.00023880535 -0.00094542955 0.0016460465 0.00024265226 0.0021968063
0.000527429 -0.0009050036 0.0019062884 0.00015379315 0.0005282419 -0.00090517505 1.0100342e-05 -0.00054113514
-0.00023927304 -0.002194894 -1.7308228e-05 -0.0023360807 -0.0006054644 0.0016310802 -0.0019569995 -0.0018970476
-0.0014299776 -0.0015193952 -0.00027138827 -0.0003078545 0.00068101846 -0.0026633944 -0.00094860134 0.0007938413
0.0017018581 -0.0009519516 -0.0023508044 6.44797e-05 0.004511324 -0.0013492998 -0.0012121251 -0.00020965756

conv2.bias f4 [64]
00000000: 7a7f 863a efd0 663c 4e31 26bb d598 a1ba
00000010: ec6d b93b 89eb aa3c 4db5 16bc 1f91 09bc
00000020: 8b8a 63bc 81b5 d7bb 206c a9bb 69d5 173b
00000030: 4aaa 23bc 2504 afbb 422b 213c ed8d 9e3b
00000040: da9f 0f3b 53b0 46bc f136 b03b 66ab 99bc
00000050: f2d1 533b d24a a63b ca59 4b3b 05e4 873c
00000060: 11c4 163d d538 3ebb 78f0 643c 94d3 673c
00000070: ff6a 94ba 18c9 1c3c 3e73 96bc 4b45 213c
00000080: 2a74 423c d1e8 563c f5c9 20bc 77a4 283b
00000090: 42a4 843b 4737 1eba ccee ae3a e9c1 023c
000000a0: 7dba 82bb 873b 163a 7dcb 2bbc 74ca 0aba
000000b0: 51ad 58bb 7642 733c f92b f2bc 6b8f 213b
000000c0: c1d0 1e3b 847b d83b 1965 2abb 2fd1 e93a
000000d0: 0c7a 14bb 75c3 9abb 1a69 673b 593f 22bb
000000e0: 590c 50bc dae4 aa39 3479 c63b 6363 b6bb
000000f0: 2b86 8d3b f366 153b 9eee 6a3c 8fa9 953b
0.001026138 0.0140879 -0.0025358978 -0.0012328873 0.0056588557 0.020864265 -0.009198499 -0.008396416
-0.013888012 -0.0065829162 -0.00517036 0.0023167974 -0.009989331 -0.0053410702 0.009836974 0.004838696
0.0021915347 -0.012127 0.0053776433 -0.018758487 0.0032321182 0.0050748372 0.003102886 0.01658822
0.036808077 -0.0029025574 0.013973348 0.014149565 -0.0011323391 0.009569429 -0.018365499 0.009843181
0.011868516 0.013117031 -0.009813775 0.0025732794 0.0040479014 -0.00060354586 0.0013346313 0.007980802
-0.0039895163 0.0005730916 -0.010485527 -0.000529445 -0.003306229 0.0148473885 -0.029561983 0.0024652134
0.0024233314 0.006606521 -0.00260002 0.0017838831 -0.0022655753 -0.0047230073 0.0035310448 -0.0024756996
-0.012698256 0.00032595434 0.006056929 -0.005566047 0.0043189726 0.0022796958 0.014339117 0.004567332

conv2.lin.weight f4 [64, 64]
00000000: 4eae d63a 311b db39 bef0 0439 b643 ea39
00000010: 4e61 c2ba 1ac5 deb9 daae ebb9 40de b3ba
00000020: 15a7 c9b8 4283 aaba 0035 9c38 38a4 04ba
00000030: 6647 91ba a071 073b 541b 8c3a 9280 cd3a
00000040: 78f6 f1ba 603d 0ebb c962 d33a bea8 c7b9
00000050: 1f71 cd39 e7d0 933a a143 8a38 ca3c ac38
00000060: 4de6 a83a ce14 e33a 1f6d 1eba 17ae f2ba
00000070: 24dd 9bba 8221 cb3a f4d4 b9b9 7362 f33a
00000080: 44de 46ba 68aa 06bb 318b 303a 70e5 73bb
00000090: d4f0 a9ba 6c36 b13a 343c 39b9 f82c 42b9
000000a0: 19cd b9b9 6e9e f73a 5035 e8ba dbb3 b6ba
000000b0: 838f 8cba 54b2 dcba 6b6b 95ba 1ec5 bf3a
000000c0: 2f23 bdba fbb1 dd3a 41b4 4b3a 5089 c538
000000d0: 6a7b c239 a5fc ef39 f3c6 193a 7042 98ba
000000e0: 6032 1eb8 b590 bc3a 1aa0 ed3a bfcb 33b9
000000f0: 22af f6ba 76a2 823a 2d09 02bb ce5b fd3a
00000100: 2cb4 ae3a 4d41 d93a 124f 9b39 14a1 ce3a
00000110: 9fc5 14ba 0816 edba 4f5f 84ba 6185 d33a
00000120: 1f10 8eba 2bc4 2cba abc0 403a c116 95ba
00000130: f574 8739 c66a b4ba 2f3b f039 529d b9b9
00000140: 4104 9639 598e dc3a a406 b7ba c1d3 41ba
00000150: 0f44 66ba 6358 123b 62af 83b9 b222 a33a
00000160: d033 033a 9937 0cbb 05cb c9ba 801a 12ba
00000170: 5ee8 d9ba 07b9 963a b453 c03a 207e 85b6
00000180: a338 8b39 06d0 153a 9214 3d3a fec1 01bc
00000190: 55b1 5fba 13c2 afba b139 c339 e9c4 e03a
000001a0: 3110 9239 d194 f43a 53da 463a 9240 3bba
000001b0: 1dd1 5c3a afb6 633a 8903 7dba 3a4b c7b9
000001c0: 0729 6cb9 559b a03a c059 033b 550f fab9
000001d0: 78d6 b83a f043 993a 0313 b5ba d85b 0f3b
000001e0: 8434 b8b8 da65 db3a 1b0a fe3a 859f d2ba
000001f0: a9c1 b3ba ab6c 81b9 4dae 363a e4f3 b4b9
00000200: 5cd3 08bb 3510 403a 8d8a a2ba c50a 813a
00000210: 888f 833a 58bf 3fba 504e 4b3a 0b32 9739
00000220: f078 32ba 40f6 953a 9307 b739 af03 1b3a
00000230: 02b4 dfba 2676 d43a 3570 86ba f9db f4ba
00000240: c1c1 75ba 6218 1cbb f32d 1f3a 0b16 1939
00000250: 6e46 20ba 614e 01bb 5612 273a 4dcc 10b9
00000260: cbad 0eba b371 c939 d480 483a 60c6 aaba
00000270: 10bd 23ba 2c15 81ba d2ca af3a 0392 0c3a
00000280: c084 d6ba b8be c83a 1d8a b4b9 1081 c13b
00000290: 7b1c 9339 9dca 84b9 ed0c c53a 8b41 763a
000002a0: bd18 2e33 e9ae 4eba 26d8 023a 9d71 00bb
000002b0: 588d 44ba 8b20 903a 18e1 0bbb 0cd6 64b8
000002c0: 0687 51ba 0d80 1a3a a045 f1ba 31cc c439
000002d0: d1e4 23ba 7377 ee3a 2a64 5bba e8a7 80ba
000002e0: 0f9e 30ba 3d62 c83a e804 9d39 22a1 2ab8
000002f0: 3918 4a3a bd88 5b3a 3bc7 91b9 8a8c 96ba
00000300: cc01 08bb 8e01 b43a 60ac dd3a b547 59ba
00000310: c243 73ba c708 c439 3bd1 6cb9 4440 da3a
00000320: 4876 1db8 d2a7 6aba 68aa baba e6f2 283a
00000330: 59eb 4ab8 b61d 063a a2c8 ad3a 1bda 713a
00000340: 309a 8a36 9c40 6a39 f491 8fba ce57 003b
00000350: daef 1d3b bc5c d839 9713 333b 9700 113b
00000360: 9a6a a33a 8b1d 923a 5a11 613a 0273 c7b9
00000370: b6fa 6139 2740 e73a bc00 4cb9 a46b 313a
00000380: 5f78 37ba 4c96 ba39 5416 a53a a9a8 4e3b
00000390: 9c16 8b3a 7f41 873a 9214 8db9 bf6a 013b
000003a0: 4068 f239 be8b 063b 7cd3 e5ba d547 79ba
000003b0: a106 ecba 8c70 4939 3c31 d93a 5a46 c2ba
000003c0: 68c8 143a 399b f439 f555 e5ba ff97 b2b8
000003d0: 257f 85b9 29dd 89ba 1f66 4bba 1241 323a
000003e0: a45b 69b9 6958 e1b9 9b0d 03ba d94b 6a39
000003f0: 93f5 8cb9 9e49 aaba f78d 723a c977 06b8
0.0016378851 0.00041791194 0.00012678184 0.00044682407 -0.0014830024 -0.00042489992 -0.00044952967 -0.0013722852
-9.615548e-05 -0.0013009089 7.448532e-05 -0.0005059871 -0.00110839 0.002066709 0.0010689297 0.0015678576
-0.0018460294 -0.0021704063 0.0016127463 -0.0003808196 0.0003918493 0.0011277468 6.59295e-05 8.212922e-05
0.0012886018 0.0017324926 -0.0006043482 -0.0018515018 -0.0011891467 0.0015497657 -0.00035444612 0.0018568769
-0.0007586221 -0.0020548347 0.00067346083 -0.0037215613 -0.0012965449 0.0013520247 -0.00017665402 -0.00018518034
-0.0003543876 0.001889182 -0.0017716084 -0.0013939099 -0.0010723922 -0.0016837814 -0.0011399811 0.0014630889
-0.0014430041 0.0016914004 0.00077706954 9.4192685e-05 0.00037094514 0.00045773867 0.00058661326 -0.001161648
-3.771705e-05 0.0014386388 0.0018129379 -0.00017146672 -0.0018820504 0.000996663 -0.0019841895 0.0019329728
0.0013328842 0.0016575247 0.00029622816 0.0015764558 -0.00056752 -0.0018088231 -0.0010099205 0.0016137772
-0.0010838545 -0.00065905106 0.00073529285 -0.0011374579 0.00025836346 -0.0013764731 0.00045820462 -0.00035403162
0.000286134 0.0016827091 -0.0013963771 -0.00073939195 -0.0008783945 0.0022330515 -0.00025116937 0.0012446253
0.0005004974 -0.0021395443 -0.0015395588 -0.0005573407 -0.0016625037 0.0011499234 0.0014673383 -3.9783918e-06
0.00026554344 0.0005714897 0.0007212843 -0.0079197865 -0.00085331994 -0.0013409279 0.00037236282 0.0017148528
0.00027859354 0.0018660073 0.00075856334 -0.00071431056 0.00084234943 0.0008686585 -0.0009651711 -0.00038012286
-0.00022521998 0.0012253324 0.002004251 -0.0004769514 0.0014102003 0.0011693221 -0.001381487 0.0021874812
-8.7835855e-05 0.0016738728 0.0019381674 -0.0016069269 -0.0013714331 -0.0002468576 0.0006968722 -0.00034513988
-0.0020877933 0.0007326634 -0.001240091 0.0009845129 0.0010037282 -0.0007314584 0.0007755505 0.0002883825
-0.0006808182 0.0011441186 0.00034910123 0.00059133297 -0.0017067196 0.0016209527 -0.0010256829 -0.001868128
-0.000937488 -0.0023818244 0.00060722156 0.00014599429 -0.00061140105 -0.0019730555 0.00063732767 -0.00013809018
-0.0005442767 0.0003842242 0.00076485914 -0.0013029091 -0.0006246129 -0.0009848229 0.0013411886 0.00053623336
-0.0016366467 0.0015315628 -0.00034435178 0.005905278 0.00028059245 -0.0002532796 0.0015033759 0.0009393922
4.053503e-08 -0.000788434 0.0004991315 -0.0019598969 -0.00074978685 0.0010996027 -0.0021343883 -5.4558783e-05
-0.00079928373 0.0005893715 -0.0018407591 0.00037536168 -0.0006252053 0.0018193558 -0.00083691126 -0.0009815665
-0.000673742 0.0015288066 0.0002994903 -4.0681225e-05 0.0007709298 0.00083745626 -0.00027804993 -0.0011485976
-0.0020753024 0.0013733373 0.0016912334 -0.0008288578 -0.0009279811 0.00037390573 -0.00022584658 0.0016651233
-3.7541875e-05 -0.0008951399 -0.0014241459 0.0006444886 -4.8379738e-05 0.00051161216 0.0013258646 0.00092259207
4.1306703e-06 0.00022340048 -0.0010953532 0.0019583586 0.0024099261 0.00041267823 0.002732491 0.0022125596
0.0012467683 0.001114772 0.00085856544 -0.00038041925 0.00021551069 0.001764302 -0.0001945523 0.0006768054
-0.00069988327 0.00035588664 0.0012595155 0.0031533635 0.0010611597 0.0010319202 -0.00026908942 0.0019747464
0.0004623551 0.002053007 -0.0017534341 -0.00095093 -0.0018007347 0.00019210781 0.0016570459 -0.0014821992
0.0005675615 0.00046654957 -0.0017496931 -8.516013e-05 -0.00025462467 -0.0010518181 -0.00077590527 0.00067998574
-0.0002225475 -0.00042981215 -0.0004999281 0.00022344234 -0.00026885848 -0.001299191 0.0009252722 -3.205965e-05

fc1.weight f4 [128, 74]
00000000: 0acb db3e 9cdc 3a3e 4e29 3ebe ef74 c63e
00000010: 171e c03e 5cfb 0dbf ee0f 523e c06a 763b
00000020: 48a7 f1bd b2ac bfbe ea79 eabc 623c e93c
00000030: dbab c2bd 5da9 2bbd b9ed 00be 5f85 263f
00000040: 312a e63e 01ec fb3d 5c34 1b3e 2981 073e
00000050: 3e45 a73e 8dca 32be fc27 1dbd 7443 19be
00000060: fb81 5c3e 3cb6 f03d 75ad 0c3f 8d0c 7c3e
00000070: c4e6 bb3b f781 ae3c b030 7abd 2687 e8bd
00000080: cd85 8a3e 62bd 9a3e 1204 353e 4a13 3ebe
00000090: 9336 fa3e 8aac 61be d6c5 31bf 416d 0ebe
000000a0: 6dd4 043e 5083 c13c 9f8a d23c 5464 05bf
000000b0: e26d 96bd 066f d6bc 5c20 54be f9a8 293d
000000c0: 83fe f1bd d5b0 d73e 3576 d33e 0c72 40bd
000000d0: a3fc ad3e 5f8a 50be cade a63d e95f a4be
000000e0: 66c0 a23e 3f03 853a db2c 2abf da1b 213c
000000f0: 2673 063f 86de 2e3e a751 393e 48a2 d33e
00000100: ca95 14bf 6c0d 623a a79e 9dbe cf2c a83f
00000110: 9543 143e e7df f63c 52d5 623c 0ff5 353f
00000120: 04e8 88ba f2d4 7dbc 878c 37be 32b1 d33e
00000130: e7b8 233f 600c be3e e11b d73e 0cf5 94bb
00000140: bfea 0cbf 6911 c43e 9107 90be 9922 4abe
00000150: dd09 4ebd a9cd 90be e5a9 d23b 404a 1dbd
00000160: 9aab 2a3e af6d d33e dd45 083f 90cc 88be
00000170: 566e 10bf aa6d 06bf b038 e73b a21b b8be
00000180: 2ea9 d83d 4b24 3c3e 70a2 083e bb75 683d
00000190: be37 02be 39c3 193e a64b d0bd 186a 773e
000001a0: b751 7cbe 1cba efbd cc20 793b a09a 403e
000001b0: 0d74 2ebe b4b8 6b3e 49be b33e f4d6 35bd
000001c0: 1977 43bd 47b0 ff3c 9770 533e 1d73 afbe
000001d0: c687 013e eceb 21be d8c5 09be 1570 133e
000001e0: 0406 183e 752a 2d3e aa7e 19bf aec6 513e
000001f0: 0dbc 713d 4f0f 773e 8d33 2e3e 743f 63be
00000200: dd5c 333d 3f24 13be 6151 f7bd cf43 a83e
00000210: 9c8e b5be 56f8 54be f173 9bba fd62 cebd
00000220: 2090 153f 1e79 28be 0c12 cb3e 9c01 493a
00000230: fc0f bd3e eae0 aebf f3ac 6ebe 7ed3 63bd
00000240: cab4 ebbb 6707 eabe 7ac2 90bb 9abb 55bb
00000250: cae0 2abe f2d8 833e 9a18 2e3e 0dba 803d
00000260: e699 403e d34c aa3e 74ea 61be 5a9b 5a3d
00000270: 8311 60bd ddaf 54be 8ab5 ff3b c856 19bd
00000280: 7588 2d3e 85ac 65be 4a5a c9be b901 cb3c
00000290: 2f42 bb3e f780 ba3c 2d9d 153e f631 64be
000002a0: d209 3b3e 89b9 b53c b311 13be c9a8 133e
000002b0: 91a3 393e 5c85 7abe 8a13 f53d 9240 9e3e
000002c0: a6a1 39be f16e 7c3e 783b 09bf ca34 72be
000002d0: 78ff a63e 5420 953d 7d51 d5be 75c8 793e
000002e0: 8821 713d b5ec 453e abcd a53e 8e97 0c3e
000002f0: d017 993e d5c2 b53d dbdf 073e 0f54 36be
00000300: 2b40 e33c 9611 823e 7b20 203d 7f6f aa3e
00000310: da64 e5be 5cc7 98be fed6 5bbd e3bb 1d3e
00000320: 6f47 3b3e 1d59 ddbd 8abc 3d3e f475 d9be
00000330: c899 97be 03b7 71bd 9418 efbd 7e15 a3bd
00000340: 9d6f 9ebe 6379 0a3e ee49 a13e 8e18 e43c
00000350: 1b04 383e c02f 85b9 873f 83bd 4b19 6f3e
00000360: 7080 513d ae90 77be 65d5 d2bb 935d c5be
00000370: 6010 11bc c039 b3bb 3387 c8bd b858 07bf
00000380: 25bb 34be 6489 82be c253 463e aa90 5d3e
00000390: 8387 b33d 631c 153e c224 9cbe d9f5 d13e
000003a0: d676 f0bd 0e8e 263e 335d a3be 1a61 89bd
000003b0: 4383 30be b2a7 b93d e739 213e 5b44 e53e
000003c0: 761d c03e 6ce9 fdbd 17b0 0abd 6e87 b33e
000003d0: 55a0 42be 0840 4a3e 8afd d1be 7215 a53d
000003e0: 00f9 243e 435b 41bd f9ce f43e 41c9 9cbe
000003f0: e06a d9bd cfd6 e3be ac48 dd3d 8bbf bd3d
0.42928344 0.18248218 -0.18570444 0.38761088 0.37522957 -0.5546167 0.20513889 0.003760025
-0.117994845 -0.37436444 -0.028622586 0.028471176 -0.09505435 -0.041909564 -0.12590684 0.6504726
0.44954064 0.123008735 0.15156692 0.13232864 0.32670015 -0.1746008 -0.03836821 -0.14967138
0.21533959 0.117535084 0.54952174 0.24614163 0.0057342965 0.021302206 -0.06108159 -0.113539025
0.27055207 0.30222613 0.17677334 -0.18562046 0.48869762 -0.22038475 -0.694425 -0.13908865
0.12971659 0.023622185 0.025700865 -0.52106214 -0.07345177 -0.026175987 -0.20715469 0.04142091
-0.118161224 0.421271 0.41301122 -0.046983764 0.3398181 -0.20365284 0.081479624 -0.32104424
0.31787413 0.0010148062 -0.66474694 0.0098333005 0.5251945 0.17077073 0.18097554 0.41334748
-0.5804106 0.0008623216 -0.30785105 1.3138674 0.14478905 0.030136062 0.013844805 0.71077055
-0.0010445123 -0.015492665 -0.179247 0.41346127 0.63954014 0.37118816 0.42013457 -0.0045458134
-0.55045694 0.38294533 -0.28130773 -0.1973976 -0.050302375 -0.28281906 0.0064289444 -0.03840089
0.16667023 0.4129462 0.532316 -0.2671857 -0.5641836 -0.52511084 0.007056318 -0.35958582
0.105791435 0.1837322 0.13343215 0.0567529 -0.12716576 0.15015878 -0.10170679 0.24161565
-0.24640547 -0.117054194 0.0038013933 0.18808985 -0.17036457 0.23019677 0.35106114 -0.04439445
-0.047721002 0.031211985 0.20648418 -0.34267512 0.1264945 -0.15812653 -0.13454378 0.14398225
0.14846045 0.16910727 -0.599589 0.20485947 0.05901723 0.24126934 0.17011853 -0.22192174
0.043789733 -0.14369296 -0.12076069 0.32864234 -0.35460365 -0.20797858 -0.0011860115 -0.10077474
0.5842304 -0.16452453 0.39662206 0.00076677813 0.36926258 -1.3662388 -0.23308162 -0.055621617
-0.0071931826 -0.45708773 -0.0044177147 -0.003261304 -0.16687313 0.25751454 0.17001572 0.06285486
0.18808708 0.33261737 -0.22062093 0.05337081 -0.0547042 -0.20770212 0.0078036236 -0.037436277
0.16946585 -0.22429092 -0.39326698 0.024781095 0.36573932 0.022766573 0.14610739 -0.22284684
0.18265465 0.022183197 -0.1436222 0.14419855 0.18128802 -0.24464935 0.119666174 0.30908638
-0.1812807 0.24651696 -0.5360637 -0.2365295 0.32616782 0.07281557 -0.41663733 0.24392875
0.05886987 0.19328578 0.32383475 0.13729689 0.2990098 0.08875052 0.13268988 -0.17805503
0.027740559 0.25404042 0.039093476 0.3328819 -0.44803506 -0.298396 -0.05367183 0.15403704
0.18288969 -0.10808013 0.18528953 -0.42472804 -0.29609513 -0.059012424 -0.1167461 -0.07963084
-0.3094453 0.13522868 0.31501716 0.02784374 0.17970316 -0.00025403313 -0.06408601 0.23349492
0.05114788 -0.24176285 -0.00643413 -0.38547954 -0.008854002 -0.005469531 -0.09791412 -0.5286975
-0.17649515 -0.25495446 0.19367889 0.21637216 0.08766081 0.1456161 -0.30496794 0.4100788
-0.11741416 0.16265127 -0.31907043 -0.06707974 -0.17237572 0.090651885 0.15744744 0.44778714
0.37522477 -0.12398037 -0.03385934 0.35064262 -0.19006474 0.19750988 -0.41013747 0.08060731
0.16110611 -0.047206175 0.47814158 -0.30622295 -0.10616088 -0.44499823 0.10804877 0.092650495

fc1.bias f4 [128]
00000000: e79e 613c f23b d9bb abb1 96bb 949f a93c
00000010: 5526 57bc 07fb 1bbd b378 85bd 1033 0fbc
00000020: 6433 88bd 904c f8bb 00f0 c7bb c2e4 86bc
00000030: fb33 89bc cc57 3d3b b7e4 0abd 705a 4a3c
00000040: 7959 7f3d d17d 1cbd a478 36be 0c4d e03b
00000050: 60b1 05be 5aa2 5ebd 5e48 143d 0804 423c
00000060: 3806 b63d 69db f23c 8007 eabc 423e a9bb
00000070: be2d abbd c286 8dbb 6ac8 adbe e16b ce3b
00000080: 4cd3 5639 1154 f43a 6269 4abd 9f40 08be
00000090: 0522 6d3c 02ea 14bc 56c0 6dbd 1933 c0bd
000000a0: 3a44 af3b b3e5 60bd 59af 463c ba8e 01bd
000000b0: 99be ef3c f54b 3a3d 1e1c 2abc 7650 91bc
000000c0: f6f6 ba3b f179 99bc 2865 2fbc b300 28bc
000000d0: 6a14 c33c 0797 63bd dedc ae3b 731d ccbd
000000e0: 0293 aebc c4a8 3ebd 6265 f33b 5313 12bc
000000f0: 22a1 59bd e202 7fbc e51f 9bbb 1f74 47bd
00000100: 36eb 54bd 3fac 083d 3283 0d3c 420c 383b
00000110: e27f 2abc 57a0 00bd 669f 13bc 4715 1bbd
00000120: 037f adbc 69ae b73c a4f1 da3c c62b edbc
00000130: 20cf cc3b 87d1 a0bb abe9 04bc 90f2 0c3d
00000140: e2fa 0c3b 6ae7 393e ed76 88ba f0dd 51bc
00000150: 7a5e 23bd e823 34bd f5c1 183e afb7 09bb
00000160: c4b8 633c d16b 233c 9ee0 ef3a f732 893d
00000170: b202 09bd bb69 343c 9d9d 3a3b b608 0abd
00000180: f665 c33c 08c8 6d3c 7320 a8bc a322 043c
00000190: 14a2 afbc 0441 04ba 19c5 1fbc e82a edbd
000001a0: 6bfc 68bd 2348 94bc 1910 bbba 598a 063b
000001b0: 9351 bfbc 1d56 9fbe d5e5 713b 1058 613b
000001c0: 3208 8abc e587 b43c 072f 9c3c 5cd9 2ebd
000001d0: 9f48 b83b ec0e b13c cd51 083d f63b 623b
000001e0: 76d1 29bd 6e92 90bd f655 14be 38bb 38bd
000001f0: a710 8c3c 4866 4438 1383 c93c c00a 1dbd
0.013770795 -0.0066294605 -0.0045988164 0.020705976 -0.013131698 -0.038081195 -0.06517162 -0.008740202
-0.06650427 -0.0075774863 -0.0061016083 -0.016466502 -0.016748419 0.0028891442 -0.033909526 0.012350664
0.062341187 -0.038205925 -0.17819458 0.006845122 -0.13055944 -0.05435405 0.036201827 0.011841781
0.08887905 0.029645639 -0.02856803 -0.0051648924 -0.08358334 -0.004319043 -0.33941966 0.0062994813
0.00020487345 0.0018640776 -0.049416907 -0.13305901 0.014473443 -0.009088995 -0.058044754 -0.09384746
0.0053487094 -0.05490656 0.012126767 -0.031630255 0.029265689 0.045482595 -0.01038268 -0.017738562
0.0057057096 -0.018734904 -0.01070527 -0.010254073 0.023813445 -0.055563953 0.005336388 -0.099665545
-0.021310333 -0.046547666 0.0074278573 -0.00891574 -0.053132184 -0.015564652 -0.0047340267 -0.048694726
-0.051982127 0.03336739 0.008637236 0.0028083478 -0.010406466 -0.031402912 -0.0090101715 -0.03786209
-0.021178728 0.022422032 0.026726551 -0.028951537 0.006250277 -0.00490779 -0.008112351 0.034411013
0.0021511842 0.18154684 -0.0010411419 -0.012809262 -0.03988502 -0.043979555 0.14917739 -0.0021014025
0.013899032 0.009974436 0.0018301194 0.06699174 -0.033449836 0.011011536 0.0028475292 -0.033699714
0.02385233 0.014513023 -0.020523285 0.008064899 -0.02143959 -0.00050450885 -0.009751582 -0.11580449
-0.05688135 -0.018100804 -0.0014271765 0.002052924 -0.023354327 -0.31120387 0.0036910672 0.0034384765
-0.016849611 0.022037456 0.019065393 -0.04268776 0.0056238915 0.02161356 0.033281136 0.0034520603
-0.041459523 -0.07059179 -0.14485916 -0.04510042 0.017097784 4.68253e-05 0.024598634 -0.03834033

fc2.weight f4 [64, 128]
00000000: eac9 253c 7a3b 033e e351 6f3e 546c 863d
00000010: 4d9f 9cbc 566f b6bd f1da 013e cfc0 843d
00000020: d87e 553c 65b4 6ebc 928a d4bd 803c 42bd
00000030: ec8f 0a3e 41bd 573e 035f acbd 19ec a2bd
00000040: 84f0 8f3e 6869 053e 8ff8 dd3d a584 563e
00000050: 4087 af3c c53c 753d f4c8 9abe 0414 afbd
00000060: 60bc 503d 80ce a2bd 75ee cd3d 45b4 06bd
00000070: a721 9ebd 0109 3b3d 78b2 f43d e1bc 1dbe
00000080: d3e5 bc3d 2b69 59be 024c 5dbd 5f34 42bd
00000090: efef cb3d 73dd be3d eb9e 51be c02b 743e
000000a0: 0c30 ecbd 68c3 643d dfc1 12be 8b68 3bbe
000000b0: 98b0 2d3e 8e66 3abc 47ad 14bd 0e2a db3c
000000c0: 9da0 4f3e 8a21 b43e 9725 21be a9c5 c43d
000000d0: 7a68 dd3d a08a 723e 7e64 803e dfd6 f4bc
000000e0: 69b4 6b3e 2b8f e43d b69e a43d 7254 96bd
000000f0: 1811 6d3d f341 8f3d 9afb eb3d 3004 693e
00000100: 5bd3 bb3d 5cc0 993c 9eef b33d 92ca 1f3d
00000110: 07de 023e ff3a 5d3e 221d 603e 5421 fa3d
00000120: cfd8 4d3e c322 1a3d f737 1cbc a677 92be
00000130: d6f3 51bd 4a74 0cbe 4120 3abd 9174 b2bd
00000140: c4e7 523d b157 193e b1c5 8d3d af8b 003e
00000150: 8f4d 91bd b045 e3bc b945 993d c081 bfbd
00000160: 1951 6d3e fb56 e53c 3501 473e 900d 8ebc
00000170: b143 063e 1f8a 443d a09e a43c 38cb c03d
00000180: c5d8 a1bd 7813 013e a9e7 173e b64b 573e
00000190: 36bd abbd 7af8 0f3e f8a4 28be 1fe2 95bd
000001a0: 8a6c 5f3e dd07 fcbd e2bf b0bd 9083 293e
000001b0: f6ad 9abc 6844 96bd 4ddf 6cbe 2bb1 a8bd
000001c0: c2d9 8cbd 9775 1a3e a533 85be 8357 413d
000001d0: 4177 f53e 5beb 113b 00a7 aa3b 1491 26bd
000001e0: c653 babd 9a3d 1f3e 6630 6cbd c063 16be
000001f0: 7634 1d3e d8c8 55be ffe4 62be 5045 d53d
00000200: 1df0 c23b e463 5f3c 629b 4b3c e536 053c
00000210: 734c 013b e788 7cba 3ff8 7ebd 9426 843c
00000220: 4e8d 183c 6a2a a53c dc4d d23a 3c9a b23c
00000230: 52ee 56bb e704 283c d9b5 973c fd11 0c3c
00000240: 6efa 1f3c 9412 f33d 5a3a 3a3e 4897 b4bc
00000250: 102d fc3b 5d41 f3bc 706a bb3b dbd9 293d
00000260: 7bd8 2a3d 4485 413c 3076 9bbc 8692 183d
00000270: 861c f5bd 0d14 0c3d 4e5e e2bf 717d 673c
00000280: 714f b63c 1f26 8fbb 1d60 67bb 0986 1b3e
00000290: 9414 0dbd e480 123d fc6c a23d 9b5d a9be
000002a0: 52b9 a03b 5690 833c 0dc5 25ba 879b d0bd
000002b0: 02a3 a7bc 4337 09c0 f3f0 fd3b c19c 4dbd
000002c0: dd9c dcbc 57e6 103c bb7a 4fbc b4e8 fdbb
000002d0: 4954 e73b 805a d53d 66c2 df3d b4ce 743d
000002e0: 102b 54bd acfc 843c d38f ae3c 22e9 46bc
000002f0: 99bb f2bd 6793 3aba 4ac2 653a 29c2 bc3c
00000300: f349 133d 0937 c3bb c536 4d3b c1b6 83bb
00000310: 40f6 c33c de86 23bd c719 c43c 4125 24be
00000320: 9c6d 353c 3f0c b8bb e48d 6c3b 8d4b a2bc
00000330: 4322 0c3d 8cd2 83bb 4544 0a3c 3bdb 253b
00000340: 2fd3 a738 7095 9ebe 4a10 8a3c 6a12 cd3a
00000350: fa30 1dbd 6b64 233a c9b1 05be 360b efbb
00000360: 2a04 7e3c 4840 803c 0342 83bc 2f5a d6bc
00000370: e798 e23c 92bf 7e3c 9fe1 1cbc 4aa5 8a3b
00000380: 5fb9 323c d76a 16bc 30e5 ceba 3c88 003c
00000390: e809 f93a 209d bb3c 6c96 2f3d bea8 ad3d
000003a0: 42fd cabb f8a0 3fbc 7851 62bc 4dfc 9a3b
000003b0: 7be1 81bc 052f 6c3f 82ef 39bc a9f3 a73c
000003c0: 3bfd c2bd f077 b93c ab1f 98bb 157a 613d
000003d0: 2ffc 103a fae1 37bb 903e 87bb ddeb 983b
000003e0: 0923 63bc 0584 d1bc 707d 7b3d 18ea 9e3c
000003f0: 1060 c33a 60bc ad3c f769 b13b 63d4 08bc
0.010118941 0.12815657 0.23371081 0.06563631 -0.01911893 -0.089079544 0.12681176 0.06482088
0.01303073 -0.014569377 -0.10377993 -0.04742098 0.13531464 0.21068288 -0.084165595 -0.07955188
0.28113186 0.1302849 0.108384244 0.20949037 0.021426797 0.059872407 -0.3023144 -0.085487396
0.0509609 -0.07949543 0.10055248 -0.032886762 -0.077212624 0.045662884 0.11948103 -0.15404083
0.09223523 -0.21231525 -0.054027565 -0.047413226 0.09957873 0.09319582 -0.20470779 0.23844814
-0.11532602 0.055850416 -0.14331768 -0.18301599 0.16961896 -0.01137699 -0.036298063 0.026753452
0.20276113 0.35181838 -0.15736996 0.09608013 0.10810943 0.23685694 0.2507667 -0.029887615
0.2301804 0.111601196 0.08038084 -0.073403254 0.05787763 0.06995001 0.115225986 0.22755504
0.09171172 0.018768482 0.08785938 0.039011545 0.12780009 0.21604536 0.21886113 0.12213388
0.20102237 0.037630808 -0.009534827 -0.2860691 -0.05125793 -0.13716236 -0.045440916 -0.087136395
0.05149056 0.14974858 0.06922472 0.12553285 -0.07094871 -0.02774319 0.07484002 -0.0935092
0.23175468 0.027995577 0.19434054 -0.017340451 0.1311176 0.047983285 0.02009517 0.09413761
-0.07902674 0.12605083 0.14834465 0.21024975 -0.083856985 0.1405963 -0.1646918 -0.0731852
0.21818748 -0.12306187 -0.08630349 0.16554093 -0.01888178 -0.07337266 -0.23132057 -0.08236917
-0.068774715 0.1508392 -0.26015964 0.0472026 0.47942546 0.0022265527 0.005207896 -0.0406657
-0.0909801 0.15550843 -0.057663344 -0.14686489 0.15352044 -0.20877397 -0.22157668 0.10413611
0.005949034 0.013634656 0.012427183 0.008130764 0.0019729405 -0.0009633437 -0.062248465 0.016131677
0.009311033 0.020161826 0.0016044932 0.02180206 -0.0032795859 0.010255075 0.018519329 0.008549211
0.009764297 0.11868778 0.18186322 -0.022044793 0.0076958016 -0.029694254 0.0057194754 0.04146753
0.041710358 0.011811558 -0.018977255 0.03724911 -0.11968331 0.03419881 -1.768503 0.014129029
0.022254677 -0.004368558 -0.003530509 0.15187849 -0.034443453 0.03576745 0.07930943 -0.33079228
0.0049049044 0.016060036 -0.00063236133 -0.101859145 -0.02046347 -2.143998 0.0077496707 -0.05019832
-0.026930267 0.00884398 -0.012663539 -0.0077486876 0.007059608 0.10417652 0.109257504 0.05976744
-0.05179888 0.016233765 0.021308815 -0.012140544 -0.11852188 -0.00071173016 0.0008764608 0.023041802
0.035959195 -0.0059574884 0.0031313163 -0.0040195887 0.023921132 -0.03992354 0.023938073 -0.16029836
0.011073496 -0.005616694 0.0036095316 -0.019811416 0.034212362 -0.004022902 0.008439128 0.0025307673
8.0025166e-05 -0.30973387 0.01685347 0.0015645747 -0.038376786 0.000623292 -0.13056101 -0.0072950376
0.0155039225 0.015655652 -0.016022688 -0.02616605 0.0276608 0.015548604 -0.009575277 0.00423113
0.010908454 -0.009180746 -0.0015784856 0.007844981 0.0019000145 0.022902071 0.042868063 0.08479451
-0.0061947415 -0.011696093 -0.013813369 0.0047297836 -0.015854588 0.92259246 -0.011348607 0.020501928
-0.09520956 0.022640198 -0.004642447 0.055048067 0.00055307423 -0.0028058277 -0.004127331 0.004666789
-0.0138633335 -0.025575647 0.061398923 0.019398734 0.0014905948 0.021207988 0.0054142433 -0.008351418

fc2.bias f4 [64]
00000000: 7853 97be 7827 493c f2df 50be e3d9 e4be
00000010: 3bbf 73be 9c76 9abe 3928 87be ab0a 8dbe
00000020: 958d e6be bf13 f0be 5300 e2be 10ff 9fbe
00000030: 1e21 9abe b5e0 15bf 9d43 b7be 8275 b1be
00000040: b3e5 bdbe 2477 c2be fc84 b6be 5ff5 92be
00000050: cf58 8ebe a92b d5be 9aa2 23bf 16fc 42be
00000060: 3a13 80be 9140 803e eab9 d4be 7a76 c5be
00000070: 2df3 1bbf c3fc b0be 7098 0abf 3e39 84be
00000080: 2bc4 43be d134 90be c6b1 8ebe 583e 32bf
00000090: 376f 83be b0ff a6be 6617 d0be d145 81be
000000a0: 470d bbbe fdb2 79be fa63 1fbf 1738 a9be
000000b0: e4b2 92be 7a9f 0ebf b604 a4be 7974 90be
000000c0: a6a3 9bbe f8ed b8be 59fa 94be 6010 98be
000000d0: 5d7d 17bf 5f8c 5ebe db12 bbbe 94b8 b7be
000000e0: efa9 1ebf 0ac8 14bf fa01 1ebf 0d84 acbe
000000f0: a5a9 a7be e575 a8be e3cc b4be ab1e b4be
-0.2955587 0.0122774765 -0.20397928 -0.44697484 -0.23803417 -0.30168617 -0.26397875 -0.27547202
-0.45029894 -0.46890065 -0.44140872 -0.31249285 -0.3010339 -0.58546 -0.35793772 -0.34659964
-0.3708931 -0.37981522 -0.35648334 -0.28702828 -0.2780213 -0.41634873 -0.63919985 -0.19041476
-0.2501467 0.2504926 -0.4154809 -0.38566953 -0.6091793 -0.34567842 -0.5413885 -0.25824922
-0.19117801 -0.28165296 -0.27870005 -0.6962638 -0.25670788 -0.3261695 -0.40642852 -0.25248578
-0.36533567 -0.24384685 -0.6226193 -0.33050606 -0.28652108 -0.5571209 -0.32034844 -0.28213862
-0.3039829 -0.36119056 -0.2909725 -0.29699993 -0.59175664 -0.21733235 -0.36537823 -0.3588301
-0.6197805 -0.58117735 -0.61721766 -0.33694497 -0.32746616 -0.32902446 -0.35312566 -0.35179648

fc3.weight f4 [1, 64]
00000000: df19 d1bb 2ddc 8d3e 6640 2abc 64e2 733d
00000010: 7fc0 fd3b 7d63 ce3a 6836 7e3d f1b5 2e3d
00000020: be4f a73b e886 69bc 2383 8ebd 6513 013d
00000030: cb48 2e3d 72dc 29bf 7759 5dbd fb5a ba3b
00000040: c38d 5d3d 9755 a8bc 6278 99bc 6b40 8bba
00000050: 7c6e d7ba 6ceb e9bb 407b 27bf e543 b13b
00000060: 3e09 23bc d0f3 d1bd ce45 02bc 3dac 9b3d
00000070: 4694 34bf 929d 0a3c 8779 a9bd c53c b139
00000080: af5e 3a3c 07aa 8fbc a4a2 46bb f618 39bd
00000090: 6d04 0ebc 6f1b ed3c 6116 9bbc 93a0 93bb
000000a0: df56 f63b 137c 0b3c d5b1 2abf 5329 31bb
000000b0: 9389 afbb 2628 fcbe ff8f 46bc e3f7 fa3a
000000c0: 451d 2abb a11e 03bc 066b 44bc d2db a23c
000000d0: 5578 37bf bc5e d73c ff05 ed3c 6736 f23c
000000e0: edef 2bbf ce45 96bc 2a30 33bf 3fb1 36bb
000000f0: 69bd cbbd d672 6fbc bac7 07bd ea9c 20bc
-0.006381258 0.27707043 -0.01039133 0.059542075 0.0077438946 0.0015746203 0.062063605 0.04265398
0.0051059416 -0.014253356 -0.06958606 0.031512637 0.04254989 -0.66352 -0.0540404 0.0056871152
0.054090273 -0.020548625 -0.01873416 -0.0010624056 -0.0016436125 -0.00713866 -0.6542244 0.005409705
-0.009950934 -0.10251582 -0.007951213 0.07601211 -0.7053875 0.008460419 -0.082751326 0.00033805348
0.011375113 -0.01753713 -0.0030309344 -0.04518982 -0.008668047 0.028943745 -0.01893157 -0.004505226
0.00751768 0.008513468 -0.666776 -0.0027032688 -0.0053569763 -0.4924938 -0.012119292 0.0019147362
-0.0025957387 -0.008002908 -0.011988407 0.01988021 -0.7166799 0.02629029 0.028933523 0.029566957
-0.6716297 -0.018343832 -0.6999537 -0.0027876643 -0.099482365 -0.014614781 -0.03314946 -0.009803036

bn1.weight f4 [128]
00000000: 0000 803f 0000 803f 0000 803f 0000 803f
00000010: 0000 803f 0000 803f 0000 803f 0000 803f
00000020: 0000 803f 0000 803f 0000 803f 0000 803f
00000030: 0000 803f 0000 803f 0000 803f 0000 803f
00000040: 0000 803f 0000 803f 0000 803f 0000 803f
00000050: 0000 803f 0000 803f 0000 803f 0000 803f
00000060: 0000 803f 0000 803f 0000 803f 0000 803f
00000070: 0000 803f 0000 803f 0000 803f 0000 803f
00000080: 0000 803f 0000 803f 0000 803f 0000 803f
00000090: 0000 803f 0000 803f 0000 803f 0000 803f
000000a0: 0000 803f 0000 803f 0000 803f 0000 803f
000000b0: 0000 803f 0000 803f 0000 803f 0000 803f
000000c0: 0000 803f 0000 803f 0000 803f 0000 803f
000000d0: 0000 803f 0000 803f 0000 803f 0000 803f
000000e0: 0000 803f 0000 803f 0000 803f 0000 803f
000000f0: 0000 803f 0000 803f 0000 803f 0000 803f
00000100: 0000 803f 0000 803f 0000 803f 0000 803f
00000110: 0000 803f 0000 803f 0000 803f 0000 803f
00000120: 0000 803f 0000 803f 0000 803f 0000 803f
00000130: 0000 803f 0000 803f 0000 803f 0000 803f
00000140: 0000 803f 0000 803f 0000 803f 0000 803f
00000150: 0000 803f 0000 803f 0000 803f 0000 803f
00000160: 0000 803f 0000 803f 0000 803f 0000 803f
00000170: 0000 803f 0000 803f 0000 803f 0000 803f
00000180: 0000 803f 0000 803f 0000 803f 0000 803f
00000190: 0000 803f 0000 803f 0000 803f 0000 803f
000001a0: 0000 803f 0000 803f 0000 803f 0000 803f
000001b0: 0000 803f 0000 803f 0000 803f 0000 803f
000001c0: 0000 803f 0000 803f 0000 803f 0000 803f
000001d0: 0000 803f 0000 803f 0000 803f 0000 803f
000001e0: 0000 803f 0000 803f 0000 803f 0000 803f
000001f0: 0000 803f 0000 803f 0000 803f 0000 803f
1.0 1.0 1.0 1.0 1.0 1.0 1.0 1.0
1.0 1.0 1.0 1.0 1.0 1.0 1.0 1.0
1.0 1.0 1.0 1.0 1.0 1.0 1.0 1.0
1.0 1.0 1.0 1.0 1.0 1.0 1.0 1.0
1.0 1.0 1.0 1.0 1.0 1.0 1.0 1.0
1.0 1.0 1.0 1.0 1.0 1.0 1.0 1.0
1.0 1.0 1.0 1.0 1.0 1.0 1.0 1.0
1.0 1.0 1.0 1.0 1.0 1.0 1.0 1.0
1.0 1.0 1.0 1.0 1.0 1.0 1.0 1.0
1.0 1.0 1.0 1.0 1.0 1.0 1.0 1.0
1.0 1.0 1.0 1.0 1.0 1.0 1.0 1.0
1.0 1.0 1.0 1.0 1.0 1.0 1.0 1.0
1.0 1.0 1.0 1.0 1.0 1.0 1.0 1.0
1.0 1.0 1.0 1.0 1.0 1.0 1.0 1.0
1.0 1.0 1.0 1.0 1.0 1.0 1.0 1.0
1.0 1.0 1.0 1.0 1.0 1.0 1.0 1.0

bn1.bias f4 [128]
00000000: 0000 0000 0000 0000 0000 0000 0000 0000
00000010: 0000 0000 0000 0000 0000 0000 0000 0000
00000020: 0000 0000 0000 0000 0000 0000 0000 0000
00000030: 0000 0000 0000 0000 0000 0000 0000 0000
00000040: 0000 0000 0000 0000 0000 0000 0000 0000
00000050: 0000 0000 0000 0000 0000 0000 0000 0000
00000060: 0000 0000 0000 0000 0000 0000 0000 0000
00000070: 0000 0000 0000 0000 0000 0000 0000 0000
00000080: 0000 0000 0000 0000 0000 0000 0000 0000
00000090: 0000 0000 0000 0000 0000 0000 0000 0000
000000a0: 0000 0000 0000 0000 0000 0000 0000 0000
000000b0: 0000 0000 0000 0000 0000 0000 0000 0000
000000c0: 0000 0000 0000 0000 0000 0000 0000 0000
000000d0: 0000 0000 0000 0000 0000 0000 0000 0000
000000e0: 0000 0000 0000 0000 0000 0000 0000 0000
000000f0: 0000 0000 0000 0000 0000 0000 0000 0000
00000100: 0000 0000 0000 0000 0000 0000 0000 0000
00000110: 0000 0000 0000 0000 0000 0000 0000 0000
00000120: 0000 0000 0000 0000 0000 0000 0000 0000
00000130: 0000 0000 0000 0000 0000 0000 0000 0000
00000140: 0000 0000 0000 0000 0000 0000 0000 0000
00000150: 0000 0000 0000 0000 0000 0000 0000 0000
00000160: 0000 0000 0000 0000 0000 0000 0000 0000
00000170: 0000 0000 0000 0000 0000 0000 0000 0000
00000180: 0000 0000 0000 0000 0000 0000 0000 0000
00000190: 0000 0000 0000 0000 0000 0000 0000 0000
000001a0: 0000 0000 0000 0000 0000 0000 0000 0000
000001b0: 0000 0000 0000 0000 0000 0000 0000 0000
000001c0: 0000 0000 0000 0000 0000 0000 0000 0000
000001d0: 0000 0000 0000 0000 0000 0000 0000 0000
000001e0: 0000 0000 0000 0000 0000 0000 0000 0000
000001f0: 0000 0000 0000 0000 0000 0000 0000 0000
0.0 0.0 0.0 0.0 0.0 0.0 0.0 0.0
0.0 0.0 0.0 0.0 0.0 0.0 0.0 0.0
0.0 0.0 0.0 0.0 0.0 0.0 0.0 0.0
0.0 0.0 0.0 0.0 0.0 0.0 0.0 0.0
0.0 0.0 0.0 0.0 0.0 0.0 0.0 0.0
0.0 0.0 0.0 0.0 0.0 0.0 0.0 0.0
0.0 0.0 0.0 0.0 0.0 0.0 0.0 0.0
0.0 0.0 0.0 0.0 0.0 0.0 0.0 0.0
0.0 0.0 0.0 0.0 0.0 0.0 0.0 0.0
0.0 0.0 0.0 0.0 0.0 0.0 0.0 0.0
0.0 0.0 0.0 0.0 0.0 0.0 0.0 0.0
0.0 0.0 0.0 0.0 0.0 0.0 0.0 0.0
0.0 0.0 0.0 0.0 0.0 0.0 0.0 0.0
0.0 0.0 0.0 0.0 0.0 0.0 0.0 0.0
0.0 0.0 0.0 0.0 0.0 0.0 0.0 0.0
0.0 0.0 0.0 0.0 0.0 0.0 0.0 0.0

bn1.running_mean f4 [128]
00000000: 0000 0000 0000 0000 0000 0000 0000 0000
00000010: 0000 0000 0000 0000 0000 0000 0000 0000
00000020: 0000 0000 0000 0000 0000 0000 0000 0000
00000030: 0000 0000 0000 0000 0000 0000 0000 0000
00000040: 0000 0000 0000 0000 0000 0000 0000 0000
00000050: 0000 0000 0000 0000 0000 0000 0000 0000
00000060: 0000 0000 0000 0000 0000 0000 0000 0000
00000070: 0000 0000 0000 0000 0000 0000 0000 0000
00000080: 0000 0000 0000 0000 0000 0000 0000 0000
00000090: 0000 0000 0000 0000 0000 0000 0000 0000
000000a0: 0000 0000 0000 0000 0000 0000 0000 0000
000000b0: 0000 0000 0000 0000 0000 0000 0000 0000
000000c0: 0000 0000 0000 0000 0000 0000 0000 0000
000000d0: 0000 0000 0000 0000 0000 0000 0000 0000
000000e0: 0000 0000 0000 0000 0000 0000 0000 0000
000000f0: 0000 0000 0000 0000 0000 0000 0000 0000
00000100: 0000 0000 0000 0000 0000 0000 0000 0000
00000110: 0000 0000 0000 0000 0000 0000 0000 0000
00000120: 0000 0000 0000 0000 0000 0000 0000 0000
00000130: 0000 0000 0000 0000 0000 0000 0000 0000
00000140: 0000 0000 0000 0000 0000 0000 0000 0000
00000150: 0000 0000 0000 0000 0000 0000 0000 0000
00000160: 0000 0000 0000 0000 0000 0000 0000 0000
00000170: 0000 0000 0000 0000 0000 0000 0000 0000
00000180: 0000 0000 0000 0000 0000 0000 0000 0000
00000190: 0000 0000 0000 0000 0000 0000 0000 0000
000001a0: 0000 0000 0000 0000 0000 0000 0000 0000
000001b0: 0000 0000 0000 0000 0000 0000 0000 0000
000001c0: 0000 0000 0000 0000 0000 0000 0000 0000
000001d0: 0000 0000 0000 0000 0000 0000 0000 0000
000001e0: 0000 0000 0000 0000 0000 0000 0000 0000
000001f0: 0000 0000 0000 0000 0000 0000 0000 0000
0.0 0.0 0.0 0.0 0.0 0.0 0.0 0.0
0.0 0.0 0.0 0.0 0.0 0.0 0.0 0.0
0.0 0.0 0.0 0.0 0.0 0.0 0.0 0.0
0.0 0.0 0.0 0.0 0.0 0.0 0.0 0.0
0.0 0.0 0.0 0.0 0.0 0.0 0.0 0.0
0.0 0.0 0.0 0.0 0.0 0.0 0.0 0.0
0.0 0.0 0.0 0.0 0.0 0.0 0.0 0.0
0.0 0.0 0.0 0.0 0.0 0.0 0.0 0.0
0.0 0.0 0.0 0.0 0.0 0.0 0.0 0.0
0.0 0.0 0.0 0.0 0.0 0.0 0.0 0.0
0.0 0.0 0.0 0.0 0.0 0.0 0.0 0.0
0.0 0.0 0.0 0.0 0.0 0.0 0.0 0.0
0.0 0.0 0.0 0.0 0.0 0.0 0.0 0.0
0.0 0.0 0.0 0.0 0.0 0.0 0.0 0.0
0.0 0.0 0.0 0.0 0.0 0.0 0.0 0.0
0.0 0.0 0.0 0.0 0.0 0.0 0.0 0.0

bn1.running_var f4 [128]
00000000: 0000 803f 0000 803f 0000 803f 0000 803f
00000010: 0000 803f 0000 803f 0000 803f 0000 803f
00000020: 0000 803f 0000 803f 0000 803f 0000 803f
00000030: 0000 803f 0000 803f 0000 803f 0000 803f
00000040: 0000 803f 0000 803f 0000 803f 0000 803f
00000050: 0000 803f 0000 803f 0000 803f 0000 803f
00000060: 0000 803f 0000 803f 0000 803f 0000 803f
00000070: 0000 803f 0000 803f 0000 803f 0000 803f
00000080: 0000 803f 0000 803f 0000 803f 0000 803f
00000090: 0000 803f 0000 803f 0000 803f 0000 803f
000000a0: 0000 803f 0000 803f 0000 803f 0000 803f
000000b0: 0000 803f 0000 803f 0000 803f 0000 803f
000000c0: 0000 803f 0000 803f 0000 803f 0000 803f
000000d0: 0000 803f 0000 803f 0000 803f 0000 803f
000000e0: 0000 803f 0000 803f 0000 803f 0000 803f
000000f0: 0000 803f 0000 803f 0000 803f 0000 803f
00000100: 0000 803f 0000 803f 0000 803f 0000 803f
00000110: 0000 803f 0000 803f 0000 803f 0000 803f
00000120: 0000 803f 0000 803f 0000 803f 0000 803f
00000130: 0000 803f 0000 803f 0000 803f 0000 803f
00000140: 0000 803f 0000 803f 0000 803f 0000 803f
00000150: 0000 803f 0000 803f 0000 803f 0000 803f
00000160: 0000 803f 0000 803f 0000 803f 0000 803f
00000170: 0000 803f 0000 803f 0000 803f 0000 803f
00000180: 0000 803f 0000 803f 0000 803f 0000 803f
00000190: 0000 803f 0000 803f 0000 803f 0000 803f
000001a0: 0000 803f 0000 803f 0000 803f 0000 803f
000001b0: 0000 803f 0000 803f 0000 803f 0000 803f
000001c0: 0000 803f 0000 803f 0000 803f 0000 803f
000001d0: 0000 803f 0000 803f 0000 803f 0000 803f
000001e0: 0000 803f 0000 803f 0000 803f 0000 803f
000001f0: 0000 803f 0000 803f 0000 803f 0000 803f
1.0 1.0 1.0 1.0 1.0 1.0 1.0 1.0
1.0 1.0 1.0 1.0 1.0 1.0 1.0 1.0
1.0 1.0 1.0 1.0 1.0 1.0 1.0 1.0
1.0 1.0 1.0 1.0 1.0 1.0 1.0 1.0
1.0 1.0 1.0 1.0 1.0 1.0 1.0 1.0
1.0 1.0 1.0 1.0 1.0 1.0 1.0 1.0
1.0 1.0 1.0 1.0 1.0 1.0 1.0 1.0
1.0 1.0 1.0 1.0 1.0 1.0 1.0 1.0
1.0 1.0 1.0 1.0 1.0 1.0 1.0 1.0
1.0 1.0 1.0 1.0 1.0 1.0 1.0 1.0
1.0 1.0 1.0 1.0 1.0 1.0 1.0 1.0
1.0 1.0 1.0 1.0 1.0 1.0 1.0 1.0
1.0 1.0 1.0 1.0 1.0 1.0 1.0 1.0
1.0 1.0 1.0 1.0 1.0 1.0 1.0 1.0
1.0 1.0 1.0 1.0 1.0 1.0 1.0 1.0
1.0 1.0 1.0 1.0 1.0 1.0 1.0 1.0

bn2.weight f4 [64]
00000000: 0000 803f 0000 803f 0000 803f 0000 803f
00000010: 0000 803f 0000 803f 0000 803f 0000 803f
00000020: 0000 803f 0000 803f 0000 803f 0000 803f
00000030: 0000 803f 0000 803f 0000 803f 0000 803f
00000040: 0000 803f 0000 803f 0000 803f 0000 803f
00000050: 0000 803f 0000 803f 0000 803f 0000 803f
00000060: 0000 803f 0000 803f 0000 803f 0000 803f
00000070: 0000 803f 0000 803f 0000 803f 0000 803f
00000080: 0000 803f 0000 803f 0000 803f 0000 803f
00000090: 0000 803f 0000 803f 0000 803f 0000 803f
000000a0: 0000 803f 0000 803f 0000 803f 0000 803f
000000b0: 0000 803f 0000 803f 0000 803f 0000 803f
000000c0: 0000 803f 0000 803f 0000 803f 0000 803f
000000d0: 0000 803f 0000 803f 0000 803f 0000 803f
000000e0: 0000 803f 0000 803f 0000 803f 0000 803f
000000f0: 0000 803f 0000 803f 0000 803f 0000 803f
1.0 1.0 1.0 1.0 1.0 1.0 1.0 1.0
1.0 1.0 1.0 1.0 1.0 1.0 1.0 1.0
1.0 1.0 1.0 1.0 1.0 1.0 1.0 1.0
1.0 1.0 1.0 1.0 1.0 1.0 1.0 1.0
1.0 1.0 1.0 1.0 1.0 1.0 1.0 1.0
1.0 1.0 1.0 1.0 1.0 1.0 1.0 1.0
1.0 1.0 1.0 1.0 1.0 1.0 1.0 1.0
1.0 1.0 1.0 1.0 1.0 1.0 1.0 1.0

bn2.bias f4 [64]
00000000: 0000 0000 0000 0000 0000 0000 0000 0000
00000010: 0000 0000 0000 0000 0000 0000 0000 0000
00000020: 0000 0000 0000 0000 0000 0000 0000 0000
00000030: 0000 0000 0000 0000 0000 0000 0000 0000
00000040: 0000 0000 0000 0000 0000 0000 0000 0000
00000050: 0000 0000 0000 0000 0000 0000 0000 0000
00000060: 0000 0000 0000 0000 0000 0000 0000 0000
00000070: 0000 0000 0000 0000 0000 0000 0000 0000
00000080: 0000 0000 0000 0000 0000 0000 0000 0000
00000090: 0000 0000 0000 0000 0000 0000 0000 0000
000000a0: 0000 0000 0000 0000 0000 0000 0000 0000
000000b0: 0000 0000 0000 0000 0000 0000 0000 0000
000000c0: 0000 0000 0000 0000 0000 0000 0000 0000
000000d0: 0000 0000 0000 0000 0000 0000 0000 0000
000000e0: 0000 0000 0000 0000 0000 0000 0000 0000
000000f0: 0000 0000 0000 0000 0000 0000 0000 0000
0.0 0.0 0.0 0.0 0.0 0.0 0.0 0.0
0.0 0.0 0.0 0.0 0.0 0.0 0.0 0.0
0.0 0.0 0.0 0.0 0.0 0.0 0.0 0.0
0.0 0.0 0.0 0.0 0.0 0.0 0.0 0.0
0.0 0.0 0.0 0.0 0.0 0.0 0.0 0.0
0.0 0.0 0.0 0.0 0.0 0.0 0.0 0.0
0.0 0.0 0.0 0.0 0.0 0.0 0.0 0.0
0.0 0.0 0.0 0.0 0.0 0.0 0.0 0.0

bn2.running_mean f4 [64]
00000000: 0000 0000 0000 0000 0000 0000 0000 0000
00000010: 0000 0000 0000 0000 0000 0000 0000 0000
00000020: 0000 0000 0000 0000 0000 0000 0000 0000
00000030: 0000 0000 0000 0000 0000 0000 0000 0000
00000040: 0000 0000 0000 0000 0000 0000 0000 0000
00000050: 0000 0000 0000 0000 0000 0000 0000 0000
00000060: 0000 0000 0000 0000 0000 0000 0000 0000
00000070: 0000 0000 0000 0000 0000 0000 0000 0000
00000080: 0000 0000 0000 0000 0000 0000 0000 0000
00000090: 0000 0000 0000 0000 0000 0000 0000 0000
000000a0: 0000 0000 0000 0000 0000 0000 0000 0000
000000b0: 0000 0000 0000 0000 0000 0000 0000 0000
000000c0: 0000 0000 0000 0000 0000 0000 0000 0000
000000d0: 0000 0000 0000 0000 0000 0000 0000 0000
000000e0: 0000 0000 0000 0000 0000 0000 0000 0000
000000f0: 0000 0000 0000 0000 0000 0000 0000 0000
0.0 0.0 0.0 0.0 0.0 0.0 0.0 0.0
0.0 0.0 0.0 0.0 0.0 0.0 0.0 0.0
0.0 0.0 0.0 0.0 0.0 0.0 0.0 0.0
0.0 0.0 0.0 0.0 0.0 0.0 0.0 0.0
0.0 0.0 0.0 0.0 0.0 0.0 0.0 0.0
0.0 0.0 0.0 0.0 0.0 0.0 0.0 0.0
0.0 0.0 0.0 0.0 0.0 0.0 0.0 0.0
0.0 0.0 0.0 0.0 0.0 0.0 0.0 0.0

bn2.running_var f4 [64]
00000000: 0000 803f 0000 803f 0000 803f 0000 803f
00000010: 0000 803f 0000 803f 0000 803f 0000 803f
00000020: 0000 803f 0000 803f 0000 803f 0000 803f
00000030: 0000 803f 0000 803f 0000 803f 0000 803f
00000040: 0000 803f 0000 803f 0000 803f 0000 803f
00000050: 0000 803f 0000 803f 0000 803f 0000 803f
00000060: 0000 803f 0000 803f 0000 803f 0000 803f
00000070: 0000 803f 0000 803f 0000 803f 0000 803f
00000080: 0000 803f 0000 803f 0000 803f 0000 803f
00000090: 0000 803f 0000 803f 0000 803f 0000 803f
000000a0: 0000 803f 0000 803f 0000 803f 0000 803f
000000b0: 0000 803f 0000 803f 0000 803f 0000 803f
000000c0: 0000 803f 0000 803f 0000 803f 0000 803f
000000d0: 0000 803f 0000 803f 0000 803f 0000 803f
000000e0: 0000 803f 0000 803f 0000 803f 0000 803f
000000f0: 0000 803f 0000 803f 0000 803f 0000 803f
1.0 1.0 1.0 1.0 1.0 1.0 1.0 1.0
1.0 1.0 1.0 1.0 1.0 1.0 1.0 1.0
1.0 1.0 1.0 1.0 1.0 1.0 1.0 1.0
1.0 1.0 1.0 1.0 1.0 1.0 1.0 1.0
1.0 1.0 1.0 1.0 1.0 1.0 1.0 1.0
1.0 1.0 1.0 1.0 1.0 1.0 1.0 1.0
1.0 1.0 1.0 1.0 1.0 1.0 1.0 1.0
1.0 1.0 1.0 1.0 1.0 1.0 1.0 1.0
