models/0_2023_2023/Postal_GCN/best_model.pth (torch, 101474 bytes, 17 tensors)

conv1.bias f4 [64]
0.0 -0.010835542 0.0 0.0 -0.08514488 0.0 -0.06114421 0.0
0.0 -0.018343022 -0.19844162 -0.06388979 -0.060033057 0.0 0.0 0.0
0.0 -0.0114367455 0.0 0.0 -0.01195445 0.003511775 -0.00992663 -0.04243122
0.0 0.0 0.0 0.0 0.0 0.0 -0.114264235 0.0
0.0 0.0 0.0 -2.8314297 0.0 0.0 -0.04664882 0.0
-0.1727332 0.0 0.0 -0.1708101 0.0 0.0 0.0 0.0
0.0 -0.016144278 -0.13207552 0.0 0.0 0.0 -0.008269249 -0.009619246
0.0 0.0 -0.09412328 -0.024107486 0.09650149 0.0 0.0 0.0
00000000: 0000 0000 8f87 31bc 0000 0000 0000 0000
00000010: 7060 aebd 0000 0000 5a72 7abd 0000 0000
00000020: 0000 0000 1b44 96bc 4834 4bbe a6d8 82bd
00000030: 39e5 75bd 0000 0000 0000 0000 0000 0000
00000040: 0000 0000 3061 3bbc 0000 0000 0000 0000
00000050: 99dc 43bc cf25 663b 4ea3 22bc 5ccc 2dbd
00000060: 0000 0000 0000 0000 0000 0000 0000 0000
00000070: 0000 0000 0000 0000 5e03 eabd 0000 0000
00000080: 0000 0000 0000 0000 0000 0000 2536 35c0
00000090: 0000 0000 0000 0000 d512 3fbd 0000 0000
000000a0: f9e0 30be 0000 0000 0000 0000 d8e8 2ebe
000000b0: 0000 0000 0000 0000 0000 0000 0000 0000
000000c0: 0000 0000 0141 84bc ce3e 07be 0000 0000
000000d0: 0000 0000 0000 0000 bf7b 07bc 0b9a 1dbc
000000e0: 0000 0000 0000 0000 b5c3 c0bd 107d c5bc
000000f0: 93a2 c53d 0000 0000 0000 0000 0000 0000

conv1.lin.weight f4 [64, 12]
-0.03449772 -0.013141871 0.014747205 -0.039392117 0.024649091 0.023405861 0.027886756 -0.02866656
0.044783987 -0.026652865 0.044889085 -0.043151405 -0.050855387 0.016783556 -0.006133617 -0.008328937
-0.03571417 -0.02969236 -0.024048837 -0.054764457 -0.008387368 -0.002825082 -0.01082543 0.0037333667
0.04266391 0.011955158 -0.016460013 -0.018504716 -0.028768107 -0.03116983 -0.007241412 -0.007952553
0.0200027 -0.019219201 0.03584532 -0.031550135 0.00012779557 0.040418845 0.04471133 -0.026045863
0.008009363 0.0053112344 -0.021081364 -0.015534779 0.012178638 -0.031266235 0.0074188327 0.019456914
-0.2192349 -0.06310297 -0.104078 -0.0031189972 -0.21351324 -0.266865 -0.2713987 -0.17283677
0.09648693 0.07460405 -0.27982998 0.15904224 0.010538911 0.0016942512 0.028502127 -0.009100913
0.0045089885 -0.016726049 -0.03765514 0.018195406 0.0057534804 -0.018007252 -0.015202462 0.011758994
-0.070169196 -0.035189755 -0.06244333 -0.00022756879 -0.112122476 -0.15480591 -0.104933225 0.048147775
0.04696521 0.052925054 -0.057821635 0.12904263 -0.018983526 -0.023901371 0.01959312 -0.039132565
0.0007208811 -0.020678502 0.029677518 -0.04186311 0.027262975 0.04448517 0.00909799 -0.0029957895
0.044260096 -0.019215386 -0.0036031094 -0.019689832 -0.0062068477 0.009772356 0.0060054227 -0.008492532
-0.044956576 0.0023023356 -0.0013319188 0.00676421 0.014608689 0.023859216 -0.046488572 -0.022663333
-0.035851624 -0.047361348 -0.051719543 0.03320119 0.0073316633 0.01763094 0.016668169 -0.035722792
-0.32581985 -0.18599541 -0.25447503 -0.0032202096 -0.5478258 -0.56736547 -0.6406817 -0.25376502
0.21430784 0.23341438 -0.589146 0.4885907 -0.07996391 -0.02764062 -0.031313147 -0.0006925835
-0.12648588 -0.14771682 -0.20484535 -0.09913039 0.03426259 0.01166836 -0.10316889 0.08710404
-0.18734144 -0.061963562 -0.03385761 -0.00023538897 -0.24308176 -0.22352076 -0.22596247 -0.13135414
0.098536395 -0.012764312 -0.23979846 0.10580292 0.028760932 -0.040679246 0.01706758 -0.035109647
0.0340514 0.014109219 0.044459596 -0.04433388 -0.04328564 0.03040016 0.039919853 0.027548447
0.02989335 -0.037871685 0.032545358 -0.04245243 0.0100449845 -0.029452767 -0.017859397 0.007961696
-0.01767886 -0.007114289 -0.04261776 -0.042395256 0.017417338 -0.019032242 -0.027355539 -0.017741954
-0.036760982 -0.035944138 0.02690513 0.0228525 0.0059893406 -0.024561943 0.014959504 0.0020200084
-0.03213435 0.009675773 0.040941555 -0.04422672 -0.044711642 0.00576099 0.033858802 -0.027360003
0.009898211 0.031608973 0.013863066 0.009730643 0.033454843 0.017860044 -0.0367211 -0.007812616
0.011567695 0.02841048 -0.056180097 0.012647598 -0.024405928 -0.055508077 -0.0012316527 -0.035884727
0.006371926 -0.029192671 -0.033836585 -0.0038152318 -0.015104508 0.026297735 0.0038766942 0.035096914
0.008426364 -0.014458611 0.030455532 0.0024570453 0.008439348 -0.014461371 0.00016136614 -0.008645336
-0.0038227001 -0.035066266 -0.0002765225 -0.037321955 -0.009673115 0.026058644 -0.031265642 -0.030307883
-0.022845758 -0.024274377 -0.0043357937 -0.0049183867 0.010880179 -0.042551234 -0.015155172 0.012682662
0.02718943 -0.015208707 -0.037557207 0.0010301493 0.07207429 -0.021556875 -0.019365294 -0.003349557
00000000: 7b4d 0dbd 0151 57bc 439e 713c a159 21bd
00000010: e4ec c93c a6bd bf3c c472 e43c 22d6 eabc
00000020: 6a6f 373d 1c57 dabc 9edd 373d 87bf 30bd
00000030: bd4d 50bd ab7d 893c 82fc c8bb 1876 08bc
00000040: 0649 12bd 643d f3bc 1102 c5bc b250 60bd
00000050: 2c6b 09bc 0325 39bb 255d 31bc 80ab 743b
00000060: 5ac0 2e3d 91df 433c 26d7 86bc 3497 97bc
00000070: 18ab ebbc df57 ffbc 5e49 edbb 6d4b 02bc
00000080: b4dc a33c 9671 9dbc 8bd2 123d b73a 01bd
00000090: dd00 0639 3b8e 253d 3a23 373d 225e d5bc
000000a0: b439 033c dd09 ae3b d3b2 acbc 9685 7ebc
000000b0: e988 473c 0611 00bd ae19 f33b 1b64 9f3c
000000c0: 1d7f 60be 213c 81bd d926 d5bd 1768 4cbb
000000d0: 37a3 5abe 87a2 88be c5f4 8abe 1ffc 30be
000000e0: f19a c53d 02ca 983d e045 8fbe f8db 223e
000000f0: 66ab 2c3c a311 de3a 4b7d e93c ff1b 15bc
00000100: 23c0 933b 1105 89bc 473c 1abd 880e 953c
00000110: b187 bc3b f283 93bc bf13 79bc cca8 403c
00000120: deb4 8fbd 2223 10bd 94c4 7fbd 889f 6eb9
00000130: 78a0 e5bd 7185 1ebe 3be7 d6bd 9a36 453d
00000140: 985e 403d f1c7 583d 61d6 6cbd c023 043e
00000150: 5783 9bbc cfcc c3bc c081 a03c 7849 20bd
00000160: 83f9 3c3a f665 a9bc 441e f33c a778 2bbd
00000170: 9a56 df3c 1536 363d bc0f 153c 0255 44bb
00000180: 134a 353d 9669 9dbc 2522 6cbb 924c a1bc
00000190: d062 cbbb 3b1c 203c 23c9 c43b 4324 0bbc
000001a0: 6324 38bd c8e2 163b c793 aeba 4ea6 dd3b
000001b0: 4859 6f3c 6774 c33c cd6a 3ebd 74a8 b9bc
000001c0: 27d9 12bd f9fd 41bd dfd7 53bd f9fd 073d
000001d0: 733e f03b c36e 903c af8b 883c 1052 12bd
000001e0: dcd1 a6be 9575 3ebe 8d4a 82be 270a 53bb
000001f0: 503e 0cbf dd3e 11bf b703 24bf 7ded 81be
00000200: 8473 5b3e 2e04 6f3e 46d2 16bf 8f28 fa3e
00000210: 1ec4 a3bd 956e e2bc 3742 00bd 7e8e 35ba
00000220: 8485 01be 1443 17be fbc2 51be e004 cbbd
00000230: ee56 0c3d a62c 3f3c 364a d3bd 9a63 b23d
00000240: 6fd6 3fbe 81cd 7dbd 47ae 0abd bfd2 76b9
00000250: 6dea 78be a0e2 64be b562 67be b381 06be
00000260: 73cd c93d 6821 51bc ba8d 75be 34af d83d
00000270: 0c9c eb3c 489f 26bd 4fd1 8b3c 22cf 0fbd
00000280: 7b79 0b3d 5b2a 673c 441b 363d 7197 35bd
00000290: 494c 31bd c209 f93c 0083 233d 48ad e13c
000002a0: e6e2 f43c 571f 1bbd 484e 053d 99e2 2dbd
000002b0: b893 243c ee46 f1bc df4d 92bc c671 023c
000002c0: 42d3 90bc fb1e e9bb f68f 2ebd a6a6 2dbd
000002d0: ceae 8e3c 81e9 9bbc b918 e0bc 9357 91bc
000002e0: af92 16bd 293a 13bd 2668 dc3c 2b35 bb3c
000002f0: 3b42 c43b 2136 c9bc b518 753c 1e62 043b
00000300: 4f9f 03bd 2287 1e3c 55b2 273d 1427 35bd
00000310: 8e23 37bd b0c6 bc3b 87af 0a3d 1622 e0bc
00000320: 1b2c 223c 6978 013d ea21 633c 466d 1f3c
00000330: f207 093d 3a4f 923c dd68 16bd 7d00 00bc
00000340: 6e86 3d3c 18bd e83c 1a1d 66bd df37 4f3c
00000350: f1ee c7bc 705c 63bd 686f a1ba ddfb 12bd
00000360: 97cb d03b 7825 efbc 3b98 0abd f808 7abb
00000370: e678 77bc 596e d73c 2310 7e3b c8c1 0f3d
00000380: bb0e 0a3c cfe3 6cbc e17d f93c 6106 213b
00000390: 3145 0a3c 63ef 6cbc 6534 2939 2ba5 0dbc
000003a0: 4486 7abb a5a1 0fbd 39fa 90b9 e8de 18bd
000003b0: fc7b 1ebc f078 d53c 6710 00bd 3d48 f8bc
000003c0: 0727 bbbc 0fdb c6bc 4613 8ebb 6b2a a1bb
000003d0: c742 323c 344a 2ebd 664d 78bc f1ca 4f3c
000003e0: 5ebc de3c f12d 79bc 96d5 19bd 1306 873a
000003f0: af9b 933d 0b98 b0bc f7a3 9ebc 3e84 5bbb

conv2.bias f4 [64]
-0.12705094 -0.02738783 -0.32512462 0.08424492 -0.0072865863 0.03562871 0.09208769 -0.096530035
0.07402552 0.3568697 -0.36867407 0.015402318 0.026564743 -0.124316886 -0.08020075 0.115709215
-0.7292728 -0.2214553 0.14656384 0.020658225 0.83896667 0.19024752 -0.051551245 -0.099157594
-0.42184567 0.20802322 -0.014206347 0.37841573 -0.12439467 0.24262637 -0.05459066 0.07405544
-0.85482156 -0.008812397 0.071219355 0.31731004 -0.5578618 0.11870562 0.053525485 -0.3384486
0.15222517 0.06317442 -0.055313043 0.31921813 0.04561276 -0.41484678 -0.059457436 0.013759123
0.070380405 -0.013948865 0.160319 0.6679854 -0.13079265 0.08190772 -0.23194824 0.09557871
-0.358128 -0.32218558 0.060291767 0.101178005 -0.08965744 -0.5789916 -0.075676985 0.0201479
00000000: a419 02be 715c e0bc bc76 a6be 9a88 ac3d
00000010: 51c4 eebb 69ef 113d 7998 bc3d 8ab1 c5bd
00000020: b19a 973d a0b7 b63e d9c2 bcbe 015a 7c3c
00000030: 4e9e d93c da99 febd 4a40 a4bd f4f8 ec3d
00000040: 9fb1 3abf 2ec5 62be d514 163e 703b a93c
00000050: 85c6 563f 3fd0 423e 6627 53bd 2313 cbbd
00000060: 28fc d7be 0a04 553e bdc1 68bc b5bf c13e
00000070: a2c2 febd 0c73 783e 759a 5fbd 61aa 973d
00000080: 96d5 5abf df61 10bc 74db 913d 7676 a23e
00000090: 08d0 0ebf ef1b f33d 8a3d 5b3d 2349 adbe
000000a0: eae0 1b3e 9761 813d ee8f 62bd 8f70 a33e
000000b0: 72d4 3a3d cc66 d4be a489 73bd f26d 613c
000000c0: 9a23 903d c889 64bc aa2a 243e 1701 2b3f
000000d0: 82ee 05be 3cbf a73d d783 6dbe c5be c33d
000000e0: 8e5c b7be 82f5 a4be 80f4 763d 6a36 cf3d
000000f0: 529e b7bd cb38 14bf 89fc 9abd 350d a53c

conv2.lin.weight f4 [64, 64]
0.02616736 0.0066766934 0.0020255067 0.0071386117 -0.023692884 -0.0067883474 -0.007181832 -0.021924105
-0.0015362124 -0.020783756 0.0011900036 -0.008083813 -0.017708 0.03301841 0.017077567 0.025048602
-0.029492816 -0.03467511 0.025765747 -0.0060841 0.00626031 0.018017255 0.0010533108 0.0013121221
0.02058714 0.027678844 -0.0096552605 -0.029580176 -0.018998215 0.024759583 -0.0056627477 0.029666077
-0.012119985 -0.032828737 0.010759416 -0.0063585583 -0.020714028 0.021600364 -0.002822288 -0.0029585005
-0.0056618145 0.030182224 -0.028303824 -0.022269564 -0.017132899 -0.026900606 -0.018212683 0.023374759
-0.023053905 0.027022304 0.012414687 0.0015048516 0.005926348 0.0073129777 0.00937193 -0.018558893
-0.00060257956 0.022984138 0.02896405 -0.0027394055 -0.029732972 0.015923014 -0.03170007 0.030881802
0.021294584 0.026481133 0.004732623 0.0251859 -0.009066872 -0.028898383 -0.016134823 0.025782233
-0.017315986 -0.010529215 0.011747266 -0.01817241 0.0041276985 -0.021990972 0.0073204353 -0.0056561306
0.0045713717 0.026883507 -0.022308994 -0.011812768 -0.014033513 0.035675965 -0.0040127547 0.019884521
0.007996106 -0.034182087 -0.0245965 -0.0089042485 -0.026560668 0.018371549 0.023442667 -6.356016e-05
0.004242408 0.009130315 0.011523471 0.015358378 -0.013632936 -0.0214231 0.0059489766 0.027397025
0.0044508968 0.029811969 0.01211905 -0.01141207 0.013457642 0.013877959 -0.015419881 -0.006072975
-0.0035981906 0.01957632 0.032020498 -0.007619915 0.022529773 0.01868147 -0.02207109 0.034947883
-0.0014032924 0.026742388 0.030964786 -0.02567283 -0.022962587 -0.0039438717 0.011133447 -0.00551407
-0.033355206 0.0117052635 -0.019812025 0.015728896 0.016035877 -0.011686019 0.01239046 0.004607296
-0.010876975 0.018278776 0.005577357 0.009447328 -0.027267098 0.025896868 -0.016386654 -0.029845854
-0.014977613 -0.03805275 0.00970116 0.0023324497 -0.00976794 -0.031522162 0.010182139 -0.0022061705
-0.008695545 0.0061384887 0.012219631 -0.020815702 -0.009979024 -0.015733844 0.021427253 0.008567044
-0.02614766 0.024468727 -0.005501473 0.031778764 0.0044828453 -0.0040464746 0.024018455 0.015008042
6.476029e-07 -0.012596243 0.007974292 -0.031311933 -0.011978856 0.017567575 -0.03409961 -0.0008716499
-0.012769624 0.009415972 -0.029408546 0.005996907 -0.009988482 0.029066663 -0.013370767 -0.015681818
-0.010763904 0.02442468 0.004784753 -0.00064993685 0.012323789 0.013379483 -0.0044422164 -0.018350359
-0.033155687 0.021940859 0.02701971 -0.013242106 -0.014825738 0.0059736427 -0.0036082012 0.026602536
-0.00059978047 -0.014301046 -0.022752568 0.010296547 -0.0007729309 0.008173691 0.021182438 0.014739621
6.5993e-05 0.003569122 -0.017499713 0.031287353 0.038501695 0.0065930914 0.043655235 0.035348583
0.019918796 0.017809955 0.013716713 -0.006077715 0.0034430637 0.028187018 -0.0031082274 0.010812867
-0.011181542 0.0056857746 0.02012244 -0.016917937 0.016953418 0.016486298 -0.0042990544 0.031549238
0.0073867417 0.032799494 -0.028013384 -0.015192379 -0.028769149 0.0030691782 0.026473533 -0.02368008
0.009067551 0.007453742 -0.02795366 -0.001360545 -0.004067959 -0.016804164 -0.012396122 0.010863662
-0.0035554916 -0.006866817 -0.007987012 0.0035697871 -0.0040514735 -0.020756284 0.0147824455 -0.0005121955
00000000: ee5c d63c 2ac8 da3b 5dbe 043b 04eb e93b
00000010: 9417 c2bc c970 debb 9355 ebbb 2e9a b3bc
00000020: bc5a c9ba b242 aabc e5f9 9b3a f871 04bc
00000030: 5e10 91bc 503e 073d 41e6 8b3c ba32 cd3c
00000040: eb9a f1bc 7d07 0ebd b012 d33c 215d c7bb
00000050: 4923 cd3b ec98 933c 3f0f 8a3a 83fb ab3a
00000060: 5da6 a83c bebe e23c 1931 1ebc 2052 f2bc
00000070: 25a2 9bbc 9cd4 ca3c 928e b9bb 4606 f33c
00000080: e792 46bc 6d77 06bd 4348 303c 745b d0bb
00000090: 77b0 a9bc 3ff3 b03c 23f6 38bb 67e3 41bb
000000a0: be86 b9bb b640 f73c 6cdd e7bc a96e b6bc
000000b0: 4b5a 8cbc a95e dcbc c432 95bc 6c7c bf3c
000000c0: 8bdb bcbc e15d dd3c f966 4b3c 713e c53a
000000d0: cf31 c23b b4a1 ef3b b98c 193c d208 98bc
000000e0: 6ef6 1dba 3b49 bc3c 0446 ed3c 9987 33bb
000000f0: 9092 f3bc fb70 823c efd7 01bd d5fb fc3c
00000100: fb71 ae3c f6ee d83c 1f14 9b3b a952 ce3c
00000110: 388d 14bc 4dbc ecbc 2d2d 84bc 4335 d33c
00000120: 41da 8dbc bb82 2cbc 9b77 403c 4ede 94bc
00000130: a541 873b 6926 b4bc 43e0 ef3b 1057 b9bb
00000140: 72cb 953b cd3a dc3c 5ac1 b6bc 578a 41bc
00000150: d2ec 65bc f620 123d 6d7d 83bb dde4 a23c
00000160: 1902 033c 8402 0cbd 997e c9bc 20e3 11bc
00000170: c295 d9bc ee7f 963c d60a c03c 9a4b 85b8
00000180: e603 8b3b 5197 153c f1cc 3c3c b5a1 7b3c
00000190: ae5c 5fbc 7f7f afbc a2ef c23b ba6f e03c
000001a0: d4d8 913b 3b38 f43c fb8e 463c b1f9 3abc
000001b0: 717d 5c3c 6160 633c aba3 7cbc cfff c6bb
000001c0: 9fcf 6bbb 855e a03c ed27 033d 7bb0 f9bb
000001d0: 5c90 b83c e209 993c 6ece b4bc 8325 0f3d
000001e0: aeee b7ba da12 db3c dda9 fd3c d44f d2bc
000001f0: 091c bcbc 983b 81bb 1069 363c 5faf b4bb
00000200: 789f 08bd 6fc7 3f3c d44c a2bc e3d9 803c
00000210: ac5d 833c b776 3fbc 5b01 4b3c cdf8 963b
00000220: 5735 32bc 5fbd 953c 43c2 b63b f7c8 1a3c
00000230: 405f dfbc ab25 d43c 4e3d 86bc 4b7f f4bc
00000240: aa64 75bc 33dd 1bbd 9df1 1e3c 03dc 183b
00000250: b609 20bc 621d 01bd fdd2 263c 6695 10bb
00000260: c277 0ebc 6025 c93b d934 483c b185 aabc
00000270: 0f7f 23bc 43e4 80bc 3588 af3c c95c 0c3c
00000280: 9e33 d6bc a472 c83c b345 b4bb 732a 023d
00000290: d5e4 923b 4a98 84bb 5ac2 c43c 4ae4 753c
000002a0: efd6 2d35 7960 4ebc 9ba6 023c f140 00bd
000002b0: f742 44bc e0e9 8f3c 08ac 0bbd 6f7f 64ba
000002c0: af37 51bc 7345 1a3c 31ea f0bc b481 c43b
000002d0: bba6 23bc 361d ee3c 1011 5bbc 2877 80bc
000002e0: 165b 30bc 4416 c83c 6bc9 9c3b 8660 2aba
000002f0: b8e9 493c 9e35 5b3c 0390 91bb 7e53 96bc
00000300: 42ce 07bd 51bd b33c 7058 dd3c 6bf5 58bc
00000310: a7e7 72bc 8cbe c33b 9277 6cbb 90ed d93c
00000320: 963a 1dba ef4e 6abc 9863 babc d9b2 283c
00000330: 849e 4aba f2ea 053c cb86 ad3c 747e 713c
00000340: b965 8a38 eee7 693b 8f5b 8fbc 2b27 003d
00000350: f4b3 1d3d dc0a d83b d5cf 323d adc9 103d
00000360: be2c a33c 2fe6 913c 10bc 603c 9227 c7bb
00000370: 06a5 613b 76e8 e63c 67b3 4bbb 7428 313c
00000380: c932 37bc bc4f ba3b d1d7 a43c 7c97 8abc
00000390: e5e1 8a3c 460e 873c 15df 8cbb c639 013d
000003a0: 7b0c f23b c358 063d 537c e5bc 75e9 78bc
000003b0: 47ad ebbc 4424 493b 06df d83c bafc c1bc
000003c0: 1190 143c 853e f43b 13ff e4bc 5154 b2ba
000003d0: 834c 85bb e3a8 89bc 1b19 4bbc 80fd 313c
000003e0: 4003 69bb 0903 e1bb f5db 02bc 17f3 693b
000003f0: 39c2 84bb 1509 aabc 1232 723c dc44 06ba

fc1.weight f4 [128, 74]
-0.0075154323 0.032480195 0.03456188 -0.0034119543 -0.015988892 0.06212487 -0.061369307 -0.0020308464
0.032528166 -0.06973449 0.0026042222 -0.021201983 0.040795635 0.03784695 0.109912425 0.01547069
-0.021673331 -0.009490052 -0.0117642665 0.0511302 0.031546783 0.01658511 0.0027557178 0.029105319
-0.017850062 -0.029551456 0.02269794 0.015704218 -0.01125488 0.08928687 -0.050829414 0.022274872
-0.029552253 -0.022815065 -0.038334355 -0.033978388 -0.0339282 -0.18878251 0.00093384314 0.0140374275
-0.008180041 -0.017159253 0.07856028 0.03383978 -0.02282316 -0.011448399 0.000746561 0.007106345
-0.230491 0.02845796 -0.09070033 -0.021180516 0.029498786 -0.0068275896 -0.00034361877 -0.034017365
-0.0077995323 -0.06919084 -0.02756538 0.029097172 0.019547477 -0.0066675977 0.07729839 -0.014403966
-1.3318573 0.013776726 -0.42047998 3.6109288 0.4503845 -0.16454457 -0.0153768975 0.4295913
-0.03492625 -0.0243648 -0.12342714 0.09894049 -0.14500248 0.15685701 0.21229382 0.02364356
-0.025110116 0.15868561 0.08874057 -0.08612952 0.14908907 0.088293135 -0.19576521 -0.11298218
-0.24850768 -0.088832885 0.03215092 -0.08473191 -0.10224629 0.20101401 0.19539559 0.2528724
-0.00974595 0.05551555 0.2536019 -0.11842426 -0.014788503 0.06784836 -0.066433 0.5581138
-0.15499687 -0.05520176 -0.18203218 0.100641616 0.42889172 -0.07817692 -0.23361874 -0.26260483
0.019009931 0.010712112 0.0754934 0.1485241 0.19447295 0.35692433 -0.10574449 -0.043786738
-0.03584452 0.18895152 -0.18037121 0.0110494755 -0.17077363 0.034501895 0.21067686 0.34596297
-0.17588553 -0.1477074 0.07331652 -0.058751054 0.07127581 0.061645452 -0.049578864 -0.14105147
0.094569825 0.08710735 -0.90979683 0.0122503 0.10129318 0.19749314 1.2588187 0.25334445
-0.15671153 -0.41405025 -0.102854505 -0.07029262 -0.3062292 0.076825745 0.19592215 -0.14435036
-0.21611317 -0.24201982 -0.17632325 0.22362563 0.26750264 0.027367653 0.22149469 0.18205944
0.26040506 0.12660258 0.19828801 0.028043643 0.023199407 0.0741764 0.22855532 -0.36808035
-0.07429927 0.03933148 -0.12330063 -0.1000705 0.09022065 -0.04434742 0.014711916 -0.2693067
-0.118157804 -0.3409709 0.1535893 0.26626685 0.12469404 -0.312792 -0.022864174 0.15560599
0.17065828 0.16141719 0.25061807 0.13745485 0.054280546 -0.24376787 -0.023365181 0.11213895
0.22367755 0.13111095 0.105792135 0.2530237 0.55947614 -0.083798625 0.25996456 -0.0795702
-0.1537241 0.05655294 0.10415154 -0.12645765 0.0033568363 0.12475338 -0.18513063 0.15320875
0.07865357 0.06192284 0.38894367 0.03175973 -0.60923386 -0.0040585226 -0.6510192 3.5959587
0.16440274 0.108144656 -0.09806314 0.75969887 -0.09116782 -0.07498808 0.30448344 0.102080695
0.013914707 0.00162925 0.033502907 -0.10484699 -0.07269143 0.09947805 0.095724314 0.10235748
-0.052918192 -0.11974304 -0.06616522 -0.05258805 0.07907744 0.00645744 0.16114984 -0.094903514
0.08523818 0.21058999 0.082376495 -0.14099908 0.011017704 -0.021864386 -0.07755089 0.22142936
0.06540715 0.020323237 0.038627677 0.21821022 0.07003079 -0.0052646548 -0.023634093 -0.03356052
00000000: 0444 f6bb f409 053d c290 0d3d 189b 5fbb
00000010: 23fb 82bc a676 7e3d 625e 7bbd f317 05bb
00000020: 413c 053d f5d0 8ebd 99ab 2a3b c8af adbc
00000030: 5319 273d 6705 1b3d c419 e13d c778 7d3c
00000040: 458c b1bc 2a7c 1bbc e9be 40bc e76d 513d
00000050: 3337 013d 7fdd 873c 4699 343b 476e ee3c
00000060: 4b3a 92bc e515 f2bc 08f1 b93c 22a6 803c
00000070: 6366 38bc 09dc b63d 8132 50bd cb79 b63c
00000080: 9117 f2bc a9e6 babc 7c04 1dbd ec2c 0bbd
00000090: 4cf8 0abd 3450 41be 27cd 743a 3dfd 653c
000000a0: 9405 06bc 9091 8cbc 36e4 a03d 959b 0a3d
000000b0: a3f7 babc 1192 3bbc dcb4 433a 58dc e83b
000000c0: d505 6cbe ab20 e93c 18c1 b9bd c382 adbc
000000d0: 70a7 f13c f9b9 dfbb bb27 b4b9 cb55 0bbd
000000e0: 3893 ffbb edb3 8dbd cbd0 e1bc 315d ee3c
000000f0: 0822 a03c dd7b dabb 9e4e 9e3d 9dfe 6bbc
00000100: 4d7a aabf c7b7 613c 2749 d7be 7519 6740
00000110: cc98 e63e 5f7e 28be 62ef 7bbc 64f3 db3e
00000120: d40e 0fbd b098 c7bc 5ec7 fcbd 50a1 ca3d
00000130: 887b 14be 209f 203e 8d63 593e 24b0 c13c
00000140: bbb3 cdbc 7b7e 223e 9ebd b53d ac64 b0bd
00000150: ceaa 183e 08d3 b43d ad76 48be 3463 e7bd
00000160: cc78 7ebe 04ee b5bd afb0 033d ec87 adbd
00000170: 8166 d1bd 9ed6 4d3e c815 483e 7e78 813e
00000180: 7aad 1fbc 4664 633d 1cd8 813e 6b88 f2bd
00000190: 7a4b 72bc 15f4 8a3d 060e 88bd 8ce0 0e3f
000001a0: 80b7 1ebe 3e1b 62bd a566 3abe 311d ce3d
000001b0: b297 db3e 391b a0bd c039 6fbe 2474 86be
000001c0: b7ba 9b3c db81 2f3c 499c 9a3d b416 183e
000001d0: eb23 473e c9be b63e 9190 d8bd b959 33bd
000001e0: b4d1 12bd 827c 413e 3bb3 38be dc08 353c
000001f0: 48df 2ebe dc51 0d3d adbb 573e 0f22 b13e
00000200: 561b 34be 9c40 17be f926 963d f2a4 70bd
00000210: 0df9 913d f17f 7c3d 3513 4bbd cc6f 10be
00000220: d3ad c13d 5765 b23d 72e8 68bf 7bb5 483c
00000230: cc72 cf3d a43b 4a3e f920 a13f 5db6 813e
00000240: fd78 20be 65fe d3be 62a5 d2bd 94f5 8fbd
00000250: 13ca 9cbe d156 9d3d d19f 483e 95d0 13be
00000260: c54c 5dbe 0bd4 77be 158e 34be 1efe 643e
00000270: 1bf6 883e 2132 e03c 81cf 623e ca6d 3a3e
00000280: d053 853e 1ba4 013e 030c 4b3e c8bb e53c
00000290: af0c be3c cce9 973d 680a 6a3e 0775 bcbe
000002a0: 372a 98bd 0c1a 213d 0a85 fcbd c3f1 ccbd
000002b0: 9bc5 b83d a4a5 35bd 400a 713c 91e2 89be
000002c0: b8fc f1bd bd93 aebe 8346 1d3e 2154 883e
000002d0: 975f ff3d 4626 a0be a64d bbbc 2d57 1f3e
000002e0: 0bc1 2e3e 8c4a 253e 0351 803e f7c0 0c3e
000002f0: 4755 5e3d 499e 79be 5668 bfbc 1ba9 e53d
00000300: ba0b 653e f341 063e 8ca9 d83d 538c 813e
00000310: d439 0f3f 9d9e abbd 131a 853e b3f5 a2bd
00000320: da69 1dbe 0ea4 673d 674d d53d 1d7e 01be
00000330: 5efe 5b3b b37e ff3d e292 3dbe c1e2 1c3e
00000340: 1f15 a13d cea2 7d3d a023 c73e 7e16 023d
00000350: c0f6 1bbf 5bfd 84bb 32a9 26bf 3024 6640
00000360: 3159 283e f27a dd3d 54d5 c8bd a07b 423f
00000370: 32b6 babd 5a93 99bd 41e5 9b3e af0f d13d
00000380: 83fa 633c 8f8c d53a 583a 093d 05ba d6bd
00000390: 3fdf 94bd 26bb cb3d 1c0b c43d cca0 d13d
000003a0: bfc0 58bd d73b f5bd a281 87bd 9166 57bd
000003b0: 5af3 a13d ef98 d33b 7704 253e c65c c2bd
000003c0: 5b91 ae3d e7a4 573e 02b5 a83d 1062 10be
000003d0: 9a83 343c f11c b3bc 00d3 9ebd 61be 623e
000003e0: 2ff4 853d eb7c a63c 0e38 1e3d 8072 5f3e
000003f0: 4e6c 8f3d 2083 acbb 499c c1bc c176 09bd

fc1.bias f4 [128]
-0.016559314 -0.14770728 -0.068740234 -0.12027871 0.020239443 0.061177142 -0.040651906 -0.06703061
-0.20181437 -0.11812975 -0.03527762 -0.026808765 -0.13272667 -0.13955158 -0.024756711 -0.034520034
-0.048052132 -0.32923394 -0.00540369 -0.07269086 -0.06411062 -0.057473395 -0.019499429 -0.11310644
0.052915722 0.034030747 -0.05746246 -0.0048203487 0.002015346 -0.026956176 -0.38699046 -0.027483083
-0.06676 -0.049113505 -0.07757349 -0.073660575 -0.009364103 -0.025340686 -0.15164347 0.07765644
-0.18689878 -0.08937927 -0.012930923 -0.019608727 -0.157151 0.1324978 -0.034758825 -0.0033265492
-0.08262338 -0.059605815 0.017238561 -0.105002016 -0.08467715 -0.08727024 -0.31323928 -0.08464612
-0.1364003 -0.071198545 -0.04566319 -0.06200943 -0.03959854 -0.034272652 -0.038605656 -0.08858732
-0.10770739 -0.01507458 0.036333837 0.012460455 -0.07551566 0.00037610464 -0.05374414 0.011310647
-0.041539162 -0.014231145 -0.05011215 -0.0624147 -0.06805162 -0.039724395 -0.123837985 -0.17063333
-0.009722662 0.12777485 -0.0036472504 0.06431105 -0.0057757874 -0.0810857 -0.031385675 -0.10277981
-0.0742269 -0.066359095 -0.021785904 0.017996311 -0.043160874 -0.062240954 0.013154353 -0.116337076
-0.069094926 0.0056539676 -0.122388825 -0.003388537 -0.101287335 -0.039717246 -0.052626755 -0.006036156
-0.087777585 -0.047754794 -0.11810978 -0.08015212 -0.049170714 -0.14569153 -0.21198297 -0.09454395
0.030507877 -0.050346848 -0.062294755 -0.007243917 -0.034307953 -0.021076392 -0.058911998 -0.02774004
-0.0808216 -0.08828135 -0.028117443 -0.02536829 -0.177196 -0.023272885 -0.03004728 -0.08045945
00000000: 66a7 87bc 9440 17be aec7 8cbd af54 f6bd
00000010: 30cd a53c e294 7a3d 9d82 26bd 5847 89bd
00000020: 6da8 4ebe 03ee f1bd 447f 10bd 0e9e dbbc
00000030: 80e9 07be 9ce6 0ebe 96ce cabc e164 0dbd
00000040: 50d2 44bd 5a91 a8be 7011 b1bb f2de 94bd
00000050: 6e4c 83bd 3969 6bbd 44bd 9fbc 59a4 e7bd
00000060: 28be 583d d363 0b3d c25d 6bbd 04f4 9dbb
00000070: e513 043b 33d3 dcbc 9d23 c6be 3424 e1bc
00000080: 78b9 88bd 3e2b 49bd dade 9ebd 5bdb 96bd
00000090: e56b 19bc 4597 cfbc 6d48 1bbe 570a 9f3d
000000a0: 6562 3fbe 7b0c b7bd 39dc 53bc 7ba2 a0bc
000000b0: 31ec 20be 81ad 073e 455f 0ebd 3c02 5abb
000000c0: 7236 a9bd 3a25 74bd e237 8d3c 4c0b d7bd
000000d0: 376b adbd bdba b2bd e660 a0be f25a adbd
000000e0: 85ac 0bbe 8bd0 91bd 5309 3bbd 9afd 7dbd
000000f0: 1432 22bd 7b61 0cbd f720 1ebd 456d b5bd
00000100: b195 dcbd 5ffb 76bc cad2 143d f026 4c3c
00000110: f4a7 9abd e92f c539 d122 5cbd 4b50 393c
00000120: f824 2abd c029 69bc 6642 4dbd 8ea6 7fbd
00000130: a65e 8bbd 0cb6 22bd c59e fdbd 81ba 2ebe
00000140: cd4b 1fbc 69d7 023e b506 6fbb 83b5 833d
00000150: d142 bdbb 4210 a6bd 448e 00bd 397e d2bd
00000160: 4604 98bd 47e7 87bd 5a78 b2bc 006d 933c
00000170: 75c9 30bd 5ff0 7ebd 5b85 573c 2242 eebd
00000180: a481 8dbd eb44 b93b fea6 fabd 3812 5ebb
00000190: bc6f cfbd 8dae 22bd 278f 57bd f2ca c5bb
000001a0: bcc4 b3bd 889a 43bd 8ae3 f1bd cb26 a4bd
000001b0: 3b67 49bd 2930 15be 1012 59be 42a0 c1bd
000001c0: a8eb f93c 7f38 4ebd c928 7fbd 615e edbb
000001d0: 7f86 0cbd 66a8 acbc b54d 71bd 153f e3bc
000001e0: cc85 a5bd dacc b4bd 8d56 e6bc 29d1 cfbc
000001f0: de72 35be c7a6 bebc b725 f6bc edc7 a4bd

fc2.weight f4 [64, 128]
0.057431046 0.15586472 0.04217308 0.32084885 0.047744732 0.16472794 0.24807929 0.059663672
0.41500115 0.04621231 0.313531 -0.14464813 0.01205794 -0.4267931 0.29061776 -0.15963373
0.04891442 0.24701716 0.11614211 0.11160573 0.122181736 0.09793149 0.11049849 -0.044475798
0.15207921 0.06838239 0.15138291 -0.013987353 -0.09793769 -0.120066 0.23466992 0.05061644
0.13846914 0.4026121 0.31595975 -0.14219116 0.043201964 -0.14703888 0.18628801 0.012942399
0.43016326 0.092109226 0.3296398 0.34740815 -0.043579865 -0.003930148 0.027200198 -0.040468823
0.14057101 0.079540625 0.16817142 0.28240803 0.36051798 0.121337995 0.19287808 -0.24960737
0.1335076 0.0070956578 -0.41851324 0.0037815254 0.07986547 0.054219555 -0.017266992 0.108517244
0.20246169 0.36808494 -0.018417357 -0.18999943 0.469255 0.18839687 -0.39894402 -0.20179822
-0.035404697 0.017431624 0.03640567 -0.089445665 -0.04182686 -0.06882596 -0.04596231 -0.23986985
0.38077167 -0.28804064 -0.045601428 -0.041125387 0.2101134 0.0722864 0.027612414 0.16228001
-0.4075472 0.22350739 0.12523127 0.022286803 -0.19626318 -0.18505517 -0.22326706 0.12642388
-0.15012419 0.21809044 0.0131705 0.49395955 0.053309474 0.06151372 0.15713532 0.020664558
-0.41971454 -0.21774873 -0.0050518294 -0.14326574 -0.07058357 -0.25245434 0.11125439 0.53831905
-0.24870685 0.023091102 0.28875783 -0.03676292 -0.025646558 0.051227912 0.18396555 0.080706194
0.3289815 0.024085369 0.18067664 0.23162588 0.055997565 0.07252331 0.069107436 0.13872908
-0.07842796 0.03939304 -0.029007358 0.022975814 -0.05412947 0.033363994 -0.015988365 -0.05870915
0.13488752 0.06505108 0.02011223 -0.0049242117 -0.033006348 -0.15837228 0.048002373 0.068416044
0.1207482 0.069624305 0.06856913 0.05226452 0.106707245 0.08811731 0.012477538 -0.11833795
-0.047343582 0.11355104 0.13341425 0.061911594 0.009646157 0.11486606 0.053305127 0.059460104
-0.017196842 0.054473434 0.004265064 0.0892478 0.039049663 0.055625726 0.07526918 -0.31638938
0.059513103 -0.022814734 -0.026830094 0.034292214 0.0051972843 -1.1443106 0.05236098 0.04947689
0.072033815 0.18849087 0.08468787 -0.023408018 0.047389694 -0.04231393 0.0063239112 0.1624115
-0.026767338 -0.075675495 0.007971034 0.03578686 0.10046217 0.04202356 -0.045023162 0.0058581214
0.008843396 -0.022424126 0.18142104 0.0037729172 0.058282807 0.08489606 0.11002956 0.12109483
0.099085875 0.072810404 0.06951441 0.076230474 0.022146348 0.035499357 -0.06981367 -0.0020001212
-0.007040632 -0.12852032 -0.028876599 0.0542936 -0.004713282 0.09141447 0.042066056 0.025522541
0.06924593 0.06442556 -0.048446234 -0.04109023 0.11932967 0.07224511 0.06520349 0.09622703
0.065779015 -0.009899968 -0.070297986 0.071410574 -0.046235804 0.05725362 -0.053459067 -0.059876468
-0.0050146333 0.08251326 -0.04251855 0.092970476 0.015245167 0.6564788 0.055904597 0.06739471
0.12833078 0.01766992 0.109298125 0.08292395 0.14121692 0.03765062 -0.0058080344 0.15513667
0.073982805 0.04430081 0.06967253 0.023061788 -0.02260372 -0.0056999903 0.051441833 0.05469512
00000000: d13c 6b3d 009b 1f3e aebd 2c3d 4d46 a43e
00000010: fb8f 433d 71ae 283e 7f08 7e3e e561 743d
00000020: 087b d43e 1f49 3d3d 2387 a03e a41e 14be
00000030: aa8e 453c a084 dabe dacb 943e 0677 23be
00000040: 7d5a 483d 11f2 7c3e eadb ed3d 8c91 e43d
00000050: 6b3a fa3d 4e90 c83d 084d e23d 412c 36bd
00000060: a7ba 1b3e 110c 8c3d 1f04 1b3e 362b 65bc
00000070: 8e93 c8bd 2ae5 f5bd 504d 703e 2f53 4f3d
00000080: dbca 0d3e 2c23 ce3e 7ac5 a13e 8f9a 11be
00000090: 8bf4 303d 5c91 16be 49c2 3e3e 5b0c 543c
000000a0: 5c3e dc3e c3a3 bc3d 8cc6 a83e 7bdf b13e
000000b0: cd80 32bd 79c8 80bb f3d2 de3c a3c2 25bd
000000c0: d9f1 0f3e 32e6 a23d 2135 2c3e c997 903e
000000d0: d095 b83e 0e80 f83d d581 453e 1399 7fbe
000000e0: 37b6 083e b182 e83b 5e47 d6be 78d3 773b
000000f0: 8290 a33d 5315 5e3d 8273 8dbc 4a3e de3d
00000100: 1e52 4f3e a175 bc3e ffdf 96bc 368f 42be
00000110: 3142 f03e 1ceb 403e 6442 ccbe 31a4 4ebe
00000120: 8404 11bd c4cc 8e3c 1d1e 153d 4a2f b7bd
00000130: a452 2bbd a0f4 8cbd fa42 3cbd 71a0 75be
00000140: 81f4 c23e 107a 93be 90c8 3abd 1873 28bd
00000150: f827 573e e40a 943d 6e33 e23c bb2c 263e
00000160: 07aa d0be 1fdf 643e a03c 003e d092 b63c
00000170: 37f9 48be 1a7f 3dbe 1fa0 64be 4375 013e
00000180: 28ba 19be 1a53 5f3e 15c9 573c 44e8 fc3e
00000190: 095b 5a3d cff5 7b3d 15e8 203e b848 a93c
000001a0: d3e4 d6be 86f9 5ebe d189 a5bb 41b4 12be
000001b0: 1e8e 90bd b241 81be 57d9 e33d 47cf 093f
000001c0: 02ad 7ebe 8d29 bd3c 11d8 933e b794 16bd
000001d0: bb18 d2bc 5cd4 513d 7761 3c3e 4a49 a53d
000001e0: 4370 a83e ae4e c53c 4c03 393e 562f 6d3e
000001f0: b45d 653d 1a87 943d 3388 8d3d ff0e 0e3e
00000200: d79e a0bd 995a 213d d7a0 edbc c637 bc3c
00000210: ddb6 5dbd afa8 083d 08fa 82bc 0179 70bd
00000220: f41f 0a3e 8039 853d 67c2 a43c 485b a1bb
00000230: aa31 07bd 582c 22be 239e 443d b61d 8c3d
00000240: d54a f73d 3097 8e3d f96d 8c3d 5213 563d
00000250: 5489 da3d d976 b43d 966e 4c3c 2b5b f2bd
00000260: 58eb 41bd 738d e83d bf9d 083e 0397 7d3d
00000270: ea0a 1e3c e63e eb3d 7a56 5a3d 708c 733d
00000280: 64e0 8cbc 891f 5f3d f3c1 8b3b 8dc7 b63d
00000290: 8af2 1f3d cdd7 633d ba26 9a3d cafd a1be
000002a0: 03c4 733d f7e5 babc c9ca dbbc fe75 0c3d
000002b0: fb4d aa3b c578 92bf 7878 563d 48a8 4a3d
000002c0: 7786 933d c003 413e d670 ad3d 2cc2 bfbc
000002d0: b21b 423d 5f51 2dbd d038 cf3b 334f 263e
000002e0: 2d47 dbbc c1fb 9abd f198 023c 3e95 123d
000002f0: 1cbf cd3d e520 2c3d 356a 38bd 7cf5 bf3b
00000300: e4e3 103c cdb2 b7bc 70c6 393e 0c43 773b
00000310: f4b9 6e3d fcdd ad3d 2e57 e13d 9100 f83d
00000320: 89ed ca3d 9f1d 953d 925d 8e3d b91e 9c3d
00000330: 426c b53c c667 113d 78fa 8ebd 7714 03bb
00000340: 1ab5 e6bb d59a 03be 9e8e ecbc f762 5e3d
00000350: e071 9abb 8237 bb3d 754d 2c3d a614 d13c
00000360: cfd0 8d3d 8cf1 833d 8f6f 46bd 3b4e 28bd
00000370: 1d63 f43d 3ff5 933d 6889 853d ad12 c53d
00000380: 26b7 863d 7a33 22bc 64f8 8fbd b53f 923d
00000390: c161 3dbd c682 6a3d e5f7 5abd 0741 75bd
000003a0: cb51 a4bb b6fc a83d ee27 2ebd 4e67 be3d
000003b0: ddc6 793c ff0e 283f 38fc 643d 3d06 8a3d
000003c0: 2569 033e 82c0 903c b2d7 df3d 08d4 a93d
000003d0: 2b9b 103e 8937 1a3d 5351 bebb 26dc 1e3e
000003e0: 4c84 973d c474 353d 79b0 8e3d 13ec bc3c
000003f0: 702b b9bc fcc6 babb acb4 523d fd07 603d

fc2.bias f4 [64]
-0.32891384 -0.0019673137 -0.101550154 -0.3080779 -0.08346201 -0.32997015 -0.1624812 -0.020544572
-0.03295219 -0.24712403 -0.096270785 -0.26988298 -0.3850861 -0.55157864 -0.22718133 -0.055672336
-0.31276172 -0.30709398 -0.32166734 -0.24940069 -0.33008337 -0.16827416 -0.5361399 -0.05704533
-0.32645494 0.9512086 -0.26412484 -0.11613552 -0.69489634 -0.15389188 -0.19424982 -0.32641953
-0.2330907 -0.018881703 -0.19911051 -0.35394666 -0.27775827 -0.12374548 -0.19531779 -0.13456114
-0.3249022 -0.19725314 -0.5583679 0.029786892 -0.3624414 -0.13404632 -0.32874948 -0.10274914
-0.2507445 -0.15071234 -0.4181914 -0.36969128 -0.7235435 -0.33781657 -0.29077986 -0.1909384
-0.57650083 -0.33526224 -0.7044756 -0.4112948 -0.18521982 -0.30604994 -0.2521965 -0.27761728
00000000: 6567 a8be 0cee 00bb 87f9 cfbd 63bc 9dbe
00000010: 21ee aabd d9f1 a8be 7961 26be 174d a8bc
00000020: e0f8 06bd 150e 7dbe 9e29 c5bd 1a2e 8abe
00000030: 012a c5be 4234 0dbf 39a2 68be ad08 64bd
00000040: 4e22 a0be 6c3b 9dbe 95b1 a4be e562 7fbe
00000050: b000 a9be 1050 2cbe 7740 09bf 5da8 69bd
00000060: 1a25 a7be 6882 733f 5f3b 87be 76d8 edbd
00000070: bae4 31bf d595 1dbe 6de9 46be 7620 a7be
00000080: 54af 6ebe cdad 9abc a0e3 4bbe 7f38 b5be
00000090: 5536 8ebe 456e fdbd 6301 48be 65ca 09be
000000a0: 9559 a6be bafc 49be 33f1 0ebf a403 f43c
000000b0: eb91 b9be 7043 09be da51 a8be 246e d2bd
000000c0: 9561 80be 5654 1abe 2f1d d6be 2d48 bdbe
000000d0: 263a 39bf 4bf6 acbe 19e1 94be 5b85 43be
000000e0: 8f95 13bf 7ea7 abbe 8358 34bf 3b95 d2be
000000f0: 44aa 3dbe 94b2 9cbe e61f 81be da23 8ebe

fc3.weight f4 [1, 64]
0.06355272 0.1108348 0.13819908 -0.01536171 -0.0030024047 -0.015086351 -0.16866921 -0.019094372
-0.00279137 -0.044273637 -0.01825521 0.045013543 -0.057780206 -0.185639 -0.022613756 -0.005029301
-0.01911172 -0.012113443 -0.021670356 -0.01880843 -0.020090176 -0.005113618 -0.15182185 0.0041059777
0.035106637 -0.1184783 -0.0107804155 -0.0072127576 -0.40079 -0.008107902 -0.00021263195 0.010216794
0.018875439 -0.0043275617 -0.014383284 -0.0022995204 -0.008183411 -0.019125348 -0.026751326 0.015145695
-0.07935168 -0.0040257326 -0.21425466 -0.0012295168 -0.0075187027 -0.005337207 -0.009371294 -0.010886477
-0.055848293 -0.012724873 -0.1832696 -0.06809315 -0.51503354 -0.042592775 0.013805686 -0.055917002
-0.2665046 -0.121994875 -0.44130397 -0.0032713949 -0.054182034 -0.073949516 -0.0025957131 -0.009353873
00000000: ee27 823d 5bfd e23d 0f84 0d3e afaf 7bbc
00000010: fec3 44bb be2c 77bc 9fb7 2cbe cd6b 9cbc
00000020: 6bef 36bb 4658 35bd f38b 95bc 1f60 383d
00000030: f0aa 6cbd 2618 3ebe 7c40 b9bc d6cc a4bb
00000040: 2f90 9cbc 7677 46bc 0886 b1bc 2314 9abc
00000050: 2794 a4bc 2390 a7bb 3077 1bbe 708b 863b
00000060: facb 0f3d c0a4 f2bd 57a0 30bc ff58 ecbb
00000070: 5934 cdbe 01d7 04bc f4f5 5eb9 5764 273c
00000080: aaa0 9a3c 38ce 8dbb dea7 6bbc 8db3 16bb
00000090: b713 06bc c3ac 9cbc 9925 dbbc a625 783c
000000a0: 2283 a2bd 4bea 83bb 9365 5bbe bd27 a1ba
000000b0: 735f f6bb bde3 aebb 0e8a 19bc 325d 32bc
000000c0: 2ec1 64bd fc7b 50bc 07ab 3bbe 6c74 8bbd
000000d0: 3dd9 03bf c375 2ebd 3e31 623c 3a09 65bd
000000e0: 4a73 88be 73d8 f9bd 98f2 e1be e664 56bb
000000f0: fbed 5dbd d872 97bd d71c 2abb fd40 19bc

bn1.weight f4 [128]
1.0 1.0 1.0 1.0 1.0 1.0 1.0 1.0
1.0 1.0 1.0 1.0 1.0 1.0 1.0 1.0
1.0 1.0 1.0 1.0 1.0 1.0 1.0 1.0
1.0 1.0 1.0 1.0 1.0 1.0 1.0 1.0
1.0 1.0 1.0 1.0 1.0 1.0 1.0 1.0
1.0 1.0 1.0 1.0 1.0 1.0 1.0 1.0
1.0 1.0 1.0 1.0 1.0 1.0 1.0 1.0
1.0 1.0 1.0 1.0 1.0 1.0 1.0 1.0
1.0 1.0 1.0 1.0 1.0 1.0 1.0 1.0
1.0 1.0 1.0 1.0 1.0 1.0 1.0 1.0
1.0 1.0 1.0 1.0 1.0 1.0 1.0 1.0
1.0 1.0 1.0 1.0 1.0 1.0 1.0 1.0
1.0 1.0 1.0 1.0 1.0 1.0 1.0 1.0
1.0 1.0 1.0 1.0 1.0 1.0 1.0 1.0
1.0 1.0 1.0 1.0 1.0 1.0 1.0 1.0
1.0 1.0 1.0 1.0 1.0 1.0 1.0 1.0
00000000: 0000 803f 0000 803f 0000 803f 0000 803f
00000010: 0000 803f 0000 803f 0000 803f 0000 803f
00000020: 0000 803f 0000 803f 0000 803f 0000 803f
00000030: 0000 803f 0000 803f 0000 803f 0000 803f
00000040: 0000 803f 0000 803f 0000 803f 0000 803f
00000050: 0000 803f 0000 803f 0000 803f 0000 803f
00000060: 0000 803f 0000 803f 0000 803f 0000 803f
00000070: 0000 803f 0000 803f 0000 803f 0000 803f
00000080: 0000 803f 0000 803f 0000 803f 0000 803f
00000090: 0000 803f 0000 803f 0000 803f 0000 803f
000000a0: 0000 803f 0000 803f 0000 803f 0000 803f
000000b0: 0000 803f 0000 803f 0000 803f 0000 803f
000000c0: 0000 803f 0000 803f 0000 803f 0000 803f
000000d0: 0000 803f 0000 803f 0000 803f 0000 803f
000000e0: 0000 803f 0000 803f 0000 803f 0000 803f
000000f0: 0000 803f 0000 803f 0000 803f 0000 803f
00000100: 0000 803f 0000 803f 0000 803f 0000 803f
00000110: 0000 803f 0000 803f 0000 803f 0000 803f
00000120: 0000 803f 0000 803f 0000 803f 0000 803f
00000130: 0000 803f 0000 803f 0000 803f 0000 803f
00000140: 0000 803f 0000 803f 0000 803f 0000 803f
00000150: 0000 803f 0000 803f 0000 803f 0000 803f
00000160: 0000 803f 0000 803f 0000 803f 0000 803f
00000170: 0000 803f 0000 803f 0000 803f 0000 803f
00000180: 0000 803f 0000 803f 0000 803f 0000 803f
00000190: 0000 803f 0000 803f 0000 803f 0000 803f
000001a0: 0000 803f 0000 803f 0000 803f 0000 803f
000001b0: 0000 803f 0000 803f 0000 803f 0000 803f
000001c0: 0000 803f 0000 803f 0000 803f 0000 803f
000001d0: 0000 803f 0000 803f 0000 803f 0000 803f
000001e0: 0000 803f 0000 803f 0000 803f 0000 803f
000001f0: 0000 803f 0000 803f 0000 803f 0000 803f

bn1.bias f4 [128]
0.0 0.0 0.0 0.0 0.0 0.0 0.0 0.0
0.0 0.0 0.0 0.0 0.0 0.0 0.0 0.0
0.0 0.0 0.0 0.0 0.0 0.0 0.0 0.0
0.0 0.0 0.0 0.0 0.0 0.0 0.0 0.0
0.0 0.0 0.0 0.0 0.0 0.0 0.0 0.0
0.0 0.0 0.0 0.0 0.0 0.0 0.0 0.0
0.0 0.0 0.0 0.0 0.0 0.0 0.0 0.0
0.0 0.0 0.0 0.0 0.0 0.0 0.0 0.0
0.0 0.0 0.0 0.0 0.0 0.0 0.0 0.0
0.0 0.0 0.0 0.0 0.0 0.0 0.0 0.0
0.0 0.0 0.0 0.0 0.0 0.0 0.0 0.0
0.0 0.0 0.0 0.0 0.0 0.0 0.0 0.0
0.0 0.0 0.0 0.0 0.0 0.0 0.0 0.0
0.0 0.0 0.0 0.0 0.0 0.0 0.0 0.0
0.0 0.0 0.0 0.0 0.0 0.0 0.0 0.0
0.0 0.0 0.0 0.0 0.0 0.0 0.0 0.0
00000000: 0000 0000 0000 0000 0000 0000 0000 0000
00000010: 0000 0000 0000 0000 0000 0000 0000 0000
00000020: 0000 0000 0000 0000 0000 0000 0000 0000
00000030: 0000 0000 0000 0000 0000 0000 0000 0000
00000040: 0000 0000 0000 0000 0000 0000 0000 0000
00000050: 0000 0000 0000 0000 0000 0000 0000 0000
00000060: 0000 0000 0000 0000 0000 0000 0000 0000
00000070: 0000 0000 0000 0000 0000 0000 0000 0000
00000080: 0000 0000 0000 0000 0000 0000 0000 0000
00000090: 0000 0000 0000 0000 0000 0000 0000 0000
000000a0: 0000 0000 0000 0000 0000 0000 0000 0000
000000b0: 0000 0000 0000 0000 0000 0000 0000 0000
000000c0: 0000 0000 0000 0000 0000 0000 0000 0000
000000d0: 0000 0000 0000 0000 0000 0000 0000 0000
000000e0: 0000 0000 0000 0000 0000 0000 0000 0000
000000f0: 0000 0000 0000 0000 0000 0000 0000 0000
00000100: 0000 0000 0000 0000 0000 0000 0000 0000
00000110: 0000 0000 0000 0000 0000 0000 0000 0000
00000120: 0000 0000 0000 0000 0000 0000 0000 0000
00000130: 0000 0000 0000 0000 0000 0000 0000 0000
00000140: 0000 0000 0000 0000 0000 0000 0000 0000
00000150: 0000 0000 0000 0000 0000 0000 0000 0000
00000160: 0000 0000 0000 0000 0000 0000 0000 0000
00000170: 0000 0000 0000 0000 0000 0000 0000 0000
00000180: 0000 0000 0000 0000 0000 0000 0000 0000
00000190: 0000 0000 0000 0000 0000 0000 0000 0000
000001a0: 0000 0000 0000 0000 0000 0000 0000 0000
000001b0: 0000 0000 0000 0000 0000 0000 0000 0000
000001c0: 0000 0000 0000 0000 0000 0000 0000 0000
000001d0: 0000 0000 0000 0000 0000 0000 0000 0000
000001e0: 0000 0000 0000 0000 0000 0000 0000 0000
000001f0: 0000 0000 0000 0000 0000 0000 0000 0000

bn1.running_mean f4 [128]
0.0 0.0 0.0 0.0 0.0 0.0 0.0 0.0
0.0 0.0 0.0 0.0 0.0 0.0 0.0 0.0
0.0 0.0 0.0 0.0 0.0 0.0 0.0 0.0
0.0 0.0 0.0 0.0 0.0 0.0 0.0 0.0
0.0 0.0 0.0 0.0 0.0 0.0 0.0 0.0
0.0 0.0 0.0 0.0 0.0 0.0 0.0 0.0
0.0 0.0 0.0 0.0 0.0 0.0 0.0 0.0
0.0 0.0 0.0 0.0 0.0 0.0 0.0 0.0
0.0 0.0 0.0 0.0 0.0 0.0 0.0 0.0
0.0 0.0 0.0 0.0 0.0 0.0 0.0 0.0
0.0 0.0 0.0 0.0 0.0 0.0 0.0 0.0
0.0 0.0 0.0 0.0 0.0 0.0 0.0 0.0
0.0 0.0 0.0 0.0 0.0 0.0 0.0 0.0
0.0 0.0 0.0 0.0 0.0 0.0 0.0 0.0
0.0 0.0 0.0 0.0 0.0 0.0 0.0 0.0
0.0 0.0 0.0 0.0 0.0 0.0 0.0 0.0
00000000: 0000 0000 0000 0000 0000 0000 0000 0000
00000010: 0000 0000 0000 0000 0000 0000 0000 0000
00000020: 0000 0000 0000 0000 0000 0000 0000 0000
00000030: 0000 0000 0000 0000 0000 0000 0000 0000
00000040: 0000 0000 0000 0000 0000 0000 0000 0000
00000050: 0000 0000 0000 0000 0000 0000 0000 0000
00000060: 0000 0000 0000 0000 0000 0000 0000 0000
00000070: 0000 0000 0000 0000 0000 0000 0000 0000
00000080: 0000 0000 0000 0000 0000 0000 0000 0000
00000090: 0000 0000 0000 0000 0000 0000 0000 0000
000000a0: 0000 0000 0000 0000 0000 0000 0000 0000
000000b0: 0000 0000 0000 0000 0000 0000 0000 0000
000000c0: 0000 0000 0000 0000 0000 0000 0000 0000
000000d0: 0000 0000 0000 0000 0000 0000 0000 0000
000000e0: 0000 0000 0000 0000 0000 0000 0000 0000
000000f0: 0000 0000 0000 0000 0000 0000 0000 0000
00000100: 0000 0000 0000 0000 0000 0000 0000 0000
00000110: 0000 0000 0000 0000 0000 0000 0000 0000
00000120: 0000 0000 0000 0000 0000 0000 0000 0000
00000130: 0000 0000 0000 0000 0000 0000 0000 0000
00000140: 0000 0000 0000 0000 0000 0000 0000 0000
00000150: 0000 0000 0000 0000 0000 0000 0000 0000
00000160: 0000 0000 0000 0000 0000 0000 0000 0000
00000170: 0000 0000 0000 0000 0000 0000 0000 0000
00000180: 0000 0000 0000 0000 0000 0000 0000 0000
00000190: 0000 0000 0000 0000 0000 0000 0000 0000
000001a0: 0000 0000 0000 0000 0000 0000 0000 0000
000001b0: 0000 0000 0000 0000 0000 0000 0000 0000
000001c0: 0000 0000 0000 0000 0000 0000 0000 0000
000001d0: 0000 0000 0000 0000 0000 0000 0000 0000
000001e0: 0000 0000 0000 0000 0000 0000 0000 0000
000001f0: 0000 0000 0000 0000 0000 0000 0000 0000

bn1.running_var f4 [128]
1.0 1.0 1.0 1.0 1.0 1.0 1.0 1.0
1.0 1.0 1.0 1.0 1.0 1.0 1.0 1.0
1.0 1.0 1.0 1.0 1.0 1.0 1.0 1.0
1.0 1.0 1.0 1.0 1.0 1.0 1.0 1.0
1.0 1.0 1.0 1.0 1.0 1.0 1.0 1.0
1.0 1.0 1.0 1.0 1.0 1.0 1.0 1.0
1.0 1.0 1.0 1.0 1.0 1.0 1.0 1.0
1.0 1.0 1.0 1.0 1.0 1.0 1.0 1.0
1.0 1.0 1.0 1.0 1.0 1.0 1.0 1.0
1.0 1.0 1.0 1.0 1.0 1.0 1.0 1.0
1.0 1.0 1.0 1.0 1.0 1.0 1.0 1.0
1.0 1.0 1.0 1.0 1.0 1.0 1.0 1.0
1.0 1.0 1.0 1.0 1.0 1.0 1.0 1.0
1.0 1.0 1.0 1.0 1.0 1.0 1.0 1.0
1.0 1.0 1.0 1.0 1.0 1.0 1.0 1.0
1.0 1.0 1.0 1.0 1.0 1.0 1.0 1.0
00000000: 0000 803f 0000 803f 0000 803f 0000 803f
00000010: 0000 803f 0000 803f 0000 803f 0000 803f
00000020: 0000 803f 0000 803f 0000 803f 0000 803f
00000030: 0000 803f 0000 803f 0000 803f 0000 803f
00000040: 0000 803f 0000 803f 0000 803f 0000 803f
00000050: 0000 803f 0000 803f 0000 803f 0000 803f
00000060: 0000 803f 0000 803f 0000 803f 0000 803f
00000070: 0000 803f 0000 803f 0000 803f 0000 803f
00000080: 0000 803f 0000 803f 0000 803f 0000 803f
00000090: 0000 803f 0000 803f 0000 803f 0000 803f
000000a0: 0000 803f 0000 803f 0000 803f 0000 803f
000000b0: 0000 803f 0000 803f 0000 803f 0000 803f
000000c0: 0000 803f 0000 803f 0000 803f 0000 803f
000000d0: 0000 803f 0000 803f 0000 803f 0000 803f
000000e0: 0000 803f 0000 803f 0000 803f 0000 803f
000000f0: 0000 803f 0000 803f 0000 803f 0000 803f
00000100: 0000 803f 0000 803f 0000 803f 0000 803f
00000110: 0000 803f 0000 803f 0000 803f 0000 803f
00000120: 0000 803f 0000 803f 0000 803f 0000 803f
00000130: 0000 803f 0000 803f 0000 803f 0000 803f
00000140: 0000 803f 0000 803f 0000 803f 0000 803f
00000150: 0000 803f 0000 803f 0000 803f 0000 803f
00000160: 0000 803f 0000 803f 0000 803f 0000 803f
00000170: 0000 803f 0000 803f 0000 803f 0000 803f
00000180: 0000 803f 0000 803f 0000 803f 0000 803f
00000190: 0000 803f 0000 803f 0000 803f 0000 803f
000001a0: 0000 803f 0000 803f 0000 803f 0000 803f
000001b0: 0000 803f 0000 803f 0000 803f 0000 803f
000001c0: 0000 803f 0000 803f 0000 803f 0000 803f
000001d0: 0000 803f 0000 803f 0000 803f 0000 803f
000001e0: 0000 803f 0000 803f 0000 803f 0000 803f
000001f0: 0000 803f 0000 803f 0000 803f 0000 803f

bn2.weight f4 [64]
1.0 1.0 1.0 1.0 1.0 1.0 1.0 1.0
1.0 1.0 1.0 1.0 1.0 1.0 1.0 1.0
1.0 1.0 1.0 1.0 1.0 1.0 1.0 1.0
1.0 1.0 1.0 1.0 1.0 1.0 1.0 1.0
1.0 1.0 1.0 1.0 1.0 1.0 1.0 1.0
1.0 1.0 1.0 1.0 1.0 1.0 1.0 1.0
1.0 1.0 1.0 1.0 1.0 1.0 1.0 1.0
1.0 1.0 1.0 1.0 1.0 1.0 1.0 1.0
00000000: 0000 803f 0000 803f 0000 803f 0000 803f
00000010: 0000 803f 0000 803f 0000 803f 0000 803f
00000020: 0000 803f 0000 803f 0000 803f 0000 803f
00000030: 0000 803f 0000 803f 0000 803f 0000 803f
00000040: 0000 803f 0000 803f 0000 803f 0000 803f
00000050: 0000 803f 0000 803f 0000 803f 0000 803f
00000060: 0000 803f 0000 803f 0000 803f 0000 803f
00000070: 0000 803f 0000 803f 0000 803f 0000 803f
00000080: 0000 803f 0000 803f 0000 803f 0000 803f
00000090: 0000 803f 0000 803f 0000 803f 0000 803f
000000a0: 0000 803f 0000 803f 0000 803f 0000 803f
000000b0: 0000 803f 0000 803f 0000 803f 0000 803f
000000c0: 0000 803f 0000 803f 0000 803f 0000 803f
000000d0: 0000 803f 0000 803f 0000 803f 0000 803f
000000e0: 0000 803f 0000 803f 0000 803f 0000 803f
000000f0: 0000 803f 0000 803f 0000 803f 0000 803f

bn2.bias f4 [64]
0.0 0.0 0.0 0.0 0.0 0.0 0.0 0.0
0.0 0.0 0.0 0.0 0.0 0.0 0.0 0.0
0.0 0.0 0.0 0.0 0.0 0.0 0.0 0.0
0.0 0.0 0.0 0.0 0.0 0.0 0.0 0.0
0.0 0.0 0.0 0.0 0.0 0.0 0.0 0.0
0.0 0.0 0.0 0.0 0.0 0.0 0.0 0.0
0.0 0.0 0.0 0.0 0.0 0.0 0.0 0.0
0.0 0.0 0.0 0.0 0.0 0.0 0.0 0.0
00000000: 0000 0000 0000 0000 0000 0000 0000 0000
00000010: 0000 0000 0000 0000 0000 0000 0000 0000
00000020: 0000 0000 0000 0000 0000 0000 0000 0000
00000030: 0000 0000 0000 0000 0000 0000 0000 0000
00000040: 0000 0000 0000 0000 0000 0000 0000 0000
00000050: 0000 0000 0000 0000 0000 0000 0000 0000
00000060: 0000 0000 0000 0000 0000 0000 0000 0000
00000070: 0000 0000 0000 0000 0000 0000 0000 0000
00000080: 0000 0000 0000 0000 0000 0000 0000 0000
00000090: 0000 0000 0000 0000 0000 0000 0000 0000
000000a0: 0000 0000 0000 0000 0000 0000 0000 0000
000000b0: 0000 0000 0000 0000 0000 0000 0000 0000
000000c0: 0000 0000 0000 0000 0000 0000 0000 0000
000000d0: 0000 0000 0000 0000 0000 0000 0000 0000
000000e0: 0000 0000 0000 0000 0000 0000 0000 0000
000000f0: 0000 0000 0000 0000 0000 0000 0000 0000

bn2.running_mean f4 [64]
0.0 0.0 0.0 0.0 0.0 0.0 0.0 0.0
0.0 0.0 0.0 0.0 0.0 0.0 0.0 0.0
0.0 0.0 0.0 0.0 0.0 0.0 0.0 0.0
0.0 0.0 0.0 0.0 0.0 0.0 0.0 0.0
0.0 0.0 0.0 0.0 0.0 0.0 0.0 0.0
0.0 0.0 0.0 0.0 0.0 0.0 0.0 0.0
0.0 0.0 0.0 0.0 0.0 0.0 0.0 0.0
0.0 0.0 0.0 0.0 0.0 0.0 0.0 0.0
00000000: 0000 0000 0000 0000 0000 0000 0000 0000
00000010: 0000 0000 0000 0000 0000 0000 0000 0000
00000020: 0000 0000 0000 0000 0000 0000 0000 0000
00000030: 0000 0000 0000 0000 0000 0000 0000 0000
00000040: 0000 0000 0000 0000 0000 0000 0000 0000
00000050: 0000 0000 0000 0000 0000 0000 0000 0000
00000060: 0000 0000 0000 0000 0000 0000 0000 0000
00000070: 0000 0000 0000 0000 0000 0000 0000 0000
00000080: 0000 0000 0000 0000 0000 0000 0000 0000
00000090: 0000 0000 0000 0000 0000 0000 0000 0000
000000a0: 0000 0000 0000 0000 0000 0000 0000 0000
000000b0: 0000 0000 0000 0000 0000 0000 0000 0000
000000c0: 0000 0000 0000 0000 0000 0000 0000 0000
000000d0: 0000 0000 0000 0000 0000 0000 0000 0000
000000e0: 0000 0000 0000 0000 0000 0000 0000 0000
000000f0: 0000 0000 0000 0000 0000 0000 0000 0000

bn2.running_var f4 [64]
1.0 1.0 1.0 1.0 1.0 1.0 1.0 1.0
1.0 1.0 1.0 1.0 1.0 1.0 1.0 1.0
1.0 1.0 1.0 1.0 1.0 1.0 1.0 1.0
1.0 1.0 1.0 1.0 1.0 1.0 1.0 1.0
1.0 1.0 1.0 1.0 1.0 1.0 1.0 1.0
1.0 1.0 1.0 1.0 1.0 1.0 1.0 1.0
1.0 1.0 1.0 1.0 1.0 1.0 1.0 1.0
1.0 1.0 1.0 1.0 1.0 1.0 1.0 1.0
00000000: 0000 803f 0000 803f 0000 803f 0000 803f
00000010: 0000 803f 0000 803f 0000 803f 0000 803f
00000020: 0000 803f 0000 803f 0000 803f 0000 803f
00000030: 0000 803f 0000 803f 0000 803f 0000 803f
00000040: 0000 803f 0000 803f 0000 803f 0000 803f
00000050: 0000 803f 0000 803f 0000 803f 0000 803f
00000060: 0000 803f 0000 803f 0000 803f 0000 803f
00000070: 0000 803f 0000 803f 0000 803f 0000 803f
00000080: 0000 803f 0000 803f 0000 803f 0000 803f
00000090: 0000 803f 0000 803f 0000 803f 0000 803f
000000a0: 0000 803f 0000 803f 0000 803f 0000 803f
000000b0: 0000 803f 0000 803f 0000 803f 0000 803f
000000c0: 0000 803f 0000 803f 0000 803f 0000 803f
000000d0: 0000 803f 0000 803f 0000 803f 0000 803f
000000e0: 0000 803f 0000 803f 0000 803f 0000 803f
000000f0: 0000 803f 0000 803f 0000 803f 0000 803f
