models/0_2023_2023/Spatial_GAT/40.pth (torch, 96722 bytes, 13 tensors)

conv1.att_src f4 [1, 8, 8]
0	0x3e385c10	0.18003869
1	0x3e5b7de7	0.21434747
2	0xbffea9c1	-1.9895555
3	0x4025f1b0	2.5928764
4	0x3feb1f78	1.8368979
5	0x3f3515a8	0.7073617
6	0x3fee00ad	1.8593956
7	0x3f2bc394	0.67095304
8	0xbca845cd	-0.020541096
9	0x3c9018bc	0.01758992
10	0x3c9f85cd	0.01947298
11	0xbbf33af8	-0.007422801
12	0x3918f06a	0.00014585411
13	0x3b2812b4	0.0025645914
14	0xbcf4aad1	-0.029866608
15	0xbbc6aeba	-0.0060633095
16	0xbde5573e	-0.11198281
17	0x3d0953db	0.033527236
18	0xbd877bf0	-0.06615436
19	0x3d21123d	0.039324034
20	0xbdc06f0a	-0.09396179
21	0xbd61d2e8	-0.055132776
22	0xbdb5a0f8	-0.08868593
23	0x3ce54890	0.027988702
24	0x3d68bcf7	0.056820836
25	0x3d927d44	0.07152799
26	0x3d6b47c1	0.057441477
27	0xbdba99e8	-0.091113865
28	0x3da8307a	0.08212371
29	0x3d12ef92	0.035873003
30	0xbdf5d7f6	-0.12004082
31	0x3c7a1902	0.015264751
32	0xbd5c276c	-0.053748533
33	0x3c807a4f	0.015683321
34	0xbd6216bf	-0.055197474
35	0xbd3b130e	-0.04567247
36	0x3c4a0800	0.012331009
37	0xbd6bc6b3	-0.05756254
38	0xbc0b60df	-0.008506983
39	0xbc2e8e25	-0.010654007
40	0x3e3154d2	0.17317513
41	0x3e5b1ea5	0.21398409
42	0x4016a4db	2.353812
43	0xbddef154	-0.108858734
44	0xbf1f92d1	-0.623334
45	0x3fa274a7	1.269185
46	0x3e7a3a91	0.24436404
47	0x3f709669	0.9397951
48	0x3d6b6bf3	0.057475995
49	0xbc57e5c0	-0.013177335
50	0xba94fb4e	-0.0011366399
51	0xbddacdb3	-0.10683765
52	0x3dd81875	0.1055154
53	0xbd4e7b4c	-0.050410554
54	0xbdcfb597	-0.101420574
55	0x3daf9cae	0.08574806
56	0xbc45ea91	-0.012079851
57	0xbd2f52f0	-0.042803705
58	0x3cfb4e7a	0.030677069
59	0x3c462610	0.012094036
60	0xbc83f4eb	-0.016107997
61	0xbce8cbd5	-0.028417507
62	0xbb618dd6	-0.0034416816
63	0x3c67fe84	0.014159802

conv1.att_dst f4 [1, 8, 8]
0	0x3fe5354f	1.7906893
1	0x4026146a	2.594996
2	0x3f6870ee	0.9079732
3	0x3fded8c0	1.7409897
4	0x40086564	2.1311884
5	0x40146168	2.3184452
6	0x40213efa	2.5194688
7	0x4004be8e	2.0741305
8	0xbc402933	-0.011728573
9	0x3b2781bf	0.0025559512
10	0xbbe13754	-0.0068730507
11	0xba1d980a	-0.00060117303
12	0xbc8547af	-0.016269533
13	0x3c099d90	0.008399382
14	0xbc791441	-0.015202583
15	0x3c9a968f	0.01887062
16	0xbdc3c02f	-0.095581405
17	0x3d97aa0f	0.07405483
18	0xbd3e4b3a	-0.04645846
19	0xbd90e49a	-0.07074852
20	0xbdcc10d4	-0.09964147
21	0x3cbcfea4	0.02307064
22	0xbbd20603	-0.006409408
23	0x3dfdaea9	0.123868294
24	0xbcaf7636	-0.021418672
25	0xbd847dd8	-0.06469315
26	0xbd8f4dd1	-0.06997264
27	0xbda0e6ef	-0.07856547
28	0xbb31b45e	-0.0027115564
29	0xbd7ad24a	-0.061235704
30	0xbc9b74e5	-0.018976638
31	0xbd8f2ac1	-0.069905765
32	0x3d3ef6c2	0.046622045
33	0x3b7b8630	0.0038379543
34	0x3bc1bbc8	0.005912278
35	0xbd3aace5	-0.04557504
36	0x3d0fa25c	0.035066947
37	0x3cfc76aa	0.030818302
38	0x3c6e24e9	0.014535167
39	0x3cb1a650	0.02168575
40	0xbed4dce9	-0.4157479
41	0xbdde91c1	-0.10867644
42	0x3ef8f019	0.4862068
43	0x3c716916	0.014734527
44	0x3f3071cb	0.68923634
45	0x3f1e0025	0.6171897
46	0xbda37c14	-0.079826504
47	0x3f2c3be4	0.67278886
48	0xbc4e7808	-0.01260186
49	0x3c6ece57	0.014575562
50	0xbd8dcf08	-0.06924254
51	0x3db04e72	0.08608712
52	0x3cbf3564	0.023340888
53	0xbcce0e8c	-0.02515342
54	0x3d1c143f	0.038105246
55	0xbcf31782	-0.029674295
56	0x3d24029f	0.040041562
57	0xbd160a35	-0.036630828
58	0x3d525103	0.05134679
59	0x3d3d170a	0.04616455
60	0xbd880db8	-0.06643242
61	0xbd4a9e99	-0.049467657
62	0xbd28e8ad	-0.041237522
63	0x3d6fe569	0.058568392

conv1.bias f4 [64]
0	0x3d475141	0.048661474
1	0xbea65fa1	-0.32494834
2	0xbea4f815	-0.32220522
3	0xbf5d5143	-0.8645212
4	0xbf1d5966	-0.61464536
5	0xbebf016a	-0.37305766
6	0x3d5a26c7	0.053259637
7	0xbf0b8c5c	-0.54511046
8	0x3b79b696	0.0038103214
9	0xba6054d8	-0.00085575646
10	0xbc097bfa	-0.008391375
11	0xbc68ce92	-0.014209406
12	0xbc2598e8	-0.0101072565
13	0x3bbb599f	0.005717471
14	0x3baf0512	0.0053411806
15	0x3c0f8a38	0.008760981
16	0xbdbc55bc	-0.0919604
17	0xbdb20487	-0.0869227
18	0xbd8f515c	-0.0699794
19	0xbe038dc5	-0.1284705
20	0xbd50667a	-0.05087898
21	0xbda0e0ac	-0.07855353
22	0x3bd436da	0.0064762654
23	0x3d59cfc7	0.053176668
24	0xbd411e41	-0.047147993
25	0xbd1ff840	-0.03905511
26	0xbcb32788	-0.021869436
27	0xbdc1aa3e	-0.09456299
28	0xbd3a7dec	-0.045530245
29	0xbd5405a9	-0.05176321
30	0xbcdf0c92	-0.027227674
31	0xbd97afa0	-0.07406545
32	0x3c722c91	0.014781133
33	0xbcba1e6c	-0.022719584
34	0x3ba3e5f8	0.0050017796
35	0xbbf99cf3	-0.0076175868
36	0x3c0bb39a	0.008526707
37	0xbcd50bb2	-0.026006553
38	0x3bef55b9	0.00730392
39	0xbc32ca64	-0.0109125115
40	0xbe711188	-0.23541844
41	0xbdbb6fe5	-0.091522016
42	0xbf8159e7	-1.0105561
43	0xbe872b70	-0.26400328
44	0xbdf99be3	-0.12187936
45	0xbf4e4f83	-0.80590075
46	0xbf2310c9	-0.6369749
47	0xbf1968d9	-0.5992561
48	0x3d6e9b01	0.058253292
49	0xbd901768	-0.070357144
50	0xbdad2e85	-0.084561385
51	0xb9cb54c4	-0.00038782333
52	0xbcf9ee6d	-0.030509198
53	0xbb80ae74	-0.0039270464
54	0x3c851949	0.016247408
55	0xbde7411b	-0.11291715
56	0xbc3b4352	-0.011429625
57	0x3d04a8d0	0.032387555
58	0xbc3f0858	-0.011659704
59	0xbb856039	-0.0040703085
60	0xbba1ea80	-0.0049412847
61	0x3d1e0812	0.038581915
62	0x3dce0f55	0.10061518
63	0xbd102407	-0.03519061

conv1.lin.weight f4 [64, 12]
0	0xbeb67e97	-0.35643455
1	0x3d4038ba	0.0469291
2	0x3d21193b	0.039330702
3	0xbfb7f317	-1.437106
4	0x3f159ec9	0.5844541
5	0x3fe429b7	1.782523
6	0x3e130ea0	0.14361048
7	0x3feba935	1.8411013
8	0x3fe5559e	1.7916753
9	0x3f8d7b63	1.105328
10	0xbf02fa58	-0.51163244
11	0x3fcf0ad8	1.6175184
12	0xbd11f38b	-0.03563265
13	0xbe882a5c	-0.26594818
14	0xbd349977	-0.044091668
15	0xbfbecc3c	-1.4906077
16	0xbe92d02d	-0.2867445
17	0x3f72e929	0.94887024
18	0x3f40b97e	0.7528304
19	0xbfeca113	-1.8486656
20	0x3f25a8e9	0.6471086
21	0xbf844e7d	-1.0336453
22	0x4013c078	2.3086224
23	0x3f933360	1.1500053
24	0xbe380369	-0.17970051
25	0xbecf81cc	-0.40528715
26	0xbf461230	-0.773715
27	0xbe6abb76	-0.22923073
28	0x3e33c7d3	0.17556696
29	0xbfd089d4	-1.6292062
30	0xbfb4c230	-1.4121761
31	0x4025def0	2.591732
32	0xbf57326a	-0.840613
33	0x3fb194db	1.3873552
34	0xc0e64b1c	-7.1966686
35	0xbf48fb3a	-0.7850834
36	0x3dd58e15	0.104274906
37	0xbf128bcc	-0.57244563
38	0xbef6bcdb	-0.4819096
39	0xbfb46286	-1.4092567
40	0xbe6a9c51	-0.22911192
41	0x3f9f62c1	1.2452012
42	0x3f88461b	1.0646394
43	0xc00818ec	-2.126521
44	0x3f4fb139	0.81129795
45	0xbf93ecc7	-1.1556634
46	0x40954138	4.6642113
47	0x3f7a1f53	0.97704047
48	0x3dcbf904	0.09959605
49	0xbf0172f6	-0.5056604
50	0xbf0de379	-0.5542522
51	0xbf8c1c25	-1.0946089
52	0xbe59b1b0	-0.21259189
53	0x3f876df3	1.0580429
54	0x3f8e6bed	1.1126686
55	0xbfdde888	-1.7336588
56	0x3f3ac2ca	0.72953475
57	0xbf72dd3f	-0.94868845
58	0x4072357d	3.7845147
59	0x3f4d4685	0.8018573
60	0xbda07780	-0.07835293
61	0xbed11898	-0.40839076
62	0xbebcfa72	-0.36909825
63	0xc0029480	-2.0403137
64	0x3f08663f	0.53281015
65	0xc02b8ef7	-2.680601
66	0xbe44aa87	-0.19205676
67	0x40b512b7	5.6585345
68	0x3f859af0	1.0437908
69	0x3fd56458	1.6671247
70	0xbf9c3ac2	-1.2205431
71	0xc056b623	-3.3548667
72	0x3e64453f	0.2229204
73	0x3bcc7f65	0.0062407725
74	0xbcb032a2	-0.021508519
75	0xbfa21834	-1.2663636
76	0xbe1ffb04	-0.15623099
77	0x40b52d09	5.6617475
78	0x3f95ba95	1.1697565
79	0xc0064fc1	-2.0986178
80	0x3f4f8b6b	0.8107211
81	0xbf863668	-1.0485353
82	0x4098d53d	4.77603
83	0xbf394027	-0.72363514
84	0x3d6201bf	0.055177446
85	0xbeceda35	-0.40400854
86	0xbe9260a2	-0.2858935
87	0xc002661c	-2.0374823
88	0xbe8fb3ce	-0.28066868
89	0x3f684bbb	0.90740556
90	0x3f711d45	0.94185287
91	0xbfceebf9	-1.6165763
92	0x3efc780c	0.49310338
93	0xbef85c62	-0.48507982
94	0x404b52f4	3.176938
95	0x3f725977	0.9466776
96	0x3cceee3d	0.025260085
97	0xbb4437be	-0.0029940451
98	0x3b3a104d	0.0028391064
99	0xbd17ecbc	-0.037091002
100	0xbb202031	-0.002443325
101	0x3c24f03f	0.010067045
102	0x3c1f7fe0	0.009735078
103	0xb8cf1614	-9.8746415e-05
104	0xbc5d218a	-0.013496766
105	0x3bebab11	0.0071920236
106	0x3b3c8354	0.00287648
107	0x3a5f6964	0.00085224793
108	0x3c494c3c	0.012286242
109	0x3c78ba1a	0.015181089
110	0xbc30346f	-0.010754689
111	0xbc84a5f8	-0.016192421
112	0xbc39cff2	-0.011341082
113	0xbc9be80f	-0.019031553
114	0xbc5bc1cb	-0.013412903
115	0x3c402b32	0.011729049
116	0x3b896768	0.004193235
117	0x3c34788f	0.0110150715
118	0x3c23a539	0.009988123
119	0xbc14a376	-0.009072175
120	0xbc735a91	-0.014853136
121	0x3be611ba	0.007021156
122	0xbc908fd6	-0.017646711
123	0xbc63f29f	-0.013912826
124	0xbc0b215f	-0.008491843
125	0xbc4567d0	-0.012048677
126	0xbcb6a605	-0.022295961
127	0xbc344b0d	-0.011004222
128	0xbcb22c95	-0.021749774
129	0xbc0b3757	-0.008497081
130	0x3b008b9a	0.001961446
131	0xba3cf9ab	-0.0007208834
132	0x3b613e47	0.0034369396
133	0x3b1e940b	0.0024197127
134	0x3a9eb4bf	0.001210831
135	0xbc805e52	-0.015669975
136	0x3b64b87b	0.0034899998
137	0x3b3ecfd6	0.002911558
138	0xbcf27d8c	-0.029600881
139	0xbc7d87b7	-0.0154742515
140	0xbb1bcc86	-0.0023773029
141	0xbc204632	-0.009782361
142	0x3b9743e6	0.0046162484
143	0x3aefb145	0.0018287083
144	0xbbadc4cf	-0.0053030024
145	0xbbc3fe47	-0.00598124
146	0x3b95c568	0.004570652
147	0xbca6be29	-0.020354347
148	0xbcf55bc4	-0.029950984
149	0xbcc23b18	-0.023709819
150	0xbc289944	-0.010290448
151	0xbc57065c	-0.013124075
152	0x3b9661df	0.004589304
153	0xbd068803	-0.032844555
154	0xbc861b69	-0.016370492
155	0x3a6981fe	0.0008907615
156	0x3cdf58f7	0.027264101
157	0xbca4952b	-0.02009066
158	0x3abd4f55	0.0014443198
159	0xbc173043	-0.009227815
160	0x3caf3094	0.021385469
161	0xbcfc87d3	-0.030826485
162	0x3d2bb1d4	0.041917637
163	0xbce866a6	-0.02836926
164	0xbca27c43	-0.019834643
165	0x3cb99f2a	0.022658903
166	0x3ccee961	0.025257768
167	0x3bd931a0	0.00662823
168	0x3ccbaa21	0.024861397
169	0xbbf71e89	-0.007541482
170	0x3c97fbaa	0.01855262
171	0xbd325006	-0.043533348
172	0x3b9b0545	0.004730853
173	0xbc5fad77	-0.013652197
174	0x3d161938	0.036645144
175	0x3bf06a82	0.0073369155
176	0xbb310f96	-0.0027017347
177	0x3c825b65	0.015912721
178	0xbc82b1be	-0.015953895
179	0xbc9027a4	-0.017597027
180	0x3d2df4f9	0.042469952
181	0xbb1b15c2	-0.0023664092
182	0xbba93bfc	-0.0051646214
183	0xbba7ddb3	-0.005122864
184	0x39f62927	0.00046951437
185	0xbd3acde2	-0.0456065
186	0x3d8617ea	0.0654753
187	0x3b40ae99	0.0029400943
188	0x3b8187dc	0.0039529633
189	0x3cc5507e	0.024086233
190	0x3c7563a7	0.014977372
191	0x3ca85e32	0.020552728
192	0xbde99afb	-0.11406513
193	0xbdb76283	-0.089543365
194	0xbda0377d	-0.078230835
195	0xbd176603	-0.03696252
196	0xbda60b22	-0.08107592
197	0x3d51d432	0.051227756
198	0xbdcd8eba	-0.100369886
199	0x3d363359	0.044482563
200	0xbe36587d	-0.17807193
201	0x3dd583a5	0.104255
202	0xbeca86da	-0.3955601
203	0xbdb1debb	-0.086850606
204	0xbbdc605b	-0.0067253537
205	0xbd2c7d08	-0.042111427
206	0xbd7cb267	-0.061693575
207	0xbba9a534	-0.0051771645
208	0x3d8bd567	0.06827813
209	0xbeec79a2	-0.46186548
210	0x3d1012c1	0.035174135
211	0xbca8757f	-0.020563839
212	0x3e363f1f	0.17797516
213	0x3db5c455	0.08875338
214	0x3ed9fb3a	0.42574483
215	0xbd985381	-0.07437802
216	0xbc8a4a0c	-0.016881011
217	0xbd8a4c53	-0.06752839
218	0xbd907f9b	-0.07055589
219	0xbc9e6cdb	-0.019339016
220	0xbdb20cdb	-0.08693858
221	0x3cd2c005	0.025726328
222	0xba8b3a84	-0.0010622297
223	0xbda0a485	-0.078438796
224	0xbdf115c8	-0.117717326
225	0xbd9c4474	-0.07630244
226	0xbdc89642	-0.097942844
227	0xbddca142	-0.10772945
228	0xbc8a4203	-0.01687718
229	0xbdd0d209	-0.10196311
230	0xbdc20f41	-0.09475566
231	0xbd13abe0	-0.036052585
232	0xbcb45962	-0.022015277
233	0xbe3661fc	-0.17810816
234	0xbc83365d	-0.016017133
235	0x3d981f02	0.07427789
236	0x3d9f030f	0.07764255
237	0x3e322355	0.1739629
238	0x3ddaa702	0.106763855
239	0xbe7d9eee	-0.24767658
240	0xbd8c9b15	-0.06865517
241	0xbd762c08	-0.060100585
242	0xbd581ab4	-0.05275984
243	0xbc90d4b3	-0.017679548
244	0xbe29b592	-0.1657317
245	0xbc59e46d	-0.01329909
246	0xbdd20304	-0.102544814
247	0xbdb85eb6	-0.0900244
248	0xbd81ddd3	-0.06341138
249	0x3d86d5b0	0.065837264
250	0xbdfc91d0	-0.12332499
251	0xbe0eacda	-0.13933125
252	0x3d02be42	0.031919725
253	0xbdb8b6a8	-0.09019214
254	0xbdb7474e	-0.08949147
255	0xbd727ab5	-0.059199054

conv2.att_src f4 [1, 8, 8]
0	0xbe92179d	-0.2853364
1	0xbeccf83c	-0.40033138
2	0xbef92486	-0.48660678
3	0xbf5a227a	-0.8520886
4	0x3db57d6d	0.08861814
5	0x3e9e3ad6	0.30904263
6	0x3e39a800	0.18130493
7	0x3eac7c0b	0.33688387
8	0xbe9d4af4	-0.30721247
9	0x3e225902	0.15854266
10	0xbf0b8f9b	-0.54516
11	0x3ec779e0	0.3896017
12	0x3f0de7cd	0.55431825
13	0xbd5fe4e6	-0.054661654
14	0xbee4c422	-0.44680887
15	0xbe12bb47	-0.14329253
16	0xbeb2fb82	-0.3495751
17	0xbdfc0564	-0.12305716
18	0xbed4982e	-0.41522354
19	0x3f0444cb	0.5166747
20	0xbeb712fc	-0.3575667
21	0xbe80306d	-0.25036946
22	0x3e6c3154	0.23065692
23	0xbe64a715	-0.22329362
24	0xbea9f204	-0.33192456
25	0xbe9c44df	-0.30521294
26	0xbe83df63	-0.25756368
27	0x3f7f6f86	0.99779546
28	0x3edd8131	0.43262628
29	0xbcc14592	-0.023592744
30	0x3f2b2ad1	0.6686221
31	0x3edd89c1	0.4326916
32	0x3e9d0327	0.30666468
33	0x3de95c79	0.11394591
34	0x3d1f9704	0.03896238
35	0xbe4e535d	-0.20148988
36	0xbdd204ed	-0.10254846
37	0x3f542e3e	0.8288306
38	0x3edaa6ba	0.42705327
39	0x3e499485	0.19685562
40	0x3f107283	0.5642473
41	0x3ed121cc	0.40846097
42	0x3efeb96f	0.4975085
43	0x3ed2908e	0.4112591
44	0xbf41d5d8	-0.75716925
45	0xbf1c1e39	-0.60983616
46	0xbe1562d4	-0.14588481
47	0x3e031b18	0.12803304
48	0xbfad6ddc	-1.3549151
49	0xbd1b41ff	-0.037904736
50	0x3f37e560	0.71834373
51	0xbf1006d9	-0.5626045
52	0x3fb6272b	1.4230703
53	0x3ed43d9a	0.41453248
54	0xbe0f14d2	-0.13972786
55	0x3eb414e6	0.35172194
56	0xbf2a140f	-0.66436857
57	0x3e784562	0.24245217
58	0x3f874d95	1.0570551
59	0x3f29d936	0.6634706
60	0xbf33969c	-0.70151687
61	0x3e2586b1	0.16164662
62	0x3f2d20f5	0.67628413
63	0x3f6040e3	0.8759901

conv2.att_dst f4 [1, 8, 8]
0	0xbd848671	-0.06470955
1	0x400db7f0	2.2143517
2	0x3ed54e5c	0.41661346
3	0x3e03e551	0.12880446
4	0xbe7bb282	-0.24579814
5	0xbee6470e	-0.44976085
6	0xbe70df9c	-0.235228
7	0xbccaba42	-0.024747018
8	0xbd7f1ebb	-0.062285166
9	0x3fb38063	1.4023556
10	0xbf502e37	-0.8132052
11	0xbe6626e0	-0.22475767
12	0xbe786d38	-0.24260414
13	0x3fab8499	1.339984
14	0x3f3606c6	0.71104085
15	0x3f132029	0.5747095
16	0x3eafacf2	0.34311634
17	0xbe1ed561	-0.15511085
18	0xbf464e79	-0.7746349
19	0xbf5c8c69	-0.8615175
20	0x3f27826f	0.654334
21	0xbe0c191a	-0.1368145
22	0x3f90c6b8	1.1310644
23	0xbfcd071a	-1.6017792
24	0xbec264ea	-0.37967616
25	0xbe18acdc	-0.1490969
26	0xbf24bb05	-0.6434787
27	0x3f76b794	0.9637387
28	0x3c63081b	0.013856913
29	0xbf0aa0cf	-0.54151624
30	0x3ea1cd37	0.3160188
31	0xbdf2545b	-0.11832496
32	0xbea503b9	-0.32229403
33	0x3f2344dc	0.63776946
34	0xbe4353b5	-0.190749
35	0x3f549243	0.8303568
36	0xbfb72d3a	-1.4310677
37	0xbdf27177	-0.11838048
38	0x3f9b7f72	1.2148268
39	0xbcb17ca1	-0.021665873
40	0xbedcb3d5	-0.4310595
41	0xbea26c32	-0.3172317
42	0xbd7a0012	-0.061035223
43	0x3cdcb5b0	0.026942104
44	0x3f1dbbf5	0.61614925
45	0x3b053a3f	0.0020328907
46	0x3ee7e123	0.45288953
47	0x3f10b80f	0.5653085
48	0x3df22ee1	0.11825348
49	0xbeb35c5d	-0.35031405
50	0x3efb28f5	0.49054685
51	0x3d8c5abd	0.068532445
52	0xbdfb82a0	-0.12280774
53	0x3e60c1dd	0.21948953
54	0x3eb8c6a7	0.3608906
55	0x3e71d8ef	0.2361791
56	0x3f05263c	0.52011466
57	0xbf1e3b62	-0.6180936
58	0x3c88b135	0.016686061
59	0xbed6f1e7	-0.41981432
60	0xbef98f88	-0.48742318
61	0x3f107225	0.5642417
62	0xbf0d4a86	-0.5519184
63	0x3f14ab53	0.5807392

conv2.bias f4 [64]
0	0xbe1d6906	-0.15372095
1	0xbf17e71a	-0.5933701
2	0xbe851874	-0.2599522
3	0xbcc56aa8	-0.02409871
4	0x3ed8a5c1	0.4231396
5	0x3d9793e0	0.07401252
6	0x3d073a30	0.033014476
7	0x3e81168f	0.25212523
8	0x3e92c74b	0.28667673
9	0xbe02059a	-0.1269745
10	0x3d8f96d3	0.07011189
11	0xbe9dfad5	-0.30855432
12	0xbe8a3fa6	-0.27001685
13	0xbd9f8f4c	-0.077910036
14	0x3f27c203	0.65530413
15	0x3f0427b8	0.51623106
16	0xbe5e82f1	-0.21729638
17	0xbde772d4	-0.113011986
18	0xbf22bddd	-0.6357096
19	0xbeade874	-0.3396641
20	0x3f0c32f9	0.5476528
21	0x3cffb67c	0.031214945
22	0x3de9e071	0.11419762
23	0xbe772c78	-0.24138057
24	0xbefbf2fc	-0.4920882
25	0xbf2fec18	-0.68719625
26	0x3cacfbaa	0.021116097
27	0x3ee58d6d	0.44834462
28	0x3a43450f	0.000744895
29	0xbe81c2d8	-0.25343966
30	0x3dbbb502	0.09165384
31	0x3e3fb078	0.18719661
32	0x3d085cdd	0.033291686
33	0x3e06134e	0.13093302
34	0x3eede4bb	0.4646357
35	0xbf5f4d2a	-0.8722712
36	0xbdd93253	-0.10605302
37	0xbe383e7a	-0.17992583
38	0x3eb58e90	0.3546033
39	0x3e14ad81	0.14519311
40	0x3f02279e	0.508417
41	0x3ea32f86	0.31872195
42	0x3f03a6a7	0.51426166
43	0x3f1bb0a8	0.6081643
44	0x3d5ed73c	0.054404482
45	0x3f0156c7	0.50523037
46	0x3f1c5f1d	0.6108263
47	0x3cf937dc	0.030422144
48	0xbf3b43c0	-0.73150253
49	0x3e368840	0.17825413
50	0x3f2c5413	0.6731579
51	0xbef0a4ca	-0.47000724
52	0x3f3aab37	0.72917503
53	0x3ef73d47	0.48288938
54	0x3e20707b	0.15667908
55	0xbd982d57	-0.07430523
56	0xbf15da7a	-0.58536494
57	0x3ec61113	0.38684902
58	0xbe524f01	-0.2053795
59	0x3e253f76	0.1613749
60	0x3f0292c1	0.5100518
61	0xbef8a3aa	-0.48562366
62	0x3ea4ba53	0.32173404
63	0xbece45cc	-0.40287626

conv2.lin.weight f4 [64, 64]
0	0x3edd380c	0.43206823
1	0xbedfba7e	-0.4369697
2	0x3e8a58f3	0.27020988
3	0x3e0fa308	0.14027035
4	0xbdf73775	-0.120711245
5	0x3d41256b	0.047154825
6	0x3e5d680f	0.21621726
7	0xbe475d71	-0.19469239
8	0xbb56723f	-0.0032721905
9	0x3c877ac6	0.016538035
10	0x3ca17c5c	0.01971262
11	0x3cae8d08	0.021307483
12	0x3c025bfd	0.007956502
13	0x3d0393c8	0.032123357
14	0xbb635843	-0.003469006
15	0xbb86ff19	-0.0041197655
16	0x3ca70e3f	0.020392535
17	0x3d0dc38f	0.034610327
18	0x3c9ad3f2	0.018899892
19	0xbd62cb3a	-0.055369593
20	0xbbe79a67	-0.0070679667
21	0x3d5573eb	0.0521125
22	0xbcc37886	-0.023861181
23	0x3d7d3d01	0.061825756
24	0x3d34e291	0.044161383
25	0x3ca626eb	0.02028223
26	0x3b812174	0.0039407555
27	0xbd3b10ed	-0.04567044
28	0xbd63d7f4	-0.05562587
29	0xbbcc225b	-0.0062296814
30	0x3c49fce0	0.0123283565
31	0x3b3c8ea8	0.0028771553
32	0x3ce3f077	0.027824624
33	0x3d11b9cc	0.03557758
34	0x3cfa2dd4	0.03053943
35	0xba2680a4	-0.00063515664
36	0x3cef3f5e	0.02920502
37	0xbc40dfb5	-0.011772086
38	0xbab790f1	-0.0014004988
39	0x3d2253a6	0.039630555
40	0x3eb74cc5	0.35800758
41	0x3d600692	0.054693766
42	0xbbc04a9a	-0.005868268
43	0x3e9bb7be	0.30413622
44	0x3d8ba801	0.068191536
45	0x3e98ffd4	0.2988268
46	0xbf97f661	-1.1872064
47	0x3d86e728	0.06587058
48	0x3d3e349e	0.0464369
49	0x3d364cd0	0.044506848
50	0xbd3de553	-0.04636128
51	0x3c8d7a7c	0.01727032
52	0x3c5ae8fa	0.01336121
53	0xbc710dff	-0.01471281
54	0xbc10ef6b	-0.008846144
55	0x3d076554	0.03305562
56	0xbc54ff87	-0.013000376
57	0xbd8c6aa5	-0.06856278
58	0xbbc8e0b7	-0.0061303037
59	0xb9305907	-0.00016817833
60	0x3ba12872	0.0049181515
61	0x3d41262e	0.04715555
62	0xbd69b6e8	-0.0570592
63	0xbd3c8317	-0.046023455
64	0xbe893713	-0.2679983
65	0xbeac10e2	-0.3360663
66	0x3e5419b0	0.20712924
67	0xbe28975d	-0.1646399
68	0xbe45ed5c	-0.19328827
69	0xbdb90398	-0.090338886
70	0x3ccc76a9	0.024958925
71	0xbe135d51	-0.14391066
72	0xbc8758da	-0.01652186
73	0xbc9bfcac	-0.019041382
74	0xbc42358e	-0.011853589
75	0xbbc68c28	-0.0060591884
76	0xbc44dc7c	-0.012015458
77	0xbc5b95b8	-0.013402395
78	0xbccc8671	-0.02496645
79	0xbcbdb647	-0.023158206
80	0xbcd8eb81	-0.026479485
81	0x3c939b1b	0.018018296
82	0xbdb5b208	-0.088718474
83	0x3cd9b09a	0.026573468
84	0xbc1cf128	-0.0095789805
85	0x3ace799e	0.0015752797
86	0x3cbc8ff1	0.023017855
87	0x3d4db7af	0.050224002
88	0xb885398e	-6.3526546e-05
89	0xbcf441ab	-0.02981647
90	0x3bbed5a9	0.00582381
91	0xbd1de7a6	-0.038550995
92	0x3d3efe97	0.046629515
93	0x3c33de7c	0.010978337
94	0xbbbcb8f9	-0.005759355
95	0x3b8f2609	0.004368548
96	0xbd09b51d	-0.03361999
97	0xbd7e927e	-0.062151425
98	0xbca88034	-0.020568945
99	0x3bc5e983	0.0060397997
100	0xbcaa8940	-0.020817399
101	0x3cfe9814	0.031078376
102	0xba3945e5	-0.0007067605
103	0xbc557291	-0.013027803
104	0x3e92ecf9	0.2869642
105	0xbe7d0bd2	-0.2471154
106	0x3f18738a	0.595513
107	0x3f339a5f	0.70157427
108	0xbd08716c	-0.033311293
109	0x3e3c95ad	0.18416472
110	0x3f55fe62	0.8359128
111	0xbe178706	-0.14797601
112	0xbc2ace21	-0.0104251215
113	0x3c0cdb8a	0.008597264
114	0xbd5337f0	-0.051567018
115	0xbce9af6e	-0.028526034
116	0x3cb57ee4	0.022155233
117	0x3d1693ac	0.036761925
118	0xbd5c2ff9	-0.053756688
119	0x3d4a8a8d	0.04944854
120	0x3d04fbd4	0.032466725
121	0x3c4727f2	0.01215552
122	0x3cdba494	0.026811875
123	0xbbf310b1	-0.0074177613
124	0xbbc7e097	-0.0060997712
125	0xbcb1d6c4	-0.021708854
126	0x3dbf56b1	0.09342707
127	0xbc2ae1d9	-0.010429823
128	0x3eb3c8a5	0.35114017
129	0xbef56fac	-0.4793676
130	0x3e91ae9a	0.28453523
131	0x3db4de2e	0.0883144
132	0xbdf01e03	-0.11724474
133	0x3c12d0ef	0.008960946
134	0x3e778177	0.2417048
135	0xbe869733	-0.2628723
136	0xba07fbe3	-0.00051873754
137	0x3bb2668a	0.0054443525
138	0x3b54ccdf	0.0032470746
139	0x3cb968da	0.022633005
140	0x3c9d214c	0.019180916
141	0x3aed6bb3	0.0018113762
142	0xbbab9d40	-0.0052372515
143	0xbcb5a048	-0.022171155
144	0xbd8e53a5	-0.06949548
145	0x3d3f3396	0.046680056
146	0x3bacff61	0.005279467
147	0xbce5e15e	-0.028061565
148	0xba47599c	-0.00076046004
149	0x3d5f9f85	0.05459549
150	0xbd84cafc	-0.06484029
151	0x3cdc05fb	0.02685832
152	0xbc8a7d49	-0.016905444
153	0xbd20a7de	-0.03922259
154	0xbb18230c	-0.002321425
155	0xbd4a7614	-0.049429014
156	0xbd2c5796	-0.042075716
157	0x3a4904cf	0.0007668258
158	0x3c4c6792	0.012475865
159	0x3c4c67e8	0.012475945
160	0x3c569369	0.013096669
161	0xbaf5c691	-0.0018751194
162	0x3bd89141	0.0066091125
163	0xbbdbb09a	-0.006704402
164	0xbc221528	-0.009892739
165	0x3d0991f9	0.033586476
166	0xbd045fd1	-0.03231794
167	0x3b93fac3	0.004515977
168	0x3f1bd362	0.6086942
169	0x3f01d616	0.50717294
170	0xbe2f59da	-0.1712412
171	0x3f03cc72	0.51483834
172	0x3cb34f5e	0.021888431
173	0x3e908c2b	0.2823194
174	0xbf66acf2	-0.90107644
175	0x3eaaab07	0.33333609
176	0xbcc8d3c3	-0.024515038
177	0x3ca9f8b4	0.020748474
178	0xbd244c7e	-0.04011201
179	0x3a9eeb3a	0.0012124546
180	0x3a4846e5	0.00076399586
181	0xbca7d8d4	-0.020489134
182	0xbcf1ca00	-0.029515266
183	0x3e1916de	0.1495013
184	0x3cf16899	0.029468821
185	0x3ce92341	0.028459193
186	0x3b921fa1	0.004459337
187	0xbc6271d9	-0.013821089
188	0x3c04ef1e	0.008113651
189	0x3d5b6b33	0.05356903
190	0xbd6df87d	-0.058098305
191	0x3c55db64	0.013052795
192	0x3e9e2253	0.30885562
193	0xbf259c6e	-0.6469182
194	0x3e6ce848	0.23135483
195	0x3e8e5e09	0.27806118
196	0x3df3d09f	0.11905026
197	0x3df65336	0.1202759
198	0x3f463d0b	0.77436894
199	0xbd87cac9	-0.06630475
200	0xbb2b9d7a	-0.0026186393
201	0x3c6f37ab	0.014600675
202	0x3cd8d190	0.026467115
203	0x3d017baf	0.031612094
204	0x3ca79de1	0.020461025
205	0x3c1a68dd	0.009424415
206	0xbc562117	-0.013069413
207	0xbb874311	-0.004127868
208	0x3cfd450b	0.030916711
209	0x3d454f4b	0.048171323
210	0x3dcea02a	0.100891426
211	0x3d722e9c	0.05912648
212	0x3d18888b	0.037239593
213	0x3d955afe	0.07292746
214	0xbd5671e4	-0.05235471
215	0x3d351bbc	0.044215903
216	0xbc6874c6	-0.014187997
217	0x3d49afde	0.049239986
218	0xba640e93	-0.00086996815
219	0xbd2621b0	-0.04055947
220	0x3b2e4732	0.0026592729
221	0x3c359686	0.011083251
222	0x3c91ceaa	0.01779874
223	0x3aecea8d	0.0018075273
224	0x3d112e5e	0.03544461
225	0x3c5250f9	0.012836688
226	0x3c14e207	0.009087092
227	0x3b704182	0.003666014
228	0x3d1d5e8d	0.03842025
229	0x3c71b2ef	0.014752134
230	0x3bdf8413	0.0068211644
231	0x3be99dd6	0.007129411
232	0x3eba345f	0.3636808
233	0x3fc0b123	1.5054058
234	0xbeac7c41	-0.33688548
235	0xbd855a83	-0.06511404
236	0x3dafcc9e	0.085839495
237	0xbd3c8e78	-0.046034306
238	0xbe321f75	-0.17394812
239	0x3f29ab69	0.66277176
240	0x3e0840a8	0.13305914
241	0x3d1b56ed	0.037924696
242	0x3d0d7e4e	0.03454428
243	0x3d1ba00b	0.037994426
244	0xbc83c618	-0.01608567
245	0xbd833d03	-0.064081214
246	0x3d88a890	0.06672776
247	0xbc15e160	-0.009147972
248	0x3c930b81	0.017949821
249	0xbd6142d5	-0.054995377
250	0x3989b5f3	0.0002626624
251	0x3c87099f	0.01648408
252	0xbba03db2	-0.004890167
253	0x3d6059a8	0.054773003
254	0xbd8a36e7	-0.06748753
255	0xbaa37546	-0.0012470863

fc1.weight f4 [128, 74]
0	0xbe6ae47a	-0.2293872
1	0xbe379043	-0.17926125
2	0xbe5dec14	-0.21672088
3	0x3de14ed8	0.110013664
4	0x3da4e185	0.08050827
5	0x3e7532f4	0.23945218
6	0xbe1f136e	-0.15534756
7	0x3e5d02bc	0.21583074
8	0x3e8ba118	0.27271342
9	0x3ec81e0f	0.39085433
10	0xbec0865d	-0.3760251
11	0xbe5dfb57	-0.2167791
12	0x3ec991e3	0.39369115
13	0x3eadc172	0.3393665
14	0x3e9307af	0.287168
15	0x3e7215fd	0.236412
16	0xbe487bfd	-0.19578548
17	0xbe79a9c3	-0.24381165
18	0xbe46e88a	-0.19424644
19	0xbe80e201	-0.25172427
20	0x3e439801	0.19100954
21	0xbe7e446f	-0.24830793
22	0x3e82f810	0.25579882
23	0xbe27d42d	-0.16389532
24	0x3e4bc0de	0.19897792
25	0xbe1db2c2	-0.15400222
26	0x3eab45e7	0.3345177
27	0x3e21bac9	0.15793909
28	0x3e62a7e8	0.22134364
29	0x3e923b17	0.28560707
30	0x3e74f446	0.23921308
31	0xbeb66099	-0.35620573
32	0xbeac02e2	-0.3359595
33	0xbeaf64ef	-0.34256694
34	0x3d96361b	0.073345385
35	0xbc0143f9	-0.007889741
36	0x3ebbb84f	0.36664054
37	0x3eae8481	0.34085467
38	0x3d559663	0.052145373
39	0x3ea238c4	0.31683934
40	0x3e577f45	0.21044643
41	0x3e65f264	0.22455746
42	0x3e798ed3	0.2437089
43	0x3e7e44f8	0.24830997
44	0xbe64cf97	-0.22344814
45	0x3e7d2cac	0.24724072
46	0x3e12e6c8	0.14345849
47	0xbe3341a8	-0.17505515
48	0xbe59f484	-0.21284682
49	0xbe1e352d	-0.15449972
50	0xbe553f20	-0.20824862
51	0xbe797c99	-0.24363936
52	0x3e5c7977	0.2153071
53	0xbe22ceda	-0.1589922
54	0xbe7903dc	-0.24317878
55	0x3e1f16b3	0.15536003
56	0xbe4ceb36	-0.20011601
57	0x3e3d9d20	0.1851697
58	0xbe450f97	-0.19244228
59	0x3e9719ce	0.29511875
60	0x3e40ff87	0.18847476
61	0xbe38015c	-0.17969269
62	0x3e7044fb	0.23463814
63	0xbe404c39	-0.18779077
64	0xbeabaaae	-0.33528656
65	0xbbbf0bc8	-0.005830262
66	0xbed7ac1d	-0.421235
67	0x4083ce81	4.118958
68	0xbf2f17ca	-0.68395674
69	0xbdab02be	-0.083501324
70	0xbeb95b02	-0.36202246
71	0x3e446a42	0.19181159
72	0xbebbde44	-0.36693013
73	0xbec17775	-0.3778645
74	0xbef572db	-0.4793919
75	0xbee89a33	-0.45430145
76	0xbf0613d9	-0.52374035
77	0x3db846d2	0.08997883
78	0x3ea1cd44	0.31601918
79	0x3ede3d90	0.43406343
80	0xbd3ad6c1	-0.04561496
81	0x3ee77c1c	0.45211875
82	0x3d50a4ac	0.050938293
83	0x3ed180e4	0.40918648
84	0xbecb5af8	-0.3971784
85	0x3d61c62e	0.05512064
86	0x3ee61d8a	0.44944412
87	0x3ea89fbd	0.3293437
88	0xbd13e6b7	-0.0361087
89	0x3e96ba59	0.29439047
90	0xbee483d5	-0.4463183
91	0xbeebb3ee	-0.46035713
92	0xbe9f2d29	-0.31089142
93	0xbe36594e	-0.17807505
94	0x3e8e1f79	0.27758387
95	0xbec6cfa5	-0.38830295
96	0x3eeb111b	0.45911488
97	0xbed07549	-0.4071448
98	0x3e79f355	0.2440923
99	0xbec61ace	-0.38692325
100	0x3e1d5d11	0.15367533
101	0xbdd816a0	-0.105511904
102	0x3e9fe878	0.31232047
103	0x3e89fb37	0.26949474
104	0x3e5feb91	0.21867205
105	0x3e76de0f	0.24108146
106	0xbf169063	-0.58814067
107	0xbf0614d8	-0.52375555
108	0x3e8a2090	0.26977968
109	0xbeb44cb1	-0.3521476
110	0x3eba5f5e	0.36400884
111	0x3f08b550	0.5340166
112	0x3e8110b5	0.2520806
113	0x3f0ea91d	0.55726796
114	0x3ed589e7	0.41706774
115	0x3ebfb5e1	0.3744345
116	0x3ebbd657	0.36686966
117	0x3e9f014b	0.31055674
118	0xbeff3347	-0.4984381
119	0x3e87a879	0.26495722
120	0x3e62c93a	0.22147074
121	0xbed0bc80	-0.40768814
122	0xbe6ea51c	-0.23305172
123	0xbe4244cc	-0.18971556
124	0xbe157760	-0.14596319
125	0xbe0538ad	-0.13009901
126	0x3e717626	0.23580226
127	0xbe3d0322	-0.18458226
128	0xbe912383	-0.28347406
129	0x3e5c0a0f	0.21488212
130	0xbe9e6137	-0.30933544
131	0x3e871957	0.2638652
132	0xbe275d27	-0.16344129
133	0x3f2a6ca2	0.6657201
134	0x3e398bf6	0.18119797
135	0xbe93ef9d	-0.28893748
136	0x3e9be4b7	0.30447933
137	0xbe4cd45f	-0.20002888
138	0xbe69659b	-0.22792666
139	0xbbcbdb8c	-0.0062212404
140	0xbf1d4bb6	-0.6144365
141	0x410795b3	8.474048
142	0xbe5934de	-0.21211573
143	0xbd801427	-0.06253844
144	0xbed22baf	-0.41048953
145	0x3f72db4e	0.9486588
146	0xbed2ea7a	-0.41194516
147	0xbedb6309	-0.42848995
148	0x3e34703d	0.1762094
149	0x3bbd162b	0.005770465
150	0x3dcc6d56	0.09981792
151	0xbddc5e61	-0.10760189
152	0xbe8023fd	-0.25027457
153	0xbda14233	-0.078739546
154	0x3d826985	0.063677825
155	0xbd81068b	-0.06300076
156	0x3d790526	0.060795926
157	0xbe12252d	-0.14271994
158	0x3de97582	0.11399366
159	0x3db56170	0.08856475
160	0xbdbabdad	-0.09118209
161	0xbdbbd558	-0.091715515
162	0x3bef206f	0.0072975676
163	0xbd086e5f	-0.033308383
164	0x3c41ccc4	0.011828605
165	0xbd0ec0ff	-0.034852024
166	0x3d483b4c	0.048884675
167	0xbdcaeb63	-0.09908178
168	0xbca83760	-0.020534217
169	0xbd9230db	-0.07138225
170	0x3ccf53e2	0.025308553
171	0x3d04815a	0.03234992
172	0x3e1dbc87	0.15403949
173	0xbbc2a92c	-0.005940577
174	0x3e8a4580	0.2700615
175	0xbe6d5daf	-0.23180269
176	0x3e024244	0.12720591
177	0x3e3e362c	0.18575352
178	0xbdb652cb	-0.0890251
179	0xbf02b169	-0.51051956
180	0x3e13966e	0.14412853
181	0x3dea1578	0.11429876
182	0x3e1df692	0.1542609
183	0xbd58678a	-0.052833118
184	0xbe1fe76c	-0.15615624
185	0xbdaa5d23	-0.08318546
186	0x3e0f0c48	0.13969529
187	0xbe00eb46	-0.1258975
188	0xbd8b60d6	-0.06805579
189	0x3c2f097d	0.0106834145
190	0xbd92ff26	-0.07177572
191	0xbdf72679	-0.12067885
192	0x3d369ba0	0.04458201
193	0xbc5dbef2	-0.013534294
194	0x3d73356f	0.05937713
195	0x3cd9ee8c	0.026603006
196	0x3e84d927	0.25946924
197	0x3ea8f7a6	0.3300144
198	0x3d2e3505	0.042531032
199	0xbd9adf3f	-0.07562112
200	0xbe8a2bee	-0.2698664
201	0xbca1fc22	-0.019773547
202	0x3dbbc297	0.091679744
203	0xbeb40f25	-0.35167804
204	0xbd1aa771	-0.03775734
205	0xbcfb75fa	-0.030695904
206	0xbd98a332	-0.07453002
207	0xbd650c1d	-0.055919755
208	0x3d18a623	0.037267815
209	0x3b922ea5	0.004461127
210	0xbc966d5b	-0.018362692
211	0x3cbf7304	0.023370273
212	0x3e05e26e	0.13074657
213	0x3bb8e8fb	0.005643008
214	0x3f95a3ea	1.1690648
215	0xc0fda4bf	-7.9263606
216	0x3f0f09c0	0.5587425
217	0xbf500b5c	-0.81267333
218	0xbde6cb12	-0.11269201
219	0xbfdab43a	-1.7086251
220	0xbdbff984	-0.09373763
221	0xbd845c5f	-0.06462931
222	0xbe8f7ea4	-0.28026307
223	0xbe789a95	-0.24277718
224	0xbe820f17	-0.25402138
225	0x3c11274c	0.008859467
226	0x3e29c675	0.16579612
227	0x3e90beb7	0.28270504
228	0x3d63c8b6	0.055611335
229	0x3eb4f087	0.35339758
230	0xbdb1951a	-0.08671017
231	0x3e86496e	0.26227897
232	0xbe9a2750	-0.30108118
233	0x3d7d23f4	0.061801866
234	0x3ecbda2f	0.39814898
235	0x3e641e3b	0.22277157
236	0xbe1187cd	-0.1421196
237	0x3e59ce1f	0.21270035
238	0xbed9dd63	-0.42551717
239	0xbe9fce9f	-0.31212327
240	0xbe37cbc6	-0.17948827
241	0xbc0d0fca	-0.008609721
242	0x3deb72ef	0.11496531
243	0xbea95550	-0.330729
244	0x3eca05dc	0.39457595
245	0xbeb090a7	-0.3448536
246	0x3e6f96f8	0.23397434
247	0xbeae6270	-0.34059477
248	0x3ea74f16	0.32677525
249	0xbe4833c3	-0.19550996
250	0x3e803d6d	0.25046864
251	0x3e9f7d1a	0.31150132
252	0x3e5a5614	0.21321899
253	0x3e6aca71	0.22928788
254	0xbebf3ccf	-0.3735108
255	0xbe8b6f55	-0.27233377

fc1.bias f4 [128]
0	0xbeb89703	-0.36052713
1	0xbed21cab	-0.41037497
2	0xbddbe694	-0.10737339
3	0xbecc25e8	-0.3987267
4	0xbe563a24	-0.20920616
5	0xbe310d32	-0.1729019
6	0xbe3b6024	-0.18298393
7	0xba181ca0	-0.00058026053
8	0xbe114b89	-0.1418897
9	0xbec46ebf	-0.38365743
10	0xbd26bc8e	-0.040707164
11	0xbe94be38	-0.29051375
12	0xbeb74fc3	-0.3580304
13	0x3e4699e0	0.19394636
14	0xbe10c21e	-0.1413655
15	0xbe9f04ba	-0.31058294
16	0xbed0b23c	-0.40760982
17	0xbc1e6675	-0.009667982
18	0x3e131fee	0.14367649
19	0xbe284dea	-0.16435972
20	0xbedb87cc	-0.42877042
21	0xbe806212	-0.25074822
22	0xbedc67c7	-0.43047926
23	0xbe45831f	-0.192883
24	0xbe41a05d	-0.1890883
25	0x3dd9c915	0.106340565
26	0x3dffdf87	0.12493806
27	0xbedf5d0c	-0.43625677
28	0xbecd9390	-0.40151644
29	0x3e25222a	0.16126314
30	0xbd838bfc	-0.06423184
31	0xbd9f947c	-0.07791993
32	0xbe80d4be	-0.2516231
33	0xbe5a5af2	-0.21323755
34	0x3bc8aff2	0.00612449
35	0xbe997368	-0.2997086
36	0xbe1b3a60	-0.15158987
37	0xbe3df3e6	-0.18550071
38	0xbeb0c528	-0.34525418
39	0xbe81dbcf	-0.25363013
40	0xbe7e9502	-0.2486153
41	0x3de87d4e	0.11352025
42	0xbe5fb152	-0.21844986
43	0xbe435400	-0.19075012
44	0x3db2cd36	0.08730547
45	0xbe5a5b8c	-0.21323985
46	0xbd40d4c2	-0.0470779
47	0xbe48a787	-0.19595157
48	0x3e0dd93d	0.13852401
49	0x3dba956a	0.0911053
50	0xbe8ae655	-0.27128854
51	0xbe28926a	-0.16462103
52	0xbe86d73e	-0.26336092
53	0xbe843b0b	-0.25826296
54	0xbe49008a	-0.19629112
55	0xbebe6258	-0.37184405
56	0x3ce36b8a	0.02776124
57	0xbed85c5f	-0.42257974
58	0xbe01335c	-0.12617248
59	0xbe57aa95	-0.21061166
60	0xbe100b55	-0.14066823
61	0x3e088146	0.13330564
62	0x3d229a63	0.039698016
63	0xbdb575b6	-0.08860342
64	0xbe56503c	-0.20929044
65	0xbe8f3c60	-0.2797575
66	0xbe6780d1	-0.22607733
67	0xbdfd882d	-0.12379489
68	0xbec377ab	-0.38177237
69	0x3d8b7309	0.068090506
70	0xbdc17188	-0.094454825
71	0xbe50b13c	-0.2038011
72	0xbe91efb5	-0.28503194
73	0xbdc6d78d	-0.09709082
74	0xbe32289f	-0.17398308
75	0xbcb7ba0f	-0.022427587
76	0xbe84624f	-0.25856254
77	0xbe627bd9	-0.22117557
78	0x3cb12690	0.021624833
79	0x3d1eabbd	0.038738
80	0xbe5dc557	-0.2165731
81	0xbed5f9a3	-0.4179202
82	0xbe5d21db	-0.21594946
83	0xbe60e8db	-0.21963827
84	0xbeb18afd	-0.34676352
85	0xbecaebc5	-0.39633003
86	0x3d8da71a	0.06916638
87	0xbdd29dbc	-0.10283992
88	0x3d3a24c9	0.045445237
89	0xbeb0aff3	-0.3450924
90	0xbecebc9a	-0.40378267
91	0xbec7d6c2	-0.39031035
92	0xbe95f9dc	-0.2929219
93	0xbe9fb006	-0.31188983
94	0xbdf9da13	-0.121997975
95	0xbe1ffd91	-0.15624072
96	0xbe8ecf93	-0.27892742
97	0x3e01cec5	0.12676533
98	0x3cb8cf04	0.02255965
99	0xbe564650	-0.2092526
100	0xbed165c0	-0.40897942
101	0xbe6a3213	-0.22870664
102	0xbed6f2d0	-0.41982126
103	0xbec021e5	-0.3752586
104	0xbe974c3e	-0.29550356
105	0xbe8edf53	-0.27904758
106	0xbdcc0584	-0.099619895
107	0xbbe1a7e3	-0.0068864687
108	0xbe9b563a	-0.30339223
109	0xbe11f9ac	-0.14255399
110	0xbedc5081	-0.4303017
111	0xbda34385	-0.07971863
112	0xbe46dac5	-0.19419391
113	0xbe8d4d1c	-0.27597892
114	0x3ca37123	0.019951409
115	0xbebb31f8	-0.3656156
116	0xbe721bc8	-0.2364341
117	0xbe3e1d87	-0.18565951
118	0xbe49292a	-0.19644609
119	0xbe07edda	-0.13274327
120	0xbec820b8	-0.39087462
121	0xbeed53e7	-0.46353075
122	0xbea0ca8c	-0.3140453
123	0xbe59604d	-0.21228142
124	0x3c4d71ba	0.012539322
125	0xbdfd2b2e	-0.123617515
126	0xbe8be087	-0.27319738
127	0xbe7466cc	-0.23867339

fc2.weight f4 [64, 128]
0	0xbe9093ce	-0.28237766
1	0x3ede57e4	0.4342643
2	0xbdcd07f6	-0.10011284
3	0x3da60e39	0.081081815
4	0xbe9120f8	-0.28345466
5	0x3ef0a66a	0.47001964
6	0x3ed654a5	0.41861454
7	0x3efc7e01	0.49314883
8	0xbe91ee86	-0.2850229
9	0x3e515efb	0.20446388
10	0xb9e54a02	-0.00043733424
11	0x3e8eca77	0.27888843
12	0xbead9e80	-0.33909988
13	0xbeade157	-0.33960983
14	0x3ec6152d	0.3868803
15	0x3e589604	0.21150976
16	0x3d0d94fa	0.034565903
17	0x3e30f2c6	0.1728011
18	0xbe5ff1c7	-0.21869574
19	0xbed6fb43	-0.41988572
20	0x3e20eee7	0.15716134
21	0xbea39001	-0.31945804
22	0x3e644895	0.22293313
23	0x3efb8eb7	0.4913232
24	0x3ede387a	0.43402463
25	0xbe86ff32	-0.26366574
26	0xbeb18308	-0.3467028
27	0x3ece12b3	0.4024864
28	0x3df721c1	0.12066985
29	0xbe2e2e60	-0.17009878
30	0xbeeeab68	-0.46615148
31	0x3e3621b7	0.17786299
32	0xbe950fe7	-0.29113695
33	0x3eb7b7e1	0.35882476
34	0x3e206607	0.1566392
35	0x3e847f67	0.2587845
36	0x3e8c9f0e	0.274651
37	0xbeaaf975	-0.33393446
38	0x3eeb1346	0.45913142
39	0x3eb90c00	0.36141968
40	0xbe8d69a0	-0.27619648
41	0xbc51e5b8	-0.012811117
42	0x3e86caa0	0.26326466
43	0xbeaa3d32	-0.33249813
44	0x3d3355bf	0.043782946
45	0xbea562eb	-0.3230203
46	0x3eedbc8c	0.46432912
47	0xbeb8fb4c	-0.36129224
48	0xbdb7fda1	-0.08983923
49	0xbea03638	-0.31291366
50	0x3ec1be93	0.3784071
51	0x3ec3686f	0.38165614
52	0xbeae5013	-0.34045467
53	0x3eb5712a	0.354379
54	0xbe986489	-0.29764202
55	0x3daa3243	0.08310368
56	0xbd03381e	-0.03203594
57	0x3dbd5d8c	0.09246358
58	0x3cce507d	0.025184864
59	0xbeb1bccd	-0.34714356
60	0x3ed24e3f	0.41075322
61	0x3d6f62a3	0.058443677
62	0x3e4b31ed	0.19843264
63	0x3cab9903	0.020946985
64	0xbe93909f	-0.28821275
65	0x3e0bceab	0.13653056
66	0xbe9fade8	-0.31187367
67	0xbed91f90	-0.42406893
68	0x3de127ec	0.109939426
69	0x3e4a0e82	0.19732097
70	0x3ecd0d96	0.40049428
71	0xbeb2c180	-0.34913254
72	0xbeb858a2	-0.3600512
73	0x3e24d04f	0.16095088
74	0x3eb33143	0.3499852
75	0x3df91c33	0.12163582
76	0xbeb806f2	-0.359428
77	0xbec73c0e	-0.38913006
78	0x3e593ff9	0.2121581
79	0x3e053619	0.13008918
80	0xbeb8b815	-0.36077943
81	0x3e01d618	0.12679327
82	0xbe93d3e7	-0.28872606
83	0xbeaff7bd	-0.34368697
84	0x3eb07d48	0.34470582
85	0x3dd73b4f	0.10509359
86	0xbbee6818	-0.0072755925
87	0x3e8b645c	0.27225006
88	0x3e288675	0.16457541
89	0x3e85649b	0.26053318
90	0x3e738c55	0.23784001
91	0x3d336e75	0.043806512
92	0xbe7c743d	-0.24653716
93	0x3e2c1dcc	0.16808242
94	0xbeda3116	-0.42615575
95	0x3e2642f2	0.16236475
96	0x3e3a0475	0.18165763
97	0xbe88d289	-0.26723126
98	0x3e2820b4	0.16418725
99	0x3ef4e8f0	0.47833967
100	0x3e20e747	0.15713225
101	0xbe794d26	-0.24345836
102	0x3dd6baf8	0.1048488
103	0x3dc39806	0.095504805
104	0x3e68c289	0.2273046
105	0xbe99020c	-0.29884374
106	0xbed3881e	-0.41314787
107	0x3e927cc8	0.28610826
108	0xbeb9d766	-0.36297148
109	0xbe862302	-0.26198584
110	0x3da6270e	0.08112918
111	0xbdaaff38	-0.0834946
112	0xbeaf9d0d	-0.34299508
113	0x3e236cb3	0.15959434
114	0x3ecdfec0	0.4023342
115	0x3e86acf3	0.26303825
116	0xbea778b4	-0.32709277
117	0xbeda0cb1	-0.42587808
118	0xbeb04b3c	-0.344324
119	0x3e3f9b3f	0.18711565
120	0x3d7429a5	0.059610028
121	0x3e1aca10	0.15116143
122	0x3e656406	0.22401437
123	0x3ee2b645	0.44279686
124	0xbe76da34	-0.24106675
125	0xbed9b2b4	-0.42519152
126	0x3e73afa5	0.23797472
127	0xbeb11ecf	-0.34593818
128	0xbe375664	-0.17904049
129	0x3e720e36	0.23638234
130	0x3e1dc679	0.15407743
131	0x3e723adc	0.23655266
132	0xbd7589b1	-0.059945766
133	0x3e04df8e	0.12975904
134	0x3decc318	0.11560649
135	0x3e010ded	0.12602969
136	0xbe2e2b3f	-0.17008685
137	0x3e79357f	0.24336813
138	0x3e102e95	0.1408027
139	0x3ed518f5	0.41620603
140	0xbe156866	-0.14590606
141	0xbe7198fe	-0.23593518
142	0x3dc1fd59	0.0947215
143	0x3e9f878c	0.31158102
144	0x3e7ce36c	0.2469613
145	0x3e3d446e	0.18483135
146	0xbe91f748	-0.28508973
147	0xbe1cae51	-0.15300871
148	0x3e895be0	0.26827908
149	0xbce67683	-0.028132683
150	0x3e7d55d6	0.24739775
151	0x3e10469c	0.14089435
152	0x3e70dcf5	0.23521788
153	0xbe70f546	-0.23531064
154	0xbe86a08f	-0.2629437
155	0x3e75c3bf	0.24000452
156	0x3e5e0b8d	0.21684094
157	0xbe89832f	-0.26857898
158	0xbdb611a4	-0.088900834
159	0x3e3b2c61	0.18278648
160	0xbd8cc943	-0.06874325
161	0x3e6263ee	0.22108433
162	0x3e2fef86	0.17181215
163	0x3eb0db12	0.34542137
164	0x3d53bcfe	0.05169391
165	0x3d485c8c	0.048916385
166	0x3e985275	0.2975041
167	0x3e23fc19	0.16014136
168	0xbdb437d6	-0.08799712
169	0x3e0a1454	0.13484317
170	0x3e6d4ef1	0.23174645
171	0xbe63abf4	-0.22233564
172	0x3e3063e7	0.1722561
173	0xbcf38f81	-0.029731514
174	0x3e2ad056	0.16681036
175	0xbd144a33	-0.036203574
176	0x3e254ed1	0.16143347
177	0xbec5bb22	-0.38619334
178	0x3e5b6623	0.21425681
179	0x3db74e62	0.08950497
180	0xbca1f9af	-0.019772379
181	0x3e47bd73	0.19505863
182	0xbd6c2130	-0.057648838
183	0x3e684b54	0.22684985
184	0x3dcafdbb	0.099116765
185	0x3e4537f5	0.19259627
186	0x3e62f387	0.22163211
187	0x3c8617ab	0.016368708
188	0x3e348297	0.17627941
189	0x3e21627e	0.15760228
190	0x3e1b756e	0.15181515
191	0x3e3463f1	0.1761625
192	0xbe1dbc90	-0.15403962
193	0x3ea802d0	0.32814646
194	0xbda5908b	-0.0808421
195	0xbe737142	-0.23773673
196	0x3e64f88a	0.22360435
197	0x3df55c81	0.11980534
198	0x3d812a72	0.06306924
199	0x3c383a67	0.011244393
200	0xbd1aae03	-0.037763607
201	0x3e369ba0	0.17832804
202	0x3e2692e2	0.16266969
203	0x3de389ad	0.11110244
204	0xbe1dd619	-0.15413703
205	0xbe07720e	-0.13227102
206	0x3e255181	0.16144373
207	0x3e6bac06	0.2301484
208	0xbd3a3b1a	-0.04546652
209	0x3e720b16	0.23637041
210	0xbb75a0b2	-0.0037479815
211	0xbca4bc8a	-0.020109434
212	0x3e6170bb	0.2201566
213	0x3e672f5c	0.2257666
214	0x3dc3972d	0.09550319
215	0x3e2e9efc	0.17052835
216	0x3e6a650d	0.2289011
217	0x3e7bb228	0.2457968
218	0x3e7d06d5	0.24709637
219	0x3e64c10d	0.22339268
220	0xbcfd40f1	-0.030914756
221	0x3efb126e	0.49037498
222	0xbe8468da	-0.25861245
223	0x3e348307	0.17628108
224	0x3ea6a07b	0.32544312
225	0xbe93b618	-0.28849864
226	0x3e1e5ba2	0.15464643
227	0x3e177ed7	0.1479448
228	0x3e6ee27a	0.23328581
229	0xbcce1392	-0.025155816
230	0x3e68905c	0.22711319
231	0x3e423c18	0.18968236
232	0x3e8df7ed	0.27728215
233	0xbe2497c5	-0.1607352
234	0xbdc58432	-0.09644355
235	0x3db8e78b	0.09028538
236	0xbd5ab9b0	-0.05339974
237	0xbce48be0	-0.027898729
238	0x3e71f9ab	0.23630397
239	0x3dfa9f1d	0.1223738
240	0x3c26a3f5	0.010170926
241	0x3e6c6c71	0.23088242
242	0x3e01d7a7	0.12679921
243	0x3e932e4c	0.2874626
244	0xbd68ee7a	-0.056868054
245	0xbc8464d6	-0.016161364
246	0x3c8d285f	0.017231165
247	0x3e242519	0.16029777
248	0x3e6d2afd	0.2316093
249	0x3e7fae73	0.24968891
250	0x3e76beef	0.24096273
251	0x3e4060ac	0.18786877
252	0xbeb11b97	-0.34591362
253	0xbe1efb81	-0.15525629
254	0x3eb14832	0.34625393
255	0xbb9f6ce7	-0.004865277

fc2.bias f4 [64]
0	0xbf2401f4	-0.6406548
1	0xbee522a7	-0.44753
2	0xbea67e29	-0.32518128
3	0xbe95b229	-0.29237488
4	0xbf005d36	-0.5014223
5	0xbf37c088	-0.71778154
6	0xbec0fee4	-0.37694466
7	0xbe13f5cf	-0.14449237
8	0xbf2fc3ea	-0.68658316
9	0xbef37797	-0.47552177
10	0xbedf8121	-0.43653205
11	0xbebcf7a9	-0.369077
12	0xbe5e078b	-0.21682565
13	0xbf0f23e0	-0.55914116
14	0xbf2938d9	-0.6610237
15	0xbf46894a	-0.77553236
16	0xbf455762	-0.7708646
17	0xbec8903f	-0.3917255
18	0xbf1cb4fb	-0.61213654
19	0xbf30f410	-0.6912241
20	0xbf1b4074	-0.6064522
21	0xbd27b6a0	-0.04094565
22	0xbdac1c22	-0.084038034
23	0xbf381710	-0.7191019
24	0xbf27d459	-0.6555839
25	0x3d8214bb	0.0635161
26	0xbe48b816	-0.19601473
27	0xbe2ea252	-0.17054108
28	0xbedd5e49	-0.43235996
29	0xbe8f776b	-0.28020796
30	0xbec0e88c	-0.3767742
31	0xbcdb6f37	-0.02678643
32	0xbe9e9b73	-0.30977973
33	0xbee69b58	-0.45040393
34	0xbeb1b264	-0.34706414
35	0xbe3a8d3d	-0.1821794
36	0xbf30a20e	-0.68997276
37	0xbf424653	-0.75888556
38	0xbefdb6b3	-0.4955345
39	0xbf20b4d4	-0.6277592
40	0xbf4f9cf8	-0.8109889
41	0xbf031b23	-0.5121328
42	0xbed802ce	-0.4218964
43	0xbe98afac	-0.29821527
44	0xbf12b101	-0.57301337
45	0xbf0c3915	-0.547746
46	0xbf812cc3	-1.0091785
47	0xbd945ad9	-0.0724389
48	0xbf176ea2	-0.5915319
49	0xbeedd4e1	-0.46451476
50	0xbc112bfa	-0.0088605825
51	0xbe9a7453	-0.30166873
52	0xbea7055d	-0.3262128
53	0xbf34fabc	-0.7069509
54	0xbf14b7d7	-0.5809302
55	0xbeac4c50	-0.33651972
56	0xbf0fb483	-0.56134814
57	0xbe670e39	-0.2256402
58	0xbf490d05	-0.7853549
59	0xbd35bb5a	-0.044368125
60	0xbddac945	-0.1068292
61	0xbe471b3f	-0.19443987
62	0xbe8b4e00	-0.27207947
63	0xbf2e7aab	-0.68155926

fc3.weight f4 [1, 64]
0	0x3ea5059b	0.3223084
1	0xbd4affa6	-0.04956021
2	0xbd6c9cfd	-0.057766903
3	0x3dd0b864	0.1019142
4	0x3eb01d1b	0.34397206
5	0xbea558fb	-0.3229445
6	0xbdffb061	-0.124848135
7	0xbd8a2390	-0.06745064
8	0xbe1e81b2	-0.15479162
9	0xbdd1527c	-0.10220811
10	0xbe859384	-0.26089108
11	0x3ea7188f	0.32635924
12	0x3eb39659	0.35075644
13	0xbe0f0b6f	-0.13969205
14	0x3e47bb67	0.19505082
15	0xbe11d986	-0.14243135
16	0xbdbedd9a	-0.09319611
17	0x3e802431	0.25027612
18	0xbdbafb58	-0.09129971
19	0x3e2d754a	0.16939273
20	0x3e4cc361	0.19996406
21	0x3eb450df	0.3521795
22	0x3eb012c9	0.34389332
23	0x3e2684e1	0.16261627
24	0x3e5fb6c0	0.21847057
25	0x3e8df313	0.27724513
26	0x3eb42cb5	0.3519036
27	0x3eb0a001	0.34497073
28	0xbd7ec049	-0.062195096
29	0xbe6f2adf	-0.23356198
30	0x3eaf8952	0.34284455
31	0x3d9949ba	0.07484765
32	0xbddf36a8	-0.10899097
33	0xbe1d48a1	-0.15359737
34	0xbe297570	-0.16548705
35	0x3eb2fb66	0.34957427
36	0xbe66ffe6	-0.22558555
37	0xbe133184	-0.14374357
38	0xbd3b11ed	-0.045671392
39	0x3e05fdb9	0.13085069
40	0xbdbd12ec	-0.09232125
41	0xbd62e3a6	-0.055392884
42	0xbd71c954	-0.059029892
43	0xbd4f1868	-0.050560385
44	0x3e59d0da	0.21271077
45	0xbd7ef124	-0.06224169
46	0xbdc35627	-0.09537917
47	0x3eab9cfd	0.3351821
48	0x3eab8f3e	0.33507723
49	0x3e88f2c1	0.26747707
50	0x3ea86598	0.3289001
51	0xbe8b8b49	-0.27254704
52	0xbe80c890	-0.25153017
53	0xbe115e65	-0.14196165
54	0x3e542171	0.20715882
55	0xbd46d471	-0.048542444
56	0x3ead89d6	0.33894223
57	0xbded168a	-0.115765646
58	0xbe66b118	-0.22528493
59	0xbe0434ba	-0.12910739
60	0xbc4f7c2a	-0.01266388
61	0xbe1e7ed2	-0.15478066
62	0xbd4a483f	-0.049385305
63	0xbd2c9796	-0.04213675
