models/0_2023_2023/Spatial_GAT/50.pth (torch, 96722 bytes, 13 tensors)

conv1.att_src f4 [1, 8, 8]
00000000: ff41 0bbe 11a9 d23d 6c59 b4bf 3daa 873f
00000010: 181a 483f 207d 833f 8726 fc3f f051 d23d
00000020: 8bbb 34bc 2ac4 1a3c ad55 2b3c c89e 82bb
00000030: 7843 a438 a984 b43a 5a64 83bc e764 55bb
00000040: 9252 76bd 047f 933c 2e84 11bd 79ff ac3c
00000050: d2ae 4ebd 868b f2bc e113 43bd d842 763c
00000060: abf8 f93c 1256 1d3d bdb3 fc3c 0f6b 48bd
00000070: 9da4 343d e1d0 9d3c 1a06 84bd e04e 063c
00000080: 9a74 ecbc acfd 093c 82d4 f2bc 2fed c8bc
00000090: a0fd d83b ff3b fdbc ecb2 95bb ee7a bbbb
000000a0: a5c3 8b3e fe3e 833d 7fbb f63f 4bc4 5c3d
000000b0: 8581 0cbf b419 7e3f f0ad 113f 0530 7e3f
000000c0: 89da fc3c 48e2 e7bb 5b03 20ba 5f01 6bbd
000000d0: bd18 683d 50c5 ddbc d416 5fbd 8d9d 3c3d
000000e0: 3892 d4bb 4f4e bcbc 15f5 863c 23d2 d43b
000000f0: 41ba 0dbc a508 7abc 6941 f2ba 1f2c f93b
-0.13599394 0.10286153 -1.4089789 1.0598828 0.78164816 1.027256 1.9699258 0.102695346
-0.011031042 0.009446183 0.010457438 -0.0039862134 7.8326964e-05 0.0013772446 -0.016039062 -0.0032561363
-0.06013734 0.018004902 -0.035526447 0.021117913 -0.05045969 -0.029607546 -0.04762638 0.015030585
0.030514082 0.03841216 0.030847425 -0.048930224 0.0441023 0.01926464 -0.06446476 0.008197516
-0.028864194 0.0084222965 -0.029642347 -0.02452716 0.0066220313 -0.030912397 -0.0045684483 -0.0057214415
0.27297702 0.06408499 1.9275969 0.053898137 -0.5488513 0.9925797 0.5690603 0.9929202
0.030865924 -0.0070765354 -0.00061040156 -0.057374354 0.056664217 -0.027071625 -0.05446513 0.04604869
-0.006487157 -0.02298656 0.016474286 0.006494777 -0.008650363 -0.01526085 -0.0018482629 0.0076041366

conv1.att_dst f4 [1, 8, 8]
00000000: afc0 2a3f ccf6 3a3f 1027 6fbe 3b3a 433e
00000010: 84b9 b93e a7bc 263f d994 7a3f b1f8 d23e
00000020: c263 cebb fae8 b33a 76e4 71bb 5b43 a9b9
00000030: 1926 0fbc 2dce 933b ddc2 05bc e408 263c
00000040: c63e 52bd f6e4 223d 6462 ccbc 339f 1bbd
00000050: 062d 5bbd 2dfd 4a3c 2893 61bb b93b 883d
00000060: 3874 3cbc 564d 0ebd 39ea 19bd f6d0 2cbd
00000070: dedc beba 71b2 06bd adf7 26bc 9cc4 19bd
00000080: a31a cd3c 0413 073b 2114 503b 777f c8bc
00000090: 0f45 9a3c 2894 873c 1fc7 ff3b d4cd 3e3c
000000a0: 2b92 5ebe 570b 173e c04f ad3e f124 0d3f
000000b0: c633 c73e c20c 713e 67b2 e83d 6ffc ee3e
000000c0: d8c1 ddbb 893e 003c 244f 18bd 785c 3d3d
000000d0: e05d 4d3c 7c50 5dbc d1a2 a73c c18b 82bc
000000e0: 9827 b03c 4e26 a1bc b4e3 e13c 6817 cb3c
000000f0: b720 12bd 779f d9bc 766a b5bc 68d4 003d
0.6670026 0.7303283 -0.23354745 0.19065182 0.3627435 0.6513161 0.97883373 0.4120536
-0.006298513 0.0013726049 -0.0036909855 -0.00032284376 -0.0087371105 0.004510662 -0.008164135 0.010133956
-0.051329397 0.039769135 -0.02494926 -0.03799362 -0.053509735 0.012389463 -0.0034419987 0.06652016
-0.011502318 -0.034741722 -0.037576888 -0.04219147 -0.0014561673 -0.03288502 -0.010190886 -0.037541017
0.025037115 0.00206107 0.003175028 -0.024474842 0.018831758 0.016550139 0.0078057195 0.011645753
-0.21735446 0.1475042 0.33849907 0.55134493 0.38906687 0.23540023 0.113621525 0.46676967
-0.0067674927 0.00782741 -0.03718485 0.046230763 0.012534589 -0.0135079585 0.02046338 -0.01593578
0.021503255 -0.019671585 0.027574398 0.024791434 -0.03567573 -0.026565297 -0.022145491 0.031452566

conv1.bias f4 [64]
00000000: 7600 d8bd 8254 e7be 362f 31be 0c47 62bf
00000010: 961e 31bf fc79 0bbd 00d3 28be 2d73 3abf
00000020: 0b1a 063b 3cf1 f0b9 1daa 93bb 9f0b fabb
00000030: ecdb b1bb fc38 493b b8fa 3b3b 272b 9a3b
00000040: c447 4abd fa32 3fbd 12ee 19bd 764b 8dbd
00000050: dfd4 dfbc 37ca 2cbd 86ed 633b 8ff0 e93c
00000060: f26a cfbc 9bd0 abbc 856b 40bc 4a01 50bd
00000070: 0a4d c8bc aeb8 e3bc 9f90 6fbc e7ea 22bd
00000080: 940d 023c 6de6 47bc c608 303b 490c 86bb
00000090: bc0b 963b 1fd2 64bc 3d87 803b 7f07 c0bb
000000a0: 9eb1 0bbf de59 dcbe 5111 0cbf fd36 77bd
000000b0: a7c4 a7bd 9038 30bf 637d 16bf dce3 a9be
000000c0: fa22 003d c9c2 1abd 4801 3abd 2063 5ab9
000000d0: 0738 86bc bb35 0abb 4df4 0e3c b860 78bd
000000e0: 0a21 c9bb 737b 8e3c 772d cdbb 7440 0fbb
000000f0: bae7 2dbb a8bb a93c 5051 5d3d 5ed0 9abc
-0.10546963 -0.45181662 -0.17303166 -0.8838966 -0.69187295 -0.03405188 -0.1648674 -0.72831994
0.00204623 -0.000459561 -0.004506363 -0.00763078 -0.005427828 0.0030704131 0.0028683376 0.004704851
-0.049384847 -0.046679474 -0.037580557 -0.06899159 -0.027323185 -0.042185035 0.0034779026 0.02855709
-0.02531955 -0.020973494 -0.011744385 -0.05078248 -0.024450798 -0.027798023 -0.014621883 -0.0397748
0.007937808 -0.012200934 0.0026860698 -0.00409082 0.0045790356 -0.013966112 0.0039223717 -0.0058602686
-0.545679 -0.43037313 -0.5471392 -0.060355175 -0.08191805 -0.6883631 -0.58785075 -0.33181655
0.031283356 -0.037783418 -0.04541138 -0.00020827027 -0.016384138 -0.0021089155 0.008725238 -0.060639113
-0.0061379718 0.01739285 -0.0062615233 -0.0021858485 -0.0026535825 0.020719364 0.054032624 -0.018898185

conv1.lin.weight f4 [64, 12]
00000000: cabe 9ebf 012b d5bd 141a f0bd d1f9 a0be
00000010: 1983 05c0 d209 8340 cd32 4bbf 9c03 91c0
00000020: f071 e53e 0d20 46bf 24a8 aac0 b487 f73f
00000030: 6c19 7c3d d49b 9fbe 561f 45be da4a b8be
00000040: 8c0f 24be f649 5a3f a025 423f 407d a7bf
00000050: d187 dd3e 25b3 c3be fa55 4540 d061 193f
00000060: 9f80 60be f5d3 e8bf e298 b2bf 732a e5bd
00000070: 3557 9cbc 9501 85bf b64e f2bf 8719 433f
00000080: 9d19 12bf 7bdd a93d 2041 c2c0 e8f1 703f
00000090: cee7 233e 73ed 1ebf 4751 13bf eada b1be
000000a0: 126a 80bc 1dd7 583f f7fb bf3f 625e 11bf
000000b0: ff6f 023f b2fa c9bd 661c 9340 32fc 3bbf
000000c0: 2fc7 cd3d 5584 05bf 5ffc 01bf 2bd3 34be
000000d0: 9db7 69bc 4fa7 363f dab3 ce3f ce39 b4be
000000e0: 5dd2 ee3e f2b2 e03c f46a 8440 b583 60bf
000000f0: 071c 8c3e 5816 21bd 6007 d1bc ebf3 25bf
00000100: d428 803f b9c1 fc3f 56cb c0be 2ab3 6340
00000110: c19d 0940 8025 4c40 2595 ab3f ede4 78c0
00000120: 4f93 983d 0cbe 50be 3087 15be 4141 73be
00000130: c052 6f3f 0b29 8f40 abb0 bc3f 4af1 3f40
00000140: d31f 7b3f c2d9 ebbf 5038 4e41 5908 07c1
00000150: 0c18 5cbc 87c1 17bf 3374 06bf a41e 29bf
00000160: e10c 55bd 2092 143f 31dc a93f 5a54 a4bd
00000170: 00fa 693e 64c1 b73d 30a0 7340 4b7c 2fbf
00000180: c340 5e3c 44bf d2ba 4bd7 c73a 942c a3bc
00000190: 84fb abba c226 b13b 464f ab3b 866b 5eb8
000001a0: 3e81 edbb 581e 7d3b c278 ca3a 50f4 ef39
000001b0: f633 d83b 7792 053c 8540 bdbb 6678 0ebc
000001c0: 2292 c7bb 6a73 27bc 7007 ecbb ef65 ce3b
000001d0: fe93 133b 77d5 c13b 39c3 af3b fea4 9fbb
000001e0: c9af 02bc e31a 773b 2344 1bbc 85d3 f4bb
000001f0: b56e 95bb d905 d4bb 412c 44bc a0a4 c1bb
00000200: 075e 3fbc 4886 95bb 5110 8a3a d5f7 cab9
00000210: 01ec f13a fc51 aa3a 2675 2a3a a8df 09bc
00000220: 27a8 f53a d2f0 cc3a 1139 82bc c526 08bc
00000230: ca55 a7ba 4d24 acbb 3a77 223b 6fb8 803a
00000240: baa2 3abb 8581 52bb 6adc 203b e216 33bc
00000250: 5cc3 83bc ee9c 50bc 2d15 b5bb 55f2 e6bb
00000260: 7184 213b 1e7e 90bc 8409 10bc 4bcc fa39
00000270: abe2 6f3c ecc4 30bc d953 4b3a 3662 a2bb
00000280: 6e29 3c3c 619d 87bc 7168 b83c fe9b 79bc
00000290: 4984 2ebc c55d 473c 843b 5e3c b146 693b
000002a0: c7be 5a3c 6db5 84bb 963c 233c 0f84 bfbc
000002b0: cf7f 263b 703d f0bb 7336 a13c eb1b 813b
000002c0: e52b beba 6702 0c3c 245f 0cbc 2cd4 1abc
000002d0: 78d6 ba3c 7c91 a6ba f6c3 35bb b84b 34bb
000002e0: aa31 8439 e1a2 c8bc b905 103d 0bf3 ce3a
000002f0: 341f 0b3b bfec 533c 9fc7 033c c2d5 343c
00000300: 24e7 7abd baf6 44bd 8714 2cbd f19b a2bc
00000310: 9956 32bd be5d e13c 35c7 5cbd 1db1 c33c
00000320: ffd8 c3bd f052 653d e585 59be 670a 3fbd
00000330: c9b1 6cbb b242 b9bc 3eb4 07bd fa34 36bb
00000340: 1630 163d 32fc 7dbe babd 9a3c cbee 34bc
00000350: bcbd c33d e039 433d 391f 6a3e 049b 23bd
00000360: 6b87 14bc da89 14bd af32 1bbd ea27 2abc
00000370: f13b 3fbd f35a 623c b589 15ba 9d89 2cbd
00000380: e477 81bd a1d6 27bd 8270 57bd 87f7 6cbd
00000390: c87e 14bc 6948 60bd c56d 50bd 229b 9ebc
000003a0: 11b4 41bc 2be3 c3bd a1ed 0cbc 8e62 233d
000003b0: 3fc9 2a3d 0d54 bf3d b8d7 6a3d 4533 08be
000003c0: 5604 17bd 3333 04bd 181b e8bc 148e 1bbc
000003d0: 8446 b6bd b806 eabb f18f 61bd 8e05 46bd
000003e0: 887b 0bbd 98d1 103d bea2 87bd 583d 99bd
000003f0: 9d6c 8c3c 0b64 46bd 7bd9 44bd 8e37 02bd
-1.2401974 -0.10408593 -0.11723724 -0.31440595 -2.0861266 4.094949 -0.7937439 -4.5316906
0.4481349 -0.77392656 -5.333025 1.9338288 0.06154768 -0.31173575 -0.19250235 -0.35994607
-0.16021556 0.85269105 0.7583866 -1.3085098 0.43267682 -0.38222614 3.0833726 0.59914875
-0.21924065 -1.8189684 -1.3952906 -0.11189737 -0.019084552 -1.0391108 -1.8930271 0.76210827
-0.5707033 0.08294197 -6.07045 0.9411912 0.16006395 -0.6208107 -0.57545894 -0.3473733
-0.015675578 0.84703237 1.4998769 -0.5678464 0.5095214 -0.098622695 4.5972166 -0.73431695
0.10047757 -0.5215505 -0.5077571 -0.17658679 -0.014264968 0.7134904 1.6148636 -0.3520035
0.4664487 0.027429078 4.138056 -0.8770097 0.27365133 -0.03932795 -0.025516212 -0.64825314
1.001246 1.974662 -0.37655133 3.5578103 2.1502535 3.1897888 1.340489 -3.8889725
0.07449972 -0.20384997 -0.14602351 -0.23755361 0.9348564 4.47376 1.4741415 2.999102
0.98095435 -1.842583 12.888748 -8.439538 -0.013433468 -0.59279674 -0.52521056 -0.6606238
-0.052014235 0.5803547 1.3270322 -0.08023901 0.22849274 0.08972433 3.806652 -0.6854903
0.013565245 -0.001607873 0.0015246657 -0.019918717 -0.0013121222 0.0054062316 0.005227956 -5.3029064e-05
-0.007248073 0.0038622823 0.0015447366 0.0004576766 0.006597991 0.008152596 -0.0057755136 -0.008695697
-0.0060904184 -0.010220388 -0.007203035 0.0062987725 0.002251863 0.0059153396 0.0053638485 -0.0048719635
-0.007976481 0.0037705235 -0.009476694 -0.007471504 -0.0045603164 -0.0064704237 -0.011973442 -0.0059095174
-0.011680133 -0.0045631267 0.0010533427 -0.00038713092 0.0018457175 0.0012994404 0.0006502442 -0.00841514
0.001874213 0.0015635735 -0.015896352 -0.008310025 -0.0012766656 -0.005253351 0.0024790303 0.000982059
-0.002847834 -0.0032120657 0.002454544 -0.010930749 -0.016084366 -0.012732727 -0.005526206 -0.007047931
0.0024645592 -0.017638262 -0.008791331 0.00047835926 0.014641444 -0.010789137 0.000775633 -0.0049555553
0.011484487 -0.016554536 0.022510739 -0.015234945 -0.010651656 0.0121683525 0.013563994 0.0035595114
0.013351149 -0.004049948 0.009963175 -0.0233784 0.002540577 -0.0073315427 0.019679284 0.0039400957
-0.0014508931 0.008545495 -0.008567605 -0.00945 0.022807345 -0.0012708153 -0.002773521 -0.0027510952
0.00025214005 -0.02449173 0.035161708 0.0015788985 0.0021228315 0.012934863 0.008043199 0.011037292
-0.06125559 -0.04808686 -0.042011764 -0.01984975 -0.043539617 0.02751052 -0.053900916 0.023888165
-0.09562873 0.0559873 -0.21242483 -0.04664078 -0.003611671 -0.02261481 -0.033130877 -0.0027802573
0.036666952 -0.24803236 0.018889297 -0.011043261 0.09557673 0.047662616 0.22863473 -0.039942756
-0.009065489 -0.036264278 -0.037890133 -0.010385493 -0.046688024 0.013815629 -0.0005704419 -0.042123426
-0.063216954 -0.04097617 -0.05259753 -0.057853248 -0.00906343 -0.054756556 -0.050885934 -0.019361082
-0.011822716 -0.09564813 -0.008601577 0.03988891 0.04169583 0.09342203 0.05733463 -0.13300808
-0.03686937 -0.03227539 -0.028333232 -0.009494323 -0.089001685 -0.007141914 -0.055068914 -0.04834514
-0.034053355 0.035356134 -0.066228375 -0.074824035 0.017141635 -0.048435252 -0.048058968 -0.031791262

conv2.att_src f4 [1, 8, 8]
00000000: 7585 f2be 2750 e53e c6f2 0fbf c2cc 1ebf
00000010: e576 c8be 6ef8 1b3e f22e 323d fdb3 c03e
00000020: a0b1 303d 7817 e4be 401a 973e b321 b3bd
00000030: 65a8 78bd 56a8 f0be bb0e 42bc db90 b5bd
00000040: 65c0 13be 6a6f af3e e89c 98be 5804 fbbe
00000050: 6f77 ccbe 841f 7b3e dd2b c8be 8185 9c3e
00000060: 8b8b a1be a948 ccbe 4cc8 20bf 1c46 893f
00000070: c154 3d3f c9d2 08bd a470 573f adbe 683e
00000080: 3a72 82bc 8002 c1bd 6884 a03d 439b b8be
00000090: 92d2 b73e f602 903f 8bd4 81be 7146 333f
000000a0: 241c 373f 4922 bb3e 3aca 203f f037 033f
000000b0: da3b 8abf c184 cfbe 66f5 bf3c 24bc 83be
000000c0: 61e2 99bf 1b01 f2be 668b ac3e b234 243e
000000d0: bc4e 1c3f 1cdc adbe e54f d1bc 3003 1d3f
000000e0: 7e28 b3bf a5e9 813e edff 503d 72b1 29be
000000f0: 0e8c 32bd 17ed 34bd d6aa ee3e 6013 ea3e
-0.47367445 0.44787714 -0.5622982 -0.62031186 -0.3915321 0.15231487 0.0435018 0.3763732
0.043138146 -0.44549155 0.29512215 -0.08746662 -0.06070747 -0.4700343 -0.011844332 -0.088655196
-0.14428861 0.3426469 -0.2980721 -0.49026752 -0.3993487 0.24523741 -0.39095965 0.30570605
-0.31551775 -0.39899185 -0.6280563 1.0724521 0.7395745 -0.033404145 0.8415625 0.22728987
-0.015923608 -0.09424305 0.078377545 -0.36055955 0.3590284 1.1250904 -0.2535747 0.7002936
0.71527314 0.36549595 0.62808573 0.5125723 -1.0799515 -0.4053097 0.023432445 -0.25729477
-1.202221 -0.47266468 0.33700103 0.16035727 0.6105764 -0.33956993 -0.025550792 0.6133299
-1.3996732 0.2537357 0.05102532 -0.16571596 -0.043590598 -0.04417142 0.46614712 0.45717907

conv2.att_dst f4 [1, 8, 8]
00000000: ddb7 453e 7706 9c3f e497 023f dd1a fc3e
00000010: d103 893e 07ee d4be f2ae 07bf e0e8 4fbe
00000020: 866a f8be 41eb b23f 9a2f 61be 7cd6 f93c
00000030: 185b 11bf 6300 e93f 1b7d 0ebe 04c6 c9bd
00000040: 6580 f73e a2cc 393e 42b6 40bf 4815 c2be
00000050: 0e37 c83e 8b69 a03d b147 dd3e 34a2 39bf
00000060: 2ba1 57be 8e59 11be 0507 ccbb 66ca fe3e
00000070: 8189 883c b5cf 96be 0f2e 1c3e 190a cebd
00000080: 6615 493d 9031 ad3d d352 103e a84a bbbe
00000090: a46c 0bbe 00ac 963e ab0e 003f 3044 393f
000000a0: cd54 433e ab69 d43e fd0e c33e cbce 0c3f
000000b0: 899b c5bc 8860 393c 518b 8f3e 5a03 28be
000000c0: 1e35 813e e4f9 d2be e991 e53d 0415 043f
000000d0: 995b 31be 032c 9ebd 71f0 9a3e 434b 9e3e
000000e0: a4a6 ed3d da71 3dbe d0d6 95be a3d8 5cbe
000000f0: 6cde 59bd e651 663e 0846 e9bd c04d d73d
0.1930842 1.2189473 0.51013017 0.49239245 0.26760724 -0.4158785 -0.5300132 -0.20303679
-0.4851877 1.3978044 -0.21990815 0.030497782 -0.56779623 1.8203243 -0.13914911 -0.098522216
0.48340145 0.18144467 -0.75278103 -0.3790686 0.39104503 0.07832631 0.4321876 -0.7251313
-0.21057574 -0.14194319 -0.0062264227 0.49763793 0.01666713 -0.29455343 0.15251945 -0.1006052
0.049092673 0.08456719 0.14094095 -0.36580396 -0.13615662 0.294281 0.5002238 0.7236967
0.19075318 0.41486868 0.38097373 0.5500304 -0.024122017 0.011314519 0.28035977 -0.16407529
0.25235838 -0.41206276 0.11209471 0.5159457 -0.17320098 -0.07723238 0.30261567 0.30916795
0.1160405 -0.18500462 -0.2926545 -0.21567015 -0.053190634 0.2249218 -0.113903105 0.105128765

conv2.bias f4 [64]
00000000: 6ef4 afbe 1410 1abf 3f47 bfbe 6e1a 873e
00000010: 25a5 f33e e1de b53e 3907 7ebe d7aa e03e
00000020: 02ee ee3e 54d8 853e a1b1 09be 0c85 0ebf
00000030: 0158 a3be ec4e ad3e e8b5 413f 3dd9 193f
00000040: cf0f b43c 4e3f 8cbe 15aa 1fbf b31d 05bf
00000050: b42e 1c3f 79c1 70be a118 bc3e f75a e9bd
00000060: a7f4 fdbe 1442 0dbe 57ca 52be 74db 093f
00000070: 9bfe 3ebe 7adf acbe 2397 89bd eeab e43e
00000080: 1870 753e da9d 8dbe 6588 0c3f 1a40 3abf
00000090: e8fb 833e 2fa6 c73d fa9e f33e 6ada cf3e
000000a0: 1385 203f de16 143f 216f 163f 9a8c 2f3f
000000b0: b302 adbe 438e 1b3f 651c 293f c6f7 b7be
000000c0: b3e4 23bd 4ed7 be3e 1461 0b3f 80fe 7e3d
000000d0: 4f06 213d 4848 ea3e b099 b33e 9030 a6be
000000e0: 3052 21bf 4954 013f 8b4f e2be 718e e53e
000000f0: c630 1e3f 038b 0dbf 6e4d f03e da8a 04bf
-0.34366173 -0.60180783 -0.37359044 0.26387352 0.47586933 0.35521606 -0.24807443 0.4388034
0.4666596 0.26141608 -0.13446666 -0.55671763 -0.3190308 0.33849275 0.7566819 0.60097104
0.021980194 -0.27392048 -0.623689 -0.5199844 0.61008763 -0.23511304 0.3673754 -0.11394303
-0.49600717 -0.13794738 -0.20584999 0.53850484 -0.18651812 -0.3376425 -0.0671828 0.44662422
0.23968542 -0.27659494 0.5489562 -0.7275406 0.25778127 0.09748494 0.47582227 0.40596324
0.62703055 0.5784739 0.5876332 0.68573916 -0.33791122 0.6076395 0.6605895 -0.35931224
-0.040013026 0.3727364 0.54445004 0.06225443 0.039312657 0.4575827 0.35078192 -0.32458925
-0.63016033 0.50519234 -0.4420131 0.44835237 0.6179317 -0.5529024 0.46934074 -0.5177437

conv2.lin.weight f4 [64, 64]
00000000: c7fe 92be 3424 ddbe 6797 143e bc65 b73e
00000010: 36e0 9d3d b4de b6be dcc9 163f 32f8 313e
00000020: 4353 e6ba e982 113c 6e71 2d3c d379 3b3c
00000030: 1303 8c3b f051 8d3c ce2d f4ba 13fe 10bb
00000040: e66c 333c d142 983c d44a 263c 4896 f3bc
00000050: 94c0 78bb 1842 e53c d6f1 51bc a9fe 073d
00000060: 6047 c23c 7674 323c 39b1 0a3b e7ea c8bc
00000070: e6b6 f4bc e03f 5bbb aff1 d83b db84 ca3a
00000080: 4dd1 743c 1c84 9c3c 0f5a 863c d2d4 b2b9
00000090: 417b 803c d127 cfbb 9f28 45ba a858 ae3c
000000a0: 21ce 433e 6448 813d ea85 4ebb ab93 273e
000000b0: 00bc 153d 0f54 243e ed36 23bf a6e4 103d
000000c0: 224a cc3c 7ccc c33c f9f4 cbbc 4af4 173c
000000d0: a91e eb3b ae73 01bc c8aa 9bbb e26b 913c
000000e0: 24c5 e4bb 5dd0 16bd 96c0 57bb d467 bdb8
000000f0: 4517 2d3b 7573 cf3c 2f05 fbbc 7378 cabc
00000100: fbef 2fbf 8f55 b2be 38ce e33d 6be4 4fbe
00000110: e28f bebe 00b0 00bf 0a68 20bf 15ba f0be
00000120: 795e 11bc 8589 27bc ee96 d0bb c93f 55bb
00000130: 2770 d3bb 19d8 ebbb 69ab 5bbc 6ac2 4bbc
00000140: 68fb 68bc 0d89 1e3c 2b26 43bd 11cf 693c
00000150: 1990 a8bb 78c3 5d3a 4586 4a3c 37f3 dc3c
00000160: f016 0fb8 dc2b 83bc 14f7 4c3b dd98 a9bc
00000170: 0e23 cd3c 0030 c13b 63b2 4abb 7ebf 193b
00000180: 7de7 93bc 16b6 08bd 48fa 34bc 1291 543b
00000190: e429 37bc 12b9 883c e0fd c6b9 9f40 e5bb
000001a0: 5fb3 1f3e 2c98 06be 5bbd a33e efeb c03e
000001b0: 0198 92bc 768c ca3d cad6 e53e ccbf a2bd
000001c0: da73 b7bb 9149 973b ccdb e2bc 14fd 7abc
000001d0: 46ef 423c f1b9 a13c c67d ecbc d989 d93c
000001e0: 9cd4 8e3c 1ce7 d53b 24e8 6b3c 1888 82bb
000001f0: 6bad 56bb e001 3fbc b381 4d3d 0489 b7bb
00000200: 4967 1bbf 08c9 03bf 1778 1c3e adcb dc3e
00000210: 9230 37bd 9f97 90be ffae 403f ecde 253e
00000220: 8f0d 92b9 419c 3f3b a08e e43a 6923 473c
00000230: d8c3 283c 3700 7f3a 5052 38bb 2013 43bc
00000240: 89dd 18bd f55b cd3c a3ce 393b f6e6 76bc
00000250: 641c d6b9 722e f03c 31a0 0ebd b350 6c3c
00000260: 74be 14bc 358d acbc e666 a3ba e173 d9bc
00000270: 731a b9bc 3ce7 d739 2d8a db3b 958a db3b
00000280: d076 e63b b6fc 83ba 839a 683b f9f4 6bbb
00000290: 9215 aebb b9c1 933c 162d 8ebc cfef 1e3b
000002a0: 14aa a83e 789f a03e bb55 bcbd 6dca 8d3e
000002b0: 3c9e 3e3c 2740 1b3e 93c1 f7be 414e 373e
000002c0: a2b2 57bc a48e 363c e776 b0bc b3af 2a3a
000002d0: 471b d739 7a46 34bc aad8 81bc c56c a43d
000002e0: 55a4 813c 8966 7a3c 8bf1 1c3b 4336 f3bb
000002f0: 04c7 8e3b 6caa eb3c 5d97 ffbc 2fb1 e53b
00000300: 2a7c 1cbf 03aa a8be 0773 fe3d 4a08 013f
00000310: 7080 5f3e 34b9 893e 43bb 973f 9c0d eb3e
00000320: 9052 b8ba 1b77 003c 8adf 683c 2a12 8b3c
00000330: 2e07 343c cad7 a53b 24fc e5bb 1347 11bb
00000340: 0003 883c 7eeb d33c e6ec 5d3d a90e 023d
00000350: e4d3 a33c 1f6a 203d e252 e6bc c984 c23c
00000360: 23ab f9bb fe9e d83c 93f1 f4b9 cc6e b2bc
00000370: c22e bb3a b008 c33b 8a9a 1c3c 8375 7e3a
00000380: 5cee 9b3c a8e3 e13b 32e8 9f3b dc05 013b
00000390: 9005 a93c 43cc 013c fc10 703b 3eea 7a3b
000003a0: 9af0 613e b3e5 7d3f b541 39be 07d4 0dbd
000003b0: 6007 3c3d b084 cabc e94f bfbd cd3b b63e
000003c0: 6657 923d 84d7 a63c 6bf8 973c 0a26 a73c
000003d0: f687 0dbc baf4 0cbd 0bc7 123d 71fa a0bb
000003e0: e0ee 1d3c e0f0 f1bc 60e8 1339 5809 113c
000003f0: 2a1b 2cbb 64f6 f03c de72 14bd bf8f 2fba
-0.28710005 -0.43191683 0.1451088 0.35819805 0.077087805 -0.35716784 0.5890176 0.17379835
-0.0017572421 0.008881309 0.010586126 0.011442619 0.0042728274 0.017250985 -0.0018629374 -0.0022124096
0.010951256 0.018586548 0.010149676 -0.029734746 -0.0037956582 0.027985618 -0.012814006 0.033201847
0.023715675 0.010892024 0.0021162762 -0.024526073 -0.029872369 -0.003345482 0.006620608 0.0015450971
0.014942479 0.019105963 0.016400365 -0.0003410937 0.015683772 -0.006321885 -0.00075210066 0.021282509
0.191216 0.063126355 -0.0031512924 0.16364925 0.036556244 0.16047691 -0.63755685 0.035374306
0.024937693 0.023901217 -0.024897086 0.009274552 0.007175286 -0.007901115 -0.0047505833 0.017751638
-0.006981509 -0.036819804 -0.0032921187 -9.031562e-05 0.0026411575 0.025323609 -0.03064212 -0.024715638
-0.68725556 -0.348309 0.111233175 -0.20301978 -0.3721915 -0.50268555 -0.6265875 -0.4701697
-0.008872622 -0.010225658 -0.0063656485 -0.003253924 -0.0064525786 -0.0071973917 -0.013407567 -0.012436489
-0.014220096 0.00967623 -0.04764382 0.01427056 -0.005144131 0.0008459608 0.012361114 0.026971443
-3.411522e-05 -0.016012125 0.00312752 -0.020702774 0.02504113 0.0058956146 -0.003092908 0.0023460086
-0.018054718 -0.033376776 -0.011046 0.0032435101 -0.011179421 0.01668981 -0.00037954655 -0.006996229
0.15595768 -0.13143986 0.31980404 0.37680003 -0.017894747 0.09890072 0.44890434 -0.079467386
-0.0055985274 0.004616924 -0.027692698 -0.015319128 0.011897868 0.019741984 -0.028868567 0.026554989
0.017435364 0.0065277945 0.014398608 -0.003983509 -0.0032757174 -0.011658162 0.05017252 -0.0056010503
-0.60704476 -0.51478624 0.15280186 0.43124142 -0.044724055 -0.28240678 0.7526702 0.16198319
-0.00027857392 0.0029237422 0.0017437525 0.0121544385 0.010300599 0.000972751 -0.0028125234 -0.011906415
-0.037320647 0.025068263 0.0028351925 -0.015069714 -0.00040838413 0.029319022 -0.03482074 0.014423537
-0.009078611 -0.021063427 -0.0012466579 -0.026544513 -0.02259562 0.0004118028 0.0066998214 0.00669987
0.0070332065 -0.001006982 0.0035492487 -0.003600417 -0.00531263 0.01803671 -0.017355483 0.0024251824
0.3294226 0.31371665 -0.09196039 0.276935 0.011634406 0.15161191 -0.48389873 0.17900945
-0.013165148 0.011142407 -0.021541072 0.00065111666 0.0004102832 -0.011003131 -0.015850384 0.08028559
0.01582543 0.015283235 0.0023947682 -0.00742224 0.0043572206 0.028767787 -0.031200105 0.0070096473
-0.6112696 -0.3294221 0.124242835 0.50403273 0.21826339 0.2689911 1.1854023 0.4590882
-0.0014062691 0.007840897 0.014213452 0.016976435 0.01098804 0.0050611245 -0.007018583 -0.0022167608
0.016602993 0.025869127 0.054181002 0.031752262 0.019998498 0.039163705 -0.028115693 0.023744958
-0.007619278 0.026443 -0.00046719293 -0.021781348 0.0014280903 0.0059519634 0.009558329 0.00097068417
0.019034557 0.006893594 0.0048799748 0.001968733 0.020632535 0.007922235 0.0036631217 0.0038286592
0.22064438 0.9917862 -0.18091471 -0.034626033 0.04590547 -0.024721473 -0.093414135 0.355925
0.07145576 0.020366438 0.018551072 0.02040388 -0.008638373 -0.034413077 0.035834353 -0.0049126674
0.009639472 -0.029533803 0.00014105579 0.008852325 -0.0026261308 0.029414363 -0.03624236 -0.000669714

fc1.weight f4 [128, 74]
00000000: 99f4 fbbd 077e c5bd 6d0e eebd b341 733d
00000010: af9b 323d 48a6 033e 0d57 aabd ee15 ed3d
00000020: 7e31 48bd bd80 393e 7ef3 22be 4f24 043e
00000030: 521d 033e 28bd 1f3e c65d 0e3c 6243 f93d
00000040: 4295 d4bd b5f0 04be 1371 d8bd 5247 0abe
00000050: 2e7d d23d cde9 07be b2d6 0b3e cb10 b3bd
00000060: 784a 1fbe 7d24 b7be 5650 08bd 9eb7 8e3e
00000070: 2d74 c03e 6fd9 cfbd 2d4f a43e 2149 5a3d
00000080: b1b7 38be 83de 3cbe dee2 213d f9bb 8bbb
00000090: a2b5 493e 7a6f 3b3e 69e6 e23c f429 2e3e
000000a0: dad9 e63d 78bb f53d bfca 053e b636 083e
000000b0: d9e5 f4bd da72 073e 5b84 9b3d 4efb bdbd
000000c0: 5f80 cfbe 6afd d6be 310c 3a3e c064 e3be
000000d0: 2711 cc3e 1150 503e dd5a cbbe a44c cb3e
000000e0: 7e50 c7bd 4bab b03d 49d5 5bbd dfc2 123e
000000f0: 4802 933d 32cf a9bd 2d78 d33d 6845 9fbd
00000100: 903a 69bc 3331 4dbb 9609 e0bd 1608 a2c0
00000110: f6a5 70be e8ac bf3c 329d e1bd 2774 ee3a
00000120: ff7c d9bd 24ec f2bd 59a6 9cbe f002 44be
00000130: 4f01 98be 1573 b53d d592 d73d 3f25 7e3e
00000140: 17c9 1abe 04b4 963e 42c2 993e a723 f23e
00000150: 1821 f4be b860 50be 6777 0c3f e5eb da3e
00000160: 8767 653e e956 d53e 6f43 d6be 4170 ddbe
00000170: e325 8abc 5712 873d 877b 6a3c d52d bebe
00000180: 26f8 dd3e 39b4 bbbe 62fa c43e 36c5 6cbd
00000190: a3e2 103f 4c05 abbe 4118 79bd c7d1 d03e
000001a0: 4d9c 26be d8a9 30be 6df4 96be 774a 07be
000001b0: 3ae9 2b3d 0624 b5bd c06e e73d 0d30 583e
000001c0: 541a 503e ef41 5f3e 299d 8f3e f3ee 923e
000001d0: 89a0 663e a305 5a3e 8ea6 bcbe 1484 653e
000001e0: ff2c 8d3e a209 d0be 3f17 bc3d 89c3 8b3d
000001f0: 6d1e a1be 4012 2d3e b57d d4bd 502b aebe
00000200: 718b 453d ea12 87bd 8406 e1be 8680 cb3e
00000210: 593e a8be 6afc 1d3f c6b6 ae3e 2d5c d0be
00000220: c689 d93e 1dc0 b2be d40a 0dbf d4f3 5abb
00000230: 39a0 b83d 2b1a cd3e e29f 563e e8a8 e23e
00000240: 9b55 b7be 9b3c 2ebf e96b acbe e9de abbe
00000250: 8f4d d23d 6951 b33b bfd6 563d 34e9 c8bd
00000260: c2ea 15be aea8 4abd d2bb a33d 9224 3cbd
00000270: a4d0 5cbe f171 a6be ae3d a13e 7fb4 a23e
00000280: d72e 9bbe c97f 97be 238c 7abe b20f 1ebe
00000290: 9919 cabd 8dd0 80bc bba6 603d 29a3 083e
000002a0: 4c88 92bd 9985 09bd 8af2 0a3c d7e2 12ba
000002b0: 9f2d 29be ad97 8dbe c9db ffbd 58a1 d03d
000002c0: d903 9b3e 19e2 1bbe 9a49 293e bb66 bfbc
000002d0: 31eb e63c 1a51 273e 66e8 823d baca 49bd
000002e0: f462 a9bd 1ddc 053c 8c81 463d 1b6b 17bd
000002f0: b17f f0bc 5340 723c ae77 debc 0c66 62bd
00000300: adc5 d53c 3fad 02bc 6871 053d 4b3d 943b
00000310: e545 48be 83ae 69be fe14 6f3e 8a73 acbe
00000320: 76f0 2f3e 0ef7 723e 6ceb 7bbe cfe0 3b3e
00000330: 3125 7f3e cb70 86be 128f 643e 4431 87be
00000340: 2221 71be 1df9 773e 0b68 88be c4f4 853e
00000350: 7f6a db3e 179a 463b edcd 753f c0fd b1c0
00000360: 821a 1a3f add6 adbe fc3b 733c 6fa2 9ebf
00000370: b9d5 053d ceff 293d f7b5 13be e920 06be
00000380: a570 07be 3678 863b c13c b93d 4bec 163e
00000390: f4d8 053d 057a 3a3e ec86 94be 76fb c3bd
000003a0: c56a b03d 1e99 923e 903c 1cbd 8aa1 e6bd
000003b0: b21d 92be 789a c23c 4f38 67be 65e1 15be
000003c0: e32c d8bd 7696 0f3c 0345 663d f880 26be
000003d0: 0a03 463e ce0f 35be 23c3 02be 0cd1 e2be
000003e0: 4e0f 1cbd 13fc 123e 08cb c53e f6f1 b0bd
000003f0: b59a ba3e b918 b03e 5b6d 55be f888 0dbe
-0.12302513 -0.096431784 -0.11623845 0.059388828 0.043605503 0.128564 -0.08317385 0.115764484
-0.048875324 0.18115516 -0.15913197 0.12904476 0.12804154 0.15599501 0.0086893495 0.121710554
-0.10380031 -0.12982447 -0.10568442 -0.13503769 0.102777824 -0.13272782 0.13656119 -0.087434374
-0.15555751 -0.35770026 -0.03327974 0.27874464 0.37588635 -0.10148894 0.32091656 0.053292397
-0.18038823 -0.18444256 0.039522998 -0.0042643514 0.19698194 0.18304244 0.027697759 0.17008191
0.11272021 0.119986475 0.13065623 0.1330212 -0.119579025 0.13227406 0.07593604 -0.09276448
-0.40527627 -0.41990215 0.18168713 -0.44412804 0.39856836 0.20343043 -0.3971776 0.3970691
-0.097321495 0.086264215 -0.0536702 0.1433215 0.071781695 -0.082914725 0.10325656 -0.0777691
-0.014235154 -0.0031309843 -0.10939328 -5.063487 -0.23500809 0.023397878 -0.11016311 0.0018192575
-0.10619544 -0.118614465 -0.30595663 -0.19141746 -0.29688498 0.08859841 0.10526053 0.24818896
-0.15115772 0.29434216 0.3003102 0.47292826 -0.476815 -0.20349395 0.54869694 0.42758098
0.22402774 0.4166787 -0.41848323 -0.43249705 -0.016863769 0.06595295 0.014311678 -0.37144342
0.43353385 -0.36660936 0.38472277 -0.057805263 0.5659582 -0.3340248 -0.060814146 0.40785047
-0.16270562 -0.1725229 -0.29483357 -0.13212 0.04197047 -0.088447616 0.11300421 0.2111208
0.20322543 0.21802495 0.2804959 0.2869793 0.22522177 0.21291213 -0.3684582 0.22413665
0.27573392 -0.4063235 0.09184121 0.06824405 -0.31468526 0.16901493 -0.10375539 -0.3401742
0.048228685 -0.065954044 -0.43950284 0.39746493 -0.32860067 0.6171328 0.3412382 -0.40695325
0.42487925 -0.34912196 -0.5509465 -0.0033409493 0.09014935 0.40059027 0.20959428 0.4426949
-0.358075 -0.68061227 -0.3367608 -0.33568504 0.102686994 0.0054723513 0.05245089 -0.09810105
-0.14640334 -0.04947727 0.07994808 -0.045933314 -0.21563965 -0.32508805 0.3149237 0.31778333
-0.30309173 -0.2958968 -0.2446752 -0.15435675 -0.098681636 -0.015724445 0.054846507 0.1334349
-0.07154903 -0.033574674 0.008480677 -0.000560326 -0.1652131 -0.27654782 -0.124930926 0.10187024
0.30276373 -0.15222968 0.16531983 -0.023364415 0.02818832 0.16339532 0.06391983 -0.0492656
-0.08270827 0.008170155 0.04846339 -0.036967378 -0.029357763 0.014785844 -0.027156677 -0.0552731
0.026095236 -0.007975875 0.032578856 0.0045239083 -0.19557913 -0.22820477 0.23347852 -0.336819
0.17181572 0.23727056 -0.24601525 0.18347476 0.24916531 -0.2625793 0.22320202 -0.26404774
-0.23547795 0.24216123 -0.26641878 0.26163304 0.42854688 0.0030304247 0.9601734 -5.5622253
0.601967 -0.33952847 0.014845844 -1.2393321 0.032674525 0.04150372 -0.14424883 -0.13098492
-0.13226564 0.0041036857 0.09044791 0.14738576 0.032677606 0.1821061 -0.29009187 -0.09569447
0.08614115 0.28632444 -0.038143694 -0.1126128 -0.2853828 0.023755297 -0.22580074 -0.14636762
-0.105554365 0.0087639 0.05621816 -0.16260135 0.19337097 -0.1768181 -0.12769751 -0.44300115
-0.038100533 0.14353971 0.38631463 -0.086399004 0.36446157 0.34393862 -0.20842497 -0.1382178

fc1.bias f4 [128]
00000000: 2bf8 dfbd 994d b7be 0104 913c 9131 36bd
00000010: 896a c6bb c228 b0be a09a b6be cf46 7ebe
00000020: c182 7f3d b7d1 c2be 6605 cbbd cf1b 8cbd
00000030: 093b 99bc a87c 353e a9db 9fbe 1568 b2bd
00000040: 68b3 2fbd 5daf bcbe a4b6 453e ae3e 003e
00000050: 778d 8fbe dc0a 27bc 1f32 d6be e7e3 abbe
00000060: d9b9 abbe 73cc be3c 688c 5c3e 4aa5 e6be
00000070: cd23 7cbe a17f 823e 99f8 2d3e bc28 bcbe
00000080: 0170 a0bb 4167 b2be 439e bcbe fd33 8ebe
00000090: 8bf0 afbe 1481 1e3c 9d80 b4be 759c bcbe
000000a0: 5efe 35bc 4371 883c 8bed b0be fd53 123e
000000b0: 5912 7cbe de12 c1ba eb18 88be 6bf9 883b
000000c0: 2733 ca3e 17d0 563e 8492 b9be 0f30 a8be
000000d0: 0e19 a4bc a58d bfbe 26aa cdb9 768e 263d
000000e0: 4dd0 eabd 2737 81be baf0 2a3e 5995 b23c
000000f0: 6b2c 91be fc0b 93be 3dd1 bcbe d9b0 413e
00000100: 1c73 92bb 1e07 0f3e c62d a1bb 34b2 5f3e
00000110: 3d02 5ebe 4bba 97be a52e 92be 7411 0dbc
00000120: 2d76 01bd eb0b 91be ab9d a2be 564c a83e
00000130: 48f6 633d a49b aa3d be40 d7be b7c8 babe
00000140: 2c34 49bb cc68 89be 1276 38bc d329 94bb
00000150: f71e c8be ce79 36be 87a6 283e 68b6 84be
00000160: c8b1 b1be 06ce c5be ce61 d1be 7238 3a3d
00000170: 3d3b 8ebd c612 7bbe 3f40 3e3e 705d 91be
00000180: 06da dc3c ced5 563e dbfd afbe 80ce b4be
00000190: 25ac 9ebe 0382 933c e425 57be da51 953d
000001a0: 3c3a 9abe 8a06 043c 43d1 073e f4a6 a6be
000001b0: 1ac5 3dbd 37db 023d 4fb8 99bd e629 62bd
000001c0: 26b5 d1ba deab b6be c8d9 65be f47a acbe
000001d0: 186e c53b fee8 5b3d 8a27 6e3b e79c 91be
000001e0: 0657 853c 1eda b0be cacf d2be c938 b0be
000001f0: e7dc 9f3c a2b4 2d3e 57e1 65be a6fe 01bc
-0.10936006 -0.3580139 0.017702105 -0.044480864 -0.0060551804 -0.34406096 -0.35664845 -0.24831699
0.062380556 -0.38050625 -0.09913139 -0.068412416 -0.018704908 0.17723334 -0.31222275 -0.08711258
-0.042895705 -0.36852542 0.19307953 0.1252391 -0.28037617 -0.01019546 -0.41835114 -0.33572313
-0.33540228 0.023290848 0.21537936 -0.4504798 -0.24623032 0.25487998 0.16989364 -0.36749828
-0.0048961644 -0.348444 -0.36839494 -0.2777404 -0.34363207 0.009674329 -0.35254374 -0.36838117
-0.011108009 0.01665557 -0.3455623 0.14289851 -0.24616374 -0.0014730354 -0.2658151 0.0041801236
0.3949215 0.20977817 -0.36244595 -0.32849166 -0.020031478 -0.37412754 -0.00039227417 0.040663205
-0.114655115 -0.2523739 0.16693392 0.02179973 -0.283542 -0.2872008 -0.36878386 0.18915118
-0.0044692885 0.13967559 -0.0049187867 0.21845323 -0.21680541 -0.29634318 -0.28551212 -0.008610118
-0.03160684 -0.28329405 -0.31760916 0.3287074 0.055654794 0.08330467 -0.42041582 -0.36481258
-0.0030701263 -0.26837766 -0.011258619 -0.0045215874 -0.39086124 -0.17819902 0.16469775 -0.25920415
-0.3470595 -0.38633746 -0.40894932 0.045463987 -0.069448926 -0.2451888 0.18579195 -0.283916
0.02695943 0.20979998 -0.34373364 -0.35313797 -0.3099071 0.01800633 -0.21010548 0.072910026
-0.30122554 0.0080582 0.13263421 -0.3254925 -0.04633055 0.03194734 -0.07505857 -0.05521574
-0.0015999421 -0.35678 -0.22446358 -0.33687556 0.006025087 0.053688996 0.0036339485 -0.2844002
0.016276848 -0.3454141 -0.41174155 -0.34418324 0.019514514 0.16963437 -0.22449242 -0.007934248

fc2.weight f4 [64, 128]
00000000: 6d0c e93d f551 fb3e 1047 433e 2e96 a13e
00000010: ef87 023d e213 71bc 1bed 14bd 4723 ff3e
00000020: 162f c73d a208 c93e 7751 843e 2d9f ce3e
00000030: da33 9e3d fcf2 963d f307 53bd 9cf7 c33e
00000040: f1e2 993e d8cf 73be 247c c2be cf81 053c
00000050: 85f6 b53e 413b b03d d6eb ca3e 534c 7b3b
00000060: 2a41 17bc 6068 dd3d 77a8 8b3d 1d90 fc3e
00000070: a846 ac3e 0dfa b2be 5d56 86bb af29 8a3d
00000080: 221c c93d 24f6 53bd 0611 3ebe 3ddd c83e
00000090: 2192 c9bd f7ec 933d 5293 ff3e 4850 42bd
000000a0: 2ddc d83d 7c49 943e a9c5 d6bd 29f2 943d
000000b0: c018 ad3e 0a10 193d 8267 11bc af86 643d
000000c0: 889f 0cbf 66ab cfbe 8061 37bd 0eb3 50bd
000000d0: 5063 953d fbed 65bd 10ab 9bbc 6ca5 9d3e
000000e0: a432 8f3e 1bbf a43e d235 7ebe e8b7 863d
000000f0: 8c52 ed3e 736e 46be ae24 50be 6d46 79be
00000100: e86a 813d f528 a83e 44cb 953d d401 ec3c
00000110: 8e45 a83e 6da2 1bbe b716 1abd 9201 873d
00000120: f32f 843d 4298 26be 5c14 88bd 8060 40be
00000130: f879 793d 2d32 2c3d a85d 07be aee4 49be
00000140: 8d6b 6a3d f267 af3e 18d8 873d 8467 913d
00000150: ada4 e43e d456 a93e 0a7c 963e 0d13 f93e
00000160: b63e febd 3c0e cb3e a518 d03e 8680 953e
00000170: ce15 083e 2273 b43e efa9 a83c ac5b 24be
00000180: 1f12 b33e fe90 cbbe 612f 69be e0fb d73b
00000190: 21e9 b63e dfc9 f23d 1821 aa3e d515 a23e
000001a0: 4919 bf3e 5040 bb3d 5ad5 d33c 3c4c 0fbe
000001b0: f655 823d a08f de3d 934e a43e 0630 523e
000001c0: 313a 893d f80e 24be f0aa f03e cb84 ce3e
000001d0: 4e39 a63d 6a7e 503c a3ed 8a3d c321 26be
000001e0: b8db 993e 9964 b43e 7243 c13e 9420 93bc
000001f0: d2af 81bd d1c0 6f3c bbdd c13e 8fa3 903d
00000200: 55fb 12be 5061 c43d b4ca b2bd b621 823d
00000210: 4277 0cbd 0806 873e f79b 753e 6a37 833d
00000220: 0413 cbbd 27ff 3e3d 2d71 01be 108d c13d
00000230: 9c53 bebd b63d 0abe 0284 383e 332c 493d
00000240: ca95 8d3d 15c8 b33e 3ecb 08be 9661 adbd
00000250: 91cf ca3d 63d1 f9bc d0b2 8e3d b888 dd3d
00000260: 6a25 b33e 60ff 0cbe edc7 17be 8130 9c3d
00000270: 02fe 7c3d 7492 c0bd 12f7 53bd 84ea ab3e
00000280: db6d 41bd 79cc af3e a957 b13e 79d2 4c3d
00000290: 3382 3d3e a59d a23a 5702 003e e763 983e
000002a0: 42d5 80bd 8011 08be 3d82 b33e ca43 00be
000002b0: 088c 9d3d 8a63 97bc e162 fd3d e01d d5bc
000002c0: f8f2 bd3e 30a4 16be 3790 b33e 39bc a03d
000002d0: 1a3e ebbc 21fd 763e f4eb 03bd 4d3a 3c3d
000002e0: dff3 f0bd b61c 833d 6596 c13e 5459 00bb
000002f0: 829d b03d ddab 963e 7b1b ab3e c90b 863e
00000300: 8926 afbd c63c 2fbd 4284 43bd 5888 09be
00000310: 8eb8 6e3d f795 9c3e 3b5b 1b3d d0bb 68bb
00000320: c6a3 69bd 0d37 ad3e 771d a03e f412 8b3e
00000330: 4612 b9bd 6336 9dbd 574e ae3e ef46 ba3e
00000340: 781c 02bd 7862 873d 75f1 adbb 6a15 07bd
00000350: b2a6 8d3d 911d 793d 6633 8c3d 7390 7f3d
00000360: 7d5d b73e c711 983d e89c 863d 66fa 243d
00000370: 9fcd f1bd 9bda 193e 6ef7 11be d808 943e
00000380: 05aa 4bbd c802 d3bd 1efd ab3e 4faf 133e
00000390: 61f8 873d e25a 05bd 2a96 813d 8ae8 ba3c
000003a0: 00c1 e6bc 6580 bebd ba7c 6cbd a573 8f3e
000003b0: 208c 4dbd 5987 b0bc 502a 413d 5af0 f9bd
000003c0: 5c7a f4ba 6939 b53e 8115 173d 4f27 b33d
000003d0: b4ac 37bd 02b8 3ebc 4a15 7039 5684 9c3e
000003e0: b1a0 523d 0c9e ca3d 0e5a b03d e0a6 473e
000003f0: fee2 3fbe 4a18 afbd 534f 743b 032c a0bc
0.11379323 0.49085966 0.19070077 0.3155989 0.031867918 -0.014714213 -0.036358934 0.49831602
0.09725778 0.392644 0.25843403 0.40355816 0.07724734 0.07370564 -0.051521253 0.38274848
0.30055955 -0.23809755 -0.37985337 0.008148625 0.35539642 0.08605052 0.39633054 0.0038345053
-0.009231845 0.108109236 0.068192415 0.493287 0.33647656 -0.349564 -0.004099651 0.06746232
0.09819819 -0.05174841 -0.18561181 0.3923129 -0.09842325 0.07222932 0.49917084 -0.047439843
0.1058887 0.28962314 -0.104869194 0.07272751 0.33807945 0.03736881 -0.008874776 0.055792507
-0.54930925 -0.40560454 -0.044770718 -0.05095201 0.07294333 -0.05613516 -0.019002467 0.3079027
0.27968323 0.32177052 -0.24825218 0.06578046 0.4635204 -0.1937807 -0.20326492 -0.24343272
0.06319219 0.32843748 0.073141605 0.028809465 0.32865566 -0.1519868 -0.03761932 0.065920964
0.06454458 -0.16269019 -0.06644508 -0.18786812 0.060907334 0.04204004 -0.13219321 -0.1971614
0.057231475 0.3425899 0.066330135 0.07099822 0.44656888 0.33074057 0.2939151 0.48647347
-0.12414305 0.39659297 0.40643802 0.29199618 0.13289568 0.3524409 0.020588843 -0.16050595
0.34974763 -0.39759058 -0.2277198 0.006591305 0.35724738 0.1185491 0.33228374 0.31657282
0.3732398 0.09143126 0.02585857 -0.13993925 0.06364052 0.10867238 0.32091197 0.20526132
0.06700552 -0.16021335 0.47005415 0.40335688 0.08116399 0.012725452 0.06783607 -0.16223817
0.30050445 0.35233 0.3774677 -0.01795987 -0.06332363 0.014633373 0.3786448 0.07062446
-0.14353688 0.095888734 -0.08730069 0.06354086 -0.03429342 0.2637179 0.23985277 0.06407054
-0.09915736 0.04663005 -0.1264083 0.09450734 -0.09293291 -0.13500103 0.18019107 0.049114417
0.069133356 0.35113588 -0.1335878 -0.08465879 0.099028714 -0.030495351 0.069676995 0.10817093
0.34989482 -0.13769293 -0.1482236 0.07626439 0.06176568 -0.09402934 -0.051749296 0.3357736
-0.047223907 0.34335688 0.34637192 0.05000541 0.18506698 0.0012406601 0.12500893 0.2976372
-0.06290676 -0.13287926 0.350603 -0.1252586 0.076927245 -0.018480081 0.12372375 -0.026015222
0.37099433 -0.1471107 0.35070965 0.078484006 -0.028716136 0.24119999 -0.032207444 0.045954037
-0.11765265 0.064019606 0.37810054 -0.0019584494 0.08623792 0.29427996 0.33419403 0.26180866
-0.08552272 -0.042782567 -0.047733553 -0.13430917 0.058281474 0.30583164 0.0379288 -0.0035512336
-0.057040952 0.33831063 0.3127248 0.27162898 -0.090366885 -0.07676389 0.34044144 0.36382243
-0.03176543 0.06610578 -0.005308325 -0.032979406 0.0691656 0.060819212 0.06845741 0.062393617
0.35813513 0.07425266 0.06572896 0.04027786 -0.11806797 0.15024798 -0.14254543 0.28912997
-0.04972269 -0.10303265 0.3359155 0.14422344 0.066391714 -0.032557376 0.0632747 0.022815961
-0.028168201 -0.09301833 -0.057736136 0.28017917 -0.05018246 -0.021548914 0.047159493 -0.122040465
-0.0018652189 0.35395363 0.036885742 0.08747732 -0.044842437 -0.011640551 0.00022896114 0.30569714
0.05142278 0.09893426 0.086109266 0.19497252 -0.18738934 -0.08549555 0.0037278726 -0.019552236

fc2.bias f4 [64]
00000000: cc56 2ebf 5277 06bc c951 9a3d 2a3c 14bf
00000010: 97a9 1abf ced7 d0be e061 133d 266b 393e
00000020: 754a 12be 6fd2 203c 0073 2c3b 55c3 0bbf
00000030: 1569 e5be 17e1 cdbc 8a2b 0cbf 1f96 30be
00000040: dcd3 18be 67a0 d0be 4392 60bd 2e65 0fbf
00000050: 4377 04bf 607e b4be bf34 c0be f1dd 11bf
00000060: 4049 0dbf 43db 9bbe b15f e7be c97f dfbe
00000070: 343d aa3c b231 4c3c fa66 0dbf ddd3 cabe
00000080: b6d1 dd3d 6d5a 3ebe f304 373d 6606 d9be
00000090: 9754 2bbe 029f 9bbe 3b5d 2fbd b69c 05bf
000000a0: 957d 2ebe 5489 00bd 9b25 c23c 0378 9e3d
000000b0: 92bd 00bf f6ad 1bbd 4cc9 8cbe eddf d0be
000000c0: 676d 21bf dc59 e5be 8bd0 b2be 1450 3c3d
000000d0: 0745 343d 7ea5 0dbe ef06 ffbe 9d1c 5e3d
000000e0: 9496 2ebf 1dd4 143e 5783 37be 5a79 61be
000000f0: 7f5c 70be 93db f33d f50a b63d 2fe8 19be
-0.6810119 -0.008207159 0.075351305 -0.57904303 -0.60415024 -0.40789646 0.035982013 0.1810728
-0.14286216 0.009815796 0.0026313663 -0.5459493 -0.44806734 -0.025131745 -0.54753935 -0.17244767
-0.14924568 -0.40747377 -0.054826986 -0.5601376 -0.5174448 -0.35252666 -0.37540242 -0.5697928
-0.55189896 -0.3044072 -0.45190194 -0.4365218 0.020781137 0.01246302 -0.55235255 -0.39614764
0.10831015 -0.18589182 0.044682454 -0.42387694 -0.16731487 -0.3039475 -0.04281352 -0.52192247
-0.17040093 -0.031380966 0.023699572 0.07737734 -0.5028926 -0.0380077 -0.27497327 -0.40795842
-0.6305756 -0.4479512 -0.3492473 0.045974806 0.044011142 -0.13832662 -0.49809977 0.054226507
-0.68198514 0.1453404 -0.17921196 -0.22018948 -0.23472784 0.11907115 0.08888809 -0.15029977

fc3.weight f4 [1, 64]
00000000: eea0 b2bd d8ef 63be c70f 89be d776 2f3e
00000010: 7c23 9abd 5d7f 3dbc 5100 55be 6578 8ebe
00000020: c8c5 96be e7a5 7fbe d16d 92bd aa61 b7bd
00000030: 7255 90bd 7e6b b3be 9f10 22be f0c1 9cbe
00000040: f638 82be c724 02be 8010 9ebe 974b 30be
00000050: 6d91 1fbe 2a09 8ebd 4784 9dbd b398 37be
00000060: a1a2 11be 97e3 dcbd b0ba 92bd 6b09 94bd
00000070: 8b0b 88be 6982 f63d 4176 a4bd 35e5 b0bc
00000080: 80ca a2be 843d 5f3c cb77 b0be 34e7 93bd
00000090: 48f4 6bbe d375 153e 801b 56be ae21 46be
000000a0: d3f6 84be d0c6 7bbe e110 82be 4b75 7abe
000000b0: dc4f 0fbe ab0a 8cbe e634 8dbe 7294 9cbd
000000c0: a217 b4bd 323d f7bd 325d a5bd e03a b1bd
000000d0: d259 42be 853c 91be 13b8 0bbe f2cf 7ebe
000000e0: 79fb a4bd 49ec 87be 2689 dfbd bd54 093e
000000f0: c247 3b3e 831d 8cbe 0821 75be 783d 51be
-0.08722101 -0.22259462 -0.2676985 0.17135178 -0.07526299 -0.01156601 -0.20800902 -0.2782623
-0.2944777 -0.2496563 -0.07149852 -0.08954175 -0.070475474 -0.35042948 -0.15826653 -0.30616713
-0.25434083 -0.12709342 -0.30871964 -0.17216335 -0.1558282 -0.06935342 -0.076912455 -0.17929344
-0.14222194 -0.10785597 -0.07164514 -0.07228359 -0.26571307 0.120365925 -0.08030368 -0.02159367
-0.3179512 0.013625506 -0.34466395 -0.07221833 -0.23042405 0.14595728 -0.20908928 -0.19348785
-0.25969562 -0.2458756 -0.25403503 -0.24458806 -0.13995308 -0.2735189 -0.2757942 -0.07645501
-0.0879357 -0.12072219 -0.08074416 -0.08653808 -0.18979576 -0.28366485 -0.13644437 -0.24884012
-0.08055777 -0.2654746 -0.10914831 0.13411231 0.18289092 -0.27366266 -0.23938382 -0.20433605
