models/0_2023_2023/Spatial_GCN/100.pth (torch, 100218 bytes, 17 tensors)

conv1.bias f4 [64]
0	0x00000000	0.0
1	0xb91b8d24	-0.00014834531
2	0x00000000	0.0
3	0x00000000	0.0
4	0xba9db8da	-0.001203324
5	0x00000000	0.0
6	0xba2da736	-0.00066243426
7	0x00000000	0.0
8	0x00000000	0.0
9	0xb983a9ab	-0.0002511268
10	0xbb38a94b	-0.0028177078
11	0xba55c2df	-0.0008154343
12	0xba3c91de	-0.0007193367
13	0x00000000	0.0
14	0x00000000	0.0
15	0x00000000	0.0
16	0x00000000	0.0
17	0xb9242ea6	-0.00015657637
18	0x00000000	0.0
19	0x00000000	0.0
20	0xb92b9d21	-0.00016366366
21	0xb7b3767c	-2.1393636e-05
22	0xb90e80cd	-0.00013590157
23	0xba184821	-0.0005809088
24	0x00000000	0.0
25	0x00000000	0.0
26	0x00000000	0.0
27	0x00000000	0.0
28	0x00000000	0.0
29	0x00000000	0.0
30	0xbac9c041	-0.0015392379
31	0x00000000	0.0
32	0x00000000	0.0
33	0x00000000	0.0
34	0x00000000	0.0
35	0xbce24f71	-0.027625771
36	0x00000000	0.0
37	0x00000000	0.0
38	0xba85e565	-0.001021546
39	0x00000000	0.0
40	0xbb19d5c2	-0.0023473357
41	0x00000000	0.0
42	0x00000000	0.0
43	0xbb256226	-0.0025235503
44	0x00000000	0.0
45	0x00000000	0.0
46	0x00000000	0.0
47	0x00000000	0.0
48	0x00000000	0.0
49	0xb97b494f	-0.00023964535
50	0xbad2a50c	-0.0016070916
51	0x00000000	0.0
52	0x00000000	0.0
53	0x00000000	0.0
54	0xb8ed6bc6	-0.00011321115
55	0xb90a1733	-0.00013169348
56	0x00000000	0.0
57	0x00000000	0.0
58	0xbacd1adf	-0.0015648267
59	0xb9ad0a17	-0.0003300465
60	0x3a4de321	0.0007853974
61	0x00000000	0.0
62	0x00000000	0.0
63	0x00000000	0.0

conv1.lin.weight f4 [64, 12]
0	0xb9f79e43	-0.00047229425
1	0xb93ca8f6	-0.0001799202
2	0x3953b4b0	0.0002018984
3	0xba0d5fff	-0.00053930277
4	0x39b0ed2a	0.00033746037
5	0x39a800d5	0.00032044077
6	0x39c82aa3	0.0003817874
7	0xb9cdc36e	-0.00039246253
8	0x3a20b9e2	0.00061312143
9	0xb9bf4f3e	-0.000364894
10	0x3a211a71	0.00061456027
11	0xba1addf3	-0.0005907707
12	0xba3683fb	-0.00069624156
13	0x3970f069	0.00022977743
14	0xb8b01a9d	-8.397291e-05
15	0xb8ef2299	-0.000114028524
16	0xba002ccd	-0.00048894883
17	0xb9d52052	-0.00040650606
18	0xb9ac9e67	-0.00032924415
19	0xba448b84	-0.0007497596
20	0xb8f0cfe3	-0.00011482814
21	0xb8223933	-3.867708e-05
22	0xb91b67f2	-0.00014820675
23	0x3856610e	5.1111965e-05
24	0x3a191dec	0.00058409455
25	0x392b9fb0	0.00016367319
26	0xb96c4b68	-0.00022534805
27	0xb984d2da	-0.000253341
28	0xb9ce7e11	-0.0003938531
29	0xb9dfbb4f	-0.0004267343
30	0xb8cfe91b	-9.9139485e-05
31	0xb8e45427	-0.00010887562
32	0x398f936f	0.00027384932
33	0xb989f3cb	-0.00026312316
34	0x3a00a544	0.0004907439
35	0xb9e27612	-0.00043194048
36	0x35ead3cb	1.7495998e-06
37	0x3a110f33	0.0005533576
38	0x3a207703	0.000612125
39	0xb9baf3dd	-0.00035658377
40	0x38e5f57c	0.00010965296
41	0x38987e03	7.271396e-05
42	0xb997517d	-0.00028861678
43	0xb95f0322	-0.00021268104
44	0x392ed4fa	0.00016673273
45	0xb9e06c70	-0.00042805402
46	0x38d500f8	0.00010156812
47	0x398ba8a3	0.0002663779
48	0xbb528e0a	-0.003212812
49	0xba6db917	-0.0009068413
50	0xbac07025	-0.0014681859
51	0xb7af2696	-2.0879594e-05
52	0xbb57aacd	-0.0032908202
53	0xbb846cbe	-0.0040412834
54	0xbb85f983	-0.004088582
55	0xbb375db7	-0.0027979442
56	0x3abc1605	0.0014349824
57	0x3a8236f0	0.0009934586
58	0xbb88abba	-0.004170862
59	0x3b06c996	0.0020566932
60	0x39174af1	0.000144284
61	0x37c293ad	2.3195369e-05
62	0x39cc956b	0.00039021237
63	0xb902a65b	-0.00012459738
64	0x3881758a	6.173093e-05
65	0xb9701cfb	-0.0002289898
66	0xba072423	-0.0005155226
67	0x39829a86	0.0002491066
68	0x38a530b4	7.876885e-05
69	0xb98140c0	-0.0002465304
70	0xb95a3dca	-0.00020813118
71	0x3928cec5	0.00016098756
72	0xba7eb0bf	-0.0009715668
73	0xb99eba87	-0.00030275082
74	0xba30c39a	-0.0006743014
75	0xb64c9cd9	-3.0489666e-06
76	0xba954b6e	-0.0011390278
77	0xbad7d6ca	-0.001646721
78	0xba97cb95	-0.0011581058
79	0x39b01f07	0.00033592453
80	0x39c18582	0.000369113
81	0x39df9d38	0.00042651012
82	0xba6c0e97	-0.00090048596
83	0x3aa2ee05	0.0012430554
84	0xb98842ae	-0.00025989622
85	0xb9ab8f47	-0.00032722412
86	0x398ca2cf	0.00026824183
87	0xba0c7183	-0.0005357491
88	0x37259446	9.869289e-06
89	0xb9946d51	-0.00028310207
90	0x39d5050a	0.0004063028
91	0xba163e3d	-0.000573132
92	0x39c3b04a	0.00037324644
93	0x3a1fa759	0.00060903054
94	0x39029b8f	0.00012455716
95	0xb82c06bd	-4.101427e-05
96	0x3a1ed866	0.00060594676
97	0xb989ecb3	-0.0002630703
98	0xb84ee65d	-4.932877e-05
99	0xb98d5489	-0.000269566
100	0xb8b234f3	-8.497564e-05
101	0x390c49d0	0.00013378938
102	0x38ac6c94	8.2218234e-05
103	0xb8f3d4d9	-0.00011626789
104	0xba21586c	-0.00061548385
105	0x380434cc	3.1520423e-05
106	0xb798f6e7	-1.8234785e-05
107	0x38c23598	9.2606235e-05
108	0x3951b78d	0.00020000171
109	0x39ab41db	0.00032664728
110	0xba26d802	-0.0006364585
111	0xb9a2ac61	-0.0003102748
112	0xba00ab0e	-0.00049083016
113	0xba29f9ca	-0.000648406
114	0xba399e01	-0.00070807344
115	0x39ee4fee	0.0004545445
116	0x38d28077	0.00010037509
117	0x397d1a8d	0.00024137851
118	0x396f4858	0.00022819766
119	0xba0034bd	-0.0004890671
120	0xbb98e54c	-0.004666006
121	0xbb2f2511	-0.0026724974
122	0xbb6cc944	-0.0036130706
123	0xb83dd197	-4.5256307e-05
124	0xbc0a658d	-0.008447063
125	0xbc0fdca3	-0.008780631
126	0xbc1f523e	-0.009724198
127	0xbb7103a3	-0.003677585
128	0x3b62b45f	0.0034592373
129	0x3b62ea68	0.003462458
130	0xbc0ce94e	-0.008600546
131	0x3bf0509c	0.007333828
132	0xba8e736d	-0.001086814
133	0xb9a6eacd	-0.00031836928
134	0xb9c0fd3f	-0.00036809777
135	0xb5ff0484	-1.9000295e-06
136	0xbadf6736	-0.0017044309
137	0xbb030559	-0.00199922
138	0xbb370d48	-0.00279315
139	0xbae46c8b	-0.0017427368
140	0x39d76fc2	0.00041091262
141	0x380e68ce	3.3953045e-05
142	0xbad5b39f	-0.0016304142
143	0x3a8a2912	0.0010540804
144	0xbb1ee36a	-0.0024244436
145	0xba42fbbe	-0.0007438025
146	0xb9bc2ec1	-0.0003589299
147	0xb7b63e61	-2.1725138e-05
148	0xbb54f917	-0.0032497102
149	0xbb40ca1e	-0.0029417346
150	0xbb4749f4	-0.003040907
151	0xbae5e378	-0.0017539104
152	0x3abde09a	0.0014486492
153	0x38553cfe	5.083996e-05
154	0xbb3fe8a6	-0.0029282956
155	0x3ab7d26c	0.0014024503
156	0x39ce70d7	0.00039375454
157	0xba11fe90	-0.0005569244
158	0x3975040e	0.00023366531
159	0xb9fc02b8	-0.0004806721
160	0x39f46a3b	0.00046618455
161	0x394a8c0c	0.00019316393
162	0x3a1f8fbf	0.00060867885
163	0xba1f1c45	-0.0006069581
164	0xba1b594e	-0.0005926088
165	0x39da3507	0.0004161971
166	0x3a0f44c3	0.00054652634
167	0x39c5bce9	0.00037715517
168	0x39d691bd	0.00040925844
169	0xba07eb14	-0.00051848707
170	0x39e99ad7	0.00044556588
171	0xba185bac	-0.0005812
172	0x391033bd	0.00013752184
173	0xb9d36825	-0.0004032265
174	0xb9803109	-0.00024450597
175	0x38e49745	0.00010900063
176	0xb97dcab1	-0.00024203469
177	0xb8cc42aa	-9.739895e-05
178	0xba18f37f	-0.00058346236
179	0xba182716	-0.0005804164
180	0x397a099b	0.00023845436
181	0xb9889c2e	-0.00026056304
182	0xb9c45a7a	-0.00037451443
183	0xb97eb274	-0.00024289807
184	0xba03eea7	-0.00050328154
185	0xba01001c	-0.0004920976
186	0x39c11ebb	0.00036834725
187	0x39a40804	0.0003128649
188	0x38abf645	8.199787e-05
189	0xb9b04d1f	-0.00033626796
190	0x3956c0e3	0.00020480486
191	0x37e7fced	2.7655124e-05
192	0xb9e6a798	-0.00043993886
193	0x390ae6fd	0.00013246755
194	0x3a12ef91	0.0005605156
195	0xba1eb9c8	-0.0006054905
196	0xba207750	-0.00061212946
197	0x38a567e3	7.8871635e-05
198	0x39f30867	0.00046354832
199	0xb9c46296	-0.00037457485
200	0x390e1872	0.00013551282
201	0x39e2e24d	0.00043274686
202	0x39470367	0.00018979386
203	0x390bb09a	0.00013321862
204	0x39f02201	0.00045801702
205	0x39803241	0.00024451505
206	0xba03c9fb	-0.0005027351
207	0xb8e04f7f	-0.0001069596
208	0x39260fee	0.00015836928
209	0x39cbecd6	0.00038895634
210	0xba499ff8	-0.00076913787
211	0x39359061	0.0001731529
212	0xb9af2e7f	-0.00033413243
213	0xba4736b3	-0.00075993984
214	0xb78d72fc	-1.6862054e-05
215	0xba00c981	-0.0004912839
216	0x38b6f268	8.723588e-05
217	0xb9d18a3f	-0.00039966588
218	0xb9f2dfa7	-0.0004632447
219	0xb85b149f	-5.2232874e-05
220	0xb958d5a9	-0.0002067896
221	0x39bcc2c4	0.00036003266
222	0x385e9c0c	5.3074255e-05
223	0x39fbeb5d	0.0004804981
224	0x38f1ee8c	0.00011536208
225	0xb94f9016	-0.00019794735
226	0x39da9aad	0.00041695443
227	0x380d1723	3.3638567e-05
228	0x38f24e0f	0.00011553999
229	0xb94f9a33	-0.00019798502
230	0x361441c6	2.2092004e-06
231	0xb8f8382f	-0.000118360265
232	0xb85b827c	-5.2335192e-05
233	0xb9fbb354	-0.0004800806
234	0xb67e0ebb	-3.7857524e-06
235	0xba05f203	-0.000510961
236	0xb90add09	-0.00013243048
237	0x39bb0b68	0.00035675918
238	0xb9e06b61	-0.00042804613
239	0xb9d98b55	-0.00041493276
240	0xb9a3fba9	-0.00031277284
241	0xb9ae3ca7	-0.00033233056
242	0xb878f8e9	-5.9359623e-05
243	0xb88d3696	-6.733571e-05
244	0x391c3124	0.00014895626
245	0xba18b66f	-0.00058255246
246	0xb9598fe8	-0.00020748342
247	0x3936116c	0.00017363363
248	0x39c32932	0.0003722399
249	0xb95a54a0	-0.00020821625
250	0xba06ca1b	-0.00051418104
251	0x376c9d90	1.4103382e-05
252	0x3a86b14f	0.0010276231
253	0xb9b05722	-0.00033634255
254	0xb9a0ca76	-0.00030668423
255	0xb84a872e	-4.828645e-05

conv2.bias f4 [64]
0	0xbc1fdef4	-0.009757746
1	0x3cf00da1	0.029303374
2	0xb88e88dd	-6.7965804e-05
3	0x3cd466d5	0.02592794
4	0xbbec7697	-0.0072162854
5	0x388ce376	6.718088e-05
6	0xbcac2dab	-0.02101787
7	0xbb9a85e0	-0.004715666
8	0xbab493b0	-0.0013776924
9	0x3ce0f89f	0.027462302
10	0x3bcb1cdb	0.006198508
11	0xbc9328e5	-0.017963836
12	0x3ba0d611	0.004908331
13	0xbd286162	-0.041108496
14	0xbc51cdd6	-0.012805423
15	0xba533b5f	-0.0008057858
16	0xbb8b9453	-0.004259625
17	0xbc36d787	-0.011159784
18	0xbc6e1d7e	-0.014533399
19	0x3c2de980	0.010614753
20	0x3ca66037	0.02030955
21	0x3ccb7185	0.024834404
22	0xbca25173	-0.019814229
23	0x3bab7b56	0.0052332086
24	0xbc89d957	-0.016827269
25	0x3b9d8708	0.0048073567
26	0xbc01cb3f	-0.007921993
27	0xbcc00905	-0.0234418
28	0x3d457005	0.048202533
29	0x3ca2ccb9	0.01987301
30	0xbca45df1	-0.020064326
31	0xbc595529	-0.013264933
32	0xbc97f4a9	-0.01854928
33	0x3cc89bbd	0.024488324
34	0x3c5ba09b	0.013404991
35	0xbcea7f78	-0.028625235
36	0xbd183243	-0.03715731
37	0xbc950acb	-0.018193623
38	0x3ca5e9f8	0.020253167
39	0x3d194d40	0.037427187
40	0x3aa90095	0.001289385
41	0x3c8b4842	0.017002229
42	0x3c8c4379	0.017122017
43	0x3c1fb338	0.009747319
44	0x3cae7615	0.02129654
45	0xbc809a06	-0.015698444
46	0xbc973178	-0.018456206
47	0x3bca5ee6	0.0061758636
48	0xbc5ab510	-0.013348833
49	0xbbd6e364	-0.006557869
50	0x3d092a74	0.033487752
51	0x3c83f6c4	0.016108878
52	0x3b17eec1	0.002318308
53	0x3c83c27e	0.016083952
54	0x3bf75f0c	0.0075491723
55	0xbbd73897	-0.0065680253
56	0xbcbfeb02	-0.02342749
57	0xbcd7a37e	-0.026323076
58	0x3c8cdf75	0.017196396
59	0xbcf5fa4a	-0.030026574
60	0x3d154904	0.036446586
61	0x3d20efba	0.03929112
62	0xbc27e095	-0.010246416
63	0x3c8b11ce	0.016976263

conv2.lin.weight f4 [64, 64]
0	0x39bbd31e	0.00035824714
1	0x38bfb256	9.1408074e-05
2	0x37e89e9a	2.773041e-05
3	0x38ccf563	9.773185e-05
4	0xb9873e82	-0.00025795778
5	0xb8c2e6e4	-9.2936476e-05
6	0xb8ada0a6	-8.279206e-05
7	0xb99d5e07	-0.0003001543
8	0xb7b06d29	-2.1031667e-05
9	0xb9952e8e	-0.0002845418
10	0x38e5eb81	0.00010963437
11	0xb88ebd68	-6.806367e-05
12	0xb99ce4ca	-0.000299251
13	0x39ed000c	0.00045204198
14	0x397528ec	0.00023380265
15	0x39b3cb6c	0.00034293102
16	0xb9d3b194	-0.00040377362
17	0xb9f8e44a	-0.00047472335
18	0x39b8f12c	0.00035274902
19	0xb8aeaea8	-8.329499e-05
20	0x38b3bde2	8.5707536e-05
21	0x397df39c	0.00024218712
22	0x3771ef79	1.4420476e-05
23	0x3796b0e6	1.7963768e-05
24	0x3993c549	0.00028185014
25	0x39c6ac8e	0.00037894066
26	0xb90a9b8f	-0.00013218656
27	0xb9d45232	-0.0004049703
28	0xb9885d9b	-0.00026009683
29	0x39b1b856	0.00033897412
30	0x37bd81f8	2.2591077e-05
31	0x39d4f018	0.00040614675
32	0xb92dfd83	-0.00016593006
33	0xb9eba391	-0.0004494456
34	0x391a7565	0.00014730317
35	0xbaf1d64c	-0.0018450706
36	0xb994ae7d	-0.00028358764
37	0x399b0b29	0.0002957222
38	0xb818f4f0	-3.646774e-05
39	0xb829e27b	-4.0503666e-05
40	0xb9e0c69f	-0.00042872594
41	0x39d8a487	0.00041321313
42	0xb9cb28db	-0.00038749617
43	0xb8570718	-5.12666e-05
44	0xb975f415	-0.00023455948
45	0xb9c11689	-0.0003682862
46	0xb982ba4d	-0.00024934337
47	0x39a7c7ae	0.00032001495
48	0xb9a57a16	-0.00031562214
49	0x39c4b7c8	0.0003752096
50	0x3968d3bd	0.00022204123
51	0x37acd33b	2.060236e-05
52	0x38aa2726	8.113524e-05
53	0x38d1f725	0.00010011931
54	0x39068a32	0.00012830718
55	0xb9853661	-0.00025408252
56	0xb70a681a	-8.249679e-06
57	0x39a4f9ea	0.00031466718
58	0x399a2264	0.00029398792
59	0xb81d4dc8	-3.7504156e-05
60	0xbb24fd99	-0.002517557
61	0x396495db	0.000217996
62	0xb9e38992	-0.00043399312
63	0x39ddaa0c	0.000422791
64	0x3998d958	0.00029153633
65	0x39be13c3	0.00036254348
66	0x3887e150	6.479269e-05
67	0x39b4c7c7	0.0003448112
68	0xb90fac0c	-0.00013701635
69	0xb9cf6d5d	-0.000395636
70	0xb965bb5f	-0.00021908943
71	0x39b90f6e	0.00035297446
72	0xb978952c	-0.00023706694
73	0xb917275c	-0.00014415145
74	0x3916c4dd	0.00014378452
75	0xb9864ea9	-0.00025617078
76	0x38767503	5.8759946e-05
77	0xb99dd8e3	-0.00030106967
78	0x38d22dc0	0.00010022102
79	0xb8a2650b	-7.743583e-05
80	0x38833ffd	6.2584855e-05
81	0x39c0f705	0.00036805138
82	0xb9a0214d	-0.0003054239
83	0xb929947c	-0.0001617241
84	0xb94975df	-0.00019212764
85	0x3a001a67	0.0004886747
86	0xb8666c41	-5.4937093e-05
87	0x398eba4e	0.00027223158
88	0x38e5942b	0.00010947169
89	0xb9f55a48	-0.00046797306
90	0xb9b08c99	-0.0003367409
91	0xb8ffa726	-0.00012190481
92	0xb9bea5e7	-0.0003636323
93	0x3983de2d	0.000251518
94	0x39b584c6	0.00034621934
95	0xb5699615	-8.701766e-07
96	0x38739c2b	5.8081157e-05
97	0x39031249	0.00012499945
98	0x39256d51	0.0001577635
99	0xba96e171	-0.0011511279
100	0xb943b591	-0.00018664288
101	0xb999c57b	-0.00029329568
102	0x38b98b2e	8.847412e-05
103	0x39c4a6b9	0.0003750825
104	0xb7e6e8dd	-2.7526572e-05
105	0x39d5fc30	0.0004081442
106	0x392dfa0d	0.00016591717
107	0xb923b1ab	-0.00015611078
108	0x39413180	0.00018424354
109	0x39473a25	0.0001899978
110	0xb95d5cc9	-0.00021110768
111	0xb8ae5ce4	-8.314269e-05
112	0xb84e9e06	-4.9261398e-05
113	0x398daf31	0.00027024143
114	0x39e761c6	0.000441326
115	0xb8dac73c	-0.0001043216
116	0x39a1b707	0.0003084468
117	0x398617a6	0.0002557609
118	0xb99e6c1d	-0.0003021666
119	0x39fad9a9	0.00047845885
120	0xb7a1295b	-1.9211953e-05
121	0x39bff3ae	0.00036611914
122	0x39d5f97b	0.00040812403
123	0xb9b8464d	-0.00035147593
124	0xbb2f95a9	-0.0026792085
125	0xb86277c9	-5.3994157e-05
126	0x391fd3eb	0.00015242367
127	0xb89e50df	-7.5490905e-05
128	0xb9ef6b1b	-0.00045665432
129	0x39280964	0.00016025227
130	0xb98e3534	-0.0002712399
131	0x3961cc7e	0.00021533851
132	0x3962ae6e	0.0002161802
133	0xb927c2a7	-0.00015998875
134	0x39308bca	0.00016836743
135	0x3884480a	6.307669e-05
136	0xb91c255d	-0.00014891238
137	0x398333c3	0.00025024833
138	0x38da58c2	0.000104115825
139	0x39056ea7	0.0001272509
140	0xb9c21b2b	-0.00037022805
141	0x39b9e213	0.00035454388
142	0xb96b3da2	-0.00022434306
143	0xb9d63a5d	-0.00040860745
144	0xb9570374	-0.00020505284
145	0xba089183	-0.0005209671
146	0x390b4441	0.000132815
147	0x3805ef7a	3.19327e-05
148	0xb90c3999	-0.00013372897
149	0xb9e2508c	-0.0004316609
150	0x39122be8	0.00013940001
151	0xb7fd5e42	-3.0203842e-05
152	0xb8f9a8fe	-0.000119047225
153	0x38b03e70	8.403964e-05
154	0x392f6bb6	0.00016729426
155	0xb9956952	-0.00028497964
156	0xb90f415f	-0.00013661895
157	0xb961dea1	-0.00021540608
158	0x399a0c98	0.00029382552
159	0x38f5f876	0.0001172879
160	0xb9bbaede	-0.00035797706
161	0x39afa1ed	0.00033499245
162	0xb89df45d	-7.5318596e-05
163	0x39050602	0.00012686106
164	0x3880b540	6.137276e-05
165	0xb8685bf2	-5.539874e-05
166	0x39b3a59a	0.00034264923
167	0x3957732b	0.00020546901
168	0xb86b7fb4	-5.61473e-05
169	0xb934d3ee	-0.00017245088
170	0x38e4f3c7	0.00010917294
171	0xb9cef342	-0.00039472623
172	0xb92bf6c6	-0.00016399761
173	0x397c31bb	0.00024051119
174	0xb9f4c2fd	-0.00046684584
175	0xb74835a3	-1.1933417e-05
176	0xb93750fc	-0.00017482409
177	0x3907de88	0.00012957503
178	0xb9d29137	-0.00040162515
179	0x38ac2dbb	8.210117e-05
180	0xb90f6427	-0.00013674852
181	0x39d0a285	0.00039793938
182	0xb93ff225	-0.00018305385
183	0xb9611f5c	-0.00021469354
184	0xb91a85e2	-0.0001473646
185	0x39af50f2	0.0003343891
186	0x3882182b	6.203385e-05
187	0xb715489d	-8.897999e-06
188	0x3a694eaa	0.00088999665
189	0x39401220	0.00018317299
190	0xb87f156b	-6.0816685e-05
191	0xb983b746	-0.00025122816
192	0xb9edfc49	-0.0004539213
193	0x399d7cea	0.00030038442
194	0x39c1f146	0.0003699159
195	0xb93e195c	-0.00018129259
196	0xb92c3883	-0.0001642425
197	0x38ab82e7	8.178298e-05
198	0x37778204	1.4752619e-05
199	0x39bef2d3	0.00036420542
200	0xb709c38e	-8.2113675e-06
201	0xb94d4ce1	-0.00019578963
202	0xb947e0d2	-0.00019061871
203	0x39225ce9	0.00015484136
204	0xb8590356	-5.173994e-05
205	0x38eaad4a	0.00011190267
206	0x39980b48	0.00029000104
207	0x395398ce	0.00020179452
208	0x357286e1	9.03483e-07
209	0x384cf2ab	4.8863392e-05
210	0xb97b3833	-0.00023958161
211	0x39e09342	0.00042834325
212	0x3a0a2df1	0.0005271128
213	0x38be8805	9.0852416e-05
214	0x3a1cacc5	0.00059766724
215	0x39fdb9c6	0.00048394332
216	0x398ef92f	0.00027270007
217	0x397fac79	0.00024382946
218	0x3944e993	0.0001877903
219	0xb8ae7fa6	-8.320743e-05
220	0x3845b5c7	4.7137753e-05
221	0x39ca526a	0.00038589846
222	0xb8834320	-6.25907e-05
223	0x391b39cc	0.00014803483
224	0xb92084ca	-0.00015308257
225	0x38a33ee8	7.784163e-05
226	0x39906f6c	0.00027548836
227	0x39b8f1df	0.00035275423
228	0x397360aa	0.00023210296
229	0x396cabdd	0.00022570738
230	0xb836eeb9	-4.361451e-05
231	0x39e27468	0.00043192809
232	0xb934e5aa	-0.00017251694
233	0x39eb6de2	0.00044904562
234	0xb9c91351	-0.000383521
235	0xb83db175	-4.522638e-05
236	0xb9ce7ff5	-0.00039386717
237	0x38303d76	4.201891e-05
238	0x39be05a9	0.0003624384
239	0xb9a9f8d2	-0.00032419577
240	0x39022ba1	0.00012414019
241	0x38ee4208	0.00011361024
242	0xb9d48a7b	-0.00040538967
243	0xb79c408e	-1.862671e-05
244	0xb86997e8	-5.5693003e-05
245	0xb9713c30	-0.00023005973
246	0xb931f452	-0.00016971052
247	0x391bf487	0.00014873045
248	0xb84c2a6c	-4.86769e-05
249	0xb8c527be	-9.4010946e-05
250	0xb9196956	-0.00014630458
251	0x384cfc88	4.887258e-05
252	0x3b172f22	0.0023068865
253	0xb994fc29	-0.00028416634
254	0x39543639	0.00020238095
255	0xb6eb4aea	-7.012267e-06

fc1.weight f4 [128, 74]
0	0xbd12074f	-0.0356515
1	0x3ea4ee6e	0.32213157
2	0xbd619d31	-0.05508155
3	0xbe859d8f	-0.2609677
4	0x3e51601e	0.20446822
5	0xbeccbf8b	-0.39989886
6	0xbe32c3d6	-0.17457518
7	0xbe9d4f9b	-0.30724797
8	0xbf1bce9a	-0.60862124
9	0x3e325619	0.17415656
10	0x3cf03750	0.02932325
11	0x3de7a046	0.113098666
12	0x3e922fdd	0.28552142
13	0xbf11dc46	-0.56976736
14	0xbe7770b6	-0.2416409
15	0x3e317236	0.17328724
16	0x3d2fd622	0.042928822
17	0xbe43c5ac	-0.19118375
18	0x3ddfb4b4	0.10923138
19	0xbf16c576	-0.5889505
20	0xbe274bb5	-0.16337474
21	0xbe402015	-0.18762238
22	0xbe553597	-0.20821224
23	0x3da6bbdc	0.081413
24	0xbc189219	-0.009312176
25	0xbeccf820	-0.40033054
26	0xbcb19fff	-0.021682737
27	0xbdb0dbd4	-0.08635679
28	0xbe81e683	-0.2537118
29	0x3d09b833	0.03362293
30	0x3e20053d	0.15626998
31	0xbead8dfd	-0.3389739
32	0xbe23e7b0	-0.1600635
33	0xbe818186	-0.2529413
34	0xbe0173b4	-0.12641793
35	0xbcb23ffe	-0.02175903
36	0xbdfef5c4	-0.1244922
37	0xbf0d8089	-0.55274254
38	0xbda2ce0c	-0.079494566
39	0xbe2d2f35	-0.1691254
40	0x3dbe37fa	0.092880204
41	0x3ed1b511	0.40958455
42	0xbefa70df	-0.4891424
43	0xbeb3f8ec	-0.3515085
44	0xbe2252b4	-0.15851861
45	0xbe03be42	-0.12865546
46	0x3e1e044b	0.15431325
47	0x3eda67ba	0.42657262
48	0xbe8f471f	-0.2798395
49	0x3eb2a89a	0.34894258
50	0x3ea4c81f	0.3218393
51	0xbf2d709a	-0.6774994
52	0x3cf31ce9	0.029676871
53	0xba652ca9	-0.00087423116
54	0x3e196a62	0.14981988
55	0x3d96258a	0.07331379
56	0x3db4da44	0.08830693
57	0xbe6e0350	-0.23243451
58	0xbe16545b	-0.14680617
59	0xbefda67a	-0.49541074
60	0xbe83cb6f	-0.25741145
61	0x3e81bdbf	0.25340077
62	0x3e3b8620	0.18312883
63	0x3dacfd38	0.08446735
64	0x3f616ca9	0.8805643
65	0x3945c614	0.00018861174
66	0x3ec8a83a	0.39190847
67	0xc082f244	-4.0920734
68	0x3df24513	0.11829581
69	0xbeca0c83	-0.3946267
70	0xbd80351c	-0.0626013
71	0xbf89dadf	-1.0769919
72	0xbd10ed7c	-0.035382733
73	0xbd2b14f8	-0.041768044
74	0x3ee16202	0.44020087
75	0xbd01c020	-0.031677365
76	0x3da5e5db	0.08100482
77	0xbcb377fb	-0.021907797
78	0x3e841bfc	0.258026
79	0x3e30e383	0.17274289
80	0x3e02ee59	0.12786235
81	0x3cb8e3a1	0.02256948
82	0x3ddff4cd	0.10935364
83	0xbc0e88e4	-0.008699629
84	0xbda07199	-0.07834167
85	0xbe3afed0	-0.18261266
86	0xbdab4d28	-0.08364326
87	0x3e262f14	0.16228896
88	0x3dd43b7f	0.103629105
89	0xbd49dbaf	-0.049281772
90	0xbe7c9a74	-0.24668294
91	0x3e3188ce	0.17337343
92	0xbe059dbc	-0.13048452
93	0x3e331a37	0.17490469
94	0xbe44b9f9	-0.19211568
95	0xbd987768	-0.0744465
96	0x3d1be068	0.038055807
97	0x3e9cb2c6	0.30605143
98	0x3e10174c	0.14071387
99	0x3ec34c54	0.3814417
100	0x3e788cf1	0.24272515
101	0x3ea88e4a	0.32921058
102	0xbe877a09	-0.26460293
103	0xbe1d50bc	-0.15362829
104	0xbe97db84	-0.29659665
105	0x3ed44d35	0.41465154
106	0x3d61baff	0.055109974
107	0x3e8d5ea4	0.27611268
108	0x3eb86d44	0.36020863
109	0xbd97e665	-0.07416991
110	0xbd8660a6	-0.06561403
111	0x3e078f9b	0.13238375
112	0x3d9f7e89	0.077878065
113	0xbeed9a75	-0.46406904
114	0xbd4cc1a6	-0.049989365
115	0xbe7c4db8	-0.24639022
116	0xbda03d2f	-0.0782417
117	0xbde6b62d	-0.11265216
118	0x3da5b353	0.08090844
119	0x3ced6223	0.02897746
120	0x3cc5968a	0.024119634
121	0xbe90e7e0	-0.28301907
122	0xbe86e13f	-0.26343724
123	0x3cdef74c	0.02721753
124	0x3e068340	0.13136005
125	0x3d997580	0.074931145
126	0x3c49121e	0.012272386
127	0x3c55984c	0.013036799
128	0x3e40b1c3	0.1881781
129	0xbd13522b	-0.035967033
130	0xbe6a5cf6	-0.22887024
131	0x3e1c69b7	0.15274702
132	0xbcf5a35f	-0.029985128
133	0x3eca65c1	0.39530757
134	0xbd989d2b	-0.074518524
135	0xbe6c061f	-0.2304921
136	0xbe2a8378	-0.16651714
137	0xbd45f69d	-0.048330892
138	0xbdf29f20	-0.11846757
139	0x392fdc5b	0.0001677139
140	0xbedf7bfa	-0.43649274
141	0x401f4401	2.4885256
142	0xbef8032d	-0.48439923
143	0x3d8589ca	0.06520422
144	0x3c9631bb	0.01833426
145	0x3f409835	0.7523225
146	0xbc6cf96a	-0.014463762
147	0x3c455eb2	0.012046503
148	0x3db024c8	0.086007655
149	0xbe5ba6e9	-0.2145039
150	0xbd5d82d4	-0.054079846
151	0xbf0b2f2a	-0.5436884
152	0x3f0829d5	0.5318883
153	0xbe94a0fb	-0.29029068
154	0x3ef36ed7	0.47545502
155	0xbe0fe909	-0.1405374
156	0xbee5a9c7	-0.44856092
157	0x3e137bfb	0.14402764
158	0xbe7ed3f1	-0.24885537
159	0x3dc0404a	0.09387262
160	0x3e441307	0.19147883
161	0xbea13651	-0.31486753
162	0x3e0c4cf2	0.13701227
163	0x3f09d96d	0.5384739
164	0x3d9c9d59	0.07647199
165	0xbd98ec4b	-0.07466944
166	0x3e17fd8f	0.14842819
167	0xbeb2b6ad	-0.34904996
168	0xbe9ee76a	-0.3103593
169	0xbea87272	-0.32899815
170	0x3e7401bf	0.23828791
171	0xbe023f4f	-0.12719463
172	0x3e9f0582	0.3105889
173	0xbda90c53	-0.08254304
174	0x3df1c673	0.11805429
175	0xbed60f24	-0.41808426
176	0xbf58b8a4	-0.8465674
177	0xbecaea77	-0.39632007
178	0x3e3504a2	0.17677549
179	0xbd8bcbc3	-0.06825974
180	0x3e858129	0.26075104
181	0xbecdf4c5	-0.40225807
182	0xbe2326a1	-0.15932705
183	0x3effa6de	0.49931997
184	0xbe0cd3c9	-0.13752665
185	0xbed9cb58	-0.4253795
186	0xbeef7c3f	-0.4677448
187	0xbf2b1e8f	-0.66843504
188	0x3e04035d	0.12891908
189	0x3dd34272	0.10315408
190	0xbeab7c70	-0.33493376
191	0xbebcc71b	-0.36870655
192	0xbea4c0b6	-0.32178277
193	0x3f050e1f	0.5197467
194	0x3e8ebe6b	0.27879652
195	0x3dce2bf2	0.10066976
196	0x3e90acb8	0.28256774
197	0x3ee660a7	0.44995615
198	0x3e77187e	0.24130437
199	0xbee57e80	-0.44823074
200	0x3cfd06e0	0.030887067
201	0xbecfc6c4	-0.40581334
202	0xbe73835d	-0.2378058
203	0x3e713a86	0.23557481
204	0x3ed10f30	0.408319
205	0x3ebf9041	0.37414744
206	0xbede6fc2	-0.4344464
207	0xbd506fd6	-0.050887905
208	0xbf69fb52	-0.9139911
209	0x3e05bb0a	0.13059631
210	0x3d866dae	0.065638885
211	0xbf046dc2	-0.5172998
212	0xbd34a2cf	-0.04410058
213	0xb8690cef	-5.5563574e-05
214	0xbb9b19bd	-0.004733293
215	0xbcf33d6b	-0.029692372
216	0xbe76b7fc	-0.24093622
217	0x3e21290a	0.15738311
218	0xbcf6cde3	-0.030127471
219	0x3ee66452	0.44998413
220	0xbd025800	-0.031822205
221	0xbd18fbef	-0.037349638
222	0xbe900306	-0.28127307
223	0xbd8d023e	-0.06885193
224	0xbf2ee38d	-0.68315965
225	0xbdfc0ae0	-0.12306762
226	0x3d63acd2	0.055584736
227	0xbd8ef1b7	-0.06979697
228	0x3f0294c8	0.5100827
229	0xbe905918	-0.28192973
230	0xbd942ef8	-0.07235521
231	0x3d5d1912	0.053978987
232	0xbf42bb8f	-0.7606744
233	0xbca890a4	-0.020576783
234	0x3c98f286	0.018670332
235	0x3d4606b6	0.048346244
236	0x3ec44bdb	0.38339123
237	0xbe39833a	-0.18116465
238	0x3edd1e9c	0.43187416
239	0xbefbc6c6	-0.4917509
240	0xbda84179	-0.08215613
241	0xbd6ce927	-0.05783954
242	0x3e2b53a3	0.16731124
243	0x3cedceef	0.029029338
244	0x3ea89f8b	0.32934222
245	0xbedea5be	-0.43485826
246	0x3e743f3b	0.23852246
247	0xbd4a1e85	-0.049345512
248	0xbe92f854	-0.28705084
249	0xbd03e55c	-0.032201156
250	0xbcd3dda9	-0.025862532
251	0xbe8ce40a	-0.2751773
252	0x3dd9b74c	0.10630664
253	0xbd7ffbe4	-0.06249608
254	0x3e09fe4d	0.13475914
255	0xbdc35073	-0.09536829

fc1.bias f4 [128]
0	0xbd803d8e	-0.062617406
1	0x3c97341e	0.018457469
2	0xbcf383ac	-0.029725872
3	0xbccd76cc	-0.02508106
4	0xbd00fe13	-0.031492304
5	0xbd0bada3	-0.03410114
6	0xbe0dab7c	-0.13834947
7	0x3a6fe077	0.00091505743
8	0xbce045f1	-0.0273771
9	0x3d19884b	0.037483495
10	0x3ca49c4d	0.020094061
11	0x3c5d0621	0.013490231
12	0x3c22f19a	0.009945298
13	0xbe00d2ad	-0.12580366
14	0xbbaf93ab	-0.0053581796
15	0xbdd88101	-0.105714805
16	0xbd85e794	-0.06538311
17	0xbe07904b	-0.13238637
18	0xbd2b5964	-0.041833296
19	0xbc4b044f	-0.012391164
20	0xbe0af47a	-0.13569823
21	0xba0578c2	-0.00050915417
22	0xbb4e1b56	-0.00314494
23	0xbd1bc33b	-0.038027983
24	0x3d6881a7	0.05676427
25	0xbc007b76	-0.007841935
26	0xbc588866	-0.013216114
27	0x3c3ce86e	0.011530025
28	0xbd3f68f7	-0.04673096
29	0xbc41c5df	-0.011826961
30	0xbe3d31c8	-0.18476021
31	0x3b2ee558	0.0026686992
32	0xbdace7ca	-0.08442648
33	0xbc385e99	-0.011253023
34	0xbc7bd31b	-0.015370156
35	0xbc51f072	-0.012813674
36	0xbd3977b6	-0.04528018
37	0xbd0c5cd4	-0.034268215
38	0xb9c26ed1	-0.00037085128
39	0x3e1fceb9	0.15606202
40	0x3c3dd773	0.011587012
41	0xbce98bdf	-0.028509079
42	0xbd2b8cfa	-0.041882493
43	0xbe17f009	-0.1483766
44	0xbd67ce11	-0.056593005
45	0xbb56877a	-0.003273456
46	0xbc1c31dc	-0.009533372
47	0x3c1dd97a	0.00963437
48	0x3c97a665	0.01851196
49	0x3c4cb18b	0.012493501
50	0xbaddf296	-0.0016933258
51	0xbc954c98	-0.018225
52	0xbcbcf371	-0.0230653
53	0xbcb7e0a7	-0.02244599
54	0xbd2ca7a8	-0.042152077
55	0xbc65303e	-0.013988553
56	0xbb789b46	-0.0037934347
57	0xbdf79fc1	-0.120910175
58	0x3c0e7e60	0.008697122
59	0xb8b1c8c2	-8.477412e-05
60	0xbc31eda6	-0.010859882
61	0xbd052361	-0.032504443
62	0x3c0901c5	0.008362238
63	0xbc7b2303	-0.015328172
64	0xbdafcdcf	-0.08584177
65	0xbc93d8c6	-0.018047702
66	0x3c2dd444	0.01060969
67	0xbae4a190	-0.0017443169
68	0xbd8dfd34	-0.0693306
69	0xbcb9e28d	-0.022691036
70	0xbd3d5553	-0.04622395
71	0xbc3d1e48	-0.011542864
72	0xbc04c905	-0.008104567
73	0xbe094ab2	-0.134074
74	0xbd98534e	-0.07437764
75	0x3ba1fff9	0.0049438444
76	0xbd6f2da6	-0.058393143
77	0xbb2dea34	-0.00265373
78	0x3d2c122b	0.042009514
79	0x3bfa3bd1	0.007636525
80	0xbd277e4b	-0.040891927
81	0x3e3aacc0	0.18229961
82	0xbae560e7	-0.0017500193
83	0xbcd5d759	-0.026103662
84	0x3bd0895a	0.00636403
85	0xbdbcdb01	-0.09221459
86	0x3d0baf59	0.03410277
87	0xbd1005a2	-0.035161622
88	0xbd315927	-0.043297913
89	0xbd87c278	-0.06628889
90	0xbc31b03f	-0.010845243
91	0xbd8f8b2c	-0.07008967
92	0x3b315fc2	0.0027065133
93	0xbb3f9287	-0.0029231624
94	0x3b4c00fc	0.0031128516
95	0xbae6d3af	-0.0017610694
96	0x3c9376b7	0.018000944
97	0xbd138bca	-0.036021985
98	0xbb66bb10	-0.0035206713
99	0xbc7f2e12	-0.015574949
100	0xbcc4880c	-0.023990653
101	0xbdcaa8e6	-0.09895496
102	0xbcbbcd74	-0.022925116
103	0xbcf4c8f5	-0.02988098
104	0xbdb50b1c	-0.088400096
105	0xbbb39dbe	-0.005481451
106	0xbdc9ce79	-0.09853835
107	0x3d155181	0.03645468
108	0xbc570cc7	-0.013125605
109	0xbe997083	-0.29968652
110	0xbc91cd1c	-0.017798
111	0xbb9a5557	-0.0047098803
112	0xbd30f066	-0.04319801
113	0xbd1fe53f	-0.039036985
114	0xbca1ca16	-0.019749682
115	0x3beb7267	0.0071852687
116	0xbcccc91b	-0.024998238
117	0xbc2554f8	-0.010091059
118	0xbbdaac4d	-0.006673372
119	0xbbbecac3	-0.005822511
120	0xbc029b54	-0.007971603
121	0xbbf7c435	-0.0075612315
122	0xbe0de448	-0.13856614
123	0x3cbead84	0.023276098
124	0xbb845384	-0.004038276
125	0xbc0f985c	-0.008764353
126	0xbd206a60	-0.039163947
127	0xbc18df6f	-0.0093306145

fc2.weight f4 [64, 128]
0	0x3ed25a5b	0.4108456
1	0xbc8eb11c	-0.017418437
2	0x3d66c35d	0.056338657
3	0xbdb4a51c	-0.088205546
4	0x3c2f9078	0.010715596
5	0x3c78e4f0	0.015191302
6	0x3e9be02b	0.30444464
7	0xbda310e2	-0.079622045
8	0xbc89b7ed	-0.016811335
9	0xbc83196b	-0.016003331
10	0xbe5e010f	-0.21680091
11	0xbd4f3511	-0.050587717
12	0xbe38d6ec	-0.18050736
13	0xbbf2fb8d	-0.007415241
14	0x3d5b3d8a	0.053525485
15	0x3eb9939f	0.36245438
16	0xbcd3417f	-0.025788067
17	0x3d059e51	0.032621685
18	0xbc0e4434	-0.008683253
19	0x3e8746c0	0.26421165
20	0xbdffeebc	-0.12496707
21	0xbcf5d40e	-0.030008342
22	0x3e064721	0.13113071
23	0x3cd29426	0.025705408
24	0x3e8d6401	0.2761536
25	0x3d1694a1	0.036762837
26	0xbd7b5f03	-0.061369907
27	0x3c5e11be	0.013554035
28	0xbda1f37d	-0.0790777
29	0x3aba17df	0.0014197788
30	0x3dc0359f	0.093852274
31	0xbd7f457e	-0.062322132
32	0xbb0380fb	-0.0020065892
33	0xbec7ac9b	-0.38998875
34	0xbe0a76f1	-0.13521935
35	0x3e59dc4b	0.21275441
36	0xbd6ba4cd	-0.057530213
37	0x3d953148	0.0728479
38	0xbcc9f12a	-0.024651129
39	0x3ea10b4b	0.31453928
40	0x3bb67826	0.005568522
41	0xbdc06a32	-0.09395255
42	0x3d1d63e7	0.038425352
43	0xbd0bee4b	-0.0341628
44	0x3db4231d	0.0879576
45	0xbdaba500	-0.083810806
46	0xbd80b20e	-0.06283961
47	0xbdbe0727	-0.09278708
48	0xbe857a7a	-0.26070005
49	0x3ccba5db	0.02485936
50	0xbb9cc5d3	-0.0047843247
51	0x3bc555c2	0.006022186
52	0x3e4ecbf7	0.20194994
53	0xbd542e65	-0.051802058
54	0x3e3b0bd6	0.18266234
55	0xbe648759	-0.22317256
56	0xbd8b36ac	-0.06797537
57	0x3eb34aa1	0.35017875
58	0x3ddf2018	0.10894793
59	0x3d86a4a0	0.065743685
60	0xbc488c73	-0.012240517
61	0x3dfe8211	0.12427152
62	0xbcfc7cea	-0.030821282
63	0x3c4470d8	0.011989795
64	0xbd78a014	-0.060699537
65	0xbe135679	-0.14388455
66	0xbe042b24	-0.12907082
67	0xbe2b3939	-0.16721047
68	0x3e5a72af	0.21332811
69	0x3d63a4e9	0.055577192
70	0x3e9f3084	0.31091702
71	0x3b5e1774	0.003388849
72	0x3e55f5d5	0.20894559
73	0xbd259be1	-0.04043186
74	0x3e74ee53	0.23919038
75	0x3e83b1a3	0.25721464
76	0x3d8d10f6	0.06888001
77	0xbe2b8534	-0.16750032
78	0xbd50c02b	-0.050964516
79	0x3dd6940f	0.10477459
80	0x3e0aae15	0.1354297
81	0x3e90748e	0.28213924
82	0x3da67425	0.081276216
83	0x3d5db699	0.054129217
84	0xbd0578a9	-0.032585774
85	0xbd8a21e8	-0.06744748
86	0xbe2547bb	-0.16140644
87	0x3e2d39f3	0.16916637
88	0x3e16bb5f	0.14719914
89	0xbd60a43f	-0.054844137
90	0x3e8657df	0.26238915
91	0x3e81daeb	0.25362334
92	0x3cc818e4	0.024425931
93	0xbc9be4ad	-0.01902994
94	0xbd2131da	-0.039354183
95	0x3d8e0a0f	0.06935512
96	0xbe31d42e	-0.17366096
97	0xbe8584cb	-0.26077875
98	0x3e58eff8	0.21185291
99	0x3df410de	0.1191728
100	0x3e9b44ea	0.30326015
101	0xbd9bbfa6	-0.076049134
102	0xbe6df5d7	-0.23238312
103	0xbd57fc42	-0.052730806
104	0xbcfd5dbf	-0.03092849
105	0x3e2984e0	0.16554594
106	0xbdec5227	-0.11539107
107	0x3e58dfd2	0.2117913
108	0xbd92e283	-0.0717211
109	0xbd649ab1	-0.055811588
110	0xbdb82f69	-0.08993418
111	0xbea027fb	-0.31280503
112	0x3e741e01	0.2383957
113	0xbdd7684b	-0.10517939
114	0x3defdbfc	0.117118806
115	0x3e93cccf	0.28867194
116	0x3c3b1c7e	0.011420367
117	0x3d26759f	0.040639516
118	0x3d743608	0.05962184
119	0x3da276e5	0.079328336
120	0xbee7eaf1	-0.45296434
121	0x3d19a850	0.03751403
122	0xbdcce6e1	-0.10004974
123	0x3e336b17	0.1752132
124	0x3cb076ec	0.021541081
125	0x3d2848af	0.04108494
126	0xbd35ba66	-0.044367217
127	0xbbe73680	-0.0070560575
128	0x3e6d4385	0.23170288
129	0xbe24a880	-0.16079903
130	0xbc8b2353	-0.016984617
131	0x3e098131	0.13428189
132	0xbc413ead	-0.011794728
133	0xbe3e1014	-0.18560821
134	0xbcf88e28	-0.030341223
135	0xbd14227d	-0.036165703
136	0xbe2f3f0d	-0.17113896
137	0x3ce08c96	0.027410787
138	0xbe4bd445	-0.19905193
139	0xbe5d7843	-0.21627907
140	0xbcca9b19	-0.02473216
141	0xbbb7998d	-0.0056030215
142	0xbe60a79d	-0.2193894
143	0x3e1adcae	0.15123245
144	0xbe56e286	-0.2098485
145	0x3d98815d	0.07446549
146	0x3d2641c0	0.040590048
147	0x39c8fbfa	0.0003833471
148	0xbe05e070	-0.13073897
149	0x3e162b63	0.14664988
150	0x3ce849b3	0.028355455
151	0xbc869984	-0.016430624
152	0xbe414902	-0.18875507
153	0x3d92c86f	0.07167136
154	0x3dc5d59a	0.09659882
155	0x3ca50d31	0.020147892
156	0x3d209456	0.039203964
157	0xbe675eb7	-0.22594725
158	0x3c501795	0.012700935
159	0x3e45e7bb	0.1932668
160	0xbdb948a7	-0.090470605
161	0xbd8e8b53	-0.06960168
162	0x3d666c83	0.05625583
163	0xbd22d9b4	-0.0397584
164	0x3bf06b6d	0.007337025
165	0x3dbd5f30	0.09246671
166	0x3dddd944	0.10832456
167	0x3e86d7de	0.2633657
168	0xbd96b362	-0.07358433
169	0xbc861ca8	-0.016371086
170	0xbdfa09fe	-0.12208937
171	0x3cec09cd	0.028813267
172	0xbe0d0df6	-0.13774857
173	0xbe30e6cc	-0.17275542
174	0xbd29d993	-0.04146726
175	0x3d3d3f25	0.046202797
176	0xbbd91d5d	-0.006625815
177	0x3e8373b6	0.25674218
178	0x3e00090e	0.12503454
179	0xbdd43f16	-0.10363595
180	0xbe3f0624	-0.18654686
181	0xbdd70a9c	-0.105000705
182	0x3e200b80	0.15629387
183	0xbd17fda2	-0.037107117
184	0xbd415152	-0.047196694
185	0x3e802ce7	0.25034258
186	0x3ca424bf	0.020037053
187	0xbd837649	-0.064190455
188	0xbdacb449	-0.08432824
189	0xbce170e9	-0.02751966
190	0x3e03da15	0.1287616
191	0xbd68e7bf	-0.056861635
192	0x3e07b554	0.13252765
193	0xbea68c5e	-0.32528967
194	0xbcc2912b	-0.023750862
195	0xbe0a769f	-0.13521813
196	0xba9cc562	-0.001196068
197	0x3c4272d8	0.011868201
198	0x3d301157	0.042985287
199	0xbda560d7	-0.08075111
200	0xbda7f794	-0.08201519
201	0x3d89899c	0.067157
202	0x3dae06ef	0.08497416
203	0xbd22deb1	-0.039763156
204	0xbd533fae	-0.0515744
205	0xbe8e2c86	-0.27768344
206	0xbd3cf7c9	-0.046134744
207	0x3a95cfec	0.0011429763
208	0x3dbb93bf	0.0915904
209	0x3e74a384	0.23890501
210	0xbb6aa759	-0.0035805313
211	0x3dc586c7	0.09644847
212	0x3e08334a	0.13300815
213	0x3dc981d9	0.098392196
214	0x3da89a3c	0.08232543
215	0x3e0d042e	0.13771126
216	0x3ea9717b	0.3309439
217	0x3d0363f8	0.03207776
218	0x3e34bb07	0.1764947
219	0x3cefe61c	0.02928453
220	0x3e0a5eda	0.13512745
221	0xbe596399	-0.212294
222	0xba4fcdb3	-0.0007927075
223	0xbd4905e5	-0.049077887
224	0x3cad94f3	0.021189189
225	0xbe5a780c	-0.21334857
226	0x3d1692f6	0.036761247
227	0x3d61637a	0.05502651
228	0x3e2fb0b6	0.17157254
229	0x3d43899c	0.047738656
230	0x3ea694f1	0.32535508
231	0x3df4170f	0.119184606
232	0x3d886d8f	0.06661522
233	0xbd61d3fe	-0.055133812
234	0xbae6c07e	-0.0017604975
235	0xbd9dcec5	-0.07705454
236	0x3ba02099	0.0048866984
237	0xbdeada45	-0.11467413
238	0x3b9e95e6	0.0048396466
239	0x3dbd1454	0.09232393
240	0x3dbef75a	0.09324522
241	0xbd5b1064	-0.05348243
242	0x3e0b41ba	0.13599291
243	0x3d221aaf	0.03957623
244	0x3d1974e0	0.037464976
245	0xbdf683c4	-0.12036851
246	0xbe3ada4d	-0.18247338
247	0xbe79a535	-0.24379428
248	0xbd2470d1	-0.040146653
249	0xbd8b6db9	-0.06808037
250	0x3db7aa86	0.08968072
251	0x3dfd1109	0.12356765
252	0xbde9606e	-0.11395346
253	0xbe971d4f	-0.29514548
254	0xbe20b977	-0.15695749
255	0xbd91eecb	-0.07125624

fc2.bias f4 [64]
0	0xbeca4388	-0.39504647
1	0xbe94161a	-0.28923112
2	0xbed8712b	-0.4227384
3	0xbf01df6a	-0.5073153
4	0xbf0af0f5	-0.5427392
5	0xbefdbc28	-0.49557614
6	0x3c1530e2	0.009105893
7	0xbe4c0895	-0.19925149
8	0xbe746b78	-0.23869121
9	0xbed3b905	-0.41352096
10	0xbf168f60	-0.5881252
11	0xbf1ac7ec	-0.60461307
12	0xbf25ba7a	-0.64737666
13	0x3c33e295	0.010979314
14	0xbf00df64	-0.5034087
15	0xbed6b54d	-0.41935197
16	0xbf16f232	-0.5896331
17	0xbf06c387	-0.526421
18	0xbed74d0b	-0.42050967
19	0xbe5b859a	-0.21437684
20	0xbed33c54	-0.41256964
21	0xbeb16799	-0.3464935
22	0x3d0023cd	0.031284142
23	0xbf1bcde7	-0.6086106
24	0xbefb00e2	-0.4902411
25	0xbeb60c25	-0.3555614
26	0xbea809b1	-0.32819894
27	0xbeafeaef	-0.34358928
28	0x3bd86e02	0.006604911
29	0xbead61c9	-0.33863667
30	0xbee0c2ff	-0.4389877
31	0xbe5441f7	-0.20728289
32	0xbeb3507c	-0.35022342
33	0xbead12c5	-0.33803383
34	0xbf1fd7fc	-0.6243894
35	0xbee28065	-0.44238582
36	0xbf0b1f18	-0.5434432
37	0xbea547d9	-0.32281378
38	0xbe6ffd8b	-0.23436563
39	0xbeba3f17	-0.3637626
40	0xbead4281	-0.338398
41	0xbe79f4c2	-0.24409774
42	0x3c811f92	0.015762124
43	0xbebe99e7	-0.37226793
44	0xbee6eacf	-0.4510102
45	0xbe1a3a7c	-0.15061373
46	0xbec482f9	-0.38381174
47	0xbf24a47e	-0.64313495
48	0xbed6a5a2	-0.41923243
49	0xbee43f90	-0.44579744
50	0xbe85e73c	-0.2615298
51	0xbebc3019	-0.36755446
52	0x3bfdef8a	0.0077495025
53	0xbeeac70d	-0.4585499
54	0xbe9e5595	-0.3092467
55	0xbefb6713	-0.49102077
56	0x3c4d46f2	0.012529122
57	0xbe9d78da	-0.30756265
58	0xb910fc93	-0.00013827001
59	0xbea0bb7f	-0.31393048
60	0xbecb478e	-0.3970303
61	0xbeca6487	-0.3952982
62	0xbecbf85a	-0.39837915
63	0xbea53414	-0.32266295

fc3.weight f4 [1, 64]
0	0xbbb469df	-0.005505785
1	0xbd30b012	-0.043136664
2	0xbcc687dc	-0.024234705
3	0x3bc8fe9c	0.0061338674
4	0x3cd31b6f	0.025769917
5	0x3c7b005e	0.015319912
6	0xbf320e12	-0.6955272
7	0x3d11c74c	0.035590455
8	0xbd0a542c	-0.03377168
9	0x3b8b492e	0.004250667
10	0xbd499508	-0.049214393
11	0x3c2a17a2	0.010381611
12	0xbac9af84	-0.0015387391
13	0xbf2e522f	-0.6809415
14	0xbd1389c4	-0.036020055
15	0xbd6d52e4	-0.05794038
16	0x3d444237	0.04791471
17	0x3d273305	0.04082014
18	0xbd0c3c52	-0.034237213
19	0xbd814b34	-0.06313172
20	0xbd07c3a3	-0.033145558
21	0xbd420e87	-0.047377136
22	0xbf1a751f	-0.6033496
23	0x3d507796	0.050895296
24	0x3cc69536	0.024241071
25	0xbc6ae027	-0.014335669
26	0xbd48de91	-0.04904038
27	0xbc1c06f6	-0.009523144
28	0xbf35e277	-0.7104868
29	0xbc9d6eeb	-0.019217929
30	0xbced78cc	-0.028988265
31	0x3d82cdc1	0.06386901
32	0x3b50504c	0.0031786142
33	0xbd96644a	-0.07343347
34	0xbc8b88c6	-0.017032992
35	0x3da8dbf1	0.082450755
36	0x3dbfda15	0.09367768
37	0x3b071c7d	0.0020616346
38	0xbc6b5057	-0.014362416
39	0xbc954745	-0.01822246
40	0xbc8c2acb	-0.017110249
41	0xbc330cc9	-0.010928341
42	0xbf297ce8	-0.66206217
43	0xbcd415da	-0.025889326
44	0xbb70723d	-0.0036689185
45	0xbd3e273b	-0.04642413
46	0x3b82fac2	0.003997178
47	0xbd2be3c7	-0.041965272
48	0xbaea2122	-0.0017862658
49	0x3be542fe	0.0069965115
50	0x3d71b43b	0.05900977
51	0xbc0d823e	-0.008637009
52	0xbf3635f8	-0.711761
53	0xbc6441ff	-0.01393175
54	0xbd54564e	-0.05184012
55	0xbd819aea	-0.06328376
56	0xbf33a615	-0.70175296
57	0x3c0fd476	0.008778682
58	0xbf382571	-0.7193213
59	0xbc199e8b	-0.0093761785
60	0xbd0f939c	-0.03505288
61	0x3835a68c	4.330887e-05
62	0xbd85cebf	-0.06533574
63	0xbc6b7a1d	-0.014372376

bn1.weight f4 [128]
0	0x3f800000	1.0
1	0x3f800000	1.0
2	0x3f800000	1.0
3	0x3f800000	1.0
4	0x3f800000	1.0
5	0x3f800000	1.0
6	0x3f800000	1.0
7	0x3f800000	1.0
8	0x3f800000	1.0
9	0x3f800000	1.0
10	0x3f800000	1.0
11	0x3f800000	1.0
12	0x3f800000	1.0
13	0x3f800000	1.0
14	0x3f800000	1.0
15	0x3f800000	1.0
16	0x3f800000	1.0
17	0x3f800000	1.0
18	0x3f800000	1.0
19	0x3f800000	1.0
20	0x3f800000	1.0
21	0x3f800000	1.0
22	0x3f800000	1.0
23	0x3f800000	1.0
24	0x3f800000	1.0
25	0x3f800000	1.0
26	0x3f800000	1.0
27	0x3f800000	1.0
28	0x3f800000	1.0
29	0x3f800000	1.0
30	0x3f800000	1.0
31	0x3f800000	1.0
32	0x3f800000	1.0
33	0x3f800000	1.0
34	0x3f800000	1.0
35	0x3f800000	1.0
36	0x3f800000	1.0
37	0x3f800000	1.0
38	0x3f800000	1.0
39	0x3f800000	1.0
40	0x3f800000	1.0
41	0x3f800000	1.0
42	0x3f800000	1.0
43	0x3f800000	1.0
44	0x3f800000	1.0
45	0x3f800000	1.0
46	0x3f800000	1.0
47	0x3f800000	1.0
48	0x3f800000	1.0
49	0x3f800000	1.0
50	0x3f800000	1.0
51	0x3f800000	1.0
52	0x3f800000	1.0
53	0x3f800000	1.0
54	0x3f800000	1.0
55	0x3f800000	1.0
56	0x3f800000	1.0
57	0x3f800000	1.0
58	0x3f800000	1.0
59	0x3f800000	1.0
60	0x3f800000	1.0
61	0x3f800000	1.0
62	0x3f800000	1.0
63	0x3f800000	1.0
64	0x3f800000	1.0
65	0x3f800000	1.0
66	0x3f800000	1.0
67	0x3f800000	1.0
68	0x3f800000	1.0
69	0x3f800000	1.0
70	0x3f800000	1.0
71	0x3f800000	1.0
72	0x3f800000	1.0
73	0x3f800000	1.0
74	0x3f800000	1.0
75	0x3f800000	1.0
76	0x3f800000	1.0
77	0x3f800000	1.0
78	0x3f800000	1.0
79	0x3f800000	1.0
80	0x3f800000	1.0
81	0x3f800000	1.0
82	0x3f800000	1.0
83	0x3f800000	1.0
84	0x3f800000	1.0
85	0x3f800000	1.0
86	0x3f800000	1.0
87	0x3f800000	1.0
88	0x3f800000	1.0
89	0x3f800000	1.0
90	0x3f800000	1.0
91	0x3f800000	1.0
92	0x3f800000	1.0
93	0x3f800000	1.0
94	0x3f800000	1.0
95	0x3f800000	1.0
96	0x3f800000	1.0
97	0x3f800000	1.0
98	0x3f800000	1.0
99	0x3f800000	1.0
100	0x3f800000	1.0
101	0x3f800000	1.0
102	0x3f800000	1.0
103	0x3f800000	1.0
104	0x3f800000	1.0
105	0x3f800000	1.0
106	0x3f800000	1.0
107	0x3f800000	1.0
108	0x3f800000	1.0
109	0x3f800000	1.0
110	0x3f800000	1.0
111	0x3f800000	1.0
112	0x3f800000	1.0
113	0x3f800000	1.0
114	0x3f800000	1.0
115	0x3f800000	1.0
116	0x3f800000	1.0
117	0x3f800000	1.0
118	0x3f800000	1.0
119	0x3f800000	1.0
120	0x3f800000	1.0
121	0x3f800000	1.0
122	0x3f800000	1.0
123	0x3f800000	1.0
124	0x3f800000	1.0
125	0x3f800000	1.0
126	0x3f800000	1.0
127	0x3f800000	1.0

bn1.bias f4 [128]
0	0x00000000	0.0
1	0x00000000	0.0
2	0x00000000	0.0
3	0x00000000	0.0
4	0x00000000	0.0
5	0x00000000	0.0
6	0x00000000	0.0
7	0x00000000	0.0
8	0x00000000	0.0
9	0x00000000	0.0
10	0x00000000	0.0
11	0x00000000	0.0
12	0x00000000	0.0
13	0x00000000	0.0
14	0x00000000	0.0
15	0x00000000	0.0
16	0x00000000	0.0
17	0x00000000	0.0
18	0x00000000	0.0
19	0x00000000	0.0
20	0x00000000	0.0
21	0x00000000	0.0
22	0x00000000	0.0
23	0x00000000	0.0
24	0x00000000	0.0
25	0x00000000	0.0
26	0x00000000	0.0
27	0x00000000	0.0
28	0x00000000	0.0
29	0x00000000	0.0
30	0x00000000	0.0
31	0x00000000	0.0
32	0x00000000	0.0
33	0x00000000	0.0
34	0x00000000	0.0
35	0x00000000	0.0
36	0x00000000	0.0
37	0x00000000	0.0
38	0x00000000	0.0
39	0x00000000	0.0
40	0x00000000	0.0
41	0x00000000	0.0
42	0x00000000	0.0
43	0x00000000	0.0
44	0x00000000	0.0
45	0x00000000	0.0
46	0x00000000	0.0
47	0x00000000	0.0
48	0x00000000	0.0
49	0x00000000	0.0
50	0x00000000	0.0
51	0x00000000	0.0
52	0x00000000	0.0
53	0x00000000	0.0
54	0x00000000	0.0
55	0x00000000	0.0
56	0x00000000	0.0
57	0x00000000	0.0
58	0x00000000	0.0
59	0x00000000	0.0
60	0x00000000	0.0
61	0x00000000	0.0
62	0x00000000	0.0
63	0x00000000	0.0
64	0x00000000	0.0
65	0x00000000	0.0
66	0x00000000	0.0
67	0x00000000	0.0
68	0x00000000	0.0
69	0x00000000	0.0
70	0x00000000	0.0
71	0x00000000	0.0
72	0x00000000	0.0
73	0x00000000	0.0
74	0x00000000	0.0
75	0x00000000	0.0
76	0x00000000	0.0
77	0x00000000	0.0
78	0x00000000	0.0
79	0x00000000	0.0
80	0x00000000	0.0
81	0x00000000	0.0
82	0x00000000	0.0
83	0x00000000	0.0
84	0x00000000	0.0
85	0x00000000	0.0
86	0x00000000	0.0
87	0x00000000	0.0
88	0x00000000	0.0
89	0x00000000	0.0
90	0x00000000	0.0
91	0x00000000	0.0
92	0x00000000	0.0
93	0x00000000	0.0
94	0x00000000	0.0
95	0x00000000	0.0
96	0x00000000	0.0
97	0x00000000	0.0
98	0x00000000	0.0
99	0x00000000	0.0
100	0x00000000	0.0
101	0x00000000	0.0
102	0x00000000	0.0
103	0x00000000	0.0
104	0x00000000	0.0
105	0x00000000	0.0
106	0x00000000	0.0
107	0x00000000	0.0
108	0x00000000	0.0
109	0x00000000	0.0
110	0x00000000	0.0
111	0x00000000	0.0
112	0x00000000	0.0
113	0x00000000	0.0
114	0x00000000	0.0
115	0x00000000	0.0
116	0x00000000	0.0
117	0x00000000	0.0
118	0x00000000	0.0
119	0x00000000	0.0
120	0x00000000	0.0
121	0x00000000	0.0
122	0x00000000	0.0
123	0x00000000	0.0
124	0x00000000	0.0
125	0x00000000	0.0
126	0x00000000	0.0
127	0x00000000	0.0

bn1.running_mean f4 [128]
0	0x00000000	0.0
1	0x00000000	0.0
2	0x00000000	0.0
3	0x00000000	0.0
4	0x00000000	0.0
5	0x00000000	0.0
6	0x00000000	0.0
7	0x00000000	0.0
8	0x00000000	0.0
9	0x00000000	0.0
10	0x00000000	0.0
11	0x00000000	0.0
12	0x00000000	0.0
13	0x00000000	0.0
14	0x00000000	0.0
15	0x00000000	0.0
16	0x00000000	0.0
17	0x00000000	0.0
18	0x00000000	0.0
19	0x00000000	0.0
20	0x00000000	0.0
21	0x00000000	0.0
22	0x00000000	0.0
23	0x00000000	0.0
24	0x00000000	0.0
25	0x00000000	0.0
26	0x00000000	0.0
27	0x00000000	0.0
28	0x00000000	0.0
29	0x00000000	0.0
30	0x00000000	0.0
31	0x00000000	0.0
32	0x00000000	0.0
33	0x00000000	0.0
34	0x00000000	0.0
35	0x00000000	0.0
36	0x00000000	0.0
37	0x00000000	0.0
38	0x00000000	0.0
39	0x00000000	0.0
40	0x00000000	0.0
41	0x00000000	0.0
42	0x00000000	0.0
43	0x00000000	0.0
44	0x00000000	0.0
45	0x00000000	0.0
46	0x00000000	0.0
47	0x00000000	0.0
48	0x00000000	0.0
49	0x00000000	0.0
50	0x00000000	0.0
51	0x00000000	0.0
52	0x00000000	0.0
53	0x00000000	0.0
54	0x00000000	0.0
55	0x00000000	0.0
56	0x00000000	0.0
57	0x00000000	0.0
58	0x00000000	0.0
59	0x00000000	0.0
60	0x00000000	0.0
61	0x00000000	0.0
62	0x00000000	0.0
63	0x00000000	0.0
64	0x00000000	0.0
65	0x00000000	0.0
66	0x00000000	0.0
67	0x00000000	0.0
68	0x00000000	0.0
69	0x00000000	0.0
70	0x00000000	0.0
71	0x00000000	0.0
72	0x00000000	0.0
73	0x00000000	0.0
74	0x00000000	0.0
75	0x00000000	0.0
76	0x00000000	0.0
77	0x00000000	0.0
78	0x00000000	0.0
79	0x00000000	0.0
80	0x00000000	0.0
81	0x00000000	0.0
82	0x00000000	0.0
83	0x00000000	0.0
84	0x00000000	0.0
85	0x00000000	0.0
86	0x00000000	0.0
87	0x00000000	0.0
88	0x00000000	0.0
89	0x00000000	0.0
90	0x00000000	0.0
91	0x00000000	0.0
92	0x00000000	0.0
93	0x00000000	0.0
94	0x00000000	0.0
95	0x00000000	0.0
96	0x00000000	0.0
97	0x00000000	0.0
98	0x00000000	0.0
99	0x00000000	0.0
100	0x00000000	0.0
101	0x00000000	0.0
102	0x00000000	0.0
103	0x00000000	0.0
104	0x00000000	0.0
105	0x00000000	0.0
106	0x00000000	0.0
107	0x00000000	0.0
108	0x00000000	0.0
109	0x00000000	0.0
110	0x00000000	0.0
111	0x00000000	0.0
112	0x00000000	0.0
113	0x00000000	0.0
114	0x00000000	0.0
115	0x00000000	0.0
116	0x00000000	0.0
117	0x00000000	0.0
118	0x00000000	0.0
119	0x00000000	0.0
120	0x00000000	0.0
121	0x00000000	0.0
122	0x00000000	0.0
123	0x00000000	0.0
124	0x00000000	0.0
125	0x00000000	0.0
126	0x00000000	0.0
127	0x00000000	0.0

bn1.running_var f4 [128]
0	0x3f800000	1.0
1	0x3f800000	1.0
2	0x3f800000	1.0
3	0x3f800000	1.0
4	0x3f800000	1.0
5	0x3f800000	1.0
6	0x3f800000	1.0
7	0x3f800000	1.0
8	0x3f800000	1.0
9	0x3f800000	1.0
10	0x3f800000	1.0
11	0x3f800000	1.0
12	0x3f800000	1.0
13	0x3f800000	1.0
14	0x3f800000	1.0
15	0x3f800000	1.0
16	0x3f800000	1.0
17	0x3f800000	1.0
18	0x3f800000	1.0
19	0x3f800000	1.0
20	0x3f800000	1.0
21	0x3f800000	1.0
22	0x3f800000	1.0
23	0x3f800000	1.0
24	0x3f800000	1.0
25	0x3f800000	1.0
26	0x3f800000	1.0
27	0x3f800000	1.0
28	0x3f800000	1.0
29	0x3f800000	1.0
30	0x3f800000	1.0
31	0x3f800000	1.0
32	0x3f800000	1.0
33	0x3f800000	1.0
34	0x3f800000	1.0
35	0x3f800000	1.0
36	0x3f800000	1.0
37	0x3f800000	1.0
38	0x3f800000	1.0
39	0x3f800000	1.0
40	0x3f800000	1.0
41	0x3f800000	1.0
42	0x3f800000	1.0
43	0x3f800000	1.0
44	0x3f800000	1.0
45	0x3f800000	1.0
46	0x3f800000	1.0
47	0x3f800000	1.0
48	0x3f800000	1.0
49	0x3f800000	1.0
50	0x3f800000	1.0
51	0x3f800000	1.0
52	0x3f800000	1.0
53	0x3f800000	1.0
54	0x3f800000	1.0
55	0x3f800000	1.0
56	0x3f800000	1.0
57	0x3f800000	1.0
58	0x3f800000	1.0
59	0x3f800000	1.0
60	0x3f800000	1.0
61	0x3f800000	1.0
62	0x3f800000	1.0
63	0x3f800000	1.0
64	0x3f800000	1.0
65	0x3f800000	1.0
66	0x3f800000	1.0
67	0x3f800000	1.0
68	0x3f800000	1.0
69	0x3f800000	1.0
70	0x3f800000	1.0
71	0x3f800000	1.0
72	0x3f800000	1.0
73	0x3f800000	1.0
74	0x3f800000	1.0
75	0x3f800000	1.0
76	0x3f800000	1.0
77	0x3f800000	1.0
78	0x3f800000	1.0
79	0x3f800000	1.0
80	0x3f800000	1.0
81	0x3f800000	1.0
82	0x3f800000	1.0
83	0x3f800000	1.0
84	0x3f800000	1.0
85	0x3f800000	1.0
86	0x3f800000	1.0
87	0x3f800000	1.0
88	0x3f800000	1.0
89	0x3f800000	1.0
90	0x3f800000	1.0
91	0x3f800000	1.0
92	0x3f800000	1.0
93	0x3f800000	1.0
94	0x3f800000	1.0
95	0x3f800000	1.0
96	0x3f800000	1.0
97	0x3f800000	1.0
98	0x3f800000	1.0
99	0x3f800000	1.0
100	0x3f800000	1.0
101	0x3f800000	1.0
102	0x3f800000	1.0
103	0x3f800000	1.0
104	0x3f800000	1.0
105	0x3f800000	1.0
106	0x3f800000	1.0
107	0x3f800000	1.0
108	0x3f800000	1.0
109	0x3f800000	1.0
110	0x3f800000	1.0
111	0x3f800000	1.0
112	0x3f800000	1.0
113	0x3f800000	1.0
114	0x3f800000	1.0
115	0x3f800000	1.0
116	0x3f800000	1.0
117	0x3f800000	1.0
118	0x3f800000	1.0
119	0x3f800000	1.0
120	0x3f800000	1.0
121	0x3f800000	1.0
122	0x3f800000	1.0
123	0x3f800000	1.0
124	0x3f800000	1.0
125	0x3f800000	1.0
126	0x3f800000	1.0
127	0x3f800000	1.0

bn2.weight f4 [64]
0	0x3f800000	1.0
1	0x3f800000	1.0
2	0x3f800000	1.0
3	0x3f800000	1.0
4	0x3f800000	1.0
5	0x3f800000	1.0
6	0x3f800000	1.0
7	0x3f800000	1.0
8	0x3f800000	1.0
9	0x3f800000	1.0
10	0x3f800000	1.0
11	0x3f800000	1.0
12	0x3f800000	1.0
13	0x3f800000	1.0
14	0x3f800000	1.0
15	0x3f800000	1.0
16	0x3f800000	1.0
17	0x3f800000	1.0
18	0x3f800000	1.0
19	0x3f800000	1.0
20	0x3f800000	1.0
21	0x3f800000	1.0
22	0x3f800000	1.0
23	0x3f800000	1.0
24	0x3f800000	1.0
25	0x3f800000	1.0
26	0x3f800000	1.0
27	0x3f800000	1.0
28	0x3f800000	1.0
29	0x3f800000	1.0
30	0x3f800000	1.0
31	0x3f800000	1.0
32	0x3f800000	1.0
33	0x3f800000	1.0
34	0x3f800000	1.0
35	0x3f800000	1.0
36	0x3f800000	1.0
37	0x3f800000	1.0
38	0x3f800000	1.0
39	0x3f800000	1.0
40	0x3f800000	1.0
41	0x3f800000	1.0
42	0x3f800000	1.0
43	0x3f800000	1.0
44	0x3f800000	1.0
45	0x3f800000	1.0
46	0x3f800000	1.0
47	0x3f800000	1.0
48	0x3f800000	1.0
49	0x3f800000	1.0
50	0x3f800000	1.0
51	0x3f800000	1.0
52	0x3f800000	1.0
53	0x3f800000	1.0
54	0x3f800000	1.0
55	0x3f800000	1.0
56	0x3f800000	1.0
57	0x3f800000	1.0
58	0x3f800000	1.0
59	0x3f800000	1.0
60	0x3f800000	1.0
61	0x3f800000	1.0
62	0x3f800000	1.0
63	0x3f800000	1.0

bn2.bias f4 [64]
0	0x00000000	0.0
1	0x00000000	0.0
2	0x00000000	0.0
3	0x00000000	0.0
4	0x00000000	0.0
5	0x00000000	0.0
6	0x00000000	0.0
7	0x00000000	0.0
8	0x00000000	0.0
9	0x00000000	0.0
10	0x00000000	0.0
11	0x00000000	0.0
12	0x00000000	0.0
13	0x00000000	0.0
14	0x00000000	0.0
15	0x00000000	0.0
16	0x00000000	0.0
17	0x00000000	0.0
18	0x00000000	0.0
19	0x00000000	0.0
20	0x00000000	0.0
21	0x00000000	0.0
22	0x00000000	0.0
23	0x00000000	0.0
24	0x00000000	0.0
25	0x00000000	0.0
26	0x00000000	0.0
27	0x00000000	0.0
28	0x00000000	0.0
29	0x00000000	0.0
30	0x00000000	0.0
31	0x00000000	0.0
32	0x00000000	0.0
33	0x00000000	0.0
34	0x00000000	0.0
35	0x00000000	0.0
36	0x00000000	0.0
37	0x00000000	0.0
38	0x00000000	0.0
39	0x00000000	0.0
40	0x00000000	0.0
41	0x00000000	0.0
42	0x00000000	0.0
43	0x00000000	0.0
44	0x00000000	0.0
45	0x00000000	0.0
46	0x00000000	0.0
47	0x00000000	0.0
48	0x00000000	0.0
49	0x00000000	0.0
50	0x00000000	0.0
51	0x00000000	0.0
52	0x00000000	0.0
53	0x00000000	0.0
54	0x00000000	0.0
55	0x00000000	0.0
56	0x00000000	0.0
57	0x00000000	0.0
58	0x00000000	0.0
59	0x00000000	0.0
60	0x00000000	0.0
61	0x00000000	0.0
62	0x00000000	0.0
63	0x00000000	0.0
