models/0_2023_2023/Spatial_GCN/15.pth (torch, 100130 bytes, 17 tensors)

conv1.bias f4 [64]
0	0x00000000	0.0
1	0xbcb3f6bb	-0.021968236
2	0x00000000	0.0
3	0x00000000	0.0
4	0xbe3679a3	-0.17819838
5	0x00000000	0.0
6	0xbdc8e822	-0.09809901
7	0x00000000	0.0
8	0x00000000	0.0
9	0xbd18538e	-0.03718906
10	0xbed5a46b	-0.41727003
11	0xbdf74f0a	-0.120756224
12	0xbdda2a01	-0.10652543
13	0x00000000	0.0
14	0x00000000	0.0
15	0x00000000	0.0
16	0x00000000	0.0
17	0xbcbdf2f3	-0.023187136
18	0x00000000	0.0
19	0x00000000	0.0
20	0xbcc68c22	-0.024236742
21	0xbb4fa0c6	-0.0031681522
22	0xbca4de3f	-0.020125506
23	0xbdb02e78	-0.08602613
24	0x00000000	0.0
25	0x00000000	0.0
26	0x00000000	0.0
27	0x00000000	0.0
28	0x00000000	0.0
29	0x00000000	0.0
30	0xbe696a37	-0.22794424
31	0x00000000	0.0
32	0x00000000	0.0
33	0x00000000	0.0
34	0x00000000	0.0
35	0xc05c2d1d	-3.4402535
36	0x00000000	0.0
37	0x00000000	0.0
38	0xbe1ae8ef	-0.1512792
39	0x00000000	0.0
40	0xbeb1fa56	-0.34761304
41	0x00000000	0.0
42	0x00000000	0.0
43	0xbebf56e7	-0.3737099
44	0x00000000	0.0
45	0x00000000	0.0
46	0x00000000	0.0
47	0x00000000	0.0
48	0x00000000	0.0
49	0xbd115ca1	-0.03548873
50	0xbe73b45d	-0.23799272
51	0x00000000	0.0
52	0x00000000	0.0
53	0x00000000	0.0
54	0xbc89574e	-0.016765263
55	0xbc9fc358	-0.019502327
56	0x00000000	0.0
57	0x00000000	0.0
58	0xbe6d4b60	-0.23173285
59	0xbd48324a	-0.048876084
60	0x3e08355e	0.13301608
61	0x00000000	0.0
62	0x00000000	0.0
63	0x00000000	0.0

conv1.lin.weight f4 [64, 12]
0	0xbd8f3d8c	-0.06994161
1	0xbcda44e7	-0.026644183
2	0x3cf4ee6d	0.029898847
3	0xbda38ffb	-0.079864465
4	0x3d4cb1ae	0.049974136
5	0x3d425eaa	0.04745356
6	0x3d6794b8	0.056538314
7	0xbd6e0e80	-0.058119297
8	0x3db9f356	0.09079616
9	0xbd5d5584	-0.054036632
10	0x3dba630c	0.09100923
11	0xbdb32bf1	-0.087486155
12	0xbdd328e2	-0.10310532
13	0x3d0b6050	0.034027398
14	0xbc4bbe03	-0.012435439
15	0xbc8a5521	-0.016886296
16	0xbd944a81	-0.07240773
17	0xbd769336	-0.060198985
18	0xbd47b5a3	-0.048757207
19	0xbde36418	-0.11103076
20	0xbc8b4d86	-0.01700474
21	0xbbbbaef2	-0.005727642
22	0xbcb3cbbe	-0.021947738
23	0x3bf8065c	0.0075691175
24	0x3db125d3	0.086497925
25	0x3cc68f25	0.024238179
26	0xbd08b07c	-0.033371434
27	0xbd19ab55	-0.03751691
28	0xbd6ee664	-0.058325186
29	0xbd816c12	-0.06319441
30	0xbc708a5e	-0.014681427
31	0xbc8414cb	-0.016123196
32	0x3d261bf0	0.040553987
33	0xbd1f9a34	-0.03896542
34	0x3d94d5ec	0.07267365
35	0xbd83006b	-0.06396564
36	0x3987d745	0.00025909595
37	0x3da7d368	0.081946194
38	0x3db9a624	0.09064892
39	0xbd584b1b	-0.052806
40	0x3c850654	0.016238369
41	0x3c306cd0	0.01076813
42	0xbd2f1114	-0.042740896
43	0xbd010183	-0.031495582
44	0x3cca455b	0.024691274
45	0xbd81d298	-0.06338996
46	0x3c766f0f	0.015041127
47	0x3d2193a6	0.03944745
48	0xbef39969	-0.4757798
49	0xbe09840a	-0.13429275
50	0xbe5ea3ac	-0.21742123
51	0xbb4aa3b8	-0.0030920338
52	0xbef983dc	-0.48733413
53	0xbf19353b	-0.5984685
54	0xbf1b002f	-0.60547155
55	0xbed424d3	-0.41434345
56	0x3e599acc	0.21250457
57	0x3e16a6a9	0.14712013
58	0xbf1e1ed4	-0.6176579
59	0x3e9bf0e9	0.30457237
60	0x3caf0990	0.021366864
61	0x3b611d2c	0.0034349663
62	0x3d6cb0ea	0.057785906
63	0xbc972775	-0.018451432
64	0x3c15c6be	0.009141622
65	0xbd0ae615	-0.03391083
66	0xbd9c59aa	-0.076342896
67	0x3d1719ba	0.03688977
68	0x3c3f1d7c	0.0116647445
69	0xbd1589d7	-0.036508407
70	0xbcfc7e0e	-0.030821826
71	0x3cc34d20	0.023840487
72	0xbe1354ba	-0.1438779
73	0xbd37a3d9	-0.04483399
74	0xbdcc813f	-0.09985589
75	0xb9ecb9a7	-0.0004515175
76	0xbe2cb9b0	-0.16867709
77	0xbe79b682	-0.24386027
78	0xbe2f9e3c	-0.17150205
79	0x3d4bc334	0.049746707
80	0x3d5fe4a7	0.05466142
81	0x3d815abe	0.06316136
82	0xbe088d60	-0.1333518
83	0x3e3c800a	0.18408218
84	0xbd1da53c	-0.038487658
85	0xbd467c2b	-0.04845826
86	0x3d22b52d	0.039723564
87	0xbda27c23	-0.079338335
88	0x3abf90d1	0.0014615302
89	0xbd2bb88f	-0.041924056
90	0x3d7673cd	0.06016903
91	0xbdadd290	-0.08487427
92	0x3d626697	0.05527362
93	0x3db8b5ba	0.090190366
94	0x3c971af4	0.01844547
95	0xbbc7061f	-0.0060737277
96	0x3db7c671	0.089733966
97	0xbd1f921c	-0.0389577
98	0xbbef5f17	-0.0073050368
99	0xbd2382d7	-0.0399197
100	0xbc4e2cd4	-0.01258393
101	0x3ca24e4f	0.019812731
102	0x3c477bed	0.012175542
103	0xbc8d0cb1	-0.017217966
104	0xbdbaaacb	-0.091146074
105	0x3b98f462	0.0046678046
106	0xbb30f892	-0.0027003628
107	0x3c60b05c	0.013713922
108	0x3cf2a16f	0.029617993
109	0x3d46227d	0.048372734
110	0xbdc10730	-0.09425199
111	0xbd3c341a	-0.045948125
112	0xbd94dca3	-0.072686456
113	0xbdc4a6f1	-0.09602154
114	0xbdd6bf7d	-0.10485742
115	0x3d89db53	0.06731286
116	0x3c7389c8	0.014864393
117	0x3d1269c0	0.035745382
118	0x3d0a6af6	0.033793412
119	0xbd9453ab	-0.07242521
120	0xbf30e43f	-0.69098276
121	0xbecaa1c0	-0.3957653
122	0xbf08f95d	-0.535055
123	0xbbdb9bf6	-0.0067019416
124	0xbfa01de9	-1.2509128
125	0xbfa67093	-1.3003105
126	0xbfb85364	-1.4400449
127	0xbf0b6b6d	-0.54460794
128	0x3f032462	0.5122739
129	0x3f0343a4	0.51275086
130	0xbfa306d3	-1.2736458
131	0x3f8b03f4	1.0860581
132	0xbe24cec7	-0.16094504
133	0xbd411d19	-0.04714689
134	0xbd5f46fc	-0.054511055
135	0xb9938554	-0.00028137362
136	0xbe813b6b	-0.25240645
137	0xbe979565	-0.29606166
138	0xbed3c7cd	-0.41363373
139	0xbe84230e	-0.25807995
140	0x3d793f5e	0.060851447
141	0x3ba4c269	0.0050280583
142	0xbe773d6a	-0.24144521
143	0x3e1fd807	0.15609752
144	0xbeb7d303	-0.35903177
145	0xbde1959a	-0.11014862
146	0xbd59b755	-0.053153355
147	0xbb52d85c	-0.0032172417
148	0xbef665d7	-0.48124573
149	0xbedf0bc1	-0.43563655
150	0xbee690d4	-0.4503237
151	0xbe84fbcf	-0.25973365
152	0x3e5bad3e	0.21452805
153	0x3bf6b44e	0.007528818
154	0xbede0716	-0.4336478
155	0x3e54abc8	0.20768654
156	0x3d6ed716	0.05831059
157	0xbda8e82f	-0.082474105
158	0x3d0dbc1e	0.03460323
159	0xbd91c802	-0.071182266
160	0x3d8d631f	0.069036715
161	0x3cea55d0	0.028605372
162	0x3db89a80	0.090138435
163	0xbdb814e7	-0.08988362
164	0xbdb3ba99	-0.08775825
165	0x3d7c73ef	0.061634
166	0x3da5c0f6	0.08093445
167	0x3d64c57a	0.05585239
168	0x3d783e7e	0.060606472
169	0xbd9d3fe3	-0.07678201
170	0x3d872245	0.06598333
171	0xbdb044fe	-0.08606909
172	0x3ca6d56a	0.020365436
173	0xbd7495fc	-0.05971335
174	0xbd144f79	-0.036208604
175	0x3c843bab	0.016141733
176	0xbd12cfa9	-0.03584257
177	0xbc6c5153	-0.014423686
178	0xbdb0f4b7	-0.08640426
179	0xbdb0082f	-0.08595311
180	0x3d10a3a7	0.03531232
181	0xbd1e0cc4	-0.038586393
182	0xbd632b6c	-0.055461332
183	0xbd1355bb	-0.03597043
184	0xbd98a33e	-0.07453011
185	0xbd953eec	-0.07287392
186	0x3d5f6dd6	0.054548107
187	0x3d3dc65d	0.046331752
188	0x3c46f327	0.012142933
189	0xbd4bf868	-0.049797446
190	0x3cf87514	0.030329265
191	0x3b8632d3	0.004095414
192	0xbd856d5b	-0.065149985
193	0x3ca0b38c	0.019616865
194	0x3da9fefa	0.08300586
195	0xbdb7a303	-0.08966639
196	0xbdb9a674	-0.090649515
197	0x3c3f5d52	0.011679964
198	0x3d8c965c	0.06864616
199	0xbd6334e0	-0.055470347
200	0x3ca46567	0.020067884
201	0x3d833eda	0.06408472
202	0x3ce63f34	0.02810631
203	0x3ca19cef	0.019728152
204	0x3d8ae901	0.06782723
205	0x3d1450d2	0.03620989
206	0xbd9878ce	-0.07444917
207	0xbc81c1c5	-0.015839467
208	0x3cc01fa9	0.023452597
209	0x3d6bee0f	0.057600077
210	0xbde944cc	-0.11390075
211	0x3cd20f34	0.025642015
212	0xbd4aacc9	-0.049481187
213	0xbde67a86	-0.11253838
214	0xbb23a626	-0.0024970858
215	0xbd94ffe2	-0.07275368
216	0x3c53a885	0.012918596
217	0xbd726ceb	-0.059185904
218	0xbd8c7eb3	-0.068601035
219	0xbbfd76ae	-0.007735095
220	0xbcfadd9c	-0.03062325
221	0x3d5a6292	0.05331666
222	0x3c00c5fc	0.007859703
223	0x3d91ba6a	0.07115634
224	0x3c8bf34f	0.017083792
225	0xbcf0235c	-0.029313736
226	0x3d7ce9aa	0.061746277
227	0x3ba33baf	0.00498148
228	0x3c8c2a89	0.017110126
229	0xbcf02f14	-0.029319324
230	0x39ab8655	0.00032715747
231	0xbc8f9664	-0.017527767
232	0xbbfdf5a5	-0.0077502304
233	0xbd9199df	-0.07109427
234	0xba12f723	-0.0005606284
235	0xbd9af786	-0.075667426
236	0xbca0a843	-0.019611483
237	0x3d586640	0.05283189
238	0xbd81d1e7	-0.06338864
239	0xbd7bafd5	-0.061446983
240	0xbd3db7f5	-0.046318013
241	0xbd499527	-0.04921451
242	0xbc1005f9	-0.0087904865
243	0xbc236023	-0.009971651
244	0x3cb4b47e	0.022058722
245	0xbdb0adf5	-0.0862693
246	0xbcfbb51a	-0.030726004
247	0x3cd2a463	0.025713151
248	0x3d61ca3a	0.0551245
249	0xbcfc98aa	-0.030834515
250	0xbd9bf18f	-0.07614433
251	0x3b08e007	0.0020885484
252	0x3e1bd4ec	0.15217942
253	0xbd4c03f5	-0.04980846
254	0xbd3a0686	-0.045416377
255	0xbbea5029	-0.007150669

conv2.bias f4 [64]
0	0xbe8507d6	-0.2598254
1	0xbe858f74	-0.2608601
2	0xbc86e48a	-0.016466398
3	0x3de58b09	0.112081595
4	0xbd3f141c	-0.046650037
5	0xbe034b9f	-0.12821816
6	0xbe585fde	-0.2113032
7	0xbe0e4d0a	-0.13896576
8	0x3f258d63	0.64668864
9	0x3cca273e	0.024676915
10	0xbdc0d766	-0.09416084
11	0xbd3335c7	-0.043752458
12	0xbed125ec	-0.40849245
13	0xbdb053c6	-0.086097285
14	0x3f0c3aa1	0.5477696
15	0x3e1b9a26	0.15195522
16	0xbf01b819	-0.50671536
17	0xbec3e19c	-0.38258064
18	0xbdbebb90	-0.093131185
19	0xbd3c1394	-0.04591711
20	0x3f4d8f87	0.8029713
21	0xbe3fb78c	-0.18722361
22	0xbb5bcb6a	-0.0033537992
23	0xbf0be061	-0.5463925
24	0x3d811106	0.06302075
25	0x3e441c81	0.19151498
26	0xbf025d2a	-0.5092341
27	0xbeaffde1	-0.34373382
28	0xbd3d3760	-0.046195388
29	0x3e3ebca9	0.18626656
30	0xbe05d56b	-0.13069694
31	0x3dd2dbe2	0.102958456
32	0xbf4c21c3	-0.79739016
33	0xbe88d148	-0.2672217
34	0xbe2272f4	-0.15864164
35	0x3d61e3df	0.055148955
36	0x3ec9a27f	0.39381787
37	0xbeacc49d	-0.33743754
38	0x3e254d20	0.16142702
39	0x3c43e73f	0.011956989
40	0x3d5746ec	0.05255787
41	0x3f091e7a	0.5356213
42	0xbde35a84	-0.11101249
43	0x3f685873	0.9075996
44	0x3e08636a	0.13319173
45	0x3cfb6701	0.030688765
46	0xbe8e2275	-0.27760664
47	0xbe00f6ae	-0.12594101
48	0x3cdd341a	0.027002383
49	0xbea906ad	-0.33012906
50	0x3e2bbdb9	0.16771592
51	0x3f0eb69a	0.5574738
52	0xbf137e51	-0.5761462
53	0x3da2508f	0.079255216
54	0x3e255122	0.16144231
55	0xbd9f146f	-0.07767569
56	0xbeaf754d	-0.3426918
57	0xbf0f20d2	-0.55909455
58	0x3d66158c	0.056172892
59	0xbe3818b8	-0.1797818
60	0xbdcfdc00	-0.101493835
61	0xbf1d1035	-0.61352855
62	0x3f0514d9	0.51984936
63	0x3eca4656	0.39506787

conv2.lin.weight f4 [64, 64]
0	0x3d594d67	0.053052332
1	0x3c5dc828	0.0135364905
2	0x3b869048	0.004106555
3	0x3c6d2027	0.014472998
4	0xbd1c7852	-0.038200684
5	0xbc617da1	-0.013762862
6	0xbc48e09e	-0.012260584
7	0xbd3610a7	-0.044449475
8	0xbb4c1d95	-0.0031145562
9	0xbd2c985f	-0.0421375
10	0x3c850091	0.016235622
11	0xbc25244e	-0.0100794565
12	0xbd35843d	-0.044315565
13	0x3d891907	0.06694227
14	0x3d0dd160	0.034623504
15	0x3d50030a	0.05078415
16	0xbd74eb03	-0.059794437
17	0xbd8ffa1c	-0.070301265
18	0x3d55f797	0.052238073
19	0xbc4a18fc	-0.012335058
20	0x3c4ff370	0.012692317
21	0x3d12e75f	0.035865184
22	0x3b0bf3d4	0.002135505
23	0x3b2e573d	0.002660229
24	0x3d2af669	0.0417389
25	0x3d65dab2	0.056116767
26	0xbca05c5a	-0.019575287
27	0xbd75a4a9	-0.059971485
28	0xbd1dc471	-0.03851742
29	0x3d4d9c97	0.050198164
30	0x3b5b3fd5	0.0033454795
31	0x3d765b78	0.060145825
32	0xbcc94c01	-0.024572374
33	0xbd884f76	-0.06655781
34	0x3cb2b320	0.02181393
35	0xbc3f0406	-0.011658674
36	0xbd2c0416	-0.041996084
37	0x3d33606a	0.04379312
38	0xbbb0f65f	-0.0054004635
39	0xbbc48c0c	-0.00599814
40	0xbd8206b2	-0.06348933
41	0x3d7aa49b	0.061192136
42	0xbd6b0b49	-0.05738381
43	0xbbf8c64f	-0.0075919996
44	0xbd0e470b	-0.03473572
45	0xbd5f6434	-0.05453892
46	0xbd173e79	-0.036924813
47	0x3d421c88	0.04739049
48	0xbd3f728e	-0.046740107
49	0x3d63975b	0.055564266
50	0x3d06aef5	0.032881696
51	0x3b47f2de	0.003050975
52	0x3c44db7f	0.012015223
53	0x3c72eaeb	0.014826517
54	0x3c9ba7b7	0.019000871
55	0xbd1a1e7f	-0.03762674
56	0xbaa020f8	-0.0012216857
57	0x3d3ede28	0.046598583
58	0x3d32530a	0.043536223
59	0xbbb5fdd9	-0.0055539426
60	0xbd22413e	-0.039613
61	0x3d043adf	0.032282706
62	0xbd839fc2	-0.06426956
63	0x3d8039eb	0.06261047
64	0x3d30d659	0.043173168
65	0x3d5be870	0.053688467
66	0x3c1d3490	0.009595051
67	0x3d5126ec	0.05106251
68	0xbca63889	-0.02029063
69	0xbd6ffb61	-0.058589343
70	0xbd04e4c0	-0.032444715
71	0x3d561aaf	0.05227154
72	0xbd0fcc43	-0.03510691
73	0xbcaee05f	-0.021347223
74	0x3cae6e2d	0.02129277
75	0xbd1b62bc	-0.037935957
76	0x3c0e917e	0.00870168
77	0xbd369ec6	-0.044585012
78	0x3c732a47	0.014841623
79	0xbc3be19a	-0.011467362
80	0x3c17d944	0.009268109
81	0x3d5f3fde	0.054504268
82	0xbd3942d7	-0.04522976
83	0xbcc431bf	-0.023949502
84	0xbce913ec	-0.028451882
85	0x3d943544	0.07236722
86	0xbc054afa	-0.008135552
87	0x3d2520a8	0.040314347
88	0x3c84ce02	0.016211513
89	0xbd8dedf9	-0.06930155
90	0xbd4c41e7	-0.049867537
91	0xbc93e349	-0.018052714
92	0xbd5c918c	-0.05384974
93	0x3d189037	0.03724691
94	0x3d5201af	0.051271137
95	0xb9071f86	-0.00012886347
96	0x3c0cebe4	0.008601163
97	0x3c97a47d	0.018511051
98	0x3cbf63ac	0.023362957
99	0xbc40d3cf	-0.011769249
100	0xbce26cb8	-0.027639732
101	0xbd31e794	-0.04343374
102	0x3c56a9db	0.01310202
103	0x3d638394	0.055545405
104	0xbb859309	-0.004076366
105	0x3d779182	0.0604415
106	0x3cc947f5	0.024570445
107	0xbcbd628f	-0.023118285
108	0x3cdf836b	0.027284345
109	0x3ce67e8f	0.02813652
110	0xbd000d3c	-0.03126262
111	0xbc49ba4e	-0.012312485
112	0xbbef0b5d	-0.007295056
113	0x3d23eb8b	0.040019553
114	0x3d85d913	0.06535544
115	0xbc7d1cea	-0.015448788
116	0x3d3b1847	0.04567745
117	0x3d1b2310	0.037875235
118	0xbd37491c	-0.044747457
119	0x3d911bf6	0.07085411
120	0xbb3a7461	-0.0028450715
121	0x3d5e13e0	0.054218173
122	0x3d778e6f	0.06043857
123	0xbd55320a	-0.052049674
124	0xbd3acfbc	-0.045608267
125	0xbc03013a	-0.007995898
126	0x3cb8e953	0.022572195
127	0xbc372997	-0.011179349
128	0xbd8a7f06	-0.06762509
129	0x3cc2689c	0.023731522
130	0xbd248693	-0.040167402
131	0x3d029e32	0.031889148
132	0x3d0320f9	0.032013867
133	0xbcc216c9	-0.023692505
134	0x3ccc40e4	0.024933286
135	0x3c190ab7	0.0093409335
136	0xbcb4a6de	-0.022052225
137	0x3d17caf9	0.037058804
138	0x3c7c9d84	0.015418414
139	0x3c9a5f8b	0.018844387
140	0xbd6091fd	-0.054826725
141	0x3d570e5a	0.05250392
142	0xbd081483	-0.033222686
143	0xbd77d97f	-0.060510155
144	0xbcf8c221	-0.030366005
145	0xbd9e0053	-0.077149056
146	0x3ca11f91	0.019668372
147	0x3b9af491	0.0047288616
148	0xbca23b83	-0.019803768
149	0xbd82eab2	-0.06392421
150	0x3ca91c96	0.020643514
151	0xbb9290e7	-0.00447284
152	0xbc906bd8	-0.017629549
153	0x3c4be767	0.012445307
154	0x3ccaf396	0.024774354
155	0xbd2cdc48	-0.042202264
156	0xbca5bcf4	-0.020231701
157	0xbd02a8b3	-0.031899165
158	0x3d3239ea	0.043512262
159	0x3c8e4982	0.017369036
160	0xbd592388	-0.0530124
161	0x3d4b3250	0.04960853
162	0xbc36be7e	-0.011153815
163	0xbbc5c494	-0.006035397
164	0x3c14e871	0.0090886215
165	0xbc0669b7	-0.008203915
166	0x3d4fd75a	0.050742485
167	0x3cf94365	0.030427644
168	0xbc083ab6	-0.008314779
169	0xbcd134f1	-0.02553794
170	0x3c84713d	0.016167277
171	0xbd6f6df2	-0.05845446
172	0xbcc6f3d8	-0.024286196
173	0x3d11e305	0.035616893
174	0xbd8d965a	-0.06913443
175	0xbae7a18f	-0.001767205
176	0xbcd41618	-0.025889441
177	0x3c9d3147	0.019188536
178	0xbd739d6e	-0.05947631
179	0x3c473384	0.012158278
180	0xbca5e52f	-0.020250885
181	0x3d716114	0.05893047
182	0xbcde1211	-0.027108224
183	0xbd023a0f	-0.03179365
184	0xbcb2c61b	-0.02182298
185	0x3d4ad4a9	0.049519215
186	0x3c1682f5	0.009186496
187	0xbaacb674	-0.0013176934
188	0x3ccfec75	0.025381306
189	0x3cde371e	0.027125891
190	0xbc138eed	-0.009006244
191	0xbd186325	-0.037203927
192	0xbd89aaf3	-0.06722059
193	0x3d36342e	0.044483356
194	0x3d606173	0.054780435
195	0xbcdbef06	-0.026847374
196	0xbcc73fd0	-0.02432242
197	0x3c466db4	0.012111116
198	0x3b0f2d1f	0.0021846963
199	0x3d5cea8e	0.053934626
200	0xba9f628b	-0.0012160105
201	0xbced8564	-0.02899427
202	0xbce73f5d	-0.028228456
203	0x3cbbd830	0.022930235
204	0xbbfb126a	-0.0076621072
205	0x3c87c110	0.016571552
206	0x3d2fe7f5	0.04294582
207	0x3cf4ce28	0.02988346
208	0x390c4b84	0.00013379572
209	0x3bed1cf9	0.00723612
210	0xbd1152d3	-0.035479378
211	0x3d81e908	0.06343275
212	0x3d9fdd92	0.07805933
213	0x3c5c6f2f	0.013454243
214	0x3db5439a	0.088507846
215	0x3d92c5e5	0.07166652
216	0x3d256984	0.04038383
217	0x3d13e664	0.03610839
218	0x3ce3d0f3	0.027809596
219	0xbc49e2b2	-0.012322115
220	0x3be4bd20	0.0069805533
221	0x3d6a1307	0.057147052
222	0xbc17dce9	-0.009268978
223	0x3cb39665	0.0219223
224	0xbcb9b5e5	-0.022669742
225	0x3c3cddb1	0.011527465
226	0x3d271a74	0.040796712
227	0x3c55a62a	0.013040105
228	0x3d0cc968	0.034371763
229	0x3d08e85e	0.033424728
230	0xbbd3a448	-0.006458793
231	0x3d82ff5e	0.06396364
232	0xbcd149a9	-0.02554782
233	0x3d883054	0.06649843
234	0xbd68a1d5	-0.05679496
235	0xbbdb76f2	-0.006697529
236	0xbd6ee88d	-0.058327246
237	0x3bcbe659	0.006222528
238	0x3d5bd84b	0.05367307
239	0xbd44a5b7	-0.0480096
240	0x3c969988	0.018383756
241	0x3c89d34a	0.016824383
242	0xbd75e5c1	-0.060033564
243	0xbb34c652	-0.0027584028
244	0xbc07206a	-0.008247474
245	0xbd0b8c1e	-0.034069173
246	0xbccde205	-0.025132189
247	0x3cb46e54	0.022025265
248	0xbbec3530	-0.007208489
249	0xbc6418da	-0.013921941
250	0xbcb17ce5	-0.021666
251	0x3bed2852	0.0072374726
252	0xbc2b5d41	-0.010459245
253	0xbd2c5df0	-0.042081773
254	0x3cf58450	0.029970318
255	0xba881c24	-0.0010384363

fc1.weight f4 [128, 74]
0	0x3d1f553c	0.038899645
1	0x3bf0a6cb	0.007344102
2	0x3d1e45bc	0.038640723
3	0xbc9d73cc	-0.019220255
4	0x3d01ca11	0.031686846
5	0xbb06fdf3	-0.0020598143
6	0x3d0a716a	0.033799566
7	0x3d0fc9e3	0.035104644
8	0x3c0d2a43	0.008616033
9	0xbbb3b342	-0.0054840157
10	0x3d0297c1	0.031883005
11	0xbc8cab31	-0.017171474
12	0x3c2b4b8e	0.010455025
13	0x3bb1c15a	0.0054246606
14	0xbc9170c4	-0.017753966
15	0x3bf7f46b	0.0075669787
16	0xbca89b8e	-0.020581987
17	0x3d38e17e	0.04513692
18	0xbd0acdc4	-0.03388764
19	0xbce63496	-0.028101247
20	0x3c8e106e	0.017341819
21	0x3cb95a63	0.022626108
22	0x3ab228d7	0.0013592493
23	0xbcc14709	-0.023593443
24	0x3d00932d	0.031390358
25	0x3cf13ea4	0.029448815
26	0x3c86bef4	0.016448475
27	0xbc8ed0b1	-0.017433496
28	0x39106f19	0.00013774297
29	0xbc8915bb	-0.016733995
30	0xbcc84811	-0.024448426
31	0xbc8d76fc	-0.01726865
32	0x3c3d6f8a	0.0115622375
33	0x3c5d9a0e	0.013525499
34	0x3d844cdd	0.06459973
35	0xbc351661	-0.011052699
36	0x3bc5440a	0.006020074
37	0xbd0bdc6d	-0.03414576
38	0x3b7f9605	0.003899933
39	0x3d15a35f	0.036532756
40	0xbce037da	-0.027370382
41	0x3c820b14	0.015874423
42	0xbc66e126	-0.0140917655
43	0xbc57b671	-0.013166056
44	0xbcd3fb90	-0.02587679
45	0x3d1fc89e	0.039009683
46	0x3bf71d2e	0.0075413203
47	0xb997f3da	-0.00028982648
48	0xbce839e4	-0.028347917
49	0x3cbae99a	0.022816468
50	0x3beae402	0.007168294
51	0x3ba51324	0.005037682
52	0x3d260b3f	0.04053807
53	0x3c137118	0.008999132
54	0xbd3c11fa	-0.04591558
55	0xbd370368	-0.044680983
56	0xbceb3a40	-0.0287143
57	0xbd05d4b3	-0.03267355
58	0xbc804712	-0.015658889
59	0x3c9208c8	0.017826453
60	0x3c71aaf8	0.014750235
61	0xbcb38ea9	-0.021918612
62	0x3d46ee77	0.04856726
63	0xbd3353b0	-0.043780982
64	0xbeb322f4	-0.34987605
65	0x3ce4d014	0.02793125
66	0xbcaa7ba0	-0.020810902
67	0xbde8aaed	-0.113607265
68	0xbe4a755e	-0.19771335
69	0xbecc5a76	-0.39912766
70	0xbd5351fa	-0.05159185
71	0x3df99b99	0.12187881
72	0xbdd33eca	-0.103147104
73	0xbd7c3a0e	-0.061578803
74	0xbd137b7b	-0.036006432
75	0xbd191f70	-0.037383497
76	0xbb9eb7ae	-0.0048436737
77	0x3d3f36d9	0.046683166
78	0xbd05c1ce	-0.03265553
79	0x3d702ce8	0.058636576
80	0xbd08fb84	-0.03344299
81	0xba8a5a52	-0.0010555482
82	0xbb7fa51c	-0.0039008325
83	0xbc458cdb	-0.012057508
84	0xbbfe5536	-0.007761623
85	0xbd53a348	-0.05166939
86	0x3c944a72	0.018101905
87	0xba90a81e	-0.0011036431
88	0xbdc4883a	-0.09596296
89	0x3905150a	0.00012691706
90	0xbf73aa71	-0.9518195
91	0x3b721880	0.0036940873
92	0xbc973237	-0.018456561
93	0x3d990f21	0.07473589
94	0x3fccf69e	1.6012762
95	0xbbbdf888	-0.0057974495
96	0x3c9a64bc	0.018846862
97	0xbc04a54b	-0.00809605
98	0x3cb809df	0.022465644
99	0x3ca79ee7	0.020461513
100	0xbd386747	-0.045020368
101	0x3c38e109	0.011284121
102	0xba8e1061	-0.0010838622
103	0xbc568e79	-0.013095492
104	0xbc6d579c	-0.01448622
105	0xbc1d0a57	-0.009584985
106	0xbf6f2fca	-0.93432295
107	0x3d0b3e9f	0.033995267
108	0xbc40fc2c	-0.011778872
109	0x3b8f84cc	0.0043798443
110	0xbd9838c6	-0.07432704
111	0x3cf5c3af	0.030000536
112	0x3b37c831	0.0028042907
113	0x3cc82a1b	0.02443414
114	0x3c05ea21	0.008173496
115	0x3d114423	0.03546537
116	0x3c91db4b	0.017804762
117	0x3f10b2af	0.5652265
118	0x3c343b50	0.011000469
119	0x3c3d2dd8	0.0115465745
120	0x382c6e4e	4.1110725e-05
121	0xba9622d2	-0.0011454469
122	0x3d0671e0	0.032823443
123	0x3c3aa446	0.011391705
124	0x3cc28417	0.023744626
125	0x3f0996af	0.5374555
126	0xbc57b471	-0.013165579
127	0x3c8c8ebc	0.017157905
128	0xbcc4b308	-0.02401115
129	0x3c9b956b	0.018992146
130	0xbd16728a	-0.036730327
131	0xbd3d4177	-0.04620501
132	0x3c47360b	0.012158881
133	0x3d123c57	0.035702076
134	0x3b5d9e29	0.0033816195
135	0xbe6b7948	-0.22995484
136	0x3a8d3e3a	0.0010775991
137	0xbca61d38	-0.020277604
138	0x3eb38461	0.35061935
139	0x3ccb7606	0.024836551
140	0xc0615c55	-3.5212605
141	0x41b0fa61	22.122255
142	0x3ffc74ba	1.9723122
143	0x40a645ed	5.196036
144	0x3d031bc5	0.032008905
145	0x40aff22a	5.498311
146	0xbca65b01	-0.020307066
147	0xbc3536e3	-0.011060449
148	0xbccfe924	-0.025379725
149	0x3cd0d231	0.025490852
150	0xbcdd23c9	-0.026994603
151	0xbd3e1e9d	-0.046415914
152	0x3c87a9cc	0.016560458
153	0xbca1d2c0	-0.019753814
154	0xbd052c3a	-0.03251288
155	0x3d1a9928	0.037743717
156	0xbb69c7a1	-0.0035671967
157	0xbcf333bf	-0.02968776
158	0x3cae836c	0.021302901
159	0x3d1f8309	0.038943324
160	0x3ca1ff82	0.019775156
161	0x3d1102d2	0.03540308
162	0xbbf1fb34	-0.007384682
163	0x3c84be9a	0.016204167
164	0xbc887ec5	-0.01666201
165	0xbcb5826c	-0.022156917
166	0xbc142c2c	-0.0090437345
167	0x3b000ce1	0.0019538926
168	0xbb6964f5	-0.0035613154
169	0xbce08e3e	-0.027411576
170	0xbc883861	-0.016628446
171	0x3bf41caa	0.007449706
172	0xbb3d77a4	-0.0028910423
173	0xbcbf20c1	-0.023331048
174	0xbc81cb2b	-0.015843948
175	0x3a39a893	0.00070823095
176	0xbbe4b792	-0.006979891
177	0x3c1c5b7c	0.009543296
178	0x3cb3aaf4	0.021932103
179	0x3c4d6f41	0.012538732
180	0x3c7226ea	0.014779786
181	0x3c344ac1	0.011004151
182	0x3b8d0ff5	0.0043048807
183	0xbc418316	-0.0118110385
184	0x3ce075a8	0.027399853
185	0xbd10b2eb	-0.03532688
186	0x3cb10aac	0.021611534
187	0x3cdc09da	0.026860166
188	0xbd0b7113	-0.034043383
189	0x3c6910e3	0.0142252175
190	0x3c77bad4	0.015120227
191	0x3ca0e255	0.019639174
192	0xbd06df1e	-0.032927625
193	0x3d3b7bcf	0.04577237
194	0xbc5b159a	-0.013371849
195	0x3b3a251e	0.0028403471
196	0xbc22fb53	-0.009947616
197	0x3caa92b5	0.020821908
198	0x3c13e521	0.009026797
199	0xbc26677d	-0.0101565095
200	0xbd033779	-0.032035325
201	0x3c9dad6e	0.019247737
202	0xbb9939c4	-0.0046760757
203	0x3b0ce1a9	0.0021496809
204	0xbceb8de9	-0.028754191
205	0xba9151b2	-0.0011086969
206	0xbb764a78	-0.0037581008
207	0x3c8a9c89	0.016920345
208	0x3d30e575	0.043187577
209	0xbd271be5	-0.040798087
210	0x3ccb7c94	0.024839677
211	0xbcd3f1f4	-0.025872208
212	0x3e10022d	0.1406333
213	0xbc06d03a	-0.008228356
214	0x3e2429a3	0.16031508
215	0xbfa987aa	-1.3244526
216	0x3dd0dfbc	0.10198924
217	0xbd149848	-0.03627804
218	0xbd29b48d	-0.041431952
219	0xbe8e0ebc	-0.27745616
220	0x3c6c3a76	0.014418235
221	0xbc700967	-0.014650679
222	0x3d1dff3e	0.038573496
223	0xbd202ef5	-0.03910728
224	0xbcd7c281	-0.026337864
225	0x3b31fc28	0.0027158353
226	0xbbe1c17f	-0.0068895216
227	0x3c8fd5a8	0.017557934
228	0xbcd65204	-0.026162155
229	0x3d43fbf9	0.04784772
230	0x3d087746	0.033316873
231	0x3cfc4d25	0.030798504
232	0xbc08234b	-0.008309196
233	0xbc811e4d	-0.015761519
234	0xba07a88a	-0.00051749556
235	0x3d0fd04d	0.03511076
236	0xbdce918c	-0.100863546
237	0x3d1c832a	0.038211025
238	0xbd02c0f8	-0.03192231
239	0x3cb84df5	0.02249811
240	0x3b3fdc75	0.002927569
241	0xbd318885	-0.043343086
242	0x3dbf35ff	0.09336471
243	0xb904c6a6	-0.00012662503
244	0xbb294195	-0.0025826443
245	0xbbd98a47	-0.0066387984
246	0x3c4927de	0.0122775715
247	0xbbfcbf02	-0.0077131996
248	0xbc041c47	-0.0080633825
249	0xbc6ab1b5	-0.014324595
250	0x3ca1cc2e	0.01975068
251	0xbd6c3846	-0.057670854
252	0xbc33f9ad	-0.01098482
253	0x3b51a03f	0.0031986383
254	0xbd1aad0e	-0.037762694
255	0xbc46b04d	-0.012126994

fc1.bias f4 [128]
0	0xbd5d23fc	-0.053989395
1	0x3d4de2ad	0.050265003
2	0x3c939d56	0.01801936
3	0xbe100a1e	-0.1406636
4	0x3ce4f198	0.027947232
5	0x3d579387	0.052630927
6	0x3c875fd4	0.016525187
7	0xbd00e353	-0.031466793
8	0xbcda2cda	-0.026632715
9	0xbd4e72a6	-0.050402306
10	0x3d2690b1	0.040665332
11	0xbc37d8d9	-0.011221134
12	0xbc5f2581	-0.0136197815
13	0xbc4b6fa7	-0.012416757
14	0xbcb23204	-0.021752365
15	0x3c943543	0.018091803
16	0xbd86b8cf	-0.06578218
17	0xbe7a28c2	-0.2442961
18	0xbc2216fe	-0.009893177
19	0xbdb1ed90	-0.086878896
20	0xbda6b1ab	-0.08139356
21	0x3c3a5c83	0.011374596
22	0xbd20e962	-0.03928507
23	0x3d42189c	0.04738675
24	0x3dee9103	0.116487525
25	0x3ddbd47d	0.10733888
26	0xbd9c6d85	-0.07638077
27	0x3bba09ce	0.0056774383
28	0x3d1720f3	0.036896657
29	0xbe6997e3	-0.22811846
30	0xbea11d16	-0.31467503
31	0xbd086eae	-0.033308677
32	0xbdb1029a	-0.08643074
33	0xbe1209b1	-0.1426151
34	0xbd54bbad	-0.051936794
35	0xbd9c0aff	-0.07619285
36	0xbd28b31d	-0.04118644
37	0xbd0a3df7	-0.0337505
38	0xbe00f4e5	-0.1259342
39	0x3e46cce7	0.19414102
40	0xbdffbb76	-0.12486927
41	0xbdb02c7f	-0.08602237
42	0xbd673f7f	-0.05645704
43	0xb9c213a1	-0.00037017188
44	0xbbe1e022	-0.006893174
45	0x3dcbcd31	0.099512465
46	0xb8d3fa58	-0.00010107894
47	0xbe0df123	-0.13861518
48	0xbdff404c	-0.124634355
49	0x3cb0018e	0.021485116
50	0x3d0d5e61	0.034513835
51	0xbd23e18d	-0.040010024
52	0x3c69e48a	0.014275679
53	0xbdc16ecf	-0.09444963
54	0xbe243ad2	-0.16038063
55	0xbd5c7713	-0.053824496
56	0xbd8ac5e4	-0.06776026
57	0xbccf23a8	-0.025285557
58	0xbdb43e32	-0.08800925
59	0xbb42b297	-0.0029708499
60	0xbd1728a0	-0.036903977
61	0x3cf34cad	0.029699648
62	0xbd00e677	-0.03146979
63	0xbda0c260	-0.07849574
64	0xbe03b957	-0.1286367
65	0x3d1a313e	0.037644617
66	0x3dcfb3df	0.101417296
67	0x3c8d48c9	0.01724662
68	0x39a8853d	0.00032142727
69	0x3cf30faa	0.029670555
70	0xbdce0c45	-0.10060934
71	0x3d01ed76	0.0317206
72	0xbb9a27bd	-0.004704444
73	0xbcde2a71	-0.027119847
74	0xbd1c7de9	-0.038206015
75	0xbe1ca420	-0.15296984
76	0x3b203ad2	0.0024449122
77	0x3ba2670a	0.004956131
78	0xbb3ad2b6	-0.002850694
79	0xbd951b8c	-0.07280645
80	0x3b592594	0.003313397
81	0x3e09d9b0	0.13461947
82	0xbd8b22f8	-0.06793779
83	0x3d53bb05	0.051692028
84	0xbd9ecae9	-0.07753546
85	0xbddda73e	-0.108229145
86	0x3d0292c7	0.03187826
87	0xbd9d8919	-0.07692165
88	0xbcadad12	-0.02120069
89	0xbce93e8b	-0.028472206
90	0xbb299f0a	-0.0025882148
91	0xbd2a4d6d	-0.041577745
92	0xbd7e8af3	-0.06214423
93	0xbe13879e	-0.14407203
94	0xbcbd4823	-0.023105687
95	0xbb04c875	-0.0020261083
96	0xbb1c0de1	-0.0023811983
97	0xbc77d9bd	-0.015127596
98	0xbcb6e2a2	-0.022324864
99	0x3c68cbf1	0.01420878
100	0xbc90bb68	-0.017667487
101	0xbded8633	-0.11597862
102	0xbcbd7178	-0.023125395
103	0xbc6eb3b1	-0.014569209
104	0xbe6e08a6	-0.23245487
105	0xbd744a84	-0.059641376
106	0xbbdced80	-0.0067421794
107	0xbcc25b76	-0.023725253
108	0xbc4c5a79	-0.012472742
109	0xbe2ab937	-0.16672216
110	0xbe2917e9	-0.16513027
111	0xbc8aa2c8	-0.016923323
112	0x3c8072ed	0.0156798
113	0xbbe981be	-0.007126062
114	0xbe116fb7	-0.14202772
115	0x3b41ae44	0.0029553333
116	0xbd06d63e	-0.03291916
117	0x3b4aee41	0.0030964764
118	0xbe03568c	-0.12825984
119	0x3d0f0a8b	0.034922164
120	0xbd3f9168	-0.04676953
121	0x3cd9c89f	0.026584921
122	0xbc43d34c	-0.011952233
123	0xbd253433	-0.040332984
124	0xbe34e283	-0.17664532
125	0x3d347b5c	0.044062957
126	0xbd8e9a5d	-0.06963036
127	0xbd1b6f74	-0.037948087

fc2.weight f4 [64, 128]
0	0xbb82f47c	-0.00399643
1	0x3e8d091e	0.27546018
2	0xbd007991	-0.031365935
3	0x3d39e4c5	0.045384187
4	0xbc8186b8	-0.01581131
5	0xbd630927	-0.05542865
6	0x3d4adcec	0.049527094
7	0xbd8da4b0	-0.06916177
8	0xbd264702	-0.040595062
9	0x3d704d75	0.05866762
10	0xbd0c6ec3	-0.034285318
11	0x3d5a4004	0.053283706
12	0x3cc8e77c	0.024524443
13	0xbd16dfcb	-0.03683452
14	0xbc852774	-0.016254164
15	0x3b097454	0.0020973878
16	0x3af0c520	0.0018369295
17	0x3dfaa8c2	0.12239219
18	0x3a64395e	0.0008706058
19	0x3d5bfc8d	0.053707648
20	0xbcb19d90	-0.021681577
21	0x3c34d709	0.0110375965
22	0x3aa6d7a5	0.0012729062
23	0xbc90b2ee	-0.017663445
24	0xbd27e98d	-0.040994216
25	0x3cc9f30a	0.024652023
26	0x3d92a42e	0.07160221
27	0xbd29c610	-0.041448653
28	0x3d03cf75	0.03218027
29	0xbe0856e3	-0.13314395
30	0xbdf265e7	-0.118358426
31	0xbc5cad7e	-0.013469098
32	0x3bf3648a	0.0074277567
33	0x3d1f2f47	0.038863447
34	0xbc616104	-0.0137560405
35	0x3c0757f0	0.008260712
36	0xbc7d9b1c	-0.0154788755
37	0xbcb3be75	-0.021941403
38	0x3cf59f6c	0.029983245
39	0x3e6abb3b	0.22922985
40	0x3da75ebe	0.081723675
41	0x3d08ff71	0.033446733
42	0xbc828908	-0.015934482
43	0xbc2ab7de	-0.010419814
44	0xbc8c397e	-0.017117258
45	0xbc9eb6b4	-0.019374229
46	0x3c643327	0.013928211
47	0xbcf11008	-0.02942659
48	0xbb9c38ee	-0.0047675287
49	0xbc042bca	-0.008067081
50	0x3bfa6b72	0.007642203
51	0xbd0c867d	-0.034307946
52	0xbd3561ea	-0.04428283
53	0xbcaf8dea	-0.021429975
54	0x3d7f985b	0.062401157
55	0xb99a63a5	-0.0002944741
56	0x3da4a3a3	0.08039024
57	0xbb872b7d	-0.0041250573
58	0xbd727570	-0.05919403
59	0xbab99819	-0.0014159709
60	0x3bfb783b	0.0076742447
61	0x3c767779	0.015043133
62	0x3cfc0fa3	0.030769175
63	0x3dac7d83	0.08422377
64	0x3cbe90d4	0.023262419
65	0x3b9053c2	0.004404516
66	0xbc7a999d	-0.015295413
67	0x3d65bae5	0.05608644
68	0x3cd26566	0.025683116
69	0xbd2f464f	-0.04279166
70	0x3dd13328	0.102148354
71	0x3c41c6e1	0.011827202
72	0xbca6c60d	-0.02035811
73	0xbb4beafd	-0.0031115406
74	0xbbeb0d3e	-0.0071732095
75	0x3d053577	0.03252169
76	0xbcfaa987	-0.030598415
77	0xbcdb96dd	-0.026805336
78	0x3d4bc265	0.049745936
79	0x3aa439cf	0.0012529435
80	0x3d601c87	0.054714706
81	0x3da86b2f	0.08223569
82	0x3c43f222	0.011959584
83	0xbd2b247b	-0.041782837
84	0xbdd7cabe	-0.10536717
85	0x3d2f3813	0.042778086
86	0x3cce6247	0.025193347
87	0x3da48fa9	0.080352135
88	0xbc795e82	-0.015220286
89	0xbcc10520	-0.023562014
90	0xbc99e730	-0.018786997
91	0xbbd1b9ab	-0.006400307
92	0xbbe36c72	-0.006940418
93	0x3be00241	0.006836206
94	0x3d1b1117	0.037858095
95	0xbba6cbc5	-0.005090209
96	0x3d05ec95	0.032696325
97	0xbc6466f9	-0.013940566
98	0xbc15c7ad	-0.009141845
99	0xbacc3920	-0.001558099
100	0x3d0a0d60	0.03370416
101	0x3cc694b9	0.024240838
102	0x3d7e83ba	0.062137343
103	0xbc4e1218	-0.012577556
104	0xbdad6d07	-0.08468061
105	0x3d0f1a8c	0.034937426
106	0x3c0110dc	0.007877555
107	0xbd8a7c70	-0.06762016
108	0xbc60e7bc	-0.013727125
109	0xbf1db92e	-0.61610687
110	0xbc499b3a	-0.012305075
111	0x3cf142e9	0.02945085
112	0xbdb2b3a9	-0.08725674
113	0xbd0a47fc	-0.033760056
114	0x3c66693c	0.014063176
115	0xbd3ec66c	-0.04657595
116	0xbbb41715	-0.0054959157
117	0xbd41a1d7	-0.047273483
118	0x3d948a0b	0.07252892
119	0xbad6357d	-0.0016342845
120	0x3c829c4c	0.015943669
121	0x3c18dc38	0.009329848
122	0x3c65b000	0.014019012
123	0xbc925c26	-0.017866205
124	0x3cd1a647	0.025591983
125	0x3cf7c3da	0.030244756
126	0x3d9348bb	0.071916066
127	0x3ab138b8	0.0013520932
128	0xbd4f54a6	-0.050617836
129	0xbf6d886f	-0.92786306
130	0x3d3e4b9e	0.046458833
131	0x3d8d21af	0.0689119
132	0x3bb2fca5	0.0054622465
133	0x3d3e0bf7	0.04639813
134	0x3dbd7211	0.09250272
135	0xbb530bc0	-0.0032203048
136	0x3d38cbcf	0.045116242
137	0x3d91ad30	0.07113111
138	0x3ce4ae62	0.027915183
139	0x3ca45772	0.020061228
140	0x3d9f8c1e	0.07790397
141	0x3c929e30	0.017897695
142	0x3d6d8e39	0.057996962
143	0x3db0a438	0.08625072
144	0x3d9b8c7f	0.07595157
145	0x3dbaeabb	0.091268025
146	0x3d93fac6	0.072255656
147	0x3da2d92f	0.07951581
148	0x3d632ebe	0.0554645
149	0x3b4abfd1	0.0030937085
150	0x3c461cff	0.012091874
151	0x3ce049fe	0.027379032
152	0xbc6c7e4e	-0.01443441
153	0x3d2f634b	0.042819303
154	0x3e158ecf	0.14605258
155	0x3c9539fe	0.01821613
156	0x3cea5425	0.028604576
157	0x3e868ade	0.26277822
158	0x3e4766c5	0.19472797
159	0x3dbba620	0.09162545
160	0x3d4d15be	0.050069563
161	0xbdf1baf1	-0.11803234
162	0x3d9cdf71	0.076598056
163	0x3d8f77ab	0.07005247
164	0x3d8e70d1	0.06955112
165	0x3d211703	0.039328586
166	0x3da7c7ec	0.08192429
167	0xbe7c33dd	-0.2462916
168	0x3d001a35	0.031274993
169	0x3da373a9	0.07981045
170	0x3ce5ea75	0.0280659
171	0x3dad6e80	0.08468342
172	0x3c087c2b	0.008330385
173	0xbf00e4b0	-0.5034895
174	0x3dab1982	0.083544746
175	0x3c7d6c29	0.015467682
176	0xbd2d430c	-0.04230027
177	0x3d9f141a	0.07767506
178	0x3cc6e3c8	0.024278536
179	0x3c807c2d	0.015684212
180	0x3c43bbae	0.011946602
181	0x3c0c4c9e	0.008563189
182	0x3d7ad56f	0.061238702
183	0x3c90024e	0.017579224
184	0x3dd6962f	0.10477864
185	0x3d1064c0	0.035252333
186	0x3e3b2e41	0.18279363
187	0x3c50127c	0.0126997195
188	0x3d4240e8	0.04742518
189	0x3cd98f60	0.026557624
190	0x3df50928	0.11964637
191	0x3dcc0188	0.099612296
192	0x3d48376e	0.048880987
193	0x3c68cd40	0.014209092
194	0x3d9b62b6	0.07587187
195	0x3d6a637b	0.05722378
196	0x3bdcd58f	0.0067393254
197	0xbd2b6b3a	-0.041850306
198	0x3d7941a7	0.060853627
199	0x3d98b2fd	0.07456014
200	0xbc617430	-0.013760611
201	0x3c278e3b	0.0102267815
202	0x3cb6ccbb	0.02231442
203	0xbc84cac2	-0.016209964
204	0x3beb58fb	0.007182238
205	0xbc9177bb	-0.017757287
206	0x3dc00e94	0.093777806
207	0x3d52069c	0.051275834
208	0xbd8181ea	-0.06323607
209	0xbe1c3ce8	-0.15257609
210	0x3d223e81	0.03961039
211	0x3cf8ba63	0.030362314
212	0x3e6c71f9	0.23090352
213	0x3d995b8c	0.07488164
214	0x3daca945	0.08430723
215	0x3ceff2fe	0.029290672
216	0x3cadb9dd	0.02120679
217	0xbd4d2869	-0.050087366
218	0x3bcdb720	0.0062779337
219	0xbcf4a6fd	-0.029864782
220	0x3d0852d4	0.033282116
221	0x3dd065c5	0.10175661
222	0x3e054ef4	0.130184
223	0x3b6b7162	0.0035925736
224	0x3d7402e4	0.05957307
225	0x3d50d26c	0.050981924
226	0x3d6c86a7	0.057745602
227	0x3d309db0	0.043119133
228	0x3d098c26	0.03358092
229	0x3d5b4265	0.053530116
230	0x3d94581c	0.07243368
231	0x3d24d882	0.04024554
232	0x3c3127f5	0.010812749
233	0x3dbabf1e	0.09118484
234	0x3d810106	0.06299023
235	0xbced2539	-0.028948413
236	0x3ba3c551	0.004997887
237	0x3f11337d	0.5671919
238	0x3dd7a949	0.105303355
239	0x3ddec4ae	0.108773574
240	0x3dc9a4a7	0.09845858
241	0x3c944f59	0.018104242
242	0x3d59a39e	0.053134553
243	0x3da87b09	0.08226592
244	0x3de9da4c	0.1141859
245	0xbbc4293c	-0.005986361
246	0xbd936687	-0.0719729
247	0x3d359d07	0.044339206
248	0x3d5092ae	0.050921135
249	0x3d263ce9	0.040585432
250	0x3d85f57e	0.065409645
251	0xbc640077	-0.013916126
252	0x3d4020ba	0.04690621
253	0x3d9b1915	0.075731434
254	0xbd62bf0a	-0.05535797
255	0x3d1f9ca7	0.038967755

fc2.bias f4 [64]
0	0xbededc87	-0.43527624
1	0xbbcef774	-0.00631612
2	0x3c503bbd	0.012709555
3	0xbf00dd63	-0.5033781
4	0xbd947e84	-0.072506934
5	0xbd6f04fd	-0.058354367
6	0x3eb08afc	0.34481037
7	0xbd77ac08	-0.060466796
8	0xbdba6002	-0.09100343
9	0xbe013988	-0.12619603
10	0xbe7e3156	-0.24823508
11	0xbdf36e2e	-0.118862495
12	0xbe4c3a3b	-0.19944088
13	0xbf1c25c5	-0.6099513
14	0xbe4b1a4d	-0.19834252
15	0xbbd9b626	-0.0066440282
16	0xbf0402d2	-0.51566803
17	0xbdb6fe18	-0.08935183
18	0xbeead2ec	-0.45864046
19	0xbe741eb1	-0.23839833
20	0xbeca232e	-0.39479965
21	0xbd2ab23e	-0.04167389
22	0xbf1be6ec	-0.60899234
23	0xbdbff51a	-0.09372921
24	0xbde88ed7	-0.113553695
25	0x3dbde652	0.09272446
26	0xbe048fec	-0.12945527
27	0xbda00092	-0.07812609
28	0xbf263b5d	-0.6493433
29	0xbdb492cf	-0.08817064
30	0xbcee65f6	-0.029101353
31	0xbc51e6f0	-0.012811407
32	0xbd561cca	-0.05227355
33	0xbdd4dc0b	-0.10393532
34	0xbe3f7349	-0.18696322
35	0xbefa745d	-0.48916903
36	0xbd4be057	-0.049774494
37	0xbcd00578	-0.025393233
38	0xbdfa51be	-0.12222622
39	0x3d385168	0.04499951
40	0xbdf7386d	-0.12071309
41	0xbd6021a7	-0.054719593
42	0xbf1b9935	-0.6078065
43	0xbd28345a	-0.04106555
44	0xbe688d6e	-0.22710201
45	0xbd57b3fb	-0.052661877
46	0xbf14a0fc	-0.5805814
47	0xbde2fea5	-0.11083726
48	0xbe5f1df1	-0.21788765
49	0xbd4a503f	-0.049392935
50	0x3eaeee9f	0.34166428
51	0xbea1fa62	-0.3163634
52	0xbf3c71ad	-0.73610955
53	0xbe1ab168	-0.15106738
54	0xbc65ad0f	-0.014018311
55	0xbe291046	-0.16510114
56	0xbf17a665	-0.5923827
57	0xbe95cf48	-0.29259706
58	0xbf320050	-0.69531727
59	0xbf062a74	-0.5240853
60	0xbddf557c	-0.10904977
61	0xbe03c31c	-0.12867397
62	0xbe944564	-0.2895919
63	0xbec66226	-0.38746756

fc3.weight f4 [1, 64]
0	0xbe2ac6ef	-0.1667745
1	0x3dfc691f	0.12324738
2	0x3c74c9ea	0.014940718
3	0xbe2014b2	-0.15632895
4	0xbcd74d64	-0.02628202
5	0xbaa21029	-0.0012364435
6	0xbe99aeac	-0.30016077
7	0xbcfa18af	-0.030529348
8	0xbb468db5	-0.0030296866
9	0xbd48d799	-0.049033735
10	0xbd87c7ea	-0.066299275
11	0xbcfcbae8	-0.030850843
12	0xbd2fdad5	-0.042933304
13	0xbe4d7699	-0.20064773
14	0x3d21f359	0.039538715
15	0xbb3cacbc	-0.002878948
16	0xbe199316	-0.14997515
17	0xbc8d5536	-0.017252546
18	0xbd1c1db8	-0.03811428
19	0xbd3e110c	-0.046402976
20	0x3cc14b90	0.023595601
21	0x3a9b46bd	0.0011846643
22	0xbe3a6456	-0.18202338
23	0xbcf3a2c6	-0.029740702
24	0xbc9236ba	-0.017848361
25	0xbde408ec	-0.11134514
26	0xbc23f5f4	-0.01000737
27	0xbc83744c	-0.016046666
28	0xbe9415d5	-0.28922907
29	0x3bb9193a	0.005648759
30	0xbae7326b	-0.0017638927
31	0xbb193fad	-0.00233839
32	0xbb178d12	-0.0023124856
33	0xbd192910	-0.037392676
34	0xbbdd427c	-0.0067523103
35	0xbd296202	-0.041353233
36	0xbc7a4536	-0.01527529
37	0xbc89da4c	-0.016827725
38	0xbcfc1e3f	-0.030776141
39	0x3bb9e3cd	0.005672908
40	0x3a3d2708	0.0007215594
41	0xbd863e3c	-0.06554839
42	0xbe69fd8a	-0.22850624
43	0xbd012887	-0.03153279
44	0x3d72d1fc	0.059282288
45	0xbcc15378	-0.023599371
46	0xbe11ef00	-0.14251328
47	0xba5ff51c	-0.0008543299
48	0xbd5d2ec0	-0.053999662
49	0x3a47b76c	0.00076185795
50	0x3c22f7e7	0.0099468
51	0xbda657a8	-0.08122188
52	0xbedc32af	-0.4300742
53	0xbd4cca70	-0.049997747
54	0xbb13f1ee	-0.0022574621
55	0xbc1a3432	-0.009411858
56	0xbe6d84ac	-0.23195142
57	0xbe003c28	-0.12522948
58	0xbea93fd9	-0.33056524
59	0xbcfc93fc	-0.030832283
60	0xbd5bb7ef	-0.05364221
61	0x398f0ed9	0.00027286148
62	0xbd7e23c1	-0.062045816
63	0xbe1d1063	-0.15338282

bn1.weight f4 [128]
0	0x3f800000	1.0
1	0x3f800000	1.0
2	0x3f800000	1.0
3	0x3f800000	1.0
4	0x3f800000	1.0
5	0x3f800000	1.0
6	0x3f800000	1.0
7	0x3f800000	1.0
8	0x3f800000	1.0
9	0x3f800000	1.0
10	0x3f800000	1.0
11	0x3f800000	1.0
12	0x3f800000	1.0
13	0x3f800000	1.0
14	0x3f800000	1.0
15	0x3f800000	1.0
16	0x3f800000	1.0
17	0x3f800000	1.0
18	0x3f800000	1.0
19	0x3f800000	1.0
20	0x3f800000	1.0
21	0x3f800000	1.0
22	0x3f800000	1.0
23	0x3f800000	1.0
24	0x3f800000	1.0
25	0x3f800000	1.0
26	0x3f800000	1.0
27	0x3f800000	1.0
28	0x3f800000	1.0
29	0x3f800000	1.0
30	0x3f800000	1.0
31	0x3f800000	1.0
32	0x3f800000	1.0
33	0x3f800000	1.0
34	0x3f800000	1.0
35	0x3f800000	1.0
36	0x3f800000	1.0
37	0x3f800000	1.0
38	0x3f800000	1.0
39	0x3f800000	1.0
40	0x3f800000	1.0
41	0x3f800000	1.0
42	0x3f800000	1.0
43	0x3f800000	1.0
44	0x3f800000	1.0
45	0x3f800000	1.0
46	0x3f800000	1.0
47	0x3f800000	1.0
48	0x3f800000	1.0
49	0x3f800000	1.0
50	0x3f800000	1.0
51	0x3f800000	1.0
52	0x3f800000	1.0
53	0x3f800000	1.0
54	0x3f800000	1.0
55	0x3f800000	1.0
56	0x3f800000	1.0
57	0x3f800000	1.0
58	0x3f800000	1.0
59	0x3f800000	1.0
60	0x3f800000	1.0
61	0x3f800000	1.0
62	0x3f800000	1.0
63	0x3f800000	1.0
64	0x3f800000	1.0
65	0x3f800000	1.0
66	0x3f800000	1.0
67	0x3f800000	1.0
68	0x3f800000	1.0
69	0x3f800000	1.0
70	0x3f800000	1.0
71	0x3f800000	1.0
72	0x3f800000	1.0
73	0x3f800000	1.0
74	0x3f800000	1.0
75	0x3f800000	1.0
76	0x3f800000	1.0
77	0x3f800000	1.0
78	0x3f800000	1.0
79	0x3f800000	1.0
80	0x3f800000	1.0
81	0x3f800000	1.0
82	0x3f800000	1.0
83	0x3f800000	1.0
84	0x3f800000	1.0
85	0x3f800000	1.0
86	0x3f800000	1.0
87	0x3f800000	1.0
88	0x3f800000	1.0
89	0x3f800000	1.0
90	0x3f800000	1.0
91	0x3f800000	1.0
92	0x3f800000	1.0
93	0x3f800000	1.0
94	0x3f800000	1.0
95	0x3f800000	1.0
96	0x3f800000	1.0
97	0x3f800000	1.0
98	0x3f800000	1.0
99	0x3f800000	1.0
100	0x3f800000	1.0
101	0x3f800000	1.0
102	0x3f800000	1.0
103	0x3f800000	1.0
104	0x3f800000	1.0
105	0x3f800000	1.0
106	0x3f800000	1.0
107	0x3f800000	1.0
108	0x3f800000	1.0
109	0x3f800000	1.0
110	0x3f800000	1.0
111	0x3f800000	1.0
112	0x3f800000	1.0
113	0x3f800000	1.0
114	0x3f800000	1.0
115	0x3f800000	1.0
116	0x3f800000	1.0
117	0x3f800000	1.0
118	0x3f800000	1.0
119	0x3f800000	1.0
120	0x3f800000	1.0
121	0x3f800000	1.0
122	0x3f800000	1.0
123	0x3f800000	1.0
124	0x3f800000	1.0
125	0x3f800000	1.0
126	0x3f800000	1.0
127	0x3f800000	1.0

bn1.bias f4 [128]
0	0x00000000	0.0
1	0x00000000	0.0
2	0x00000000	0.0
3	0x00000000	0.0
4	0x00000000	0.0
5	0x00000000	0.0
6	0x00000000	0.0
7	0x00000000	0.0
8	0x00000000	0.0
9	0x00000000	0.0
10	0x00000000	0.0
11	0x00000000	0.0
12	0x00000000	0.0
13	0x00000000	0.0
14	0x00000000	0.0
15	0x00000000	0.0
16	0x00000000	0.0
17	0x00000000	0.0
18	0x00000000	0.0
19	0x00000000	0.0
20	0x00000000	0.0
21	0x00000000	0.0
22	0x00000000	0.0
23	0x00000000	0.0
24	0x00000000	0.0
25	0x00000000	0.0
26	0x00000000	0.0
27	0x00000000	0.0
28	0x00000000	0.0
29	0x00000000	0.0
30	0x00000000	0.0
31	0x00000000	0.0
32	0x00000000	0.0
33	0x00000000	0.0
34	0x00000000	0.0
35	0x00000000	0.0
36	0x00000000	0.0
37	0x00000000	0.0
38	0x00000000	0.0
39	0x00000000	0.0
40	0x00000000	0.0
41	0x00000000	0.0
42	0x00000000	0.0
43	0x00000000	0.0
44	0x00000000	0.0
45	0x00000000	0.0
46	0x00000000	0.0
47	0x00000000	0.0
48	0x00000000	0.0
49	0x00000000	0.0
50	0x00000000	0.0
51	0x00000000	0.0
52	0x00000000	0.0
53	0x00000000	0.0
54	0x00000000	0.0
55	0x00000000	0.0
56	0x00000000	0.0
57	0x00000000	0.0
58	0x00000000	0.0
59	0x00000000	0.0
60	0x00000000	0.0
61	0x00000000	0.0
62	0x00000000	0.0
63	0x00000000	0.0
64	0x00000000	0.0
65	0x00000000	0.0
66	0x00000000	0.0
67	0x00000000	0.0
68	0x00000000	0.0
69	0x00000000	0.0
70	0x00000000	0.0
71	0x00000000	0.0
72	0x00000000	0.0
73	0x00000000	0.0
74	0x00000000	0.0
75	0x00000000	0.0
76	0x00000000	0.0
77	0x00000000	0.0
78	0x00000000	0.0
79	0x00000000	0.0
80	0x00000000	0.0
81	0x00000000	0.0
82	0x00000000	0.0
83	0x00000000	0.0
84	0x00000000	0.0
85	0x00000000	0.0
86	0x00000000	0.0
87	0x00000000	0.0
88	0x00000000	0.0
89	0x00000000	0.0
90	0x00000000	0.0
91	0x00000000	0.0
92	0x00000000	0.0
93	0x00000000	0.0
94	0x00000000	0.0
95	0x00000000	0.0
96	0x00000000	0.0
97	0x00000000	0.0
98	0x00000000	0.0
99	0x00000000	0.0
100	0x00000000	0.0
101	0x00000000	0.0
102	0x00000000	0.0
103	0x00000000	0.0
104	0x00000000	0.0
105	0x00000000	0.0
106	0x00000000	0.0
107	0x00000000	0.0
108	0x00000000	0.0
109	0x00000000	0.0
110	0x00000000	0.0
111	0x00000000	0.0
112	0x00000000	0.0
113	0x00000000	0.0
114	0x00000000	0.0
115	0x00000000	0.0
116	0x00000000	0.0
117	0x00000000	0.0
118	0x00000000	0.0
119	0x00000000	0.0
120	0x00000000	0.0
121	0x00000000	0.0
122	0x00000000	0.0
123	0x00000000	0.0
124	0x00000000	0.0
125	0x00000000	0.0
126	0x00000000	0.0
127	0x00000000	0.0

bn1.running_mean f4 [128]
0	0x00000000	0.0
1	0x00000000	0.0
2	0x00000000	0.0
3	0x00000000	0.0
4	0x00000000	0.0
5	0x00000000	0.0
6	0x00000000	0.0
7	0x00000000	0.0
8	0x00000000	0.0
9	0x00000000	0.0
10	0x00000000	0.0
11	0x00000000	0.0
12	0x00000000	0.0
13	0x00000000	0.0
14	0x00000000	0.0
15	0x00000000	0.0
16	0x00000000	0.0
17	0x00000000	0.0
18	0x00000000	0.0
19	0x00000000	0.0
20	0x00000000	0.0
21	0x00000000	0.0
22	0x00000000	0.0
23	0x00000000	0.0
24	0x00000000	0.0
25	0x00000000	0.0
26	0x00000000	0.0
27	0x00000000	0.0
28	0x00000000	0.0
29	0x00000000	0.0
30	0x00000000	0.0
31	0x00000000	0.0
32	0x00000000	0.0
33	0x00000000	0.0
34	0x00000000	0.0
35	0x00000000	0.0
36	0x00000000	0.0
37	0x00000000	0.0
38	0x00000000	0.0
39	0x00000000	0.0
40	0x00000000	0.0
41	0x00000000	0.0
42	0x00000000	0.0
43	0x00000000	0.0
44	0x00000000	0.0
45	0x00000000	0.0
46	0x00000000	0.0
47	0x00000000	0.0
48	0x00000000	0.0
49	0x00000000	0.0
50	0x00000000	0.0
51	0x00000000	0.0
52	0x00000000	0.0
53	0x00000000	0.0
54	0x00000000	0.0
55	0x00000000	0.0
56	0x00000000	0.0
57	0x00000000	0.0
58	0x00000000	0.0
59	0x00000000	0.0
60	0x00000000	0.0
61	0x00000000	0.0
62	0x00000000	0.0
63	0x00000000	0.0
64	0x00000000	0.0
65	0x00000000	0.0
66	0x00000000	0.0
67	0x00000000	0.0
68	0x00000000	0.0
69	0x00000000	0.0
70	0x00000000	0.0
71	0x00000000	0.0
72	0x00000000	0.0
73	0x00000000	0.0
74	0x00000000	0.0
75	0x00000000	0.0
76	0x00000000	0.0
77	0x00000000	0.0
78	0x00000000	0.0
79	0x00000000	0.0
80	0x00000000	0.0
81	0x00000000	0.0
82	0x00000000	0.0
83	0x00000000	0.0
84	0x00000000	0.0
85	0x00000000	0.0
86	0x00000000	0.0
87	0x00000000	0.0
88	0x00000000	0.0
89	0x00000000	0.0
90	0x00000000	0.0
91	0x00000000	0.0
92	0x00000000	0.0
93	0x00000000	0.0
94	0x00000000	0.0
95	0x00000000	0.0
96	0x00000000	0.0
97	0x00000000	0.0
98	0x00000000	0.0
99	0x00000000	0.0
100	0x00000000	0.0
101	0x00000000	0.0
102	0x00000000	0.0
103	0x00000000	0.0
104	0x00000000	0.0
105	0x00000000	0.0
106	0x00000000	0.0
107	0x00000000	0.0
108	0x00000000	0.0
109	0x00000000	0.0
110	0x00000000	0.0
111	0x00000000	0.0
112	0x00000000	0.0
113	0x00000000	0.0
114	0x00000000	0.0
115	0x00000000	0.0
116	0x00000000	0.0
117	0x00000000	0.0
118	0x00000000	0.0
119	0x00000000	0.0
120	0x00000000	0.0
121	0x00000000	0.0
122	0x00000000	0.0
123	0x00000000	0.0
124	0x00000000	0.0
125	0x00000000	0.0
126	0x00000000	0.0
127	0x00000000	0.0

bn1.running_var f4 [128]
0	0x3f800000	1.0
1	0x3f800000	1.0
2	0x3f800000	1.0
3	0x3f800000	1.0
4	0x3f800000	1.0
5	0x3f800000	1.0
6	0x3f800000	1.0
7	0x3f800000	1.0
8	0x3f800000	1.0
9	0x3f800000	1.0
10	0x3f800000	1.0
11	0x3f800000	1.0
12	0x3f800000	1.0
13	0x3f800000	1.0
14	0x3f800000	1.0
15	0x3f800000	1.0
16	0x3f800000	1.0
17	0x3f800000	1.0
18	0x3f800000	1.0
19	0x3f800000	1.0
20	0x3f800000	1.0
21	0x3f800000	1.0
22	0x3f800000	1.0
23	0x3f800000	1.0
24	0x3f800000	1.0
25	0x3f800000	1.0
26	0x3f800000	1.0
27	0x3f800000	1.0
28	0x3f800000	1.0
29	0x3f800000	1.0
30	0x3f800000	1.0
31	0x3f800000	1.0
32	0x3f800000	1.0
33	0x3f800000	1.0
34	0x3f800000	1.0
35	0x3f800000	1.0
36	0x3f800000	1.0
37	0x3f800000	1.0
38	0x3f800000	1.0
39	0x3f800000	1.0
40	0x3f800000	1.0
41	0x3f800000	1.0
42	0x3f800000	1.0
43	0x3f800000	1.0
44	0x3f800000	1.0
45	0x3f800000	1.0
46	0x3f800000	1.0
47	0x3f800000	1.0
48	0x3f800000	1.0
49	0x3f800000	1.0
50	0x3f800000	1.0
51	0x3f800000	1.0
52	0x3f800000	1.0
53	0x3f800000	1.0
54	0x3f800000	1.0
55	0x3f800000	1.0
56	0x3f800000	1.0
57	0x3f800000	1.0
58	0x3f800000	1.0
59	0x3f800000	1.0
60	0x3f800000	1.0
61	0x3f800000	1.0
62	0x3f800000	1.0
63	0x3f800000	1.0
64	0x3f800000	1.0
65	0x3f800000	1.0
66	0x3f800000	1.0
67	0x3f800000	1.0
68	0x3f800000	1.0
69	0x3f800000	1.0
70	0x3f800000	1.0
71	0x3f800000	1.0
72	0x3f800000	1.0
73	0x3f800000	1.0
74	0x3f800000	1.0
75	0x3f800000	1.0
76	0x3f800000	1.0
77	0x3f800000	1.0
78	0x3f800000	1.0
79	0x3f800000	1.0
80	0x3f800000	1.0
81	0x3f800000	1.0
82	0x3f800000	1.0
83	0x3f800000	1.0
84	0x3f800000	1.0
85	0x3f800000	1.0
86	0x3f800000	1.0
87	0x3f800000	1.0
88	0x3f800000	1.0
89	0x3f800000	1.0
90	0x3f800000	1.0
91	0x3f800000	1.0
92	0x3f800000	1.0
93	0x3f800000	1.0
94	0x3f800000	1.0
95	0x3f800000	1.0
96	0x3f800000	1.0
97	0x3f800000	1.0
98	0x3f800000	1.0
99	0x3f800000	1.0
100	0x3f800000	1.0
101	0x3f800000	1.0
102	0x3f800000	1.0
103	0x3f800000	1.0
104	0x3f800000	1.0
105	0x3f800000	1.0
106	0x3f800000	1.0
107	0x3f800000	1.0
108	0x3f800000	1.0
109	0x3f800000	1.0
110	0x3f800000	1.0
111	0x3f800000	1.0
112	0x3f800000	1.0
113	0x3f800000	1.0
114	0x3f800000	1.0
115	0x3f800000	1.0
116	0x3f800000	1.0
117	0x3f800000	1.0
118	0x3f800000	1.0
119	0x3f800000	1.0
120	0x3f800000	1.0
121	0x3f800000	1.0
122	0x3f800000	1.0
123	0x3f800000	1.0
124	0x3f800000	1.0
125	0x3f800000	1.0
126	0x3f800000	1.0
127	0x3f800000	1.0

bn2.weight f4 [64]
0	0x3f800000	1.0
1	0x3f800000	1.0
2	0x3f800000	1.0
3	0x3f800000	1.0
4	0x3f800000	1.0
5	0x3f800000	1.0
6	0x3f800000	1.0
7	0x3f800000	1.0
8	0x3f800000	1.0
9	0x3f800000	1.0
10	0x3f800000	1.0
11	0x3f800000	1.0
12	0x3f800000	1.0
13	0x3f800000	1.0
14	0x3f800000	1.0
15	0x3f800000	1.0
16	0x3f800000	1.0
17	0x3f800000	1.0
18	0x3f800000	1.0
19	0x3f800000	1.0
20	0x3f800000	1.0
21	0x3f800000	1.0
22	0x3f800000	1.0
23	0x3f800000	1.0
24	0x3f800000	1.0
25	0x3f800000	1.0
26	0x3f800000	1.0
27	0x3f800000	1.0
28	0x3f800000	1.0
29	0x3f800000	1.0
30	0x3f800000	1.0
31	0x3f800000	1.0
32	0x3f800000	1.0
33	0x3f800000	1.0
34	0x3f800000	1.0
35	0x3f800000	1.0
36	0x3f800000	1.0
37	0x3f800000	1.0
38	0x3f800000	1.0
39	0x3f800000	1.0
40	0x3f800000	1.0
41	0x3f800000	1.0
42	0x3f800000	1.0
43	0x3f800000	1.0
44	0x3f800000	1.0
45	0x3f800000	1.0
46	0x3f800000	1.0
47	0x3f800000	1.0
48	0x3f800000	1.0
49	0x3f800000	1.0
50	0x3f800000	1.0
51	0x3f800000	1.0
52	0x3f800000	1.0
53	0x3f800000	1.0
54	0x3f800000	1.0
55	0x3f800000	1.0
56	0x3f800000	1.0
57	0x3f800000	1.0
58	0x3f800000	1.0
59	0x3f800000	1.0
60	0x3f800000	1.0
61	0x3f800000	1.0
62	0x3f800000	1.0
63	0x3f800000	1.0

bn2.bias f4 [64]
0	0x00000000	0.0
1	0x00000000	0.0
2	0x00000000	0.0
3	0x00000000	0.0
4	0x00000000	0.0
5	0x00000000	0.0
6	0x00000000	0.0
7	0x00000000	0.0
8	0x00000000	0.0
9	0x00000000	0.0
10	0x00000000	0.0
11	0x00000000	0.0
12	0x00000000	0.0
13	0x00000000	0.0
14	0x00000000	0.0
15	0x00000000	0.0
16	0x00000000	0.0
17	0x00000000	0.0
18	0x00000000	0.0
19	0x00000000	0.0
20	0x00000000	0.0
21	0x00000000	0.0
22	0x00000000	0.0
23	0x00000000	0.0
24	0x00000000	0.0
25	0x00000000	0.0
26	0x00000000	0.0
27	0x00000000	0.0
28	0x00000000	0.0
29	0x00000000	0.0
30	0x00000000	0.0
31	0x00000000	0.0
32	0x00000000	0.0
33	0x00000000	0.0
34	0x00000000	0.0
35	0x00000000	0.0
36	0x00000000	0.0
37	0x00000000	0.0
38	0x00000000	0.0
39	0x00000000	0.0
40	0x00000000	0.0
41	0x00000000	0.0
42	0x00000000	0.0
43	0x00000000	0.0
44	0x00000000	0.0
45	0x00000000	0.0
46	0x00000000	0.0
47	0x00000000	0.0
48	0x00000000	0.0
49	0x00000000	0.0
50	0x00000000	0.0
51	0x00000000	0.0
52	0x00000000	0.0
53	0x00000000	0.0
54	0x00000000	0.0
55	0x00000000	0.0
56	0x00000000	0.0
57	0x00000000	0.0
58	0x00000000	0.0
59	0x00000000	0.0
60	0x00000000	0.0
61	0x00000000	0.0
62	0x00000000	0.0
63	0x00000000	0.0

bn2.running_mean f4 [64]
0	0x00000000	0.0
1	0x00000000	0.0
2	0x00000000	0.0
3	0x00000000	0.0
4	0x00000000	0.0
5	0x00000000	0.0
6	0x00000000	0.0
7	0x00000000	0.0
8	0x00000000	0.0
9	0x00000000	0.0
10	0x00000000	0.0
11	0x00000000	0.0
12	0x00000000	0.0
13	0x00000000	0.0
14	0x00000000	0.0
15	0x00000000	0.0
16	0x00000000	0.0
17	0x00000000	0.0
18	0x00000000	0.0
19	0x00000000	0.0
20	0x00000000	0.0
21	0x00000000	0.0
22	0x00000000	0.0
23	0x00000000	0.0
24	0x00000000	0.0
25	0x00000000	0.0
26	0x00000000	0.0
27	0x00000000	0.0
28	0x00000000	0.0
29	0x00000000	0.0
30	0x00000000	0.0
31	0x00000000	0.0
32	0x00000000	0.0
33	0x00000000	0.0
34	0x00000000	0.0
35	0x00000000	0.0
36	0x00000000	0.0
37	0x00000000	0.0
38	0x00000000	0.0
39	0x00000000	0.0
40	0x00000000	0.0
41	0x00000000	0.0
42	0x00000000	0.0
43	0x00000000	0.0
44	0x00000000	0.0
45	0x00000000	0.0
46	0x00000000	0.0
47	0x00000000	0.0
48	0x00000000	0.0
49	0x00000000	0.0
50	0x00000000	0.0
51	0x00000000	0.0
52	0x00000000	0.0
53	0x00000000	0.0
54	0x00000000	0.0
55	0x00000000	0.0
56	0x00000000	0.0
57	0x00000000	0.0
58	0x00000000	0.0
59	0x00000000	0.0
60	0x00000000	0.0
61	0x00000000	0.0
62	0x00000000	0.0
63	0x00000000	0.0
