models/0_2023_2023/Spatial_GCN/40.pth (torch, 100130 bytes, 17 tensors)

conv1.bias f4 [64]
0.0 -0.00399298 0.0 0.0 -0.032389663 0.0 -0.017830629 0.0
0.0 -0.0067595458 -0.075843744 -0.021948854 -0.019362245 0.0 0.0 0.0
0.0 -0.004214529 0.0 0.0 -0.0044053127 -0.0005758482 -0.0036580414 -0.015636241
0.0 0.0 0.0 0.0 0.0 0.0 -0.041431457 0.0
0.0 0.0 0.0 -0.74359584 0.0 0.0 -0.027496774 0.0
-0.06318277 0.0 0.0 -0.067926094 0.0 0.0 0.0 0.0
0.0 -0.006450487 -0.043257866 0.0 0.0 0.0 -0.0030472847 -0.0035447665
0.0 0.0 -0.042120147 -0.008883795 0.021140404 0.0 0.0 0.0
00000000: 0000 0000 8bd7 82bb 0000 0000 0000 0000
00000010: 06ab 04bd 0000 0000 8a11 92bc 0000 0000
00000020: 0000 0000 2e7f ddbb f753 9bbd 15ce b3bc
00000030: 929d 9ebc 0000 0000 0000 0000 0000 0000
00000040: 0000 0000 081a 8abb 0000 0000 0000 0000
00000050: 715a 90bb 85f4 16ba c0bb 6fbb 9317 80bc
00000060: 0000 0000 0000 0000 0000 0000 0000 0000
00000070: 0000 0000 0000 0000 08b4 29bd 0000 0000
00000080: 0000 0000 0000 0000 0000 0000 4c5c 3ebf
00000090: 0000 0000 0000 0000 ea40 e1bc 0000 0000
000000a0: f865 81bd 0000 0000 0000 0000 d61c 8bbd
000000b0: 0000 0000 0000 0000 0000 0000 0000 0000
000000c0: 0000 0000 9b5e d3bb 292f 31bd 0000 0000
000000d0: 0000 0000 0000 0000 f4b4 47bb 504f 68bb
000000e0: 0000 0000 0000 0000 2d86 2cbd 568d 11bc
000000f0: a42e ad3c 0000 0000 0000 0000 0000 0000

conv1.lin.weight f4 [64, 12]
-0.012712673 -0.004842883 0.0054344656 -0.014516315 0.009083376 0.008625248 0.010276492 -0.010563857
0.016503258 -0.009821786 0.016541993 -0.015901644 -0.018740596 0.006184876 -0.002260286 -0.0030692804
-0.013160959 -0.010941869 -0.008862196 -0.020181132 -0.0030908096 -0.0010410645 -0.003989258 0.0013757752
0.015721964 0.0044055698 -0.0060656453 -0.0068191355 -0.0106012765 -0.0114863245 -0.0026685167 -0.0029305795
0.0073711504 -0.007082425 0.013209277 -0.011626477 4.7093698e-05 0.01489465 0.016476473 -0.009598108
0.002951511 0.0019572307 -0.0077686417 -0.005724692 0.0044879215 -0.011521846 0.0027339007 0.007170035
-0.086478606 -0.024409268 -0.039518863 -0.0005620129 -0.088578485 -0.1087785 -0.110051595 -0.07531171
0.038625203 0.026740758 -0.112266436 0.05535955 0.003883668 0.00062434544 0.01050326 -0.0033537624
0.0016615983 -0.006163687 -0.013876222 0.0067051533 0.0021202038 -0.0066358116 -0.005602228 0.004333279
-0.026151465 -0.008149098 -0.018150005 -8.206853e-05 -0.030659009 -0.044324435 -0.031172484 0.009042034
0.009935357 0.011480306 -0.024238234 0.03345913 -0.006995585 -0.00880784 0.007220219 -0.014420665
0.00026565022 -0.0076201856 0.010936406 -0.01542687 0.010046611 0.016393147 0.0033526816 -0.0011039741
0.016310183 -0.0070810206 -0.0013277738 -0.007255859 -0.0022872717 0.0036011885 0.0022130478 -0.0031295666
-0.016566847 0.00084842904 -0.0004908224 0.002492667 0.005383413 0.008792306 -0.017131433 -0.008351617
-0.0132116 -0.017453052 -0.01905908 0.012234895 0.002701777 0.006497141 0.0061423485 -0.013164127
-0.12559389 -0.07193497 -0.097252466 -0.0012181565 -0.22736819 -0.2363466 -0.26174483 -0.09898888
0.093111716 0.09319839 -0.23149958 0.19740334 -0.029253665 -0.008569497 -0.009908012 -5.11428e-05
-0.045877803 -0.05381261 -0.07518273 -0.04690902 0.011060462 0.0009139068 -0.043885536 0.02837254
-0.065258294 -0.0200208 -0.009661238 -0.0005847716 -0.08747211 -0.07918212 -0.08185155 -0.04720959
0.038993012 0.0013684501 -0.07882058 0.037749458 0.010598632 -0.014990626 0.0062895394 -0.012938194
0.012548207 0.0051993625 0.016383702 -0.01633738 -0.015951104 0.011202702 0.014710772 0.010151819
0.0110159395 -0.01395601 0.011993237 -0.015644047 0.0037016552 -0.010853573 -0.0065813307 0.0029339483
-0.0065148105 -0.002621671 -0.015704969 -0.015622977 0.00641843 -0.00701353 -0.01008074 -0.0065380516
-0.013546732 -0.0132457055 0.009914759 0.008421327 0.0022071202 -0.009051277 0.005512695 0.0007443894
-0.011841757 0.0035655992 0.015087302 -0.016297914 -0.016476592 0.0021229733 0.012477251 -0.010082377
0.0036475686 0.011648152 0.0051086526 0.0035858203 0.012328381 0.006581575 -0.013532017 -0.0028790114
0.0042627873 0.010469486 -0.0207028 0.0046607363 -0.008993789 -0.020455172 -0.0004538737 -0.013223807
0.0023481084 -0.01075773 -0.012469056 -0.0014059426 -0.005566129 0.009690932 0.001428592 0.012933491
0.0031051845 -0.005328113 0.011223092 0.0009054417 0.003109967 -0.0053291307 5.946478e-05 -0.0031858794
-0.0014086969 -0.0129221985 -0.00010190064 -0.013753424 -0.0035646183 0.009602817 -0.011521641 -0.011168696
-0.008418834 -0.0089453 -0.001597774 -0.0018124635 0.0040094326 -0.015680458 -0.005584801 0.004673661
0.010019516 -0.0056045265 -0.013840144 0.00037961846 0.027660383 -0.00905327 -0.008254964 -0.0012997182
00000000: d148 50bc 0cb1 9ebb 9a13 b23b d7d5 6dbc
00000010: 71d2 143c ea50 0d3c bb5e 283c 0714 2dbc
00000020: d731 873c 8eeb 20bc 1383 873c 2a44 82bc
00000030: e185 99bc 80aa ca3b 4e21 14bb fb25 49bb
00000040: 10a1 57bc 8645 33bc be32 11bc e752 a5bc
00000050: 2e8f 4abb 5474 88ba 52b8 82bb 5b53 b43a
00000060: 59cb 803c 995c 903b 52c2 c6bb 0e73 dfbb
00000070: fab0 2dbc 2331 3cbc 48e2 2ebb f70e 40bb
00000080: b189 f13b b013 e8bb b96b 583c fb7c 3ebc
00000090: 7986 4538 b108 743c abf9 863c 6241 1dbc
000000a0: 236e 413b e244 003b 1790 febb 3296 bbbb
000000b0: 6a0f 933b 20c6 3cbc 3e2b 333b 9df2 ea3b
000000c0: b21b b1bd f2f5 c7bc 88de 21bd 0c54 13ba
000000d0: a368 b5bd 43c7 debd bb62 e1bd 073d 9abd
000000e0: 7635 1e3d 6f0f db3c f2eb e5bd b2c0 623d
000000f0: 2385 7e3b 1dab 233a de15 2c3c ccca 5bbb
00000100: fdc9 d93a c1f8 c9bb 1859 63bc e7b6 db3b
00000110: 1ef3 0a3b 3971 d9bb e592 b7bb 2efe 8d3b
00000120: 993b d6bc cb83 05bc 52af 94bc 351c acb8
00000130: 9a28 fbbc 8a8d 35bd 705d ffbc 0a25 143c
00000140: e8c7 223c e517 3c3c 438f c6bc 710c 093d
00000150: 383b e5bb c24e 10bc 9697 ec3b a744 6cbc
00000160: f846 8b39 c0b2 f9bb 9d2e 333c fcc0 7cbc
00000170: 8a9a 243c ec4a 863c aab8 5b3b 39b3 90ba
00000180: ef9c 853c e807 e8bb b208 aeba 8fc2 edbb
00000190: 0de6 15bb eb01 6c3b c808 113b 6a19 4dbb
000001a0: 32b7 87bc 1c69 5e3a 89aa 00ba 035c 233b
000001b0: 5767 b03b 9b0d 103c 3857 8cbc 38d5 08bc
000001c0: 7775 58bc b4f9 8ebc ca21 9cbc de74 483c
000001d0: 4c10 313b f8e5 d43b c145 c93b 5aae 57bc
000001e0: af9b 00be a452 93bd 4d2c c7bd 8daa 9fba
000001f0: 35d3 68be d804 72be 6b03 86be afba cabd
00000200: 5bb1 be3d ccde be3d 3a0e 6dbe 1a24 4a3e
00000210: 62a5 efbc 1367 0cbc 3755 22bc 2a82 56b8
00000220: 5dea 3bbd 9d6a 5cbd 67f9 99bd ac23 40bd
00000230: f136 353c 3f93 6f3a 52c1 33bd 876d e83c
00000240: 24a6 85bd a902 a4bc 2b4a 1ebc 5c4b 19ba
00000250: 9424 b3bd 3c2a a2bd c9a1 a7bd d85e 41bd
00000260: 23b7 1f3d 915d b33a af6c a1bd 2d9f 1a3d
00000270: e2a5 2d3c 3e9b 75bc 7b18 ce3b b8fa 53bc
00000280: ff96 4d3c 6a5f aa3b 1d37 863c f8d5 85bc
00000290: e4ab 82bc 8a8b 373c 7305 713c d153 263c
000002a0: 337c 343c c0a7 64bc 487f 443c f227 80bc
000002b0: 7897 723b 2fd3 31bc 34a8 d7bb 7c47 403b
000002c0: 317a d5bb 57d0 2bbb b5a7 80bc 84f7 7fbc
000002d0: b151 d23b c1d1 e5bb b029 25bc 273d d6bb
000002e0: 1df3 5dbc 8404 59bc 8371 223c 9bf9 093c
000002f0: 55a5 103b cf4b 14bc d6a3 b43b 2123 433a
00000300: ee03 42bc d4ac 693b bb30 773c 3483 85bc
00000310: ebf9 86bc 9521 0b3b 626d 4c3c 8e30 25bc
00000320: 0c0c 6f3b e4d7 3e3c 7c66 a73b 1500 6b3b
00000330: fafc 493c 41aa d73b 65b5 5dbc ccad 3cbb
00000340: daae 8b3b 3588 2b3c eb98 a9bc 17b9 983b
00000350: af5a 13bc 9b91 a7bc e6f5 edb9 aba8 58bc
00000360: b9e2 193b 3141 30bc 034b 4cbc 9b47 b8ba
00000370: 1364 b6bb b7c6 1e3c 983f bb3a fee6 533c
00000380: 5a80 4b3b 7497 aebb 0fe1 373c 2a5b 6d3a
00000390: 97d0 4b3b fd9f aebb d269 7938 30ca 50bb
000003a0: 06a4 b8ba a1b7 53bc 7db3 d5b8 0b56 61bc
000003b0: 5f9c 69bb 2255 1d3c 44c5 3cbc e8fc 36bc
000003c0: 26ef 09bc 4f8f 12bc 666c d1ba 2f90 edba
000003d0: 8f61 833b 4e74 80bc b500 b7bb 8325 993b
000003e0: e528 243c 2da6 b7bb c5c1 62bc 8707 c739
000003f0: 0798 e23c 2b54 14bc d43f 07bc 4e5b aaba

conv2.bias f4 [64]
1.4262724e-05 -0.0030809485 0.0050447606 -0.000453336 -0.0028801716 -0.0017874789 -0.0013705131 -0.003682219
-0.0008253224 0.00014243646 0.0017913075 -0.0039990637 0.0009911722 0.0041968036 -0.0074058874 0.002022505
0.0026689009 0.0022854025 0.0024028448 -0.002411914 -0.012995649 -0.0039584846 -0.0012703106 -0.0017364685
-0.0037223364 0.0029078596 0.0010296511 -0.0022506283 0.0039402484 0.0065286933 -0.0018094849 -0.0014403262
-0.0018391398 -0.0036878027 -0.0040180124 -0.0025722217 0.0015035933 -0.0023352068 0.003936296 0.0020847565
0.0013827877 -0.0018696968 0.0007186586 -0.006444796 0.00073525467 -0.0009592908 -0.0016256084 -0.0011966553
-0.00021750852 0.00091110665 -0.003229425 0.0028727783 0.006606621 0.0029689523 0.00058684737 -0.0037288272
-0.0020961752 0.005359939 -0.001013513 -0.0007443916 -0.0011997775 0.0035576255 0.0017743862 0.0018045492
00000000: ef49 6f37 bde9 49bb 854e a53b baad edb9
00000010: 43c1 3cbb d749 eaba caa2 b3ba 6251 71bb
00000020: 735a 58ba ff5a 1539 4eca ea3a 940a 83bb
00000030: 38ea 813a 5785 893b 16ad f2bb 018c 043b
00000040: bae8 2e3b b1c6 153b 0c79 1d3b 3411 1ebb
00000050: b4eb 54bc 2db6 81bb 8d80 a6ba 379a e3ba
00000060: 71f2 73bb ca91 3e3b 5cf5 863a 477f 13bb
00000070: 331d 813b a6ee d53b 3d2c edba 54c9 bcba
00000080: 4b0f f1ba 10af 71bb 88a9 83bb b892 28bb
00000090: 3814 c53a 450a 19bb 0bfc 803b 69a0 083b
000000a0: a83e b53a 9d10 f5ba 5d64 3c3a de2e d3bb
000000b0: 1bbe 403a ea78 7bba 5e12 d5ba 17d9 9cba
000000c0: 0013 64b9 55d7 6e3a c3a4 53bb 3945 3c3b
000000d0: 5b7c d83b c192 423b a9d6 193a 575f 74bb
000000e0: fc5f 09bb 6da2 af3b dad7 84ba 4623 43ba
000000f0: da41 9dba 0d27 693b 8592 e83a a086 ec3a

conv2.lin.weight f4 [64, 64]
0.009642882 0.002460414 0.00074641505 0.0026306338 -0.0069434154 -0.0025015587 -0.0022285036 -0.008079207
-0.0005661062 -0.007658972 0.0029510127 -0.0018320597 -0.008054877 0.012167545 0.006293216 0.00923061
-0.010868334 -0.012778058 0.009494878 -0.0022420383 0.0023069717 0.0065189097 0.00038815307 0.00048352752
0.00758652 0.01019988 -0.003558041 -0.010900529 -0.007000993 0.009124099 0.0006080801 0.010932176
-0.0044663073 -0.012097646 0.0039649336 -0.049663518 -0.007633279 0.007959907 -0.0009815957 -0.001090231
-0.011539929 0.011122377 -0.010430178 -0.0013799345 -0.0063136136 -0.00991309 -0.006711525 0.0086137885
-0.00849555 0.010099446 0.0059766327 0.00055455026 0.0021839049 0.0026948897 0.003453629 -0.006839093
-0.00022205546 0.008469832 0.007913218 -0.0010094933 -0.067764625 0.0058677555 -0.011681736 0.011380185
0.007847233 0.009758519 0.0017440125 0.009281217 -0.0036880488 -0.0106492825 -0.0058971983 0.009500951
-0.006381083 -0.0038801057 0.003870214 -0.0068953033 0.0015816333 -0.008103843 0.0026976361 -0.0020843293
0.0016845863 0.009906791 -0.008221036 -0.0043530995 -0.0051714587 0.013153576 -0.0014787323 0.0073276064
0.0029466264 -0.012596369 -0.009064003 -0.0032812853 -0.009787819 0.0067700576 0.009319112 -2.3422415e-05
0.0015633604 0.003364591 0.0042464905 -0.030984677 -0.005023837 -0.00789458 0.0023814426 0.0100960145
-0.00074092863 0.010985948 0.0044659614 -0.0042020106 0.004959247 0.00511414 -0.0056823464 -0.0022379386
-0.0013259598 0.007274036 0.011879108 -0.0028080014 0.008302408 0.0068842685 -0.008133375 0.01287858
-0.0005171247 0.009854786 0.010985416 -0.009460633 -0.07211574 -0.0014533486 0.004102764 -0.0020319775
-0.012291655 0.004313486 -0.007300903 0.0057962225 0.0058188885 -0.0043063923 0.0045319116 0.001697825
-0.004008249 0.006735874 0.0028024723 0.00342519 -0.00996539 0.009543202 -0.0060386094 -0.010998421
-0.0055193705 -0.014022746 0.0035749534 0.0008595263 -0.0035995615 -0.01161896 0.0037521992 -0.0008129915
-0.0032043755 0.0022620813 0.004503032 -0.007670751 -0.003677347 -0.005798048 0.007908853 0.0031570203
-0.009635616 0.009016925 -0.0020273365 0.0034147007 0.001651963 -0.001491159 0.009223039 0.0055305776
-0.0015113059 -0.0046418193 0.0029385893 -0.010624769 -0.004414303 0.0064737904 -0.012565975 -0.00032120958
-0.004705706 0.003487745 -0.010810488 0.0022099067 -0.003680834 0.010711291 -0.0049272296 -0.0057788724
-0.003966588 0.009000693 0.0016697505 -0.00023950616 0.023955882 0.004930444 -0.0016369901 -0.0067622554
-0.01221813 0.008085382 0.009956976 -0.0048798216 -0.0044208895 0.0022013355 0.00039709397 0.009803243
-0.00022102382 -0.0052700387 -0.0051308526 0.0041678366 -0.0013926763 0.0030120704 0.007805888 0.0054316698
2.4318937e-05 0.0013152482 -0.0064487825 0.011529642 0.014188175 0.002445461 0.016087295 0.013026232
0.0073402305 0.0065631126 0.0050547128 -0.0022396839 0.0012687971 0.010387138 -0.001684744 0.003984631
-0.0041204877 0.002095251 0.007415273 0.009495033 0.0062474688 0.0060753296 -0.0011739624 0.011626133
-0.0046436097 0.012086868 -0.010323169 -0.0012173539 -0.010601658 0.0011310157 0.009755708 -0.008726302
0.0033414627 0.003058028 -0.010911801 -0.0005013717 -0.0014990761 -0.006192472 -0.00456807 0.004003348
-0.0013102278 -0.002530477 -0.0039380514 0.001315495 0.062094092 -0.0076488517 0.0054474445 -0.00018874826
00000000: 2efd 1d3c e63e 213b 11ab 433a b666 2c3b
00000010: 9785 e3bb 31f1 23bb 160c 12bb a65e 04bc
00000020: be66 14ba 1df8 fabb c765 413b b921 f0ba
00000030: 9af8 03bc 625a 473c 5237 ce3b fc3b 173c
00000040: 1911 32bc 0f5b 51bc 6890 1b3c 29ef 12bb
00000050: 9030 173b 949c d53b 0681 cb39 f781 fd39
00000060: 5898 f83b 661d 273c 062e 69bb 2298 32bc
00000070: 9668 e5bb 3f7d 153c 9167 1f3a df1c 333c
00000080: 1a5a 92bb 3435 46bc 46ec 813b f96b 4bbd
00000090: 9620 fabb 456a 023c e3a8 80ba 15e6 8eba
000000a0: f811 3dbc a13a 363c 56e3 2abc ebde b4ba
000000b0: 6ee2 cebb 836a 22bc 5aec dbbb d920 0d3c
000000c0: eb30 0bbc 2678 253c a1d7 c33b 3d5f 113a
000000d0: d81f 0f3b bf9c 303b 4856 623b 781a e0bb
000000e0: 8fd7 68b9 0dc5 0a3c 71a6 013c f950 84ba
000000f0: 2ec8 8abd 4d46 c03b c164 3fbc f573 3a3c
00000100: ae91 003c 32e2 1f3c 5997 e43a 3f10 183c
00000110: 31b3 71bb 547a 2ebc 493d c1bb e0a9 1b3c
00000120: 6718 d1bb 5f49 7ebb 6ba3 7d3b fff1 e1bb
00000130: cf4e cf3a fbc5 04bc d3ca 303b 3e99 08bb
00000140: 56cd dc3a 1850 223c 86b1 06bc 72a4 8ebb
00000150: 5775 a9bb 1982 573c 06d2 c1ba 6b1c f03b
00000160: 301c 413b 0061 4ebc 2f81 14bc d50a 57bb
00000170: 175d 20bc 5cd7 dd3b 30af 183c 417b c4b7
00000180: ace9 cc3a 7880 5c3b 2526 8b3b 94d3 fdbc
00000190: 009f a4bb 4558 01bc fa11 1c3b c169 253c
000001a0: e13a 42ba 68fe 333c 3357 923b 05b1 89bb
000001b0: 2e81 a23b 8494 a73b fa32 babb 61aa 12bb
000001c0: d4cb adba 095b ee3b 97a0 423c 7206 38bb
000001d0: d306 083c 6e95 e13b d941 05bc ae00 533c
000001e0: a78f 07ba f875 213c 2dfc 333c c500 1bbc
000001f0: 6bb1 93bd 497e beba 7b70 863b ed2a 05bb
00000200: f062 49bc 2558 8d3b 6a3c efbb 3dee bd3b
00000210: 60ac be3b a31c 8dbb 6e80 943b 8e89 de3a
00000220: a157 83bb 9bb8 dc3b afa9 373b 2779 603b
00000230: e045 23bc 175b 1c3c 87df c5bb b932 34bc
00000240: d6db b4bb a9bf 65bc c449 6a3b d551 613a
00000250: 9fe6 6bbb 735d 3ebc 75e7 753b f01e 55ba
00000260: 8000 52bb 6d3f 143b 2c8e 933b ec5a fbbb
00000270: a5ff 70bb 8dfd bdbb 2294 013c 03e6 4e3b
00000280: b4de 1dbc b9bb 133c 10dd 04bb 2cc9 5f3b
00000290: ae86 d83a fe72 c3ba 3b1c 173c d939 b53b
000002a0: 0317 c6ba 671a 98bb 5995 403b 8313 2ebc
000002b0: dca5 90bb 1722 d43b 85e1 4dbc 0568 a8b9
000002c0: 5332 9abb a792 643b 791e 31bc 15d4 103b
000002d0: 263a 71bb 697e 2f3c 9974 a1bb b25c bdbb
000002e0: 27fa 81bb a577 133c 88db da3a f223 7bb9
000002f0: 203f c43c 908f a13b 4690 d6ba e995 ddbb
00000300: 8d2e 48bc 8d78 043c 9622 233c e9e6 9fbb
00000310: 1cdd 90bb 4844 103b 0d31 d039 c89d 203c
00000320: a1c2 67b9 4ab0 acbb b620 a8bb 5992 883b
00000330: 768a b6ba 2866 453b 89c8 ff3b 26fc b13b
00000340: 8500 cc37 6864 ac3a 4f50 d3bb d3e6 3c3c
00000350: 8575 683c 0744 203b 81c9 833c fa6b 553c
00000360: 5186 f03b 610f d73b 01a2 a53b a9c7 12bb
00000370: c44d a63a d12e 2a3c a1d2 dcba 8291 823b
00000380: 2805 87bb 7b50 093b d2fb f23b 0e91 1b3c
00000390: 91b7 cc3b 8f13 c73b a4df 99ba 897b 3e3c
000003a0: 6c29 98bb 0008 463c 8222 29bc 9e8f 9fba
000003b0: 94b2 2dbc 973e 943a 68d6 1f3c c3f8 0ebc
000003c0: 71fc 5a3b 3269 483b 69c7 32bc 7c6e 03ba
000003d0: a67c c4ba 38ea cabb c0af 95bb 842e 833b
000003e0: f3bb abba 5cd6 25bb c50a 81bb b06c ac3a
000003f0: 6056 7e3d 38a3 fabb 7a80 b23b baea 45b9

fc1.weight f4 [128, 74]
0.40229893 0.1584039 -0.02248218 -0.08079735 -0.07800194 -0.17996278 -0.08059347 0.09257413
0.09568489 -0.028969472 0.05389796 -0.023646329 -0.12192198 -0.06801236 0.22222728 -0.008701889
0.006380064 -0.009984333 0.027334 -0.015496139 -0.054758344 -0.04632558 -0.037253663 0.056470048
-0.048075017 -0.009150227 0.03816697 -0.15590616 -0.036911454 -0.1878637 0.1392478 -0.014381872
0.025531407 0.008876215 0.08676427 -0.10777648 0.09854991 -0.2378521 0.0023184991 -0.0009084911
0.027852679 -0.040417142 -0.095351584 0.042159572 0.040413126 -0.04676197 -0.08106604 0.055821475
-0.01747461 -0.04483323 -0.012063011 0.03486636 0.03196977 0.10405835 0.055182848 -0.15719728
-0.0030702937 -0.07728626 -0.10662438 -0.09490168 -0.049655627 -0.034426656 0.09961529 0.058970224
0.06382331 0.0050768354 -0.31716186 6.0903997 -0.05544436 0.009126562 0.010689689 1.0819346
-0.013717665 -0.027932039 0.060882725 -0.101690024 0.13248286 -0.15438826 -0.029856699 -0.086300835
-0.124181986 -0.10980541 -0.089305244 -0.17832035 0.24869192 -0.06878275 0.1103082 0.15496755
-0.15549144 0.0934442 -0.23382495 0.091995485 0.08628478 -0.11220524 0.36764944 -0.08524107
-0.14275381 0.0541727 -0.07656133 -0.07746416 0.14592135 0.012480064 0.018888691 0.11830415
-0.14446355 0.12784822 -0.18083698 0.054448023 -0.06253515 -0.07089566 0.038935687 -0.04179174
0.13423438 0.1472036 0.15830338 -0.12522832 -0.09298968 0.021290764 0.16703668 -0.14129266
-0.18964715 -0.05606554 -0.11751344 -0.041367155 0.08987879 0.078557625 0.11577137 0.07036285
0.11985397 -0.02190441 -0.15024716 0.1663952 -0.10401988 -0.00074640603 -0.11894491 0.12422096
0.066320844 0.15511593 -0.027644059 0.004514333 -0.7739719 4.500535 0.29536483 1.7475202
-0.05811021 0.9953077 -0.05540595 -0.06259822 0.10531487 -0.03018013 0.056163594 -0.032235276
-0.16586581 -0.12938464 -0.12818119 -0.1087354 0.0094237095 -0.22968423 0.12148837 0.15958835
0.08260087 0.05407144 0.08157111 0.21309873 -0.042795107 0.14421308 0.22397181 0.12114643
0.0068754656 -0.22690651 -0.14237632 0.002012743 -0.2404005 0.14737739 0.117995806 -0.19546334
0.23854671 0.13249397 0.13584183 -0.14420472 -0.17437609 -0.21492778 -0.12879665 -0.19237898
-0.012534756 -0.2545586 0.11132412 0.08075848 0.06188583 -0.1561189 0.048174664 0.21018355
0.08796633 -0.08711885 -0.09753 -0.29890785 0.20137005 -0.02283079 -0.21778049 0.06926394
0.07428447 0.22100161 0.07581229 -0.18403259 -0.10612554 0.10957319 -0.1667862 0.10762464
-0.13117658 0.19547926 0.20474555 0.071579695 0.84609956 -0.0014955966 -0.106016435 1.0883611
-0.01315765 -0.6662024 -0.03985784 -0.2295206 -0.037403442 -0.046609264 -0.015732476 -0.053740155
0.31639868 0.010010195 -0.09138765 0.05119132 -0.11574442 -0.3331869 0.0011939477 -0.35728505
0.21863376 0.2110838 0.25948015 0.16176555 0.14775933 0.2541193 -0.08985581 0.23269586
0.16838817 0.118055806 0.023880385 -0.1643223 -0.12905979 -0.08688757 -0.28841922 0.10450391
0.119277224 -0.080301106 0.3247336 0.3226416 0.14507566 -0.14525653 -0.10470559 -0.11880118
00000000: 20fa cd3e a234 223e 8c2c b8bc 1579 a5bd
00000010: 7bbf 9fbd 2a48 38be 300e a5bd 8197 bd3d
00000020: 71f6 c33d 6351 edbc 1bc4 5c3d f2b5 c1bc
00000030: 3bb2 f9bd 104a 8bbd 8c8f 633e 5e92 0ebc
00000040: db0f d13b 5495 23bc 8eeb df3c 85e3 7dbc
00000050: 494a 60bd e4bf 3dbd 4c97 18bd 234d 673d
00000060: 4fea 44bd d5ea 15bc f854 1c3d dda5 1fbe
00000070: 7730 17bd 575f 40be fa96 0e3e f1a1 6bbc
00000080: 3e27 d13c 8b6d 113c 77b1 b13d eab9 dcbd
00000090: 89d4 c93d 808f 73be f6f1 173b ce27 6eba
000000a0: 4d2b e43c 728c 25bd b147 c3bd 84af 2c3d
000000b0: 3c88 253d 7b89 3fbd f405 a6bd 0fa5 643d
000000c0: ea26 8fbc 0da3 37bd efa3 45bc 07d0 0e3d
000000d0: bcf2 023d 8b1c d53d 6907 623d 53f8 20be
000000e0: fb36 49bb 4248 9ebd e25d dabd d05b c2bd
000000f0: b363 4bbd f702 0dbd 1a03 cc3d c38a 713d
00000100: ccb5 823d 955b a63b 0a63 a2be 8ee4 c240
00000110: a019 63bd 9387 153c ce23 2f3c d57c 8a3f
00000120: 0fc0 60bc bbd1 e4bc 2a60 793d dc42 d0bd
00000130: 96a9 073e f517 1ebe 0996 f4bc 7ebe b0bd
00000140: 2053 febd a9e1 e0bd abe5 b6bd 9c99 36be
00000150: 18a9 7e3e f8dd 8cbd 44e9 e13d d0af 1e3e
00000160: 2639 1fbe ac5f bf3d cf6f 6fbe 2168 bc3d
00000170: 13b6 b03d dccb e5bd 8c3c bc3e df92 aebd
00000180: 0e2e 12be 31e4 5d3d 30cc 9cbd 88a5 9ebd
00000190: 686c 153e 2f79 4c3c 75bc 9a3c 7249 f23d
000001a0: 41ee 13be a5ea 023e 542d 39be e404 5f3d
000001b0: 6e12 80bd be31 91bd 077b 1f3d d12d 2bbd
000001c0: bd74 093e 8abc 163e 481a 223e da3b 00be
000001d0: 6071 bebd f869 ae3c aa0b 2b3e 06af 10be
000001e0: dd32 42be fba4 65bd e3aa f0bd 9b70 29bd
000001f0: 5f12 b83d d2e2 a03d 8a19 ed3d 661a 903d
00000200: 0076 f53d e170 b3bc 64da 19be 8163 2a3e
00000210: 6008 d5bd 76aa 43ba 6499 f3bd 8f67 fe3d
00000220: 39d3 873d b6d6 1e3e cb75 e2bc f8ec 933b
00000230: 0623 46bf 6204 9040 0f3a 973e beae df3f
00000240: f904 6ebd 7ccc 7e3f 59f1 62bd 7f33 80bd
00000250: 53af d73d 523c f7bc cc0b 663d 2309 04bd
00000260: bad8 29be 687d 04be ee41 03be aab0 debd
00000270: e765 1a3c 5832 6bbe e5ce f83d 216b 233e
00000280: a52a a93d 047a 5d3d c10e a73d 8e36 5a3e
00000290: ec49 2fbd 98ac 133e de58 653e 9f1b f83d
000002a0: 964b e13b 2e5a 68be 19cb 11be 39e8 033b
000002b0: 8c2b 76be 19ea 163e c9a7 f13d 8b27 48be
000002c0: 9745 743e 80ac 073e 1f1a 0b3e 67aa 13be
000002d0: a58f 32be 0716 5cbe 45e3 03be fffe 44be
000002e0: 945e 4dbc 8155 82be e6fd e33d b464 a53d
000002f0: ff7b 7d3d a2dd 1fbe cc52 453d 5b3a 573e
00000300: b127 b43d 5e6b b2bd cfbd c7bd 730a 99be
00000310: f333 4e3e a307 bbbc d901 5fbe 41da 8d3d
00000320: 7522 983d 3f4e 623e 7943 9b3d 0a73 3cbe
00000330: 5958 d9bd e967 e03d 00ca 2abe 4f6a dc3d
00000340: 2753 06be b72b 483e d1a8 513e 6098 923d
00000350: fb99 583f e507 c4ba 251f d9bd 6b4f 8b3f
00000360: 2f93 57bc 3e8c 2abf f941 23bd 7307 6bbe
00000370: 5a34 19bd 5be9 3ebd 65e1 80bc a31e 5cbd
00000380: 02ff a13e cd01 243c 7329 bbbd fdad 513d
00000390: 690b edbd 7997 aabe 3d7e 9c3a 11ee b6be
000003a0: 87e1 5f3e 5a26 583e 95da 843e dea5 253e
000003b0: 394e 173e ed1b 823e 5306 b8bd d347 6e3e
000003c0: f36d 2c3e 3ec7 f13d cca0 c33c 1b44 28be
000003d0: 4028 04be 1cf2 b1bd afab 93be 2506 d63d
000003e0: 9e47 f43d e874 a4bd 7b43 a63e 4831 a53e
000003f0: b78e 143e 21be 14be e26f d6bd 084e f3bd

fc1.bias f4 [128]
0.01025356 -0.054791722 -0.029052017 -0.061973896 -0.0456969 0.021938294 0.008438449 0.0066358815
-0.023447113 -0.059254743 0.021858132 0.02119202 0.027995909 -0.031259693 -0.07305844 -0.009732099
0.019962413 -0.03940072 0.02788375 0.021529213 -0.0045212316 -0.038063005 -9.733578e-06 0.044771846
0.04865784 0.021590365 -0.065599605 0.014892994 -0.034277383 0.020454077 -0.2191143 0.006251052
-0.00524188 0.043733623 -0.015266334 -0.04177533 -0.0326127 -0.0083156815 0.005023663 0.15155756
-0.032923743 0.014917424 -0.021731755 -0.0043384596 -0.022888264 -0.048656292 -0.00046922057 0.014287415
0.008890489 0.0055676796 -0.009129074 0.021247748 0.03513449 -0.019890148 -0.019650273 0.01038605
-0.019075815 -0.004634955 -0.08200797 0.021561017 0.02569486 -0.008891441 0.025475565 0.005793447
-0.09967199 0.020990731 0.051591203 0.01517452 0.012365686 -0.011917414 2.098821e-05 0.006162774
0.005735704 0.0052278666 0.019201588 0.038345378 -0.009811935 -0.025978113 0.015283508 -0.020004604
-0.079102814 0.20486121 0.021626784 0.008513846 -0.032046992 -0.028394552 0.011144671 -0.0040876837
-0.010345673 0.002111028 -0.0032627434 -0.02662669 0.017502058 0.0018861407 0.015049341 0.001072589
-0.013340343 -0.07157715 -0.037656642 0.02813998 -3.482293e-05 -0.07222112 0.028232042 -0.019893019
-0.06404379 0.026742041 -0.043037195 -0.010001207 -0.009693058 -0.28339547 -0.09961259 0.00897591
0.01424757 0.017530875 -0.069396034 -0.015320656 -0.011955906 -0.04766474 0.0073663895 0.04124603
0.016352726 -0.030067464 0.043094743 0.0075896867 0.006198714 -0.036333453 0.035242107 -0.0074566314
00000000: 8cfe 273c 496d 60bd 7ffe edbc 57d8 7dbd
00000010: ac2c 3bbd f0b7 b33c 6c41 0a3c cf71 d93b
00000020: 2914 c0bc 1ab5 72bd d30f b33c e39a ad3c
00000030: ad57 e53c 2a0a 00bd aa9f 95bd 6273 1fbc
00000040: 3788 a33c a662 21bd 766c e43c 085e b03c
00000050: d726 94bb f4e7 1bbd 664d 23b7 af62 373d
00000060: 714d 473d 47de b03c 1659 86bd bf01 743c
00000070: 7166 0cbd 4f8f a73c 805f 60be a0d5 cc3b
00000080: 14c4 abbb 0722 333d a51f 7abc 9c1c 2bbd
00000090: e594 05bd 7f3e 08bc 8a9d a43b e831 1b3e
000000a0: 0cdb 06bd 3668 743c cb06 b2bc a329 8ebb
000000b0: 2b80 bbbc d24b 47bd b801 f6b9 c315 6a3c
000000c0: 6aa9 113c 1571 b63b 1d92 15bc c20f ae3c
000000d0: 2fe9 0f3d aaf0 a2bc 9cf9 a0bc 402a 2a3c
000000e0: e244 9cbc d2e0 97bb cbf3 a7bd bba0 b03c
000000f0: 077e d23c 68ad 11bc 22b2 d03c f5d6 bd3b
00000100: d420 ccbd c1f4 ab3c 4c51 533d 8d9e 783c
00000110: 7299 4a3c 4241 43bc d60f b037 18f1 c93b
00000120: 93f2 bb3b 864e ab3b a64c 9d3c 0b10 1d3d
00000130: 3dc2 20bc 0dd0 d4bc ae67 7a3c b2e0 a3bc
00000140: a800 a2bd 23c7 513e a72a b13c a97d 0b3c
00000150: b543 03bd b19b e8bc 2398 363c faf1 85bb
00000160: e680 29bc 2c59 0a3b c0d3 55bb 3720 dabc
00000170: 7a60 8f3c 6138 f73a 8391 763c 1d96 8c3a
00000180: 7491 5abc 0a97 92bd da3d 1abd d185 e63c
00000190: d60e 12b8 abe8 93bd e246 e73c aff6 a2bc
000001a0: 6429 83bd 2012 db3c c547 30bd 1adc 23bc
000001b0: a2cf 1ebc 3619 91be b001 ccbd b20f 133c
000001c0: a46e 693c e99c 8f3c 821f 8ebd 7d03 7bbc
000001d0: b4e2 43bc 1a3c 43bd c161 f13b 99f1 283d
000001e0: 27f6 853c 0b50 f6bc 1d84 303d e8b2 f83b
000001f0: 951e cb3b 63d2 14bd 075a 103d c256 f4bb

fc2.weight f4 [64, 128]
0.12288313 0.10351012 -0.008274945 0.02266757 -0.17473817 0.20385125 -0.17899586 -0.05386715
-0.1387686 -0.0323421 0.06365272 -0.050375246 0.04920502 0.110060856 -0.12044194 0.11670533
0.11478111 -0.06787853 0.058646515 -0.16128397 0.10516812 0.013614551 0.17729542 -0.27410853
0.009797239 -0.007759785 -0.06617217 0.2649035 0.09915302 0.029604878 0.47444203 -0.11991189
0.11888325 -0.0062332014 -0.046916343 -0.013675992 -0.19737287 -0.22500479 -0.16902626 0.16072159
0.1715741 -0.31760883 -0.06879887 -0.054301497 0.11815886 0.37173697 -0.12147438 -0.18693683
0.0740581 -0.092186406 0.06732007 -0.05788638 0.22658671 -0.065889955 -0.17508094 0.1001376
0.04050904 0.15277432 -0.27092075 -0.04554443 0.07746877 -0.2109503 -0.04841176 -0.18732016
-0.008366319 0.2175991 0.10259916 0.058663055 -0.13623887 -0.16824508 -0.16324137 0.23724458
0.15490933 0.048483554 0.15965708 0.026854146 -0.15161279 0.15704389 0.0022419444 -0.11703633
-0.014110488 0.062160607 0.13544972 -0.049721483 0.10196004 -0.15886034 0.31026223 -0.0378608
-0.21603476 0.10874423 -0.35535526 -0.106069274 0.023000067 -0.02447877 -0.08948661 0.020232234
0.21524528 -0.13949269 -0.044711795 0.0009889422 -0.064417854 0.14224498 -0.13191217 0.1247131
0.07645321 0.033031095 -0.048228085 0.2282775 0.29602754 -0.1893349 0.1125977 0.098452084
-0.04494379 -0.088480115 0.13598835 0.01877827 -0.0071498626 -0.20150568 0.012648178 -0.17198095
0.16434772 -0.12586607 0.09387359 0.11118011 -0.06433936 0.1574045 -0.034253705 0.12669845
0.06531571 -0.057527907 0.056089032 -0.010099338 0.030039044 0.15044084 0.062361993 0.09787465
-0.082542054 0.28366035 0.109271005 -0.25027132 0.016863447 0.4269944 0.10241898 -0.5187163
0.26676548 0.07554138 0.1564258 -0.057202514 0.15979615 -0.08635104 0.5336409 -0.04239566
0.06749514 -0.1054905 0.15967625 0.20988856 0.061065085 -0.07406262 0.3340604 -0.16283338
0.29965684 0.15589085 0.038424894 0.0062015285 -0.32624984 -0.11037068 -0.13449292 0.47641802
0.08138082 0.19194268 0.060089674 -0.09873951 0.22834215 -0.094358265 0.025924424 0.11589707
0.31971672 0.32616195 0.00065276766 0.046230823 0.21508947 -0.07624225 0.0237338 0.11207276
0.05286094 0.1362006 0.06836156 -0.20316525 -0.15819006 0.04328713 -0.05507746 0.12102314
-0.09322052 -0.07649224 0.38213837 -0.08835068 -0.005477797 -0.1439417 -0.117298886 0.41797122
0.075242795 -0.14253005 0.077527344 -0.026528953 0.1072421 -0.02719227 0.070822015 0.059745315
-0.100764915 0.4740181 0.3215437 0.09900407 -0.0016922259 -0.12324023 0.037390728 -0.10644801
-0.3038943 0.10652641 -0.17606463 -0.0737198 0.11296585 0.039293665 0.1436745 -0.36766103
0.33112293 -0.011387589 0.10361381 -0.044071622 -0.14965428 0.41842324 -0.20325164 -0.15120958
-0.24108769 -0.06523955 0.31815377 0.13535117 -0.18373118 -0.30043408 0.2821749 0.10405054
-0.12709886 0.25873762 0.22194809 -0.109487526 -0.033546675 0.0023151594 0.1421513 0.11561403
0.057083797 0.23989975 0.35704613 0.13105482 -0.001663135 -0.0067366646 0.03541816 0.09653307
00000000: 27aa fb3d 1dfd d33d a393 07bc 57b1 b93c
00000010: 90ee 32be 62be 503e b14a 37be cda3 5cbd
00000020: 5b19 0ebe 2679 04bd 5b5c 823d 4656 4ebd
00000030: 348b 493d 9667 e13d 44aa f6bd 3403 ef3d
00000040: 5c12 eb3d e603 8bbd 5437 703d a027 25be
00000050: 6262 d73d 910f 5f3c ee8c 353e f457 8cbe
00000060: 9984 203c cb45 febb 4685 87bd 6ea1 873e
00000070: bd10 cb3d ee85 f23c 11ea f23e 5d94 f5bd
00000080: 1079 f33d e23f ccbb 5a2b 40bd 4511 60bc
00000090: 1d1c 4abe a867 66be 3815 2dbe 3394 243e
000000a0: 1fb1 2f3e a09d a2be 6ce6 8cbd 3f6b 5ebd
000000b0: 46fd f13d 4f54 be3e 8fc7 f8bd 5e6c 3fbe
000000c0: c6ab 973d 3acc bcbd 1bdf 893d 451a 6dbd
000000d0: 5906 683e 50f1 86bd 6b48 33be f114 cd3d
000000e0: cfec 253d df70 1c3e 20b6 8abe cc8c 3abd
000000f0: f2a7 9e3d 5b03 58be 694b 46bd dbd0 3fbe
00000100: e312 09bc 4cd2 5e3e 821f d23d ac48 703d
00000110: 3482 0bbe 7048 2cbe bf28 27be 3ef0 723e
00000120: 8da0 1e3e b196 463d 257d 233e 3afd db3c
00000130: 6240 1bbe 1dd0 203e 96ed 123b beb0 efbd
00000140: ad2f 67bc 1f9c 7e3d 55b3 0a3e c1a8 4bbd
00000150: 6dd0 d03d 49ac 22be b1da 9e3e ed13 1bbd
00000160: 3738 5dbe 4bb5 de3d 20f1 b5be d93a d9bd
00000170: a36a bc3c b487 c8bc c144 b7bd 12be a53c
00000180: 4269 5c3e 2cd7 0ebe b723 37bd 659f 813a
00000190: 82ed 83bd aba8 113e fc13 07be 9569 ff3d
000001a0: 8093 9c3d 9d4b 073d d08a 45bd 94c1 693e
000001b0: ec90 973e 02e1 41be 9f99 e63d 3fa1 c93d
000001c0: fb16 38bd 1035 b5bd 8840 0b3e e3d4 993c
000001d0: 6549 eabb 8157 4ebe 4e3a 4f3c c61b 30be
000001e0: c54a 283e 09e3 00be cc40 c03d 66b2 e33d
000001f0: 5bc4 83bd a52e 213e 9d4d 0cbd 3dbd 013e
00000200: 3ec4 853d 62a2 6bbd 9dbd 653d b277 25bc
00000210: 7114 f63c 2a0d 1a3e 4a6f 7f3d 8172 c83d
00000220: cf0b a9bd ee3b 913e 7ac9 df3d 9023 80be
00000230: 3625 8a3c 039f da3e 0bc1 d13d 97ca 04bf
00000240: 7c95 883e 70b5 9a3d 162e 203e 2f4d 6abd
00000250: 9aa1 233e d0d8 b0bd b19c 083f 12a7 2dbd
00000260: e43a 8a3d 670b d8bd 2c82 233e 07ed 563e
00000270: 621f 7a3d 25ae 97bd f709 ab3e cbbd 26be
00000280: 9f6c 993e daa1 1f3e 6c63 1d3d 3136 cb3b
00000290: 380a a7be 060a e2bd 83b8 09be 10ed f33e
000002a0: fdaa a63d 9f8c 443e 9720 763d f137 cabd
000002b0: 86d2 693e e83e c1bd 755f d43c 715b ed3d
000002c0: e9b1 a33e b3fe a63e 7f1e 2b3a 885c 3d3d
000002d0: 6a40 5c3e e624 9cbd 636d c23c 6786 e53d
000002e0: b784 583d 2c78 0b3e 2501 8c3d 8d0a 50be
000002f0: 93fc 21be d84d 313d e798 61bd fbda f73d
00000300: 66ea bebd f7a7 9cbd a4a7 c33e 34f1 b4bd
00000310: 177f b3bb 7465 13be 663a f0bd 5300 d63e
00000320: e518 9a3d 66f3 11be a8c6 9e3d 3f53 d9bc
00000330: bfa1 db3d 53c2 debc 220b 913d 81b7 743d
00000340: d65d cebd 80b2 f23e 60a1 a43e a5c2 ca3d
00000350: aecd ddba 6065 fcbd 0527 193d 6a01 dabd
00000360: 0998 9bbe 852a da3d 494a 34be 68fa 96bd
00000370: a45a e73d 65f2 203d 681f 133e 113e bcbe
00000380: f288 a93e 0393 3abc 7a33 d43d 7284 34bd
00000390: f93e 19be 923b d63e 3321 50be afd6 1abe
000003a0: b1df 76be 509c 85bd 0de5 a23e 7f99 0a3e
000003b0: 0724 3cbe 7fd2 99be 3a79 903e 7318 d53d
000003c0: 3426 02be 4279 843e 5c46 633e ff3a e0bd
000003d0: 3d68 09bd eeb9 173b 1c90 113e 0cc7 ec3d
000003e0: b3d0 693d 48a8 753e c0ce b63e 3c33 063e
000003f0: 8dfd d9ba 3dbf dcbb a212 113d 21b3 c53d

fc2.bias f4 [64]
-0.30692092 -0.666754 -0.35340086 -0.19196503 -0.20600264 -0.63630944 -0.118308954 -0.07061214
-0.10965161 -0.21716855 -0.57795304 -0.3925654 -0.4258663 -0.27287027 -0.5876674 -0.16878025
-0.28140724 -0.3392997 -0.57155615 -0.22455235 -0.33369654 -0.28354344 -0.22229534 -0.20021015
-0.22324535 -0.34877583 -0.48412362 -0.41096383 -0.30197063 -0.42196918 -0.20777635 -0.65583795
-0.24078064 -0.015925625 -0.28801587 -0.21823066 -0.3888769 0.040307503 -0.2897172 -0.39902106
-0.52474713 -0.42158782 -0.24580981 -0.0665457 -0.32049662 -0.37656954 -0.381939 -0.44007495
-0.34948882 -0.41929018 -0.2150926 -0.6074293 -0.3422702 -0.33756453 -0.29596978 -0.40046242
-0.27690116 -0.1283369 -0.31158215 -0.53669065 -0.12128789 -0.3254004 -0.48569018 -0.18935062
00000000: bd24 9dbe 64b0 2abf f5f0 b4be 7b92 44be
00000010: 5bf2 52be 2de5 22bf f74b f2bd 199d 90bd
00000020: 0691 e0bd 6f61 5ebe bbf4 13bf 55fe c8be
00000030: 260b dabe a7b5 8bbe 5f71 16bf bbd4 2cbe
00000040: 9c14 90be b1b8 adbe 8151 12bf 0df1 65be
00000050: 46da aabe 9b2c 91be 64a1 63be e403 4dbe
00000060: 6e9a 64be bf92 b2be 0ddf f7be da69 d2be
00000070: e59b 9abe 580c d8be 53c3 54be ffe4 27bf
00000080: 338f 76be 7576 82bc d176 93be dc77 5fbe
00000090: df1a c7be 7b19 253d d055 94be 7d4c ccbe
000000a0: d455 06bf 5cda d7be 91b5 7bbe 1d49 88bd
000000b0: 2218 a4be b9cd c0be 828d c3be 8151 e1be
000000c0: 33f0 b2be 34ad d6be 3c41 5cbe 7d80 1bbf
000000d0: 0a3e afbe 42d5 acbe 5a89 97be 6909 cdbe
000000e0: fdc5 8dbe c06a 03be b287 9fbe 8f64 09bf
000000f0: c965 f8bd e29a a6be 62ac f8be 21e5 41be

fc3.weight f4 [1, 64]
-0.0023761748 0.028136054 -0.007896478 -0.18018332 0.0032992952 0.03569361 -0.64464307 -0.16862231
0.07150851 -0.15382534 0.06629385 0.0062058517 -0.013796948 -0.47781694 -0.022974547 -0.00016838826
-0.005463466 -0.050077707 -0.075133 0.07558525 -0.017864926 0.0010600515 -0.34484044 -0.009732839
-0.012153096 -0.11083304 -0.060405876 -0.12178476 -0.6579631 0.01536574 -0.062121984 -0.013355302
-0.035427067 -0.050071668 0.00266759 -0.029346993 -0.043168757 -0.009150481 -0.026251296 0.008388124
0.026724232 -0.089227244 -0.41566697 0.0030939719 0.008302143 -0.0036110203 -0.052282114 -0.068242595
-0.018120281 -0.019464947 -0.02169475 -0.0021310134 -0.7278965 -0.014204139 0.14213614 -0.0067147794
-0.5996511 -0.0064521744 -0.685697 0.025276095 -0.02519046 -0.11511797 -0.016337441 0.00095458433
00000000: 99b9 1bbb 957d e63c 3b60 01bc fa81 38be
00000010: fd38 583b 7633 123d 5407 25bf 54ab 2cbe
00000020: 0e73 923d 6484 1dbe 12c5 873d 755a cb3b
00000030: 980c 62bc 6ca4 f4be 1e35 bcbc 6191 30b9
00000040: e006 b3bb 481e 4dbd 55df 99bd 71cc 9a3d
00000050: 7759 92bc 6df1 8a3a ed8e b0be 7c76 1fbc
00000060: c71d 47bc 6ffc e2bd 276c 77bd 4a6a f9bd
00000070: 4570 28bf 96c0 7b3c 9f73 7ebd 32d0 5abc
00000080: f91b 11bd f317 4dbd bcd2 2e3b 1b69 f0bc
00000090: b9d1 30bd e6eb 15bc f50c d7bc 586e 093c
000000a0: c7ec da3c c6bc b6bd 4dd2 d4be 3cc4 4a3b
000000b0: b605 083c dea6 6cbb c525 56bd c6c2 8bbd
000000c0: fc70 94bc f474 9fbc 30b9 b1bc 79a8 0bbb
000000d0: 6d57 3abf 7ab8 68bc 238c 113e a707 dcbb
000000e0: bc82 19bf c36c d3bb d789 2fbf d00f cf3c
000000f0: 395c cebc f8c2 ebbd 19d6 85bc 123d 7a3a

bn1.weight f4 [128]
1.0 1.0 1.0 1.0 1.0 1.0 1.0 1.0
1.0 1.0 1.0 1.0 1.0 1.0 1.0 1.0
1.0 1.0 1.0 1.0 1.0 1.0 1.0 1.0
1.0 1.0 1.0 1.0 1.0 1.0 1.0 1.0
1.0 1.0 1.0 1.0 1.0 1.0 1.0 1.0
1.0 1.0 1.0 1.0 1.0 1.0 1.0 1.0
1.0 1.0 1.0 1.0 1.0 1.0 1.0 1.0
1.0 1.0 1.0 1.0 1.0 1.0 1.0 1.0
1.0 1.0 1.0 1.0 1.0 1.0 1.0 1.0
1.0 1.0 1.0 1.0 1.0 1.0 1.0 1.0
1.0 1.0 1.0 1.0 1.0 1.0 1.0 1.0
1.0 1.0 1.0 1.0 1.0 1.0 1.0 1.0
1.0 1.0 1.0 1.0 1.0 1.0 1.0 1.0
1.0 1.0 1.0 1.0 1.0 1.0 1.0 1.0
1.0 1.0 1.0 1.0 1.0 1.0 1.0 1.0
1.0 1.0 1.0 1.0 1.0 1.0 1.0 1.0
00000000: 0000 803f 0000 803f 0000 803f 0000 803f
00000010: 0000 803f 0000 803f 0000 803f 0000 803f
00000020: 0000 803f 0000 803f 0000 803f 0000 803f
00000030: 0000 803f 0000 803f 0000 803f 0000 803f
00000040: 0000 803f 0000 803f 0000 803f 0000 803f
00000050: 0000 803f 0000 803f 0000 803f 0000 803f
00000060: 0000 803f 0000 803f 0000 803f 0000 803f
00000070: 0000 803f 0000 803f 0000 803f 0000 803f
00000080: 0000 803f 0000 803f 0000 803f 0000 803f
00000090: 0000 803f 0000 803f 0000 803f 0000 803f
000000a0: 0000 803f 0000 803f 0000 803f 0000 803f
000000b0: 0000 803f 0000 803f 0000 803f 0000 803f
000000c0: 0000 803f 0000 803f 0000 803f 0000 803f
000000d0: 0000 803f 0000 803f 0000 803f 0000 803f
000000e0: 0000 803f 0000 803f 0000 803f 0000 803f
000000f0: 0000 803f 0000 803f 0000 803f 0000 803f
00000100: 0000 803f 0000 803f 0000 803f 0000 803f
00000110: 0000 803f 0000 803f 0000 803f 0000 803f
00000120: 0000 803f 0000 803f 0000 803f 0000 803f
00000130: 0000 803f 0000 803f 0000 803f 0000 803f
00000140: 0000 803f 0000 803f 0000 803f 0000 803f
00000150: 0000 803f 0000 803f 0000 803f 0000 803f
00000160: 0000 803f 0000 803f 0000 803f 0000 803f
00000170: 0000 803f 0000 803f 0000 803f 0000 803f
00000180: 0000 803f 0000 803f 0000 803f 0000 803f
00000190: 0000 803f 0000 803f 0000 803f 0000 803f
000001a0: 0000 803f 0000 803f 0000 803f 0000 803f
000001b0: 0000 803f 0000 803f 0000 803f 0000 803f
000001c0: 0000 803f 0000 803f 0000 803f 0000 803f
000001d0: 0000 803f 0000 803f 0000 803f 0000 803f
000001e0: 0000 803f 0000 803f 0000 803f 0000 803f
000001f0: 0000 803f 0000 803f 0000 803f 0000 803f

bn1.bias f4 [128]
0.0 0.0 0.0 0.0 0.0 0.0 0.0 0.0
0.0 0.0 0.0 0.0 0.0 0.0 0.0 0.0
0.0 0.0 0.0 0.0 0.0 0.0 0.0 0.0
0.0 0.0 0.0 0.0 0.0 0.0 0.0 0.0
0.0 0.0 0.0 0.0 0.0 0.0 0.0 0.0
0.0 0.0 0.0 0.0 0.0 0.0 0.0 0.0
0.0 0.0 0.0 0.0 0.0 0.0 0.0 0.0
0.0 0.0 0.0 0.0 0.0 0.0 0.0 0.0
0.0 0.0 0.0 0.0 0.0 0.0 0.0 0.0
0.0 0.0 0.0 0.0 0.0 0.0 0.0 0.0
0.0 0.0 0.0 0.0 0.0 0.0 0.0 0.0
0.0 0.0 0.0 0.0 0.0 0.0 0.0 0.0
0.0 0.0 0.0 0.0 0.0 0.0 0.0 0.0
0.0 0.0 0.0 0.0 0.0 0.0 0.0 0.0
0.0 0.0 0.0 0.0 0.0 0.0 0.0 0.0
0.0 0.0 0.0 0.0 0.0 0.0 0.0 0.0
00000000: 0000 0000 0000 0000 0000 0000 0000 0000
00000010: 0000 0000 0000 0000 0000 0000 0000 0000
00000020: 0000 0000 0000 0000 0000 0000 0000 0000
00000030: 0000 0000 0000 0000 0000 0000 0000 0000
00000040: 0000 0000 0000 0000 0000 0000 0000 0000
00000050: 0000 0000 0000 0000 0000 0000 0000 0000
00000060: 0000 0000 0000 0000 0000 0000 0000 0000
00000070: 0000 0000 0000 0000 0000 0000 0000 0000
00000080: 0000 0000 0000 0000 0000 0000 0000 0000
00000090: 0000 0000 0000 0000 0000 0000 0000 0000
000000a0: 0000 0000 0000 0000 0000 0000 0000 0000
000000b0: 0000 0000 0000 0000 0000 0000 0000 0000
000000c0: 0000 0000 0000 0000 0000 0000 0000 0000
000000d0: 0000 0000 0000 0000 0000 0000 0000 0000
000000e0: 0000 0000 0000 0000 0000 0000 0000 0000
000000f0: 0000 0000 0000 0000 0000 0000 0000 0000
00000100: 0000 0000 0000 0000 0000 0000 0000 0000
00000110: 0000 0000 0000 0000 0000 0000 0000 0000
00000120: 0000 0000 0000 0000 0000 0000 0000 0000
00000130: 0000 0000 0000 0000 0000 0000 0000 0000
00000140: 0000 0000 0000 0000 0000 0000 0000 0000
00000150: 0000 0000 0000 0000 0000 0000 0000 0000
00000160: 0000 0000 0000 0000 0000 0000 0000 0000
00000170: 0000 0000 0000 0000 0000 0000 0000 0000
00000180: 0000 0000 0000 0000 0000 0000 0000 0000
00000190: 0000 0000 0000 0000 0000 0000 0000 0000
000001a0: 0000 0000 0000 0000 0000 0000 0000 0000
000001b0: 0000 0000 0000 0000 0000 0000 0000 0000
000001c0: 0000 0000 0000 0000 0000 0000 0000 0000
000001d0: 0000 0000 0000 0000 0000 0000 0000 0000
000001e0: 0000 0000 0000 0000 0000 0000 0000 0000
000001f0: 0000 0000 0000 0000 0000 0000 0000 0000

bn1.running_mean f4 [128]
0.0 0.0 0.0 0.0 0.0 0.0 0.0 0.0
0.0 0.0 0.0 0.0 0.0 0.0 0.0 0.0
0.0 0.0 0.0 0.0 0.0 0.0 0.0 0.0
0.0 0.0 0.0 0.0 0.0 0.0 0.0 0.0
0.0 0.0 0.0 0.0 0.0 0.0 0.0 0.0
0.0 0.0 0.0 0.0 0.0 0.0 0.0 0.0
0.0 0.0 0.0 0.0 0.0 0.0 0.0 0.0
0.0 0.0 0.0 0.0 0.0 0.0 0.0 0.0
0.0 0.0 0.0 0.0 0.0 0.0 0.0 0.0
0.0 0.0 0.0 0.0 0.0 0.0 0.0 0.0
0.0 0.0 0.0 0.0 0.0 0.0 0.0 0.0
0.0 0.0 0.0 0.0 0.0 0.0 0.0 0.0
0.0 0.0 0.0 0.0 0.0 0.0 0.0 0.0
0.0 0.0 0.0 0.0 0.0 0.0 0.0 0.0
0.0 0.0 0.0 0.0 0.0 0.0 0.0 0.0
0.0 0.0 0.0 0.0 0.0 0.0 0.0 0.0
00000000: 0000 0000 0000 0000 0000 0000 0000 0000
00000010: 0000 0000 0000 0000 0000 0000 0000 0000
00000020: 0000 0000 0000 0000 0000 0000 0000 0000
00000030: 0000 0000 0000 0000 0000 0000 0000 0000
00000040: 0000 0000 0000 0000 0000 0000 0000 0000
00000050: 0000 0000 0000 0000 0000 0000 0000 0000
00000060: 0000 0000 0000 0000 0000 0000 0000 0000
00000070: 0000 0000 0000 0000 0000 0000 0000 0000
00000080: 0000 0000 0000 0000 0000 0000 0000 0000
00000090: 0000 0000 0000 0000 0000 0000 0000 0000
000000a0: 0000 0000 0000 0000 0000 0000 0000 0000
000000b0: 0000 0000 0000 0000 0000 0000 0000 0000
000000c0: 0000 0000 0000 0000 0000 0000 0000 0000
000000d0: 0000 0000 0000 0000 0000 0000 0000 0000
000000e0: 0000 0000 0000 0000 0000 0000 0000 0000
000000f0: 0000 0000 0000 0000 0000 0000 0000 0000
00000100: 0000 0000 0000 0000 0000 0000 0000 0000
00000110: 0000 0000 0000 0000 0000 0000 0000 0000
00000120: 0000 0000 0000 0000 0000 0000 0000 0000
00000130: 0000 0000 0000 0000 0000 0000 0000 0000
00000140: 0000 0000 0000 0000 0000 0000 0000 0000
00000150: 0000 0000 0000 0000 0000 0000 0000 0000
00000160: 0000 0000 0000 0000 0000 0000 0000 0000
00000170: 0000 0000 0000 0000 0000 0000 0000 0000
00000180: 0000 0000 0000 0000 0000 0000 0000 0000
00000190: 0000 0000 0000 0000 0000 0000 0000 0000
000001a0: 0000 0000 0000 0000 0000 0000 0000 0000
000001b0: 0000 0000 0000 0000 0000 0000 0000 0000
000001c0: 0000 0000 0000 0000 0000 0000 0000 0000
000001d0: 0000 0000 0000 0000 0000 0000 0000 0000
000001e0: 0000 0000 0000 0000 0000 0000 0000 0000
000001f0: 0000 0000 0000 0000 0000 0000 0000 0000

bn1.running_var f4 [128]
1.0 1.0 1.0 1.0 1.0 1.0 1.0 1.0
1.0 1.0 1.0 1.0 1.0 1.0 1.0 1.0
1.0 1.0 1.0 1.0 1.0 1.0 1.0 1.0
1.0 1.0 1.0 1.0 1.0 1.0 1.0 1.0
1.0 1.0 1.0 1.0 1.0 1.0 1.0 1.0
1.0 1.0 1.0 1.0 1.0 1.0 1.0 1.0
1.0 1.0 1.0 1.0 1.0 1.0 1.0 1.0
1.0 1.0 1.0 1.0 1.0 1.0 1.0 1.0
1.0 1.0 1.0 1.0 1.0 1.0 1.0 1.0
1.0 1.0 1.0 1.0 1.0 1.0 1.0 1.0
1.0 1.0 1.0 1.0 1.0 1.0 1.0 1.0
1.0 1.0 1.0 1.0 1.0 1.0 1.0 1.0
1.0 1.0 1.0 1.0 1.0 1.0 1.0 1.0
1.0 1.0 1.0 1.0 1.0 1.0 1.0 1.0
1.0 1.0 1.0 1.0 1.0 1.0 1.0 1.0
1.0 1.0 1.0 1.0 1.0 1.0 1.0 1.0
00000000: 0000 803f 0000 803f 0000 803f 0000 803f
00000010: 0000 803f 0000 803f 0000 803f 0000 803f
00000020: 0000 803f 0000 803f 0000 803f 0000 803f
00000030: 0000 803f 0000 803f 0000 803f 0000 803f
00000040: 0000 803f 0000 803f 0000 803f 0000 803f
00000050: 0000 803f 0000 803f 0000 803f 0000 803f
00000060: 0000 803f 0000 803f 0000 803f 0000 803f
00000070: 0000 803f 0000 803f 0000 803f 0000 803f
00000080: 0000 803f 0000 803f 0000 803f 0000 803f
00000090: 0000 803f 0000 803f 0000 803f 0000 803f
000000a0: 0000 803f 0000 803f 0000 803f 0000 803f
000000b0: 0000 803f 0000 803f 0000 803f 0000 803f
000000c0: 0000 803f 0000 803f 0000 803f 0000 803f
000000d0: 0000 803f 0000 803f 0000 803f 0000 803f
000000e0: 0000 803f 0000 803f 0000 803f 0000 803f
000000f0: 0000 803f 0000 803f 0000 803f 0000 803f
00000100: 0000 803f 0000 803f 0000 803f 0000 803f
00000110: 0000 803f 0000 803f 0000 803f 0000 803f
00000120: 0000 803f 0000 803f 0000 803f 0000 803f
00000130: 0000 803f 0000 803f 0000 803f 0000 803f
00000140: 0000 803f 0000 803f 0000 803f 0000 803f
00000150: 0000 803f 0000 803f 0000 803f 0000 803f
00000160: 0000 803f 0000 803f 0000 803f 0000 803f
00000170: 0000 803f 0000 803f 0000 803f 0000 803f
00000180: 0000 803f 0000 803f 0000 803f 0000 803f
00000190: 0000 803f 0000 803f 0000 803f 0000 803f
000001a0: 0000 803f 0000 803f 0000 803f 0000 803f
000001b0: 0000 803f 0000 803f 0000 803f 0000 803f
000001c0: 0000 803f 0000 803f 0000 803f 0000 803f
000001d0: 0000 803f 0000 803f 0000 803f 0000 803f
000001e0: 0000 803f 0000 803f 0000 803f 0000 803f
000001f0: 0000 803f 0000 803f 0000 803f 0000 803f

bn2.weight f4 [64]
1.0 1.0 1.0 1.0 1.0 1.0 1.0 1.0
1.0 1.0 1.0 1.0 1.0 1.0 1.0 1.0
1.0 1.0 1.0 1.0 1.0 1.0 1.0 1.0
1.0 1.0 1.0 1.0 1.0 1.0 1.0 1.0
1.0 1.0 1.0 1.0 1.0 1.0 1.0 1.0
1.0 1.0 1.0 1.0 1.0 1.0 1.0 1.0
1.0 1.0 1.0 1.0 1.0 1.0 1.0 1.0
1.0 1.0 1.0 1.0 1.0 1.0 1.0 1.0
00000000: 0000 803f 0000 803f 0000 803f 0000 803f
00000010: 0000 803f 0000 803f 0000 803f 0000 803f
00000020: 0000 803f 0000 803f 0000 803f 0000 803f
00000030: 0000 803f 0000 803f 0000 803f 0000 803f
00000040: 0000 803f 0000 803f 0000 803f 0000 803f
00000050: 0000 803f 0000 803f 0000 803f 0000 803f
00000060: 0000 803f 0000 803f 0000 803f 0000 803f
00000070: 0000 803f 0000 803f 0000 803f 0000 803f
00000080: 0000 803f 0000 803f 0000 803f 0000 803f
00000090: 0000 803f 0000 803f 0000 803f 0000 803f
000000a0: 0000 803f 0000 803f 0000 803f 0000 803f
000000b0: 0000 803f 0000 803f 0000 803f 0000 803f
000000c0: 0000 803f 0000 803f 0000 803f 0000 803f
000000d0: 0000 803f 0000 803f 0000 803f 0000 803f
000000e0: 0000 803f 0000 803f 0000 803f 0000 803f
000000f0: 0000 803f 0000 803f 0000 803f 0000 803f

bn2.bias f4 [64]
0.0 0.0 0.0 0.0 0.0 0.0 0.0 0.0
0.0 0.0 0.0 0.0 0.0 0.0 0.0 0.0
0.0 0.0 0.0 0.0 0.0 0.0 0.0 0.0
0.0 0.0 0.0 0.0 0.0 0.0 0.0 0.0
0.0 0.0 0.0 0.0 0.0 0.0 0.0 0.0
0.0 0.0 0.0 0.0 0.0 0.0 0.0 0.0
0.0 0.0 0.0 0.0 0.0 0.0 0.0 0.0
0.0 0.0 0.0 0.0 0.0 0.0 0.0 0.0
00000000: 0000 0000 0000 0000 0000 0000 0000 0000
00000010: 0000 0000 0000 0000 0000 0000 0000 0000
00000020: 0000 0000 0000 0000 0000 0000 0000 0000
00000030: 0000 0000 0000 0000 0000 0000 0000 0000
00000040: 0000 0000 0000 0000 0000 0000 0000 0000
00000050: 0000 0000 0000 0000 0000 0000 0000 0000
00000060: 0000 0000 0000 0000 0000 0000 0000 0000
00000070: 0000 0000 0000 0000 0000 0000 0000 0000
00000080: 0000 0000 0000 0000 0000 0000 0000 0000
00000090: 0000 0000 0000 0000 0000 0000 0000 0000
000000a0: 0000 0000 0000 0000 0000 0000 0000 0000
000000b0: 0000 0000 0000 0000 0000 0000 0000 0000
000000c0: 0000 0000 0000 0000 0000 0000 0000 0000
000000d0: 0000 0000 0000 0000 0000 0000 0000 0000
000000e0: 0000 0000 0000 0000 0000 0000 0000 0000
000000f0: 0000 0000 0000 0000 0000 0000 0000 0000

bn2.running_mean f4 [64]
0.0 0.0 0.0 0.0 0.0 0.0 0.0 0.0
0.0 0.0 0.0 0.0 0.0 0.0 0.0 0.0
0.0 0.0 0.0 0.0 0.0 0.0 0.0 0.0
0.0 0.0 0.0 0.0 0.0 0.0 0.0 0.0
0.0 0.0 0.0 0.0 0.0 0.0 0.0 0.0
0.0 0.0 0.0 0.0 0.0 0.0 0.0 0.0
0.0 0.0 0.0 0.0 0.0 0.0 0.0 0.0
0.0 0.0 0.0 0.0 0.0 0.0 0.0 0.0
00000000: 0000 0000 0000 0000 0000 0000 0000 0000
00000010: 0000 0000 0000 0000 0000 0000 0000 0000
00000020: 0000 0000 0000 0000 0000 0000 0000 0000
00000030: 0000 0000 0000 0000 0000 0000 0000 0000
00000040: 0000 0000 0000 0000 0000 0000 0000 0000
00000050: 0000 0000 0000 0000 0000 0000 0000 0000
00000060: 0000 0000 0000 0000 0000 0000 0000 0000
00000070: 0000 0000 0000 0000 0000 0000 0000 0000
00000080: 0000 0000 0000 0000 0000 0000 0000 0000
00000090: 0000 0000 0000 0000 0000 0000 0000 0000
000000a0: 0000 0000 0000 0000 0000 0000 0000 0000
000000b0: 0000 0000 0000 0000 0000 0000 0000 0000
000000c0: 0000 0000 0000 0000 0000 0000 0000 0000
000000d0: 0000 0000 0000 0000 0000 0000 0000 0000
000000e0: 0000 0000 0000 0000 0000 0000 0000 0000
000000f0: 0000 0000 0000 0000 0000 0000 0000 0000

bn2.running_var f4 [64]
1.0 1.0 1.0 1.0 1.0 1.0 1.0 1.0
1.0 1.0 1.0 1.0 1.0 1.0 1.0 1.0
1.0 1.0 1.0 1.0 1.0 1.0 1.0 1.0
1.0 1.0 1.0 1.0 1.0 1.0 1.0 1.0
1.0 1.0 1.0 1.0 1.0 1.0 1.0 1.0
1.0 1.0 1.0 1.0 1.0 1.0 1.0 1.0
1.0 1.0 1.0 1.0 1.0 1.0 1.0 1.0
1.0 1.0 1.0 1.0 1.0 1.0 1.0 1.0
00000000: 0000 803f 0000 803f 0000 803f 0000 803f
00000010: 0000 803f 0000 803f 0000 803f 0000 803f
00000020: 0000 803f 0000 803f 0000 803f 0000 803f
00000030: 0000 803f 0000 803f 0000 803f 0000 803f
00000040: 0000 803f 0000 803f 0000 803f 0000 803f
00000050: 0000 803f 0000 803f 0000 803f 0000 803f
00000060: 0000 803f 0000 803f 0000 803f 0000 803f
00000070: 0000 803f 0000 803f 0000 803f 0000 803f
00000080: 0000 803f 0000 803f 0000 803f 0000 803f
00000090: 0000 803f 0000 803f 0000 803f 0000 803f
000000a0: 0000 803f 0000 803f 0000 803f 0000 803f
000000b0: 0000 803f 0000 803f 0000 803f 0000 803f
000000c0: 0000 803f 0000 803f 0000 803f 0000 803f
000000d0: 0000 803f 0000 803f 0000 803f 0000 803f
000000e0: 0000 803f 0000 803f 0000 803f 0000 803f
000000f0: 0000 803f 0000 803f 0000 803f 0000 803f
