models/0_2023_2023/Spatial_GCN/95.pth (torch, 100130 bytes, 17 tensors)

conv1.bias f4 [64]
000000 00 00 00 00 d5 d0 45 b9 00 00 00 00 00 00 00 00
       0.0 -0.0001886518 0.0 0.0
000010 89 93 c8 ba 00 00 00 00 03 d6 5c ba 00 00 00 00
       -0.0015302758 0.0 -0.0008424224 0.0
000020 00 00 00 00 c9 6f a7 b9 cb d5 6a bb c5 eb 87 ba
       0.0 -0.0003193601 -0.0035832997 -0.0010369947
000030 3b ce 6f ba 00 00 00 00 00 00 00 00 00 00 00 00
       -0.0009147857 0.0 0.0 0.0
000040 00 00 00 00 b1 ca 50 b9 00 00 00 00 00 00 00 00
       0.0 -0.00019911934 0.0 0.0
000050 1f 3e 5a b9 6c 39 e4 b7 ec 38 35 b9 69 a8 41 ba
       -0.00020813242 -2.7206457e-05 -0.0001728271 -0.0007387461
000060 00 00 00 00 00 00 00 00 00 00 00 00 00 00 00 00
       0.0 0.0 0.0 0.0
000070 00 00 00 00 00 00 00 00 bf 48 00 bb 00 00 00 00
       0.0 0.0 -0.001957461 0.0
000080 00 00 00 00 00 00 00 00 00 00 00 00 7a e6 0f bd
       0.0 0.0 0.0 -0.03513191
000090 00 00 00 00 00 00 00 00 d8 46 aa ba 00 00 00 00
       0.0 0.0 -0.0012991084 0.0
0000a0 11 a2 43 bb 00 00 00 00 00 00 00 00 bd 51 52 bb
       -0.0029851238 0.0 0.0 -0.0032092177
0000b0 00 00 00 00 00 00 00 00 00 00 00 00 00 00 00 00
       0.0 0.0 0.0 0.0
0000c0 00 00 00 00 0c c8 9f b9 75 f0 05 bb 00 00 00 00
       0.0 -0.0003047589 -0.0020437513 0.0
0000d0 00 00 00 00 00 00 00 00 0b f7 16 b9 67 9c 2f b9
       0.0 0.0 -0.00014397145 -0.00016747565
0000e0 00 00 00 00 00 00 00 00 b0 6a 02 bb 36 0e dc b9
       0.0 0.0 -0.0019900016 -0.00041972258
0000f0 06 ea 82 3a 00 00 00 00 00 00 00 00 00 00 00 00
       0.0009987957 0.0 0.0 0.0

conv1.lin.weight f4 [64, 12]
000000 f5 72 1d ba 95 eb 6f b9 30 9d 86 39 9e c9 33 ba
       -0.00060062046 -0.00022880577 0.00025675585 -0.00068583514
000010 b2 ff e0 39 a9 a6 d5 39 ab 8d fe 39 e1 d5 02 ba
       0.00042915117 0.00040750697 0.00048552206 -0.0004990977
000020 8b 65 4c 3a 2d 4a f3 b9 5a e0 4c 3a 09 f2 44 ba
       0.00077971135 -0.00046403837 0.00078154134 -0.00075128727
000030 3a 1b 68 ba bb 33 99 39 e9 f3 df b8 19 0e 18 b9
       -0.0008854155 0.00029220976 -0.000106789004 -0.00014501101
000040 49 00 23 ba 64 84 07 ba 42 85 db b9 a0 f2 79 ba
       -0.0006217999 -0.0005169569 -0.0004187022 -0.000953475
000050 0e 1f 19 b9 07 4d 4e b8 86 a1 45 b9 56 50 88 38
       -0.00014602786 -4.9185965e-05 -0.00018847556 6.499949e-05
000060 56 b8 42 3a 61 41 5a 39 b4 3f 96 b9 ae e9 a8 b9
       0.0007427981 0.00020814456 -0.00028657692 -0.00032217562
000070 90 4c 03 ba ba 42 0e ba 69 33 04 b9 04 2f 11 b9
       -0.0005008662 -0.0005426813 -0.00012607653 -0.00013845792
000080 2a 96 b6 39 56 6f af b9 7c 99 23 3a 0d ff 0f ba
       0.00034825626 -0.00033461553 0.00062408275 -0.00054930226
000090 df 50 15 36 27 79 38 3a 87 10 4c 3a c4 bf ed b9
       2.2249803e-06 0.0007037096 0.0007784445 -0.0004534704
0000a0 64 38 12 39 f7 ec c1 38 bc 6e c0 b9 9a cd 8d b9
       0.00013944652 9.247095e-05 -0.00036703597 -0.000270468
0000b0 ce 55 5e 39 5c b3 0e ba 7a 70 07 39 e6 9a b1 39
       0.00021203535 -0.0005443597 0.00012916504 0.0003387548
0000c0 d4 e1 85 bb 3c 28 97 ba 9a b9 f4 ba 97 bd de b7
       -0.0040857587 -0.0011532377 -0.0018671036 -2.6552747e-05
0000d0 06 22 89 bb d4 67 a8 bb 63 60 aa bb 22 30 69 bb
       -0.004184964 -0.0051393304 -0.0051994785 -0.0035581668
0000e0 c7 30 ef 3a 4e 98 a5 3a 32 ce ad bb 05 69 2b 3b
       0.001824879 0.0012633891 -0.0053041214 0.0026155126
0000f0 6e 66 40 39 e8 71 f7 37 d9 15 02 3a 00 26 26 b9
       0.00018348705 2.9497736e-05 0.0004962362 -0.0001584515
000100 5d a2 a4 38 49 ad 98 b9 26 dc 2b ba f2 16 a6 39
       7.850372e-05 -0.00029120807 -0.0006555937 0.00031679083
000110 d8 12 d2 38 39 5f a4 b9 09 c5 8a b9 88 ac 56 39
       0.0001001709 -0.00031351464 -0.00026468214 0.00020472903
000120 2a f2 a1 ba 3c db c9 b9 ce ca 60 ba 91 1a 82 b6
       -0.0012355496 -0.0003850105 -0.0008575142 -3.8773946e-06
000130 f1 db bd ba fa 3d 09 bb fe 09 c1 ba 7f f9 df 39
       -0.0014485103 -0.0020941482 -0.0014727709 0.00042719764
000140 4f 1a f6 39 9a 2f 0e 3a 09 19 96 ba f4 32 cf 3a
       0.00046940378 0.00054239633 -0.0011451553 0.0015808032
000150 8f 48 ad b9 81 2c da b9 0c d9 b2 39 4e 9a 32 ba
       -0.00033051192 -0.00041613358 0.00034112518 -0.00068131543
000160 80 91 52 37 75 c1 bc b9 0d 73 07 3a b7 10 3f ba
       1.2550852e-05 -0.0003600229 0.0005166985 -0.00072885625
000170 d7 db f8 39 61 08 4b 3a 3f 18 26 39 65 c4 5a b8
       0.0004746604 0.0007745084 0.00015840026 -5.2158157e-05
000180 41 01 4a 3a 5d 66 af b9 e2 8e 83 b8 0f bb b3 b9
       0.00077058753 -0.00033454868 -6.273181e-05 -0.0003428091
000190 7f a0 e2 b8 e2 67 32 39 ec 45 db 38 8c 0a 1b b9
       -0.000108064145 0.00017014102 0.00010455758 -0.00014785881
0001a0 28 2f 4d ba ab 20 28 38 af 86 c2 b7 3e fa f6 38
       -0.0007827156 4.0084746e-05 -2.318932e-05 0.00011776805
0001b0 70 59 85 39 09 ca d9 39 2b 2d 54 ba 7c df ce b9
       0.00025434373 0.00041539993 -0.0008093889 -0.0003945789
0001c0 d9 a0 23 ba d2 28 58 ba 01 0d 6c ba 24 88 17 3a
       -0.0006241925 -0.0008245829 -0.0009004623 0.00057804794
0001d0 31 d9 05 39 de ef a0 39 14 26 98 39 60 0a 23 ba
       0.00012764779 0.00030696293 0.0002902007 -0.00062195025
0001e0 52 70 c2 bb a3 bb 5e bb bb 8f 96 bb d8 64 71 b8
       -0.0059338 -0.0033986352 -0.0045947707 -5.7552796e-05
0001f0 00 00 30 bc 39 f3 36 bc 26 9c 4a bc f6 3f 99 bb
       -0.0107421875 -0.011166387 -0.01236633 -0.004676814
000200 ac 26 90 3b 07 49 90 3b ba 32 33 bc 1c ce 18 3c
       0.0043991413 0.004403237 -0.010937387 0.009326484
000210 ee 27 b5 ba 0e 45 d4 b9 01 6d f5 b9 6b 27 22 b6
       -0.0013821104 -0.0004048724 -0.00046811256 -2.4162825e-06
000220 41 0d 0e bb c9 9e 26 bb d6 c9 68 bb 8e 3e 11 bb
       -0.002167538 -0.0025424233 -0.0035520694 -0.002216253
000230 78 fc 08 3a 5c 1a 35 38 12 e2 07 bb 1e b3 af 3a
       0.0005225609 4.3178312e-05 -0.0020734114 0.0013404822
000240 3a 0f 4a bb 3f f6 77 ba 38 50 ef b9 c3 c2 e7 b7
       -0.003083183 -0.0009458996 -0.000456454 -2.7628039e-05
000250 72 6b 87 bb 04 2c 75 bb e6 6f 7d bb eb 2c 12 bb
       -0.0041326815 -0.0037410269 -0.0038671433 -0.0022304605
000260 e9 77 f1 3a a1 96 87 38 41 0d 74 bb 93 c4 e9 3a
       0.0018422577 6.4653585e-05 -0.0037239345 0.0017835073
000270 27 44 03 3a 8a a9 39 ba 54 cb 9b 39 ee 3d 20 ba
       0.0005007409 -0.0007082453 0.00029715395 -0.0006112744
000280 87 69 1b 3a 55 ca 80 39 61 ea 4a 3a 81 57 4a ba
       0.00059285056 0.00024564812 0.00077406137 -0.00077187276
000290 e6 8e 45 ba 75 bf 0a 3a 1e 32 36 3a fc 76 fb 39
       -0.0007536247 0.00052928115 0.0006950217 0.000479631
0002a0 4c 6f 08 3a 27 d9 2c ba e1 89 14 3a 49 c1 41 ba
       0.0005204573 -0.00065936375 0.00056662975 -0.00073911675
0002b0 09 62 37 39 86 6c 06 ba ae 05 a3 b9 b7 59 11 39
       0.00017488761 -0.00051278656 -0.00031094014 0.00013861699
0002c0 dc 5f a1 b9 3a e1 01 b9 5c 82 42 ba 61 7e 41 ba
       -0.00030779734 -0.00012386302 -0.0007419938 -0.00073811976
0002d0 c0 fc 9e 39 66 ba ad b9 43 b4 f9 b9 3f f3 a1 b9
       0.00030324422 -0.0003313601 -0.00047627286 -0.00030889545
0002e0 7b c7 27 ba 02 0d 24 ba 9f 97 f5 39 94 99 d0 39
       -0.00064002693 -0.0006258042 0.00046843008 0.00039787276
0002f0 76 af da 38 25 34 e0 b9 46 8d 88 39 b1 82 13 38
       0.00010427732 -0.0004276346 0.00026045198 3.5169247e-05
000300 a3 a9 12 ba a4 a4 30 39 0a dc 3a 3a 56 da 49 ba
       -0.0005594736 0.00016846001 0.0007128125 -0.0007700076
000310 e9 10 4c ba 06 59 d2 38 8c 88 1a 3a 91 be f9 b9
       -0.0007784502 0.00010030162 0.0005894981 -0.00047634964
000320 30 b4 34 39 de 43 10 3a 32 16 7d 39 00 a5 31 39
       0.00017233263 0.0005503277 0.00024136229 0.00016941503
000330 7b b0 18 3a 40 07 a3 39 d7 98 27 ba f5 a0 0e b9
       0.00058246375 0.00031095184 -0.00063933193 -0.00013602136
000340 c0 2e 53 39 a7 aa 01 3a 37 34 80 ba 70 e5 66 39
       0.00020139944 0.00049463887 -0.0009781186 0.00022019981
000350 a1 c7 de b9 70 57 7d ba cf e1 b3 b7 93 c7 23 ba
       -0.00042491875 -0.0009664213 -2.1443613e-05 -0.00062476954
000360 ab a7 e8 38 a0 3c 05 ba a3 6e 1a ba a3 4d 8b b8
       0.00011093853 -0.0005082581 -0.000589112 -6.6424975e-05
000370 0b e0 89 b9 6a 0c f0 39 11 8c 8d 38 14 2f 20 3a
       -0.000262976 0.00045785616 6.749493e-05 0.0006110531
000380 54 d5 19 39 cb fa 83 b9 1a 00 0b 3a f9 6c 33 38
       0.00014670688 -0.00025173122 0.00053024443 4.2778414e-05
000390 16 12 1a 39 3a 01 84 b9 20 8a 3c 36 cf d4 1d b9
       0.00014693322 -0.00025177916 2.8094582e-06 -0.00015051964
0003a0 7c 93 8b b8 70 0b 20 ba 1f 8b a1 b6 db 56 2a ba
       -6.6555076e-05 -0.000610522 -4.8143697e-06 -0.0006497928
0003b0 00 98 30 b9 b1 dd ed 39 ae b2 0e ba 8c 53 0a ba
       -0.00016841292 0.00045369336 -0.00054434955 -0.00052767317
0003c0 d8 89 d0 b9 1a 94 dd b9 5d 4f 9e b8 f9 94 b3 b8
       -0.00039775553 -0.0004226275 -7.54881e-05 -8.5631335e-05
0003d0 61 a1 46 39 bd 34 42 ba 78 56 8a b9 8c 89 67 39
       0.0001894287 -0.00074083713 -0.00026385835 0.00022081117
0003e0 0c 30 f8 39 8e d3 8a b9 b9 69 2b ba f1 73 96 37
       0.00047338044 -0.00026479032 -0.0006538886 1.7935383e-05
0003f0 26 4a ab 3a dc 40 e0 b9 9c 7a cc b9 3f c7 80 b8
       0.0013068363 -0.00042772933 -0.00039001263 -6.140628e-05

conv2.bias f4 [64]
000000 38 42 86 bb c1 a0 3c bb 29 ab a5 39 9d d7 77 3a
       -0.0040972494 -0.002878234 0.00031598777 0.0009454431
000010 be e3 fe bb 7e e3 7d bb a3 cb dc 3a 11 cb 6a 3a
       -0.007778614 -0.0038740332 0.0016845356 0.0008956651
000020 5a c4 ab 3b 6b 24 12 bb f6 83 0c 3b 48 ce 8e 3b
       0.005241913 -0.0022299539 0.002144096 0.0043580867
000030 37 a6 a4 3b 1e 22 e3 3a 55 fb ee 3a 49 f5 6c bb
       0.005024697 0.0017328893 0.0018232862 -0.0036156944
000040 97 0f 98 3b 78 91 a4 3a 05 61 bd bb 82 2e a9 bb
       0.0046405303 0.001255556 -0.005779388 -0.005163015
000050 01 5a ab 3b 9d 28 19 3c 22 38 5d 3b 84 7f 65 bb
       0.005229235 0.009348062 0.0033755382 -0.0035018632
000060 29 16 2d 3a a4 d1 eb bb d4 2d 7a bb 4f 25 04 3c
       0.00066027284 -0.007196622 -0.0038174288 0.008065536
000070 a1 ad 62 3a d2 8b b5 b9 50 69 2c 3b d0 fd a5 bb
       0.00086470885 -0.00034627185 0.0026307888 -0.005065657
000080 fb 3e 8c bb 60 e4 89 3b 78 00 18 bb 97 56 f3 ba
       -0.004279969 0.0042081326 -0.0023193639 -0.0018565234
000090 75 b9 39 3d 81 8d 39 bb 6f 02 a1 bc e6 f0 d4 3b
       0.04534288 -0.0028313103 -0.01965448 0.006498444
0000a0 e9 f9 f4 37 d2 6c 3b 3c 61 b6 cb 3a d3 bb 81 3b
       2.920344e-05 0.011439519 0.0015542024 0.003959158
0000b0 b1 99 e7 bb 90 71 77 3b 4f e9 cf 3b 66 01 de 3b
       -0.007067882 0.0037756898 0.006344951 0.006775069
0000c0 94 0d 11 3b bc 64 b0 bb 3d 92 75 3b 09 2a dc b9
       0.0022133337 -0.005383102 0.0037471198 -0.0004199299
0000d0 80 c5 f9 bb b5 9f ae bb a6 76 85 3a 47 b3 0b 3b
       -0.007622421 -0.005329097 0.0010182455 0.0021316574
0000e0 af 82 12 3b ae ed 7a 3a 8c 03 3c ba 23 f2 54 bc
       0.0022355726 0.000957216 -0.00071721594 -0.012997183
0000f0 2f 0f 99 3a 39 10 44 bc 59 bc 2b bb dd 65 8d bb
       0.0011677499 -0.011966758 -0.0026204793 -0.0043151216

conv2.lin.weight f4 [64, 64]
000000 b2 db ee 39 33 c8 f3 38 7f e9 13 38 df 52 02 39
       0.00045558583 0.00011624433 3.526499e-05 0.00012428638
000010 bf fd ab b9 b6 db f7 b8 af cd dc b8 04 20 c8 b9
       -0.00032804717 -0.00011818802 -0.00010528729 -0.00038170826
000020 e5 5c e0 b7 33 b7 bd b9 0d 32 12 39 01 86 b5 b8
       -2.6746138e-05 -0.00036185383 0.0001394229 -8.655713e-05
000030 da 85 c7 b9 93 b2 16 3a c8 e2 9b 39 65 a5 e4 39
       -0.00038055965 0.00057486555 0.0002973287 0.00043610777
000040 34 9b 06 ba 3e 42 1e ba 38 31 eb 39 0e 25 de b8
       -0.00051348214 -0.00060370925 0.00044859364 -0.00010592687
000050 2e 94 e4 38 e3 79 a1 39 e8 d5 99 37 88 a2 bf 37
       0.00010899488 0.00030799126 1.833863e-05 2.2844659e-05
000060 cc eb bb 39 c1 a7 fc 39 b6 44 30 b9 55 01 07 ba
       0.00035843102 0.00048190172 -0.00016810265 -0.000515004
000070 d4 6a ad b9 0d 02 e2 39 98 ff f0 37 bd 65 07 3a
       -0.00033076725 0.00043107607 2.872925e-05 0.00051650015
000080 c7 43 5d b9 fa d4 15 ba 15 6d 44 39 e8 c5 19 bb
       -0.00021101451 -0.0005715635 0.00018732653 -0.0023463909
000090 56 14 bd b9 8a 2b c5 39 24 84 42 b8 2b 0b 58 b8
       -0.0003606404 0.00037607207 -4.637627e-05 -5.1508814e-05
0000a0 b2 ec 0e ba ce c0 09 3a 08 2e 01 ba e8 b9 88 b8
       -0.00054521405 0.00052548654 -0.00049278187 -6.519613e-05
0000b0 f9 63 9c b9 35 8d f5 b9 56 3f a6 b9 f6 5d d5 39
       -0.00029829124 -0.0004683525 -0.00031709176 0.00040696532
0000c0 33 70 d2 b9 ef 2a fa 39 47 0b 94 39 73 c8 db 37
       -0.00040137916 0.00047715704 0.00028237162 2.6200176e-05
0000d0 7d 62 d8 38 e3 81 05 39 6c 18 2b 39 38 68 a9 b9
       0.000103180275 0.00012732255 0.00016316929 -0.0003231184
0000e0 48 03 30 b7 38 cd d1 39 92 03 c4 39 68 0b 48 b8
       -1.04911815e-05 0.00040016486 0.00037386693 -4.769434e-05
0000f0 da d1 51 bb d0 58 91 39 34 ae 10 ba 35 f2 0c 3a
       -0.003201595 0.00027722726 -0.00055191224 0.0005376668
000100 12 61 c2 39 02 b9 f1 39 bc cc ac 38 61 e6 e5 39
       0.00037074886 0.00046104944 8.239734e-05 0.0004384993
000110 7b b5 36 b9 b8 e4 03 ba 72 13 92 b9 b0 57 eb 39
       -0.0001742448 -0.0005031335 -0.00027861778 0.00044888025
000120 f9 0f 9e b9 30 39 40 b9 e9 bb 3f 39 b0 cc aa b9
       -0.0003014801 -0.00018331851 0.00018285181 -0.0003257743
000130 f2 b5 9c 38 52 bc c8 b9 9b a4 05 39 be 84 ce b8
       7.4725496e-05 -0.00038287282 0.00012745189 -9.8475706e-05
000140 5b e9 a6 38 17 65 f5 39 7d a3 cb b9 fd a7 57 b9
       7.958963e-05 0.0004680536 -0.00038840986 -0.00020566578
000150 73 19 80 b9 e5 e8 22 3a e9 83 92 b8 09 82 b5 39
       -0.00024433024 0.00062145136 -6.986393e-05 0.00034619894
000160 86 fa 11 39 2a 02 1c ba dd 84 e0 b9 d2 8e 22 b9
       0.00013921605 -0.000595125 -0.000428236 -0.00015502729
000170 d6 72 f2 b9 82 b2 a7 39 b5 d6 e6 39 db 86 94 b5
       -0.00046243396 0.0003198572 0.00044028988 -1.1066107e-06
000180 81 e6 9a 38 42 af 26 39 ed 5f 52 39 44 e0 bf ba
       7.386227e-05 0.00015896282 0.00020062896 -0.001463898
000190 8d e2 78 b9 57 8d c3 b9 13 f5 eb 38 38 15 fa 39
       -0.0002373552 -0.00037298605 0.00011251322 0.00047699525
0001a0 2c d3 12 b8 38 10 08 3a 61 3f 5d 39 be 2b 50 b9
       -3.500578e-05 0.0005190405 0.00021099813 -0.00019852721
0001b0 79 af 75 39 cd 5b 7d 39 15 c1 8c b9 0e bd dd b8
       0.0002343039 0.00024162159 -0.00026846738 -0.000105733154
0001c0 dc 60 83 b8 54 2e b4 39 06 20 13 3a 6d 1c 0b b9
       -6.264608e-05 0.00034366793 0.0005612377 -0.00013266662
0001d0 79 a7 cd 39 bb 86 aa 39 7e 77 c9 b9 0c 81 1f 3a
       0.00039225424 0.0003252531 -0.00038426736 0.0006084598
0001e0 4a f3 cc b7 54 1b f4 39 7b 0e 08 3a ef 57 ea b9
       -2.4431985e-05 0.00046559668 0.0005190146 -0.00044697474
0001f0 d2 4a 5f bb 1f 00 90 b8 19 41 4b 39 ec 54 c9 b8
       -0.0034071696 -6.8664776e-05 0.0001938384 -9.600245e-05
000200 2f 3c 18 ba 8a b1 55 39 c4 d8 b4 b9 38 93 8f 39
       -0.0005807308 0.00020379401 -0.00034493778 0.00027384772
000210 df 22 90 39 93 57 55 b9 d7 83 60 39 23 39 a8 38
       0.000274918 -0.00020345887 0.00021411419 8.021507e-05
000220 77 92 46 b9 ce d9 a6 39 2c d6 0a 39 cc af 29 39
       -0.00018937314 0.00031824264 0.00013240491 0.00016182585
000230 a8 d8 f6 b9 9c 63 ec 39 2a 94 95 b9 be 37 08 ba
       -0.00047082198 0.00045087643 -0.00028529885 -0.00051962945
000240 98 b7 88 b9 cf ac 2d ba 41 1b 31 39 a1 53 2a 38
       -0.0002607673 -0.0006625177 0.00016890188 4.0609044e-05
000250 4a 53 32 b9 32 e7 0f ba 2d e3 39 39 ef 1a 21 b8
       -0.0001700643 -0.0005489468 0.00017727604 -3.8410475e-05
000260 53 bf 1e b9 71 21 e0 38 7c 15 5f 39 f5 01 be b9
       -0.00015139328 0.00010687381 0.00021274941 -0.00036241082
000270 c8 2d 36 b9 c0 9e 8f b9 ca e7 c3 39 bd 66 1c 39
       -0.00017373927 -0.00027393363 0.00037365995 0.00014915592
000280 93 ad ee b9 6a 5a df 39 35 df c8 b8 bb 2a 29 39
       -0.0004552422 0.00042601238 -9.578319e-05 0.00016133014
000290 d1 ad a3 38 1b bf 93 b8 52 75 e4 39 a3 fe 88 39
       7.8048215e-05 -7.0451024e-05 0.0004357496 0.0002612966
0002a0 2b be 95 b8 cb f5 65 b9 8b 94 11 39 15 97 03 ba
       -7.140295e-05 -0.00021930707 0.00013883614 -0.00050197664
0002b0 1a b0 5a b9 d7 5b a0 39 f8 a1 1b ba a2 9b 7e b7
       -0.00020855703 0.00030586004 -0.0005936916 -1.5175816e-05
0002c0 ee 1f 69 b9 35 c9 2c 39 dc e3 05 ba fc f5 da 38
       -0.00022232506 0.00016478154 -0.0005107501 0.00010440868
0002d0 03 5a 36 b9 4c a9 04 3a 56 19 74 b9 27 25 8f b9
       -0.00017390405 0.00050606276 -0.00023279092 -0.00027302766
0002e0 17 82 44 b9 75 f3 de 39 2c 71 a5 38 5c d8 3d b7
       -0.00018740479 0.0004252453 7.888893e-05 -1.1315653e-05
0002f0 70 59 94 3a 03 42 74 39 29 32 a2 b8 09 81 a7 b9
       0.0011318158 0.00023294245 -7.734105e-05 -0.0003194886
000300 f7 52 17 ba 54 47 c8 39 62 a3 f6 39 20 c0 71 b9
       -0.00057725556 0.00038200116 0.00047042506 -0.00023055123
000310 b4 03 5b b9 bb 1c da 38 ff 60 9d 37 a9 d4 f2 39
       -0.00020886847 0.000104004015 1.8761026e-05 0.0004631628
000320 08 32 2f b7 82 8a 82 b9 c8 2f 7e b9 65 7a 4e 39
       -1.0442462e-05 -0.0002489873 -0.00024241128 0.00019691286
000330 16 fd 89 b8 63 38 15 39 fe 5a c1 39 70 8b 86 39
       -6.57981e-05 0.00014230753 0.00036879623 0.0002566236
000340 30 36 9a 35 23 51 82 38 2c bd 9f b9 07 cc 0e 3a
       1.1489665e-06 6.213996e-05 -0.00030467787 0.00054472726
000350 4d b9 2f 3a d9 4c f2 38 99 3e 47 3a 23 55 21 3a
       0.0006703332 0.00011553773 0.00076005753 0.0006154349
000360 04 d2 b5 39 3a 92 a2 39 3f 6a 7a 39 46 e9 dd b8
       0.00034679484 0.00031007995 0.00023881438 -0.00010581552
000370 ef 6d 7b 38 b2 a5 00 3a 55 ed a6 b8 e4 66 45 39
       5.9945447e-05 0.0004907503 -7.959703e-05 0.00018825714
000380 03 22 4c b9 c9 99 cf 38 f0 ad b7 39 19 32 eb 39
       -0.00019467626 9.899174e-05 0.00035034074 0.00044860019
000390 ab c0 9a 39 08 7d 96 39 02 a3 68 b8 f9 fd 0f 3a
       0.00029516718 0.00028703385 -5.5464923e-05 0.0005492862
0003a0 59 0c 66 b9 d5 b2 15 3a 8d b5 ff b9 ff 3b 71 b8
       -0.00021939109 0.0005710547 -0.00048772656 -5.7514753e-05
0003b0 c2 4d 03 ba 35 20 60 38 12 a7 f1 39 8f 27 d8 b9
       -0.000500884 5.3435757e-05 0.0004609158 -0.00041228204
0003c0 ea 89 25 39 4d 7f 17 39 1f 25 07 ba fa b4 c6 b7
       0.00015787003 0.00014447905 -0.0005155373 -2.3687713e-05
0003d0 ff 87 94 b8 e9 63 99 b9 53 4e 62 b9 4b 54 46 39
       -7.082521e-05 -0.00029256873 -0.00021582218 0.00018914153
0003e0 d3 d1 81 b8 4a b9 fa b8 2f 18 43 b9 6a 57 82 38
       -6.190282e-05 -0.00011955442 -0.00018605658 6.215165e-05
0003f0 0a 43 40 3b 1f 77 bd b9 8d ef 86 39 9d 9c 15 b7
       0.0029336833 -0.0003613764 0.0002573695 -8.917556e-06

fc1.weight f4 [128, 74]
000000 fb 9d 4c 3e 59 b1 cd 3e 8a 15 36 3f 7a a9 4a 3d
       0.1998214 0.40174368 0.71126616 0.04947803
000010 ea 9f 14 bf 09 9d 1c 3e 59 27 3f bf e1 49 c0 bc
       -0.5805651 0.15294279 -0.74669415 -0.023472728
000020 88 b8 ba bd 82 3e e4 be e7 25 5c 3f 23 6e 3c 3e
       -0.09117228 -0.4457894 0.85995334 0.18401389
000030 05 99 cb be 27 cc 8e bd d6 bd 00 bf d0 6b d1 be
       -0.39765182 -0.06972533 -0.50289667 -0.40902567
000040 b1 18 e4 be 99 24 9e 3e da 0f 06 be 1a c9 91 bd
       -0.44550088 0.30887297 -0.13091984 -0.07118435
000050 92 b4 6d be f9 14 09 3e 29 e7 e7 be 6e e6 13 3f
       -0.23213413 0.13386907 -0.4529355 0.5777348
000060 58 ab f2 bd 8c e6 34 bd 93 97 2b 3e 9a 7a 13 3f
       -0.118490875 -0.04416518 0.1675704 0.5760895
000070 10 30 2f 3e 79 cd 5f 3e c0 2b 06 be 0a a8 23 3e
       0.17108178 0.21855725 -0.13102627 0.1598207
000080 d9 d6 be be 8e 20 8b 3e 08 bc a6 3e db ae 0f bf
       -0.3727329 0.27173275 0.3256533 -0.56126183
000090 05 de 06 3f 23 2d 13 be 55 68 4c 3c 92 2e 2a 3e
       0.52682525 -0.14372687 0.012476047 0.16619328
0000a0 47 dd 72 bc 81 8b d5 bd bc 1e 2d bf d9 b0 bf be
       -0.014823264 -0.10426999 -0.6762502 -0.37439612
0000b0 8d 56 e0 3c ef 8d 49 bf e8 f9 c3 b9 9e 4d 86 bd
       0.02738502 -0.787322 -0.00037379493 -0.06557773
0000c0 56 a9 83 bf 40 18 c0 be 12 fb 5f be 64 b4 ac be
       -1.0286052 -0.375185 -0.2187312 -0.33731377
0000d0 67 b4 89 bd d2 93 e2 3e 94 4a 7f 3f 56 a2 0f bf
       -0.06723862 0.44253403 0.9972317 -0.5610708
0000e0 38 14 ac bd a9 66 8d 3d 6e 2c 10 3e e5 8b 31 bd
       -0.08402294 0.069043465 0.14079449 -0.043346304
0000f0 e2 d9 84 bd 34 fe 01 bf 7d 1c b3 bd 8e bc 36 3f
       -0.0648687 -0.5077851 -0.08745668 0.7138146
000100 ac 23 33 3f a8 82 7b 39 7c bf d4 3e b9 5a 82 c0
       0.69976306 0.00023985899 0.4155234 -4.0735745
000110 83 ba 35 3e 00 d1 80 be 86 63 2a bd a1 96 95 bf
       0.1774693 -0.25159454 -0.04159882 -1.1686593
000120 bd d2 35 bc 67 2e 18 bc 9d e7 d1 3e 99 1c 81 be
       -0.011097607 -0.009288407 0.4099702 -0.2521713
000130 52 04 67 3d 93 a3 9c 3c 6e 8d cd 3e 0d f1 38 3e
       0.056400605 0.019120967 0.40146965 0.18060704
000140 a5 82 9c 3e 13 26 50 3e 14 0c 66 3d a3 25 2a 3d
       0.30568424 0.20327024 0.056163862 0.0415398
000150 9d 6b 44 bd c0 bf 82 be 8f 96 02 bd 9c 5d e3 3d
       -0.04795419 -0.2553692 -0.031881865 0.11101839
000160 e6 ca df 3e d2 84 f5 3b 41 a5 44 be c8 9f ba 3d
       0.43709487 0.00749264 -0.19203664 0.09112507
000170 ae c3 ae be 9c be dc 3e f4 17 99 3d 8e 76 30 3e
       -0.34133667 0.43114173 0.07475272 0.17232725
000180 69 8f 93 3e d0 65 e7 3e e8 18 91 3e 80 0b fc 3e
       0.2882035 0.45194864 0.28339314 0.49227524
000190 9e 9d b5 3d 78 d6 c8 3e e1 89 85 be 56 95 91 be
       0.08867954 0.39226127 -0.26081756 -0.28434247
0001a0 c8 20 88 be 10 8f e2 3e ef 1b 89 3e 22 cc e6 3e
       -0.2658751 0.44249773 0.26779124 0.45077616
0001b0 c4 9f e9 3e 98 ca 28 3e ab c2 ed bd bf 62 98 3d
       0.45629704 0.16483533 -0.116093956 0.07440709
0001c0 4f e8 ae 3b 77 35 0a bf 5f 06 cf bd 2e 7d 73 be
       0.005337752 -0.5398783 -0.10108637 -0.23778221
0001d0 36 c5 90 3d 28 cf 0e bc 7d e2 e4 bd 74 84 7f 3e
       0.07068865 -0.008716382 -0.11176012 0.2495287
0001e0 e1 90 67 3e 02 5f 90 be 71 d4 31 be 05 ac cc bc
       0.2261386 -0.28197485 -0.17366196 -0.024984369
0001f0 59 e0 9b 3e 01 fa b2 3d dc 14 72 be de 55 74 be
       0.304446 0.08739091 -0.2364077 -0.2386088
000200 2a 66 22 3e ad 54 79 3d bd 64 9b be 13 26 a0 3d
       0.15859285 0.06087177 -0.30350295 0.07819762
000210 45 64 2c be 94 1e ec 3e c3 a5 89 3d d3 c2 80 be
       -0.16835125 0.4611708 0.0672107 -0.2514864
000220 59 00 ae be 1c 0c 89 be f4 07 eb bd bb a4 5f 39
       -0.3398464 -0.2676705 -0.11476126 0.00021328304
000230 ed 45 e7 be a9 b4 22 40 15 32 9c be a2 08 24 3e
       -0.45170537 2.5422766 -0.3050696 0.16018918
000240 d7 cb 21 3d ea 77 3f 3f fd 86 2f 3c 56 21 8d 3c
       0.039501037 0.7479235 0.010713336 0.01722781
000250 a2 71 e8 3e 13 49 33 bd e2 7f 31 3f 7b aa d1 3c
       0.45399195 -0.04377086 0.6933576 0.025593987
000260 5c 90 a5 be a5 07 02 3f 3e d4 be bc c9 a7 b9 3e
       -0.323367 0.50792915 -0.023294564 0.36260822
000270 f6 f0 c9 3e 25 39 15 bf 08 2f e8 3e 66 9a 4b be
       0.3944165 -0.5829032 0.45348382 -0.19883117
000280 d8 6c 3d bf 3c ba 24 3f 5c eb bb bd 56 cf b4 be
       -0.7399421 0.6434667 -0.091757506 -0.35314435
000290 34 f6 06 bf cb 9c aa 3e a2 6c a0 be 46 03 4a 3e
       -0.52719426 0.3332275 -0.3133288 0.19727811
0002a0 66 b0 3d be a9 49 54 3e 5c 32 87 3d 4e d2 be 3e
       -0.18524322 0.20731224 0.06601402 0.37269825
0002b0 27 e6 6d 3e c5 69 28 3f 20 11 c0 3e 2e 78 da 3e
       0.23232327 0.6578639 0.37513065 0.42669815
0002c0 7c 59 36 3d c5 e7 88 be fc 3b d8 be 50 27 6f 3f
       0.044518933 -0.26739326 -0.42233264 0.9341936
0002d0 98 47 55 3d 7d d1 6c 3e b5 11 02 3f 85 ab 38 be
       0.05207023 0.23126788 0.5080827 -0.1803418
0002e0 f3 3b 15 3f d7 71 c8 3e 3b 08 05 3e ba 01 b9 be
       0.582946 0.39149353 0.12991421 -0.3613413
0002f0 de a4 d3 3e c7 84 4e bf 0d be aa be 6d a8 be be
       0.4133672 -0.8067135 -0.33348122 -0.37237874
000300 17 2f 00 3d 16 44 d5 bd 75 ef ab 3b f8 5f 2f bf
       0.03129491 -0.10413377 0.0052470514 -0.6850581
000310 8e d9 00 bf 82 4d 08 bf 11 d4 20 bf f5 a5 60 3e
       -0.5033196 -0.5324327 -0.6282359 0.21938308
000320 01 fb fe bd 8f 6f b5 bb 90 1b 12 3f ec cc 35 bf
       -0.12450219 -0.0055369805 0.5707331 -0.7101581
000330 82 01 19 ba 52 53 e4 3e 81 12 6d 3e ca 75 64 3f
       -0.00058367115 0.44594818 0.2315159 0.8924223
000340 20 92 37 bf 46 27 5b bf 25 5b b0 be ea d0 83 3d
       -0.71707344 -0.856068 -0.34444538 0.064363316
000350 84 de 86 3d a2 2f 94 b8 66 e4 0f be e9 de 9d 3f
       0.0658541 -7.066062e-05 -0.14051971 1.2333652
000360 9f 15 6c be 7b 46 f8 3c 3d 27 87 3c ce 32 cb 3e
       -0.23055123 0.030307045 0.016498202 0.39687198
000370 78 72 48 3c 70 e3 62 bb 46 cf 7a bc ae 2b 9d bd
       0.012234323 -0.0034620427 -0.015308207 -0.07674347
000380 c2 1b fc 3c 36 22 2a 3e 23 73 28 bf 50 ae 09 3f
       0.030774955 0.16614613 -0.65800685 0.53781605
000390 eb 4f 3d 3c 4d 6b 49 3d df 33 17 3f 27 e5 07 bf
       0.011554698 0.049174596 0.59063524 -0.53084034
0003a0 c8 c6 e5 bc f0 0e e8 3d 35 6a eb be 39 a4 0c 3f
       -0.028048888 0.11330974 -0.45979467 0.54938084
0003b0 88 48 50 3e c2 97 45 bf f7 68 df bd 6c 9a d2 bc
       0.20340168 -0.7718469 -0.10908692 -0.0257084
0003c0 2e ae 6f be 2f af f1 3e 3d 24 80 3e 97 79 b2 3e
       -0.23406288 0.47203967 0.25027648 0.3485839
0003d0 87 b7 04 3e ec 9a 25 3c 89 b7 7e 3b f5 c4 6b 3e
       0.12960635 0.010107737 0.003886672 0.23024352
0003e0 bf 07 36 be d6 eb f6 3e eb 4d 0e 3f 87 8b 1f 3c
       -0.17776392 0.48226804 0.55587643 0.009737856
0003f0 4e 44 86 bd 13 1f 8f 3e 24 30 3b bb e5 da ad 3e
       -0.06555997 0.27953395 -0.002856263 0.33956066

fc1.bias f4 [128]
000000 d8 78 2a bd 12 70 22 3d 14 56 8b 3c d6 47 4b bc
       -0.04161915 0.03965766 0.017008819 -0.012407264
000010 79 95 3d bc 86 23 3f bd fe 47 b0 bc 2e 61 c0 bd
       -0.011571282 -0.046664737 -0.021518704 -0.093935356
000020 48 b8 f6 3b 36 3b 39 3d d3 2e f4 3c 36 18 1c 3d
       0.0075292923 0.045222484 0.029807484 0.038109027
000030 a8 01 36 bc 9e c9 8f bd 1f 6f 3c bd c0 bb 24 be
       -0.011108793 -0.07020877 -0.04600441 -0.16087246
000040 58 5e 7b bd 97 a0 91 bc 2c c5 89 3b 60 76 a0 3b
       -0.06136927 -0.01777677 0.004204413 0.004896924
000050 57 53 7b bc a8 0b 80 3c fd 15 c9 bb 0d de 66 bc
       -0.015339694 0.015630558 -0.0061366544 -0.014091027
000060 f0 b0 ed 3c 0d a0 d1 3b 96 bc 08 bd 3c 81 8d bb
       0.029015034 0.0063972534 -0.033382975 -0.0043183845
000070 d9 33 91 bd f7 da 02 3a 21 64 37 be be 91 3a bb
       -0.07089967 0.0004991735 -0.1790929 -0.0028468217
000080 40 ab ad bd 95 88 73 bc ce da af 3c 7c 42 8d bc
       -0.08479929 -0.014864107 0.021466639 -0.017243616
000090 b0 e1 bf bd 59 c0 3e bd d0 b0 0e bc b5 85 29 3e
       -0.09369218 -0.046570156 -0.008709148 0.16554911
0000a0 16 63 87 bd fd 22 4b bd 76 85 f8 bc 2f b1 4d bd
       -0.06610696 -0.049593914 -0.030337077 -0.050217804
0000b0 32 97 e2 bc d9 ad b6 bc 2b 86 d4 3a 69 1e 48 3b
       -0.027659986 -0.022299694 0.0016214302 0.0030535704
0000c0 d2 02 0f 3c 3a 3f 23 3c a5 75 84 3c 40 26 03 3c
       0.0087287 0.009963805 0.016169379 0.008004725
0000d0 27 6a df 3c 7c 19 9d bd 69 1b cd bd 48 c3 4e 3c
       0.027272297 -0.076708764 -0.10014994 0.012619801
0000e0 7b 55 ed bc 0f 1a f1 bd 76 7e 11 ba 7d 3e 85 bd
       -0.028971424 -0.117725484 -0.0005550155 -0.06506059
0000f0 a5 59 80 bc 20 3e 4e bd 0c f6 3a 3c de 2f 97 bd
       -0.015667746 -0.050352216 0.011411201 -0.07382177
000100 f0 39 48 bd 94 fa 3c bc 8d 52 c7 ba 1a 7f eb bc
       -0.04888338 -0.011534352 -0.0015207097 -0.02874713
000110 15 06 92 3c d7 8c c6 bb 5e 20 74 bd 42 ed 7f bd
       0.017825166 -0.00605927 -0.05960118 -0.062482126
000120 49 62 ab 3c d2 40 04 bd 18 93 4e 3b a9 fb ee 3b
       0.02092089 -0.03228838 0.003152078 0.007293184
000130 8d c0 b8 bc 4b 1c 72 bb 2b a4 cf 3c ca 32 87 3c
       -0.022552753 -0.0036943133 0.025346836 0.01650371
000140 33 c0 02 bd 04 91 4b 3e 5f 5d e7 bc 0f 52 02 bd
       -0.031921577 0.19879538 -0.028242765 -0.03181654
000150 95 8d 2e bd 8d b5 ed bd 55 f8 58 3d c7 e0 20 bb
       -0.042615492 -0.11606894 0.052971203 -0.002454804
000160 31 14 58 bd e8 6e 5e bd 97 8b 6b 3b 1f 31 b5 ba
       -0.05275363 -0.054304987 0.0035941356 -0.0013823843
000170 51 0c af 3c 90 af 29 3d 20 55 80 3c 00 a1 14 bc
       0.021368178 0.041427195 0.01566559 -0.0090715885
000180 fd 53 96 bb ce fa 30 39 ca 56 45 bd 29 65 b0 bb
       -0.004587649 0.000168781 -0.04817847 -0.005383153
000190 87 fc a3 bd ba 69 a6 bd 3e 1e 5b 3c 19 89 1c bd
       -0.0800715 -0.081256345 0.0133739095 -0.038216684
0001a0 3c 91 c1 bd 3f 9a b8 bb c7 f6 3d bd 19 d6 c3 3c
       -0.094515294 -0.005633622 -0.046377923 0.0239058
0001b0 14 28 58 bc 6d 69 97 be c6 58 66 bd 83 79 c3 bd
       -0.013193149 -0.2957262 -0.056237005 -0.09544661
0001c0 a3 b1 0e bc 0a 66 ce bc e4 71 15 bc e2 ce 56 3c
       -0.008709344 -0.02519514 -0.009121392 0.013110848
0001d0 e4 74 06 bd 97 66 74 bc 96 f2 b6 bd 12 40 c1 3b
       -0.03282632 -0.014917037 -0.08932988 0.0058975304
0001e0 d3 74 95 3c bc ce 38 bc 96 56 ed 3a f3 b9 8b 3c
       0.018244183 -0.011279758 0.001810747 0.017056441
0001f0 32 f7 34 bc 75 26 6b 3c c7 c7 d6 bc 5a f3 83 bd
       -0.011045264 0.014352431 -0.026218308 -0.064429

fc2.weight f4 [64, 128]
000000 aa ed 89 3e f2 39 0c 3b 6e be cb 3d ce 88 90 3c
       0.26939136 0.0021396843 0.09948431 0.017643359
000010 66 25 30 3e 11 3e 8a 3c 6a f0 de 3d 97 53 07 be
       0.17201766 0.016875299 0.10885699 -0.1321548
000020 cd 73 58 3d 36 11 ee bd 67 ba 9a be 83 6e ea 3a
       0.05284481 -0.116243765 -0.3022034 0.0017885718
000030 c1 3b 9f bd b8 8b 64 bd 14 c7 e8 bd 1d 1a 86 3e
       -0.07775069 -0.05579731 -0.11366096 0.26191798
000040 33 b5 2f 3a b2 66 88 3d 3d 33 09 3d af 44 8b 3d
       0.0006702721 0.066602126 0.03349613 0.0680021
000050 ae bf e2 be 92 b3 e3 bd 95 6d 0c 3c cb 09 18 be
       -0.44286865 -0.11118235 0.008571048 -0.14847486
000060 b0 8d a6 3d 21 1c f3 bc 0b af 9f bd a2 8e 3b 3d
       0.081324935 -0.029676499 -0.07797059 0.045790322
000070 86 16 1a be eb 4f ca 3c 30 4e 25 bc d7 f1 27 bd
       -0.15047655 0.024696311 -0.010089442 -0.04100212
000080 32 fa 06 bd 0e ff e8 3b c7 48 94 3e 41 fa ad 3d
       -0.03295345 0.007110483 0.28961775 0.08494998
000090 0c 8b 6b bd da d5 f9 bd 4e 0b 55 3c b9 2b 8c 3e
       -0.057505652 -0.12198992 0.0130031835 0.27377108
0000a0 f5 aa 83 bd de a8 90 3d b8 69 20 bc a9 fb 02 3e
       -0.06429092 0.07063459 -0.00979083 0.12791313
0000b0 32 f6 1f be b8 ec a8 3c 8e 5e 9d bd 27 34 b3 be
       -0.1562126 0.020620689 -0.076840505 -0.35000727
0000c0 fc 51 73 be d1 0c 2d 3e b7 14 60 3c 88 1f 5d bd
       -0.23761743 0.1689942 0.013676814 -0.05398515
0000d0 ca 67 c5 3c 95 40 f1 3c 68 7e 90 3d a1 d1 fc bd
       0.024097342 0.02944974 0.0705536 -0.12344671
0000e0 70 30 0c be 91 03 c9 3e 90 7c de 3c ca 39 d7 bd
       -0.13690352 0.39260533 0.027159005 -0.10509069
0000f0 10 73 a7 bb e6 54 0c 3d e6 f7 1a 3c 20 cf 85 bc
       -0.005110152 0.034260653 0.009458518 -0.016334116
000100 25 e1 84 3d 96 db 46 be c5 ea fe bc 77 6e 0e bd
       0.064882554 -0.19419703 -0.031117806 -0.034773316
000110 97 b4 ad bc 86 c0 64 bd 95 2c 0e bd 5a 1c 09 be
       -0.021204276 -0.055847667 -0.034710485 -0.13389722
000120 5d 5a 09 bd 6e d1 ac 3d 0a 97 ee bb b3 08 d2 3d
       -0.033533443 0.08438383 -0.007281189 0.102555655
000130 a8 89 26 3e 78 8c 05 be 73 9d fa 3d c7 7d 0b be
       0.16263449 -0.13041866 0.12237062 -0.13622199
000140 1e af 7a 3d f1 81 7f 3e 99 b6 d5 bd 2f 63 6a 3d
       0.06120216 0.24951912 -0.10435218 0.057223495
000150 90 f9 a0 3c ff b9 f9 bd 1c d8 db bd 8e 36 e1 3d
       0.01965025 -0.12193679 -0.10734579 0.109967336
000160 ea 06 8a 3e 51 79 f5 bd 4a e3 9b 3d a8 db 37 3e
       0.269584 -0.1198603 0.07611711 0.17954886
000170 ae 87 10 be 18 08 78 3c 24 82 bd bc 3f f8 0b 3e
       -0.14114258 0.015138648 -0.023133345 0.13668917
000180 43 20 ad bb da 8d 18 be 3d fd 44 be a0 cf 0c 3d
       -0.005283387 -0.14897862 -0.19237228 0.034377694
000190 c2 4c e0 3d 49 8f e5 bd 2d 17 88 3c 1e b1 e1 3d
       0.109521404 -0.1120897 0.016612614 0.110201105
0001a0 a7 10 8e bd 34 2d 63 bd 7a 02 c3 3d c7 d7 f4 bc
       -0.0693677 -0.05546303 0.09521957 -0.029888047
0001b0 79 35 44 3d 70 33 55 be 95 6e b6 3d 84 2a fe bc
       0.047902558 -0.20820403 0.089078106 -0.031026132
0001c0 d4 bb bb 3e f5 fb 7f be 4a 94 e2 bc 89 e5 8c 3d
       0.3666674 -0.24998458 -0.0276586 0.06879718
0001d0 64 a1 a7 bd 1f 2b 77 bb a6 bd db 3d 1b 40 11 be
       -0.0818508 -0.003771491 0.10729532 -0.1418461
0001e0 66 12 9d bd e4 16 29 3e 09 b8 0e 3e c7 b4 25 3e
       -0.07669525 0.16512638 0.13937391 0.16182242
0001f0 a6 5b ee 3d 17 2a 35 3e b6 c0 e3 bd fb 8e 1b bd
       0.11638574 0.17691837 -0.11120741 -0.037978154
000200 92 53 36 3e f8 5f 8b 3d d8 9f c8 3d 6a fb 56 3e
       0.17805317 0.06805414 0.09796113 0.20994344
000210 04 49 b5 3d 3b e1 ef bd 91 27 b9 3d 88 8a 03 3e
       0.08851817 -0.11712881 0.0904075 0.12845814
000220 b7 19 1f be 8d b4 73 3c e1 c9 af be 62 d3 a4 bd
       -0.15537153 0.01487459 -0.3433371 -0.080481306
000230 ee 3e 16 be 84 ab 82 bd d7 c5 6b be f6 93 61 3e
       -0.14672443 -0.0638037 -0.23024689 0.22029099
000240 83 c5 1e be 7d 30 a3 3d 21 e3 d2 3d 08 66 49 3e
       -0.15505032 0.07968233 0.10297228 0.19667828
000250 92 c2 8e be c0 6f 82 3e f5 14 88 3d e2 4c 73 bd
       -0.2788282 0.25475883 0.06644622 -0.059399493
000260 a5 37 d0 bc f9 82 30 bd 1d 97 1d 3e 31 f2 89 bd
       -0.025417158 -0.043093655 0.15389676 -0.067356475
000270 68 fb 68 bd ff 69 f7 3d d2 f9 7a bd 9d 03 f3 3d
       -0.056880385 0.12080764 -0.061273403 0.118659236
000280 73 e4 09 be 1f 12 24 be d2 3c f4 3d 1d 06 0f be
       -0.13466053 -0.16022538 0.11925663 -0.13967176
000290 61 83 37 3c 2e e8 cc 3d b4 ea 21 3d 3e 5e 78 3e
       0.011200757 0.10005222 0.03953047 0.242547
0002a0 68 e2 18 be 91 f3 a7 3c 70 90 84 bc ff 99 56 3e
       -0.14930117 0.020501884 -0.016182154 0.20957182
0002b0 6c f2 c2 3c f3 c4 58 be d5 f1 4a 3d 7b 2a 9e bd
       0.023797236 -0.2116888 0.049547035 -0.07722946
0002c0 2d a4 4d bd 10 f4 84 3e 1f 9a 2f 3e f8 76 6b be
       -0.0502054 0.25967455 0.17148636 -0.22994602
0002d0 0f 3b cd 3d 43 6e 07 bb 23 74 c7 3d 1a 71 73 3d
       0.1002103 -0.0020665086 0.09738948 0.059434034
0002e0 10 8d 9a bc 6e a7 73 3e 3a 51 5c 3d e4 8e cc bd
       -0.018866092 0.23794338 0.0537884 -0.09988192
0002f0 84 45 45 3d 82 3e 59 3d 6f d5 8f 3b 45 f5 c2 bb
       0.048162 0.053038128 0.004389457 -0.0059496486
000300 5b c6 8d 3d 79 4a 26 be 33 8d 1e 3e 73 e4 6e be
       0.06922599 -0.16239347 0.1548355 -0.23329334
000310 a5 94 d7 3c 11 d8 07 bd 74 db 99 bd 71 44 0d be
       0.026315996 -0.03316504 -0.075125605 -0.1379564
000320 1c 5e 95 bd 91 b5 27 3e 43 70 0d be c6 5e 4d 3d
       -0.072933406 0.16377856 -0.13812356 0.05013921
000330 48 a7 98 3b 20 8a 7f be b8 e4 f2 3d 47 f8 c0 3d
       0.0046586134 -0.24955034 0.11860031 0.09422355
000340 37 71 13 3e 8b 4a 62 3e b0 e6 49 be 7e 59 66 3d
       0.14398657 0.22098748 -0.19716907 0.05623769
000350 06 cf e1 3d d6 52 96 3d ff 6c 2a 3e 6e 7d e5 3d
       0.11025815 0.073400185 0.16643141 0.112055644
000360 27 aa bf 3d 28 8d 40 3d 1f 59 9e 3d cc 83 c3 3d
       0.09358626 0.047009617 0.07731842 0.09546623
000370 fc 90 98 3d ba c4 af 3c d4 07 f7 3d 3d 54 3c be
       0.074495286 0.021456111 0.1206204 -0.1839151
000380 d5 bf ab bd da d3 0f be 75 f7 02 3c 95 2d 06 3c
       -0.083861984 -0.14045659 0.007993569 0.008189579
000390 1c d5 38 3e 01 99 05 bc 68 dc 07 3e 46 cf cf 3d
       0.18050045 -0.008154155 0.13267672 0.10146956
0003a0 9f b4 4d 3d 99 e7 01 bd fa 08 bf bd 68 e8 f3 3d
       0.05022108 -0.03171501 -0.09327884 0.11909562
0003b0 a0 80 84 3c 9a c4 da bd 4e 5a 37 3e 24 ce 97 bb
       0.016174614 -0.1068203 0.17905542 -0.004632728
0003c0 45 30 87 bd 7b e7 38 be f7 ce 7e 3e ca ae b1 bd
       -0.066010036 -0.18057053 0.24883638 -0.086759165
0003d0 f2 33 e0 bd 45 e5 fd bc a7 7c 75 bd ee 36 72 be
       -0.10947408 -0.030993113 -0.05993333 -0.23653767
0003e0 57 5c ed bd 02 cc 6c 3e b9 ad 45 3e 83 6c 1b 3e
       -0.11589878 0.23124698 0.19304551 0.15178113
0003f0 7c 00 91 bd 37 6d 1e 3d 3b ca 63 be 1b 49 4b bd
       -0.070801705 0.038678374 -0.22245114 -0.049630266

fc2.bias f4 [64]
000000 d5 49 92 be 90 89 8d be db ac 0a bf ab ee df be
       -0.28571954 -0.27644014 -0.54170007 -0.43736777
000010 fc 3b 9b be 25 f7 f7 be 7c d3 28 3d 21 22 3a be
       -0.30319202 -0.48430744 0.041217312 -0.18177082
000020 e5 25 7b be fa 26 03 bf b2 99 04 bf fc cd 11 bf
       -0.24526174 -0.5123135 -0.5179702 -0.5695493
000030 53 72 3d bf d3 85 2d 3d 1d de 00 bf 1b 0f ed be
       -0.7400257 0.042363953 -0.5033892 -0.46300587
000040 ea 2e 18 bf ee 6a 19 bf f4 66 fc be 79 0b 46 be
       -0.59446585 -0.59928787 -0.49297297 -0.19340314
000050 82 e9 a3 be 0f 8f 8b be fd 2e 86 3d 30 65 01 bf
       -0.3201409 -0.27257583 0.06551931 -0.50545025
000060 b6 14 02 bf ca 20 b5 be c3 ce 97 be 0f 87 ea be
       -0.5081285 -0.3537658 -0.29649934 -0.45806167
000070 95 31 21 3d dd 1a 98 be aa 4c ec be e8 bd 06 bd
       0.039353926 -0.29707995 -0.4615224 -0.032895952
000080 2b bd f6 be a5 00 c7 be 96 29 01 bf 7b 7b ca be
       -0.481912 -0.3886768 -0.5045408 -0.39547333
000090 a3 e5 fd be 65 3f d1 be ac 69 bf be 5e 07 f8 be
       -0.4958926 -0.4086868 -0.3738531 -0.4844312
0000a0 67 19 9c be bc 25 72 be 6d 10 3f 3d db 19 cf be
       -0.3048813 -0.23647207 0.046646524 -0.40449414
0000b0 b9 24 e0 be 8a 78 2b be d4 b7 05 bf 01 df fa be
       -0.43778017 -0.16745201 -0.52233624 -0.48998263
0000c0 6f d0 02 bf eb c6 e9 be 91 80 58 be 7a 38 b9 be
       -0.51099294 -0.45659575 -0.21142794 -0.361759
0000d0 ce 5a 27 3d 40 5d d5 be 2d 3e ca be f5 3d c1 be
       0.040858082 -0.41672707 -0.3950056 -0.37742582
0000e0 dc 1b 3d 3d 50 63 02 bf 34 0a 01 3d bb 19 da be
       0.046169147 -0.5093279 0.03150387 -0.42597756
0000f0 01 3c ed be 5e b4 f6 be fd 08 a4 be 2f ed cc be
       -0.46334842 -0.48184484 -0.32038108 -0.40024707

fc3.weight f4 [1, 64]
000000 c3 72 14 39 d3 c7 dc bb 91 cc 0c 3c d0 f1 91 3c
       0.00014157132 -0.006737688 0.008593694 0.0178155
000010 ce b5 c6 bc ea 57 33 bc d4 00 32 bf d3 bd 0a bd
       -0.024256613 -0.010946253 -0.69532514 -0.033872437
000020 36 d0 82 bb d9 ae d5 bd 15 c1 d3 bb fa 91 87 bc
       -0.003992106 -0.1043374 -0.006462226 -0.0165491
000030 2d da b5 3a 90 c5 2d bf 2a e1 88 bb 55 71 63 bd
       0.0013874226 -0.6787958 -0.0041772323 -0.055528004
000040 fe 43 e6 ba a0 20 4c bc d9 e6 e9 bd 18 ca 0d bd
       -0.0017567871 -0.01245895 -0.11420984 -0.03461656
000050 53 aa 0b bd 6d 98 4f bc 9c 4c 17 bf d0 45 21 3c
       -0.03409798 -0.0126706185 -0.5910127 0.009843305
000060 a0 e3 94 bc a1 5b a7 bc 51 49 0c bb d2 70 dd bc
       -0.018174946 -0.020429434 -0.0021406005 -0.027031336
000070 af 87 36 bf 19 6e fd bc 06 fa e5 bc f5 b2 af bc
       -0.71300787 -0.030936288 -0.028073322 -0.021447638
000080 6b 61 fb bd ab ec 59 bd c1 6e 95 3c c8 02 5f 3b
       -0.122744404 -0.05320422 0.018241288 0.0034028757
000090 46 ac 33 bc 4c 5a d7 3b 9f 53 d1 bc 15 48 47 3b
       -0.010966366 0.0065720435 -0.025552569 0.0030407954
0000a0 b3 30 f9 bb 30 f3 a6 bb 64 3f 28 bf 73 86 16 bc
       -0.0076046824 -0.005094908 -0.65721726 -0.009187329
0000b0 ae cc 3b 3d ef fb f5 3d b2 14 8a bd 6f 41 9a bd
       0.045849495 0.12010943 -0.067422286 -0.07532012
0000c0 d7 a4 b4 bd 42 08 84 3c ca 86 23 bd ac 27 25 bc
       -0.08820503 0.016117219 -0.039923467 -0.010080259
0000d0 f7 d6 36 bf 00 01 87 bc 08 4f e9 bb c4 8b 67 bc
       -0.7142176 -0.016479969 -0.007120017 -0.014132444
0000e0 ea ec 33 bf 60 eb de bd 19 2c 39 bf d0 60 0a be
       -0.7028338 -0.10884738 -0.7233291 -0.13513494
0000f0 ee e7 9b bd ff a4 67 bd 93 13 27 bb c3 e9 87 bc
       -0.076125965 -0.056553837 -0.0025493845 -0.016590958

bn1.weight f4 [128]
000000 00 00 80 3f 00 00 80 3f 00 00 80 3f 00 00 80 3f
       1.0 1.0 1.0 1.0
000010 00 00 80 3f 00 00 80 3f 00 00 80 3f 00 00 80 3f
       1.0 1.0 1.0 1.0
000020 00 00 80 3f 00 00 80 3f 00 00 80 3f 00 00 80 3f
       1.0 1.0 1.0 1.0
000030 00 00 80 3f 00 00 80 3f 00 00 80 3f 00 00 80 3f
       1.0 1.0 1.0 1.0
000040 00 00 80 3f 00 00 80 3f 00 00 80 3f 00 00 80 3f
       1.0 1.0 1.0 1.0
000050 00 00 80 3f 00 00 80 3f 00 00 80 3f 00 00 80 3f
       1.0 1.0 1.0 1.0
000060 00 00 80 3f 00 00 80 3f 00 00 80 3f 00 00 80 3f
       1.0 1.0 1.0 1.0
000070 00 00 80 3f 00 00 80 3f 00 00 80 3f 00 00 80 3f
       1.0 1.0 1.0 1.0
000080 00 00 80 3f 00 00 80 3f 00 00 80 3f 00 00 80 3f
       1.0 1.0 1.0 1.0
000090 00 00 80 3f 00 00 80 3f 00 00 80 3f 00 00 80 3f
       1.0 1.0 1.0 1.0
0000a0 00 00 80 3f 00 00 80 3f 00 00 80 3f 00 00 80 3f
       1.0 1.0 1.0 1.0
0000b0 00 00 80 3f 00 00 80 3f 00 00 80 3f 00 00 80 3f
       1.0 1.0 1.0 1.0
0000c0 00 00 80 3f 00 00 80 3f 00 00 80 3f 00 00 80 3f
       1.0 1.0 1.0 1.0
0000d0 00 00 80 3f 00 00 80 3f 00 00 80 3f 00 00 80 3f
       1.0 1.0 1.0 1.0
0000e0 00 00 80 3f 00 00 80 3f 00 00 80 3f 00 00 80 3f
       1.0 1.0 1.0 1.0
0000f0 00 00 80 3f 00 00 80 3f 00 00 80 3f 00 00 80 3f
       1.0 1.0 1.0 1.0
000100 00 00 80 3f 00 00 80 3f 00 00 80 3f 00 00 80 3f
       1.0 1.0 1.0 1.0
000110 00 00 80 3f 00 00 80 3f 00 00 80 3f 00 00 80 3f
       1.0 1.0 1.0 1.0
000120 00 00 80 3f 00 00 80 3f 00 00 80 3f 00 00 80 3f
       1.0 1.0 1.0 1.0
000130 00 00 80 3f 00 00 80 3f 00 00 80 3f 00 00 80 3f
       1.0 1.0 1.0 1.0
000140 00 00 80 3f 00 00 80 3f 00 00 80 3f 00 00 80 3f
       1.0 1.0 1.0 1.0
000150 00 00 80 3f 00 00 80 3f 00 00 80 3f 00 00 80 3f
       1.0 1.0 1.0 1.0
000160 00 00 80 3f 00 00 80 3f 00 00 80 3f 00 00 80 3f
       1.0 1.0 1.0 1.0
000170 00 00 80 3f 00 00 80 3f 00 00 80 3f 00 00 80 3f
       1.0 1.0 1.0 1.0
000180 00 00 80 3f 00 00 80 3f 00 00 80 3f 00 00 80 3f
       1.0 1.0 1.0 1.0
000190 00 00 80 3f 00 00 80 3f 00 00 80 3f 00 00 80 3f
       1.0 1.0 1.0 1.0
0001a0 00 00 80 3f 00 00 80 3f 00 00 80 3f 00 00 80 3f
       1.0 1.0 1.0 1.0
0001b0 00 00 80 3f 00 00 80 3f 00 00 80 3f 00 00 80 3f
       1.0 1.0 1.0 1.0
0001c0 00 00 80 3f 00 00 80 3f 00 00 80 3f 00 00 80 3f
       1.0 1.0 1.0 1.0
0001d0 00 00 80 3f 00 00 80 3f 00 00 80 3f 00 00 80 3f
       1.0 1.0 1.0 1.0
0001e0 00 00 80 3f 00 00 80 3f 00 00 80 3f 00 00 80 3f
       1.0 1.0 1.0 1.0
0001f0 00 00 80 3f 00 00 80 3f 00 00 80 3f 00 00 80 3f
       1.0 1.0 1.0 1.0

bn1.bias f4 [128]
000000 00 00 00 00 00 00 00 00 00 00 00 00 00 00 00 00
       0.0 0.0 0.0 0.0
000010 00 00 00 00 00 00 00 00 00 00 00 00 00 00 00 00
       0.0 0.0 0.0 0.0
000020 00 00 00 00 00 00 00 00 00 00 00 00 00 00 00 00
       0.0 0.0 0.0 0.0
000030 00 00 00 00 00 00 00 00 00 00 00 00 00 00 00 00
       0.0 0.0 0.0 0.0
000040 00 00 00 00 00 00 00 00 00 00 00 00 00 00 00 00
       0.0 0.0 0.0 0.0
000050 00 00 00 00 00 00 00 00 00 00 00 00 00 00 00 00
       0.0 0.0 0.0 0.0
000060 00 00 00 00 00 00 00 00 00 00 00 00 00 00 00 00
       0.0 0.0 0.0 0.0
000070 00 00 00 00 00 00 00 00 00 00 00 00 00 00 00 00
       0.0 0.0 0.0 0.0
000080 00 00 00 00 00 00 00 00 00 00 00 00 00 00 00 00
       0.0 0.0 0.0 0.0
000090 00 00 00 00 00 00 00 00 00 00 00 00 00 00 00 00
       0.0 0.0 0.0 0.0
0000a0 00 00 00 00 00 00 00 00 00 00 00 00 00 00 00 00
       0.0 0.0 0.0 0.0
0000b0 00 00 00 00 00 00 00 00 00 00 00 00 00 00 00 00
       0.0 0.0 0.0 0.0
0000c0 00 00 00 00 00 00 00 00 00 00 00 00 00 00 00 00
       0.0 0.0 0.0 0.0
0000d0 00 00 00 00 00 00 00 00 00 00 00 00 00 00 00 00
       0.0 0.0 0.0 0.0
0000e0 00 00 00 00 00 00 00 00 00 00 00 00 00 00 00 00
       0.0 0.0 0.0 0.0
0000f0 00 00 00 00 00 00 00 00 00 00 00 00 00 00 00 00
       0.0 0.0 0.0 0.0
000100 00 00 00 00 00 00 00 00 00 00 00 00 00 00 00 00
       0.0 0.0 0.0 0.0
000110 00 00 00 00 00 00 00 00 00 00 00 00 00 00 00 00
       0.0 0.0 0.0 0.0
000120 00 00 00 00 00 00 00 00 00 00 00 00 00 00 00 00
       0.0 0.0 0.0 0.0
000130 00 00 00 00 00 00 00 00 00 00 00 00 00 00 00 00
       0.0 0.0 0.0 0.0
000140 00 00 00 00 00 00 00 00 00 00 00 00 00 00 00 00
       0.0 0.0 0.0 0.0
000150 00 00 00 00 00 00 00 00 00 00 00 00 00 00 00 00
       0.0 0.0 0.0 0.0
000160 00 00 00 00 00 00 00 00 00 00 00 00 00 00 00 00
       0.0 0.0 0.0 0.0
000170 00 00 00 00 00 00 00 00 00 00 00 00 00 00 00 00
       0.0 0.0 0.0 0.0
000180 00 00 00 00 00 00 00 00 00 00 00 00 00 00 00 00
       0.0 0.0 0.0 0.0
000190 00 00 00 00 00 00 00 00 00 00 00 00 00 00 00 00
       0.0 0.0 0.0 0.0
0001a0 00 00 00 00 00 00 00 00 00 00 00 00 00 00 00 00
       0.0 0.0 0.0 0.0
0001b0 00 00 00 00 00 00 00 00 00 00 00 00 00 00 00 00
       0.0 0.0 0.0 0.0
0001c0 00 00 00 00 00 00 00 00 00 00 00 00 00 00 00 00
       0.0 0.0 0.0 0.0
0001d0 00 00 00 00 00 00 00 00 00 00 00 00 00 00 00 00
       0.0 0.0 0.0 0.0
0001e0 00 00 00 00 00 00 00 00 00 00 00 00 00 00 00 00
       0.0 0.0 0.0 0.0
0001f0 00 00 00 00 00 00 00 00 00 00 00 00 00 00 00 00
       0.0 0.0 0.0 0.0

bn1.running_mean f4 [128]
000000 00 00 00 00 00 00 00 00 00 00 00 00 00 00 00 00
       0.0 0.0 0.0 0.0
000010 00 00 00 00 00 00 00 00 00 00 00 00 00 00 00 00
       0.0 0.0 0.0 0.0
000020 00 00 00 00 00 00 00 00 00 00 00 00 00 00 00 00
       0.0 0.0 0.0 0.0
000030 00 00 00 00 00 00 00 00 00 00 00 00 00 00 00 00
       0.0 0.0 0.0 0.0
000040 00 00 00 00 00 00 00 00 00 00 00 00 00 00 00 00
       0.0 0.0 0.0 0.0
000050 00 00 00 00 00 00 00 00 00 00 00 00 00 00 00 00
       0.0 0.0 0.0 0.0
000060 00 00 00 00 00 00 00 00 00 00 00 00 00 00 00 00
       0.0 0.0 0.0 0.0
000070 00 00 00 00 00 00 00 00 00 00 00 00 00 00 00 00
       0.0 0.0 0.0 0.0
000080 00 00 00 00 00 00 00 00 00 00 00 00 00 00 00 00
       0.0 0.0 0.0 0.0
000090 00 00 00 00 00 00 00 00 00 00 00 00 00 00 00 00
       0.0 0.0 0.0 0.0
0000a0 00 00 00 00 00 00 00 00 00 00 00 00 00 00 00 00
       0.0 0.0 0.0 0.0
0000b0 00 00 00 00 00 00 00 00 00 00 00 00 00 00 00 00
       0.0 0.0 0.0 0.0
0000c0 00 00 00 00 00 00 00 00 00 00 00 00 00 00 00 00
       0.0 0.0 0.0 0.0
0000d0 00 00 00 00 00 00 00 00 00 00 00 00 00 00 00 00
       0.0 0.0 0.0 0.0
0000e0 00 00 00 00 00 00 00 00 00 00 00 00 00 00 00 00
       0.0 0.0 0.0 0.0
0000f0 00 00 00 00 00 00 00 00 00 00 00 00 00 00 00 00
       0.0 0.0 0.0 0.0
000100 00 00 00 00 00 00 00 00 00 00 00 00 00 00 00 00
       0.0 0.0 0.0 0.0
000110 00 00 00 00 00 00 00 00 00 00 00 00 00 00 00 00
       0.0 0.0 0.0 0.0
000120 00 00 00 00 00 00 00 00 00 00 00 00 00 00 00 00
       0.0 0.0 0.0 0.0
000130 00 00 00 00 00 00 00 00 00 00 00 00 00 00 00 00
       0.0 0.0 0.0 0.0
000140 00 00 00 00 00 00 00 00 00 00 00 00 00 00 00 00
       0.0 0.0 0.0 0.0
000150 00 00 00 00 00 00 00 00 00 00 00 00 00 00 00 00
       0.0 0.0 0.0 0.0
000160 00 00 00 00 00 00 00 00 00 00 00 00 00 00 00 00
       0.0 0.0 0.0 0.0
000170 00 00 00 00 00 00 00 00 00 00 00 00 00 00 00 00
       0.0 0.0 0.0 0.0
000180 00 00 00 00 00 00 00 00 00 00 00 00 00 00 00 00
       0.0 0.0 0.0 0.0
000190 00 00 00 00 00 00 00 00 00 00 00 00 00 00 00 00
       0.0 0.0 0.0 0.0
0001a0 00 00 00 00 00 00 00 00 00 00 00 00 00 00 00 00
       0.0 0.0 0.0 0.0
0001b0 00 00 00 00 00 00 00 00 00 00 00 00 00 00 00 00
       0.0 0.0 0.0 0.0
0001c0 00 00 00 00 00 00 00 00 00 00 00 00 00 00 00 00
       0.0 0.0 0.0 0.0
0001d0 00 00 00 00 00 00 00 00 00 00 00 00 00 00 00 00
       0.0 0.0 0.0 0.0
0001e0 00 00 00 00 00 00 00 00 00 00 00 00 00 00 00 00
       0.0 0.0 0.0 0.0
0001f0 00 00 00 00 00 00 00 00 00 00 00 00 00 00 00 00
       0.0 0.0 0.0 0.0

bn1.running_var f4 [128]
000000 00 00 80 3f 00 00 80 3f 00 00 80 3f 00 00 80 3f
       1.0 1.0 1.0 1.0
000010 00 00 80 3f 00 00 80 3f 00 00 80 3f 00 00 80 3f
       1.0 1.0 1.0 1.0
000020 00 00 80 3f 00 00 80 3f 00 00 80 3f 00 00 80 3f
       1.0 1.0 1.0 1.0
000030 00 00 80 3f 00 00 80 3f 00 00 80 3f 00 00 80 3f
       1.0 1.0 1.0 1.0
000040 00 00 80 3f 00 00 80 3f 00 00 80 3f 00 00 80 3f
       1.0 1.0 1.0 1.0
000050 00 00 80 3f 00 00 80 3f 00 00 80 3f 00 00 80 3f
       1.0 1.0 1.0 1.0
000060 00 00 80 3f 00 00 80 3f 00 00 80 3f 00 00 80 3f
       1.0 1.0 1.0 1.0
000070 00 00 80 3f 00 00 80 3f 00 00 80 3f 00 00 80 3f
       1.0 1.0 1.0 1.0
000080 00 00 80 3f 00 00 80 3f 00 00 80 3f 00 00 80 3f
       1.0 1.0 1.0 1.0
000090 00 00 80 3f 00 00 80 3f 00 00 80 3f 00 00 80 3f
       1.0 1.0 1.0 1.0
0000a0 00 00 80 3f 00 00 80 3f 00 00 80 3f 00 00 80 3f
       1.0 1.0 1.0 1.0
0000b0 00 00 80 3f 00 00 80 3f 00 00 80 3f 00 00 80 3f
       1.0 1.0 1.0 1.0
0000c0 00 00 80 3f 00 00 80 3f 00 00 80 3f 00 00 80 3f
       1.0 1.0 1.0 1.0
0000d0 00 00 80 3f 00 00 80 3f 00 00 80 3f 00 00 80 3f
       1.0 1.0 1.0 1.0
0000e0 00 00 80 3f 00 00 80 3f 00 00 80 3f 00 00 80 3f
       1.0 1.0 1.0 1.0
0000f0 00 00 80 3f 00 00 80 3f 00 00 80 3f 00 00 80 3f
       1.0 1.0 1.0 1.0
000100 00 00 80 3f 00 00 80 3f 00 00 80 3f 00 00 80 3f
       1.0 1.0 1.0 1.0
000110 00 00 80 3f 00 00 80 3f 00 00 80 3f 00 00 80 3f
       1.0 1.0 1.0 1.0
000120 00 00 80 3f 00 00 80 3f 00 00 80 3f 00 00 80 3f
       1.0 1.0 1.0 1.0
000130 00 00 80 3f 00 00 80 3f 00 00 80 3f 00 00 80 3f
       1.0 1.0 1.0 1.0
000140 00 00 80 3f 00 00 80 3f 00 00 80 3f 00 00 80 3f
       1.0 1.0 1.0 1.0
000150 00 00 80 3f 00 00 80 3f 00 00 80 3f 00 00 80 3f
       1.0 1.0 1.0 1.0
000160 00 00 80 3f 00 00 80 3f 00 00 80 3f 00 00 80 3f
       1.0 1.0 1.0 1.0
000170 00 00 80 3f 00 00 80 3f 00 00 80 3f 00 00 80 3f
       1.0 1.0 1.0 1.0
000180 00 00 80 3f 00 00 80 3f 00 00 80 3f 00 00 80 3f
       1.0 1.0 1.0 1.0
000190 00 00 80 3f 00 00 80 3f 00 00 80 3f 00 00 80 3f
       1.0 1.0 1.0 1.0
0001a0 00 00 80 3f 00 00 80 3f 00 00 80 3f 00 00 80 3f
       1.0 1.0 1.0 1.0
0001b0 00 00 80 3f 00 00 80 3f 00 00 80 3f 00 00 80 3f
       1.0 1.0 1.0 1.0
0001c0 00 00 80 3f 00 00 80 3f 00 00 80 3f 00 00 80 3f
       1.0 1.0 1.0 1.0
0001d0 00 00 80 3f 00 00 80 3f 00 00 80 3f 00 00 80 3f
       1.0 1.0 1.0 1.0
0001e0 00 00 80 3f 00 00 80 3f 00 00 80 3f 00 00 80 3f
       1.0 1.0 1.0 1.0
0001f0 00 00 80 3f 00 00 80 3f 00 00 80 3f 00 00 80 3f
       1.0 1.0 1.0 1.0
