models/0_2023_2023/Temporal_GIN_Attention/70.pth (torch, 191218 bytes, 35 tensors)

conv1.nn.0.weight f4 [64, 12]
00000000: 4113 b53a 3ddb 41bb d784 5abb 3a07 38ba
00000010: cf0a 9bbb 1e6e e8bb 87e5 29ba 9a57 96bb
00000020: 6870 aaba e47c f6ba 92a7 93ba 78bb cab9
00000030: 7081 19bb 4aa4 bfb7 e680 b6ba 359e 1ebb
00000040: 78bd 9438 d1c2 273b e1a7 3a3a 094c 1c3b
00000050: 0a34 edb7 1549 84ba 6cba 183b a1d2 c9ba
00000060: 40f4 85bb 3f7c 43ba 59b2 7d38 648d e2ba
00000070: 7b3a 83b9 4576 86ba 4faf e2ba a210 f4b8
00000080: 9b9d 00ba 1930 1abb b5c5 393a d762 47ba
00000090: 7a0b aa3e 8ceb ed3e 3d81 e63e fc96 4abd
000000a0: d1c7 7fbf 297a 47bf 2006 02c0 c840 efbe
000000b0: 6970 0740 b094 0540 693b d4be da94 1d40
000000c0: f7e9 83bc 358a a5bb baa3 0cbb 71d9 12bb
000000d0: f76a e6bc 7685 fbbc 431f 0cbd a3ee 85bc
000000e0: 84d3 093d b2df 7f3c a7ea 8abc 4d3f 173d
000000f0: a702 29bb a71a b9bb 4a6d c0b9 083f 88ba
00000100: da28 24bb 18c1 ccba 57a8 8ebb a775 073b
00000110: 5d12 953b 680c 933b 295e ae3a 8f75 3a3b
00000120: 2da5 a5bc 4f44 d0bb 8d69 91bb 26ff 0abb
00000130: 59b1 debd a91e eabd 35ba 1fbe 7ce1 27bd
00000140: a053 0f3e 85bd c93d 277d 0fbd 1de0 f03d
00000150: 0336 d339 76ef 90ba e1fb 883a 72c0 64ba
00000160: 055e 523b 9926 6aba 1a05 133a f09e 3ebb
00000170: 4ee4 a8b9 cdbf 38bb 8696 22bb 968f f2ba
00000180: c116 31bb 2e76 6aba d3c0 5fba ecd4 a5b9
00000190: 55fd 013a ad1e 563a f33a 86b8 d526 7b3b
000001a0: b239 ad3a fe54 8bba 6d5c 133a 7b34 f93a
000001b0: 884c eab9 d080 11bb 5651 7a3a 7b39 41ba
000001c0: 7e70 b6ba 4e62 ef3a fed2 cdb8 e7a4 d8ba
000001d0: 1ac8 e2ba 6776 323b 8c84 f63a cbe1 07bb
000001e0: 0369 e7ba b2a2 ddba 0487 86b9 8d4c 22bb
000001f0: 0e72 203b 72d8 b2ba b4ce 723b 71a0 a738
00000200: de93 2ebb eaeb 35bb 54da cc3a 8f01 2d3b
00000210: adda 64ba c458 29bb 5ec7 5d3a 88db 04bb
00000220: d79f f7ba 809e 4e3a 86f6 8fb9 a23c 4eb9
00000230: 89f8 293b 39f4 04ba 3cb3 e63a f6e7 6bba
00000240: f3b0 1abc 89ef 13bb f71d 36ba f8db e4ba
00000250: 087b ccbc ad71 61bc d55a d3bc 91bb 4cba
00000260: 82f3 c93c 99d3 cd3b 7ccf c3bb 010b 7e3c
00000270: ec48 67bc 0ef4 d4bb 66b3 f2bb c95c 31bb
00000280: 4b99 e03b 4692 40bc 6f5b ed3a 3143 043c
00000290: e3f4 873c b358 44ba 5150 9bba 723c 963a
000002a0: 3a33 01bb 11b4 7ebb 9385 5bbb 4748 5bba
000002b0: 14c1 f6bb c7b8 e1bb 6547 b0bb 41c3 473a
000002c0: ead6 1b3b b6cc b8ba 5276 82ba d5b9 813b
000002d0: b7e3 4cbb 7e3d 28ba 7506 3bbb dd80 13bb
000002e0: 1a3e 38ba 3aba b3bb f386 5f39 8232 a93b
000002f0: 272b b23a 4d15 b33a f18d 133b 7bfe 9439
00000300: 2ee6 c73c cb2b 22bd 992c 1bbd fa0c 99bc
00000310: 5f3a 2bbd c3ce 9b3d 2a8b f2bd f0d8 e5bc
00000320: 31e7 98bc 0c2d aebc c87f 7dbc 13f7 99bc
00000330: bccd d3bc 8d3f 82bc f5df 9ebc a39b ebba
00000340: f91a 30bd 2fda 00bd bbeb 6fbc 8fc2 813c
00000350: d77f 763d 5df2 303c 87ed d4ba 9169 923c
00000360: f180 bdbe 6b2b ab3e 07b8 ab3e 5892 54be
00000370: 98fc 123f ff0d 32bf a65f 873f 382f 0b3f
00000380: 1294 c03e a1e9 d7bd 6bd4 7fbc d30e 763d
00000390: 2990 13bc e20e 39b9 d63e 84b9 e6bc 1bbb
000003a0: e11b 4fbb 7b36 b0bb b8c8 8a3b b787 333b
000003b0: d702 4cbb d422 40ba 9d0a 0b3a 9644 b3ba
000003c0: e496 97ba fb0f c5bb 1259 8abb 6311 49ba
000003d0: 1f23 cdbb 4661 0abb acb8 28bb 57ab 0bbb
000003e0: a2b5 e53a 229c 1dba e770 f539 ceeb be3b
000003f0: d6e8 233b 2114 d4ba 608b d7ba cc28 bdba
0.0013814942 -0.002958014 -0.003334334 -0.000702012 -0.004731513 -0.007093205 -0.00064810406 -0.0045880796
-0.001300347 -0.0018805531 -0.001126515 -0.00038668117 -0.0023423098 -2.2845477e-05 -0.0013923913 -0.0024203185
7.092481e-05 0.0025598297 0.0007120353 0.0023849031 -2.8276834e-05 -0.0010092581 0.0023304475 -0.0015397855
-0.0040879548 -0.0007457174 6.0486e-05 -0.0017284569 -0.00025029838 -0.0010258636 -0.0017294678 -0.00011637925
-0.00049062975 -0.0023527204 0.00070866506 -0.0007605976 0.3321188 0.4646877 0.45020476 -0.049460396
-0.9991427 -0.77920777 -2.0316238 -0.46729112 2.116236 2.0872002 -0.41451576 2.4622102
-0.016102774 -0.005051876 -0.0021459893 -0.0022407437 -0.028127177 -0.030703288 -0.0342095 -0.016349142
0.033648983 0.015617298 -0.016957594 0.036925603 -0.0025788934 -0.005648929 -0.0003670252 -0.0010394761
-0.0025048763 -0.0015621511 -0.0043535638 0.0020669491 0.004549308 0.004487563 0.0013303208 0.0028451418
-0.020220364 -0.0063557993 -0.0044376315 -0.002120921 -0.1087367 -0.11431629 -0.15598376 -0.040986523
0.13996744 0.09850601 -0.035031464 0.11761496 0.00040285298 -0.0011057693 0.0010451042 -0.00087261864
0.0032099497 -0.0008932143 0.0005608365 -0.0029086433 -0.00032213557 -0.0028190494 -0.0024808957 -0.0018505927
-0.002702162 -0.0008944002 -0.0008535508 -0.00031629892 0.0004958709 0.0008168023 -6.400598e-05 0.0038322706
0.0013216047 -0.0010630188 0.00056213775 0.0019012833 -0.00044688978 -0.0022202022 0.0009548863 -0.0007370931
-0.0013919023 0.001826355 -9.814462e-05 -0.0016528637 -0.0017302067 0.0027231218 0.0018807813 -0.0020733948
-0.0017655197 -0.0016909449 -0.00025659066 -0.0024764866 0.0024482044 -0.0013644828 0.0037049474 7.993065e-05
-0.0026638429 -0.0027759024 0.0015629032 0.0026398634 -0.0008730095 -0.0025840262 0.0008460189 -0.0020272452
-0.001889224 0.00078818947 -0.0002745876 -0.00019668278 0.0025935492 -0.00050717924 0.0017601023 -0.00089991034
-0.009441602 -0.0022573194 -0.0006947214 -0.0017460575 -0.02496101 -0.013760013 -0.025800148 -0.0007809932
0.024652246 0.006281328 -0.005975662 0.015505553 -0.014116507 -0.00649882 -0.00740664 -0.002706336
0.0068542114 -0.011753624 0.0018108914 0.00807266 0.016596263 -0.0007490024 -0.0011849498 0.0011462106
-0.0019714371 -0.0038864652 -0.0033496364 -0.0008364957 -0.007530341 -0.0068884823 -0.0053796046 0.00076203427
0.0023779222 -0.0014099095 -0.0009953475 0.0039589205 -0.0031263658 -0.00064178545 -0.0028537784 -0.0022507228
-0.0007028297 -0.0054848464 0.0002131721 0.0051634917 0.0013593183 0.0013662964 0.0022515024 0.00028418362
0.02440175 -0.039592545 -0.03788433 -0.018682946 -0.041803714 0.07607796 -0.1184295 -0.028057545
-0.018664928 -0.021261714 -0.01547236 -0.018794572 -0.025854938 -0.015899444 -0.0193939 -0.001797546
-0.042994473 -0.031458076 -0.014643605 0.015839843 0.06018051 0.010799971 -0.0016245105 0.017872604
-0.37012437 0.33431563 0.3353884 -0.2075895 0.5741668 -0.69552606 1.0576065 0.54368925
0.3761297 -0.10542608 -0.015614609 0.06007273 -0.009006538 -0.00017648519 -0.00025223818 -0.0023763715
-0.003160231 -0.0053775883 0.0042353533 0.0027394125 -0.0031129622 -0.00073294085 0.00053040107 -0.0013677056
-0.0011565355 -0.006013868 -0.004222044 -0.00076701323 -0.0062602903 -0.0021115108 -0.0025744839 -0.0021311843
0.0017525444 -0.00060123403 0.0004681416 0.00582645 0.0025010607 -0.0016180315 -0.0016444735 -0.0014431714

conv1.nn.0.bias f4 [64]
00000000: cde0 25bb 1028 ce3a f393 46bb 06fd ac3e
00000010: c748 5b3b 67c4 373a 4a3e c4bb 1710 aa3a
00000020: ae13 66bb d6af 4439 aec4 7b3b 8100 c23a
00000030: de45 0ebc 7c26 3b3b 6c58 40bb 8275 29bb
00000040: abcc ccbd 91ad babc ad18 513f 6067 93b9
00000050: 501c 063a 4c40 00bb 7591 19ba 9953 aeba
00000060: 154c 483d 3c7b 00bc 029c febc 1d6a d4bb
00000070: 83b9 11bb 9eae f8ba cb8a 58bd dfb9 23bd
00000080: 05d2 84bc 16f7 44b9 efe3 983a 8c56 9fbc
00000090: a623 b2ba 2c0e b1b9 bc65 333b 55c8 793b
000000a0: 9e6c 17bb 7f81 2ebb 54a6 c3b8 0864 2ebb
000000b0: e705 1ebc 4e76 d4ba 704f c838 5ec7 9eba
000000c0: 57c1 3cbb 62f3 243a e6af 8bbb eed1 cd3a
000000d0: f7b2 1abb 2349 40ba 5635 e2b9 d85f b83a
000000e0: 5a7d 6bba 6490 6abb ad14 3dbb ce70 a9b9
000000f0: b7bd 79b9 448b 163c 2c5b 87bb 3800 67bb
-0.0025310994 0.0015728492 -0.0030300587 0.33786792 0.0033460127 0.0007010162 -0.0059888707 0.0012974766
-0.0035106945 0.0001875752 0.003841679 0.0014801176 -0.00868365 0.0028556874 -0.0029349579 -0.0025857394
-0.09999975 -0.022787841 0.8167828 -0.00028115045 0.0005115913 -0.0019569574 -0.00058581616 -0.001330006
0.048900682 -0.007841881 -0.03108025 -0.0064823763 -0.0022235818 -0.0018972938 -0.05286674 -0.039972182
-0.016213426 -0.00018784063 0.0011664609 -0.019450448 -0.0013590946 -0.0003377063 0.002737387 0.0038113792
-0.0023105512 -0.0026627479 -9.3293056e-05 -0.0026609916 -0.009644962 -0.0016209574 9.5515396e-05 -0.0012113859
-0.0028801763 0.00062923704 -0.004262912 0.0015702823 -0.0023605207 -0.0007335117 -0.00043145817 0.001406665
-0.00089832174 -0.003579163 -0.0028851435 -0.00032318238 -0.00023817165 0.009188477 -0.0041307416 -0.0035247933

conv1.nn.2.weight f4 [64]
00000000: ff8f 143c 611c 243c fde9 0e3c f38c a3be
00000010: bd8f 263c 4d4e 103c 4f75 9a3c b278 1d3c
00000020: 9408 1b3c 611c 243c 4173 033c 611c 243c
00000030: 96ba 1e3c 9427 aa3b b23a 103c 939e 8c3b
00000040: 5f9d 5dbd 0cb5 593c 818a 7e3a f0c5 413b
00000050: cf80 183c 611c 243c 388d 323c e15d 263c
00000060: bcf4 8bbd 71e2 213c a5e0 c2bd 2de2 1a3c
00000070: c0d2 283c 9310 093c 2b77 1dbd 16c2 c13b
00000080: 873d 9e3d 0d4f 0b3c 3194 2c3c 21da 433d
00000090: 220f 0f3c 611c 243c 611c 243c 11de 6dbc
000000a0: 0adc 103c afc7 163c 35e9 073c ec3f 0e3c
000000b0: eda6 753c b2d2 1e3c f157 ed3b ee58 293c
000000c0: 9157 103c 554e 0e3c 89a8 833b a752 0a3c
000000d0: 24ac f03b 927f 073c 611c 243c 7c1e 433c
000000e0: 611c 243c a8f5 293c b709 1a3c aadd 1f3c
000000f0: 8d4f 023c 849a 75bc ced9 173c 31a5 023c
0.0090675345 0.010016532 0.008722779 -0.31943473 0.010166106 0.008807731 0.018854765 0.009611296
0.009462494 0.010016532 0.008023084 0.010016532 0.00968804 0.0051927064 0.008803057 0.0042913645
-0.05410516 0.013287794 0.000970997 0.0029567443 0.009308054 0.010016532 0.010897927 0.010154218
-0.06833789 0.009880648 -0.09515504 0.009453339 0.010304153 0.008365768 -0.038443726 0.0059130294
0.07726579 0.008502734 0.010533378 0.047815446 0.008731635 0.010016532 0.010016532 -0.014518277
0.008841524 0.009202882 0.008295347 0.008682232 0.0149934115 0.009693788 0.0072431494 0.010336144
0.00880994 0.008685668 0.0040178937 0.008442557 0.0073447395 0.008270161 0.010016532 0.0119091235
0.010016532 0.01037351 0.00940173 0.009757439 0.007953537 -0.014990453 0.009268237 0.007973955

conv1.nn.2.bias f4 [64]
00000000: 591c b1be 27bf 453c ce96 823c fb35 eb3c
00000010: 3182 bb3e 4ed3 c0bf 1493 84bf 8030 07bf
00000020: 3fcd 413d a7ab fb3c 5b2e 70bf 5405 913e
00000030: 9882 ea3d d199 7ebf da55 813e 689b e6bc
00000040: 3506 6bbd 4474 00be 47c5 84bd 5916 e73f
00000050: 6666 9abc 41b8 81bf 44c2 38be 1ab8 313c
00000060: 80f0 2b3f e17b ad3d 0d1c 063b 3d7c ab3e
00000070: d30f 333e 2ec0 3b3c a68d 4abd 87ac cb3e
00000080: e200 713e 9818 243f b52e 153f 1aca 313f
00000090: 84ac af3e b52f 123e 8da6 8d3f 5aa2 2fbb
000000a0: 7ac6 e0bd 52a1 4f3c 5ab8 aebe a61f 23bf
000000b0: b2a9 08bf 2681 30bf 037a 79bf aab2 32bf
000000c0: f0e1 3e3a 1660 313f b603 f73d ae03 9abf
000000d0: 389e 20bf 3fae 373f e221 7abe c84c a1be
000000e0: 6a3a 8ebe ccf3 25bf f267 483e 4b24 c5be
000000f0: 9567 5b3f 23d6 99bd d16e 3d3e 4287 493f
-0.3459194 0.0120695 0.01594105 0.028712263 0.36622766 -1.5064485 -1.0357385 -0.5280838
0.04731488 0.030721499 -0.9382073 0.28324378 0.1145069 -0.99453455 0.25260812 -0.028150275
-0.057378966 -0.12544352 -0.0648294 1.8053695 -0.018847656 -1.0134355 -0.18042856 0.010847116
0.6716385 0.08470894 0.0020463497 0.33493224 0.17486505 0.011459393 -0.049451493 0.39780065
0.23535493 0.6410003 0.58274394 0.6944901 0.34311306 0.14276011 1.1066452 -0.002679965
-0.109753564 0.012672739 -0.34125024 -0.63720167 -0.53383934 -0.68947065 -0.974518 -0.6980387
0.0007281592 0.6928724 0.12061255 -1.2032373 -0.6274142 0.71750253 -0.24426988 -0.31503892
-0.2777894 -0.6482513 0.19570902 -0.38504252 0.8570493 -0.075115465 0.18499304 0.7872201

conv1.nn.2.running_mean f4 [64]
00000000: 0400 0000 0000 0000 0400 0000 8150 833e
00000010: 0400 0000 0400 0000 0400 0000 0400 0000
00000020: 0400 0000 0000 0000 0400 0000 0000 0000
00000030: 0400 0000 0400 0000 0400 0000 0400 0000
00000040: 0400 0000 0400 0000 46a0 2d3e 0400 0000
00000050: 0400 0000 0000 0000 0400 0000 0400 0000
00000060: 0400 0000 0400 0000 0400 0000 0400 0000
00000070: 0400 0000 0400 0000 0400 0000 0400 0000
00000080: 0400 0000 0400 0000 0400 0000 0400 0000
00000090: 0400 0000 0000 0000 0000 0000 0400 0000
000000a0: 0400 0000 0400 0000 0400 0000 0400 0000
000000b0: 0400 0000 0400 0000 0400 0000 0400 0000
000000c0: 0400 0000 0400 0000 0400 0000 0400 0000
000000d0: 0400 0000 0400 0000 0000 0000 0400 0000
000000e0: 0000 0000 0400 0000 0400 0000 0400 0000
000000f0: 0400 0000 0400 0000 0400 0000 0400 0000
6e-45 0.0 6e-45 0.25647357 6e-45 6e-45 6e-45 6e-45
6e-45 0.0 6e-45 0.0 6e-45 6e-45 6e-45 6e-45
6e-45 6e-45 0.1695567 6e-45 6e-45 0.0 6e-45 6e-45
6e-45 6e-45 6e-45 6e-45 6e-45 6e-45 6e-45 6e-45
6e-45 6e-45 6e-45 6e-45 6e-45 0.0 0.0 6e-45
6e-45 6e-45 6e-45 6e-45 6e-45 6e-45 6e-45 6e-45
6e-45 6e-45 6e-45 6e-45 6e-45 6e-45 0.0 6e-45
0.0 6e-45 6e-45 6e-45 6e-45 6e-45 6e-45 6e-45

conv1.nn.2.running_var f4 [64]
00000000: 0400 0000 0400 0000 0400 0000 c5bc 0443
00000010: 0400 0000 0400 0000 0400 0000 0400 0000
00000020: 0400 0000 0400 0000 0400 0000 0400 0000
00000030: 0400 0000 0400 0000 0400 0000 0400 0000
00000040: 0400 0000 0400 0000 6439 7142 0400 0000
00000050: 0400 0000 0400 0000 0400 0000 0400 0000
00000060: 0400 0000 0400 0000 0400 0000 0400 0000
00000070: 0400 0000 0400 0000 0400 0000 0400 0000
00000080: 0400 0000 0400 0000 0400 0000 0400 0000
00000090: 0400 0000 0400 0000 0400 0000 0400 0000
000000a0: 0400 0000 0400 0000 0400 0000 0400 0000
000000b0: 0400 0000 0400 0000 0400 0000 0400 0000
000000c0: 0400 0000 0400 0000 0400 0000 0400 0000
000000d0: 0400 0000 0400 0000 0400 0000 0400 0000
000000e0: 0400 0000 0400 0000 0400 0000 0400 0000
000000f0: 0400 0000 0400 0000 0400 0000 0400 0000
6e-45 6e-45 6e-45 132.73738 6e-45 6e-45 6e-45 6e-45
6e-45 6e-45 6e-45 6e-45 6e-45 6e-45 6e-45 6e-45
6e-45 6e-45 60.306046 6e-45 6e-45 6e-45 6e-45 6e-45
6e-45 6e-45 6e-45 6e-45 6e-45 6e-45 6e-45 6e-45
6e-45 6e-45 6e-45 6e-45 6e-45 6e-45 6e-45 6e-45
6e-45 6e-45 6e-45 6e-45 6e-45 6e-45 6e-45 6e-45
6e-45 6e-45 6e-45 6e-45 6e-45 6e-45 6e-45 6e-45
6e-45 6e-45 6e-45 6e-45 6e-45 6e-45 6e-45 6e-45

conv1.nn.4.weight f4 [64, 64]
00000000: 0970 333d 60b5 7a3e 6655 ecbc 9930 d1bd
00000010: 418f 7bbe 972d 183e a436 d23e 5cf4 343f
00000020: 9f6c 353d d91f c73d 104d e23d fabe 04bf
00000030: a7fc 43be 4e38 333e 0c3d e9bd 10b9 583d
00000040: 728a 043c a515 d73e cceb fcbc 228c cbbe
00000050: b056 543d 625b 7b3e b0ac 843d 4a84 8d3d
00000060: 30a5 26be 1c15 5cbe aa49 0dbe 62bb 00be
00000070: 8054 76be c4f1 8e3d 02c9 533e 3ef1 85be
00000080: 7483 0cbe 3bb4 613b 285f bdbc f4ac efbe
00000090: 86d7 683d 2033 4ebd c374 a8be 5eb0 9dbd
000000a0: 577e 503b cefb 2c3e 4a91 183d 134a 803e
000000b0: 3768 3a3d 60d0 e63d c2f6 363e ac05 9a3e
000000c0: 514f e6bd 5774 82be 174c 19be 1bdf 9c3e
000000d0: b7cb da3c d5fa a9be 4830 893d bba1 9a3e
000000e0: 6676 353e d917 ad3e 310a a73d 87ad c4bd
000000f0: b306 70be bb9a acbd 9e57 99be fbc0 53bc
00000100: f2c0 d0be ad0c 9f3e 6226 c2be bbd9 7bbe
00000110: ca59 953d 083d a93d 5d12 e8be 5227 fd3d
00000120: f5b5 92be 7ea8 d03b d2de f13c 7f48 903e
00000130: 496a e4be d2e4 a63e efb1 d1bd 7367 d83e
00000140: 68f7 0d3e b106 c23d 7024 073e 1a9e 2ebe
00000150: 0479 3cbe 78e9 953d f437 693e 3f89 563e
00000160: 3e08 13bf cbb8 6abd 5a9e 593e 98b9 c2bd
00000170: ebd0 abbe 69cf 673e f358 10be d9d7 6a3c
00000180: abaf 7abd 0a03 593e 011e 90be 7872 c3be
00000190: 4703 1e3f d0e9 c23e 17b1 0fbf 9d82 063e
000001a0: 6212 2fbe 5113 cdbd c5d8 923d 0108 813e
000001b0: 36f6 633e b24c 303e 895b 2fbd 240f 89bc
000001c0: 6887 dc3e b35a 1a3f 0215 273d f394 cb3e
000001d0: ad24 4dbd e451 a6be 6780 2ebe 2462 f03d
000001e0: 2689 a83e fa2c 0cbe dd25 553c a8c9 a63e
000001f0: b924 a13c ad81 f13c c70a 043d 500a 063f
00000200: 275d 403f 0949 703e 9416 07bc 03bb 753d
00000210: 2ec2 40bf e289 d83f e0d4 0bbf 2bac 193f
00000220: 0211 e93e 1e46 763e 7ae6 7a3f 8709 863e
00000230: b43a 24bd dab8 64bf c4c4 1bbf 327a 043d
00000240: 4f57 833e d5c4 a93e 575d 903e 5ca2 bc3f
00000250: 28c2 183e d6a7 51bf f151 183c 5dc7 523b
00000260: d063 073f ef21 3fbe 7569 98bc cd8f f8be
00000270: 75ce 2f3e e133 2c3e 5a21 7bbd fedd 98be
00000280: c6ae f7be dded 4b3f 1844 473f 20e4 36bf
00000290: 18a8 b2be ea95 4e3d 58a0 b03f f368 4ebe
000002a0: f499 303f c06f 96be 02ec 2fbd 1ec1 fcbe
000002b0: 2a06 13bf 1a5c 40bf 63a6 5ebf ecb5 36bf
000002c0: 49d1 97bd 8f82 c93e 4d80 7fbe fb63 5bbf
000002d0: cf13 213f 2eef 493f 820d 3a3e f823 abbe
000002e0: 09db 8fbb a616 2b3f a6b5 0a3d a940 ff3e
000002f0: 2bb3 42bf 3902 c73d 6304 6d3e 1257 74bf
00000300: aa38 7b3e 74fc dd3d 720b 263c 1f51 a13d
00000310: 2b8a 0dbe 14bc db3f 1887 6bbf af6a eb3e
00000320: fdaf cabe 038c a8be 98b3 863f 20e7 a23d
00000330: 96ce 4e3e 59e8 a3bf 600b ddbe 2c3f ff3d
00000340: 5ea2 74be ff08 66be 3e74 25be b238 0340
00000350: 02dd 47be 30e2 96bf 49b2 103f ee7f 453c
00000360: d3ea 1a3f 2c52 91bd dccc 49be 7429 00bf
00000370: 84df 8d3e 3f9a b7bd 39ef c2bd c1cb 0d3f
00000380: 208e 5d3c cb12 d73e 4f53 0e3f 18da 57bf
00000390: 56c0 a9be 8b42 7d3d a393 b53f 4efd 3dbd
000003a0: 344e 303e 4c59 a03e 41c6 b1bd c7ea 8fbf
000003b0: 64e3 51be 1e45 6bbf a058 adbf 9edb 5bbf
000003c0: 55ec 703d 64bf 2c3f 6017 eabe bab7 89bf
000003d0: a8e8 303f 0619 513f fe57 e23e 341c b2be
000003e0: a871 b9be bfb0 0f3f 125c 833e 35e5 e83e
000003f0: 8869 cbbe 03eb 39be 7633 733e e7db b9bf
0.043808017 0.24483252 -0.028849315 -0.102143474 -0.24566366 0.14861141 0.41057312 0.7068536
0.044293042 0.09722871 0.11049855 -0.5185391 -0.19139348 0.17501947 -0.11388597 0.052910864
0.008089649 0.420087 -0.030874155 -0.3975535 0.051840484 0.24546579 0.0647825 0.06909998
-0.16273952 -0.21492428 -0.13797632 -0.12571481 -0.24055672 0.06979707 0.20682147 -0.26160616
-0.1372202 0.00344397 -0.023116663 -0.4681164 0.056846164 -0.050341725 -0.32901582 -0.07699655
0.0031813586 0.16892931 0.037247933 0.25056514 0.045509543 0.11270213 0.17867568 0.30082452
-0.11245597 -0.25479385 -0.14970432 0.30638966 0.026708467 -0.33199182 0.06698662 0.30201516
0.17720947 0.33807257 0.08156241 -0.0960341 -0.23440056 -0.0842795 -0.2994966 -0.012924428
-0.40772206 0.31064358 -0.3791991 -0.24594776 0.072925165 0.08263594 -0.4532651 0.123610154
-0.28654447 0.006367742 0.029525194 0.2818031 -0.4461234 0.3259645 -0.10239016 0.42266425
0.13863909 0.094739325 0.13197494 -0.17052498 -0.18405539 0.07319921 0.2277525 0.20950793
-0.5743445 -0.05730514 0.21251813 -0.095080554 -0.3355783 0.22637714 -0.14096431 0.014333689
-0.061202686 0.21192566 -0.2814789 -0.3817327 0.6172375 0.3806901 -0.5612959 0.13135763
-0.17096856 -0.1001345 0.07170252 0.2520142 0.22261891 0.17216757 -0.042811904 -0.016730852
0.43072057 0.60294646 0.04079152 0.39762077 -0.050083805 -0.32484353 -0.17041169 0.11737469
0.32917136 -0.13689032 0.013009516 0.32575727 0.019670831 0.02948078 0.03223684 0.52359486
0.7514214 0.2346536 -0.008245129 0.0599928 -0.75296295 1.6917078 -0.54621696 0.6002833
0.45520788 0.24050185 0.9800793 0.26179144 -0.040095046 -0.8934456 -0.60847116 0.032343097
0.2565255 0.33157983 0.28196213 1.4737048 0.14917815 -0.8189672 0.00929688 0.0032162287
0.52886677 -0.18665288 -0.018604973 -0.4854721 0.17168601 0.16816665 -0.061311103 -0.29856867
-0.4837553 0.79659826 0.7783828 -0.7144184 -0.3489387 0.050435938 1.3798933 -0.20157222
0.68984914 -0.29382133 -0.042949684 -0.49366087 -0.5743128 -0.75140536 -0.86972636 -0.7137134
-0.07412965 0.3935742 -0.24951287 -0.85699433 0.6292085 0.78880584 0.18169215 -0.3342588
-0.0043901247 0.66831434 0.03386464 0.4985402 -0.7605464 0.09717221 0.23146205 -0.9544536
0.24533334 0.10839167 0.010134565 0.07876801 -0.13822238 1.7166772 -0.9200301 0.4597983
-0.39587393 -0.3291932 1.0523558 0.0795424 0.20195994 -1.2805282 -0.4317274 0.12463221
-0.23890063 -0.22464369 -0.16157624 2.0503354 -0.19517902 -1.1787777 0.5652204 0.012054427
0.60514563 -0.07095751 -0.19707054 -0.5006325 0.2770959 -0.08964967 -0.09518284 0.5538903
0.013522655 0.42006525 0.5559587 -0.8431716 -0.33154553 0.06183104 1.418568 -0.04638415
0.17217332 0.31318128 -0.08680392 -1.1243523 -0.20496899 -0.9190234 -1.3542671 -0.85881984
0.058819134 0.6747954 -0.4572096 -1.0759194 0.69105005 0.8167881 0.44207758 -0.34787142
-0.36219525 0.5612907 0.25656182 0.4548737 -0.3972895 -0.18156056 0.237501 -1.4520234

conv1.nn.4.bias f4 [64]
00000000: 0511 26be 527d f4bd 84f7 44bf db20 1c3f
00000010: abe8 f43c 4547 7ebe 4e19 35be ef90 733f
00000020: 7b07 95be 6ca9 8abe 0792 1c3f 2cec 09be
00000030: 9acb 0ebe f409 b8be b51d 44be 2620 bbbd
00000040: 8d9b 11be dccd da3e ae4d acbe 5442 de3e
00000050: 892b c3be 5ad5 af3f 2935 73bd 37c1 463e
00000060: 0acb 8cbe ab00 88be 5817 d4be f8c8 ac3f
00000070: 6ca1 ed3d 6267 453f fa4d aabe 0e7c 863f
00000080: e677 65bd e635 953f 9047 c3be 9b1d 2fbe
00000090: 1f1f b6be 5a7f 00be 5083 24be fcc1 803d
000000a0: b10d 9ebc 81af 3abd 4716 bbbd 7bb1 fcbd
000000b0: 0490 23be b07e 253f 3f5b d13c e43e 4f3d
000000c0: 1c46 b03f 63c2 20be d2e0 29be e8fa 5cbe
000000d0: a9d7 9c3e 4b4e 35be 1368 18be 0909 2f3f
000000e0: 91c8 f03c cff8 b0be 61f6 63be 0624 513c
000000f0: 8cef 68be e7a1 2fbe 61f0 2ebe 9f1d b8bd
-0.1621743 -0.119379655 -0.7694018 0.60987633 0.029896101 -0.24831875 -0.17685434 0.95143026
-0.2910727 -0.27082384 0.6116032 -0.13468999 -0.13944855 -0.35945094 -0.19151957 -0.09136991
-0.14219494 0.42735183 -0.33653015 0.4340998 -0.38119152 1.3736985 -0.05937687 0.19409643
-0.27498657 -0.2656301 -0.4142406 1.3498831 0.116030544 0.77110875 -0.33262616 1.0506608
-0.056022547 1.1657073 -0.38140535 -0.17101137 -0.3557062 -0.12548581 -0.16065717 0.062869996
-0.019293638 -0.04557753 -0.091351084 -0.12338539 -0.15972906 0.64646435 0.025556205 0.050597087
1.3771396 -0.15699153 -0.16589668 -0.21580088 0.30633286 -0.17705648 -0.14883451 0.6837316
0.029392513 -0.34564826 -0.22261955 0.012764936 -0.2274763 -0.17151605 -0.17083885 -0.08990025

conv2.nn.0.weight f4 [64, 64]
00000000: 15d5 90be 08ce 58bf 0f75 d13e a366 98be
00000010: 2554 5b3e 1e33 9c3e 5fb9 1dbf 98ad cbbd
00000020: 30e1 f43b a343 9bbd 177d 483e ad1c 3fbd
00000030: 9952 8dbd ee66 4e3e 7066 1c3e a8ff 0ebf
00000040: d647 a93d 97e7 c23c 1fa5 a6be c0ab d83e
00000050: 459c 89bd cb26 7fbe bd82 e03d b49f c73e
00000060: 7806 e53e beb3 62bd 4f60 61be a9ee 2ebe
00000070: d4e3 b43e a253 f53e 6840 eebe d320 82be
00000080: d393 a03e c50d 993e 2c9e ba3e 046c f63d
00000090: dd9d 933e 4c81 ccbe bc5b 153e 07db 273f
000000a0: 3c19 aebe c479 97be 9f00 c13e 6776 8bba
000000b0: e48c 81be e7de a23e e520 c03d 6e0a 353e
000000c0: 9676 793e 7210 4fbe 2687 1f3d 93cf debe
000000d0: bf86 aa3d c768 ba3d 4290 e1be 3e82 843e
000000e0: 0078 0bbf 2fa8 39be 6908 9e3e 9e3d b6bd
000000f0: 9e50 babc 92bc 093e 4d09 73be b7a0 a5bd
00000100: 64f7 413e 818c 8abe 68c7 15be ab6c a83e
00000110: 7792 6dbe 232a ad3e 4b40 fbbd 1b15 cc3d
00000120: 164c 63bd 64e8 2a3e 5398 8d3d df65 8c3e
00000130: a198 c43e 7a74 e5be 4cdf ab3e 305e d93c
00000140: 98fc 60be 44ad bfbe 6125 7e3e 248a a3bd
00000150: c454 863e f1a0 6e3e 697f 7bbe d09b 513e
00000160: b00a 28be 41cf 833e 3722 a1bd 81fa a73e
00000170: 65b3 83be a3cd cebd 63c7 eabd 739e 183e
00000180: 9b7c 14bd fbc4 93be 3cce afbd 8ccc 65be
00000190: c0c7 a8be 351f 52bd e5a6 ac3d bdbe 84bd
000001a0: caa4 513d bda8 80bd 4ab6 093d 2635 c83e
000001b0: 665b 9f3e b5c4 d43e 9263 073e 87a3 70bc
000001c0: b429 4abe ea62 583e 8324 113e 90e3 e43d
000001d0: e471 00bd 1619 0d3e 2c5f 183e 5cc4 00be
000001e0: 4e5c d6be 35e6 5bbe 20f1 86be 850e 703e
000001f0: c76f cbbe f698 763e 16e3 2dbf a6e1 f4be
00000200: 674e 423e 7712 51bd f5db 23be d679 523e
00000210: 78f2 1cbe 83bb 0a3e 9d8e 90bd 86a1 203d
00000220: 54fe a63d f1c6 263e 16d9 993d e472 073e
00000230: 6720 4d3e 7cbd 4cbe e241 503d c2e6 78bd
00000240: 8146 04be 6a88 20be 3940 e83d addd a13d
00000250: 02df 413e 4484 583e 6ef6 36be 631c 12bd
00000260: d389 14bd f6d3 123e 1218 cbbd 715c 473e
00000270: e3e9 f9bd 3845 73bc d006 e7bc 7de7 213e
00000280: 3e74 833d a8d1 52be e055 03bd cfea 0abe
00000290: b7d6 7cbe 1e88 12bd c85d e53d 6611 b03c
000002a0: 0262 0fbd eb09 0ebc 6999 bf3b a4f8 3a3e
000002b0: 6065 523e 0cda a43d 6e10 933e 8443 ab3d
000002c0: 222a dcbd 9293 133e 7dcc 0e3e 969b 9b3c
000002d0: cb58 893d 9c27 bc3d d784 afbc 28f2 713d
000002e0: 76f7 aa3c e0d9 24be 4373 4cbe a1d3 473e
000002f0: 92be f7bd 294f 1a3e 2811 12bc a293 b7bd
00000300: a1a3 1ebe a4d2 86bf 70f5 833d 88b9 9abd
00000310: 6141 803e b3e5 f33e e075 e23d fc1c 0e3c
00000320: b90e 6cbe 21e6 a93e 0d87 853e db20 eabd
00000330: bd5e a43d 0c30 2d3e c7d3 da3e eb39 93bf
00000340: ba23 1c3f f491 c2be 8877 21bf 24c5 0f3f
00000350: 6c25 6bbe 1518 65bd 6fc5 04bf c354 15be
00000360: 2ece a13f fa2f febd 0818 133f 81a6 d4bc
00000370: 6b7a 803f 20f2 cf3f a769 34bf e970 58bf
00000380: ac39 d93e 2015 fa3c 328c 203f 9f34 9b3c
00000390: 1247 683d 988e d7bd 3192 ff3d c9b2 193f
000003a0: 7bcc 7dbf 4599 783e d848 243f 8320 1d3e
000003b0: 53b8 f6bd cbd8 673e d329 8ebe e3ab 61bc
000003c0: ea1d b13f d528 0abf 5e50 053e e76f 3ebf
000003d0: 69b6 793d 00a9 353e a55a a6bf 6807 1e3f
000003e0: 0b0a d0bd 365f 31be 5bdc ab3d b005 083e
000003f0: cfb4 41be 8288 283f 052b 10be a454 9fbe
-0.2828757 -0.8468938 0.4090962 -0.29765806 0.21418817 0.3050775 -0.6161098 -0.0994522
0.0074731335 -0.0758126 0.19578968 -0.046658207 -0.0690052 0.20156452 0.15273452 -0.5585885
0.08265655 0.023792071 -0.32547852 0.42318535 -0.06719259 -0.24917142 0.10962436 0.3898903
0.44731498 -0.055347197 -0.22009395 -0.17083229 0.3533007 0.4791537 -0.46533513 -0.25415668
0.3136278 0.29893318 0.364488 0.12032321 0.28831378 -0.39942396 0.14585775 0.65568584
-0.34003627 -0.29585087 0.37695786 -0.0010640145 -0.25302804 0.31810686 0.09381274 0.1767976
0.24361643 -0.20221117 0.038947247 -0.43517742 0.08326482 0.09102016 -0.44055372 0.25880617
-0.5447998 -0.18130563 0.3086579 -0.08898471 -0.02274352 0.1345084 -0.23734017 -0.080872945
0.18942028 -0.2706032 -0.14626849 0.32895407 -0.23200403 0.3382121 -0.12268122 0.09964963
-0.055492483 0.16690212 0.06913819 0.2742147 0.38397697 -0.44815427 0.335688 0.02653417
-0.21971357 -0.3743688 0.24818946 -0.079853326 0.26236546 0.23303582 -0.24560322 0.20469594
-0.16410327 0.2574406 -0.07867854 0.32808307 -0.25722805 -0.10097816 -0.11463811 0.14904194
-0.036251646 -0.28861222 -0.08584258 -0.2244131 -0.32964897 -0.051299293 0.0843027 -0.06481693
0.051182546 -0.06282184 0.03362111 0.3910305 0.3112442 0.41556326 0.13221577 -0.014687425
-0.19742471 0.21131483 0.14174084 0.111762166 -0.031358615 0.13779101 0.14880055 -0.12574905
-0.41867298 -0.21474536 -0.2635584 0.23443039 -0.39733717 0.24081787 -0.6792463 -0.47828406
0.1897522 -0.051043 -0.16001876 0.20554289 -0.1532687 0.13548093 -0.07058451 0.03921654
0.08153978 0.16286828 0.07512109 0.13227421 0.20031892 -0.19994158 0.05084408 -0.060766943
-0.1291752 -0.15677038 0.113403745 0.079036094 0.18932727 0.21144205 -0.17867443 -0.035671603
-0.036264252 0.14338669 -0.099167004 0.19468857 -0.122028135 -0.014848046 -0.02820149 0.15810962
0.06418656 -0.2058779 -0.03206432 -0.13566135 -0.24691282 -0.035774343 0.11199528 0.021492671
-0.035005577 -0.008669357 0.0058471453 0.18258911 0.20546484 0.08049402 0.28723472 0.08362487
-0.10750224 0.14411762 0.13945194 0.018995088 0.06706389 0.091872424 -0.021425648 0.05906883
0.020869952 -0.16098738 -0.19965844 0.19514324 -0.12096895 0.1506926 -0.008915223 -0.089637056
-0.15492107 -1.0533032 0.06443298 -0.075549185 0.2504988 0.47636184 0.11057639 0.008673903
-0.23052491 0.33183387 0.26079598 -0.11432048 0.080258824 0.1691286 0.42739698 -1.150205
0.60992014 -0.38001978 -0.63073015 0.5616019 -0.22963494 -0.05593117 -0.5186376 -0.14583115
1.2641046 -0.124114946 0.57458544 -0.025958301 1.0037359 1.6245766 -0.7047371 -0.8454729
0.42426813 0.030527651 0.6271392 0.01894599 0.056708403 -0.105252445 0.12479056 0.6003843
-0.9914014 0.24277218 0.6417365 0.15344433 -0.12046876 0.22641294 -0.27766284 -0.013773891
1.3837254 -0.53968555 0.13018939 -0.743895 0.060964976 0.1774025 -1.2996413 0.6173005
-0.101581655 -0.17321476 0.08391639 0.1328342 -0.18916629 0.65833294 -0.1407891 -0.31119263

conv2.nn.0.bias f4 [64]
00000000: 09f2 c53c 974c 8f3e 04c3 53be 1d4e ad3f
00000010: 0281 ed3e b6a8 8bbe 22b5 713e 9170 343e
00000020: f846 763f 1331 cfbc 84e3 0b3f a3a4 b83e
00000030: 0055 423f 8dba 7f3f 1fd4 033f aa4a 3bbc
00000040: e158 99bd 2b97 8abd 7209 b33e 8fb5 233f
00000050: d1f5 183d 8e1b eabd c917 383e 54f7 7dbe
00000060: 0226 7f3e 7b2a 243f 48c8 78be d6d1 fbbc
00000070: ac37 62bb ef2f 023f 703e 583e 9142 d13d
00000080: 4574 ff3e 0684 083e b35f 8e3f c7e2 823e
00000090: bd23 b23e 4039 25bd 36cf 913e 2e27 ea3e
000000a0: dca6 7f3e e0fe 3e3f eaa8 1e3c 2ba1 713e
000000b0: 9567 923e 9faa 16bd 4ba7 0f3e f0bc 0c3e
000000c0: f2a4 9b3e 938a 643d b504 dcbc 76a6 ebbc
000000d0: 249e eb3d 2c28 3d3b b763 ad3d 5569 66bd
000000e0: 7cd7 343e 2843 233e 4cfd 313f f7b1 f43e
000000f0: 883e 2c3e 498e 99bc 72ee 913e 435a 0e3f
0.024163263 0.2798812 -0.20679861 1.3539463 0.46387488 -0.27277154 0.23604253 0.17621066
0.9620204 -0.025291955 0.54644036 0.36063108 0.7591095 0.9989403 0.51495546 -0.0114313755
-0.074876554 -0.06767114 0.34968144 0.6394891 0.037343804 -0.11431037 0.17977823 -0.2480138
0.24916843 0.6412732 -0.24295151 -0.030739706 -0.0034518046 0.5085439 0.21117568 0.10217775
0.49893394 0.13331613 1.1122955 0.25563642 0.3479289 -0.0403378 0.28478402 0.45733017
0.24965996 0.7460766 0.009683827 0.23596637 0.28594652 -0.03678381 0.14028661 0.13743949
0.3039928 0.055796217 -0.026857713 -0.028765898 0.11504772 0.0028863056 0.08466285 -0.056252796
0.17660326 0.15943587 0.69527125 0.47792026 0.16820729 -0.018744605 0.28502232 0.5560648

conv2.nn.2.weight f4 [64]
00000000: 3913 81bd 4f44 83be b19c a2bc c63e b1be
00000010: df3d 47bf e8f3 e6bc 5338 fbbb fa7f 51bd
00000020: f8c3 903b efe4 213d ce00 b73d 09be 41bf
00000030: 3903 bbbc 0950 223f e618 713c 922c 033d
00000040: 723c af3d 7727 f73b 6b38 b13d d110 8abe
00000050: af67 0cbd a122 04bd db4c 0f3d f86f 6e3f
00000060: 3742 7a3e 6b6d a13d 6026 223e 9d3c c63c
00000070: 1194 313d b330 de3c 85c7 b83e 4852 babc
00000080: e172 2d3d 9e0f 493c a4ee 903e 0d8e 68bd
00000090: d2eb 9cbe 2bb9 4c3c 5b5b aabd 0ae4 8f3e
000000a0: 22d3 b13d 80ff 33be 18fe b43b 2d6d 073e
000000b0: 90b8 03bd 07c0 b93b a223 8dbc 3279 4cbd
000000c0: fc58 7b3a d7bd 393c 1d88 683c 95aa 1c3c
000000d0: a45b ba3c 33ae 003c 8533 413d af78 483b
000000e0: 87f4 10bd 7ee3 a7bc 29ae 96be b099 8dbd
000000f0: b3cf 85bb 8c9a a43b d42b 773e 8a29 633d
-0.063024946 -0.25638053 -0.019850107 -0.34618205 -0.7782878 -0.028192475 -0.0076666265 -0.05114744
0.0044178925 0.03952497 0.089357 -0.75680596 -0.022828685 0.63403374 0.014715409 0.032024927
0.08556451 0.0075425464 0.08653339 -0.26965955 -0.034278568 -0.032259587 0.034985404 0.931396
0.24439321 0.07882198 0.15834951 0.024198825 0.043354098 0.027122831 0.3608972 -0.022744313
0.042345885 0.01227179 0.28307068 -0.056776095 -0.30648667 0.012495319 -0.08318206 0.28103667
0.086828485 -0.17577934 0.0055234544 0.13225241 -0.032158434 0.0056686434 -0.017228905 -0.04992027
0.000958815 0.011336765 0.014192608 0.009562154 0.022748776 0.007854032 0.047168273 0.003058951
-0.03538945 -0.020494219 -0.2942975 -0.06914079 -0.0040835976 0.0050233062 0.24137813 0.055459537

conv2.nn.2.bias f4 [64]
00000000: 0965 303d fc33 81bd 635a 2f3d ea8f 15be
00000010: de72 1fbf b414 6abc 37d0 103d 5af7 7dbc
00000020: 1aa2 d1bc 6747 0cbc d436 bf3c 7f05 32bf
00000030: da72 27bd 79c1 c23c 8bed 01bd f731 dcbd
00000040: ab78 333c 21cc 2abc ce01 a63b ab41 9e3d
00000050: 8d9f d93a 8a08 183c 203e f83b 5b90 6b3f
00000060: baf9 073f 16ba 3a3d 2d90 453d d4aa b93c
00000070: 0e6c 2e3d d4e1 24bc cac1 023d 687f 493c
00000080: 242a 60bd dde9 f03d 0823 8d3d 5241 0d3c
00000090: eafa 733b dea5 67bc 3eac fcbd 4ef9 643d
000000a0: c00d 033d 206c b13c ad16 4e3c f55c 2c3c
000000b0: 4671 90bd 8b82 5e3b 2b17 50bd f8a3 35bd
000000c0: 0cfd dc3b b450 e4bc e2b9 093d efff 7a3c
000000d0: d151 9b3c b155 d2bb 6f34 29bc 4618 053c
000000e0: 778a b8bc c125 80bb fc93 c0be 30a8 1fbd
000000f0: d08c 35bc 7917 d53c bc86 663e 7939 b13c
0.043065105 -0.06308743 0.04281081 -0.1460568 -0.6228465 -0.014287163 0.03535482 -0.015500868
-0.025589991 -0.0085619455 0.023341574 -0.69539636 -0.040881015 0.023773896 -0.03172068 -0.107517175
0.010954062 -0.010424645 0.005066133 0.07727369 0.0016603336 0.00927938 0.0075757653 0.92017144
0.5311543 0.04558762 0.0482332 0.022664465 0.042583518 -0.010063607 0.031923093 0.012298442
-0.05472769 0.11763356 0.06891447 0.008621531 0.0037228414 -0.014138667 -0.1233754 0.055901818
0.031995535 0.021658003 0.0125786485 0.01052021 -0.07052855 0.0033952321 -0.050803345 -0.044345826
0.0067440327 -0.027870513 0.033624537 0.015319808 0.018959912 -0.0064189066 -0.010327443 0.008123463
-0.022526963 -0.0039107506 -0.37612903 -0.038978755 -0.011080936 0.02601217 0.22512335 0.02163385

conv2.nn.2.running_mean f4 [64]
00000000: 1357 e946 0400 0000 0400 0000 6c91 2947
00000010: 4ce7 1847 0400 0000 0400 0000 0400 0000
00000020: 88dd 0047 0400 0000 0400 0000 048c 3547
00000030: 0400 0000 4334 2047 0400 0000 0400 0000
00000040: 0400 0000 0400 0000 0400 0000 0400 0000
00000050: 0400 0000 0400 0000 0400 0000 9aec 7947
00000060: 2745 7347 0400 0000 0400 0000 0400 0000
00000070: 0400 0000 0400 0000 4bc0 1747 35c0 b746
00000080: 7a52 2747 0400 0000 0400 0000 0400 0000
00000090: 0400 0000 0400 0000 0400 0000 0400 0000
000000a0: 905c 1f47 cf3d 5947 0400 0000 0400 0000
000000b0: edd7 0147 0400 0000 0400 0000 0400 0000
000000c0: 0400 0000 0400 0000 0400 0000 0400 0000
000000d0: 0400 0000 0400 0000 0400 0000 0400 0000
000000e0: 0400 0000 0400 0000 0400 0000 0400 0000
000000f0: 0400 0000 0400 0000 0400 0000 0400 0000
29867.537 6e-45 6e-45 43409.42 39143.297 6e-45 6e-45 6e-45
32989.53 6e-45 6e-45 46476.016 6e-45 41012.26 6e-45 6e-45
6e-45 6e-45 6e-45 6e-45 6e-45 6e-45 6e-45 63980.6
62277.152 6e-45 6e-45 6e-45 6e-45 6e-45 38848.293 23520.104
42834.477 6e-45 6e-45 6e-45 6e-45 6e-45 6e-45 6e-45
40796.562 55613.81 6e-45 6e-45 33239.926 6e-45 6e-45 6e-45
6e-45 6e-45 6e-45 6e-45 6e-45 6e-45 6e-45 6e-45
6e-45 6e-45 6e-45 6e-45 6e-45 6e-45 6e-45 6e-45

conv2.nn.2.running_var f4 [64]
00000000: 8d83 c64c 0400 0000 0400 0000 6aa0 514d
00000010: c978 2a4d 0400 0000 0400 0000 0400 0000
00000020: a137 f24c 0400 0000 0400 0000 c552 704d
00000030: 0400 0000 f222 3b4d 0400 0000 0400 0000
00000040: 0400 0000 0400 0000 0400 0000 0400 0000
00000050: 0400 0000 0400 0000 0400 0000 0cbc e34d
00000060: 9ac3 d74d 0400 0000 0400 0000 0400 0000
00000070: 0400 0000 0400 0000 68e8 274d ce38 764c
00000080: 1f28 4c4d 0400 0000 0400 0000 0400 0000
00000090: 0400 0000 0400 0000 0400 0000 0400 0000
000000a0: 8437 394d 160c ac4d 0400 0000 0400 0000
000000b0: 68e3 f54c 0400 0000 0400 0000 0400 0000
000000c0: 0400 0000 0400 0000 0400 0000 0400 0000
000000d0: 0400 0000 0400 0000 0400 0000 0400 0000
000000e0: 0400 0000 0400 0000 0400 0000 0400 0000
000000f0: 0400 0000 0400 0000 0400 0000 0400 0000
1.0407844e+08 6e-45 6e-45 2.1980944e+08 1.7875266e+08 6e-45 6e-45 6e-45
1.26991624e+08 6e-45 6e-45 2.5199726e+08 6e-45 1.9622685e+08 6e-45 6e-45
6e-45 6e-45 6e-45 6e-45 6e-45 6e-45 6e-45 4.77594e+08
4.5249005e+08 6e-45 6e-45 6e-45 6e-45 6e-45 1.7606413e+08 6.454559e+07
2.1407384e+08 6e-45 6e-45 6e-45 6e-45 6e-45 6e-45 6e-45
1.9421395e+08 3.6080915e+08 6e-45 6e-45 1.2891629e+08 6e-45 6e-45 6e-45
6e-45 6e-45 6e-45 6e-45 6e-45 6e-45 6e-45 6e-45
6e-45 6e-45 6e-45 6e-45 6e-45 6e-45 6e-45 6e-45

conv2.nn.4.weight f4 [64, 64]
00000000: 5a5b fa3e b25a bd3e 0ff5 05be 9761 5d3a
00000010: 9ec4 0abd b786 f7be f0fc bf3d a60c 473f
00000020: f2ee 1e3e 1b04 953d b09a bdbe 7396 993e
00000030: 664a 06bf 56b0 d33c 50b5 18bf 2c07 60bd
00000040: 9585 f9be 6ee8 233f a14a 1b3f a21d ffbd
00000050: de75 673e 7117 ca3e c4f1 a6be fc7c bd3d
00000060: e411 8abd 9ae5 223f af03 2dbe 726d 0d3f
00000070: 14fc 58bf e6f5 b1be b96c 863d 4f57 3fbe
00000080: 7cf4 99be 0687 d7be 740c 97be 07c3 b8be
00000090: 3da7 ae3c 6eec b13e 5d56 0f3f 4a0c 99be
000000a0: 8b5a f3be ccd3 52be 35c5 16be 56b0 1abf
000000b0: cdfe a53d 4385 9abd c8a0 f6be 9abf 373d
000000c0: c878 223f 25ed e73e 84fb 453d 4341 b13e
000000d0: a6f0 f1be a2c9 2abe d513 1cbe 45f2 b3be
000000e0: 394c fd3d a8aa 863d 93a7 be3e acb8 3f3e
000000f0: 2076 413e 5bd2 df3e 2ca2 32bf c8df d23e
00000100: 2335 893d 07b0 db3d e1e1 243e 02fb 13bd
00000110: 094d 143c 7aef 0bbe 4175 943d 9eb9 1bbd
00000120: f3a6 29bc 0f56 2d3e 54ac 01bd 104c de3d
00000130: b55f 4d3d 80a5 a33d 656b 2bbe 2e7f 8abe
00000140: 631a 32be 874b 963c c847 c4bc fa91 d0bd
00000150: 0f5f 73bd 873c 773e 35ed 75be 1c3e f2bb
00000160: 6ef2 07be ecad 06bd 9fa0 3fbe 44a8 3d3e
00000170: f4b2 2cbe ce26 70be b71b 0f3e c1e2 eebd
00000180: 6941 cdbd 6f14 8cbd b2d4 02be 82cb ec3d
00000190: dc99 b2bd 3d30 4bbd 057e c33c d4c8 49bd
000001a0: dcb9 8bbd 2beb 243b c4d5 843e 14ed debd
000001b0: 4a56 d3bd c2dd aabc d629 68be 7a06 09be
000001c0: 826e 32be b22e c93d 5a8e 2fbd 64ec 963e
000001d0: 002a 353d 5b3d c0bd a23e b5bd 93ad 6cbe
000001e0: ee5a 1f3e bd52 14be f2ca 663c ca2d 5f3d
000001f0: 10c1 cb3d 0425 fc3d 7f2f 5cbd 3981 c0bd
00000200: 3c3f e5bc 13d7 833d 2fa0 973e 7fcd 083d
00000210: e23f a2bd 27ea a9be 36c1 e63d 43c0 ddbd
00000220: b10c 0bbe 2025 373e 9909 1e3e 8efa 513e
00000230: 61b6 3abe 0049 3ebd 6aed 54bd b2bb 41be
00000240: 2e74 443e 4eea 1bbb d8e1 163e 3d04 36bd
00000250: 8a6e 393d ecdb 41bd 54cf cb3c fc43 dfbc
00000260: 8315 a9bd d1d0 1a3e 8f99 093e 9f71 8b3e
00000270: 9815 88be 32a5 74be 38f5 3f3d 818f 59bd
00000280: 05e2 39be a926 1bbe 14a0 bebd 62ee 99bd
00000290: 14c3 bf3e 600e bdbb ef1b 823e a533 babe
000002a0: 0cb9 49be 9c29 80bd 6d0a 443e 9a4f 52bd
000002b0: 877e e43d e9c1 c2be eaa0 a7be a93d 423d
000002c0: 37ea 193e 74f2 8b3b e931 4cbc 0a7e 123e
000002d0: 3cca f43d 22a9 80be 7f23 8cbe 5d88 aabe
000002e0: 5b80 993e 3f74 3dbe e59b ab3d 99ba d5be
000002f0: 0594 c8bc 826e 0c3e 2b74 a2bd 5bcb e83c
00000300: 2eb3 483d dce6 803e b11d 69be 54ee 7e3c
00000310: 8a0c c93c b556 f3be 3b31 00be c82e 1c3d
00000320: e163 4bbe e568 013d b605 29be 5053 d73d
00000330: bee1 cb3d 33d5 d6bc 25e1 4abc 702d 05be
00000340: a29c 4c3e 9675 433d e846 a33d 490b 9fbc
00000350: 8f6b a03e 16e9 2bbe 5a17 83be 6ff1 c9bb
00000360: 8b35 01be 32ae 553e 4b9b 5fbe 6a42 4a3e
00000370: 09ef 09bf d22b 72be 9437 d3bd ae9d a2be
00000380: 3bd7 7d3c 3633 c7be 461a 95be 4f33 acbc
00000390: 92ef 87bd 3258 d53c ba27 a23e dde1 49be
000003a0: 7b5c e4be e6b3 f8bd 2cf9 20be f3d7 26be
000003b0: bb06 bd3d 02e1 133d 7a06 12be 47d6 893c
000003c0: 5c92 c23d 2094 9b3e 6ee3 06be e69a fa3e
000003d0: ab9c 1dbd 227b 9a3c 01b4 cabd 6435 3dbe
000003e0: cdc9 9b3e 7484 febc b05a 3a3e 248e aebc
000003f0: ee15 57bd a8c7 ff3e 5740 0bbe a64d b0bd
0.4889782 0.36983258 -0.13081764 0.0008445023 -0.033878915 -0.48344967 0.09374416 0.77753675
0.15520838 0.07276174 -0.3703208 0.29997596 -0.52457273 0.02584092 -0.5965166 -0.05469434
-0.48734728 0.64026535 0.6066075 -0.12456824 0.22603557 0.3947101 -0.32606328 0.092523545
-0.067416936 0.63631594 -0.16895936 0.55245125 -0.8475964 -0.34757918 0.06563706 -0.1868565
-0.3006934 -0.42095202 -0.29501688 -0.36086294 0.02131998 0.34750694 0.55991155 -0.29892188
-0.47530016 -0.20588607 -0.14723666 -0.6042532 0.0810524 -0.07544949 -0.4816954 0.04486046
0.6346555 0.45298114 0.048335567 0.34620103 -0.47253913 -0.1667848 -0.1524194 -0.35145774
0.12368054 0.06575519 0.37237224 0.1872279 0.18892717 0.43715176 -0.69778705 0.41186357
0.06699588 0.10726934 0.16101791 -0.03612805 0.00905157 -0.13665572 0.07248927 -0.038018815
-0.010354745 0.1692736 -0.031658486 0.108543515 0.0501401 0.07990551 -0.16740187 -0.27050155
-0.17392878 0.018346561 -0.02396001 -0.10184093 -0.059416827 0.24144183 -0.24016269 -0.007392658
-0.13276073 -0.03288071 -0.18713616 0.1852122 -0.1686514 -0.23452303 0.13975416 -0.116643436
-0.100222416 -0.06839835 -0.1277645 0.115622535 -0.087207526 -0.04960655 0.023863802 -0.04926379
-0.06822559 0.0025164585 0.2594434 -0.10885063 -0.10319193 -0.020857695 -0.22672209 -0.13381377
-0.17424968 0.098233595 -0.042860366 0.29477227 0.044229507 -0.093867026 -0.08849837 -0.23113088
0.1556203 -0.14484687 0.014086472 0.054487027 0.09948933 0.12311748 -0.053756233 -0.09399647
-0.027984254 0.064375065 0.29614398 0.0333991 -0.07922341 -0.33186457 0.11267321 -0.10827687
-0.1357906 0.17885256 0.15433349 0.20505735 -0.18233635 -0.046456337 -0.05198423 -0.18919256
0.19184944 -0.002379078 0.1473459 -0.044437636 0.045271434 -0.047328874 0.024879135 -0.027254097
-0.08256056 0.1511872 0.13437484 0.27235124 -0.26578975 -0.23891142 0.04686472 -0.05311537
-0.18152626 -0.15151466 -0.09307876 -0.07516171 0.3745352 -0.005769536 0.25411937 -0.36367527
-0.19699496 -0.06257936 0.19144602 -0.051345445 0.11156946 -0.38038567 -0.32739955 0.047422085
0.15030752 0.004270846 -0.012463071 0.14305893 0.11952636 -0.25129038 -0.2737083 -0.33307162
0.2998074 -0.18501376 0.08379344 -0.41743925 -0.024484644 0.1371403 -0.079323135 0.02841728
0.048999004 0.25176132 -0.22765233 0.015559752 0.024542112 -0.4752709 -0.1251878 0.03813055
-0.1986232 0.031594176 -0.16506085 0.105139375 0.09955166 -0.026224708 -0.01238278 -0.13005614
0.19981626 0.04771956 0.07972509 -0.01941456 0.3133206 -0.16788134 -0.25603753 -0.0061628143
-0.12618081 0.20867231 -0.21836583 0.19751897 -0.53880364 -0.23649529 -0.10313335 -0.31760925
0.0154932095 -0.38906258 -0.29121608 -0.02102056 -0.06637491 0.026043031 0.31670934 -0.19715066
-0.44601807 -0.12143688 -0.15720052 -0.16293316 0.09229799 0.036103256 -0.14260283 0.016825808
0.09500572 0.30386448 -0.13172695 0.48946303 -0.03847949 0.018857542 -0.09897614 -0.18477398
0.304274 -0.031069018 0.18198657 -0.021308012 -0.05251115 0.49957013 -0.13598762 -0.0860856

conv2.nn.4.bias f4 [64]
00000000: 01ca 30bf be89 a3be be29 e8be 6ce6 f4be
00000010: 9c82 16bf 42d9 bcbe c4b7 f6be 6176 d7be
00000020: f713 f5be efaf ddbe 1fae 0cbf 1de4 34be
00000030: deff 05bf bd5a 19bf fb0f c0be 2619 c5be
00000040: afa9 07bf 1d3f a23f 1195 b4be 69a6 0cbf
00000050: c0ad 00bf dcac ebbe 903f 09bf 1d88 b7be
00000060: 6aa2 a6be eb9d 9abf 3495 0fbf e869 ccbe
00000070: bf54 a1bf 7a67 fdbe 02e1 2abf 4cea d0be
00000080: d3f7 0dbf 970e fcbe df75 d6be 1c86 4bbf
00000090: 28a9 e43d 7c02 eabe 6330 0fbf bd56 07bf
000000a0: d555 3fbf 904f 22bf a125 ecbe 2e5e 1ebf
000000b0: 30e6 a63f 3979 4abf 8bd6 16bf 9fc2 16bf
000000c0: 33de 1abf cdec 593f 3e9a d8be d085 19bf
000000d0: cb17 b5bf ee96 0cbf cf18 3dbf 399d 2bbf
000000e0: af07 f4be 27cb 4ebf ff46 1cbf 8167 24bf
000000f0: f3f3 cebe 4ecc a3bf 81ee 09bf 98e0 06bf
-0.69058233 -0.31941026 -0.45344347 -0.47832048 -0.58793044 -0.36884505 -0.48187077 -0.42082503
-0.47866794 -0.4329829 -0.5495319 -0.17665143 -0.5234355 -0.5990408 -0.37512192 -0.3849575
-0.5299329 1.2675511 -0.3526998 -0.5494142 -0.5026512 -0.4603032 -0.53612614 -0.35846034
-0.32545787 -1.2079443 -0.5608704 -0.3992455 -1.2603987 -0.4949301 -0.66749585 -0.40803754
-0.55456275 -0.4922988 -0.41886804 -0.7950151 0.111650765 -0.4570502 -0.5593321 -0.5286673
-0.74740344 -0.6340265 -0.4612246 -0.61862457 1.3038998 -0.7909122 -0.58921117 -0.5889072
-0.604953 0.85126954 -0.42305177 -0.59969807 -1.4147886 -0.549178 -0.7386598 -0.6703678
-0.47662112 -0.80778736 -0.6104583 -0.64220434 -0.40420493 -1.2796724 -0.53879553 -0.5268645

attention.query_linear.weight f4 [64, 64]
00000000: 7029 8abe 0002 d9be 3786 b2be 24c4 29bf
00000010: 8992 323d d45f 98bc 478d 91bc d6eb 70bd
00000020: 1f2f a33e f6e7 71bd 1ac6 05bd 3781 ae3d
00000030: 83ee 79be fcde ebbe c545 353d 4a1e fb3d
00000040: ab2a aebe e2f9 ebbd 62ac 8abd 16d6 92be
00000050: a626 62be a6cf 6cbe 9249 42be 3002 e6bd
00000060: 0371 d53d 0861 613e 2f93 bd3e 0ab2 fdbe
00000070: ff52 f5be 8a40 f4be 3a8e 743e e604 a4be
00000080: c73c 5ebd dc88 a4be 500c f9bd 71d6 fd3c
00000090: ff66 8fbe 34d5 3f3e 869f 35bc 7269 c83e
000000a0: 75f7 fb3d 9b88 8fbc 3c6c d9bd cfc3 943d
000000b0: ea10 5a3e 716d 5dbd 0cee 28be 61e0 b1be
000000c0: cc24 babe e618 b2bf e2d0 de3d 3a00 10bf
000000d0: e27a 32bf 8d76 c03d d514 7fbe a052 74bd
000000e0: d28d 913d 5485 3a3e 25e2 1abf 4491 dfbe
000000f0: 0801 163e 5cf9 b6be dc62 87be 459d f7be
00000100: 6aee 93bd a685 1e3c 0d16 fd3d 9303 a63e
00000110: 4733 263e d936 6d3e fd5a 9abd f129 7839
00000120: 8301 68be 57db 173e 8e08 d1ba 3257 1dbe
00000130: eba0 263e 21d6 a83e d0b8 7fbd 3694 0abd
00000140: 534e bc3e d9f8 613c d138 0bbe 4ac7 65bf
00000150: 4e22 4d3e cf3c 43be f685 783d e4bc 843e
00000160: 8d6e 7dbe bb72 b9be 51ab 99be b17d 7c3d
00000170: 8e62 933e 64bf 063f 60cf 8dbe b3d4 8c3d
00000180: 9627 33be d09e ec3e 7a4f 123e 96fb 1f3e
00000190: d5b0 d13e ec9b 38bc 12ec 1fbf 9932 f33e
000001a0: a018 f6be ded2 573e 9dfe dabc faae b4be
000001b0: 1531 30bc de92 eabd 82d0 cbbd 83d7 d5bd
000001c0: bf9b 6abc 01a1 bf3f 4ab8 e23d e0e4 96be
000001d0: 077d 21bd 51f9 44bd 3d0b e83e 4fc7 373e
000001e0: 845b 29bf c06c e03e 6208 1c3f cf8b f53d
000001f0: b11a 323c c333 2b3f b11a edbd e0ae 593c
00000200: 24ec d9bd a96a b9be ab00 00bf 4cd7 c3bf
00000210: 1d14 01bf f59b 16bd f078 373e dec8 0bbf
00000220: ca32 f13e 3259 8fbe 79a8 12bf 2f5b 5b3c
00000230: 4085 8fbe a4f6 7abd 23d6 553e 61b9 81bf
00000240: 339c 02be b294 30be 8007 1fbe 4059 c1be
00000250: 9618 e8bd c7be 32bf e8a3 03bf f8c8 e8be
00000260: 9dfb 61be a54c 8f3e 0f42 77be 4b6f 9bbf
00000270: d3a0 d8be 33cc 24bf e2fc ab3c 71dd 47bf
00000280: 8825 273d 1874 0bbf 52e2 cebe 188e 413d
00000290: 11cc 553e 0b15 163e 6495 b3bd 3259 61bd
000002a0: a539 2f3d b524 8e3e 0328 22be dcaf adbe
000002b0: 8318 083e fbd8 26bf 64ee 6dbd af6e 32bf
000002c0: feba 89bf 5c8b d33e fa69 983e 4c4f 03be
000002d0: 387d cfbe 8bc4 383b d0b4 803e f4f0 bfbe
000002e0: 1a0b 7ebe 0022 463f 1d18 ae3e 7cbb 37bc
000002f0: 3d1b 92bc 883b 653e 1660 5fbe ee88 abbe
00000300: 3011 833d 8aa4 e0bd 7804 b43d fe67 173f
00000310: 9be5 5ebe d06d 17bf b3fd b33e 69a1 22bf
00000320: 9860 d33e 5e04 c7bd a4d2 b53e ac04 b8bf
00000330: d248 99be 76bc 6f3e 943f 903e b393 183f
00000340: 5b4b 42be 2e18 26be 546f 55be c46c 45bf
00000350: bf39 233e 8485 c1bd fde5 2abe c09e e43d
00000360: 23de 97be e83c 423f 9af3 84be 7af7 da3d
00000370: e549 09bf 192b fe3e 5f0f d9be 512a 84bd
00000380: abd8 29bd 8bae 0b3d 7da3 f1be 6791 41be
00000390: e261 343d c42f 273e 6e8a 2d3c a139 9c3e
000003a0: 2176 73be 61bd 32be 1708 57be 15eb 903d
000003b0: e657 d13b 5783 c2be 94d8 c6bd d86f 9c3c
000003c0: 7984 91be 23f3 7d3f b8c9 a63e a351 81be
000003d0: f133 59bf 873c 3e3d 513e 54be 049b f13d
000003e0: 9a91 bebe f12d 233e 9b62 a93e 9575 c8bd
000003f0: 419c 22be 8597 43bf 04fa 87be 6a4e 33be
-0.2698474 -0.42384338 -0.34868023 -0.6631491 0.043596778 -0.018600382 -0.017767562 -0.05881866
0.31871888 -0.059059106 -0.032659627 0.085207395 -0.24407391 -0.4606856 0.04425599 0.122616366
-0.34016928 -0.11522271 -0.06771161 -0.2867896 -0.22085056 -0.23126087 -0.18973377 -0.11230886
0.10421946 0.2200967 0.37026355 -0.49549896 -0.47914883 -0.4770549 0.2388238 -0.32034987
-0.05425718 -0.32135665 -0.121605515 0.030986043 -0.28008267 0.18733674 -0.011085397 0.39142948
0.12303058 -0.017521193 -0.10616347 0.0726391 0.21295515 -0.05405945 -0.16497058 -0.347415
-0.363562 -1.3913848 0.10879685 -0.56250346 -0.69718754 0.09397612 -0.2491029 -0.05964911
0.07107128 0.18214923 -0.6050132 -0.43665516 0.14648831 -0.3573712 -0.2644261 -0.48362175
-0.07223208 0.009675419 0.123577215 0.32424602 0.16230498 0.23165454 -0.07536886 0.00023666747
-0.22656827 0.14829765 -0.0015947984 -0.15365294 0.16272323 0.32975867 -0.06243211 -0.03383275
0.36778507 0.01379224 -0.13595892 -0.89757216 0.20032617 -0.19066165 0.06067463 0.25925362
-0.24749203 -0.36220345 -0.30013517 0.061643306 0.2878613 0.5263579 -0.27697277 0.06876507
-0.1749557 0.46214914 0.1428813 0.15623316 0.40955225 -0.011267643 -0.6246959 0.4749954
-0.48065662 0.21076533 -0.026732737 -0.35289747 -0.01075389 -0.11453794 -0.09951879 -0.10441496
-0.014319359 1.497101 0.110703066 -0.29471493 -0.039425876 -0.04808933 0.45321074 0.17947124
-0.66155267 0.4383297 0.6095029 0.11989557 0.010870622 0.6687586 -0.115773566 0.013286322
-0.106407434 -0.36214188 -0.5000102 -1.5300078 -0.50421315 -0.036769826 0.17917228 -0.54603374
0.4710906 -0.27997738 -0.5728832 0.013388439 -0.2803135 -0.06127037 0.20882468 -1.0134698
-0.12754898 -0.17244223 -0.15530205 -0.37763405 -0.113328144 -0.69822353 -0.51421976 -0.45465827
-0.22068639 0.27988163 -0.24146293 -1.2143339 -0.423102 -0.64374083 0.020994607 -0.7807227
0.040807277 -0.5447402 -0.40407044 0.04725465 0.20878626 0.14656465 -0.087687284 -0.055016704
0.042779583 0.2776238 -0.15835576 -0.33923233 0.132906 -0.65174836 -0.058088675 -0.6970014
-1.076019 0.4131726 0.29768354 -0.12823218 -0.40525222 0.002819332 0.2513795 -0.3748852
-0.24808922 0.7739563 0.34002772 -0.011214133 -0.017835254 0.2238599 -0.21813998 -0.33502907
0.06399763 -0.10968883 0.08789915 0.59143054 -0.21767275 -0.59151936 0.35154495 -0.6352754
0.41284633 -0.0971763 0.3551227 -1.4376426 -0.2993837 0.23411736 0.28173506 0.5960037
-0.18974058 -0.16220161 -0.2084325 -0.7711909 0.15939997 -0.09449294 -0.16689296 0.11163092
-0.29661664 0.75874186 -0.25967103 0.10691734 -0.5362838 0.49642256 -0.4239454 -0.06453384
-0.041466396 0.034102004 -0.47195044 -0.18903123 0.04403866 0.16326815 0.010592086 0.30512717
-0.23775531 -0.17455055 -0.2099918 0.07076088 0.006388652 -0.3799083 -0.09709278 0.0190963
-0.2842138 0.9919912 0.32575774 -0.25257596 -0.8484488 0.046444442 -0.20726897 0.11797145
-0.3722046 0.15935494 0.33083043 -0.09788052 -0.15879919 -0.76403075 -0.26557934 -0.17510381
