models/0_2023_2023/Temporal_GIN_Attention/75.pth (torch, 191218 bytes, 35 tensors)

conv1.nn.0.weight f4 [64, 12]
0.001058289 -0.0022659777 -0.0025542558 -0.00053777377 -0.00362456 -0.005433726 -0.00049647776 -0.0035146808
-0.0009961261 -0.0014405906 -0.0008629629 -0.00029621593 -0.0017943176 -1.7500688e-05 -0.0010666371 -0.0018540764
5.4331722e-05 0.0019609476 0.0005454523 0.0018269464 -2.1661375e-05 -0.0007731388 0.0017852312 -0.0011795465
-0.0031315652 -0.0005712545 4.6335073e-05 -0.0013240781 -0.00019174012 -0.00078585936 -0.001324853 -8.9151916e-05
-0.0003758451 -0.0018022939 0.00054287014 -0.0005826529 0.69004864 0.10743762 0.097103424 -0.24071948
-0.9114694 0.16767314 -2.1459029 -0.5927597 1.2187173 1.5988932 -0.5214254 1.6780586
-0.012335476 -0.0038699736 -0.0016439268 -0.0017165148 -0.021546729 -0.023520157 -0.026206076 -0.012524204
0.02577669 0.011963577 -0.012990308 0.028286736 -0.001975553 -0.0043273442 -0.00028115834 -0.0007962872
-0.0019188533 -0.001196681 -0.0033350307 0.0015833793 0.0034849835 0.0034376814 0.0010190873 0.0021795111
-0.015489758 -0.004868839 -0.003399433 -0.0016247247 -0.08329739 -0.08757158 -0.11949087 -0.0313976
0.10722154 0.07546016 -0.026835725 0.09009859 0.00030860413 -0.00084707106 0.0008005982 -0.00066846656
0.00245897 -0.00068424345 0.0004296267 -0.002228156 -0.00024677077 -0.0021595228 -0.0019004816 -0.00141764
-0.0020699815 -0.00068515196 -0.00065385964 -0.0002422999 0.00037986014 0.0006257087 -4.9031565e-05 0.0029356983
0.0010124099 -0.00081432174 0.0004306237 0.0014564716 -0.00034233835 -0.0017007788 0.00073148723 -0.00056464743
-0.0010662619 0.001399073 -7.5183314e-05 -0.0012661704 -0.0013254185 0.002086038 0.0014407658 -0.0015883172
-0.0013524704 -0.0012953426 -0.00019656029 -0.0018971043 0.0018754387 -0.0010452571 0.0028381608 6.123062e-05
-0.002040627 -0.0021264697 0.0011972566 0.002022258 -0.00066876604 -0.001979484 0.00064809003 -0.0015529646
-0.0014472341 0.0006037899 -0.00021034683 -0.00015066814 0.0019867814 -0.00038852278 0.0013483206 -0.000689373
-0.007232705 -0.0017292108 -0.00053218927 -0.0013375612 -0.0191213 -0.010540809 -0.019764107 -0.00059827714
0.018884765 0.0048117894 -0.004577633 0.011877977 -0.010813899 -0.0049783993 -0.0056738337 -0.0020731792
0.0052506444 -0.009003828 0.0013872266 0.0061840373 0.0127135115 -0.0005737708 -0.00090772705 0.0008780509
-0.0015102132 -0.002977214 -0.0025659779 -0.00064079475 -0.005768591 -0.005276897 -0.0041210256 0.00058375346
0.0018215986 -0.0010800561 -0.00076248235 0.0030327165 -0.002394942 -0.00049163733 -0.0021861251 -0.0017241583
-0.0005384006 -0.0042016497 0.00016329974 0.0039554727 0.0010413005 0.0010466465 0.0017247555 0.00021769783
0.018692877 -0.03032973 -0.029021159 -0.014312017 -0.032023568 0.058279254 -0.09072247 -0.02149339
-0.014298205 -0.016287463 -0.01185255 -0.014397521 -0.019806083 -0.012179718 -0.014856627 -0.0013770036
-0.03293575 -0.024098346 -0.011217683 0.012134059 0.046101052 0.008273275 -0.0012444505 0.01369125
-0.5391666 0.12852867 0.1275402 -0.15902321 0.57760596 -0.79627293 0.95652926 0.61946434
0.77842903 -0.080761254 -0.01196152 0.046018504 -0.0068994276 -0.00013519588 -0.00019322618 -0.0018204121
-0.002420883 -0.0041194814 0.0032444787 0.0020985166 -0.0023846747 -0.0005614667 0.00040631206 -0.0010477259
-0.00088595937 -0.0046069054 -0.003234284 -0.0005875682 -0.0047956733 -0.0016175156 -0.0019721745 -0.0016325868
0.0013425306 -0.00046057344 0.00035861816 0.004463329 0.0019159297 -0.0012394877 -0.0012597431 -0.0011055368
00000000: 49b6 8a3a cc80 14bb 4d65 27bb 63f9 0cba
00000010: 078a 6dbb 660d b2bb 0f26 02ba 8f56 66bb
00000020: 7290 82ba 33d2 bcba 7638 62ba 6e4d 9bb9
00000030: 4f2f ebba 71ce 92b7 67ce 8bba 7b04 f3ba
00000040: 3ee2 6338 3e83 003b affc 0e3a 2676 ef3a
00000050: 73b5 b5b7 77ac 4aba 6bfe e93a 039b 9aba
00000060: f23a 4dbb 3ec0 15ba e857 4238 b08c adba
00000070: d90d 49b9 2102 4eba b1a6 adba 12f7 bab8
00000080: 130d c5b9 f33a ecba 664f 0e3a 2dbd 18ba
00000090: 07a7 303f 4108 dc3d 29de c63d 2b7f 76be
000000a0: 0f56 69bf 82b2 2b3e 7956 09c0 1abf 17bf
000000b0: eefe 9b3f 88a8 cc3f 237c 05bf a0ca d63f
000000c0: bd1a 4abc 629f 7dbb 0879 d7ba aefc e0ba
000000d0: c482 b0bc 58ad c0bc 20ae d6bc 5232 4dbc
000000e0: a329 d33c e102 443c 4dd5 54bc 96b9 e73c
000000f0: 4878 01bb 65cc 8dbb 6f68 93b9 eebd 50ba
00000100: 0882 fbba f4d9 9cba 8890 5abb 6589 cf3a
00000110: 5264 643b b94a 613b e592 853a 21d6 0e3b
00000120: c1c8 7dbc c88a 9fbb 06c9 5ebb b7f4 d4ba
00000130: d297 aabd bb58 b3bd a1b7 f4bd c59a 00bd
00000140: f796 db3d db8a 9a3d 98d6 dbbc 9c85 b83d
00000150: 25cc a139 fa0d 5eba 3cdf 513a 083c 2fba
00000160: ac26 213b cd5e 33ba 853f e139 4106 12bb
00000170: 0361 81b9 c886 0dbb 9519 f9ba 1bd0 b9ba
00000180: 87a8 07bb c59b 33ba c767 2bba e211 7eb9
00000190: f727 c739 9a06 243a 3ea7 4db8 d864 403b
000001a0: d7b2 843a 3578 55ba 56c5 e139 14e7 be3a
000001b0: e07b b3b9 abec deba 47c1 3f3a d904 14ba
000001c0: d0c1 8bba 1a61 b73a bcab 9db8 a1f5 a5ba
000001d0: aab9 adba e9b5 083b 14d8 bc3a 152f d0ba
000001e0: 6045 b1ba 7cc8 a9ba c01b 4eb9 42a8 f8ba
000001f0: 48d1 f53a 0201 89ba 7000 3a3b f068 8038
00000200: 0abc 05bb 3e5c 0bbb 44ed 9c3a dc87 043b
00000210: 2150 2fba 3bba 01bb 96e4 293a d88c cbba
00000220: 1eb1 bdba a747 1e3a 8c90 5cb9 acfc 1db9
00000230: a934 023b a5b2 cbb9 22ba b03a 0ab7 34ba
00000240: 5400 edbb b0a6 e2ba 9e82 0bba 1b51 afba
00000250: 46a4 9cbc 5bb3 2cbc 56e8 a1bc b3d5 1cba
00000260: 39b4 9a3c 37ac 9d3b f8ff 95bb d99b 423c
00000270: c82c 31bc d721 a3bb 91eb b9bb 2dde 07bb
00000280: 990d ac3b cb84 13bc 9ad3 b53a 77a3 ca3b
00000290: 554c 503c 1b69 16ba 88f4 6dba 002d 663a
000002a0: 59f2 c5ba 5d1d 43bb f729 28bb 02fb 27ba
000002b0: 7306 bdbb d2e9 acbb ab09 87bb 0807 193a
000002c0: b5c2 ee3a ab90 8dba 53e1 47ba 8ac0 463b
000002d0: 76f4 1cbb 39e1 00ba 1845 0fbb 27fd e1ba
000002e0: 7423 0dba fead 89bb 713b 2b39 e99c 813b
000002f0: 3f7c 883a a12f 893a 3111 e23a d145 6439
00000300: ce21 993c 0e76 f8bc c8bd edbc f37c 6abc
00000310: 252b 03bd 3ab6 6e3d b4cc b9bd e812 b0bc
00000320: 0543 6abc 496d 85bc 3331 42bc 94e3 6bbc
00000330: 5e40 a2bc 718d 47bc 3669 73bc 937c b4ba
00000340: a3e7 06bd e569 c5bc 5fca 37bc efcd 463c
00000350: 75d4 3c3d a18c 073c d41c a3ba 4451 603c
00000360: d306 0abf 059d 033e e699 023e fbd6 22be
00000370: fcdd 133f 8bd8 4bbf 1adf 743f 3795 1e3f
00000380: 2047 473f 2866 a5bd 40fa 43bc e67d 3c3d
00000390: 9814 e2bb 5ec3 0db9 c29c 4ab9 e59a eeba
000003a0: ada7 1ebb b7fc 86bb 52a1 543b 4487 093b
000003b0: 3448 1cbb 642f 13ba 4806 d539 d953 89ba
000003c0: ba3f 68ba 86f5 96bb 48f6 53bb 0907 1aba
000003d0: 0625 9dbb d102 d4ba 993f 01bb 86fc d5ba
000003e0: daf7 af3a 1f79 f1b9 ea04 bc39 1e41 923b
000003f0: ef1f fb3a 4e76 a2ba f71d a5ba a9e7 90ba

conv1.nn.0.bias f4 [64]
-0.0019389414 0.0012048755 -0.0023211641 -0.27981797 0.0025632018 0.00053701113 -0.0045877537 0.000993927
-0.0026893553 0.00014369126 0.0029429048 0.0011338395 -0.006652081 0.0021875887 -0.002248315 -0.0019807958
-0.07660445 -0.017456558 0.7051528 -0.0002153744 0.00039190266 -0.0014991198 -0.00044876238 -0.0010188465
0.037460208 -0.006007244 -0.023808915 -0.004965803 -0.0017033678 -0.0014534161 -0.04049839 -0.030620566
-0.012420241 -0.00014389474 0.00089356385 -0.014899958 -0.0010411299 -0.00025869865 0.0020969657 0.0029196935
-0.0017699905 -0.002039789 -7.1466864e-05 -0.0020384428 -0.007388486 -0.001241729 7.316925e-05 -0.00092797825
-0.0022063483 0.00048202492 -0.0032655902 0.0012029094 -0.0018082685 -0.0005619039 -0.00033051707 0.001077571
-0.0006881561 -0.0027418055 -0.002210156 -0.0002475726 -0.00018245053 0.007038799 -0.0031643407 -0.0027001558
00000000: 1424 feba eaec 9d3a ac1e 18bb 4d44 8fbe
00000010: 64fb 273b 35c6 0c3a de54 96bb a846 823a
00000020: e53f 30bb d4ab 1639 c0dd 403b 579d 943a
00000030: b3f9 d9bb a65d 0f3b 7758 13bb 3dd0 01bb
00000040: cbe2 9cbd 0e01 8fbc e584 343f 20d6 61b9
00000050: 4978 cd39 1d7e c4ba de47 ebb9 d18a 85ba
00000060: e06f 193d 6ad8 c4bb ea0a c3bc 2db8 a2bb
00000070: 8a43 dfba 8d80 beba a4e1 25bd fbd7 fabc
00000080: 447e 4bbc 73e2 16b9 0e3e 6a3a f41e 74bc
00000090: 8676 88ba f2a1 87b9 3f6d 093b 5458 3f3b
000000a0: 07ff e7ba fbad 05bb 7be0 95b8 6597 05bb
000000b0: 1d1b f2bb 83c1 a2ba 7172 9938 9143 73ba
000000c0: 6298 10bb 4ab8 fc39 8303 56bb f1aa 9d3a
000000d0: 6c03 edba bb4c 13ba 4049 adb9 483d 8d3a
000000e0: 6065 34ba ddaf 33bb 44d8 10bb a2cc 81b9
000000f0: 3150 3fb9 baa5 e63b d460 4fbb 19f5 30bb

conv1.nn.2.weight f4 [64]
0.0069461553 0.0076731285 0.006682056 0.40044126 0.007787714 0.006747134 0.014443634 0.007362696
0.007248712 0.0076731285 0.006146054 0.0076731285 0.0074214893 0.003977853 0.0067435517 0.003287382
-0.04144707 0.01017907 -0.39092305 0.0022650047 0.007130398 0.0076731285 0.008348327 0.0077786064
-0.052349996 0.0075690355 -0.07289316 0.0072416924 0.007893466 0.0064085717 -0.029449692 0.0045296573
0.059189204 0.006513491 0.0080690645 0.036628842 0.0066888393 0.0076731285 0.0076731285 -0.011121675
0.0067730197 0.0070498385 0.0063546244 0.0066509885 0.011485654 0.0074258945 0.005548591 0.007917969
0.006748818 0.0066536297 0.0030778942 0.0064673913 0.0056264126 0.006335329 0.0076731285 0.009122948
0.0076731285 0.007946598 0.007202166 0.0074746497 0.0060927807 -0.0114833815 0.007099901 0.0061084214
00000000: 939c e33b de6e fb3b 26f5 da3b a306 cd3e
00000010: 1430 ff3b 1017 dd3b fea4 6c3c c542 f13b
00000020: 9a86 ed3b de6e fb3b d664 c93b de6e fb3b
00000030: f72f f33b a658 823b 03f9 dc3b 1e71 573b
00000040: 67c4 29bd 1dc6 263c 1127 c8be 7970 143b
00000050: 1da6 e93b de6e fb3b 6cc7 083c aee3 fe3b
00000060: f36c 56bd ac05 f83b 0249 95bd b84b ed3b
00000070: 9953 013c fffe d13b 7b40 f1bc 856d 943b
00000080: 6170 723d 1f6f d53b 1c34 043c 2008 163d
00000090: 0d2e db3b de6e fb3b de6e fb3b b037 36bc
000000a0: 35f0 dd3b 5502 e73b 743a d03b 89f0 d93b
000000b0: 532e 3c3c eb54 f33b f4d0 b53b 5eba 013c
000000c0: 3025 dd3b b106 da3b 7fb6 493b 69ec d33b
000000d0: c55d b83b 9798 cf3b de6e fb3b 6b78 153c
000000e0: de6e fb3b 7332 023c 2600 ec3b e8ed f43b
000000f0: f3a5 c73b cb24 3cbc 49a6 e83b 2729 c83b

conv1.nn.2.bias f4 [64]
-0.31049517 -0.062032178 0.33849496 -0.29861936 0.1722354 -0.704005 -0.8452348 -0.38932306
0.24267143 0.48038015 -0.62625194 0.6016448 0.2855059 -0.4604077 -0.0021057173 -0.06270046
0.5202637 -0.6499682 0.021880591 1.025604 1.1843321 -0.68474764 -0.025619548 0.03533007
0.82359046 0.02626937 0.0014480236 0.08974477 0.119596764 -0.005224582 -0.1946761 0.26686662
1.1977619 0.42266688 0.32082233 0.5597177 0.009736416 0.6214435 0.5800895 -0.9231385
-1.9190333 -0.17149271 0.57321537 -0.3891341 -0.26248202 -0.24533008 -0.8173593 -0.3357515
0.11365283 0.33239767 0.014301594 -0.9176192 -0.045997493 0.14141974 -0.0041558305 -0.3601086
-0.28552648 -0.37505794 0.09445727 -0.036925375 0.55109686 -0.5545643 -0.040727112 0.56405133
00000000: 39f9 9ebe 7415 7ebd 364f ad3e a3e4 98be
00000010: 7a5e 303e ac39 34bf 4f61 58bf 5a55 c7be
00000020: dc7e 783e 63f4 f53e 0c52 20bf 6505 1a3f
00000030: d42d 923e 8fba ebbe 1300 0abb 1969 80bd
00000040: 0030 053f 5164 26bf ed3e b33c fe46 833f
00000050: 3298 973f 9f4b 2fbf 16e0 d1bc 43b6 103d
00000060: d3d6 523f dd32 d73c 9ccb bd3a 1bcc b73d
00000070: 26ef f43d f832 abbb 2c59 47be bea2 883e
00000080: 4350 993f cb67 d83e d342 a43e a949 0f3f
00000090: 7d85 1f3c ec16 1f3f bf80 143f ce52 6cbf
000000a0: e2a2 f5bf c99b 2fbe 3ebe 123f 963c c7be
000000b0: 0b64 86be cf37 7bbe 763e 51bf 9fe7 abbe
000000c0: d1c2 e83d 0730 aa3e 3c51 6a3c 18e9 6abf
000000d0: de67 3cbd 56d0 103e a22d 88bb 2860 b8be
000000e0: 8730 92be 9807 c0be d072 c13d 103f 17bd
000000f0: af14 0d3f edf7 0dbf 79d1 26bd ab65 103f

conv1.nn.2.running_mean f4 [64]
6e-45 0.0 6e-45 0.08205848 6e-45 6e-45 6e-45 6e-45
6e-45 0.0 6e-45 0.0 6e-45 6e-45 6e-45 6e-45
6e-45 6e-45 0.061053842 6e-45 6e-45 0.0 6e-45 6e-45
6e-45 6e-45 6e-45 6e-45 6e-45 6e-45 6e-45 6e-45
6e-45 6e-45 6e-45 6e-45 6e-45 0.0 0.0 6e-45
6e-45 6e-45 6e-45 6e-45 6e-45 6e-45 6e-45 6e-45
6e-45 6e-45 6e-45 6e-45 6e-45 6e-45 0.0 6e-45
0.0 6e-45 6e-45 6e-45 6e-45 6e-45 6e-45 6e-45
00000000: 0400 0000 0000 0000 0400 0000 470e a83d
00000010: 0400 0000 0400 0000 0400 0000 0400 0000
00000020: 0400 0000 0000 0000 0400 0000 0000 0000
00000030: 0400 0000 0400 0000 0400 0000 0400 0000
00000040: 0400 0000 0400 0000 9813 7a3d 0400 0000
00000050: 0400 0000 0000 0000 0400 0000 0400 0000
00000060: 0400 0000 0400 0000 0400 0000 0400 0000
00000070: 0400 0000 0400 0000 0400 0000 0400 0000
00000080: 0400 0000 0400 0000 0400 0000 0400 0000
00000090: 0400 0000 0000 0000 0000 0000 0400 0000
000000a0: 0400 0000 0400 0000 0400 0000 0400 0000
000000b0: 0400 0000 0400 0000 0400 0000 0400 0000
000000c0: 0400 0000 0400 0000 0400 0000 0400 0000
000000d0: 0400 0000 0400 0000 0000 0000 0400 0000
000000e0: 0000 0000 0400 0000 0400 0000 0400 0000
000000f0: 0400 0000 0400 0000 0400 0000 0400 0000

conv1.nn.2.running_var f4 [64]
6e-45 6e-45 6e-45 22.840433 6e-45 6e-45 6e-45 6e-45
6e-45 6e-45 6e-45 6e-45 6e-45 6e-45 6e-45 6e-45
6e-45 6e-45 9.733497 6e-45 6e-45 6e-45 6e-45 6e-45
6e-45 6e-45 6e-45 6e-45 6e-45 6e-45 6e-45 6e-45
6e-45 6e-45 6e-45 6e-45 6e-45 6e-45 6e-45 6e-45
6e-45 6e-45 6e-45 6e-45 6e-45 6e-45 6e-45 6e-45
6e-45 6e-45 6e-45 6e-45 6e-45 6e-45 6e-45 6e-45
6e-45 6e-45 6e-45 6e-45 6e-45 6e-45 6e-45 6e-45
00000000: 0400 0000 0400 0000 0400 0000 35b9 b641
00000010: 0400 0000 0400 0000 0400 0000 0400 0000
00000020: 0400 0000 0400 0000 0400 0000 0400 0000
00000030: 0400 0000 0400 0000 0400 0000 0400 0000
00000040: 0400 0000 0400 0000 67bc 1b41 0400 0000
00000050: 0400 0000 0400 0000 0400 0000 0400 0000
00000060: 0400 0000 0400 0000 0400 0000 0400 0000
00000070: 0400 0000 0400 0000 0400 0000 0400 0000
00000080: 0400 0000 0400 0000 0400 0000 0400 0000
00000090: 0400 0000 0400 0000 0400 0000 0400 0000
000000a0: 0400 0000 0400 0000 0400 0000 0400 0000
000000b0: 0400 0000 0400 0000 0400 0000 0400 0000
000000c0: 0400 0000 0400 0000 0400 0000 0400 0000
000000d0: 0400 0000 0400 0000 0400 0000 0400 0000
000000e0: 0400 0000 0400 0000 0400 0000 0400 0000
000000f0: 0400 0000 0400 0000 0400 0000 0400 0000

conv1.nn.4.weight f4 [64, 64]
0.033558976 0.18755306 -0.022099916 -0.07824668 -0.18818977 0.113843314 0.3145181 0.54148287
0.033930533 0.07448175 0.08464704 -0.39722517 -0.14661624 0.13407303 -0.08724195 0.040532194
0.006197047 0.3218061 -0.02365104 -0.30454442 0.039712213 0.18803819 0.049626432 0.052933775
-0.124666125 -0.16464204 -0.10569631 -0.096303366 -0.1842777 0.05346782 0.15843485 -0.20040248
-0.10511707 0.002638242 -0.017708452 -0.3585989 0.043546796 -0.038564097 -0.2520415 -0.058982946
0.0024370695 0.12940764 0.028533645 0.19194464 0.03486243 0.08633506 0.13687392 0.23044553
-0.08614651 -0.19518402 -0.114680536 0.23470883 0.020459926 -0.2543211 0.05131488 0.23135775
0.13575065 0.25897926 0.06248066 -0.07356664 -0.17956172 -0.06456205 -0.22942832 -0.00990071
-0.28977355 0.23632164 -0.30209056 0.025003562 0.023805914 0.059655916 -0.32269374 0.24976982
-0.22154343 -0.0538554 0.07408767 0.16802962 -0.3447673 0.3101843 -0.11789611 0.3216893
0.09518225 0.079797946 -0.01888557 -0.19907811 -0.13155554 0.09369211 0.2106595 0.15891697
-0.44027856 -0.044627815 0.1632624 -0.21402411 -0.285746 0.17408355 -0.10571485 -0.016611231
-0.08875537 0.09528131 -0.30750355 -0.3225389 0.45359844 0.26183993 -0.4939457 0.121181
-0.11453824 -0.08138405 0.06531382 0.21464235 0.30331331 0.18347614 0.050315376 0.10062808
0.3318849 0.3233839 0.03017933 0.37587088 -0.017997896 -0.25748578 -0.10688104 0.12109958
0.28382558 -0.073050745 -0.0005033355 0.31736687 -0.026205985 0.040558197 0.0031055524 0.28644446
0.41905668 0.28989488 0.19283216 -0.5718256 -0.59755236 0.8478868 -0.7394793 0.4017434
0.87303984 0.51969004 0.6553424 0.7888593 0.09524994 -0.5046985 -0.3572475 -0.1022941
0.5823975 -0.55329317 0.79962623 0.7906318 0.9041945 -0.54613113 -0.14872654 0.4457078
0.68435675 -0.0062397635 -0.1332999 -0.20697339 0.29913828 0.11968825 -0.019379593 -0.037502255
-1.3571694 0.54675895 0.8207095 -0.07279474 -0.09213268 0.44952506 1.0459659 0.9780412
1.6642206 -0.72425205 -0.3828367 -0.47450906 -0.351117 -0.47124448 -0.7778373 -0.44679785
-0.1049674 0.4896946 0.3386766 -0.97365534 0.17345424 0.4341298 0.011633845 -0.6664817
-0.0495376 0.39610466 -0.0058527905 0.43643007 -0.5368193 -0.46693596 0.074520566 -0.43551394
0.072647564 0.021551555 0.21997017 -0.35529152 -0.06562285 0.95681375 -0.88589656 0.4363688
-0.12575354 0.0684219 0.7935387 0.52133995 0.28397477 -0.7345381 -0.20193888 0.1586408
0.31806177 -0.68448097 -0.09738883 1.3468965 0.79026437 -0.8496051 0.29539055 0.12409684
0.76085174 0.011152464 -0.22236192 -0.3414828 0.22680326 -0.14854681 0.027609767 0.40584937
-1.0252792 0.20385557 0.3454414 -0.24787332 -0.28649625 0.4352214 0.902697 0.7129798
1.6572194 0.39117208 -0.33951026 -0.876884 -0.053692054 -0.5406791 -1.168373 -0.5974054
-0.0039610774 0.35520956 -0.3487608 -0.8614007 0.2815205 0.34355736 0.2124501 -0.44721586
-0.1668886 0.17726257 0.1765266 0.29629114 -0.3699006 -0.6738479 0.13231194 -1.1282123
00000000: 2375 093d e90d 403e e20a b5bc cc3f a0bd
00000010: d2b4 40be af26 e93d 8408 a13e 9f9e 0a3f
00000020: befa 0a3d e389 983d 6d5b ad3d 1961 cbbe
00000030: 9122 16be 714a 093e e8ab b2bd 1605 263d
00000040: 9910 cb3b c5c3 a43e d3bf c1bc 3fed 9bbe
00000050: 46a9 223d 158d 403e 1645 4b3d 16d1 583d
00000060: f450 ffbd ec97 28be 4f77 d8bd b33a c5bd
00000070: 4bb3 3cbe 1301 5b3d bf3c 223e 4f36 4dbe
00000080: 9e47 d7bd 5be6 2c3b 5111 91bc 469a b7be
00000090: 205e 323d 63f5 1dbd 950b 81be 1a98 71bd
000000a0: 3eb7 1f3b 7083 043e 64bf e93c 238d 443e
000000b0: e8cb 0e3d 70d0 b03d ad28 0c3e eaf9 6b3e
000000c0: 956d b0bd 52de 47be a1dd eabd 8357 703e
000000d0: 939b a73c 6036 82be 8d2f 523d 0ce9 6c3e
000000e0: 3802 0b3e ee98 843e b8eb 7f3d 1baa 96bd
000000f0: 07df 37be 1c39 84bd 42ef 6abe 9636 22bc
00000100: 335d 94be 4dfe 713e 9dab 9abe 45d4 cc3c
00000110: 9f04 c33c c359 743d 1d38 a5be a9c3 7f3e
00000120: 48dc 62be 7b97 5cbd 47bb 973d f50f 2c3e
00000130: 5785 b0be 7ad0 9e3e 8473 f1bd 76b4 a43e
00000140: e9ee c23d 1b6d a33d e9b5 9abc 22db 4bbe
00000150: 7fb6 06be a6e1 bf3d 20b7 573e 21bb 223e
00000160: 316c e1be a8cb 36bd 422e 273e 2329 5bbe
00000170: 4d4d 92be f542 323e 0781 d8bd 4714 88bc
00000180: 60c5 b5bd d922 c33d 1b71 9dbe d223 a5be
00000190: 0e3e e83e e20f 863e 73e6 fcbe be2d f83d
000001a0: 0693 eabd aeac a6bd 41c3 853d 34cb 5b3e
000001b0: e24b 9b3e 2be1 3b3e 7f17 4e3d 1816 ce3d
000001c0: d1ec a93e 9392 a53e a43a f73c 2672 c03e
000001d0: 5370 93bc 2dd5 83be 72e4 dabd 0e03 f83d
000001e0: 9651 913e a19b 95bd 46f2 03ba e97d a23e
000001f0: efad d6bc 5a20 263d 8686 4b3b d9a8 923e
00000200: 998e d63e 1a6d 943e cb75 453e 2a63 12bf
00000210: 31f9 18bf 1c0f 593f 844e 3dbf 50b1 cd3e
00000220: 8a7f 5f3f 680a 053f 85c4 273f aff2 493f
00000230: 6712 c33d ec33 01bf 25e9 b6be 927f d1bd
00000240: 0118 153f 9fa4 0dbf 4eb4 4c3f d866 4a3f
00000250: 4a79 673f 40cf 0bbf c54b 18be d033 e43e
00000260: 0132 2f3f ee76 ccbb c57f 08be d5f0 53be
00000270: a728 993e 1d1f f53d f4c1 9ebc f79b 19bd
00000280: bab7 adbf 65f8 0b3f 051a 523f 6915 95bd
00000290: 0fb0 bcbd 2628 e63e 36e2 853f e860 7a3f
000002a0: 2e05 d53f 9568 39bf 2c03 c4be daf2 f2be
000002b0: 9cc5 b3be f546 f1be 5820 47bf b0c2 e4be
000002c0: 26f9 d6bd 40b9 fa3e 0567 ad3e 7a41 79bf
000002d0: fd9d 313e 4346 de3e e29b 3e3c 8b9e 2abf
000002e0: f0e7 4abd 3bce ca3e c4c8 bfbb c373 df3e
000002f0: fd6c 09bf 3b12 efbe 3d9e 983d affb debe
00000300: 3fc8 943d e38c b03c dc3f 613e c5e8 b5be
00000310: 4665 86bd bff1 743f 1eca 62bf bb6b df3e
00000320: 89c5 00be c820 8c3d 5a25 4b3f 8976 053f
00000330: 2465 913e b00a 3cbf 11c9 4ebe bc72 223e
00000340: fed8 a23e 253a 2fbf cb73 c7bd 1b67 ac3f
00000350: c44e 4a3f b87f 59bf 6e3d 973e 7c26 fe3d
00000360: 2ec7 423f d3b8 363c d8b2 63be d5d6 aebe
00000370: 1d3f 683e a81c 18be e12d e23c 7dcb cf3e
00000380: 593c 83bf 84bf 503e b2dd b03e 81d2 7dbe
00000390: a3af 92be 57d5 de3e 2717 673f d885 363f
000003a0: c41f d43f b547 c83e 4ad4 adbe 787b 60bf
000003b0: 33ec 5bbd f269 0abf 3f8d 95bf 8fef 18bf
000003c0: edcb 81bb 07de b53e c790 b2be c284 5cbf
000003d0: 7423 903e c0e6 af3e 858c 593e 7af9 e4be
000003e0: d8e4 2abe 5284 353e 64c3 343e 79b3 973e
000003f0: 9d63 bdbe 4c81 2cbf c87c 073e 4369 90bf

conv1.nn.4.bias f4 [64]
-0.124233045 -0.13625568 -0.42760885 0.8873514 -0.08579237 -0.2162228 -0.14955166 1.0725362
-0.22361796 -0.25317436 1.1975034 -0.25978494 -0.11167775 -0.44844347 -0.31939262 -0.09311248
-0.17655098 1.4440933 -0.25779793 0.4218405 -0.32254058 1.0918989 -0.044884462 0.042164642
-0.23067231 -0.2233648 -0.3173276 1.8891354 0.21211672 1.146998 -0.2548073 1.5074251
-0.07982735 1.608762 -0.30282134 -0.3225195 -0.47094604 -0.096134126 -0.14113885 0.7118874
-0.025062045 -0.036476932 -0.24709828 -0.094518974 -0.17580041 0.9616186 0.7127829 0.53120285
1.6831434 -0.12351971 -0.29765445 0.8709826 0.48338446 -0.14634298 -0.1553981 1.3508955
0.5601005 -0.27611324 -0.18599404 -0.09690597 -0.17425741 -0.13138938 -0.16737217 1.0675864
00000000: e56d febd 9c86 0bbe 8cef dabe 7629 633f
00000010: e9b3 afbd 8269 5dbe 1224 19be de48 893f
00000020: 1bfc 64be 12a0 81be cb47 993f 8802 85be
00000030: 4eb7 e4bd 629a e5be 6e87 a3be c2b1 bebd
00000040: c8c9 34be 0dd8 b83f 17fe 83be 7afb d73e
00000050: 0a24 a5be 58c3 8b3f c5d8 37bd d5b4 2c3d
00000060: 5d35 6cbe beb9 64be c378 a2be 30cf f13f
00000070: 2035 593e d5d0 923f 1a76 82be 4ef3 c03f
00000080: 867c a3bd eaeb cd3f 660b 9bbe 4721 a5be
00000090: d71f f1be f8e1 c4bd b486 10be 413e 363f
000000a0: eb4e cdbc d668 15bd 5507 7dbe 2a93 c1bd
000000b0: 0605 34be a32c 763f f178 363f e9fc 073f
000000c0: 3e71 d73f e7f7 fcbd 2a66 98be b7f8 5e3f
000000d0: 2b7e f73e efda 15be ae20 1fbe 25ea ac3f
000000e0: bf62 0f3f b75e 8dbe 3975 3ebe a376 c6bd
000000f0: 8970 32be f08a 06be 9c63 2bbe aca6 883f

conv2.nn.0.weight f4 [64, 64]
-0.24364461 -0.57053834 0.35121912 -0.27677104 0.1714123 0.13508275 -0.51619995 -0.23780227
-0.04762731 -0.120128766 0.08363564 -0.043762356 -0.07017009 0.36516622 0.033189017 -0.3191792
0.1112565 0.08898941 -0.50585955 0.04125995 -0.23803997 -0.19544293 0.432546 -0.4464563
0.34444612 -0.07094698 -0.2170267 -0.15475392 0.22695869 0.2915796 -0.09367282 -0.24922346
0.225277 0.25107664 0.29394627 0.4358965 0.2823509 -0.18022433 0.015049754 -0.07343823
-0.15049474 -0.2813433 0.16914204 -0.1605108 -0.20759909 0.0811831 0.14246206 -0.013467192
0.15007171 -0.15864255 -0.35685354 -0.21249673 0.02503018 0.01858491 -0.29852355 0.24804741
-0.06476748 -0.016127156 0.2681868 -0.13667469 0.0046066996 -0.3093505 -0.16816962 0.05164722
0.14510477 -0.20729472 -0.11204842 0.25199425 -0.17772587 0.25908607 -0.0939795 0.07633629
-0.04250982 0.12785473 0.052963074 0.21006127 0.29414427 -0.34330702 0.25715253 0.020326406
-0.16831085 -0.28678402 0.19012468 -0.061171375 0.20098414 0.17851633 -0.18814346 0.15680662
-0.12571068 0.19721156 -0.06027137 0.25132695 -0.19704866 -0.07735395 -0.087818146 0.11417303
-0.027770441 -0.22109036 -0.06575943 -0.17191088 -0.25252643 -0.039297648 0.064579844 -0.049652778
0.03920822 -0.04812444 0.025755348 0.29954737 0.23842771 0.31834066 0.10128345 -0.011251252
-0.1512365 0.16187698 0.1085801 0.085614994 -0.024022149 0.10555438 0.11398817 -0.09632963
-0.32072297 -0.16450493 -0.20189798 0.17958455 -0.30437848 0.18447779 -0.5203346 -0.3663879
0.14535898 -0.039101306 -0.12258178 0.15745543 -0.117411 0.10378472 -0.054071035 0.030041715
0.06246333 0.124764666 0.05754624 0.101328164 0.15345363 -0.15316463 0.03894894 -0.04655031
-0.09895422 -0.120093435 0.08687258 0.060545284 0.14503351 0.16197439 -0.13687289 -0.027326098
-0.027780099 0.109840915 -0.07596653 0.14914055 -0.09347919 -0.011374297 -0.021603651 0.12111942
0.049169898 -0.15771206 -0.02456276 -0.10392292 -0.18914671 -0.027404819 0.08579361 0.016464375
-0.026815914 -0.0066411314 0.004479185 0.13987175 0.15739566 0.061662145 0.22003525 0.0640605
-0.0823517 0.11040081 0.106826656 0.014551127 0.05137407 0.070378564 -0.016413039 0.04524947
0.01598735 -0.12332387 -0.15294762 0.1494888 -0.09266784 0.11543758 -0.006829474 -0.068666145
-0.1295517 -0.7212086 0.16021161 -0.28364864 0.42930737 0.5752953 -0.07525952 -0.5847422
-0.30487442 -0.13465887 -0.04391692 -0.3555696 -0.22148287 0.40427715 0.18648207 -0.6839807
1.00226 -0.3961451 -0.5044236 0.08578279 -0.2102728 -0.09753833 -0.19818468 -0.8450284
1.416975 -0.36957052 0.27010497 -0.332381 0.6831297 1.2868428 -0.19092277 -1.3207368
0.6530165 0.13474667 0.69580805 0.83023 0.2540299 0.18683258 -0.0045746583 0.12995529
-0.65474313 -0.3550664 0.33179322 -0.30867565 -0.15051599 -0.24431056 0.15509716 -0.34642366
1.0304288 -0.7229306 -0.21072477 -0.1750143 0.038650293 -0.11625047 -1.0129217 1.2022097
0.02632392 -0.25669417 0.2334637 -0.37836158 -0.0528615 0.3528293 -0.2901519 0.19304654
00000000: f97d 79be cd0e 12bf fed2 b33e efb4 8dbe
00000010: b586 2f3e 2253 0a3e ae25 04bf 7082 73be
00000020: db14 43bd 1206 f6bd 2a49 ab3d 2840 33bd
00000030: 56b5 8fbd 11f7 ba3e 35f1 073d 756b a3be
00000040: 73da e33d 1440 b63d 0380 01bf 3100 293d
00000050: c0c0 73be 3122 48be ab76 dd3e ec95 e4be
00000060: 3e5b b03e a64c 91bd 3f3c 5ebe d077 1ebe
00000070: dc67 683e ec49 953e 89d7 bfbd 6f34 7fbe
00000080: 04af 663e 1e8d 803e 2080 963e d32d df3e
00000090: 4c90 903e ba8c 38be 3e93 763c c866 96bd
000000a0: 4b1b 1abe 3b0c 90be 9233 2d3e f15c 24be
000000b0: db94 54be 5343 a63d 93e1 113e 7fa5 5cbc
000000c0: 66ac 193e 3173 22be 82b5 b6be be98 59be
000000d0: 180c cd3c 623f 983c 14d8 98be 2400 7e3e
000000e0: d0a4 84bd 191d 84bc c84f 893e 73f4 0bbe
000000f0: ccf3 963b 3063 9ebe a834 2cbe 098c 533d
00000100: 5896 143e 1145 54be a479 e5bd 6405 813e
00000110: c5fd 35be eea6 843e 5378 c0bd 3356 9c3d
00000120: c71e 2ebd 5aec 023e cfef 583d 4d1a 573e
00000130: 149a 963e f0c5 afbe 7fa9 833e 9083 a63c
00000140: ae59 2cbe 5bd5 92be 0bb0 423e d68e 7abd
00000150: c9ce 4d3e fccc 363e aea8 40be ea91 203e
00000160: 4dba 00be d4f1 493e 1ddf 76bd edad 803e
00000170: 20c7 49be bf6b 9ebd 00da b3bd 8dd3 e93d
00000180: d67e e3bc 8365 62be e1ac 86bd 6809 30be
00000190: 254b 81be 92f6 20bd 7042 843d b660 4bbd
000001a0: cc98 203d 221e 45bd e1fc d23c 465e 993e
000001b0: 6526 743e 8cfd a23e b36d cf3d 2c57 38bc
000001c0: bedd 1abe 14c3 253e 3e5f de3d ea56 af3d
000001d0: 19ca c4bc e52c d83d a172 e93d 7848 c5bd
000001e0: cd35 a4be fb73 28be 58be 4ebe 03e5 373e
000001f0: 7fd7 9bbe bfe7 3c3e a634 05bf 3297 bbbe
00000200: fcd8 143e b128 20bd 280c fbbd ff3b 213e
00000210: 2e75 f0bd 158d d43d 9779 5dbd 0b1a f63c
00000220: 8cd9 7f3d 9e84 ff3d 9bb5 6b3d 2485 cf3d
00000230: f322 1d3e 30d7 1cbe ec88 1f3d 8aab 3ebd
00000240: 83a8 cabd 8cf3 f5bd 40ea b13d 55fe 773d
00000250: aa83 143e 9ddc 253e 6828 0cbe fbda dfbc
00000260: 1793 e3bc 46f4 e03d 5794 9bbd 4db8 183e
00000270: 0472 bfbd 425b 3abc 24fa b0bc 750d f83d
00000280: 6066 493d 457f 21be d737 c9bc 8ad5 d4bd
00000290: adaf 41be 1280 e0bc 8fb4 af3d 4ce0 863c
000002a0: 0cad dbbc d99d d9bb 21c6 923b 8a3a 0f3e
000002b0: 542c 213e 7291 7c3d ec50 613e 2732 833d
000002c0: 02a8 a8bd d219 e23d efc7 da3d da67 6e3c
000002d0: 9e6d 523d a322 903d a374 86bc 8257 393d
000002e0: e7f7 823c 3a91 fcbd 4d9e 1cbe 9813 193e
000002f0: a3c8 bdbd 8a6a ec3d c8c9 dfbb d6a0 8cbd
00000300: 33a9 04be 20a1 38bf 830e 243e 653a 91be
00000310: 2dce db3e 8e46 133f aa21 9abd aab1 15bf
00000320: 8018 9cbe 04e4 09be 3ae2 33bd 380d b6be
00000330: 68cc 62be 6afd ce3e 28f5 3e3e 5c19 2fbf
00000340: 0e4a 803f 88d3 cabe e821 01bf e3ae af3d
00000350: c151 57be 2dc2 c7bd edf0 4abe c853 58bf
00000360: 705f b53f 5938 bdbe 334b 8a3e d82d aabe
00000370: 97e1 2e3f 44b7 a43f 4281 43be e70d a9bf
00000380: 172c 273f 08fb 093e 7a20 323f f489 543f
00000390: 3510 823e 0a51 3f3e 04e7 95bb 0013 053e
000003a0: 3f9d 27bf 43cb b5be cde0 a93e bc0a 9ebe
000003b0: dd20 1abe 8c2c 7abe cad1 1e3e 715e b1be
000003c0: 17e5 833f fb11 39bf 3cc8 57be f336 33be
000003d0: c54f 1e3d ba14 eebd 6ba7 81bf 02e2 993f
000003e0: 43a5 d73c 6b6d 83be 1c11 6f3e 9cb8 c1be
000003f0: 4d85 58bd 0ba6 b43e ca8e 94be fead 453e

conv2.nn.0.bias f4 [64]
0.018499533 0.21440208 -0.15841736 1.0370659 0.35637748 -0.2089558 0.18081948 0.13498557
0.73691314 -0.019374814 0.4185989 0.275039 0.58151305 0.7655558 0.39448008 -0.008756971
-0.057358887 -0.051839262 0.26787224 0.22746682 0.028607093 -0.0875671 0.13771844 -0.1899841
0.19020432 0.49124506 -0.2869562 -0.023548048 -0.002644242 0.22439611 0.15803047 0.29420537
0.38002545 0.1021263 0.85207045 0.19582945 0.5038588 -0.030900627 0.21815784 0.35033616
0.19107004 0.771238 0.007418264 0.18076117 0.21686013 -0.028178116 0.107466094 0.105285026
0.23287262 0.04274249 -0.020574264 -0.022036023 0.088131934 0.0022110448 0.06485573 -0.043092247
0.13528632 0.1221353 0.3298252 0.3661091 0.12885465 -0.014359247 0.21834038 0.42597145
00000000: 558c 973c 388c 5b3e 2938 22be 93be 843f
00000010: 1c77 b63e 82f8 55be be28 393e a839 0a3e
00000020: 57a6 3c3f eeb7 9ebc 9852 d63e e9d1 8c3e
00000030: 0ade 143f 77fb 433f 4bf9 c93e 6679 0fbc
00000040: 27f1 6abd 6855 54bd 8d26 893e 10ed 683e
00000050: 6c59 ea3c 6156 b3bd 1006 0d3e 318b 42be
00000060: ecc4 423e 7984 fb3e eceb 92be d6e7 c0bc
00000070: 054b 2dbb 18c8 653e bdd2 213e 16a2 963e
00000080: b292 c23e 9827 d13d 4a21 5a3f 8487 483e
00000090: e4fc 003f 5023 fdbc c564 5f3e 435f b33e
000000a0: dda7 433e db6f 453f e914 f33b 7519 393e
000000b0: 9510 5e3e cbd5 e6bc 2f17 dc3d ad9f d73d
000000c0: 2976 6e3e c012 2f3d 5c8b a8bc e484 b4bc
000000d0: 847e b43d 2de7 103b 15d3 843d 7f81 30bd
000000e0: 7f88 0a3e 1222 fa3d d9de a83e a772 bb3e
000000f0: 79f2 033e 0c43 6bbc 9f94 5f3e ee18 da3e

conv2.nn.2.weight f4 [64]
-0.016922122 -0.19639939 -0.015206109 -0.25490612 -0.69546545 -0.02159675 -0.0058729914 -0.03918132
0.012475498 0.030277984 0.06845161 -0.7016123 -0.017487826 0.65576184 0.011272685 0.024532577
0.06554635 0.0057779397 0.066288605 -0.20657966 -0.026258975 -0.024712348 0.026800454 0.8776986
0.37012327 0.060381282 0.11859998 0.018537438 0.03321124 0.011163644 0.16693836 -0.0623715
0.022477364 0.0094007645 0.21684542 -0.04349312 0.054396186 0.009571998 -0.063721284 0.21528716
0.0054800995 -0.15808465 0.0042312243 0.1013115 -0.015449388 0.004342444 -0.013198147 -0.038241237
0.0007344968 0.0086844945 0.010872194 0.0073250574 0.01742661 0.006016555 0.036133077 0.0023432982
-0.027109975 -0.015699523 -0.22518879 -0.052965082 -0.0031282257 0.0038480838 0.18490686 0.042484578
00000000: 43a0 8abc ec1c 49be 0b23 79bc 0e83 82be
00000010: 060a 32bf abeb b0bc 3972 c0bb 987c 20bd
00000020: 0866 4c3c 8909 f83c 5c30 8c3d dd9c 33bf
00000030: a142 8fbc 02e0 273f 11b1 383c 8bf8 c83c
00000040: 2a3d 863d df54 bd3b 52c2 873d 9e89 53be
00000050: 101d d7bc 8d71 cabc a08c db3c dbb0 603f
00000060: cc80 bd3e 5d52 773d 8ce4 f23d d3db 973c
00000070: 8208 083d b7e7 363c e4f1 2a3e 4279 7fbd
00000080: 7322 b83c aa05 1a3c ba0c 5e3e d825 32bd
00000090: 89ce 5e3d dfd3 1c3c 4e80 82bd 3d74 5c3e
000000a0: 6892 b33b f1e0 21be 15a6 8a3b 677c cf3d
000000b0: 6e1f 7dbc 0f4b 8e3b 0a3d 58bc d8a2 1cbd
000000c0: 3f8b 403a 6949 0e3c 4921 323c 0907 f03b
000000d0: 40c2 8e3c 8526 c53b 4700 143d 0592 193b
000000e0: bd15 debc 499c 80bc e497 66be eaf1 58bd
000000f0: eb02 4dbb 2230 7c3b 3958 3d3e 4f04 2e3d

conv2.nn.2.bias f4 [64]
-0.023924923 0.01404275 -0.011782634 -0.19194776 -0.6953162 -0.008837502 -0.00415164 -0.04970991
0.028058877 -0.019061895 0.023184957 -0.70717394 0.01187048 0.10971412 0.027499957 0.025155447
-0.041953795 0.018466864 -0.0043256157 0.003953883 -0.0008807253 -0.018148975 -0.015642872 0.9261634
0.4397114 -0.032321338 0.015331717 0.019484872 0.005607214 0.021774147 -0.042867225 0.0051947013
0.007128261 0.06041048 0.038886372 -0.019412067 0.07053728 0.031783048 -0.005574207 0.051354457
0.039630882 -0.010137152 -0.007289317 0.010271585 -0.0025435928 -0.00943029 0.026711095 -0.0016963753
0.011630113 -0.022942401 -0.00075151224 -0.022409571 -0.023795646 -0.037145738 -0.03263557 0.009845118
0.007970503 -0.008337122 -0.16119103 0.00046377323 0.003986428 -0.011450519 0.17384583 0.00013671472
00000000: 33fe c3bc 9013 663c f30b 41bc f48d 44be
00000010: 3e00 32bf 2ccb 10bc 7b0a 88bb 9e9c 4bbd
00000020: bbdb e53c b127 9cbc 61ee bd3c 5a09 35bf
00000030: 677c 423c ccb1 e03d 9747 e13c cc12 ce3c
00000040: bed7 2bbd d247 973c e5bd 8dbb 938f 813b
00000050: 79e0 66ba 29ad 94bc 7b25 80bc 0b19 6d3f
00000060: da21 e13e 6163 04bd e231 7b3c bd9e 9f3c
00000070: b8bc b73b b25f b23c 8b95 2fbd 5038 aa3b
00000080: 3094 e93b fb70 773d 5147 1f3d 0e06 9fbc
00000090: d975 903d f12e 023d d6a7 b6bb 0d59 523d
000000a0: fe53 223d 4c16 26bc 39db eebb 264a 283c
000000b0: 68b2 26bb 8181 1abc 3ad1 da3c e958 deba
000000c0: 3b8c 3e3c b4f1 bbbc 2201 45ba 4794 b7bc
000000d0: 16ef c2bc 2126 18bd e0ac 05bd 6b4d 213c
000000e0: b696 023c 6d98 08bc 430f 25be 9726 f339
000000f0: 95a0 823b f59a 3bbc a404 323e 145b 0f39

conv2.nn.2.running_mean f4 [64]
30956.96 6e-45 6e-45 74359.82 55257.99 6e-45 6e-45 6e-45
39756.77 6e-45 6e-45 70474.23 6e-45 58852.652 6e-45 6e-45
6e-45 6e-45 6e-45 6e-45 6e-45 6e-45 6e-45 54567.15
76595.62 6e-45 6e-45 6e-45 6e-45 6e-45 48519.117 6e-45
46804.906 6e-45 6e-45 6e-45 37449.6 6e-45 6e-45 6e-45
48420.816 52664.89 6e-45 6e-45 40272.14 6e-45 6e-45 6e-45
6e-45 6e-45 6e-45 6e-45 6e-45 6e-45 6e-45 6e-45
6e-45 6e-45 6e-45 6e-45 6e-45 6e-45 6e-45 6e-45
00000000: ecd9 f146 0400 0000 0400 0000 e93b 9147
00000010: fdd9 5747 0400 0000 0400 0000 0400 0000
00000020: c54c 1b47 0400 0000 0400 0000 1da5 8947
00000030: 0400 0000 a7e4 6547 0400 0000 0400 0000
00000040: 0400 0000 0400 0000 0400 0000 0400 0000
00000050: 0400 0000 0400 0000 0400 0000 2627 5547
00000060: cf99 9547 0400 0000 0400 0000 0400 0000
00000070: 0400 0000 0400 0000 1e87 3d47 0400 0000
00000080: e8d4 3647 0400 0000 0400 0000 0400 0000
00000090: 9a49 1247 0400 0000 0400 0000 0400 0000
000000a0: d124 3d47 e4b8 4d47 0400 0000 0400 0000
000000b0: 2450 1d47 0400 0000 0400 0000 0400 0000
000000c0: 0400 0000 0400 0000 0400 0000 0400 0000
000000d0: 0400 0000 0400 0000 0400 0000 0400 0000
000000e0: 0400 0000 0400 0000 0400 0000 0400 0000
000000f0: 0400 0000 0400 0000 0400 0000 0400 0000

conv2.nn.2.running_var f4 [64]
1.11884856e+08 6e-45 6e-45 6.4547315e+08 3.5645392e+08 6e-45 6e-45 6e-45
1.8449734e+08 6e-45 6e-45 5.797696e+08 6e-45 4.0437037e+08 6e-45 6e-45
6e-45 6e-45 6e-45 6e-45 6e-45 6e-45 6e-45 3.4758256e+08
6.848996e+08 6e-45 6e-45 6e-45 6e-45 6e-45 2.748299e+08 6e-45
2.5577464e+08 6e-45 6e-45 6e-45 1.6370163e+08 6e-45 6e-45 6e-45
2.736843e+08 3.2375187e+08 6e-45 6e-45 1.8931998e+08 6e-45 6e-45 6e-45
6e-45 6e-45 6e-45 6e-45 6e-45 6e-45 6e-45 6e-45
6e-45 6e-45 6e-45 6e-45 6e-45 6e-45 6e-45 6e-45
00000000: 4767 d54c 0400 0000 0400 0000 8ee4 194e
00000010: 71f8 a94d 0400 0000 0400 0000 0400 0000
00000020: 4cf3 2f4d 0400 0000 0400 0000 543a 0a4e
00000030: 0400 0000 9ed1 c04d 0400 0000 0400 0000
00000040: 0400 0000 0400 0000 0400 0000 0400 0000
00000050: 0400 0000 0400 0000 0400 0000 83bd a54d
00000060: f44a 234e 0400 0000 0400 0000 0400 0000
00000070: 0400 0000 0400 0000 920c 834d 0400 0000
00000080: fbec 734d 0400 0000 0400 0000 0400 0000
00000090: 381e 1c4d 0400 0000 0400 0000 0400 0000
000000a0: ba80 824d 7e60 9a4d 0400 0000 0400 0000
000000b0: b38c 344d 0400 0000 0400 0000 0400 0000
000000c0: 0400 0000 0400 0000 0400 0000 0400 0000
000000d0: 0400 0000 0400 0000 0400 0000 0400 0000
000000e0: 0400 0000 0400 0000 0400 0000 0400 0000
000000f0: 0400 0000 0400 0000 0400 0000 0400 0000

conv2.nn.4.weight f4 [64, 64]
0.37458017 0.28330892 -0.10021242 0.00064692774 -0.025952823 -0.370345 0.07181236 0.5956293
0.118896894 0.05573886 -0.28368276 0.22979566 -0.4018471 0.019795345 -0.45695964 -0.041898422
-0.37333065 0.49047333 0.4646897 -0.09542508 0.17315374 0.30236608 -0.24977958 0.07087739
-0.051644493 0.4874475 -0.12943085 0.42320323 -0.64929837 -0.2662618 0.050281055 -0.14314073
-0.23034513 -0.32246882 -0.22599663 -0.2764378 0.01633211 0.2662065 0.42891803 -0.22898798
-0.36410204 -0.15771829 -0.11279018 -0.46288586 0.062089913 -0.057797827 -0.3690011 0.03436517
0.4861758 0.34700474 0.037027266 0.26520604 -0.36198688 -0.12776487 -0.11676039 -0.26923308
0.094745025 0.050371554 0.2852543 0.14342517 0.14472707 0.33487856 -0.53453714 0.31550652
0.05132197 0.08217329 0.12334723 -0.027675772 0.006933924 -0.104684636 0.05553018 -0.029124197
-0.0079322215 0.12967144 -0.024251878 0.08314936 0.038409654 0.061211366 -0.12823756 -0.20721672
-0.13323765 0.014054325 -0.018354492 -0.078014866 -0.045516066 0.18495569 -0.18397585 -0.0056631216
-0.10170089 -0.025188163 -0.14335491 0.14188106 -0.12919489 -0.17965554 0.10705817 -0.08935428
-0.07677506 -0.052396324 -0.09787357 0.08857224 -0.06680506 -0.03800093 0.018280772 -0.037738368
-0.052263994 0.0019277255 0.19874568 -0.08338466 -0.07904983 -0.015977968 -0.17367966 -0.10250757
-0.1334834 0.07525151 -0.032833025 0.22580917 0.033881873 -0.071906514 -0.06779384 -0.17705695
0.11921242 -0.110959485 0.010790889 0.0417396 0.07621348 0.094313696 -0.041179795 -0.07200572
-0.12429799 0.0582148 0.36081392 0.01957893 -0.070521526 -0.018709892 0.24062106 0.08857171
-0.26447794 0.3573197 0.11732334 0.2331681 0.041300517 0.022627784 -0.21628773 -0.30369443
0.1561848 -0.07902328 -0.05747682 -0.023811698 0.050243873 -0.19201021 0.2107363 -0.009451854
-0.06436654 0.35719177 0.048690774 0.14032692 -0.25858098 -0.39944822 0.12373923 -0.07836536
-0.1876725 -0.1803032 -0.054916866 0.1730286 0.25290352 -0.14947516 0.21150935 -0.32859343
-0.14560367 -0.11547834 0.3636945 -0.21752498 0.15649328 -0.09337655 -0.18648651 0.13167447
0.12239031 0.0050226003 0.08128869 0.16076857 0.20987293 -0.061522696 -0.2730821 -0.24548991
0.006447127 -0.22768416 0.16068695 -0.15238197 -0.097753786 0.09259331 -0.16847722 0.05381892
0.07656334 0.2049835 -0.15940638 -0.02934646 -0.020797392 -0.6909474 -0.08145249 -0.24113363
-0.3705098 -0.027038498 -0.0591481 0.040643126 -0.025110481 0.020483697 0.066933 -0.13739687
-0.11453109 0.017849203 0.29547548 -0.016220368 0.24806385 -0.08728974 -0.16817024 0.0355079
-0.057980124 0.14310464 -0.11584868 0.109049015 -0.4848703 -0.107688956 -0.036558416 -0.46105015
0.069956586 -0.5631626 -0.2671134 0.02142784 -0.051524997 0.28505576 0.2689489 -0.086666785
-0.2783969 -0.13632189 -0.47752908 0.015049515 0.14903279 0.057037573 -0.044147614 -0.053469673
0.1201565 0.16632181 -0.07745398 0.4012458 -0.022446735 0.005692311 -0.11283864 -0.13665493
0.28056288 -0.2790451 0.07680457 0.021833658 -0.053016014 0.6473975 -0.36951157 -0.014752299
00000000: f9c8 bf3e de0d 913e 2b3c cdbd 9696 293a
00000010: 049b d4bc dc9d bdbe 5c12 933d 297b 183f
00000020: 3780 f33d 6e4e 643d de3e 91be 8e4f 6b3e
00000030: e7be cdbe d929 a23c 9df6 e9be ae9d 2bbd
00000040: 3225 bfbe 521f fb3e cfeb ed3e 396e c3bd
00000050: 374f 313e bacf 9a3e 38c6 7fbe 2a28 913d
00000060: 2d89 53bd b892 f93e 8589 04be 18ae d83e
00000070: 6b38 26bf 7753 88be 82f3 4d3d 7c93 12be
00000080: 98df 6bbe a21a a5be a96b 67be 4189 8dbe
00000090: ebca 853c 384c 883e 259b db3e d37b 6abe
000000a0: 956b babe e780 21be 8afe e6bd 60ff ecbe
000000b0: fe51 7e3d 6abd 6cbd b6ed bcbe 7ec2 0c3d
000000c0: 09ec f83e 9baa b13e e7a9 173d 16c9 873e
000000d0: 5856 b9be cbd4 02be 1220 efbd ebd8 89be
000000e0: ae09 c23d 6752 4e3d da0c 923e 0cde 123e
000000f0: 5533 143e 3475 ab3e 6dd7 08bf 128a a13e
00000100: fc36 523d 784a a83d 799d fc3d 4db8 e2bc
00000110: f835 e33b e664 d6bd 9d73 633d de95 eebc
00000120: 26f6 01bc 97c8 043e e0ab c6bc 364a aa3d
00000130: 7153 1d3d c5b8 7a3d b550 03be 9f30 54be
00000140: 736f 08be 1d44 663c 295c 96bc 42c6 9fbd
00000150: 0e6f 3abd 0665 3d3e 2a64 3cbe b591 b9bb
00000160: 8e48 d0bd 6857 cebc a1cb 12be 4549 113e
00000170: aa4b 04be 9ff7 37be 5041 db3d 60ff b6bd
00000180: 3e3c 9dbd 879d 56bd f071 c8bd 5d65 b53d
00000190: 17d1 88bd dda6 1bbd 8fc1 953c 8c93 1abd
000001a0: c512 56bd bcab fc3a fd83 4b3e 94c5 aabd
000001b0: e1e4 a1bd 3ae4 82bc 15d9 31be 7def d1bd
000001c0: dfaf 08be 771d 9a3d ec7b 06bd 853a 673e
000001d0: b8c7 0a3d b943 93bd 7fd7 8abd 6b4e 35be
000001e0: a425 f43d ba3e e3bd 45cc 303c 25f7 2a3d
000001f0: d015 9c3d 8a27 c13d 25ac 28bd bc77 93bd
00000200: f28f febd a472 6e3d 9abc b83e fe63 a03c
00000210: 976d 90bd 7d45 99bc 5e65 763e 1665 b53d
00000220: a769 87be 9cf2 b63e 3847 f03d 9ec3 6e3e
00000230: bb2a 293d e75d b93c 887a 5dbe d67d 9bbe
00000240: e9ee 1f3e f5d6 a1bd d06c 6bbd c010 c3bc
00000250: 85cc 4d3d 539e 44be 42cb 573e f3db 1abc
00000260: 9bd2 83bd d7e1 b63e fa6f 473d dcb1 0f3e
00000270: ba64 84be 7a84 ccbe fe6a fd3d 057e a0bd
00000280: 382d 40be 67a1 38be 82f0 60bd 692e 313e
00000290: 927c 813e 0410 19be e895 583e 663d a8be
000002a0: 2119 15be e87f ecbd 2a36 ba3e debe 5ebe
000002b0: c63f 203e 343c bfbd 52f6 3ebe acd5 063e
000002c0: c5a7 fa3d a094 a43b af7a a63d 84a0 243e
000002d0: eee8 563e 39ff 7bbd 6bd1 8bbe b561 7bbe
000002e0: 6c42 d33b 0926 69be 1f8b 243e 050a 1cbe
000002f0: 2333 c8bd 90a1 bd3d 4b85 2cbe 3a71 5c3d
00000300: 3ecd 9c3d 32e7 513e 6d3b 23be fd67 f0bc
00000310: 4b5f aabc eee1 30bf 90d0 a6bd bceb 76be
00000320: 76b3 bdbe d77f ddbc 4745 72bd 6879 263d
00000330: 7fb4 cdbc 6dcd a73c 2b14 893d c4b1 0cbe
00000340: 478f eabd 7e38 923c 9048 973e 94e0 84bc
00000350: 7304 7e3e f7c4 b2bd d234 2cbe bb70 113d
00000360: 917c 6dbd 068a 123e 1342 edbd 1755 df3d
00000370: ec40 f8be 078c dcbd 47be 15bd c40e ecbe
00000380: 6645 8f3d 6d2b 10bf 16c3 88be 7089 af3c
00000390: e00b 53bd d4f2 913e acb3 893e 5b7e b1bd
000003a0: 0a8a 8ebe f797 0bbe b17e f4be 3e92 763c
000003b0: 0d9c 183e 3ba0 693d 21d4 34bd 0403 5bbd
000003c0: 9c14 f63d 4450 2a3e 31a0 9ebd 1770 cd3e
000003d0: 37e2 b7bc 9186 ba3b f217 e7bd 45ef 0bbe
000003e0: f0a5 8f3e 00df 8ebe b74b 9d3d 80dc b23c
000003f0: 5227 59bd d8bb 253f 9f30 bdbe a0b3 71bc

conv2.nn.4.bias f4 [64]
-0.52901876 -0.24468303 -0.5726862 -0.4075498 -0.9013262 -0.34307137 -0.3691356 -0.32241565
-0.3666819 -0.5633658 -0.51156294 -0.26332915 -0.40533936 -0.5261588 -0.61111104 -0.87216175
-0.40595332 1.1552689 -0.33481035 -0.4208767 -0.3850541 -0.35261363 -0.61492133 -0.4639779
-0.24928963 -1.2649755 -0.4297036 -0.30616364 -1.3498089 -0.40247804 -0.5103849 -0.3255092
-0.42482117 -0.4861989 -0.71110785 -0.6090479 -0.0971285 -0.3501219 -0.42847452 -0.8243333
-0.57254976 -0.78286296 -0.35331947 -0.8737221 1.1865807 -0.6058986 -0.2565283 -0.4511305
-0.6066487 0.79372025 -0.32473588 -0.4593968 -1.5006297 -0.42069596 -0.5668661 -0.5606835
-0.36511388 -0.71351725 -0.4864154 -0.4917518 -0.3114651 -1.41864 -0.7942198 -0.40360296
00000000: c66d 07bf 308e 7abe 909b 12bf 5eaa d0be
00000010: 50bd 66bf 0da7 afbe 57ff bcbe aa13 a5be
00000020: bbbd bbbe be38 10bf caf5 02bf 14d3 86be
00000030: a488 cfbe 58b2 06bf c671 1cbf fe45 5fbf
00000040: 1dd9 cfbe dadf 933f 436c abbe 277d d7be
00000050: d025 c5be c689 b4be 7c6b 1dbf 838e edbe
00000060: c845 7fbe b8ea a1bf 1c02 dcbe 7bc1 9cbe
00000070: 8ac6 acbf 9a11 cebe 96a8 02bf 24a9 a6be
00000080: 2982 d9be 10ef f8be 2a0b 36bf 90ea 1bbf
00000090: 4feb c6bd 2d43 b3be 0361 dbbe 8207 53bf
000000a0: 9f92 12bf b569 48bf 4ae6 b4be 40ac 5fbf
000000b0: e0e1 973f 2c1c 1bbf ad57 83be 94fa e6be
000000c0: 544d 1bbf 4031 4b3f c843 a6be 0f36 ebbe
000000d0: a214 c0bf 7665 d7be 231e 11bf f488 0fbf
000000e0: 35f0 babe 11a9 36bf 700b f9be e4c6 fbbe
000000f0: 5b78 9fbe ff95 b5bf fd51 4bbf 0ca5 cebe

attention.query_linear.weight f4 [64, 64]
-0.20671576 -0.32115108 -0.665979 -1.06302 -0.06203617 -0.015888907 -0.013757686 -0.6763315
0.24417642 -0.23873456 -0.48138288 0.10527349 -0.17227386 -0.3471839 0.147295 -0.013757219
-0.2606413 -0.128063 -0.16712277 -0.8365015 -0.16918185 -0.74833304 0.20092088 -0.08569634
0.07978732 0.6654905 0.2836135 -1.0328604 -0.6560473 -0.84907496 0.18104479 -0.94127744
0.1014445 -0.8927728 -0.011867649 0.032983262 -0.17630753 0.14350873 -0.008028526 -0.8417158
0.09745805 -0.4866406 -0.081326164 -0.10606942 0.14529333 -0.72779953 -0.0638759 -0.50538343
-0.8775965 -1.3948392 0.08349482 -1.0285441 -0.90731496 0.071965136 -0.19011332 -0.62062174
-0.56638163 0.13425171 -0.5083776 -0.33463904 0.102543496 -0.4039686 -0.18296173 -0.7641465
-0.055333175 0.03271457 -0.36222783 0.08940875 -0.1570588 0.17770575 -0.06543432 -0.27864304
-0.17355779 0.34995675 -0.22594236 -0.19229282 0.12263454 0.2468385 -0.16272461 0.064056285
0.28298417 0.018608863 0.064700276 -0.8852085 0.15345913 -0.36924595 -0.24156207 0.21325809
-0.18954422 -0.797537 -0.229434 -0.26386937 0.18041214 0.20649104 -0.21014324 -0.23099124
-0.12224356 0.09424316 0.07452074 0.11476459 0.2782074 -0.008631537 -0.47668144 -0.36677393
-0.35828826 0.5293949 -0.020478519 -0.106646486 -0.00556742 -0.35300577 0.43563733 -0.4978487
-0.19087104 1.4738289 0.08553336 -0.49495187 -0.010960193 -0.036981046 0.34637713 -0.06602601
-0.8089317 0.33893922 0.48105323 0.09183277 0.030184865 0.6366709 -0.10620752 -0.19150777
-0.08151306 -0.28192413 -0.05705721 -1.1574147 -0.123724006 -0.029179987 0.13906376 -0.2923807
0.3608782 -0.029064693 -0.3310011 0.07345957 -0.19604747 0.0020110984 0.4524551 -0.8130921
-0.0986973 -0.1686057 -0.038273707 -0.25734526 -0.08681463 -0.44916812 -0.14749412 -0.3224217
-0.16906746 0.5009528 -0.18496895 -0.76275015 -0.19334686 -0.46072152 0.015937438 -0.44190112
0.06977304 -0.30759802 -0.22144772 0.037943415 0.34151888 0.1122753 -0.06727883 0.7129329
0.032101102 0.33790743 -0.121307895 -0.5175196 0.087534286 -0.42242524 -0.64261323 -0.21635708
-0.8111184 0.44161618 0.22813803 0.0015126851 -0.3422192 0.0021922614 0.19257684 -0.2598793
0.08004473 0.59218884 0.20218319 -0.00886426 -0.015986245 0.1644168 -0.15515704 -0.2771902
0.04902515 -0.09444206 0.6215206 0.72394145 -0.19242321 -0.45436472 0.26671782 -0.4697357
0.31628817 0.36551678 0.6764047 -1.6388419 -0.20053989 0.19392851 0.45438707 0.38861182
-0.14418758 -0.07278329 -0.19750081 -0.5919241 0.122107826 -0.062738836 -0.21070217 0.15012972
-0.22731984 1.0903736 -0.19838767 0.24409129 -0.18885559 0.6435206 -0.3261899 0.064242445
-0.007894335 0.33058223 -0.3025104 -0.13725042 0.074808724 0.12507099 0.007902574 0.81110036
-0.18210995 -0.39551437 -0.16086356 -0.07314285 0.03649745 -0.20716141 -0.71495545 -0.29094756
-0.14671977 1.1014019 0.24988614 0.02907914 -0.44632465 0.035577286 -0.15553544 0.3686112
-0.18324895 0.11592928 0.21542995 -0.07499558 -0.12149439 -0.541689 -0.20386046 0.3974038
00000000: 4cad 53be ea6d a4be 9a7d 2abf 0a11 88bf
00000010: a419 7ebd 7429 82bc eb67 61bc 1024 2dbf
00000020: 6209 7a3e d576 74be d177 f6be a199 d73d
00000030: 8f68 30be 17c2 b1be 80d4 163e f565 61bc
00000040: c772 85be f222 03be 3b22 2bbe f624 56bf
00000050: 023e 2dbe c192 3fbf 34be 4d3e 9081 afbd
00000060: 8967 a33d 965d 2a3f ca35 913e c534 84bf
00000070: b7f2 27bf fa5c 59bf ce63 393e 8ff7 70bf
00000080: 22c2 cf3d c28c 64bf 8770 42bc 7519 073d
00000090: f689 34be f4f3 123e 148a 03bc b07a 57bf
000000a0: 1698 c73d f528 f9be 558e a6bd ed3a d9bd
000000b0: c6c7 143e 1251 3abf 5ed1 82bd cf60 01bf
000000c0: 2aaa 60bf 178a b2bf 55ff aa3d 55a7 83bf
000000d0: cb45 68bf 7562 933d 11ad 42be 11e1 1ebf
000000e0: 63fe 10bf 4879 093e 0925 02bf cf55 abbe
000000f0: 5302 d23d f9d4 cebe 525a 3bbe 1b9f 43bf
00000100: 0aa5 62bd b7ff 053d ed75 b9be ef1b b73d
00000110: 06d4 20be 7ff8 353e 6e02 86bd 4daa 8ebe
00000120: 22b9 31be 882d b33e 6f5d 67be 69e8 44be
00000130: d127 fb3d 3bc3 7c3e 48a1 26be f12f 833d
00000140: 4de3 903e 9d71 983c 9481 843d 069d 62bf
00000150: 6424 1d3e ce0d bdbe 0c5c 77be 5460 5a3e
00000160: e117 42be 632b 4cbf bff0 6abe e319 87be
00000170: f6bd 383e 6372 533e ca2f 57be f888 6cbe
00000180: d55a fabd 8f02 c13d 549e 983d b309 eb3d
00000190: 3371 8e3e 4a6b 0dbc 970f f4be cbc9 bbbe
000001a0: 8f71 b7be 6d86 073f 91c2 a7bc 7969 dabd
000001b0: e76e b6bb 2cbd b4be db0b df3e 06e6 febe
000001c0: b373 43be 6da6 bc3f 1d2c af3d 556a fdbe
000001d0: 6292 33bc 7079 17bd 5858 b13e a538 87bd
000001e0: 2616 4fbf 7189 ad3e 9c4c f63e d212 bc3d
000001f0: 4046 f73c ddfc 223f 5483 d9bd 9d1a 44be
00000200: 52f0 a6bd 5c58 90be d2b4 69bd 2a26 94bf
00000210: 0363 fdbd de0a efbc bb66 0e3e ecb2 95be
00000220: 07c5 b83e 1419 eebc fa78 a9be f971 963d
00000230: abc0 48be a2cc 033b 32a8 e73e ce26 50bf
00000240: cf21 cabd f9a6 2cbe e4c4 1cbd c2c2 83be
00000250: decb b1bd 5df9 e5be b308 17be 7514 a5be
00000260: 0520 2dbe 713e 003f 8068 3dbe 9843 43bf
00000270: b8fc 45be b1e3 ebbe 3b8f 823c dd40 e2be
00000280: 2be5 8e3d 7d7d 9dbe 31c3 62be 8e6a 1b3d
00000290: 90db ae3e 98f0 e53d 7cc9 89bd c582 363f
000002a0: 727c 033d 3402 ad3e 4670 f8bd 2a7c 04bf
000002b0: 2d45 b33d 1f48 d8be 4d82 24bf b68c 5dbe
000002c0: 75a5 4fbf 841b e23e 049d 693e 4a45 c63a
000002d0: 5b37 afbe 0bac 0f3b dd32 453e e60e 85be
000002e0: 7eee a33d b099 173f 1c09 4f3e 673b 11bc
000002f0: 96f5 82bc e15c 283e 7de1 1ebe e0eb 8dbe
00000300: 98ce 483d d76a c1bd f91b 1f3f 3a54 393f
00000310: 970a 45be 7ea2 e8be 3d8f 883e 3381 f0be
00000320: 86f0 a13e 0425 bb3e dc28 2d3f 92c5 d1bf
00000330: 545a 4dbe 3295 463e 6ca5 e83e 21f8 c63e
00000340: e9a5 13be 680f 95bd a73d 4abe 5688 17bf
00000350: ab13 fa3d 387d 80bd 4fc2 57be 9bbb 193e
00000360: 88c6 68be 5d91 8b3f 2326 4bbe 11f3 793e
00000370: 5c63 41be c4bd 243f 5d02 a7be 8b91 833d
00000380: 3e57 01bc 1342 a93e a5e2 9abe 608b 0cbe
00000390: 5135 993d 9c12 003e cc79 013c 46a4 4f3f
000003a0: 087b 3abe dc80 cabe 6bb9 24be ebcb 95bd
000003b0: 5a7e 153d 1f22 54be 5207 37bf 14f7 94be
000003c0: b53d 16be bdfa 8c3f 27e2 7f3e 6037 ee3c
000003d0: aa84 e4be 7db9 113d af44 1fbe 9bba bc3e
000003e0: 9da5 3bbe 556c ed3d ab99 5c3e 4897 99bd
000003f0: 0dd2 f8bd 21ac 0abf ccc0 50be 8378 cb3e
