models/0_2023_2023/Temporal_GIN_Attention/80.pth (torch, 191218 bytes, 35 tensors)

conv1.nn.0.weight f4 [64, 12]
0.0008106989 -0.0017358446 -0.0019566785 -0.00041195969 -0.0027765813 -0.0041624866 -0.00038032516 -0.0026924086
-0.0007630791 -0.0011035592 -0.0006610697 -0.00022691526 -0.0013745308 -1.340634e-05 -0.0008170934 -0.0014203085
4.1620617e-05 0.0015021778 0.00041784154 0.0013995258 -1.6593622e-05 -0.00059226033 0.0013675706 -0.000903587
-0.0023989254 -0.0004376079 3.5494835e-05 -0.0010143048 -0.00014688194 -0.0006020047 -0.0010148988 -6.8294554e-05
-0.00028791494 -0.0013806407 0.00041586382 -0.00044633923 0.12559684 0.60525817 0.59641993 -0.18440227
-0.89881134 -0.32146755 -1.066953 0.07029578 1.2990817 1.2248263 -0.39943597 1.2854714
-0.009449545 -0.0029645797 -0.0012593247 -0.0013149302 -0.016505795 -0.018017534 -0.020075064 -0.009594126
0.019746136 0.009164655 -0.00995118 0.021668954 -0.001513366 -0.003314948 -0.00021538042 -0.0006099933
-0.001469931 -0.00091671385 -0.0025547894 0.0012129424 0.0026696592 0.0026334238 0.00078066863 0.0016696071
-0.011865872 -0.0037297562 -0.0026041246 -0.0012446146 -0.063809656 -0.0670839 -0.091535576 -0.024052028
0.08213671 0.05780602 -0.020557418 0.0690197 0.0002364051 -0.00064889615 0.0006132955 -0.00051207625
0.0018836854 -0.00052416226 0.00032911412 -0.0017068717 -0.00018903795 -0.001654294 -0.0014558575 -0.0010859778
-0.0015857021 -0.0005248583 -0.00050088676 -0.00018561292 0.0002909905 0.00047932199 -3.7560454e-05 0.0022488807
0.0007755533 -0.00062380836 0.00032987783 0.0011157248 -0.00026224702 -0.0013028758 0.0005603533 -0.00043254608
-0.0008168062 0.0010717553 -5.7593894e-05 -0.00096994615 -0.0010153321 0.0015980022 0.001103694 -0.0012167252
-0.001036056 -0.000992293 -0.00015057433 -0.0014532701 0.0014366731 -0.0008007154 0.0021741644 4.690549e-05
-0.0015632156 -0.0016289745 0.00091715506 0.0015491443 -0.00051230635 -0.0015163772 0.000496467 -0.0011896425
-0.0011086491 0.00046253132 -0.0001611354 -0.000115418814 0.0015219665 -0.00029762663 0.0010328771 -0.00052809203
-0.005540588 -0.0013246561 -0.00040768186 -0.001024634 -0.014647815 -0.008074756 -0.01514023 -0.00045830797
0.014466608 0.0036860558 -0.003506679 0.009099078 -0.00828395 -0.003813688 -0.004346421 -0.001588152
0.004022236 -0.0068973554 0.0010626805 0.0047372594 0.009739136 -0.00043953536 -0.00069536094 0.00067262765
-0.0011568941 -0.0022806837 -0.0019656604 -0.00049087853 -0.004419013 -0.0040423465 -0.0031568983 0.0004471824
0.0013954291 -0.0008273732 -0.00058409694 0.0023232026 -0.0018346367 -0.00037661695 -0.0016746736 -0.0013207856
-0.00041244 -0.0032186597 0.00012509518 0.0030300778 0.0007976848 0.00080177974 0.0013212434 0.00016676667
0.014319609 -0.023233986 -0.02223156 -0.010963666 -0.024531553 0.04464462 -0.06949762 -0.016464943
-0.010953088 -0.0124769565 -0.009079613 -0.011029174 -0.015172374 -0.009330226 -0.011380867 -0.0010548487
-0.025230318 -0.018460445 -0.0085932715 0.0092952605 0.035315584 0.0063377153 -0.00095330714 0.010488136
-0.4680349 0.16405879 0.16379102 -0.1218192 0.49618638 -0.609982 0.77748173 0.46464023
0.48442015 -0.061866835 -0.009163085 0.035252303 -0.0052852826 -0.00010356632 -0.00014802022 -0.0013945205
-0.0018545085 -0.0031557148 0.0024854215 0.0016075623 -0.0018267732 -0.0004301095 0.00031125397 -0.00080260704
-0.000678686 -0.0035291056 -0.0024776126 -0.00045010477 -0.0036737104 -0.0012390921 -0.0015107773 -0.0012506371
0.0010284411 -0.00035282073 0.0002747181 0.0034191192 0.0014676912 -0.0009495053 -0.00096502155 -0.0008468929
00000000: 1585 543a 4885 e3ba 9e3b 00bb 4bfc d7b9
00000010: 4ef7 35bb 7865 88bb 6166 c7b9 1f73 30bb
00000020: 5f09 48ba 4da5 90ba a34b 2dba 1af0 6db9
00000030: 9a29 b4ba cbeb 60b7 3632 56ba a529 baba
00000040: cc91 2e38 b9e4 c43a be11 db39 4b70 b73a
00000050: 8832 8bb7 eb41 1bba 0e40 b33a b2de 6cba
00000060: 4a37 1dbb bd6e e5b9 4ae0 1438 6cf2 84ba
00000070: 5204 1ab9 dacf 1dba 5a06 85ba 5c39 8fb8
00000080: 4af3 96b9 9df6 b4ba 4c08 da39 a302 eab9
00000090: 759c 003e 33f2 1a3f faae 183f f3d3 3cbe
000000a0: 8018 66bf 6597 a4be ea91 88bf 3cf7 8f3d
000000b0: 4f48 a63f 1cc7 9c3f df82 ccbe 548a a43f
000000c0: 44d2 1abc 6549 42bb ed0f a5ba bc59 acba
000000d0: 2937 87bc 8299 93bc 7674 a4bc ae30 1dbc
000000e0: a6c2 a13c 5927 163c 460a 23bc 1783 b13c
000000f0: 235c c6ba 993f 59bb bed7 61b9 f5e7 1fba
00000100: b3aa c0ba a04f 70ba 416e 27bb 98fb 9e3a
00000110: 73f5 2e3b 8595 2c3b c9a5 4c3a b8d6 da3a
00000120: 1369 42bc ed6e 74bb f6a9 2abb 5622 a3ba
00000130: a3ae 82bd 4963 89bd 0177 bbbd c208 c5bc
00000140: 4b37 a83d 01c6 6c3d 0868 a8bc 335a 8d3d
00000150: 83e3 7739 af1a 2aba 90c5 203a db3c 06ba
00000160: fee5 f63a ef67 09ba f38c ac39 1cb9 dfba
00000170: 7d38 46b9 e5d4 d8ba 79d2 beba 5e57 8eba
00000180: 55d7 cfba a596 09ba f14d 03ba 17a1 42b9
00000190: 1590 9839 824d fb39 3b8a 1db8 f561 133b
000001a0: 804e 4b3a 1287 23ba 74f3 ac39 833d 923a
000001b0: 337e 89b9 42c5 aaba ace4 123a 5ac7 e2b9
000001c0: f01e 56ba 247a 8c3a f990 71b8 fc43 7eba
000001d0: e414 85ba 0e74 d13a d3a9 903a 867a 9fba
000001e0: 45cc 87ba d40f 82ba 7de3 1db9 a77b beba
000001f0: c04e bc3a 1ae7 51ba 6d7c 0e3b 63bc 4438
00000200: d0e4 ccba 5083 d5ba 3c6d 703a a80c cb3a
00000210: 4c4c 06ba 2dc1 c6ba 5625 023a c7ed 9bba
00000220: 1750 91ba e77f f239 74f6 28b9 010d f2b8
00000230: b97c c73a c50a 9cb9 9b61 873a a86f 0aba
00000240: d28d b5bb 15a0 adba 22be d5b9 034d 86ba
00000250: 64fd 6fbc fb4b 04bc ba0e 78bc 0e49 f0b9
00000260: 5a05 6d3c c191 713b 50d0 65bb 4d14 153c
00000270: 68b9 07bc 11ef 79bb 6c6c 8ebb 8a29 d0ba
00000280: f6cc 833b 3603 e2bb a449 8b3a 033b 9b3b
00000290: e690 1f3c 7071 e6b9 e248 36ba 4753 303a
000002a0: eda2 97ba 8677 15bb 4fd2 00bb 4dae 00ba
000002b0: 5ecd 90bb a975 84bb f7e3 4ebb ce73 ea39
000002c0: d5e6 b63a 13e4 58ba 151e 19ba df40 183b
000002d0: 3178 f0ba ac74 c5b9 b980 dbba 361e adba
000002e0: c23c d8b9 26f0 52bb fb2b 0339 4594 463b
000002f0: b91b 513a 872e 523a 922d ad3a 16de 2e39
00000300: cb9c 6a3c 3355 bebc f61e b6bc f3a0 33bc
00000310: 65f6 c8bc 47dd 363d c554 8ebd 7de1 86bc
00000320: 9574 33bc 266c 4cbc a8c2 14bc b5b3 34bc
00000330: 8d95 78bc cedd 18bc d176 3abc d942 8aba
00000340: d0af cebc 5c3a 97bc cbca 0cbc 264b 183c
00000350: 13a7 103d 9cac cf3b 5ce7 79ba 6ed6 2b3c
00000360: 45a2 efbe 07ff 273e d5b8 273e 587c f9bd
00000370: 240c fe3e c827 1cbf 0b09 473f 53e5 ed3e
00000380: eb05 f83e 1468 7dbd c420 16bc b864 103d
00000390: 2a30 adbb bf31 d9b8 e035 1bb9 58c8 b6ba
000003a0: fb12 f3ba 1cd0 4ebb 74e2 223b d7b4 d23a
000003b0: 5670 efba 5280 e1b9 cd2f a339 0c66 52ba
000003c0: d9e9 31ba 9148 67bb 715f 22bb 0afc ebb9
000003d0: a2c2 70bb 0869 a2ba 4605 c6ba 6bec a3ba
000003e0: c2cc 863a ccfa b8b9 0a08 9039 4d13 603b
000003f0: 8b5f c03a 39e8 78ba 80f9 7cba 0502 5eba

conv1.nn.0.bias f4 [64]
-0.001485319 0.0009229905 -0.001778119 -0.052648865 0.0019635311 0.00041137563 -0.0035144307 0.00076139474
-0.0020601708 0.000110074136 0.0022544025 0.0008685743 -0.0050958022 0.001675795 -0.0017223143 -0.0015173823
-0.058682594 -0.013372536 0.58664346 -0.00016498684 0.00030021576 -0.0011483958 -0.0003437728 -0.00078048394
0.028696284 -0.0046018283 -0.01823873 -0.0038040373 -0.0013048592 -0.0011133845 -0.031023651 -0.02345677
-0.009514476 -0.000110230096 0.00068451115 -0.011414064 -0.0007975542 -0.00019817518 0.0016063732 0.002236621
-0.0013558944 -0.0015625737 -5.474696e-05 -0.0015615423 -0.0056599253 -0.0009512228 5.6051093e-05 -0.0007108743
-0.0016901651 0.00036925342 -0.002501593 0.00092148455 -0.0013852178 -0.0004304444 -0.00025319133 0.00082546956
-0.0005271599 -0.00210035 -0.001693082 -0.00018965217 -0.00013976566 0.0053920476 -0.0024240322 -0.0020684442
00000000: 09af c2ba d8f4 713a c60f e9ba 56a6 57bd
00000010: 96ae 003b e7ad d739 5d52 66bb 5698 473a
00000020: ee03 07bb 9ad7 e638 99be 133b 09b1 633a
00000030: b0fa a6bb 59a6 db3a 47bf e1ba e7e2 c6ba
00000040: 295d 70bd 7b18 5bbc 442e 163f 5100 2db9
00000050: 4766 9d39 c585 96ba 673c b4b9 6499 4cba
00000060: 7814 eb3c efca 96bb 6469 95bc 284d 79bb
00000070: cf07 abba fcee 91ba 5025 febc 6a28 c0bc
00000080: 9be2 1bbc 552b e7b8 c470 333a 0e02 3bbc
00000090: f512 51ba 3fcd 4fb9 f18c d23a 4694 123b
000000a0: 44b8 b1ba 46cf ccba 1aa0 65b8 aaac ccba
000000b0: e576 b9bb 7b5b 79ba 6718 6b38 f759 3aba
000000c0: 8888 ddba 5b98 c139 c4f1 23bb c88f 713a
000000d0: 3290 b5ba 45ad e1b9 c4be 84b9 5364 583a
000000e0: 1a31 0aba 07a6 09bb 68ea ddba 5edd 46b9
000000f0: 0f8e 12b9 c6af b03b 83dc 1ebb bc8e 07bb

conv1.nn.2.weight f4 [64]
0.005321077 0.0058779744 0.0051187677 0.54754937 0.0059657507 0.005168618 0.011064495 0.005640168
0.0055528516 0.0058779744 0.0047081625 0.0058779744 0.005685205 0.0030472197 0.005165875 0.0025182883
-0.031750374 0.007797645 -0.1621422 0.0017350999 0.005462218 0.0058779744 0.006395208 0.005958774
-0.040102527 0.0057982355 -0.055839542 0.0055474727 0.006046763 0.0049092644 -0.022559827 0.0034699305
0.04534169 0.004989635 0.0061812783 0.0280594 0.0051239603 0.0058779744 0.0058779744 -0.008519724
0.0051884446 0.0054005035 0.004867939 0.0050949682 0.008798547 0.005688579 0.00425048 0.0060655302
0.0051699085 0.005096989 0.0023578103 0.0049543204 0.0043100915 0.0048531564 0.0058779744 0.006988606
0.0058779744 0.0060874615 0.005517193 0.005725929 0.004667353 -0.00879681 0.0054388545 0.004679336
00000000: 6e5c ae3b 069c c03b 56bb a73b 322c 0c3f
00000010: 587c c33b 835d a93b db47 353c 29d1 b83b
00000020: b2f4 b53b 069c c03b ee46 9a3b 069c c03b
00000030: f54a ba3b ddb3 473b 8046 a93b de09 253b
00000040: ae0c 02bd 6383 ff3b 9b08 26be 4b6c e33a
00000050: 68fc b23b 069c c03b e58e d13b d241 c33b
00000060: 8c42 24bd 20ff bd3b 01b8 64bd 93c7 b53b
00000070: ed23 c63b e5dd a03b 63cf b8bc c667 633b
00000080: 35b8 393d 1880 a33b 528c ca3b d4dc e53c
00000090: e5e6 a73b 069c c03b 069c c03b 5096 0bbc
000000a0: d403 aa3b b5f6 b03b 3b83 9f3b b1f3 a63b
000000b0: c827 103c 4267 ba3b 9c47 8b3b 5bc1 c63b
000000c0: 5668 a93b a504 a73b 7e85 1a3b da57 a23b
000000d0: ab3b 8d3b 3a07 9f3b 069c c03b ad00 e53b
000000e0: 069c c03b 5479 c73b 92c9 b43b 93a0 bb3b
000000f0: 98f0 983b 7f20 10bc 6b38 b23b 1e55 993b

conv1.nn.2.bias f4 [64]
-0.1627232 0.01639595 -0.039602045 -0.67163694 1.0701377 -0.49805495 -0.82578236 -1.122274
0.28894687 -0.015697641 -0.31122807 0.70830315 -0.007709147 0.033831384 0.056082614 0.049036525
0.2028737 0.04361325 0.073691 1.1355975 0.5076272 -0.733674 0.061263744 -0.012433678
0.83973956 -0.81876194 -0.7139052 -0.14411074 0.12604323 1.3035305 -0.15185152 0.26108575
0.6942472 0.4836228 0.70205486 0.23009479 0.15533818 0.42006868 1.4076931 -1.0259889
-1.0493532 -1.2079916 0.4894165 -0.025694953 -0.42403862 0.10408192 -0.58084226 -0.0514635
0.058384176 0.27550423 -0.007917735 -0.7881312 -0.4165496 1.3577566 0.20269261 -0.45782223
-0.090757385 -0.29549593 -0.47110057 0.19852164 1.0425211 -0.51784694 0.0125257615 0.40403172
00000000: e9a0 26be cd50 863c c135 22bd 66f0 2bbf
00000010: 46fa 883f 0f01 ffbe 7966 53bf ada6 8fbf
00000020: d8f0 933e 5798 80bc 4959 9fbe 5b53 353f
00000030: 039d fcbb c792 0a3d e2b6 653d 86da 483d
00000040: 20be 4f3e cfa3 323d 4feb 963d 425b 913f
00000050: dbf3 013f 0fd2 3bbf b1ef 7a3d a0b6 4bbc
00000060: 2cf9 563f 629a 51bf 7ec2 36bf c491 13be
00000070: 7a11 013e 16da a63f f77e 1bbe 08ad 853e
00000080: 2fba 313f 689d f73e deb9 333f f89d 6b3e
00000090: f910 1f3e 3e13 d73e 4a2f b43f 9b53 83bf
000000a0: 3551 86bf 789f 9abf cd94 fa3e 397e d2bc
000000b0: 971b d9be e728 d53d 14b2 14bf 64cb 52bd
000000c0: 3f24 6f3d e40e 8d3e 63b9 01bc f7c2 49bf
000000d0: fd45 d5be f8ca ad3f a78e 4f3e ad67 eabe
000000e0: 02df b9bd 3e4b 97be 1834 f1be 4249 4b3e
000000f0: 5571 853f 9e91 04bf da38 4d3c 3fdd ce3e

conv1.nn.2.running_mean f4 [64]
6e-45 0.0 6e-45 0.32719472 6e-45 6e-45 6e-45 6e-45
6e-45 0.0 6e-45 0.0 6e-45 6e-45 6e-45 6e-45
6e-45 6e-45 0.07472906 6e-45 6e-45 0.0 6e-45 6e-45
6e-45 6e-45 6e-45 6e-45 6e-45 6e-45 6e-45 6e-45
6e-45 6e-45 6e-45 6e-45 6e-45 0.0 0.0 6e-45
6e-45 6e-45 6e-45 6e-45 6e-45 6e-45 6e-45 6e-45
6e-45 6e-45 6e-45 6e-45 6e-45 6e-45 0.0 6e-45
0.0 6e-45 6e-45 6e-45 6e-45 6e-45 6e-45 6e-45
00000000: 0400 0000 0000 0000 0400 0000 1186 a73e
00000010: 0400 0000 0400 0000 0400 0000 0400 0000
00000020: 0400 0000 0000 0000 0400 0000 0000 0000
00000030: 0400 0000 0400 0000 0400 0000 0400 0000
00000040: 0400 0000 0400 0000 8d0b 993d 0400 0000
00000050: 0400 0000 0000 0000 0400 0000 0400 0000
00000060: 0400 0000 0400 0000 0400 0000 0400 0000
00000070: 0400 0000 0400 0000 0400 0000 0400 0000
00000080: 0400 0000 0400 0000 0400 0000 0400 0000
00000090: 0400 0000 0000 0000 0000 0000 0400 0000
000000a0: 0400 0000 0400 0000 0400 0000 0400 0000
000000b0: 0400 0000 0400 0000 0400 0000 0400 0000
000000c0: 0400 0000 0400 0000 0400 0000 0400 0000
000000d0: 0400 0000 0400 0000 0000 0000 0400 0000
000000e0: 0000 0000 0400 0000 0400 0000 0400 0000
000000f0: 0400 0000 0400 0000 0400 0000 0400 0000

conv1.nn.2.running_var f4 [64]
6e-45 6e-45 6e-45 211.65982 6e-45 6e-45 6e-45 6e-45
6e-45 6e-45 6e-45 6e-45 6e-45 6e-45 6e-45 6e-45
6e-45 6e-45 14.244143 6e-45 6e-45 6e-45 6e-45 6e-45
6e-45 6e-45 6e-45 6e-45 6e-45 6e-45 6e-45 6e-45
6e-45 6e-45 6e-45 6e-45 6e-45 6e-45 6e-45 6e-45
6e-45 6e-45 6e-45 6e-45 6e-45 6e-45 6e-45 6e-45
6e-45 6e-45 6e-45 6e-45 6e-45 6e-45 6e-45 6e-45
6e-45 6e-45 6e-45 6e-45 6e-45 6e-45 6e-45 6e-45
00000000: 0400 0000 0400 0000 0400 0000 eaa8 5343
00000010: 0400 0000 0400 0000 0400 0000 0400 0000
00000020: 0400 0000 0400 0000 0400 0000 0400 0000
00000030: 0400 0000 0400 0000 0400 0000 0400 0000
00000040: 0400 0000 0400 0000 02e8 6341 0400 0000
00000050: 0400 0000 0400 0000 0400 0000 0400 0000
00000060: 0400 0000 0400 0000 0400 0000 0400 0000
00000070: 0400 0000 0400 0000 0400 0000 0400 0000
00000080: 0400 0000 0400 0000 0400 0000 0400 0000
00000090: 0400 0000 0400 0000 0400 0000 0400 0000
000000a0: 0400 0000 0400 0000 0400 0000 0400 0000
000000b0: 0400 0000 0400 0000 0400 0000 0400 0000
000000c0: 0400 0000 0400 0000 0400 0000 0400 0000
000000d0: 0400 0000 0400 0000 0400 0000 0400 0000
000000e0: 0400 0000 0400 0000 0400 0000 0400 0000
000000f0: 0400 0000 0400 0000 0400 0000 0400 0000

conv1.nn.4.weight f4 [64, 64]
0.025707744 0.1436743 -0.01692956 -0.059940618 -0.14416221 0.08720928 0.24093536 0.41480118
0.025992364 0.057056528 0.064843565 -0.3042928 -0.112314805 0.102706194 -0.06683137 0.031049538
0.0047472245 0.2465183 -0.018117793 -0.23329511 0.030421393 0.14404593 0.03801617 0.040549736
-0.09550002 -0.12612338 -0.08096832 -0.07377289 -0.14116529 0.040958855 0.121368475 -0.15351772
-0.080524564 0.0020210154 -0.013565497 -0.27470338 0.033358857 -0.029541887 -0.19307552 -0.045183696
0.0018669093 0.099132255 0.02185811 0.14703843 0.026706245 0.06613674 0.10485175 0.17653202
-0.065992214 -0.14952004 -0.08785061 0.17979786 0.015673254 -0.19482183 0.03930959 0.1772308
0.103991315 0.19839019 0.047863077 -0.05635549 -0.13755262 -0.04945752 -0.17575277 -0.0075844075
-0.026608456 0.1245754 -0.39225957 0.032411203 -0.18453845 0.25426996 -0.082533605 0.30313483
-0.33001748 -0.23444709 0.21582465 -0.08317437 -0.38185737 0.40998623 -0.07486753 0.40677613
-0.16401383 0.22728688 0.08218322 -0.24490862 -0.26761642 0.084748454 -0.005352235 -0.064298786
-0.51269174 0.15043654 0.17308183 -0.07540255 -0.36645517 0.13416417 0.02718917 -0.12752075
-0.17094976 -0.107374944 -0.4949588 -0.41157603 0.32624838 0.020818802 -0.45401475 0.25528568
0.08422806 0.33773807 -0.05171425 0.26030502 0.42341018 0.30740476 0.24283423 0.26851454
0.25572425 0.022243759 -0.07112898 0.39029604 0.15178369 -0.3863361 -0.20485634 0.27846545
0.40224618 0.11807021 0.18957627 -0.015625525 -0.22246099 0.20869869 -0.051826708 0.0051126652
-0.00923225 0.21518967 -0.015133811 -0.7325378 -0.4308535 0.62395924 -0.9028418 0.7275491
0.78957295 0.2755928 0.42492908 0.85385215 -0.024318073 -0.38683912 -0.29143575 -0.15365319
0.280123 -0.15455057 0.68763685 0.15628317 0.6456307 -0.4672222 -0.19372198 0.56521
0.7905736 -0.63102305 0.0789441 -0.28363207 0.5015674 -0.28909275 0.39137915 -0.09142204
-0.92563784 0.4158154 0.33282402 -0.26706508 0.04109024 0.2763188 1.5817711 1.2307333
1.1719761 -0.31388277 -0.37379634 -0.22848865 -0.043017056 -0.19539183 -0.8095876 -0.28805137
0.36110312 0.040605456 0.21883065 -0.63928604 0.056023426 0.12830341 0.29860908 -0.9759167
-0.08143942 0.6712191 -0.33314398 0.8153469 -0.6865921 -0.5786906 0.008068942 -0.04176138
-0.0026495238 0.11110853 -0.03802412 -0.087510385 -0.29367536 0.91555667 -0.70550114 0.6567534
-0.07805369 -0.10653126 0.5582442 0.18390122 0.09852572 -0.4668225 -0.16325223 0.024752095
0.15617122 -0.20252559 -0.10273491 0.4055372 0.31685573 -0.56480885 0.45865023 0.13631797
0.46037692 0.0667287 0.08212684 -0.20726469 0.2966367 -0.52221173 0.033840176 0.23112662
-0.9931551 -0.112245105 0.16855894 -0.37681803 -0.19399 0.12620105 0.59173733 0.921423
1.328916 0.5141951 -0.20012577 -0.61527485 0.0054779816 -0.36146286 -0.7394952 -0.3823057
0.075449005 0.12388033 -0.36202675 -0.5697115 0.49305052 0.003464195 -0.021636507 -0.2896783
0.08896159 0.23442392 0.28522375 0.25007397 -0.4617708 -0.36718303 0.13657835 -1.044598
00000000: 0c99 d23c 5b1f 133e dcaf 8abc 4b84 75bd
00000010: 429f 13be c79a b23d c2b7 763e d260 d43e
00000020: f0ed d43c 1bb4 693d b4cc 843d 44cc 9bbe
00000030: 4e05 e6bd a057 d23d e3de 88bd 9a5b fe3c
00000040: 9b8e 9b3b 4b6f 7c3e c46b 94bc eae4 6ebe
00000050: 4936 f93c c780 133e d8b6 1b3d 7b17 263d
00000060: 8495 c3bd 7d26 01be b8d2 a5bd 3e16 97bd
00000070: a28d 10be 79c4 273d 0990 f83d c033 1dbe
00000080: 10ea a4bd 0373 043b d141 5ebc eca5 8cbe
00000090: 4ca3 083d d401 f2bc 97b5 45be 8a12 39bd
000000a0: 15b3 f43a da05 cb3d c70f b33c 3e91 163e
000000b0: 0ec7 da3c b372 873d 84bc d63d cfc4 343e
000000c0: ed26 87bd c81b 19be 05eb b3bd ee1c 383e
000000d0: 3265 803c 607f 47be 1803 213d fe7b 353e
000000e0: 66f9 d43d cc26 4b3e 130c 443d 04d5 66bd
000000f0: 98da 0cbe f893 4abd 89f8 33be 9f86 f8bb
00000100: faf9 d9bc 6321 ff3d 3fd6 c8be 9cc1 043d
00000110: a6f7 3cbe ac2f 823e 6107 a9bd 7d34 9b3e
00000120: 0df8 a8be e612 70be 2301 5d3e 5357 aabd
00000130: cf82 c3be b7e9 d13e 2654 99bd f644 d03e
00000140: 3ef3 27be e4bd 683e ad4f a83d 53c9 7abe
00000150: 0505 89be 9990 ad3d cd61 afbb 15af 83bd
00000160: c43f 03bf 090c 1a3e 5d3c 313e a76c 9abd
00000170: 03a0 bbbe 5562 093e d2bb de3c cd94 02be
00000180: 740d 2fbe 65e7 dbbd 3d6b fdbe 18ba d2be
00000190: 070a a73e 318c aa3c 9f74 e8be ceb4 823e
000001a0: c37f ac3d 01ec ac3e 52d2 53bd b346 853e
000001b0: 38c9 d83e 2864 9d3e 89a9 783e bd7a 893e
000001c0: 4aee 823e 8b38 b63c 12ac 91bd e2d4 c73e
000001d0: 2f6d 1b3e d8cd c5be dcc5 51be 0693 8e3e
000001e0: 36f3 cd3e cbce f13d 4820 423e 1a01 80bc
000001f0: d0cc 63be 1cb5 553e 3e48 54bd 2588 a73b
00000200: dd42 17bc ae5a 5c3e cef3 77bc 9987 3bbf
00000210: d498 dcbe cbbb 1f3f a420 67bf a840 3a3f
00000220: 7421 4a3f 801a 8d3e 4e90 d93e 0e96 5a3f
00000230: b236 c7bc c70f c6be 1137 95be 4357 1dbe
00000240: 486c 8f3e 8142 1ebe f808 303f b208 203e
00000250: 0e48 253f c037 efbe 0e5f 46be 9ab1 103f
00000260: 0863 4a3f ba8a 21bf 72ad a13d 3938 91be
00000270: b966 003f f703 94be d962 c83e 7a3b bbbd
00000280: 9af6 6cbf c2e5 d43e e967 aa3e c1bc 88be
00000290: 3d4e 283d a879 8d3e 7a77 ca3f ab88 9d3f
000002a0: 5003 963f 3eb5 a0be 3c62 bfbe eef8 69be
000002b0: a732 30bd cc14 48be 2241 4fbf 787b 93be
000002c0: 82e2 b83e e851 263d 2415 603e 40a8 23bf
000002d0: d278 653d f861 033e 4ae3 983e add5 79bf
000002e0: b6c9 a6bd 04d5 2b3f d991 aabe 93ba 503f
000002f0: 80c4 2fbf 1125 14bf 9933 043c fb0d 2bbd
00000300: a2a3 2dbb de8c e33d 2ebf 1bbd a538 b3bd
00000310: 9e5c 96be ec61 6a3f b99b 34bf fe20 283f
00000320: 9dda 9fbd 102d dabd 18e9 0e3f 9a50 3c3e
00000330: dac7 c93d 5c03 efbe 982b 27be e8c4 ca3c
00000340: 59eb 1f3e de62 4fbe ae66 d2bd 92a2 cf3e
00000350: ea3a a23e 5097 10bf 34d4 ea3e f096 0b3e
00000360: 86b6 eb3e 0fa9 883d 1e32 a83d 323d 54be
00000370: c4e0 973e abaf 05bf ff9b 0a3d 75ac 6c3e
00000380: 6a3f 7ebf c3e0 e5bd b79a 2c3e 4bee c0be
00000390: 51a5 46be d93a 013e 197c 173f 61e2 6b3f
000003a0: eb19 aa3f 4aa2 033f c5ed 4cbe a782 1dbf
000003b0: a480 b33b a911 b9be 8f4f 3dbf 93bd c3be
000003c0: 0285 9a3d f8b4 fd3d 925b b9be 9dd8 11bf
000003d0: 1e71 fc3e 8c07 633b 0b3f b1bc b750 94be
000003e0: 7e31 b63d d30c 703e d908 923e b209 803e
000003f0: 396d ecbe 6aff bbbe 32db 0b3e 63b5 85bf

conv1.nn.4.bias f4 [64]
-0.095168315 -0.30769882 -0.30133468 0.37493664 -0.5766204 -0.16563664 -0.11573743 1.7528168
-0.17959294 -0.19394332 1.0905087 -0.20094356 -0.25279018 -0.34352857 -0.24466972 -0.084825575
-0.23001555 1.2166551 -0.19748513 0.57352287 -0.25122103 1.6601137 -0.19330753 1.0600511
-0.17670575 -0.17110786 -0.24308781 2.9355776 0.13921477 0.5291848 -0.19519414 2.557375
-0.098312415 1.0561384 -0.2319753 -0.2470649 -0.39032695 -0.07365361 -0.110486604 1.4202166
-0.031684104 -0.027943028 -0.18928881 -0.07240593 -0.23381361 2.0397496 1.325968 0.94440025
2.653619 -0.09462185 -0.24917927 0.4251436 0.58533907 -0.11210557 -0.119042195 1.1638047
0.68180734 -0.21151559 -0.14248016 -0.07423448 -0.13348937 -0.19593197 -0.15034533 0.8993312
00000000: 9be7 c2bd b38a 9dbe 8a48 9abe b2f7 bf3e
00000010: 659d 13bf a79c 29be bf07 edbd 4d5c e03f
00000020: 36e7 37be 1499 46be ca95 8b3f 26c4 4dbe
00000030: b76d 81be fae2 afbe b38a 7abe 08b9 adbd
00000040: 3289 6bbe 5bbb 9b3f 8b39 4abe 65d2 123f
00000050: 0ba0 80be 9b7e d43f 69f2 45be c1af 873f
00000060: 5af2 34be e636 2fbe 03ec 78be 81e0 3b40
00000070: 518e 0e3e a878 073f f9e0 47be 08ac 2340
00000080: 0558 c9bd 8b2f 873f ef8a 6dbe 95fe 7cbe
00000090: efd8 c7be b4d7 96bd cd46 e2bd a8c9 b53f
000000a0: 31c7 01bd c7e8 e4bc edd4 41be 8f49 94bd
000000b0: d66c 6fbe 428b 0240 52b9 a93f 37c4 713f
000000c0: e5d4 2940 1ac9 c1bd da28 7fbe 6cac d93e
000000d0: c8d8 153f 9b97 e5bd 65cc f3bd 8df7 943f
000000e0: ed8a 2e3f 8b97 58be 52e6 11be 3f08 98bd
000000f0: 70b1 08be 64a2 48be 20f4 19be 923a 663f

conv2.nn.0.weight f4 [64, 64]
-0.40149134 -0.4390939 0.6901339 -0.53137237 0.29590222 0.015497446 0.0012400498 -0.31506968
-0.2822541 -0.40650788 -0.063730896 -0.2822836 -0.2024969 0.21482228 -0.46752676 -0.2840487
0.3615332 0.7068153 -0.5975655 -0.07111632 -0.38393682 -0.34632847 0.5110992 -0.56848574
0.3786165 -0.36370575 -0.19095625 -0.2736947 0.39836243 0.364606 -0.1815642 -0.44323915
0.44185606 0.43620333 0.30206403 0.5236374 0.5425453 -0.10536899 -0.011287695 0.036415935
-0.21863003 -0.44169882 0.17297225 -0.31226137 -0.32935628 -0.107384406 0.14836776 -0.23917894
0.3258878 -0.27029127 -0.20906392 -0.217302 0.050699193 0.019504013 -0.35299727 0.45041788
-0.22283527 0.3368587 0.49421734 -0.24862565 0.060562897 -0.3926377 -0.0150168585 0.20870516
0.11115699 -0.15879738 -0.08583431 0.19303927 -0.1361463 0.198472 -0.07199264 0.058477174
-0.032564484 0.097942695 0.040572185 0.1609167 0.22532834 -0.262989 0.1969908 0.015570979
-0.12893406 -0.21968985 0.14564428 -0.046860114 0.15396324 0.13675177 -0.14412658 0.120121144
-0.09630027 0.15107329 -0.046170693 0.19252807 -0.15094836 -0.0592567 -0.067272775 0.08746187
-0.021273453 -0.16936553 -0.050374787 -0.13169175 -0.19344701 -0.030103823 0.049471162 -0.03803634
0.030035328 -0.036865573 0.019729793 0.22946708 0.18264665 0.24386355 0.07758781 -0.008618977
-0.11585417 0.12400538 0.0831774 0.06558511 -0.018402094 0.08085956 0.08732026 -0.07379301
-0.24568875 -0.12601836 -0.15466325 0.1375702 -0.23316796 0.14131853 -0.3986003 -0.28067023
0.11135171 -0.029953426 -0.09390337 0.12061816 -0.089942284 0.07950391 -0.041420925 0.023013346
0.04784981 0.09557552 0.044083104 0.077622116 0.117552705 -0.117331296 0.029836712 -0.035659727
-0.075803526 -0.091997154 0.06654846 0.04638051 0.11110243 0.12407983 -0.10485103 -0.020933062
-0.021280844 0.08414325 -0.058193877 0.11424866 -0.07160945 -0.00871324 -0.016549401 0.092783086
0.037666403 -0.12081483 -0.018816201 -0.07960979 -0.14489512 -0.020993365 0.06572195 0.012612483
-0.020542234 -0.005087418 0.0034312634 0.10714826 0.12057243 0.047236077 0.16855724 0.04907333
-0.06308523 0.08457212 0.08183419 0.011146841 0.039354928 0.053913277 -0.012573156 0.03466319
0.012247058 -0.09447181 -0.117165 0.11451534 -0.07098787 0.08843056 -0.0052316952 -0.05260148
-0.18367906 -0.6141048 0.17288549 -0.29726192 0.5008361 0.4408156 -0.105354175 -0.7007668
0.015904319 -0.19464874 0.3352702 -0.38002887 -0.24399698 0.12572417 0.26455274 -0.5660351
0.9259159 -0.2678818 -0.21619353 -0.044874243 -0.029878495 -0.12569788 -0.21433282 -0.48429176
1.4228683 -0.2197407 -0.106033236 -0.48372164 0.1888813 1.0437043 -0.06867361 -1.2959629
0.61448413 0.16260028 0.7373431 0.61016804 0.24030322 0.1710395 0.3064032 0.1266157
-0.52468085 -0.6724533 0.24069025 -0.4396803 -0.17255126 -0.052471045 0.3483511 0.00011528972
0.68848556 -0.76643205 0.038075466 -0.20997141 0.26324543 0.16891381 -0.98678976 1.3150901
0.019066148 -0.2379533 0.25316432 -0.7307515 -0.46209353 0.32571092 -0.28161958 -0.10763237
00000000: 4690 cdbe ead0 e0be 9eac 303f 0508 08bf
00000010: 7f80 973e 00e9 7d3c 2b89 a23a d050 a1be
00000020: 9c83 90be cd21 d0be 5885 82bd 7a87 90be
00000030: 595b 4fbe 5ffa 5b3e ab5f efbe d56e 91be
00000040: e11a b93e d9f1 343f 0dfa 18bf 6fa5 91bd
00000050: 5e93 c4be f751 b1be 66d7 023f 4888 11bf
00000060: 06da c13e a437 babe 098a 43be b621 8cbe
00000070: 29f6 cb3e a3ad ba3e f7eb 39be 3ef0 e2be
00000080: f53a e23e 0b56 df3e 23a8 9a3e 1a0d 063f
00000090: 40e4 0a3f b2cb d7bd 06f0 38bc e028 153d
000000a0: 8de0 5fbe 5926 e2be a31f 313e b9e0 9fbe
000000b0: 63a1 a8be 5bec dbbd b8ed 173e 53eb 74be
000000c0: c4da a63e 9e63 8abe da14 56be 6a84 5ebe
000000d0: f5a9 4f3d e1c6 9f3c 0fbc b4be 2c9d e63e
000000e0: ee2e 64be be78 ac3e 0e0a fd3e b997 7ebe
000000f0: cd10 783d cf07 c9be 4509 76bc ceb6 553e
00000100: 47a6 e33d c89b 22be e6c9 afbd 16ac 453e
00000110: f069 0bbe 3e3c 4b3e e170 93bd c385 6f3d
00000120: 5662 05bd 2e96 c83d 052f 263d 59c7 243e
00000130: 79bc 663e 7fa6 86be f5b7 493e 6b1d 7f3c
00000140: 4a07 04be 60f6 60be c623 153e 64f0 3fbd
00000150: 8aa8 1d3e a808 0c3e eb95 13be 1302 f63d
00000160: 1339 c5bd f5b2 1a3e 7b1d 3dbd 1426 453e
00000170: 3592 1abe 27b7 72bd 4fc6 89bd 351f b33d
00000180: aa45 aebc 286e 2dbe cb55 4ebd 34da 06be
00000190: f916 46be 4b9c f6bc 46a2 4a3d fecb 1bbd
000001a0: a60c f63c 5b00 17bd 60a0 a13c 6bf9 6a3e
000001b0: b907 3b3e 5eb7 793e 5ce6 9e3d 9c36 0dbc
000001c0: f344 edbd 88f6 fd3d ea58 aa3d 7c51 863d
000001d0: fdbf 96bc b299 a53d f7d4 b23d ca20 97bd
000001e0: d595 7bbe f50a 01be 0b60 1ebe 34df 0c3e
000001f0: 95c3 6ebe ceb5 103e 5715 ccbe 02b4 8fbe
00000200: 5e0c e43d e360 f5bc 6950 c0bd a706 f73d
00000210: a933 b8bd f2d2 a23d fda8 29bd 7c86 bc3c
00000220: 2afe 433d 19bd c33d 7c90 343d 58f8 9e3d
00000230: 79bf f03d 644b f0bd 1f6c f43c ef0f 12bd
00000240: e13e 9bbd 0169 bcbd 8f4a 883d 7df9 3d3d
00000250: ac89 e33d 911d fe3d 23bc d6bd d07b abbc
00000260: 2a55 aebc 4c53 ac3d b45c 6ebd 34fb e93d
00000270: faa7 92bd fac1 0ebc 9c92 87bc 0f05 be3d
00000280: 1648 1a3d c46d f7bd 6f24 9abc 750a a3bd
00000290: 635f 14be 47fa abbc 3b99 863d 97a4 4e3c
000002a0: 3048 a8bc 5bb4 a6bb 0cdf 603b 8c70 db3d
000002b0: aeee f63d 9e7a 413d 459a 2c3e 1e01 493d
000002c0: d432 81bd 2634 ad3d af98 a73d 3da1 363c
000002d0: a232 213d 2bd4 5c3d a3ff 4dbc fdfa 0d3d
000002e0: e2a7 483c 707a c1bd 34f4 efbd 0587 ea3d
000002f0: 1762 91bd 151b b53d a46e abbb a674 57bd
00000300: 5d16 3cbe f935 1dbf e508 313e b732 98be
00000310: cb36 003f 95b2 e13e eec3 d7bd 7465 33bf
00000320: c649 823c 0052 47be 89a8 ab3e 2593 c2be
00000330: 58da 79be d6bd 003e 7573 873e ade7 10bf
00000340: d308 6d3f ce27 89be d661 5dbe 0ece 37bd
00000350: bfc3 f4bc f2b6 00be 107a 5bbe 17f5 f7be
00000360: 8c20 b63f b503 61be f427 d9bd 5daa f7be
00000370: 196a 413e 1a98 853f c0a4 8cbd 1de2 a5bf
00000380: d54e 1d3f b080 263e 84c2 3c3f f933 1c3f
00000390: 0c12 763e fb24 2f3e e1e0 9c3e 8ca7 013e
000003a0: 7c51 06bf e625 2cbf 8177 763e c71d e1be
000003b0: 47b1 30be e1eb 56bd 135b b23e b2c7 f138
000003c0: 9740 303f e434 44bf 05f5 1b3d bf02 57be
000003d0: 1bc8 863e bef7 2c3e 419e 7cbf df54 a83f
000003e0: 9c30 9c3c 08aa 73be c19e 813e 8812 3bbf
000003f0: 8697 ecbe 95c3 a63e 7130 90be 5c6e dcbd

conv2.nn.0.bias f4 [64]
0.01405644 0.16424191 -0.12135507 0.792904 0.27464324 -0.16006985 0.13851622 0.10340521
0.500817 -0.014842005 0.3206662 0.22001432 0.44546634 0.58658105 0.3021901 -0.0067082476
-0.0439396 -0.039711278 -0.010732669 0.17425019 0.021914363 -0.06708046 0.10549873 -0.14556077
0.14360093 0.3763166 -0.21982189 -0.01803889 -0.0020256138 0.17189793 0.11536249 0.22537513
0.2841605 0.07823349 0.6527257 0.1500144 0.3859753 -0.02367131 0.16711906 0.26837376
0.14490493 0.59079164 0.0056827352 0.13847142 0.15801829 -0.021585746 0.08232401 0.08065322
0.17839125 0.032742746 -0.015760845 -0.016880624 0.067513175 0.0016937641 0.04968249 -0.03301069
0.103635564 0.093561314 0.25266165 0.28045672 0.09870862 -0.010999849 0.1672589 0.326314
00000000: fc4c 663c 082f 283e 0289 f8bd c2fb 4a3f
00000010: 0a9e 8c3e 5ae9 23be 32d7 0d3e 1cc6 d33d
00000020: 8b35 003f e22b 73bc 5c2e a43e 6f4b 613e
00000030: 2a14 e43e 2d2a 163f a9b8 9a3e dcd0 dbbb
00000040: 03fa 33bd 4ba8 22bd 14d8 2fbc a46e 323e
00000050: c085 b33c 7b61 89bd b80f d83d e20d 15be
00000060: 1f0c 133e 92ac c03e fd18 61be 4bc6 93bc
00000070: 29c0 04bb 0306 303e 2b43 ec3d bdc8 663e
00000080: 7c7d 913e e138 a03d 0819 273f 609d 193e
00000090: 8e9e c53e 56ea c1bc 4221 2b3e 4968 893e
000000a0: f561 143e 1f3e 173f 3d36 ba3b 74cb 0d3e
000000b0: 8ccf 213e 97d4 b0bc 7e99 a83d 842d a53d
000000c0: 32ac 363e 421d 063d e31c 81bc 3c49 8abc
000000d0: 5944 8a3d 4b01 de3a de7f 4b3d 3836 07bd
000000e0: e23e d43d 139d bf3d de5c 813e 0698 8f3e
000000f0: bf27 ca3d b638 34bc eb45 2b3e a112 a73e

conv2.nn.2.weight f4 [64]
0.024276689 -0.15045102 -0.011648585 -0.104705706 -0.7338583 -0.016544107 -0.004498982 -0.030014733
-0.016303498 0.023194345 0.052437108 -0.7340522 -0.013396492 0.5981578 0.008635408 0.018793106
0.050211564 0.004426173 0.035115015 -0.15824966 -0.020115595 -0.0189308 0.020530391 0.92848164
0.2973162 0.04625488 0.09085309 0.014200547 0.025441352 0.008551867 0.047313113 -0.047779467
0.02299017 0.007201421 0.16611367 -0.033317756 -0.09729353 0.007332599 -0.048813473 0.16491997
-0.0034955463 -0.027662015 0.0032413148 0.0776093 -0.03820679 0.0033265138 -0.010110394 -0.029294567
0.0005626592 0.006652728 0.00832861 0.0056113345 0.013349594 0.00460896 0.027679613 0.0017950753
-0.020767506 -0.012026564 -0.1725051 -0.04057372 -0.0023963677 0.0029478117 0.14164731 0.032545153
00000000: e8df c63c d50f 1abe b5d9 3ebc f26f d6bd
00000010: 23de 3bbf 8287 87bc 326c 93bb 75e1 f5bc
00000020: ea8e 85bc 1102 be3c 4bc8 563d d8ea 3bbf
00000030: f67c 5bbc df20 193f 877b 0d3c 00f4 993c
00000040: a4aa 4d3d 6e09 913b c3d4 0f3d 330c 22be
00000050: 76c9 a4bc c414 9bbc 5a2f a83c f9b0 6d3f
00000060: d439 983e c275 3d3d 2f11 ba3d 69a9 683c
00000070: 626a d03c 211d 0c3c 65cb 413d 67b4 43bd
00000080: e255 bc3c e6f9 eb3b b419 2a3e 3378 08bd
00000090: d541 c7bd 4c46 f03b a3f0 47bd c8e0 283e
000000a0: 8915 65bb 739b e2bc 3d6c 543b a0f1 9e3d
000000b0: b97e 1cbd a401 5a3b 11a6 25bc 29fb efbc
000000c0: 6b7f 133a 21ff d93b b974 083c 49df b73b
000000d0: 41b8 5a3c c206 973b 5bc0 e23c bb48 eb3a
000000e0: 9e20 aabc 110b 45bc 2da5 30be a130 26bd
000000f0: 610c 1dbb 1330 413b fe0b 113e 114e 053d

conv2.nn.2.bias f4 [64]
0.033548627 0.0020899787 0.0029554062 -0.1902654 -0.6312972 0.014806304 0.0054583373 0.04172432
-0.029808693 0.0040292195 0.009464196 -0.68928796 -0.053496826 0.15065975 0.01290177 0.0090743825
0.004868838 0.008020231 -0.008783304 -0.0140013965 -0.015722753 0.0106513575 0.007863752 0.83685786
0.57140225 -0.004090587 -0.00036692817 0.012613496 -0.005136275 0.0011725503 0.03316969 -0.0021438806
0.00859747 0.010474818 0.011307019 0.03147919 0.11050757 0.006909558 0.002896724 0.020781714
-0.004097487 -0.053627886 -0.03262074 0.011543782 -0.012608726 0.024139918 0.0020377005 0.022878159
-0.025657622 -0.074169524 0.00096400396 -0.014342996 -0.019638898 0.011473516 -0.0009579157 -0.01388974
-0.0030621064 0.006010626 -0.069640584 -0.00083360006 -0.018055761 0.001963855 0.21832329 0.04355947
00000000: 496a 093d 06f8 083b 7daf 413b efd4 42be
00000010: b19c 21bf 2496 723c dadb b23b 1fe7 2a3d
00000020: 5c31 f4bc 8b07 843b b70f 1b3c 2d75 30bf
00000030: 7d1f 5bbd 8d46 1a3e f261 533c b8ac 143c
00000040: c68a 9f3b 4967 033c d9e7 0fbc 1d66 65bc
00000050: 01cd 80bc 0883 2e3c f7d6 003c 513c 563f
00000060: 6b47 123f 550a 86bb 4460 c0b9 d6a8 4e3c
00000070: 334e a8bb 42b0 993a f1dc 073d 5980 0cbb
00000080: 67dc 0c3c 929e 2b3c 1341 393c 53f0 003d
00000090: cb51 e23d 9369 e23b f7d6 3d3b 6a3e aa3c
000000a0: 3644 86bb eaa8 5bbd 539d 05bd 2222 3d3c
000000b0: d494 4ebc 14c1 c53c f18a 053b fa6a bb3c
000000c0: ef2f d2bc 31e6 97bd 36b5 7c3a e3fe 6abc
000000d0: c1e1 a0bc 6afb 3b3c a21c 7bba cb91 63bc
000000e0: 9fad 48bb c9f4 c43b b99f 8ebd f485 5aba
000000f0: ade9 93bc 05b4 003b 2490 5f3e 6a6b 323d

conv2.nn.2.running_mean f4 [64]
36377.195 6e-45 6e-45 55845.887 51654.07 6e-45 6e-45 6e-45
19223.799 6e-45 6e-45 56316.14 6e-45 59611.87 6e-45 6e-45
6e-45 6e-45 6e-45 6e-45 6e-45 6e-45 6e-45 40278.258
55045.04 6e-45 6e-45 6e-45 6e-45 6e-45 40096.418 6e-45
47082.785 6e-45 6e-45 6e-45 21160.75 6e-45 6e-45 6e-45
38105.816 31390.797 6e-45 6e-45 35945.09 6e-45 6e-45 6e-45
6e-45 6e-45 6e-45 6e-45 6e-45 6e-45 6e-45 6e-45
6e-45 6e-45 6e-45 6e-45 6e-45 6e-45 6e-45 6e-45
00000000: 3219 0e47 0400 0000 0400 0000 e325 5a47
00000010: 12c6 4947 0400 0000 0400 0000 0400 0000
00000020: 992f 9646 0400 0000 0400 0000 24fc 5b47
00000030: 0400 0000 dfdb 6847 0400 0000 0400 0000
00000040: 0400 0000 0400 0000 0400 0000 0400 0000
00000050: 0400 0000 0400 0000 0400 0000 4256 1d47
00000060: 0a05 5747 0400 0000 0400 0000 0400 0000
00000070: 0400 0000 0400 0000 6ba0 1c47 0400 0000
00000080: c9ea 3747 0400 0000 0400 0000 0400 0000
00000090: 8051 a546 0400 0000 0400 0000 0400 0000
000000a0: d1d9 1447 983d f546 0400 0000 0400 0000
000000b0: 1769 0c47 0400 0000 0400 0000 0400 0000
000000c0: 0400 0000 0400 0000 0400 0000 0400 0000
000000d0: 0400 0000 0400 0000 0400 0000 0400 0000
000000e0: 0400 0000 0400 0000 0400 0000 0400 0000
000000f0: 0400 0000 0400 0000 0400 0000 0400 0000

conv2.nn.2.running_var f4 [64]
1.5456261e+08 6e-45 6e-45 3.6426784e+08 3.116764e+08 6e-45 6e-45 6e-45
4.3151228e+07 6e-45 6e-45 3.704757e+08 6e-45 4.150549e+08 6e-45 6e-45
6e-45 6e-45 6e-45 6e-45 6e-45 6e-45 6e-45 1.8954184e+08
3.5396138e+08 6e-45 6e-45 6e-45 6e-45 6e-45 1.8778859e+08 6e-45
2.5894741e+08 6e-45 6e-45 6e-45 5.2291156e+07 6e-45 6e-45 6e-45
1.6958507e+08 1.1509912e+08 6e-45 6e-45 1.5083866e+08 6e-45 6e-45 6e-45
6e-45 6e-45 6e-45 6e-45 6e-45 6e-45 6e-45 6e-45
6e-45 6e-45 6e-45 6e-45 6e-45 6e-45 6e-45 6e-45
00000000: 0367 134d 0400 0000 0400 0000 4ab2 ad4d
00000010: 709e 944d 0400 0000 0400 0000 0400 0000
00000020: df9b 244c 0400 0000 0400 0000 16a8 b04d
00000030: 0400 0000 e2e9 c54d 0400 0000 0400 0000
00000040: 0400 0000 0400 0000 0400 0000 0400 0000
00000050: 0400 0000 0400 0000 0400 0000 ddc2 344d
00000060: 2dc8 a84d 0400 0000 0400 0000 0400 0000
00000070: 0400 0000 0400 0000 d316 334d 0400 0000
00000080: 95f3 764d 0400 0000 0400 0000 0400 0000
00000090: 9579 474c 0400 0000 0400 0000 0400 0000
000000a0: 9bba 214d be88 db4c 0400 0000 0400 0000
000000b0: d8d9 0f4d 0400 0000 0400 0000 0400 0000
000000c0: 0400 0000 0400 0000 0400 0000 0400 0000
000000d0: 0400 0000 0400 0000 0400 0000 0400 0000
000000e0: 0400 0000 0400 0000 0400 0000 0400 0000
000000f0: 0400 0000 0400 0000 0400 0000 0400 0000

conv2.nn.4.weight f4 [64, 64]
0.28694576 0.21702789 -0.07676735 0.0004955767 -0.01988106 -0.28370127 0.055011597 0.45627958
0.09108054 0.042698566 -0.21731421 0.17603421 -0.30783343 0.01516416 -0.3500522 -0.032096155
-0.2859885 0.3757252 0.3559738 -0.07310009 0.13264391 0.2316264 -0.19134286 0.05429542
-0.039562095 0.37340742 -0.09915001 0.32419342 -0.4973926 -0.20396887 0.038517635 -0.10965248
-0.17645507 -0.24702631 -0.1731239 -0.21176408 0.012511157 0.20392656 0.3285712 -0.17541552
-0.27891913 -0.12081954 -0.08640252 -0.35459206 0.04756376 -0.044275835 -0.28267184 0.026325317
0.37243316 0.26582178 0.028364599 0.20316017 -0.27729896 -0.09787385 -0.08944387 -0.206245
0.07257908 0.03858694 0.21851812 0.10987035 0.110867724 0.25653243 -0.4094804 0.24169251
0.040121213 0.062947005 0.094382934 -0.024772028 -0.00058531924 -0.0804983 0.04103912 -0.022310486
-0.0338634 0.099873476 -0.018578067 0.05837352 0.02934338 0.04689074 -0.09711821 -0.15840988
-0.10744077 0.011049738 -0.013780154 -0.060038656 -0.015814388 0.14161828 -0.13922398 0.00026074782
-0.07300171 -0.019718224 -0.10953806 0.10167259 -0.099834956 -0.136176 0.08201155 -0.06585082
-0.031512417 -0.04013802 -0.07509631 0.06897644 -0.035725955 -0.027546845 0.013618714 -0.029286126
-0.04061791 -0.0033244335 0.13236931 -0.064114355 -0.05471621 -0.015321185 -0.13339886 -0.07691126
-0.107371174 0.04841292 -0.024283048 0.1727874 0.017044332 -0.052904643 -0.05193326 -0.13273893
0.091322266 -0.08393057 0.009943218 0.040885773 0.05006728 0.072486065 -0.032678753 -0.05054218
-0.14805551 0.05438947 0.42484596 0.19359641 0.10780389 0.19483124 0.2312109 0.02013019
-0.22712168 0.0032037294 -0.10900701 -0.109589055 -0.12795764 0.002676613 -0.08071734 -0.19330119
0.19917789 -0.1420759 -0.029033767 -0.064744264 -0.516662 -0.1170463 0.5262549 0.20250334
-0.21731278 0.42576337 0.14035702 0.19666438 0.018659323 -0.10662684 -0.0074930224 0.007733926
-0.11185856 -0.25317976 -0.25838527 0.20627357 0.059732422 0.003586561 0.29937017 -0.53609204
-0.1396532 0.046529267 0.39747158 -0.15629135 0.09507687 0.058314763 0.23339997 0.17062248
-0.08589818 0.027009694 0.3962571 0.10083247 0.09905858 0.18794894 -0.02904611 -0.26000682
-0.08355349 -0.1871829 0.35746413 -0.05854015 -0.2438642 0.45166886 -0.5476254 0.34464136
0.058651056 0.15702692 -0.12211274 -0.022480762 -0.01593176 -0.52929765 -0.062396362 -0.18471959
-0.2838279 -0.020712752 -0.04531018 0.03113452 -0.019235794 0.015691465 0.051273797 -0.10525247
-0.08773612 0.013673318 0.22634788 -0.012425559 0.19002843 -0.066868015 -0.12882635 0.027200716
-0.044415466 0.10962479 -0.08874547 0.083536655 -0.37143326 -0.0824947 -0.028005466 -0.3531858
0.05359001 -0.43140885 -0.20462132 0.016414719 -0.03947054 0.21836603 0.20602752 -0.0663908
-0.21326499 -0.1044289 -0.3658094 0.011528633 0.11416599 0.043693446 -0.03381914 -0.040960237
0.09204551 0.12741022 -0.059333395 0.30737287 -0.017195242 0.004360575 -0.08643965 -0.104683995
0.21492411 -0.21376151 0.058835853 0.016725589 -0.040612713 0.49593657 -0.28306296 -0.011300952
00000000: 8eea 923e 8f3c 5e3e 3338 9dbd 97e9 013a
00000010: 9bdd a2bc 4b41 91be d753 613d 7a9d e93e
00000020: 6f88 ba3d b1e4 2e3d 9e87 5ebe 5042 343e
00000030: 589c 9dbe 1973 783c 0b3a b3be 4277 03bd
00000040: 166d 92be 0e5f c03e 3342 b63e 80b5 95bd
00000050: ced3 073e 792f 6d3e 62ef 43be e064 5e3d
00000060: dd0b 22bd 422f bf3e 290f cbbd aefc a53e
00000070: 3eaa febe 37dd 50be abc4 1d3d 7b91 e0bd
00000080: a3b0 34be 77f4 7cbe 6447 31be afd8 58be
00000090: 99fb 4c3c 20d2 503e 7c3a a83e 20a0 33be
000000a0: 7dce 8ebe 3c70 f7bd cef3 b0bd 178d b5be
000000b0: 38d2 423d 945a 35bd 5dba 90be 31a8 d73c
000000c0: 8faf be3e cb19 883e e05c e83c 3809 503e
000000d0: 21fa 8dbe 1672 c8bd 592e b7bd e431 53be
000000e0: 57a4 943d 570d 1e3d 37c3 5f3e b503 e13d
000000f0: 9e0e e33d 3858 833e 6aa7 d1be 3e7e 773e
00000100: 2456 243d 5cea 803d d74b c13d b5ee cabc
00000110: 1c70 19ba 4bdc a4bd a318 283d 7bc4 b6bc
00000120: 59b4 0abd 778a cc3d 0831 98bc 1219 6f3d
00000130: 8761 f03c 8110 403d e9e5 c6bd 3336 22be
00000140: e809 dcbd f609 353c 28c6 61bc 18eb 75bd
00000150: 2d8d 81bc 6204 113e bb90 0ebe fbb4 8839
00000160: ec81 95bd 1d88 a1bc 7e55 e0bd b839 d03d
00000170: 4576 ccbd b971 0bbe acf5 a73d cbdc 86bd
00000180: 2a13 01bd c467 24bd 18cc 99bd 8543 8d3d
00000190: 6155 12bd eca9 e1bc 0721 5f3c 75e9 efbc
000001a0: f75e 26bd bdde 59bb d28b 073e 634e 83bd
000001b0: 1b1e 60bd b505 7bbc b699 08be a783 9dbd
000001c0: 6be5 dbbd a04c 463d 3eed c6bc 2eef 303e
000001d0: 8ea0 8b3c 8ab2 58bd f8b7 54bd b7ec 07be
000001e0: 2b07 bb3d cae3 abbd e1e8 223c d777 273d
000001f0: 5913 4d3d 9373 943d 28da 05bd 5105 4fbd
00000200: dd9b 17be 7ec7 5e3d 6985 d93e 233e 463e
00000210: 49c8 dc3d d781 473e 8dc2 6c3e 11e8 a43c
00000220: 9692 68be a9f5 513b 113f dfbd 3a70 e0bd
00000230: 5407 03be 1d6a 2f3b 224f a5bd bff0 45be
00000240: 4af5 4b3e 587c 11be 39d8 edbc a498 84bd
00000250: f643 04bf f8b5 efbd a4b8 063f 095d 4f3e
00000260: 3e87 5ebe a8fd d93e c0b9 0f3e 6362 493e
00000270: 70db 983c 2c5f dabd 0788 f5bb e06c fd3b
00000280: 1a16 e5bd c7a0 81be 134b 84be 6139 533e
00000290: fca9 743d 820c 6b3b 0c47 993e 543d 09bf
000002a0: 4001 0fbe 7995 3e3d 6581 cb3e d70a 20be
000002b0: a9b7 c23d 76db 6e3d 6700 6f3e a9b7 2e3e
000002c0: 63eb afbd 6f43 dd3c 36e2 ca3e 4181 ce3d
000002d0: 3adf ca3d b075 403e 1cf2 edbc 9d1f 85be
000002e0: 181e abbd e0ac 3fbe 8a05 b73e ccc7 6fbd
000002f0: 89b7 79be 2441 e73e 2e31 0cbf d574 b03e
00000300: 173c 703d aacb 203e 3f16 fabd 9329 b8bc
00000310: 5383 82bc 0d80 07bf 5493 7fbd 2227 3dbe
00000320: e451 91be caad a9bc 2b97 39bd d20d ff3c
00000330: 6294 9dbc 638b 803c 7904 523d 9b8e d7bd
00000340: ffae b3bd 0d06 603c bdc7 673e 9294 4bbc
00000350: d096 423e 19f2 88bd 0eeb 03be 09d4 de3c
00000360: feec 35bd f682 e03d 2fc0 b5bd 4415 ab3d
00000370: 802c bebe fbf2 a8bd b86b e5bc c5d4 b4be
00000380: 3381 5b3d 9fe1 dcbe 4088 51be 2978 863c
00000390: dcab 21bd 589b 5f3e e1f8 523e e6f7 87bd
000003a0: 2362 5abe d2de d5bd 5f4b bbbe 97e2 3c3c
000003b0: dccf e93d e6f7 323d f085 0abd ecc5 27bd
000003c0: 5b82 bc3d d377 023e 9307 73bd fa5f 9d3e
000003d0: 09dd 8cbc 28e3 8e3b 4507 b1bd 9064 d6bd
000003e0: 1115 5c3e 4ce4 5abe ddfd 703d 1a04 893c
000003f0: 8459 26bd 66eb fd3e a1ed 90be a127 39bc

conv2.nn.4.bias f4 [64]
-0.40525287 -0.19146223 -0.82797617 -0.3122022 -0.6904577 -0.6305798 -0.28277498 -0.43369934
-0.7829668 -0.4735309 -0.6324805 -0.52639747 -0.7555213 -0.5651826 -0.46813965 -0.67024183
-0.31097907 1.2137926 -0.5701727 -0.32241118 -0.6629592 -0.27011856 -0.6640761 -0.38501596
-0.19030176 -1.2243876 -0.3310586 -0.49056122 -1.3349667 -0.8399459 -0.56727713 -0.24597354
-0.32543272 -0.5101584 -0.6383509 -0.46655762 -0.3334715 -0.26820964 -0.32823133 -0.6822458
-0.6786508 -0.74311256 -0.7861001 -0.6693138 1.2897873 -1.1531394 -0.28688937 -0.3455869
-0.89443547 0.71210384 -0.29605514 -0.3519192 -1.4835019 -0.32227415 -0.4386581 -0.42950964
-0.27969435 -0.55895966 -0.8584011 -0.5107767 -0.64824194 -1.3871391 -0.60840905 -0.5453817
00000000: 4e7d cfbe ad0e 44be 3ff6 53bf f7d8 9fbe
00000010: d6c1 30bf ae6d 21bf e2c7 90be d70d debe
00000020: 8370 48bf a472 f2be 3eea 21bf fcc1 06bf
00000030: d869 41bf cfaf 10bf 00b0 efbe f894 2bbf
00000040: a638 9fbe 8e5d 9b3f d7f6 11bf 1413 a5be
00000050: b2b7 29bf fb4c 8abe e400 2abf d020 c5be
00000060: 77de 42be bcb8 9cbf 8380 a9be d72a fbbe
00000070: 30e0 aabf b206 57bf 1339 11bf 7de0 7bbe
00000080: 1e9f a6be be99 02bf f76a 23bf a4e0 eebe
00000090: c7bc aabe c652 89be f00d a8be a9a7 2ebf
000000a0: 0fbc 2dbf a03c 3ebf db3d 49bf 2658 2bbf
000000b0: c017 a53f 129a 93bf 2ae3 92be c4f0 b0be
000000c0: b9f9 64bf 704c 363f 8a94 97be c12e b4be
000000d0: 64e3 bdbf 1e01 a5be cb97 e0be b0e8 dbbe
000000e0: 1934 8fbe fb17 0fbf 2dc0 5bbf 43c2 02bf
000000f0: 2ff3 25bf c68d b1bf b2c0 1bbf 239e 0bbf

attention.query_linear.weight f4 [64, 64]
-0.1583539 -0.24616687 0.32172462 -0.56733936 -0.014512742 0.14202225 -0.0105388565 -0.11118658
0.09416601 -0.19076483 0.37594363 0.0801686 0.39318445 -0.26662883 0.112834826 -0.010921833
-0.17702019 -0.023754535 -0.14219232 -0.17560144 0.12795047 -0.076662056 0.12198362 0.90324545
0.061120834 0.44832945 0.10323746 -0.31990352 -1.0297782 -0.54981124 0.5436863 -0.47601005
0.078080885 -0.61365026 -0.59180075 0.025161603 -0.035597254 0.10993444 -0.006090753 -0.33769545
0.061682258 -0.37287354 -0.41197947 -0.081255674 0.16649398 -0.090001404 0.31801057 0.16241848
-0.086280696 -1.2845783 0.21295875 -0.63704324 -0.6828495 0.055132538 -0.14585194 0.20075119
0.43083164 0.10136202 0.3726958 -0.29219425 0.05014167 -0.9894549 -0.14024508 -0.84199506
-0.04238778 0.018221986 -1.2083434 -0.21352611 -0.13938148 -0.20578855 -0.050126363 -0.5213403
0.051857628 0.27916905 -0.9602215 -0.107298315 -0.4107745 0.18949734 -0.12465463 0.049455047
0.20870616 -0.15464291 0.08366883 -1.0351896 -0.15388657 -0.6792063 -0.17839934 -0.3901387
-0.1451996 -0.68200064 -0.07952118 -0.68314886 0.27020335 -0.016462313 -0.36893037 -0.30356148
-0.094873816 -0.14432175 0.36030143 0.08874587 0.0283308 -0.0066121602 -0.3653117 -0.8339522
-0.25647774 0.40560624 0.3541369 -0.081694566 -0.12783216 -0.642227 -0.16991521 -0.8955935
-0.6207192 1.2940618 -0.15269853 -0.667483 -0.091363 -0.028327415 0.26558897 -0.72788405
-1.6044195 0.25917524 -0.40424845 0.06878114 0.39124987 0.98725843 -0.08060805 -0.0003048213
-0.0624428 -0.2164186 0.68823963 -0.69204473 0.010870355 -0.16707096 0.10652932 -0.03758586
0.27371666 -0.021039328 0.4471148 -0.15797162 -0.3509374 0.0003417944 0.34660167 -0.6230785
-0.06307854 -0.24187912 -0.40471348 0.0014374835 -0.3078239 -0.09737522 -0.030284153 0.07675468
-0.12951358 0.14343494 -0.18399358 -0.24931373 0.20000182 -0.433006 -0.5795156 -0.22723593
0.05456055 -0.14549114 0.09146578 0.029600948 0.1702624 0.08600808 -0.051506724 1.0030292
0.03649178 0.25890175 -0.049182758 -0.3964463 -0.1749137 -0.11977483 -0.035143964 0.1877954
-0.27096894 0.2543982 0.29258025 0.11733324 0.044963866 0.0016813315 0.147713 0.37417135
0.8442762 0.45298955 -0.104101144 0.027628215 -0.29726705 0.14828752 -0.119689494 0.09492178
0.037555538 -0.064622164 0.91409516 0.802588 0.3502895 -0.47297528 0.20432045 -0.035770766
0.34310868 0.26978296 0.9597008 -1.7858628 -0.75961745 0.14705728 0.34808162 0.29734677
-0.047138087 -0.2963311 -0.14938445 -0.14315286 0.4870381 0.2873598 -0.25822413 0.41991872
-0.1741375 0.68036765 -0.37852037 0.55361354 0.16732138 0.73229593 -0.61213946 0.36591992
-0.006537599 0.47167534 0.27915657 -0.10506921 -0.19612952 0.095810205 0.0065119006 0.89960617
-0.12827419 -0.30287045 -0.15823019 -0.056032106 -0.25875226 0.18527035 -0.26235613 0.21338251
0.3253299 0.74513 -0.3347388 0.20985842 0.015957769 0.027265009 -0.11823835 0.64845675
0.5814366 0.08731183 -0.09871564 -0.056818374 0.14967526 -0.66140383 -0.15640138 0.6033497
00000000: 8627 22be 2b13 7cbe 17b9 a43e 273d 11bf
00000010: dac6 6dbc 486e 113e 2bab 2cbc cab5 e3bd
00000020: 1cda c03d db57 43be af7b c03e 6f2f a43d
00000030: 794f c93e 9383 88be f215 e73d 7df1 32bc
00000040: c844 35be df98 c2bc dd9a 11be ddd0 33be
00000050: 7305 033e ff00 9dbd 8cd2 f93d 183b 673f
00000060: d759 7a3d 708b e53e 296e d33d 65ca a3be
00000070: c6cf 83bf 6ec0 0cbf 062f 0b3f 97b7 f3be
00000080: dfe8 9f3d 2f18 1dbf 4180 17bf b51f ce3c
00000090: 6dce 11bd 4f25 e13d f094 c7bb 6be6 acbe
000000a0: 89a6 7c3d 48e9 bebe f9ee d2be 6069 a6bd
000000b0: 667d 2a3e a852 b8bd 48d2 a23e 0851 263e
000000c0: efb3 b0bd 106d a4bf dc11 5a3e 4415 23bf
000000d0: 3acf 2ebf a8d2 613d 365a 15be b891 4d3e
000000e0: f795 dc3e e496 cf3d fcd1 be3e 7c9a 95be
000000f0: 5a61 4d3d eb4c 7dbf 689c 0fbe fd8c 57bf
00000100: cf9e 2dbd 4646 953c ffaa 9abf 97a6 5abe
00000110: 05ba 0ebe 3cba 52be 4d51 4dbd 8f76 05bf
00000120: aa68 543d 3fef 8e3e 14d1 75bf 38bf dbbd
00000130: 0951 d2be 970b 423e ed4a ffbd 6091 4a3d
00000140: 11b7 553e b65a 1ebe 905a ab3d 1881 84bf
00000150: 7194 1dbe 77e0 2dbf 51ae 36be 42c0 c7be
00000160: 34af 14be 9897 2ebf 00dc a2bd d8e2 2ebf
00000170: 1858 8a3e f9db 86bc 71e4 bcbe 696c 9bbe
00000180: 344d c2bd 15c9 13be 6e79 b83e 65c0 b53d
00000190: fe15 e83c d2aa d8bb 230a bbbe e47d 55bf
000001a0: 0d51 83be 9fab cf3e 6f51 b53e 7b4f a7bd
000001b0: 6fe6 02be fd68 24bf 41fe 2dbe 9e45 65bf
000001c0: 74e7 1ebf d1a3 a53f 015d 1cbe 2ae0 2abf
000001d0: 861c bbbd e50e e8bc 47fb 873e 9c56 3abf
000001e0: 9e5d cdbf 9eb2 843e a7f9 cebe 20dd 8c3d
000001f0: e751 c83e f8bc 7c3f d515 a5bd 6cd0 9fb9
00000200: 05c4 7fbd d69c 5dbe 7930 303f d829 31bf
00000210: 9319 323c a614 2bbe 0b2c da3d a1f3 19bd
00000220: 9724 8c3e ab5a acbc 3bec e43e 50c3 21be
00000230: 11ae b3be de32 b339 c675 b13e 1382 1fbf
00000240: 522f 81bd 29af 77be 9b36 cfbe f169 bc3a
00000250: 189b 9dbe a96c c7bd 7916 f8bc 8f31 9d3d
00000260: 359f 04be 9ce0 123e d068 3cbe 194c 7fbe
00000270: 47cd 4c3e f6b2 ddbe 225b 14bf 89b0 68be
00000280: e27a 5f3d a1fb 14be 6952 bb3d b07d f23c
00000290: 4459 2e3e 0125 b03d b7f8 52bd 4363 803f
000002a0: 6878 153d c58e 843e dc73 49bd 02fb cabe
000002b0: 941c 33be 824c f5bd 1ef3 0fbd 704d 403e
000002c0: 71bc 8abe 7b40 823e 14cd 953e 694c f03d
000002d0: 082c 383d 2060 dc3a 1442 173e 6393 bf3e
000002e0: 7c22 583f 3fee e73e fb32 d5bd 9154 e23c
000002f0: 6333 98be afd8 173e c41f f5bd 5a66 c23d
00000300: d6d3 193d a058 84bd 2402 6a3f 6876 4d3f
00000310: 2559 b33e d129 f2be 6139 513e 5e84 12bd
00000320: f1ab af3e fe20 8a3e f4ae 753f 2797 e4bf
00000330: 4a76 42bf 2f96 163e c137 b23e d63d 983e
00000340: de13 41bd b6b8 97be 3df8 18be aa96 12be
00000350: 0f5d f93e d320 933e f435 84be 96ff d63e
00000360: 1a51 32be 932c 2e3f 6ccd c1be 9eb9 0d3f
00000370: 4c56 2b3e bf77 3b3f 2cb5 1cbf db59 bb3e
00000380: 5b39 d6bb 6e7f f13e 9ced 8e3e 872e d7bd
00000390: 2dd6 48be 2438 c43d c861 d53b 974c 663f
000003a0: 4f5a 03be d611 9bbe 1807 22be ec81 65bd
000003b0: 2d7b 84be 83b7 3d3e 8b53 86be f280 5a3e
000003c0: a491 a63e d7c0 3e3f e262 abbe 20e5 563e
000003d0: deb9 823c de5a df3c f326 f2bd 4301 263f
000003e0: 07d9 143f 8bd0 b23d 6d2b cabd 62ba 68bd
000003f0: 7944 193e c351 29bf af27 20be 2075 1a3f
