models/0_2023_2023/Temporal_GraphSage_Attention/90.pth (torch, 171618 bytes, 25 tensors)

conv1.lin_l.weight f4 [64, 12]
0.011101671 0.019688208 0.01844831 0.00032982344 -0.7653887 -1.4820634 -0.5265556 -0.30436823
-0.03566684 0.13630229 -0.63373005 0.44068834 -0.009098093 -0.041529164 -0.044122037 0.0008130793
-0.6187286 -0.10859716 -0.53616685 -0.30178434 0.4805648 0.14250392 -0.94189894 0.35005277
0.02122623 -0.0067834603 -0.007960845 0.000691025 -0.57421213 -1.3859543 -0.44581258 -0.23867394
0.16728131 0.17542222 -0.8704705 0.5905373 -0.1293021 0.0059678797 -0.0032172534 0.00065551174
-3.5941737 0.8009239 -3.3984869 -3.8229027 1.7003928 3.0159657 -3.846825 0.41500983
-0.13699496 0.06624139 0.066417366 0.0006190263 -0.44302717 0.7009412 -0.328119 -0.480394
0.5682854 -0.055884466 0.22799675 -0.26564595 -0.0705348 -0.019565752 -0.020238705 0.0011382605
-0.5669261 -1.3349679 -0.52098733 -0.27992404 0.15028189 0.17410779 -0.88246465 0.5282868
0.0012328682 0.023703098 0.023050504 0.00026450487 -0.6967037 -1.5451661 -0.45946184 -0.2163698
-0.052055754 0.10626039 -0.5881314 0.46518165 -0.1877835 -0.051400144 -0.049820185 0.00086323137
1.594236 0.53218937 1.6532717 2.7831664 0.073355675 -1.7370633 3.8817248 -0.9202758
-0.0031567747 -0.002377364 -0.0049492195 -0.0044312384 -0.0040989206 -0.005199956 -0.0038005027 -0.0047040023
-0.004680158 -0.0051276092 0.0004181493 -0.00074423506 -0.23828486 -0.12002393 -0.120041266 0.00064092927
-0.40214854 0.027410839 -0.023657817 -0.4847766 -0.19898435 -0.49796715 -0.83854496 -0.6545665
-0.062286153 -0.07451682 -0.07541159 0.000510258 -0.72495574 -0.18096384 -0.5879943 -0.3268816
0.29514214 0.10444726 -0.7505962 0.34168485 0.09160772 -0.03029217 -0.0322068 0.0004203307
-0.38725427 -1.876919 -0.2707935 0.17838109 0.28628296 0.16579254 -1.645753 0.705284
-0.00040943903 -0.00041661263 4.854792e-06 -0.0004993317 -0.0009517182 -0.00052742875 -0.00020579311 0.00077238044
0.0007515112 -0.00061282597 -3.9273775e-05 -0.00029520388 -0.030156653 -0.018625729 -0.020229783 0.0010051066
-0.61143684 -1.3517821 -0.45847327 -0.29876244 0.122442715 0.17479631 -0.82955605 0.6266587
0.00035007927 -0.00052061636 -0.00061410724 -0.00035867887 -0.00032029598 0.00044532443 -0.00022739923 0.00086263975
-0.00056120445 -0.00031984178 0.0003723909 0.0008168835 0.00062174624 -0.00024265947 -8.136813e-05 -0.0004582637
0.0005771685 -0.00059437315 -0.00027482488 -0.0008548733 -0.0009858602 0.00057171 6.948732e-05 0.00081537064
0.00042862195 9.8858036e-05 0.00027332106 -0.00026544047 0.0005424142 0.0004902004 0.00034750853 -2.9525816e-05
0.00014995654 4.5381353e-06 -0.00074228965 0.00023743675 -0.001230336 -4.4363103e-05 -0.0007830364 -0.0003341068
-0.00048614462 0.000805194 -0.00072880695 0.00052226684 0.0005094185 0.0007232136 0.0002562728 0.00055759214
-0.008998056 -0.019701675 -0.020433784 -0.00026309217 -0.851101 -0.69308096 -0.5416247 -0.2617486
-0.1895853 0.06723883 -0.543178 0.40575245 -0.0011754906 0.00026478316 -0.0011940658 -0.001194247
-0.0008824364 -0.0003947642 8.4281135e-05 -0.0010290302 0.00055882364 0.00065283256 6.368796e-05 0.000617245
0.0077683236 0.0036225142 0.0025910772 0.0006172865 -0.6067627 -1.3994865 -0.40893885 -0.19079913
0.17753012 0.18358727 -0.7602358 0.5792942 -0.034600053 -0.0013918984 -0.0017999981 0.00094371
00000000: c8e3 353c 2a49 a13c e920 973c 27ec ac39
00000010: 84f0 43bf 41b4 bdbf 59cc 06bf 27d6 9bbe
00000020: 6417 12bd d492 0b3e 223c 22bf e7a1 e13e
00000030: 2b10 15bc 7c1a 2abd 4fb9 34bd d424 553a
00000040: ff64 1ebf 3068 debd 3b42 09bf 7a83 9abe
00000050: 970c f63e 8cec 113e 4a20 71bf 1e3a b33e
00000060: a1e2 ad3c ca47 debb 346e 02bc e725 353a
00000070: 91ff 12bf f366 b1bf 8c41 e4be f166 74be
00000080: cb4b 2b3e e2a1 333e 28d7 5ebf 742d 173f
00000090: c567 04be 348e c33b 8ed8 52bb a6d6 2b3a
000000a0: f106 66c0 5909 4d3f cf80 59c0 70aa 74c0
000000b0: 79a6 d93f 9505 4140 6132 76c0 2b7c d43e
000000c0: 6848 0cbe 91a9 873d d405 883d 2746 223a
000000d0: 75d4 e2be e270 333f 37ff a7be 34f6 f5be
000000e0: 277b 113f 1ce7 64bd fb77 693e bf02 88be
000000f0: 8d74 90bd 5b48 a0bc a4cb a5bc af31 953a
00000100: 1222 11bf 3ae0 aabf 6d5f 05bf 3452 8fbe
00000110: 7fe3 193e 5049 323e 34e9 61bf ce3d 073f
00000120: 3198 a13a 002d c23c 69d4 bc3c 3ead 8a39
00000130: 2c5b 32bf 01c8 c5bf 953e ebbe 0b90 5dbe
00000140: 6a38 55bd 0c9f d93d c88f 16bf 4a2c ee3e
00000150: 514a 40be f588 52bd 4010 4cbd 7a4a 623a
00000160: ed0f cc3f 903d 083f 689e d33f 661f 3240
00000170: 803b 963d 1758 debf 2e6e 7840 3297 6bbf
00000180: e4e1 4ebb 8dcd 1bbb 102d a2bb ec33 91bb
00000190: 3d50 86bb 6464 aabb db11 79bb 0824 9abb
000001a0: 035c 99bb 8105 a8bb 0d3b db39 c518 43ba
000001b0: f200 74be 1bcf f5bd 32d8 f5bd 0904 283a
000001c0: 6ae6 cdbe b28c e03c 0ace c1bc a334 f8be
000001d0: 8ec2 4bbe 8df5 febe e2aa 56bf ac91 27bf
000001e0: c41f 7fbd 469c 98bd 6471 9abd d6c2 053a
000001f0: b396 39bf 964e 39be cb86 16bf 065d a7be
00000200: df1c 973e 72e8 d53d 1327 40bf 51f1 ae3e
00000210: d49c bb3d 4927 f8bc 47eb 03bd d55f dc39
00000220: 3146 c6be e23e f0bf 72a5 8abe 88a9 363e
00000230: ae93 923e 85c5 293e 09a8 d2bf 7e8d 343f
00000240: faa9 d6b9 cd6c dab9 59e6 a236 95e5 02ba
00000250: ba7c 79ba 2543 0aba 2bca 57b9 9379 4a3a
00000260: 1001 453a 0ea6 20ba e5b9 24b8 98c5 9ab9
00000270: 160b f7bc fc94 98bc eeb8 a5bc c8bd 833a
00000280: 2087 1cbf 3207 adbf 02bd eabe 64f7 98be
00000290: 3fc3 fa3d cefd 323e c95d 54bf b46c 203f
000002a0: d88a b739 f979 08ba 0afc 20ba 100d bcb9
000002b0: 66ed a7b9 6f7a e939 0472 6eb9 c622 623a
000002c0: cb1d 13ba 70b0 a7b9 763d c339 2024 563a
000002d0: affc 223a 6872 7eb9 2fa4 aab8 1d43 f0b9
000002e0: 1f4d 173a b5cf 1bba 5f16 90b9 9319 60ba
000002f0: fb37 81ba cfde 153a b9b9 9138 99be 553a
00000300: aab8 e039 0152 cf38 884c 8f39 d12a 8bb9
00000310: cd30 0e3a cb80 003a ce31 b639 35ae f7b7
00000320: a73d 1d39 4946 9836 3796 42ba 71f8 7839
00000330: 3a43 a1ba 8512 3ab8 af44 4dba 0e2b afb9
00000340: 3ae1 feb9 a813 533a 680d 3fba bce8 083a
00000350: 7f8a 053a 0b96 3d3a 5a5c 8639 602b 123a
00000360: 956c 13bc 6865 a1bc c064 a7bc a2ef 89b9
00000370: c1e1 59bf c16d 31bf eba7 0abf ea03 86be
00000380: a622 42be 83b4 893d b70d 0bbf c9be cf3e
00000390: eb12 9aba 98d2 8a39 3382 9cba 4888 9cba
000003a0: 4e53 67ba 5bf8 ceb9 17c0 b038 86e0 86ba
000003b0: 057e 123a da22 2b3a 3790 8538 9cce 213a
000003c0: 6c8d fe3b b467 6d3b 10cf 293b 65d1 213a
000003d0: cd54 1bbf 6022 b3bf 6f60 d1be d960 43be
000003e0: 75ca 353e 4dfe 3b3e d09e 42bf a04c 143f
000003f0: c9b8 0dbd 5c70 b6ba eaed ebba 4e63 773a

conv1.lin_l.bias f4 [64]
0.01971472 -0.04190788 -0.008207274 0.0036375911 0.06770109 -0.019141702 0.0232098 -0.051685285
-0.0041803694 -0.121427216 -0.07327537 -0.03079917 0.00088775874 -0.018006925 -0.00034484884 -0.0003372621
0.00049198564 -0.000203071 -0.019697677 -0.0012146358 0.0034842333 -0.0009047128 -0.048689235 -0.00049172394
-0.21712638 0.00043708633 -0.21464387 -0.008994959 -0.045806043 -0.07198403 -0.027588032 -0.00074703427
0.0009883725 -0.21939787 -0.011740288 -0.041234642 -0.2665384 6.726917e-05 -0.02277989 -0.20615508
-0.045684174 0.19260177 -0.0037372867 0.0010081062 -0.15876085 -0.00039304793 0.00039517303 -0.0009068034
-0.0005244827 -0.1780317 -0.04999619 -0.02914573 -0.05218536 -0.12785326 -0.0420465 -0.00068946957
0.11215448 -0.10101091 -0.0012288872 -0.23678032 0.00010870949 -0.14948328 0.00025819615 -0.0665039
00000000: c480 a13c 99a7 2bbd cd77 06bc a764 6e3b
00000010: dea6 8a3d 0fcf 9cbc 7a22 be3c f3b3 53bd
00000020: 7bfb 88bb d5ae f8bd 6611 96bd 8a4e fcbc
00000030: 7bb8 683a 4283 93bc d4cc b4b9 8ed2 b0b9
00000040: 99f8 003a 75ef 54b9 065d a1bc 6a34 9fba
00000050: bc57 643b 402a 6dba 5d6e 47bd 09e7 00ba
00000060: 6156 5ebe bc28 e539 9acb 5bbe 985f 13bc
00000070: 1e9f 3bbd 5d6c 93bd 4c00 e2bc 9fd4 43ba
00000080: 478c 813a d6a9 60be 565a 40bc a8e5 28bd
00000090: b977 88be dc12 8d38 e49c babc 511a 53be
000000a0: 541f 3bbd 6639 453e 44ed 74bb 6e22 843a
000000b0: 3492 22be 0012 ceb9 3a2f cf39 8cb6 6dba
000000c0: 707d 09ba f14d 36be cec8 4cbd 07c3 eebc
000000d0: 51c0 55bd f7eb 02be f338 2cbd 85bd 34ba
000000e0: 3fb1 e53d cfde cebd 9d12 a1ba 8a76 72be
000000f0: f7fa e338 2512 19be 805e 8739 3233 88bd

conv1.lin_r.weight f4 [64, 12]
0.007729426 0.019385533 0.018881982 0.0013914695 -0.196686 0.07461995 -0.1378253 0.60098356
-0.10479394 0.10575868 -1.3840625 0.9209489 -0.038399413 -0.040808253 -0.043587215 0.00039483825
-0.22181195 0.0974069 -0.16934119 -0.4273139 0.2131483 0.23132022 -1.3074981 1.1156923
-0.06427152 -0.0075091235 -0.007712795 0.00055852416 -0.11875808 -0.26618528 -0.06724937 -0.08436076
-0.091668524 0.099771306 -1.4542404 1.280447 -0.029098198 0.0058587217 -0.0034629016 -0.0005108119
-4.1397047 0.8127599 -1.8249735 -1.8401978 -0.17169577 1.2269518 -2.7672544 -3.882093
-0.083675936 0.06673729 0.065697104 0.00046283862 -0.06113528 0.26285577 0.3432199 -0.09153279
0.5122081 -0.30658907 0.0026459114 0.78620934 -0.04761323 -0.017911583 -0.021315167 0.0004144802
-0.024674486 -0.21330313 -0.2417524 -0.4952839 -0.103517845 0.37356544 -1.2718911 1.2425791
0.012595981 0.023083355 0.022961512 0.0014070768 -0.14010742 0.036962725 -0.07149579 0.6406243
-0.11856971 0.076020256 -1.3954256 0.9661534 -0.19439541 -0.05159529 -0.049079333 -0.00023631887
0.100846834 -0.58308154 -0.2552729 -0.09926 0.080257215 -2.3746502 1.467017 -1.5626677
-0.0043238075 -0.0030994772 -0.0035297417 -0.0006348362 0.00013764466 0.00044041578 -0.0034413047 -0.0007697279
-0.004827386 0.0002979655 -3.2835454e-05 -0.0006902305 -0.34553766 -0.12138453 -0.12150374 -0.00014439065
0.6630749 -0.026781904 0.79762524 0.124507055 0.4549641 0.66164416 -0.80056673 0.9979357
-0.0908593 -0.073997155 -0.07419862 0.001269798 -0.20041016 0.1652535 -0.22980969 0.6914305
0.20338418 0.33397707 -1.3608971 0.9395008 -0.14219439 -0.030868703 -0.03339966 0.0006305611
-0.19196224 -0.76441437 0.07431634 -0.7962531 0.20178115 0.34128836 -1.6638619 1.5643365
-0.00088174717 0.00026049252 0.00057723635 -0.00037151706 -0.0010156084 0.0008288601 -0.00024008553 0.00020463864
-0.0002875251 0.0006522837 0.0009975386 0.0006411461 -0.024292357 -0.01772925 -0.019391429 0.00056860136
-0.21073325 -0.19543189 -0.108541444 -0.30593327 -0.24349901 0.1640675 -1.3767352 1.2263867
0.0009846169 -0.0005185517 -0.000343388 -0.0009183725 -0.00010128367 7.016148e-05 0.0002799875 -0.0007115624
-0.00011836061 -0.00084280997 -0.00083200436 0.00013331893 -0.0010017928 -0.00013400949 -0.0010667231 -0.0007117079
-0.00021223223 -0.0009760605 0.00082606677 0.00083805784 -0.00053425075 0.00021426087 0.00052325 0.0003250261
-0.00014071164 -0.0014026081 0.0006077093 -0.0008971144 -0.00018942748 6.3447245e-05 -0.00033685885 -0.00037410413
-0.0008839953 5.6356905e-05 -0.00011613713 0.0008917022 -0.00034152882 0.00024992507 -0.0001252326 -0.00045953767
-0.0002432463 -0.000116071315 1.0594636e-05 -0.00016851316 0.00030354675 0.0008423159 0.00016077154 0.00037048076
-0.032928172 -0.01968188 -0.020325417 0.0010762006 -0.44987157 0.45520878 -0.050044704 0.9263407
0.006188493 0.2529999 -1.3507633 1.0963124 -0.0009997515 0.00032906182 0.00048175603 -2.6339934e-05
-0.00014274623 0.00073752645 0.00020011934 -0.00025511716 -0.0003200353 9.3580624e-05 6.583471e-05 -0.00025235914
-0.04427862 0.004303506 0.0018803147 0.0007497935 -0.017894907 -0.06460365 -0.103938706 0.2599526
-0.095662996 0.28452918 -1.3851365 1.2030162 -0.055014133 -0.0012343026 -0.0035641124 0.00044232144
00000000: 2047 fd3b 69ce 9e3c 63ae 9a3c f861 b63a
00000010: 0e68 49be 58d2 983d 1322 0dbe 0fda 193f
00000020: 359e d6bd 0298 d83d f628 b1bf 4fc3 6b3f
00000030: b448 1dbd 8e26 27bd 8288 32bd 4b02 cf39
00000040: ac22 63be 457d c73d c767 2dbe e3c8 dabe
00000050: 8c43 5a3e 35df 6c3e 195c a7bf 01cf 8e3f
00000060: c9a0 83bd 180f f6bb 9dbb fcbb ec69 123a
00000070: 7037 f3bd 7049 88be 0aba 89bd 56c5 acbd
00000080: b5bc bbbd e654 cc3d 8d24 babf b0e5 a33f
00000090: 585f eebc 85fa bf3b d9f1 62bb 02e8 05ba
000000a0: 7678 84c0 0811 503f bb98 e9bf 9a8b ebbf
000000b0: 04d1 2fbe c20c 9d3f b21a 31c0 3674 78c0
000000c0: 4a5e abbd 8fad 883d 348c 863d 26a9 f239
000000d0: fd68 7abd 0895 863e 85ba af3e 8b75 bbbd
000000e0: 1220 033f 3ef9 9cbe 0767 2d3b 0445 493f
000000f0: 1706 43bd 50bb 92bc 259d aebc 974e d939
00000100: 2622 cabc 236c 5abe f18d 77be da95 fdbe
00000110: 2a01 d4bd f843 bf3e 54cd a2bf d50c 9f3f
00000120: 605f 4e3c 4e19 bd3c c819 bc3c aa6d b83a
00000130: 5278 0fbe 3a66 173d 626c 92bd f4ff 233f
00000140: add4 f2bd 82b0 9b3d 4e9d b2bf d455 773f
00000150: 970f 47be 9555 53bd 6907 49bd 5dcc 77b9
00000160: c988 ce3d d544 15bf 21b3 82be d448 cbbd
00000170: e55d a43d 45fa 17c0 37c7 bb3f 7f05 c8bf
00000180: baae 8dbb 9920 4bbb 3d53 67bb 236b 26ba
00000190: b554 1039 9be7 e639 8387 61bb 91c7 49ba
000001a0: 0c2f 9ebb 4138 9c39 cdb8 09b8 96f0 34ba
000001b0: 50ea b0be 7498 f8bd f4d6 f8bd 9267 17b9
000001c0: 47bf 293f b965 dbbc 2b31 4c3f 8efd fe3d
000001d0: 0ef1 e83e 8361 293f f1f1 4cbf b778 7f3f
000001e0: 7114 babd d28b 97bd 72f5 97bd 5a6f a63a
000001f0: 5238 4dbe 3738 293e 3b53 6bbe 9701 313f
00000200: f143 503e 0bff aa3e e031 aebf 2083 703f
00000210: 689b 11be 5de0 fcbc 15ce 08bd 3d4c 253a
00000220: c091 44be a9b0 43bf 2a33 983d 3ed7 4bbf
00000230: b89f 4e3e 59bd ae3e 6df9 d4bf 2e3c c83f
00000240: 0d25 67ba b792 8839 ad51 173a 2dc8 c2b9
00000250: 2a1e 85ba dc47 593a 78bf 7bb9 4494 5639
00000260: f7be 96b9 05fe 2a3a d7bf 823a 9612 283a
00000270: c400 c7bc ef3c 91bc c6da 9ebc 310e 153a
00000280: 75ca 57be 4c1f 48be fa4a debd 49a3 9cbe
00000290: ce57 79be 5001 283e dc38 b0bf 3dfa 9c3f
000002a0: 430e 813a 6aef 07ba c208 b4b9 efbe 70ba
000002b0: 4268 d4b8 a823 9338 49cb 9239 2588 3aba
000002c0: 5e38 f8b8 05f0 5cba de1a 5aba 87cb 0b39
000002d0: 974e 83ba e684 0cb9 4ad1 8bba e991 3aba
000002e0: a88a 5eb9 50de 7fba 678c 583a 1cb1 5b3a
000002f0: f60c 0cba 37ab 6039 b72a 093a 4468 aa39
00000300: fe8b 13b9 b8d7 b7ba ae4e 1f3a 542c 6bba
00000310: 0da1 46b9 fb0e 8538 6e9c b0b9 6823 c4b9
00000320: ecbb 67ba c460 6c38 a68e f3b8 1fc1 693a
00000330: 390f b3b9 6008 8339 df50 03b9 1aee f0b9
00000340: ee0f 7fb9 506b f3b8 9dbf 3137 e8b2 30b9
00000350: 5b25 9f39 ddce 5c3a c894 2839 163d c239
00000360: b1df 06bd e53b a1bc 7d81 a6bc 4d0f 8d3a
00000370: 9155 e6be 2011 e93e adfb 4cbd aa24 6d3f
00000380: d8c8 ca3b 3489 813e d0e5 acbf f753 8c3f
00000390: 180a 83ba ee85 ac39 3394 fc39 94f4 dcb7
000003a0: 26ae 15b9 9056 413a 20d7 5139 3fc1 85b9
000003b0: 69ca a7b9 b740 c438 be10 8a38 124f 84b9
000003c0: 805d 35bd 6d04 8d3b e474 f63a ca8d 443a
000003d0: 5798 92bc eb4e 84bd d1dd d4bd 8218 853e
000003e0: f6ea c3bd cfad 913e 274c b1bf 6ffc 993f
000003f0: 8056 61bd 53c8 a1ba e293 69bb 61e7 e739

conv2.lin_l.weight f4 [64, 64]
-0.0018173364 0.0016751441 -0.0017199597 -0.0014542802 0.0012753839 -0.0014724301 0.001890676 0.0018556151
-0.0015131034 0.0014302423 0.0019927418 0.00072126 0.00018309451 0.0016551506 0.0017061015 -0.00044834588
0.0017094322 -0.0012009385 -0.0016817981 0.00052820006 0.00058107 0.0018570257 -0.0020267935 -0.0013387086
-0.0018864629 0.0018827827 -0.0019447809 -0.0018580556 -0.0014731422 0.0015945096 -0.0019703717 -0.002036093
0.0013044633 -0.0012335395 -0.0013915271 0.0015533795 -0.0014304837 0.0016689065 0.00057575817 -0.0019258044
-0.001896925 -0.0003025381 -0.001298616 -0.00200137 -0.0016547207 0.001744472 -0.0019004799 -0.0019447466
-0.001993522 0.0019462233 0.0010233527 0.000753929 -0.0018128661 -0.0013146446 -0.0020006364 0.0014628847
0.0016927499 0.0009852579 0.001735397 -0.0018345037 0.0017065138 -0.0021641378 0.0018939051 -0.0019853343
0.3049367 0.13597527 0.24535878 0.20211485 -0.28443262 0.27794 -0.3346851 -0.085221365
0.1758848 -0.2795388 -0.20841046 -0.3800546 -0.24604313 -0.25810468 -0.29266942 0.333729
-0.057664018 0.0029695341 0.16988572 -0.27805302 -0.4128797 0.46419665 0.17553043 0.33384624
0.3470743 -0.21629205 0.2996533 0.29263523 0.05755879 -0.21573229 0.28932667 0.10756858
-0.2638478 0.06775305 -0.09391363 -0.28834912 0.308402 -0.2552547 -0.34750977 0.26598912
0.037174873 0.2937982 0.15825629 0.2374221 0.35097775 -0.30644745 0.19292006 0.33423185
0.074225195 -0.33611974 -0.38919625 -0.26832777 0.24916406 0.06911182 0.12042909 -0.29924288
-0.14192759 -0.35732138 -0.2727514 0.28877324 -0.1220029 0.31071505 0.16437921 0.287375
-0.001824741 0.0014509805 -0.0016970526 -0.0012901395 0.0014948868 -0.0014275302 0.0013731214 0.0016907231
-0.0012589087 0.0017155895 0.0019841157 0.0017490458 0.0011886947 0.0013678091 0.002004026 -0.0017864639
0.002122819 -0.0019381165 -0.001830684 0.0019577264 0.0020928308 0.0011432556 -0.0014498566 -0.0020792687
-0.0019976674 0.001797309 -0.0018281755 -0.001690867 -0.0016044546 0.0012055087 -0.0020419036 -0.0014122481
0.0018921662 -0.0016887883 -0.0012068996 0.0013262973 -0.0017766024 0.0012958377 0.0020735175 -0.0015256534
-0.001566069 -0.0018345106 -0.0020897095 -0.0011334337 -0.0014472483 0.001521595 -0.0015935326 -0.001582339
-0.0018117157 0.0022174 0.0017403224 0.0016571828 -0.0014252228 -0.0016809579 -0.0014128739 0.001460646
0.0011742994 0.0015200608 0.0015203858 -0.0012576102 0.0016041278 -0.001981467 0.0012557302 -0.002010454
0.034981683 1.3656201 -1.6177214 -1.5215915 0.2870323 -0.5100673 -0.19412933 0.25815266
-1.4124002 0.019005949 0.1587383 0.72122425 0.3187598 1.0207968 0.09292039 -0.022629522
1.0910295 -1.791448 -1.6472653 0.21509455 0.24080928 2.0730643 -1.5855377 -0.017604878
7.236586e-05 1.332955 1.0210757 -0.17366287 0.4722733 1.1445673 -0.07385854 -0.97609806
0.59282357 -0.29788324 -2.0723734 0.18021978 0.018961975 0.092536055 0.05012443 -0.9874112
-1.9235107 -0.6245618 -0.12357357 -1.0732731 0.16062313 0.9515557 -1.1666323 -0.06193832
-0.9255102 -0.11326244 0.19964656 0.46712467 -0.078073554 -1.4911909 -0.07235561 0.021650068
0.81603944 0.5919645 0.00072246714 -0.5239442 1.2200838 0.0058890996 2.1310477 0.08386599
00000000: b133 eeba 8290 db3a 4570 e1ba 8c9d beba
00000010: c82a a73a 8efe c0ba 8fd0 f73a 1c38 f33a
00000020: 5353 c6ba f876 bb3a a998 023b f012 3d3a
00000030: 0ffd 3f39 a3f1 d83a 449f df3a f70f ebb9
00000040: 070f e03a cf68 9dba c86f dcba e876 0a3a
00000050: f352 183a 7167 f33a f4d3 04bb 9b77 afba
00000060: 3143 f7ba b4c7 f63a 05e8 feba 008a f3ba
00000070: 7316 c1ba ddfe d03a 5a21 01bb f96f 05bb
00000080: 86fa aa3a b8ae a1ba e763 b6ba c49a cb3a
00000090: 117f bbba 36bf da3a 7aee 163a 466b fcba
000000a0: 3ea2 f8ba fa9d 9eb9 5336 aaba 6b29 03bb
000000b0: 37e3 d8ba c4a6 e43a 8619 f9ba dee6 feba
000000c0: c0a5 02bb 6b18 ff3a 0522 863a 52a3 453a
000000d0: b19d edba 2750 acba 1c1d 03bb 44be bf3a
000000e0: 43df dd3a c523 813a 4376 e33a bb73 f0ba
000000f0: 1aad df3a 35d4 0dbb e93c f83a 621c 02bb
00000100: aa20 9c3e 1a3d 0b3e 553f 7b3e 32f7 4e3e
00000110: 27a1 91be 274e 8e3e d85b abbe 8a88 aebd
00000120: 251b 343e b61f 8fbe 8d69 55be 8496 c2be
00000130: bbf2 7bbe 4c26 84be c4d8 95be 87de aa3e
00000140: 1b31 6cbd 849c 423b 86f6 2d3e f75c 8ebe
00000150: f864 d3be 2fab ed3e 40be 333e e5ed aa3e
00000160: b9b3 b13e aa7b 5dbe 286c 993e 49d4 953e
00000170: c4c2 6b3d ede8 5cbe a022 943e ea4c dc3d
00000180: 0f17 87be 1cc2 8a3d ca55 c0bd 7fa2 93be
00000190: dee6 9d3e beb0 82be cdec b1be ba2f 883e
000001a0: ae44 183d b86c 963e f00d 223e c71e 733e
000001b0: 5bb3 b33e aee6 9cbe d68c 453e 7020 ab3e
000001c0: 6103 983d e317 acbe bb44 c7be 4262 89be
000001d0: dd24 7f3e 7f8a 8d3d 87a3 f63d 5d36 99be
000001e0: 7755 11be d4f2 b6be 12a6 8bbe 16da 933e
000001f0: a8dc f9bd 0b16 9f3e 0653 283e d122 933e
00000200: 262c efba d42e be3a a36f deba e619 a9ba
00000210: 14f0 c33a f71b bbba 4ffa b33a 419b dd3a
00000220: f701 a5ba a2dd e03a f007 023b 3d40 e53a
00000230: facd 9b3a 0f48 b33a fa55 033b c827 eaba
00000240: fe1e 0b3b 6608 feba 90f3 efba 334d 003b
00000250: e027 093b 4bd9 953a 1d09 beba 5744 08bb
00000260: 4ceb 02bb af93 eb3a 649f efba 15a0 ddba
00000270: 904c d2ba 2902 9e3a 75d1 05bb 2f1b b9ba
00000280: 9002 f83a 555a ddba d530 9eba 27d7 ad3a
00000290: e2dc e8ba 19d9 a93a dae3 073b 6ff8 c7ba
000002a0: 8e44 cdba f673 f0ba 82f3 08bb b98f 94ba
000002b0: 98b1 bdba 4270 c73a 15de d0ba 7d66 cfba
000002c0: 1777 edba cc51 113b 881b e43a d435 d93a
000002d0: 8bce baba 9653 dcba 2e30 b9ba 2673 bf3a
000002e0: f3ea 993a c73c c73a af47 c73a 65d6 a4ba
000002f0: 9941 d23a 80db 01bb 5097 a43a d2c1 03bb
00000300: f448 0f3d a4cc ae3f 7f11 cfbf 83c3 c2bf
00000310: e6f5 923e c593 02bf d7c9 46be 962c 843e
00000320: 88c9 b4bf 5db2 9b3c 4b8c 223e 27a2 383f
00000330: 7c34 a33e 78a9 823f 0c4d be3d 8c61 b9bc
00000340: dba6 8b3f 2b4e e5bf 97d9 d2bf bf41 5c3e
00000350: b596 763e 16ad 0440 e6f2 cabf 1b38 90bc
00000360: 20c3 9738 459e aa3f 9cb2 823f aed4 31be
00000370: cecd f13e 2e81 923f 2543 97bd 90e1 79bf
00000380: 49c3 173f 2784 98be c4a1 04c0 898b 383e
00000390: 2556 9b3c 8b83 bd3d 464f 4d3d fbc6 7cbf
000003a0: 9935 f6bf 48e3 1fbf 2414 fdbd 0361 89bf
000003b0: 647a 243e 2899 733f 3554 95bf 09b3 7dbd
000003c0: 3dee 6cbf 23f6 e7bd 2670 4c3e f72a ef3e
000003d0: 07e5 9fbd 58df bebf 2e2f 94bd 7c5b b13c
000003e0: f6e7 503f fc8a 173f f363 3d3a 3521 06bf
000003f0: b52b 9c3f 59f9 c03b 1663 0840 efc1 ab3d

conv2.lin_l.bias f4 [64]
0.054768167 -0.55680096 0.048300195 -1.041812 -0.20464051 0.052215625 0.045017697 2.2040334
-0.15652801 0.0005269289 0.2858543 0.22391239 -0.60810477 0.05255681 -0.6379962 -0.45176277
-0.07112664 -0.5017541 0.252524 -1.0796446 0.05092752 0.046892375 -0.3403691 -0.13906308
0.017901061 -0.45221168 -0.005194166 0.046858285 -0.0019464775 -0.6104058 0.033125173 -0.46335283
-0.067675054 -0.41917473 0.054009795 -0.1092996 0.70617276 -0.47105637 0.05158495 -0.6126087
0.04631113 -0.022958629 -0.6466085 -0.655726 -0.3919137 0.034549564 -0.6517149 -0.17298342
-0.16122827 -0.49991426 0.049187016 0.050212856 -0.074377194 -0.35375762 0.052278057 -0.33810198
0.010073829 -0.4055561 -0.32060567 -0.5344346 -0.66145116 -0.14419484 -0.09435915 2.0337079
00000000: 9654 603d 828a 0ebf 6dd6 453d 185a 85bf
00000010: 488d 51be 0de0 553d 7a64 383d e20e 0d40
00000020: e148 20be 9a21 0a3a 7f5b 923e 4a49 653e
00000030: c1ac 1bbf cf45 573d b853 23bf 734d e7be
00000040: d8aa 91bd f572 00bf d34a 813e cb31 8abf
00000050: 6099 503d 3812 403d dc44 aebe 8d66 0ebe
00000060: 3fa5 923c 4a88 e7be d333 aabb 79ee 3f3d
00000070: f220 ffba 8e43 1cbf 43ae 073d 953c edbe
00000080: 3899 8abd 129e d6be 6039 5d3d 78d8 dfbd
00000090: bdc7 343f 4d2e f1be be4a 533d ecd3 1cbf
000000a0: bdb0 3d3d bc13 bcbc 2288 25bf a9dd 27bf
000000b0: eaa8 c8be d883 0d3d cad6 26bf 9122 31be
000000c0: 0619 25be c3f4 ffbe 5378 493d ffab 4d3d
000000d0: 1253 98bd b81f b5be 8421 563d b41b adbe
000000e0: b40c 253c 0da5 cfbe 6d26 a4be b5d0 08bf
000000f0: dd54 29bf d0a7 13be 5f3f c1bd 4528 0240

conv2.lin_r.weight f4 [64, 64]
-0.00083916326 0.00073483575 -0.00042507832 -0.00056834816 0.00028655108 -0.00019853139 0.00026169882 0.0002364929
-0.001048681 0.00028613105 0.00025244008 0.0010153882 0.0008357254 0.00022535361 0.0010114992 -0.001074131
0.0007121737 -0.0007700804 -0.00035034303 0.00040057255 0.000583905 0.0008073059 -0.0007913941 -0.0007624978
-0.0005075581 0.00071708596 -0.00071531726 -0.0009905433 -0.0005989618 0.00089578 -0.00037482075 -0.00019277031
0.0005160663 -0.0008373039 -0.0009158084 0.0005034799 -0.00064983836 0.00027747167 0.00085273304 -0.00088761037
-0.00038863992 -0.00045925414 -0.0004568106 -0.00068769243 -0.00078659266 0.0010032087 -0.0008733521 -0.0002569693
-0.00062434806 0.00094426074 0.00056637963 0.00020578198 -0.00016390091 -0.0006967885 -0.00037932763 0.00031708524
0.0008173448 0.000822215 0.0008061592 -0.0010451472 0.00040402505 -0.00056738965 0.0003671257 -0.0007443823
-0.08709796 -0.023161475 -0.009420646 -0.040083572 -0.0907306 0.00038939997 0.07991932 0.0860465
-0.012693634 -0.015958808 -0.028742459 -0.0066067805 0.0915327 -0.0376175 -0.012498238 0.007881732
-0.14907587 0.14144607 0.09725578 -0.28458408 -0.13746935 -0.10159232 0.1274319 -0.072482795
-0.018909197 -0.01599605 -0.096897684 0.09571919 -0.042590857 0.085398465 -0.037855178 -0.09800198
-0.048688527 -0.107289195 0.007693327 0.067266725 -0.019332534 -0.015604376 -0.02022812 -0.058436748
0.07548843 -0.0653646 0.10760889 -0.058564313 -0.0202598 0.02649864 0.12060396 -0.006092841
0.031663373 -0.12419665 -0.083694056 -0.112739906 0.070581794 0.15714133 0.015446065 0.06035776
0.03795211 -0.092683084 0.00038928795 0.06428207 -0.024016384 -0.024903772 -0.05113007 -0.020584438
-0.0006622637 0.00012309318 -0.00085368543 -0.00054497767 0.00056363747 -0.00015643053 0.0008256878 0.0007398438
-0.000510788 0.0007438327 0.00055912614 0.00017921225 0.0007773382 0.00019772306 0.0006331783 -0.0005630721
0.000991378 -0.0009791487 -0.0007380404 0.0009734261 0.00018859106 0.0006692161 -0.00097042666 -0.00073394115
-0.00064395915 0.0005869229 -0.0014611003 -0.00021868087 -0.0001878755 0.00034839674 -0.0008457613 -0.0006578773
0.00080087525 -0.00082976604 -0.00072462077 0.00023061132 -0.0009855871 0.00088126987 0.0004393737 -0.0002768304
-0.00036979513 -0.00041408904 -0.0009207929 -0.0006296071 -5.6566194e-05 0.0006349941 -0.0007575947 -0.0001908228
-0.00040005514 0.000276698 0.000602255 0.00037129552 -0.0004849182 -0.0004018056 -0.00011956699 0.0005643417
0.00045985857 0.0007811587 0.00028216868 -0.00015375872 0.00080141093 -0.00072261726 0.00040953857 -0.0005503197
0.0035623081 -1.0143692 1.8228718 1.6432366 -1.2292458 1.1508853 0.15980715 -0.21958874
1.627638 -0.6265951 -0.8625987 -1.8253201 -0.7344801 -2.2020397 -0.90051144 0.51081586
-1.8402829 1.5695816 1.8072867 -0.7899391 -1.3384279 -1.2563511 1.978025 0.46297464
0.52151257 -1.8714795 -0.7072188 1.5023807 0.4029362 -1.5447314 0.64874566 1.3512397
-1.5734556 0.30378535 1.3172145 -0.6264466 0.49492833 -0.94519055 -0.7316598 1.9446514
1.488812 1.5248873 1.2496507 1.6393623 -0.14596337 -1.856381 2.0692933 0.54832834
1.541895 0.10830129 -1.288818 -2.143382 0.9780646 1.5520605 0.11752029 -0.5333366
-1.1860899 -2.3774035 -0.5526046 1.693391 -1.4439933 0.40667424 -1.3030186 0.28100693
00000000: 4bfb 5bba fea1 403a 0cdd deb9 33fd 14ba
00000010: 3c3c 9639 dd2c 50b9 9f34 8939 14fb 7739
00000020: e573 89ba dc03 9639 ef59 8439 c616 853a
00000030: 9514 5b3a e64c 6c39 4894 843a dbc9 8cba
00000040: 2bb1 3a3a 39df 49ba 3fae b7b9 f003 d239
00000050: 3411 193a 62a1 533a 8f75 4fba 5ce2 47ba
00000060: a60d 05ba d3fa 3b3a 2184 3bba 1ed5 81ba
00000070: a503 1dba c7d2 6a3a 9783 c4b9 6322 4ab9
00000080: a048 073a 837e 5bba dd12 70ba f7fb 033a
00000090: ea59 2aba 9e79 9139 f289 5f3a 86ae 68ba
000000a0: 5ec2 cbb9 0cc8 f0b9 1580 efb9 4246 34ba
000000b0: 5733 4eba 197e 833a abf1 64ba d6b9 86b9
000000c0: 4aab 23ba 4488 773a 1879 143a 2ec7 5739
000000d0: d1dc 2bb9 afa8 36ba 7ee0 c6b9 763e a639
000000e0: 1543 563a ea89 573a 6e54 533a 52fd 88ba
000000f0: 53d3 d339 e0bc 14ba c77a c039 a722 43ba
00000100: 6a60 b2bd 22bd bdbc 0e59 1abc ac2e 24bd
00000110: f7d0 b9bd 6128 cc39 beac a33d 2639 b03d
00000120: f6f8 4fbc 0cbc 82bc 4e75 ebbc b17d d8bb
00000130: 7f75 bb3d cf14 1abd 69c5 4cbc 6122 013c
00000140: 58a7 18be 3dd7 103e 0a2e c73d 01b5 91be
00000150: c4c4 0cbe a20f d0bd 827d 023e dc71 94bd
00000160: 76e7 9abc 260a 83bc 4b72 c6bd 6c08 c43d
00000170: c073 2ebd 64e5 ae3d 080e 1bbd 43b5 c8bd
00000180: 9f6d 47bd 70ba dbbd 4e18 fc3b 23c3 893d
00000190: 435f 9ebc 7fa9 7fbc 71b5 a5bc 5f5b 6fbd
000001a0: ae99 9a3d e0dd 85bd 0d62 dc3d 22e1 6fbd
000001b0: e1f7 a5bc ad13 d93c 35ff f63d 74a6 c7bb
000001c0: 74b1 013d d05a febd ca67 abbd 2ee4 e6bd
000001d0: 308d 903d a8e9 203e 7e11 7d3c b339 773d
000001e0: ac73 1b3d a1d0 bdbd 5819 cc39 51a6 833d
000001f0: 02be c4bc ff02 ccbc c46d 51bd b2a0 a8bc
00000200: c49b 2dba 9312 0139 dcc9 5fba d5dc 0eba
00000210: 12c1 133a 8007 24b9 f872 583a 14f2 413a
00000220: 67e6 05ba c4fd 423a 5292 123a ecea 3b39
00000230: 49c6 4b3a e153 4f39 e0fb 253a 219b 13ba
00000240: 20f1 813a c756 80ba 0e79 41ba 852d 7f3a
00000250: 87c0 4539 556e 2f3a 3b64 7eba f565 40ba
00000260: 5ecf 28ba bbdb 193a 6482 bfba b34d 65b9
00000270: 7200 45b9 05a9 b639 14b6 5dba 6675 2cba
00000280: d4f1 513a a884 59ba 7af4 3dba 41d0 7139
00000290: d12e 81ba 0505 673a bd5b e639 8c23 91b9
000002a0: 10e1 c1b9 171a d9b9 5e61 71ba 380c 25ba
000002b0: 7d41 6db8 bc75 263a 5299 46ba 9b17 48b9
000002c0: 7ebe d1b9 c711 9139 a6e0 1d3a 71aa c239
000002d0: 9e3c feb9 6fa9 d2b9 0ac0 fab8 55f0 133a
000002e0: 2c19 f139 acc6 4c3a 0af0 9339 4b3a 21b9
000002f0: c715 523a 066e 3dba 56b7 d639 5443 10ba
00000300: 9d75 693b dad6 81bf dd53 e93f 9455 d23f
00000310: ed57 9dbf 3650 933f 7ca4 233e dfdb 60be
00000320: 7156 d03f 8968 20bf 45d3 5cbf 17a4 e9bf
00000330: e306 3cbf 38ee 0cc0 eb87 66bf d4c4 023f
00000340: 648e ebbf 0de8 c83f 2c55 e73f 7339 4abf
00000350: 9b51 abbf 1dd0 a0bf ec2f fd3f 030b ed3e
00000360: d981 053f a48c efbf 4b0c 35bf 034e c03f
00000370: a74d ce3e c2b9 c5bf 3214 263f 6cf5 ac3f
00000380: fe66 c9bf c189 9b3e 7c9a a83f ce5e 20bf
00000390: 3f67 fd3e 02f8 71bf 0f4e 3bbf 56ea f83f
000003a0: 6491 be3f 822f c33f 8ef4 9f3f a0d6 d13f
000003b0: 6c77 15be e59d edbf 4d6f 0440 3f5f 0c3f
000003c0: d15c c53f 11cd dd3d fdf7 a4bf 2c2d 09c0
000003d0: 7162 7a3f eba9 c63f 7aae f03d bf88 08bf
000003e0: cbd1 97bf 6127 18c0 7f77 0dbf 09c1 d83f
000003f0: c6d4 b8bf 9b37 d03e 50c9 a6bf 24e0 8f3e

attention.query_linear.weight f4 [64, 64]
0.0007097953 0.110290945 0.00061896484 0.29047638 -0.3991868 0.0008585244 0.00032244928 0.18295929
0.0010524696 0.07461229 -0.13257287 0.00086221594 -0.17264491 0.0005031286 -0.06856304 0.10436772
0.00087106385 0.39664784 -0.032511823 -0.21579702 0.0010083057 0.0004042065 0.09035036 0.0006421867
0.13638635 0.10284068 0.16389972 0.0007956069 0.00024493883 0.01308018 0.00046696115 -0.020821901
0.00067265006 0.13360235 0.0010312739 -0.33884126 0.017218027 -0.020863315 0.00086584047 0.04888482
0.00024081922 -0.62232155 0.055745557 -0.07023679 0.0009288429 -0.00071276067 -0.10049413 0.00051719445
0.00096721464 0.00021321945 0.0005917775 0.00033434652 0.00020130599 -0.0946104 0.001020876 0.00047377008
-0.251018 0.00043486053 0.00024106953 0.21257931 0.22095622 0.07358042 0.00083128794 0.29679346
0.0004466331 0.11765873 0.00040619215 -0.1360163 0.35860172 0.0007915535 0.00028636286 0.13417
0.00050078606 0.16320068 0.096875556 0.00078520784 -0.23167017 0.00023613854 0.033605117 0.1959546
0.00046766122 0.3831046 -0.26787272 -0.0016188025 0.00068075076 0.0009530316 0.083428055 0.0007322332
-0.011465393 0.19481531 -0.080755845 0.00024240045 0.00063668424 0.21298708 0.0004386326 -0.0111546805
0.0006264965 -0.069589294 0.00029408504 0.30771998 0.11079836 -0.011657271 0.0007687509 -0.0030059912
0.00035010074 0.25935706 0.06355695 0.030533714 0.00017604392 -0.00039374866 -0.00075594755 0.0001865233
0.0006585371 0.00082350336 0.0007645636 0.00075874064 0.0007311407 0.06499594 0.00064309087 0.0007944098
0.07561361 0.00094691396 0.00035797016 -0.022921097 0.28621024 0.1631748 0.0010211231 0.03941119
-0.00027826248 -0.090657234 -0.00071426015 -0.32230356 0.39902762 -0.00028021482 -0.000884822 -0.1666747
-0.00085540774 -0.0511539 0.14698836 -0.0007368206 0.15918869 -0.0007071376 0.08584737 -0.09438542
-0.00030044012 -0.3810133 0.07491116 0.22806609 -0.0008845619 -0.0010182981 -0.07137149 -0.00020134632
-0.10517394 -0.09343719 -0.12598833 -0.0006849647 -0.00031925776 -0.0049830317 -0.0006630948 0.023388945
-0.00088254886 -0.09401519 -0.00040822683 0.3129543 -0.010217367 0.0245691 -0.0008951514 -0.020636875
-0.0009965246 0.5961391 0.27336052 0.08662872 -0.00083143596 -3.013156e-06 0.1182703 -0.00087614276
-0.00093324255 -0.0005106511 -0.0004975195 -0.0009151685 -0.0008154177 0.10678315 -0.0008247416 -0.0005962688
0.27359575 -0.0002037351 -0.0005020281 -0.17585176 -0.21258682 -0.05482466 -0.0006450694 -0.33981726
-0.00080109463 -0.15467167 -0.00091570575 -0.0074891695 -0.007958949 -0.0005337868 -0.00054949825 -0.20885506
-0.00048751422 -0.13513212 0.08558888 -0.00078021985 0.27825376 -0.00074845465 0.0032557764 -0.13813315
-0.0007112374 -0.40256765 0.315148 0.161337 -0.00014364177 -0.0007854945 -0.10990486 -0.00015094475
-0.06607116 -0.13638338 0.009349885 -0.0009351093 -0.00041749596 -0.10882532 -0.00024554573 -0.026961096
-0.0005767228 0.013913915 -0.0009706132 0.06411853 -0.057138525 -0.02648576 -0.00016462106 -0.0073869256
-0.00015692727 0.30546802 -0.05734981 0.006034333 -0.00043547695 0.00026307048 0.031081596 -0.0005098504
-0.0006914112 -0.00014808825 -0.00061168626 -0.0010466215 -0.00046268047 0.049168397 -0.00083243055 -0.0006162933
0.115157105 -0.00097619195 -0.0004144236 -0.10945255 -0.27426726 -0.13212202 -0.00030678877 -0.1493511
00000000: 8e11 3a3a 38e0 e13d 0742 223a 52b9 943e
00000010: 3662 ccbe 990e 613a 690e a939 ae59 3b3e
00000020: 05f3 893a 54ce 983d 2fc1 07be 5506 623a
00000030: d4c9 30be 64e4 033a c76a 8cbd bebe d53d
00000040: 1b58 643a 6d15 cb3e 1e2b 05bd e5f9 5cbe
00000050: 2029 843a aeeb d339 9c09 b93d 6b58 283a
00000060: dda8 0b3e 229e d23d 54d5 273e 4690 503a
00000070: 226b 8039 404e 563c 77d2 f439 b192 aabc
00000080: c854 303a 0ecf 083e cf2b 873a 9a7c adbe
00000090: d20c 8d3c 8be9 aabc 92f9 623a 733b 483d
000000a0: 6b84 7c39 7750 1fbf 7455 643d 4ed8 8fbd
000000b0: 987d 733a 8fd8 3aba decf cdbd 5594 073a
000000c0: ad8c 7d3a a993 5f39 8421 1b3a 3b4b af39
000000d0: aa15 5339 19c3 c1bd eace 853a 5864 f839
000000e0: 6e85 80be fefd e339 9cc7 7c39 64ae 593e
000000f0: 5942 623e 55b1 963d caea 593a 50f5 973e
00000100: 142a ea39 0ff7 f03d 30f6 d439 db47 0bbe
00000110: a59a b73e 4280 4f3a f922 9639 dc63 093e
00000120: 2f47 033a 141e 273e b166 c63d 68d6 4d3a
00000130: f23a 6dbe f59b 7739 85a5 093d 53a8 483e
00000140: 6d30 f539 4926 c43e 9d26 89be 002e d4ba
00000150: 6974 323a ded4 793a 54dc aa3d 57f3 3f3a
00000160: 58d9 3bbc aa7d 473e 5263 a5bd e02c 7e39
00000170: 28e7 263a 4919 5a3e 45f8 e539 1fc2 36bc
00000180: 783b 243a d584 8ebd 6d2f 9a39 798d 9d3e
00000190: 40ea e23d 23fe 3ebc 0086 493a 2a00 45bb
000001a0: ba8d b739 73ca 843e 252a 823d d721 fa3c
000001b0: 6e98 3839 0d70 ceb9 c82a 46ba 7895 4339
000001c0: ada1 2c3a 60e0 573a ff6c 483a 39e6 463a
000001d0: 06aa 3f3a 971c 853d 1995 283a f03f 503a
000001e0: 4fdb 9a3d 523a 783a f1ad bb39 06c5 bbbc
000001f0: 268a 923e 4b17 273e 35d7 853a a16d 213d
00000200: c2e3 91b9 80aa b9bd 303d 3bba f904 a5be
00000210: 594d cc3e cce9 92b9 66f3 67ba c6ac 2abe
00000220: 713d 60ba c086 51bd 1e84 163e 3227 41ba
00000230: 5c02 233e 335f 39ba bfd0 af3d 254d c1bd
00000240: 6484 9db9 2d14 c3be 066b 993d 288a 693e
00000250: f2e1 67ba 6a78 85ba 372b 92bd 7e20 53b9
00000260: 6f65 d7bd ff5b bfbd 1603 01be 348f 33ba
00000270: 0d62 a7b9 b348 a3bb 8ad3 2dba 2c9a bf3c
00000280: da5a 67ba 098b c0bd 4707 d6b9 8c3b a03e
00000290: be66 27bc 2345 c93c 98a8 6aba aa0e a9bc
000002a0: d19d 82ba 929c 183f e9f5 8b3e 666a b13d
000002b0: b9f4 59ba a035 4ab6 b337 f23d f2ac 65ba
000002c0: d9a4 74ba 37dd 05ba f86b 02ba ebe7 6fba
000002d0: c1c1 55ba 20b1 da3d 7933 58ba ec4e 1cba
000002e0: be14 8c3e b9a1 55b9 899a 03ba 7c12 34be
000002f0: 5cb0 59be d38f 60bd e019 29ba 87fc adbe
00000300: 8d00 52ba 4062 1ebe f90b 70ba b567 f5bb
00000310: 4066 02bc d3ed 0bba 340c 10ba 1ade 55be
00000320: 0d99 ffb9 1360 0abe 3949 af3d ab87 4cba
00000330: 4777 8e3e f133 44ba dd5e 553b c772 0dbe
00000340: 5572 3aba 591d cebe 145b a13e 8735 253e
00000350: 8b9e 16b9 a5e9 4dba cd15 e1bd ec46 1eb9
00000360: 5150 87bd 16a8 0bbe 4330 193c 1f22 75ba
00000370: 5ce3 dab9 cfdf debd 97bc 80b9 84dd dcbc
00000380: 362f 17ba 30f7 633c c070 7eba 9350 833d
00000390: 160a 6abd aaf8 d8bc 219e 2cb9 060e f2bb
000003a0: d88c 24b9 4e66 9c3e a2e7 6abd a7bb c53b
000003b0: ba50 e4b9 b9ec 8939 d59e fe3c 7ba7 05ba
000003c0: d23f 35ba 2348 1bb9 9259 20ba ca2e 89ba
000003d0: ec93 f2b9 cd64 493d 7837 5aba be8e 21ba
000003e0: 7dd7 eb3d 22e7 7fba fe46 d9b9 a928 e0bd
000003f0: c26c 8cbe ff4a 07be 7ed8 a0b9 7fef 18be

attention.query_linear.bias f4 [64]
0.10470245 -0.15098085 -0.1416684 0.17176305 0.20963897 -0.015805874 -0.27323368 0.17163447
-0.17744052 0.15678889 -0.03802533 -0.016490692 -0.13983698 -0.04722147 0.11429273 -0.13189673
0.09197429 0.11257796 -0.08093206 -0.10980947 -0.1637903 -0.10672822 -0.12970309 0.22115599
0.15414573 0.11356251 0.23003364 0.14330883 -0.16367537 0.05997802 -0.071206085 0.1524674
-0.10290877 -0.13418923 0.05792472 -0.13456634 0.0070617986 -0.08242599 0.0830731 -0.0956486
-0.23565382 0.24747637 0.16081347 0.03623098 0.1644789 0.031734742 0.13715869 -0.10377125
-0.14886038 0.0039508506 0.26148006 0.14736302 0.20476729 -0.0811432 -0.07052358 -0.15141422
0.14730647 0.24422014 -0.097335376 -0.10095528 0.15404305 0.17417978 0.21052727 0.009213429
00000000: 3d6e d63d b99a 1abe 8511 11be a7e2 2f3e
00000010: 99ab 563e 527b 81bc 49e5 8bbe f2c0 2f3e
00000020: f8b2 35be 448d 203e 73c0 1bbd 7d17 87bc
00000030: 6d31 0fbe 4d6b 41bd 4f12 ea3d f00f 07be
00000040: 045d bc3d 468f e63d b5bf a5bd cae3 e0bd
00000050: a5b8 27be 5394 dabd e3d0 04be b776 623e
00000060: 61d8 1d3e 7693 e83d f08d 6b3e 8dbf 123e
00000070: 849a 27be 83ab 753d 7fd4 91bd 6a20 1c3e
00000080: d5c1 d2bd e768 09be 7942 6d3d c2cb 09be
00000090: a966 e73b f5ce a8bd 3b22 aa3d 6ae3 c3bd
000000a0: 3c4f 71be 726a 7d3e 49ac 243e f066 143d
000000b0: 286d 283e 4afc 013d 5473 0c3e 0586 d4bd
000000c0: db6e 18be 2376 813b b7e0 853e 55e6 163e
000000d0: 84ae 513e 682e a6bd ab6e 90bd 540c 1bbe
000000e0: 82d7 163e d814 7a3e c557 c7bd a4c1 cebd
000000f0: 76bd 1d3e 2f5c 323e 7694 573e ecf3 163c

attention.key_linear.weight f4 [64, 64]
0.0007948308 -0.13995193 0.0007411975 0.44225052 -0.16199695 0.00033209418 0.0003655429 -0.43376186
0.0010450069 0.29743627 -0.06215138 0.0006074132 0.2596606 0.00075826613 0.124347195 0.2452857
0.0008033249 0.2795575 -0.13238174 -0.26096258 0.00045030357 0.0009495202 -0.1288527 0.0009111511
-0.2695499 0.2422577 -0.3700683 0.0007204887 0.00030441722 -0.010320338 0.00080116745 -0.11166533
0.0004111005 -0.2991682 0.00025411934 -0.06629446 0.046235815 -0.11119917 0.0005939516 -0.23939456
0.00037524776 -0.12462731 0.008537359 0.12998457 0.0010210774 -0.00053644634 0.49582428 0.0005704915
0.0006216016 0.0008474955 0.00057382515 0.00097334734 0.00084575586 -0.1408172 0.00035824403 0.00093672785
-0.21485172 0.00064801885 0.0005757557 -0.28179798 0.2785065 0.08006279 0.00096574886 -0.24288177
0.0007900202 -0.18119387 0.00033164246 0.33036435 0.13565373 0.00040333378 0.00080029684 -0.3280912
0.00033899414 0.558087 -0.047203977 0.00036238387 -0.24965505 0.0007466918 -0.044478808 -0.027353536
0.0010092929 0.30467066 0.27716842 -0.28204724 0.00047957525 0.001003037 -0.03773853 0.00068344106
-0.09177383 -0.030209484 -0.27221626 0.00070721266 0.00044853048 0.04858437 0.0009826839 -0.3918755
0.0007098584 -0.21064495 0.000607092 0.22808872 -0.101544686 -0.38763732 0.00050268864 -0.09248651
0.00025314666 0.28958386 0.058988336 -0.04478926 0.0008163576 -0.00054726057 0.26333913 0.0004659975
0.00031564297 0.0005805781 0.00058829295 0.00066430104 0.0005136159 -0.029590415 0.0006693285 0.0005077116
-0.021276318 0.00015918851 0.00095248985 -0.11456254 0.21415335 0.2555 0.00031043735 -0.35754994
-0.00057831185 0.13664404 -0.00022483783 -0.40217543 0.19880198 -0.0009428099 -0.00026307307 0.41011652
-0.0003552955 -0.24589375 0.091303274 -0.0009481552 -0.2683273 -0.0007462144 -0.14731474 -0.24973315
-0.000983142 -0.26685566 0.1865358 0.27799764 -0.000816079 -0.0006142637 0.14701018 -0.0010066162
0.27600002 -0.24731766 0.3332515 -0.00082445826 -0.00032037267 0.04051536 -0.0006711577 0.100753315
-0.0007950959 0.28219074 -0.0007038789 0.08976357 -0.06180974 0.100863226 -0.0005721852 0.24875918
-0.0007174624 0.19698197 0.007262572 -0.15245028 -0.0009936752 4.2674634e-05 -0.53110373 -0.0010516164
-0.0002954953 -0.00029791216 -0.0008595819 -0.0010113809 -0.00063948473 0.16565636 -0.00054532755 -0.0009214027
0.24115926 -0.00026666926 -0.00021343428 0.28392538 -0.27840194 -0.072338566 -0.00066978997 0.22812189
-0.00090248964 0.2611777 -0.00046272622 -0.6394303 0.07512806 -0.0007007235 -0.00054598175 0.40218624
-0.0008667312 -0.55382675 0.15941417 -0.00094311906 -0.21325375 -0.00085773715 0.074124485 -0.22861855
-0.00052832405 -0.3030178 0.002193292 0.23372322 -0.00056564197 -0.00044620625 0.14318407 -0.00035250047
0.2684425 -0.2261364 0.38896802 -0.00044676638 -0.0007571452 0.028798306 -0.00014822143 0.15442675
-0.0008355903 0.34873825 -0.0009583393 -0.0414317 -0.019072587 0.15289381 -0.0006896852 0.2628327
-0.0009960963 0.0018240989 -0.042430524 0.07117169 -0.00076349947 -5.3843232e-05 -0.278681 -0.0010039618
-0.0009997047 -0.00024874188 -0.0006765251 -0.000256204 -0.00028393106 0.1654109 -0.00080547883 -0.0008523472
0.23579198 -0.00018241255 -0.00044769535 0.28653666 -0.27791488 -0.20334317 -0.0005799573 0.31060094
00000000: 315c 503a 8f4f 0fbe ec4c 423a a96e e23e
00000010: 87e2 25be ed1c ae39 56a6 bf39 0916 debe
00000020: 9df8 883a 9149 983e 7292 7ebd cf3a 1f3a
00000030: 3cf2 843e 61c6 463a bea9 fe3d 2d2c 7b3e
00000040: 3996 523a 2922 8f3e 148f 07be e39c 85be
00000050: b916 ec39 39e9 783a f6f1 03be 51da 6e3a
00000060: 7202 8abe 6712 783e 9879 bdbe 2edf 3c3a
00000070: 309a 9f39 a316 29bc 7005 523a cbb0 e4bd
00000080: fa88 d739 932c 99be 523b 8539 64c5 87bd
00000090: c461 3d3d 64bc e3bd 6bb3 1b3a d923 75be
000000a0: e7bc c439 9a3c ffbd 47e0 0b3c ad1a 053e
000000b0: acd5 853a 4ea0 0cba aedc fd3e 098d 153a
000000c0: faf2 223a 762a 5e3a c16c 163a 3c28 7f3a
000000d0: b7b5 5d3a 6232 10be b3d2 bb39 be8e 753a
000000e0: 1702 5cbe cfdf 293a 50ee 163a d347 90be
000000f0: 6798 8e3e f6f7 a33d 4f2a 7d3a 00b6 78be
00000100: 5c19 4f3a e38a 39be 4ce0 ad39 8425 a93e
00000110: d0e8 0a3e 8b76 d339 03cb 513a 92fb a7be
00000120: 06bb b139 cade 0e3f f558 41bd 57fe bd39
00000130: 93a5 7fbe a3bd 433a 692f 36bd 8614 e0bc
00000140: 404a 843a cbfd 9b3e 05e9 8d3e 7f68 90be
00000150: 806f fb39 5678 833a b893 1abd f428 333a
00000160: ebf3 bbbd e179 f7bc ee5f 8bbe 3d64 393a
00000170: be28 eb39 6800 473d 66cd 803a e8a3 c8be
00000180: ca15 3a3a 4fb3 57be 4125 1f3a 1790 693e
00000190: a9f6 cfbd 6678 c6be ddc6 033a 9169 bdbd
000001a0: c5b8 8439 5644 943e c19d 713d f174 37bd
000001b0: d500 563a 0976 0fba 63d4 863e 2051 f439
000001c0: e27c a539 f031 183a ac37 1a3a 7d24 2e3a
000001d0: 2ea4 063a 9967 f2bc e075 2f3a f317 053a
000001e0: ac4b aebc d7eb 2639 83b0 793a c49f eabd
000001f0: 044b 5b3e e5d0 823e 32c2 a239 c910 b7be
00000200: da99 17ba 6aec 0b3e 72c2 6bb9 f0e9 cdbe
00000210: bf92 4b3e e726 77ba 12ed 89b9 cbfa d13e
00000220: f446 bab9 92cb 7bbe 36fd ba3d 9e8d 78ba
00000230: 3262 89be 9a9d 43ba add9 16be 0cba 7fbe
00000240: c5dc 80ba 4ea1 88be 3e03 3f3e b555 8e3e
00000250: 22ee 55ba 8a06 21ba d689 163e 6ff0 83ba
00000260: e04f 8d3e d740 7dbe f19f aa3e 7520 58ba
00000270: b1f7 a7b9 6ff3 253d a1f0 2fba c157 ce3d
00000280: fc6d 50ba 4e7b 903e 8384 38ba f6d5 b73d
00000290: 362c 7dbd 6191 ce3d b3fe 15ba baba 7e3e
000002a0: 1614 3cba a4b5 493e dffa ed3b ed1b 1cbe
000002b0: 353e 82ba 8afd 3238 6af6 07bf 64d6 89ba
000002c0: b5ec 9ab9 1831 9cb9 9155 61ba 5090 84ba
000002d0: 18a3 27ba d2a1 293e 50f4 0eba 4a8a 71ba
000002e0: 74f2 763e becf 8bb9 54cd 5fb9 ab5e 913e
000002f0: b38a 8ebe 3e26 94bd d894 2fba c998 693e
00000300: 0e95 6cba 15b9 853e 109a f2b9 b4b1 23bf
00000310: bedc 993d c2b0 37ba 3720 0fba 5beb cd3e
00000320: 5935 63ba 97c7 0dbf 783d 233e a63b 77ba
00000330: 315f 5abe c4d9 60ba 94ce 973d fb1a 6abe
00000340: 3a7f 0aba 2625 9bbe 55bd 0f3b 2455 6f3e
00000350: 9747 14ba caf0 e9b9 d89e 123e d0cf b8b9
00000360: 4c71 893e 4d90 67be d126 c73e f83b eab9
00000370: 277b 46ba 6dea eb3c e36b 1bb9 0c22 1e3e
00000380: 840b 5bba d28d b23e 1039 7bba 49b4 29bd
00000390: 1d3e 9cbc 3290 1c3e fecb 34ba 0292 863e
000003a0: 728f 82ba 9a16 ef3a a1cb 2dbd 77c2 913d
000003b0: 9525 48ba bbd5 61b8 47af 8ebe 5e97 83ba
000003c0: 8608 83ba 9269 82b9 d558 31ba 1e53 86b9
000003d0: 95dc 94b9 7a61 293e c526 53ba 0d70 5fba
000003e0: 7473 713e ff45 3fb9 a7b8 eab9 efb4 923e
000003f0: dc4a 8ebe 3139 50be 4708 18ba 1607 9f3e

attention.key_linear.bias f4 [64]
-0.15030016 0.4106829 0.22027521 0.08407836 0.022937473 0.058853988 0.14489435 0.16545053
-0.17883067 -0.3309026 0.37774935 -0.28352043 0.32521135 0.023899471 0.49837452 -0.060637888
-0.15752032 0.03395595 0.12584262 0.118611515 0.17375687 -0.034748394 -0.5523333 -0.37772477
-0.19853969 0.14678301 -0.16813752 -0.25810984 0.08889255 0.50392586 -0.2503979 -0.2882374
0.26435 0.25219834 0.10600585 0.23190045 -0.14431812 -0.109119505 0.07937557 -0.20740634
-0.51210797 -0.20575984 -0.23021397 0.5222511 -0.07750909 -0.39585918 -0.19990811 -0.16093032
0.060132258 -0.026507257 0.12186101 -0.23930715 0.23325926 -0.5048894 0.014718558 0.26980075
-0.17800772 0.3890026 -0.07027025 -0.23378754 -0.23769934 -0.20362912 0.32173616 0.06768563
00000000: 49e8 19be 0745 d23e d38f 613e 4631 ac3d
00000010: 5ee7 bb3c e110 713d 2f5f 143e dd6b 293e
00000020: 631f 37be 116c a9be 5d68 c13e 9729 91be
00000030: 1a82 a63e d3c8 c33c f22a ff3e 6f5f 78bd
00000040: 024d 21be 6515 0b3d e3dc 003e 98ea f23d
00000050: 52ed 313e 5554 0ebd b765 0dbf 2465 c1be
00000060: fd4d 4bbe 494e 163e 3e2c 2cbe f926 84be
00000070: 4c0d b63d 4901 013f 2734 80be da93 93be
00000080: e258 873e 2420 813e 9819 d93d 5077 6d3e
00000090: 21c8 13be 0c7a dfbd a98f a23d 5462 54be
000000a0: 8219 03bf b5b2 52be 36bd 6bbe 40b2 053f
000000b0: 16bd 9ebd 0eae cabe b6b4 4cbe ebca 24be
000000c0: 3e4d 763d bf25 d9bc 4492 f93d ef0c 75be
000000d0: 84db 6e3e 6f40 01bf 1b26 713c 5323 8a3e
000000e0: a847 36be 592b c73e d9e9 8fbd 0066 6fbe
000000f0: 7567 73be 2784 50be 9aba a43e c39e 8a3d
